src/1d-heat/model.pt (torch, 55279 bytes, 9 tensors)

weight f4 [64, 2]
000000 e8 92 4c be e8 b6 a5 3d 84 ed bc be 33 7a d4 be
       -0.19977915 0.08091527 -0.3689996 -0.4149948
000010 d8 dc c5 be b7 36 d5 3e da c5 a2 3e 18 c1 e7 3d
       -0.38645053 0.41643307 0.31791574 0.113161266
000020 2e 51 71 3e 49 2a b9 3e d6 fc 44 3f 44 17 a5 be
       0.23566124 0.36165074 0.769483 -0.32244313
000030 bc e0 7b 3e f8 3a fa be 3b 74 71 be 27 57 f9 bd
       0.24597448 -0.48873115 -0.23579495 -0.12174826
000040 ce 0f 3d 3f ad 8b ef 3c d5 74 2f bf 8d d0 b5 be
       0.7385224 0.029241407 -0.68537647 -0.35510674
000050 65 5a 7e be 56 fd 25 3f 80 40 36 be 00 69 09 bf
       -0.2483917 0.64839685 -0.17798042 -0.5367584
000060 4c 6f 80 3e e5 6f f7 be e0 41 4a be ce 19 0c bf
       0.25084913 -0.48327556 -0.19751692 -0.54726875
000070 6f 4d 00 bf 0c c2 23 3f 92 be 00 3f 51 7f aa 3d
       -0.50118154 0.6396797 0.5029079 0.08325065
000080 80 60 d7 3c 58 8f f0 bd 36 85 0c bf 7c 4b b7 bd
       0.026291132 -0.11746091 -0.54890764 -0.089499444
000090 25 a8 05 be 28 8d e5 3e 7c ef 04 bf 87 00 1f 3f
       -0.13052423 0.44834256 -0.51927924 0.6211018
0000a0 90 21 d5 3e bf a2 4f 3e 42 fa 4b 3f c0 e2 83 be
       0.4162717 0.20276926 0.7967874 -0.25758934
0000b0 02 ed 1c 3f 03 c9 86 3e ae d4 a6 3e ab 7f 3c bd
       0.61299145 0.26325235 0.32584137 -0.04602019
0000c0 ab 85 af 3b b9 b3 2f be 51 4a b0 be 99 29 15 3f
       0.0053565106 -0.17158403 -0.344317 0.582666
0000d0 3d e9 e7 be ee 19 c5 3e 2d ed ab be b8 20 a1 be
       -0.45295134 0.38496345 -0.33579388 -0.31470275
0000e0 bb 08 11 bf 58 e5 8f bd 74 18 cd be 7b 85 0a 3f
       -0.56653947 -0.07026166 -0.4005772 0.54109925
0000f0 08 a2 10 be ae 6e af 3e 5c 1a d4 3e 24 8f 2b bf
       -0.1412431 0.3426413 0.4142636 -0.6701529
000100 2b dc 00 3f bf 3c d6 be 4a 61 a3 3e c9 ce a7 3e
       0.5033595 -0.4184322 0.31910163 0.32774952
000110 82 10 95 be 7a 98 56 be f0 fc 3a 3d 10 1c 20 3d
       -0.29114157 -0.20956603 0.045651376 0.039089262
000120 e7 f5 98 3e 76 46 e2 3e 20 e6 4b 3e df da 1b 3f
       0.2987511 0.44194382 0.19912004 0.60880846
000130 34 e2 0c bf 3c 0f 17 bf 32 41 dc 3e 7e 94 4e bd
       -0.5503266 -0.5900762 0.4301849 -0.050434582
000140 69 69 d8 3e cb 20 fe 3e 80 2e 98 bd 1c 59 ef be
       0.42267922 0.49634394 -0.07430744 -0.46747673
000150 08 d2 62 bf cf 33 a5 be 12 bf 26 3f 0b cd 66 3e
       -0.8860173 -0.3226609 0.651353 0.22539155
000160 96 4a e6 be 50 fe e1 3e d0 b5 07 3f 20 d3 cc 3c
       -0.4497878 0.44139338 0.530118 0.025003016
000170 00 ab 12 be ff af ff be 31 a2 d0 be e6 46 c4 3e
       -0.14323044 -0.49938962 -0.40748742 0.3833534
000180 39 5a 27 3e 98 a5 ac be 84 ed 0b be 54 32 22 be
       0.16343011 -0.33720088 -0.13664824 -0.15839511
000190 2f a8 32 bf 6a d8 ce 3e 1a 2d 73 be b0 14 dc bd
       -0.6978788 0.40399486 -0.23747674 -0.10746133
0001a0 ae a7 2e bf 1f 09 03 3f 89 b8 4f 3f 67 95 a1 3c
       -0.6822461 0.5118579 0.81140953 0.01972456
0001b0 9a 2c 32 be a5 f7 f0 3e a1 86 45 be f3 d1 87 3e
       -0.17399827 0.47063938 -0.19289638 0.26527366
0001c0 1b bf 34 3f 10 55 0b bf 42 d4 02 be e2 a6 b1 be
       0.70604104 -0.5442667 -0.12776282 -0.34697634
0001d0 77 4f e9 3e 56 5d 95 3e 39 cf d1 be ed 9e c3 be
       0.4556844 0.29172772 -0.4097841 -0.38207188
0001e0 06 6c 18 bf e0 65 09 3f 00 94 c4 3a 03 7d 11 3f
       -0.5953983 0.53671074 0.0014997721 0.5683138
0001f0 16 0d 0e bf a3 2d 01 bf 4b 8a 34 bf b0 88 fe 3d
       -0.5548872 -0.5046026 -0.7052352 0.12428415

bias f4 [64]
000000 38 c1 44 be 8b b3 22 bf 27 f4 87 be 37 91 18 bf
       -0.19214332 -0.6355521 -0.2655346 -0.5959658
000010 ca ec 2f 3f c1 cf da 3d 5e a1 c3 be bc 6c bf 3e
       0.68720686 0.10684157 -0.3820905 0.37387645
000020 1e 38 ea bc 40 37 01 be 0e 78 f3 be 22 e3 ee be
       -0.028591212 -0.12618732 -0.47552532 -0.46657664
000030 86 a4 0d 3f 80 a2 74 be ba b2 9d be 05 3a 19 bb
       0.5532917 -0.23890114 -0.3080042 -0.002338053
000040 eb 4c a2 be 55 b0 22 3f 8f 82 82 be 39 18 34 bf
       -0.3169931 0.6355031 -0.25490233 -0.7034946
000050 14 a7 fc bd 67 63 62 3e 78 19 2f 3e ff 6b c4 3e
       -0.12336555 0.22108231 0.1709956 0.38363644
000060 8b 5c 24 3f ad 08 18 bf d8 6a d6 be 79 19 1e bf
       0.6420371 -0.5938824 -0.4187839 -0.6175762
000070 40 2c fc bd 8b da b7 3e 2e 95 17 bf be 9d c5 be
       -0.123131275 0.35908923 -0.59212005 -0.3859691
000080 f5 f3 ed be 2d 7f c2 3e 31 ab bc be 68 35 e8 bd
       -0.46475187 0.37987652 -0.3684936 -0.113383114
000090 ee 2a b1 3d 71 2c ea be c6 6a d0 be f9 f7 9c 3d
       0.08650766 -0.4573703 -0.40706462 0.076644845
0000a0 6f 9b 21 bf f2 df 18 bf 78 80 f6 3d 36 9c d8 3e
       -0.631278 -0.59716713 0.12036222 0.4230668
0000b0 ff ff e5 be ba 9c 27 ba ec d1 21 3f c6 89 af 3e
       -0.44921872 -0.00063938985 0.6321094 0.342848
0000c0 69 c6 c2 bd 90 c8 4b bd c2 a9 24 bf 90 63 62 bd
       -0.095105 -0.04975182 -0.6432153 -0.05527073
0000d0 26 d4 24 bf 4d 73 d7 bd a7 e7 13 3f 75 1c ea 3e
       -0.6438621 -0.10520039 0.5777535 0.45724836
0000e0 39 e5 b5 3e e3 67 15 3f 5d cd df 3e 00 00 20 b5
       0.35526446 0.58361644 0.43711367 -5.9604645e-07
0000f0 8c 5f d6 3e 96 1c 20 bf 44 7f 06 bf 94 24 d9 be
       0.4186977 -0.6254362 -0.5253794 -0.4241072

weight f4 [64, 64]
000000 a8 52 26 3d 5a 48 a0 bd 67 3f a7 3d 78 22 f6 bc
       0.04060617 -0.078263 0.0816639 -0.030045733
000010 7f 6d 8c 3c e0 b2 0e bd 8e 94 d0 3d b2 eb dd 3d
       0.017142056 -0.034838557 0.101845846 0.10835971
000020 35 ee 4e 3d 44 ae 8c 3d 67 d6 d2 bd 20 34 cd bb
       0.05052014 0.06869176 -0.102948 -0.0062623173
000030 4d ea ba 3d e8 f9 99 bd c3 e8 73 bd 5e 46 05 be
       0.091267206 -0.07518369 -0.05954815 -0.13015124
000040 08 a8 ba 3c 74 6d 07 bd f8 cd b9 3c f4 95 44 bd
       0.022785202 -0.033063367 0.022681221 -0.04799457
000050 fc 37 e1 3c 1d af af bd 94 1a 1a 3d 21 4f c9 bc
       0.027492516 -0.08578322 0.037623003 -0.024573864
000060 3f 5d c4 bd 14 01 28 3d 00 2b 89 3a 3c 7c 38 3d
       -0.09588098 0.041016653 0.0010465086 0.045040354
000070 00 21 7d 3c 18 76 b6 3d b0 7d d9 3d 80 ae f7 3b
       0.015449762 0.08909243 0.10619676 0.007558644
000080 c4 f4 7c 3d 2e 73 f1 3c 52 fc e3 bd 00 f0 12 3a
       0.061756864 0.029473867 -0.11132111 0.0005605221
000090 61 9b d8 bd 57 bc be bd 8a 02 c0 3d 44 45 0b bd
       -0.10576511 -0.09313267 0.09375484 -0.034001604
0000a0 99 b4 a6 bd 1c fb 30 bd 34 d9 7f 3d 97 8e 08 bd
       -0.08139915 -0.043208227 0.062463 -0.03333911
0000b0 a7 2b 55 bb 72 c7 96 3d e7 a7 b1 bd 26 7e 9a 3d
       -0.003252724 0.0736226 -0.08674603 0.07543592
0000c0 00 48 77 3a e6 0a f2 bd 08 ed fa 3d c0 4f cd bc
       0.0009433031 -0.11818485 0.122522414 -0.025062442
0000d0 a4 73 44 bd 0f ce aa 3c d7 95 7a bd 83 b0 ff bd
       -0.047961846 0.02085021 -0.061178055 -0.12484839
0000e0 9c 71 61 bd 7b 6c bf bd 6a c4 a6 3c 38 ff 27 bd
       -0.055039987 -0.09346863 0.02035733 -0.04101488
0000f0 3e 1c b8 3d 4e 12 c3 bd c6 d4 a7 3d 9e 30 fd bd
       0.08989762 -0.09524976 0.0819488 -0.123627886
000100 60 2c f0 3b 00 e4 ed 3b 25 88 9b bd 70 9b 58 bd
       0.0073295087 0.0072598457 -0.07594327 -0.05288261
000110 d1 44 b3 bd 4a eb 2f 3e 20 95 23 3d 56 d3 41 ba
       -0.0875336 0.171796 0.03993714 -0.0007393857
000120 9b d9 47 3d da 19 f7 bd dc 02 48 3d 80 c0 ca 3d
       0.04879151 -0.12065478 0.048830852 0.09899998
000130 30 66 ca bd d4 48 6a bd 94 4e 7c 3d bd 95 8e 3d
       -0.09882772 -0.05719836 0.061598375 0.06962154
000140 48 df c8 3c d7 fe 8e 3d 8c e3 69 bd c8 98 2e 3d
       0.024520531 0.069822006 -0.05710177 0.042626172
000150 bb 62 f2 3d 5c 68 51 bd aa e3 a4 3d 12 59 0a 3e
       0.118352376 -0.051124915 0.08051236 0.1351054
000160 0c 81 be bd cc 69 eb 3d ca 3f c7 3d 10 88 69 bd
       -0.093019575 0.114947885 0.09728964 -0.057014525
000170 a0 20 de 3d eb 91 d9 bc 38 1e af 3d c2 ba 20 3d
       0.108460665 -0.026558837 0.08550686 0.039240606
000180 ef 76 8f bd c6 33 0e bd 80 9c e3 3b 34 64 38 bd
       -0.07005107 -0.034717344 0.0069461465 -0.045017436
000190 a3 f3 c9 3b 20 ab 87 3b 60 53 97 bb 8d ad 2f 3d
       0.006163077 0.0041402727 -0.0046180934 0.04289012
0001a0 74 c9 fb bd 20 8b 2d 3c f1 96 10 3d ed 13 4b bd
       -0.122942835 0.010592252 0.0353002 -0.04957955
0001b0 d2 9a ce bd cf df 2c 3e 05 52 80 bd 6a 31 64 bc
       -0.100881234 0.16882251 -0.06265644 -0.013927797
0001c0 15 7a 06 3d 60 51 c2 bb d8 5b 95 bd 98 b4 1d bd
       0.03283127 -0.005930111 -0.072929084 -0.038502306
0001d0 60 ec 21 3c 9c dd 70 3d dc be ca 3d 6f d1 cf 3d
       0.009883016 0.058805093 0.09899685 0.10147368
0001e0 fb 9d 5a bc 07 2c af 3d 46 29 66 bd d0 de db bd
       -0.01334333 0.085533194 -0.056191705 -0.107358575
0001f0 00 0b 01 3e 98 09 a9 bd 78 3e 18 bd 9c a8 83 bd
       0.12601852 -0.08253783 -0.03716895 -0.06428644
000200 74 43 8d bd fc e7 b3 3d 3b 34 89 3d 50 9e 8d bc
       -0.06897631 0.08784482 0.06699415 -0.017287403
000210 9f 0d ea 3d a4 7a e3 3d 1c 40 99 bd 6a f5 c4 3d
       0.11428379 0.11107376 -0.07482931 0.096171215
000220 28 3d a5 bd 60 f8 8a 3b 50 e9 03 3d 78 15 ef bc
       -0.08068305 0.0042410344 0.032204926 -0.029185042
000230 4b ac 25 bd 50 6d 98 3d 1f 56 12 3d db 12 65 3c
       -0.040447515 0.07442725 0.035726663 0.013981546
000240 00 72 59 3b e7 00 28 3e a5 c9 9a 3d 20 a0 fa 3d
       0.0033179522 0.16406594 0.07557992 0.12237573
000250 53 08 b5 3c 29 d5 70 3d f6 c9 28 3a 91 2c 59 3d
       0.022098696 0.058797035 0.0006438786 0.053021017
000260 ee 04 a0 bd c6 06 d3 3d e0 eb 07 bc 28 b1 92 3c
       -0.0781344 0.10304026 -0.008295983 0.01790674
000270 04 50 b6 bd ce 17 97 bb da 7e 98 bd 35 d6 85 bd
       -0.089019805 -0.004610992 -0.0744607 -0.065349974
000280 26 86 aa bc 4e 58 85 3d a0 6e ab 3c 24 f1 b5 3d
       -0.02081592 0.065109834 0.020926774 0.088838845
000290 28 98 86 bd 16 72 4b 3d cc 54 43 bd 83 4f 86 3d
       -0.0657199 0.049669348 -0.04768829 0.065581344
0002a0 38 5b 65 bd a2 85 d3 3d f0 f2 22 bd ef 07 12 bd
       -0.055995196 0.10328223 -0.039782465 -0.035652097
0002b0 0c 1f 1b bd 38 40 9a 3d 4e 20 85 3d 79 06 22 bd
       -0.037871405 0.0753178 0.06500302 -0.039556954
0002c0 02 22 43 3d b8 8c 9c bd 12 0c f4 3d 7a 1a e3 3d
       0.047639854 -0.076440275 0.11916365 0.110890344
0002d0 88 c6 f4 3d 0b 5f 01 be 6b 96 15 3e b6 3e c8 3d
       0.11951929 -0.12633912 0.14608161 0.09777586
0002e0 51 d2 63 3c df a1 a9 3d 94 b0 e6 bd 1c 9f 70 3d
       0.013905124 0.082828276 -0.11264148 0.05874549
0002f0 f2 c7 11 3d 98 c4 f9 3c c0 9d 77 3b 7c 8d 2e bd
       0.035591073 0.030489251 0.0037783235 -0.0426154
000300 a0 50 3e bd 50 21 d6 3d 14 01 92 3d 90 41 4c 3c
       -0.04646361 0.104555726 0.07129112 0.012466803
000310 ae 25 06 be 4c 62 a0 3d 74 a8 cb bd e4 ea 98 3d
       -0.13100311 0.07831249 -0.09944239 0.07466677
000320 21 a6 fb bd 58 0f ac 3d 9c 4d 4a 3d 2a 37 8b bd
       -0.12287546 0.08401364 0.04939042 -0.06797631
000330 5f 19 1b bd a4 c6 0f 3d ca d3 8f bd 8f f9 4a 3c
       -0.037865993 0.035101548 -0.070228174 0.012388601
000340 00 ba c9 3d 58 13 55 bd 9a df a0 3d 70 1d 80 3d
       0.0984993 -0.0520204 0.078551486 0.06255615
000350 3e 5e 82 3c 1d 66 ce 3d e7 92 94 3d c9 18 df b9
       0.015914079 0.1007807 0.07254582 -0.0004255234
000360 81 c8 2f bc 14 a5 61 3d e2 80 f0 bd d2 d8 ec bd
       -0.010728956 0.05508907 -0.117433324 -0.11564793
000370 54 4e e7 3d d4 0c de bd f4 40 74 3d f5 72 8e bd
       0.11294237 -0.108422905 0.059632257 -0.0695552
000380 9f de ac 3d c8 21 90 bd dc ee c8 bd 04 af 30 bd
       0.08440899 -0.07037693 -0.09811184 -0.043135658
000390 c0 b8 88 3d ec 82 1c bd 20 5b 73 bd 54 bf 80 3d
       0.06675863 -0.038210794 -0.059413075 0.06286493
0003a0 78 0b c3 3d a0 5f cc 3d 5e 73 d2 bd 3d 26 94 3d
       0.09523672 0.099791765 -0.10275911 0.07233856
0003b0 f0 5a 93 3d a1 03 e4 3d 3f 36 8a 3d fe d3 ef bd
       0.07195079 0.11133505 0.06748628 -0.11710356
0003c0 b8 e5 eb bd 9a e3 d8 3d 9e 88 bf bd 22 f4 99 3d
       -0.11518425 0.105902866 -0.093522295 0.07517268
0003d0 12 ba a8 bd 2d 89 e8 3d bb cd d1 bc 78 0b 01 be
       -0.08238615 0.11354289 -0.025610795 -0.12602031
0003e0 07 95 02 be df 7f 97 b9 57 8f cd bd 50 ba d3 3d
       -0.12752162 -0.00028896236 -0.100371055 0.10338271
0003f0 b4 5d a9 3d 88 6c ae bc 20 a4 5d 3d 78 d5 6a bd
       0.082698256 -0.021291986 0.0541116 -0.057332486

bias f4 [64]
000000 1a e7 30 bd dd 90 1a bd 38 d4 ce 3d 65 ba 23 bc
       -0.043189146 -0.03773581 0.10099071 -0.00999317
000010 ca 17 1c bd 5d b1 c7 3d 1e 9c ee bd bc f1 f4 bd
       -0.038108625 0.09750626 -0.11650871 -0.1196017
000020 29 84 10 3e 38 a2 94 bb af 69 08 3e 28 e4 76 bd
       0.14112915 -0.0045359395 0.13321565 -0.06027618
000030 2b 34 a4 3d c3 a8 05 3d 77 be 32 3e a9 75 4e bd
       0.08017763 0.032631647 0.17455469 -0.05040518
000040 c9 5b 26 3c 4c f8 36 3d 26 4a d6 3d fb a7 fd bc
       0.010153719 0.044670388 0.104633614 -0.030963888
000050 fb bd 95 bd f9 1b 52 3d 40 60 1a bb 26 7e b3 3d
       -0.073116265 0.051296208 -0.0023555905 0.08764295
000060 6d a7 dc 3c 67 b4 fb bb d0 d8 30 bd b7 98 e0 3c
       0.026935304 -0.0076814177 -0.04317552 0.02741657
000070 d8 f6 f5 3d 47 d0 01 3d 5e 0e dc 3c c2 94 a3 bd
       0.12009972 0.03169277 0.02686232 -0.07987358
000080 6b 48 51 3d b8 4a e1 bd 1f 27 a3 bd d5 84 03 3d
       0.051094454 -0.110005796 -0.07966446 0.0321091
000090 3c e2 40 bd 34 b3 32 bd 10 5c 5a 3d 00 87 82 bd
       -0.047090754 -0.043627933 0.053310454 -0.063734055
0000a0 28 cf 73 bd 60 0c ba bd 7c 74 0c 3d 88 cd bf 3b
       -0.05952373 -0.090843916 0.034290776 0.0058533587
0000b0 43 81 d8 bd 67 6f 36 be c0 3a 3a bd 84 bd 35 bd
       -0.1057153 -0.17815934 -0.045466185 -0.04437019
0000c0 f1 ce b9 bd 33 d4 7e bd e7 96 d5 bd 6c 7a d2 3d
       -0.09072674 -0.062214088 -0.10429173 0.10277256
0000d0 a0 19 f0 bd 7b dd 0f 3d d5 ea e7 bd 60 a0 78 bd
       -0.117236376 0.03512333 -0.113240875 -0.06069982
0000e0 bd 1c e0 bd b4 3d 35 3d 02 c7 a9 bd e1 ea 72 3d
       -0.109429814 0.044248298 -0.08289911 0.05930603
0000f0 3d 19 26 3d 6e 86 c0 bd 05 a8 10 3e 20 c4 61 bd
       0.040551413 -0.094006404 0.14126594 -0.05511868

weight f4 [64, 64]
000000 fc 40 6c bd d4 0e 56 3d 78 ab a1 bc d2 09 d5 bd
       -0.05767916 0.052260235 -0.019735083 -0.10402264
000010 92 13 d3 bd c0 d4 6c bd 80 cc cb 3b a0 0a 59 bc
       -0.10306467 -0.05782008 0.0062194467 -0.013247162
000020 d8 18 e6 bd 2a 24 ef bd 6c 85 4b bd 1a d9 c0 bd
       -0.11235207 -0.116768196 -0.049687788 -0.09416409
000030 d0 60 42 3d 0c 9a 00 bd 2a 92 ab bd 7c 6e 0e bd
       0.04745561 -0.03139691 -0.08377488 -0.034773335
000040 08 c7 33 3d 7e 34 aa bd 60 15 96 bd cc 72 bd 3d
       0.043890983 -0.08310793 -0.07328296 0.092504114
000050 48 42 0a 3d 42 70 d3 3d d4 15 40 3d 16 db df bd
       0.033754617 0.10324146 0.046895817 -0.10930459
000060 d4 d0 69 bd ec 30 65 3d 1e e9 c6 3d 40 ee 09 bd
       -0.05708392 0.05595486 0.09712432 -0.03367448
000070 28 0b e5 3d bc ea cd 3d 34 1a 07 bd d6 1d 80 3d
       0.111837685 0.10054538 -0.032983974 0.06255691
000080 64 8e 04 3d 78 04 26 bd dc bd 5f 3d e0 1f f9 bc
       0.032362357 -0.040531605 0.054624423 -0.030410707
000090 0c 73 1f 3d 98 8a 90 bc 9e b5 ef bd ec 73 6b bd
       0.038928077 -0.017644212 -0.117045626 -0.0574836
0000a0 d0 80 7e 3c 10 88 8c bc 10 60 d6 3d b8 f2 a8 3c
       0.015533641 -0.017154723 0.10467541 0.02062355
0000b0 7c fb cb bd 02 52 99 3d 60 d2 24 3d 70 92 75 bd
       -0.09960076 0.07486345 0.04023969 -0.059954107
0000c0 dc c9 3d bd c6 c0 a5 3d e8 45 e7 3c 10 ea ff 3d
       -0.046335086 0.08093409 0.028231576 0.12495816
0000d0 36 1a 82 3d ec 2d 8b 3d b8 d9 03 3d 5a e8 f1 bd
       0.063526556 0.06795868 0.032190055 -0.11811896
0000e0 44 3a 27 3d 94 6d 1f 3d 60 a9 cc bc 58 a9 4c 3d
       0.04082705 0.03892286 -0.024983108 0.049966186
0000f0 a6 6f 93 bd 1e f5 88 3d 04 e7 e0 bd 98 54 e1 bd
       -0.071990296 0.066873774 -0.10981563 -0.11002463
000100 8a d1 20 bd e1 e1 0d 3d 81 eb 9b 3d 87 1e 6f 3d
       -0.039262332 0.034639243 0.07613278 0.058378723
000110 4f f9 2c bc c1 77 2a bd b0 ef 60 bc c5 2d b7 bc
       -0.010557487 -0.041618112 -0.013729021 -0.022360692
000120 07 80 c4 3d df 5a 9c 3a db 89 8e bd 80 15 8c 3a
       0.09594732 0.0011928937 -0.069598876 0.001068756
000130 8a 33 88 bb b6 9b 01 be 7b ec ad 3d dd 26 08 be
       -0.0041565346 -0.12657055 0.08492371 -0.13296075
000140 6f 36 aa bd 94 3e e2 bd ed 68 93 3d cb b6 1b 3b
       -0.08311164 -0.11047092 0.071977474 0.0023760076
000150 82 ba 88 bd d1 9e 14 be 98 32 98 bd af dd f6 3d
       -0.066761985 -0.14513709 -0.07431525 0.120540015
000160 26 37 49 bd 46 5d eb bd da 1c 9c 3d b3 36 6a bd
       -0.04912486 -0.114924 0.076226905 -0.05718107
000170 56 67 0f bd b7 72 d8 bc f3 c6 95 3d 06 f7 e2 3d
       -0.03501066 -0.026421888 0.07313337 0.11082272
000180 e2 59 81 3d c4 38 15 bd 90 a0 b2 3d ee dd 9d 3c
       0.06315972 -0.03643109 0.08722031 0.019270863
000190 8c ee bc 3d 8b 3d 81 bd 11 1e 88 3d 7c 94 6e 3d
       0.09225187 -0.063105665 0.0664636 0.058247074
0001a0 00 19 54 bb 80 5c 49 3b 1f c4 91 3d e1 73 98 bc
       -0.0032363534 0.00307253 0.07117485 -0.018609943
0001b0 17 0e 9b 3c b7 40 b3 3d 2b a3 e9 bc c8 d0 64 3e
       0.018927617 0.08752578 -0.028520187 0.22345269
0001c0 e0 0f cf bd 67 0d b6 bd 2e c0 eb bd 14 11 22 bd
       -0.1011045 -0.08889275 -0.11511265 -0.03956707
0001d0 38 07 09 3d 77 b4 88 ba 30 fd 98 bd e0 dd 71 3d
       0.03345415 -0.0010429759 -0.07470167 0.059049487
0001e0 1b c7 53 bd 78 0d 6b bd b0 40 2e bc 70 90 8e 3b
       -0.051703554 -0.05738589 -0.01063554 0.0043507144
0001f0 a7 47 0a 3d ca 60 a0 bd c9 9c b9 3c cb 13 8c bd
       0.03375974 -0.07830961 0.022657769 -0.06839713
000200 6e b1 ae 3d 8a d5 b3 bd 01 42 db bd 5c 1d a5 3c
       0.08529936 -0.08780964 -0.107059486 0.020155601
000210 f1 e9 bb 3c fb e5 c1 bd f2 72 c1 bd c7 0c 94 3d
       0.0229387 -0.094676934 -0.09445752 0.072289996
000220 3c 87 08 bd f3 a1 12 bd 78 e3 ae bd a2 e9 e3 3d
       -0.033332095 -0.035798978 -0.0853948 0.11128546
000230 0a 0e 18 bb f8 ab f0 bc 4b f0 3c 3d da 8e 63 bc
       -0.0023201727 -0.029378876 0.0461276 -0.013889039
000240 a9 4f 58 3d 98 b5 65 bd f7 8d 59 bd dc 76 16 bc
       0.052810345 -0.056081384 -0.053113904 -0.009183612
000250 4b e6 53 3d 2e e5 e7 bd 02 5a b2 bd bc 97 0c 3e
       0.051733296 -0.113230094 -0.08708574 0.13729757
000260 17 20 28 3d aa 04 07 3e 40 32 60 3c 8f 87 22 3d
       0.04104623 0.13185373 0.0136838555 0.03968006
000270 5d 55 12 bd c4 a9 12 be b9 9e d4 3d 40 9f 7f bd
       -0.03572594 -0.14322573 0.103818364 -0.062407732
000280 ea c4 47 3d 1c 1b 4a 3d d8 26 57 3d 92 ec ea 3d
       0.048771776 0.04934226 0.05252728 0.114709035
000290 7c 7e ec 3d c1 a4 15 bb 41 5e 94 bd 2f 74 08 3e
       0.115475625 -0.0022833797 -0.0724454 0.1332557
0002a0 88 38 f7 3c 74 47 79 bd 65 07 ad 3b dd dd ba 3d
       0.030178323 -0.06085916 0.0052804225 0.09124348
0002b0 97 3e 1c bb 31 0e c0 3d 13 d1 32 bd 22 f5 d5 bd
       -0.0023841017 0.09377707 -0.04365642 -0.10447146
0002c0 0e ef 6b bd 4b e0 89 bd 34 4c d0 3d 64 19 40 3d
       -0.057601027 -0.067322336 0.101707846 0.046899214
0002d0 50 e8 c1 bc 01 9e 44 3d 42 eb c0 3d 48 ee ba bd
       -0.023670346 0.048002247 0.09419872 -0.0912748
0002e0 5f c8 cf 3d 10 ee 63 3c 40 0e e4 3b 84 5c 32 3c
       0.1014564 0.013911739 0.0069597065 0.010886315
0002f0 f3 3c e1 3d 23 bf c4 bb cf 55 a4 3d 9a a9 7a 3c
       0.10997953 -0.0060042306 0.08024179 0.015299225
000300 90 ff b9 bd cf 17 55 bb 8f a9 1b be 8e 6d ce bd
       -0.09081948 -0.0032515412 -0.152014 -0.1007949
000310 70 80 85 bc 05 e0 10 bd 68 52 af 3c 83 69 99 3d
       -0.016296595 -0.03536989 0.021401599 0.07490828
000320 81 b7 c2 3d f9 9d e8 bd a6 49 a1 bc ae a8 93 3d
       0.09507657 -0.11358256 -0.019688439 0.072099075
000330 7b 1f ad 3b 6a 0a ea 3d 11 1a 46 be b1 eb 2f 3e
       0.005283294 0.114277676 -0.19345881 0.17179753
000340 38 81 9b 3d a8 cf 9f bc ec 0f 97 3c 60 40 64 3d
       0.07593006 -0.019508198 0.01844021 0.055725455
000350 b6 e1 09 3e 27 cb cb 3d ca ec 8b 3d d1 5b e6 bd
       0.13465008 0.099508576 0.06832273 -0.11247981
000360 24 b2 33 bd 48 2e 0e 3e 30 85 77 3c 5c 0a 68 bb
       -0.04387106 0.13884842 0.015107438 -0.0035406565
000370 38 53 e1 3d 3e 22 1e be b3 51 39 bd 2b 37 d4 3c
       0.11002201 -0.1544275 -0.04524393 0.025905212
000380 9e 7f 99 bd 44 5b 25 bd 81 58 d7 bd ec ca bb 3d
       -0.07495044 -0.04037024 -0.10514928 0.09169564
000390 9e d1 e0 bd 78 ca 3d bd 29 ea ee 3d 58 1c 7d bd
       -0.10977481 -0.046335667 0.11665756 -0.06179461
0003a0 32 e3 96 3d a0 33 78 3d 4c a6 e6 3d 11 8b 1c 3d
       0.07367553 0.06059611 0.11262187 0.03821856
0003b0 ca 27 a6 bd ab 10 9d 3d 01 bc 5d be ee 74 4a be
       -0.08113058 0.07669195 -0.21653749 -0.19771168
0003c0 2d 9e c6 3d ab d0 b3 3c e0 fe ab 3b c8 d1 c4 3d
       0.096981384 0.021950087 0.0052488893 0.09610325
0003d0 d4 11 71 3d 8c 56 a5 3d 7e 51 83 3d 5e 3c fc 3d
       0.058854893 0.08073148 0.06412028 0.123162016
0003e0 af cb 05 3e 80 c0 a8 3b dc ca 8c bd d5 ad 50 bd
       0.1306598 0.005149901 -0.0687463 -0.05094703
0003f0 38 28 74 bd 3b db 7a 3d b5 2b 42 3d e4 71 b2 bd
       -0.059608668 0.06124423 0.047404964 -0.08713129

bias f4 [64]
000000 a0 b2 13 bd 9d 2f 6c bc da 54 84 bd ae 7f 45 bd
       -0.036059022 -0.014415649 -0.06461497 -0.048217468
000010 d0 ab b8 3c 88 5b d3 bc de b4 ed 3d f6 75 9c bc
       0.022542864 -0.025800481 0.11606763 -0.019099217
000020 91 80 0b 3e 8a 95 e9 bd 70 3c 5a 3c ac 26 dc bd
       0.13623263 -0.114054754 0.0133200735 -0.107495636
000030 d5 16 4e bd 0d 2a 4b bc 59 73 9e 3d 09 ab 75 be
       -0.050314743 -0.012400162 0.077368446 -0.23991026
000040 f3 85 f2 3d 13 1e 95 bd e2 a9 9f bd 94 56 1a bd
       0.11841955 -0.07281127 -0.077960745 -0.037680224
000050 6c d9 c6 bd b0 4d c1 3d 9c c6 7d bd 9e 4f 9d 3d
       -0.09709439 0.09438646 -0.061956987 0.076812014
000060 c8 72 d0 bd 3a 9a 86 3d f4 8f 5e 3d b9 78 ee 3d
       -0.10178143 0.06572385 0.054336503 0.1164412
000070 5c 3c 25 bd c0 b0 38 3d 3c e4 a3 3c 06 fb 85 3d
       -0.040340766 0.045090437 0.020006292 0.065420195
000080 f9 b7 70 bc f6 71 6d bd 18 fb cb 3d 94 cb f8 bd
       -0.0146923 -0.05797001 0.09960002 -0.121482044
000090 97 37 10 3e e9 57 0d 3e a8 42 54 bd 7c aa 98 bd
       0.14083706 0.13803066 -0.05182138 -0.07454392
0000a0 1f 36 d0 bd e0 1f 11 3e 6a 85 04 bb 0a 40 99 3c
       -0.10166573 0.14172316 -0.0020221123 0.018707294
0000b0 93 1c ad 3d ca 88 0c 3e e1 da 3b 3d e4 c3 06 be
       0.08452716 0.13724056 0.045863036 -0.13160664
0000c0 96 f6 cd bd a1 ec 6e 3d 62 12 d5 3c 0e 13 a7 bd
       -0.10056798 0.058331136 0.026009742 -0.08157931
0000d0 95 f3 f4 3d cc 20 1f 3d 2c 82 ad 3d 38 62 d6 bc
       0.11960522 0.038849637 0.08472094 -0.026169881
0000e0 5f f2 05 3e a5 11 b5 3d ee 79 97 3c 63 8d d4 bd
       0.13080738 0.08841256 0.018490758 -0.1037853
0000f0 aa a5 5e 3d 6b b8 92 3c 08 16 cb 3d 20 8d 79 3c
       0.05435721 0.017910203 0.099163115 0.015231401

weight f4 [64, 64]
000000 58 9c dc bc b2 f9 44 3d e8 ae c7 3d 33 1f 77 bd
       -0.02693002 0.04808969 0.097501576 -0.06033249
000010 5d 4c dd 3d 2c e3 7b 3d c8 71 29 3d 77 98 b8 bd
       0.10805581 0.061495945 0.041368276 -0.09013455
000020 8f a4 9d 3d b0 44 6e 3c c8 5d db bc a4 73 ad 3d
       0.07697403 0.014542744 -0.026778117 0.08469322
000030 a7 31 6c bd de 46 be 3d 71 68 83 bd ea fa d3 bd
       -0.05766454 0.092908606 -0.06416405 -0.103505924
000040 13 91 42 bc 5a 63 24 bd b4 9a 29 3d 02 63 e3 bd
       -0.011875409 -0.04013381 0.041407302 -0.111028686
000050 22 2e 9d bd 00 b1 02 be 5c f8 fd 3d cf d5 a8 bd
       -0.07674815 -0.12762833 0.124008864 -0.08243906
000060 c8 fe 45 bd 3a 5b 74 3d fe c7 d2 3d 9b ba b4 3d
       -0.04833868 0.059657313 0.10292052 0.08824655
000070 e2 c2 a5 bd 80 2e ea bd 70 21 21 3d 30 67 10 3d
       -0.080938116 -0.114346504 0.03933853 0.035254657
000080 f2 df 4b bd 72 fa bc 3d 9d 4d f2 bb 56 19 f0 bd
       -0.049774118 0.09227456 -0.007394506 -0.117235824
000090 87 9d b8 bd b9 b9 96 3c f8 7b d9 3d e8 06 e3 bc
       -0.09014421 0.018399106 0.10619348 -0.027713254
0000a0 3b 7c b5 3d db 52 a6 3c 33 27 78 bd ff 0c 7f bd
       0.08861586 0.02030318 -0.06058426 -0.062268253
0000b0 27 49 96 bd 86 94 a8 bd 37 77 2d bc 8e 01 8c 3d
       -0.073381715 -0.082314536 -0.010587505 0.06836234
0000c0 0c 44 d6 bd 53 c0 5e 3b 29 76 42 bd 20 03 bd bb
       -0.10462198 0.0033989146 -0.047475968 -0.005768195
0000d0 80 19 87 3c 20 4b 1d bd 21 22 50 3d 26 3b e4 bd
       0.016491652 -0.038401723 0.050813798 -0.11144094
0000e0 67 f4 e4 3d 29 d4 36 bd 20 ed 04 3d 7e 90 85 bd
       0.111794285 -0.044635925 0.032452703 -0.065217
0000f0 1b c9 b9 3b fa 3d c9 3d 11 1c 2c bd 7d da c8 3d
       0.0056697256 0.09826274 -0.042018954 0.09807298
000100 e8 79 e2 bc 54 53 14 bd b0 fb 01 3c 80 6b c0 3a
       -0.02764602 -0.03621228 0.007933542 0.0014680475
000110 68 9e f4 bd 58 51 cd bd 00 b4 e2 ba d0 4c 8a bd
       -0.11944276 -0.10025281 -0.0017296076 -0.06752932
000120 9c ce bf bd 52 e7 8b bd 80 61 e6 3d 00 f7 7f bb
       -0.093655795 -0.0683123 0.112490654 -0.0039057136
000130 f0 b0 1b bd 86 bc e8 3d 80 fa c5 3c 24 7c 84 3d
       -0.038010538 0.11364083 0.0241673 0.064689904
000140 00 6f 8e bd fc 90 be bd 92 c6 a2 bd 74 66 cf 3d
       -0.06954765 -0.09304997 -0.079480305 0.10126963
000150 38 16 ff 3c 18 f8 8c 3c 8c 7d ff bd 00 1f c1 ba
       0.031138524 0.017208144 -0.12475118 -0.001473397
000160 b4 c6 63 3d 70 e9 60 3c e0 d2 4e bc da 5a ac bd
       0.05560942 0.013727531 -0.012623519 -0.08415766
000170 30 d8 2f bd 4c 7f a8 3d e8 a0 7a 3d 78 d3 ce bd
       -0.04293078 0.08227405 0.06118861 -0.10098928
000180 a0 68 f7 3d a0 e0 ae 3b b0 f2 ea 3d ac 32 68 3d
       0.120805025 0.005336836 0.1147207 0.05668895
000190 b8 63 02 3d 60 c1 ca bd 8c af 80 bd d4 b5 dd bd
       0.03183338 -0.099001646 -0.06283483 -0.108256966
0001a0 32 91 9f 3d f4 c1 a7 bd d8 f3 31 bd 00 82 26 3d
       0.07791366 -0.081912905 -0.04344544 0.04065132
0001b0 68 f2 05 3d ae fd 9d bd 6c 78 90 bd e8 91 d6 bc
       0.03270188 -0.07714401 -0.07054219 -0.02619262
0001c0 f4 46 99 bd a8 80 cc bd 9c 0b a5 bd 80 3c d7 ba
       -0.07484236 -0.09985477 -0.08058855 -0.0016421229
0001d0 a0 77 9d 3c 64 6a d5 bd a2 e0 e0 bd 88 d7 ad bd
       0.01922208 -0.10420683 -0.10980345 -0.08488375
0001e0 4a df ed bd 4a 83 cd 3d 48 1b 91 3d 60 70 77 bd
       -0.11614855 0.10034807 0.070852816 -0.060409904
0001f0 b8 22 b7 bd 0c d9 b6 3d b2 39 d7 bd 88 a0 e5 3d
       -0.08942169 0.08928117 -0.105090514 0.112122595
000200 10 b8 6c 3d ec a7 07 be 73 f7 07 3c f1 b5 55 bd
       0.057792723 -0.13247651 0.008298743 -0.052175466
000210 c9 03 f6 3d a0 27 e3 3c 2e b7 00 3e 2e 84 b9 3d
       0.12012441 0.027728856 0.12569878 0.090584144
000220 db f9 64 bd 88 64 fe bd 3c ab 86 3d 28 ac 65 3d
       -0.055902343 -0.124215186 0.06575629 0.056072384
000230 de 6f cd 3d d6 5a a6 3d f3 0a fb 3d 7a 82 63 be
       0.100311026 0.08122794 0.12257948 -0.22217742
000240 0c 1e cf 3c 35 c5 dd bc c2 e0 d0 bd 48 26 ae 3c
       0.025282882 -0.027071575 -0.10199119 0.021258488
000250 44 1a 59 3d 42 47 3f 3d 08 74 85 3d f6 bd 0d 3e
       0.053003564 0.046698816 0.06516272 0.13841996
000260 40 e0 33 3d 74 46 4f 3d 63 83 61 bc 05 9c ce 3b
       0.043915033 0.0506043 -0.013764235 0.00630522
000270 a6 1b ae bd 38 ae 06 bd c8 97 8a 3d 9e ff 54 be
       -0.08501367 -0.03288099 0.06767231 -0.20800635
000280 c4 b2 05 3e 51 76 84 bd b2 28 03 3e 9e 0d e3 bd
       0.13056475 -0.064678796 0.12808493 -0.11086582
000290 4e 3a d4 bd 3f 28 e0 3b ee e1 d8 3d 8a 3e e7 bd
       -0.10362683 0.006840735 0.10589968 -0.11291225
0002a0 e0 03 48 bd 79 bc b7 bd 79 d8 fc bc 7d 4a e1 3a
       -0.04883182 -0.08971495 -0.030864941 0.0017188337
0002b0 6d 4e 65 3c e8 04 a3 3d 6b 23 0d 3e 65 44 c8 ba
       0.013995749 0.0795992 0.13783042 -0.0015279172
0002c0 64 ce 2d bd a3 85 a8 bd 5a 88 ac bd 20 03 3c 3d
       -0.042433158 -0.08228614 -0.084244445 0.045901418
0002d0 83 02 74 bb 30 7a d7 bc b7 f5 9b bd 88 db 82 bd
       -0.0037232942 -0.02630338 -0.07615226 -0.063895285
0002e0 41 40 32 3c f6 a6 d5 3c f8 42 50 3c 8e d6 95 bd
       0.010879577 0.02608059 0.012711279 -0.07316314
0002f0 95 f6 c0 3d 9d ec f3 3d 80 17 8c 3d 05 24 a0 3c
       0.09422032 0.11910365 0.0684042 0.019548425
000300 0c c1 c4 3d d3 33 31 be 7b 63 4d bd fa c0 6f 3d
       0.09607133 -0.17304926 -0.0501437 0.058533646
000310 c2 c3 a1 bd 32 c3 ad bd d8 e9 3e 3d cc 43 51 bd
       -0.07898666 -0.08484496 0.04660973 -0.051090047
000320 2d bc 4a 3d f8 b6 27 3d 0e 67 84 3d e8 20 c3 3c
       0.049495865 0.040945977 0.064649686 0.023819402
000330 56 ca 4e 3d 4f 28 88 bd 4a f2 72 bd a7 f9 ef bc
       0.05048593 -0.06648313 -0.059313096 -0.029293848
000340 71 c9 86 3c 77 2e 33 be bc c9 93 bd cc e5 32 3d
       0.016453477 -0.17498194 -0.07216212 0.043676183
000350 50 fe dc 3d 58 97 bb bc bc 42 df 3d 03 04 a9 bb
       0.10790694 -0.022899315 0.109014004 -0.005157949
000360 f0 18 62 3d 2d 45 01 bc ac 38 30 3d 3c f8 b8 3d
       0.055199564 -0.007890028 0.043022797 0.09031722
000370 58 4e f7 bd 56 64 f5 3d 8e d9 14 bd 98 6a 7b be
       -0.1207549 0.11982028 -0.03634029 -0.24552381
000380 0a 52 6c bb c8 08 e2 bd a6 71 38 bc 3a 76 aa bd
       -0.0036059641 -0.11036831 -0.011257565 -0.08323331
000390 94 c7 ef 3d ec 73 92 bc e8 87 97 3d 08 96 f7 bd
       0.117079884 -0.017877541 0.07398969 -0.12089163
0003a0 c7 9e a0 3d 64 d3 11 3e e1 d3 2e bd 0a dc 79 3d
       0.078427844 0.14240795 -0.042682532 0.06100086
0003b0 e0 03 03 3e b2 3e 03 3e ca 21 6a bc c2 e4 8d bd
       0.12794447 0.12816885 -0.0142902825 -0.06928398
0003c0 05 6b aa bd d3 d5 72 bd 37 49 8e bd 8d 31 a6 3d
       -0.083211936 -0.05928595 -0.069475584 0.0811492
0003d0 17 cb 6f 3d f0 c3 3d 3c 39 34 35 bd 78 84 d5 bd
       0.05854329 0.01158236 -0.044239257 -0.10425657
0003e0 8b 2a b9 3d ba c3 1b 3e 39 e6 c4 3d 16 9b 23 be
       0.090413176 0.15211383 0.09614224 -0.1597713
0003f0 5b e8 6a 3d cf 99 4b bd 47 6e c8 3d 19 29 96 bd
       0.057350498 -0.04970723 0.09786659 -0.073320575

bias f4 [64]
000000 4a 9b 9e bd 9c 02 2d 3d 61 aa 19 3d 31 90 7d 3d
       -0.07744463 0.042238817 0.037516 0.06190509
000010 15 17 0a be 6d f9 00 be 23 96 d4 3c 1e 34 ec bd
       -0.13485368 -0.12595148 0.025950497 -0.11533378
000020 2b ca c6 bb e8 9f d0 3d 9e a6 03 3e cb fd 8d bc
       -0.006066581 0.1018675 0.12856528 -0.017332932
000030 74 9f c8 3d ec 68 8e 3d d1 87 9a 3d 2e f2 e6 bd
       0.09796038 0.06953606 0.07545436 -0.11276661
000040 47 be 0d be f8 e6 c3 bd 9a 24 dc bd fc af d6 bd
       -0.13842116 -0.09565538 -0.10749169 -0.10482785
000050 73 26 a0 3d 8a 59 b8 bd ca e8 0a 3e ff 87 dc bc
       0.078198336 -0.09001453 0.13565364 -0.026920317
000060 b5 a3 66 3d ef fd 31 bd 50 eb fd bd a4 57 c6 3d
       0.056308467 -0.04345506 -0.12398398 0.09684685
000070 12 19 d7 3d 87 ec cb bc 86 bc 53 3d a0 fd fe bd
       0.10502829 -0.024893058 0.05169346 -0.12450719
000080 a4 6e 83 bd a7 cb c7 3d ab 0d de 3c 38 ac ab bc
       -0.064175874 0.097556405 0.027106127 -0.020956144
000090 09 c3 85 3c 10 ee d3 3c 02 db 96 bd fc 93 2a bd
       0.016328352 0.025870353 -0.07365991 -0.041645035
0000a0 6a 97 ff 3d d5 01 ab 3d b2 40 c9 bd 88 d7 83 3c
       0.12480052 0.08349959 -0.09826793 0.016093984
0000b0 52 ae 8b bd 14 f7 97 bd e8 53 7c bd a4 08 e0 bd
       -0.06820358 -0.07420173 -0.061603457 -0.10939148
0000c0 2f 16 db 3d d8 79 2a 3d ea db c2 bd e9 42 9e 3c
       0.106975906 0.041620106 -0.095146015 0.019319015
0000d0 c5 cc a0 3d 7d e3 d7 bc 91 cc 00 3d 0c ef 69 3d
       0.07851557 -0.026353592 0.03144509 0.05711274
0000e0 df a9 9b 3d 40 14 8f bd 6a 10 b2 3d 2a 07 80 3d
       0.0760076 -0.06986284 0.08694537 0.062513664
0000f0 3f 40 bc bd d4 3c 3b bd e8 16 cd bd 7e 0c fa bd
       -0.091919415 -0.045712307 -0.10014135 -0.12209414

weight f4 [1, 64]
000000 de 31 04 3b a8 0b 93 bd 5a db 0e 3e 08 eb 23 3e
       0.0020171325 -0.07179958 0.13950863 0.16007626
000010 b1 0b 52 3d e3 2e 86 3c 06 f5 38 3d 38 59 0f 3b
       0.05128068 0.01637978 0.045155548 0.0021873247
000020 c7 bd e2 3d 09 2a 0d 3e 85 04 0b 3d 7e d1 c1 3d
       0.110713534 0.13785566 0.033939857 0.094637856
000030 47 d2 bb 3d 3b 9d 38 bc e5 97 d8 bd d8 c7 9e bd
       0.091709666 -0.011267955 -0.105758466 -0.07752961
000040 e7 6e 50 be fc 23 b2 bd 1a 15 b8 bd cc 26 42 3d
       -0.20354806 -0.0869827 -0.089884 0.04740028
000050 ab 2e 14 3d c2 08 4f bd 3a ac b2 3d 1a a5 88 3d
       0.03617732 -0.05054546 0.08724256 0.066721156
000060 fa ac 90 3d 62 39 f6 3c 72 f1 db bd a5 ca b2 bd
       0.07064243 0.03005666 -0.107394114 -0.087300576
000070 15 84 df 3d 0f 00 e6 3d 20 d6 15 bd d8 70 94 3c
       0.109138645 0.1123048 -0.03658116 0.018120214
000080 e4 ec 85 3d ad 54 3e bd 8e 62 b8 3d 3a 4e d8 bd
       0.06539324 -0.046467472 0.09003173 -0.105617955
000090 64 69 bb bc f1 53 82 3d 60 5d 6a 3c 3c bb 86 3d
       -0.022877403 0.06363667 0.014304489 0.06578681
0000a0 74 4c 9a 3d 6d 51 1d bd b4 b7 ca 3d 70 50 a9 bd
       0.075341135 -0.03840773 0.0989832 -0.08267295
0000b0 c7 b0 0a 3d b7 92 de 3d 4c ec ae 3d 94 dd 37 3d
       0.033859994 0.108678274 0.08541164 0.044889048
0000c0 8a 83 da bd 32 55 3d 3d 94 46 35 3d 39 43 f5 bb
       -0.1066962 0.046223827 0.04425676 -0.00748482
0000d0 f8 ce fe bd 0c 29 a5 3d 67 a9 4c bd f0 d6 c4 bc
       -0.1244182 0.0806447 -0.049966242 -0.024028271
0000e0 41 59 17 3e 8a be dd bd 0c be c5 3d ed 49 ce bd
       0.14780141 -0.10827358 0.09655389 -0.10072694
0000f0 43 39 ea 3b a2 89 e3 3d b8 a5 d6 bd 26 04 a3 3d
       0.0071479394 0.11110236 -0.10480827 0.079597756
