src/1d-heat/model.pt (torch, 55279 bytes, 9 tensors)

weight f4 [64, 2]
0	0xbf2cc288	-0.6748433
1	0xbd7b5503	-0.06136037
2	0xbd8e597e	-0.06950663
3	0xbedd5a74	-0.43233073
4	0x3e9a30f2	0.30115467
5	0xbebc6691	-0.36797002
6	0x3eebe346	0.46071833
7	0x3e980a8f	0.29695556
8	0x3f002445	0.5005534
9	0x3f033e4b	0.51266927
10	0xbeb2d2d6	-0.3492648
11	0xbeff70da	-0.49890786
12	0x3eb6f196	0.3573119
13	0x3f07392d	0.5282162
14	0x3eafbe83	0.34325036
15	0xbe96cbc6	-0.29452342
16	0xbf002174	-0.50051045
17	0x3ea63cef	0.32468364
18	0xbf06ca46	-0.52652395
19	0x3ee912df	0.4552221
20	0x3d995130	0.074861884
21	0xbe3ef6d8	-0.18648851
22	0xbf01a263	-0.5063841
23	0x3f25ce69	0.6476808
24	0xbe88a9c2	-0.26692015
25	0x3f126036	0.57178056
26	0xbd1e94f8	-0.038716286
27	0xbe3b039f	-0.182631
28	0xbf3cb7e3	-0.7371809
29	0x3ee2f909	0.44330624
30	0xbe22592c	-0.15854329
31	0xbee0f28b	-0.43935046
32	0x3ea5e5ee	0.32401985
33	0x3e32f53a	0.17476359
34	0xbe8b4756	-0.27202863
35	0x3ec8c86c	0.3921541
36	0xbed1cbdc	-0.40975845
37	0x3eb597ad	0.35467282
38	0x3ef63b7b	0.48092255
39	0xbe358067	-0.17724763
40	0x3ee1c79c	0.44097602
41	0xbe63343f	-0.22187899
42	0xbec9246e	-0.39285606
43	0xbe9d8400	-0.3076477
44	0xbef50fde	-0.47863668
45	0x3e44adaf	0.1920688
46	0xbeba766f	-0.36418483
47	0xbe5a0dc2	-0.2129431
48	0x3e1d75e5	0.15377004
49	0xbf282c8b	-0.6569297
50	0xbe83e399	-0.2575958
51	0xbef48b0e	-0.4776234
52	0xbedb5fac	-0.4284643
53	0xbda908d7	-0.08253639
54	0xbe9d9a31	-0.307817
55	0x3defb639	0.11704678
56	0x3e90660a	0.2820285
57	0x3e0aa924	0.13541085
58	0xbed940f6	-0.42432374
59	0xbc3b809e	-0.011444239
60	0x3ec68734	0.38775027
61	0xbe79e72b	-0.2440459
62	0x3f3185a1	0.69344527
63	0x3cf97de7	0.030455543
64	0xbe256aff	-0.16154097
65	0x3e2f7a4e	0.171365
66	0xbe8aa7fc	-0.27081287
67	0x3d7fff38	0.062499255
68	0x3f1d1396	0.6135801
69	0xbf154be5	-0.5831893
70	0xbd51b5a8	-0.05119863
71	0x3e666566	0.22499618
72	0x3e96e02c	0.29467905
73	0x3f1d5555	0.6145833
74	0x3f33f354	0.70293164
75	0xbefef39c	-0.49795234
76	0x3e0ca3d5	0.13734372
77	0x3e038097	0.12842022
78	0x3e247579	0.16060437
79	0x3f030514	0.51179624
80	0x3f1de19e	0.6167239
81	0xbd882baa	-0.06648953
82	0xbd241146	-0.040055536
83	0xbeeaeeb3	-0.45885238
84	0x3ddefcd7	0.10888069
85	0xbefa8cd7	-0.48935577
86	0xbe82d9bc	-0.25556743
87	0x3e558f8b	0.20855539
88	0x3da1c1e3	0.07898309
89	0xbf1644a8	-0.5869851
90	0x3dad51fa	0.084629014
91	0x3ec644e5	0.38724437
92	0xbef8703d	-0.4852313
93	0xbeaeb572	-0.34122807
94	0x3f16d603	0.58920306
95	0x3ed6ff10	0.41991472
96	0x3d438928	0.047738224
97	0x3f16b539	0.58870274
98	0x3f1981db	0.5996377
99	0xbefbbd2f	-0.49167773
100	0x3f203752	0.6258441
101	0xbec56768	-0.38555455
102	0x3f37ed4c	0.7184646
103	0xbed0c059	-0.4077175
104	0xbea2a84a	-0.3176902
105	0x3eb56172	0.35425907
106	0xbeaeaafb	-0.34114823
107	0xbed05fa8	-0.4069798
108	0x3f176437	0.5913729
109	0xbf1170b8	-0.5681262
110	0xbea1ca34	-0.3159958
111	0xbe23a75d	-0.15981813
112	0x3ea3f94d	0.3202614
113	0xbe938be1	-0.28817657
114	0xbed3d696	-0.41374654
115	0x3ed6b31a	0.4193352
116	0xbec5a7a7	-0.3860447
117	0xbec47e68	-0.3837769
118	0x3e9876da	0.29778177
119	0x3ea23db3	0.31687698
120	0xbbd4ec43	-0.006497891
121	0xbe369fab	-0.17834346
122	0xbf0bff2d	-0.5468624
123	0xbf09051c	-0.5352342
124	0x3f11aaef	0.5690145
125	0x3e863280	0.26210403
126	0xbecc15f9	-0.39860514
127	0xbe5a15a1	-0.21297313

bias f4 [64]
0	0x3e64db6a	0.22349325
1	0x3ee34996	0.4439208
2	0x3dcecdf6	0.10097878
3	0x3edc91f3	0.430801
4	0x3eaecbb8	0.341398
5	0x3d87d291	0.06631959
6	0x3ef25e40	0.47337532
7	0xbf2c02d7	-0.67191833
8	0x3ead087a	0.3379553
9	0xbf31ea5a	-0.6949822
10	0xbf231aa5	-0.6371253
11	0xbdb646a3	-0.08900192
12	0xbed6c1f5	-0.41944852
13	0xbd5fd3f3	-0.05464549
14	0x3f1c568e	0.6106957
15	0x3c861edb	0.016372135
16	0x3f0b98ce	0.54530036
17	0x3ea88a02	0.32917792
18	0xbe3a8c97	-0.18217693
19	0x3f1d04f1	0.61335665
20	0xbe57d5ca	-0.21077648
21	0xbe87fca7	-0.26559946
22	0x3ef83cd6	0.48483914
23	0xbf05734f	-0.5212907
24	0x3e562093	0.20910864
25	0xbe4d6cd7	-0.2006105
26	0xbe9967db	-0.29962048
27	0x3dc826f0	0.09773052
28	0x3f19ec56	0.60126245
29	0x3e881240	0.26576424
30	0x3f3d52fa	0.7395474
31	0x3f0bbdf6	0.5458673
32	0x3e99bd44	0.3002721
33	0x3f118fde	0.5686015
34	0xbed7d97e	-0.4215812
35	0x3f115d8a	0.56783354
36	0x3efeaf0f	0.49742934
37	0x3e1f0eac	0.1553294
38	0xbe340780	-0.17580986
39	0x3f027c22	0.5097066
40	0xbdf1689a	-0.11787529
41	0x3e948c06	0.2901308
42	0xbee6136f	-0.44936702
43	0x3e725636	0.236657
44	0x3d39a4f7	0.04532334
45	0xbf1dcb6f	-0.6163854
46	0xbf391606	-0.7229923
47	0x3f046248	0.51712465
48	0xbee74c8b	-0.45175585
49	0xbf337827	-0.7010521
50	0x3e8bed9c	0.2732972
51	0x3ec5ce56	0.38633984
52	0x3f09734d	0.5369156
53	0xbef47c60	-0.4775114
54	0xbeb51efc	-0.35375202
55	0x3ea496ef	0.32146403
56	0x3f285c1d	0.65765554
57	0x3ed16418	0.40896678
58	0xbf32d93e	-0.69862735
59	0x3e14e578	0.1454066
60	0x3ec7cbce	0.39022678
61	0x3e9fe211	0.31227162
62	0x3e1a4fbc	0.15069479
63	0xbe70e8ed	-0.23526354

weight f4 [64, 64]
0	0xbb378a0d	-0.0028005869
1	0xbd8643cb	-0.06555899
2	0x3ab8630f	0.0014067608
3	0xbc959e93	-0.01826409
4	0x3dbbd741	0.09171916
5	0xbd6d6290	-0.057955325
6	0x3d2ddc15	0.042446215
7	0x3e024ab3	0.12723808
8	0x3db2676b	0.08711132
9	0xbd144250	-0.036196053
10	0x3c8b1b38	0.016980752
11	0x3ce5c1b6	0.02804647
12	0xbd1d74aa	-0.038441338
13	0x3e1dd075	0.15411551
14	0x3e23b8f7	0.15988527
15	0xbd612054	-0.05496247
16	0x3ce0a6a4	0.02742321
17	0xbd2e078b	-0.042487662
18	0x3dc8dfb6	0.098082945
19	0x3ded8102	0.11596872
20	0xbd02abda	-0.03190217
21	0xbd5425f8	-0.051794022
22	0xbd0e6386	-0.03476288
23	0x3e0ee3fc	0.13954157
24	0xbd1684d6	-0.036747776
25	0x3e1aaf99	0.15106048
26	0x3dd12830	0.10212743
27	0xbc83a3a0	-0.016069233
28	0x3db0853a	0.08619161
29	0xbc4a094f	-0.012331321
30	0xbc2e7a0a	-0.010649214
31	0x3baac52e	0.005211494
32	0x3e19fd3b	0.15038006
33	0x3dc0edb3	0.094203375
34	0x3de45486	0.11148934
35	0xbbbfcf69	-0.0058535826
36	0xbc6edf26	-0.01457957
37	0x3b8b693a	0.0042544873
38	0x3db402dc	0.08789608
39	0xbbe20f47	-0.006898794
40	0x3e1b78d4	0.15182811
41	0x3d34119a	0.0439621
42	0xbd394859	-0.04523501
43	0xbcf9bd40	-0.03048575
44	0xbd9a1710	-0.0752393
45	0x3ad4a915	0.0016224707
46	0x3c03da4a	0.00804765
47	0xbd81f467	-0.06345444
48	0x3d580aaa	0.052744545
49	0x3e00af91	0.12566973
50	0x3da95e46	0.08269934
51	0xbcc071a0	-0.02349168
52	0xbd98cb74	-0.074606806
53	0x3d134629	0.03595558
54	0xbd583142	-0.05278135
55	0xbce38291	-0.02777222
56	0x3da8b6d4	0.08237997
57	0x3de41791	0.111373074
58	0x3c75a69a	0.014993334
59	0x3cfecf14	0.031104602
60	0x3cd4ac74	0.025961138
61	0x3c22af3e	0.009929476
62	0x3d178d2e	0.036999874
63	0x3e0f3bbe	0.13987634
64	0xbd2a0828	-0.041511685
65	0x3d93b668	0.072125256
66	0x3d6d916d	0.058000017
67	0xbcf5a3f1	-0.0299854
68	0x3dcdd4a2	0.10050322
69	0x3cfb3c12	0.030668292
70	0x3c9e51e9	0.019326167
71	0x3d924ecc	0.071439356
72	0xbcbfff9d	-0.023437316
73	0xbd8ffced	-0.07030664
74	0xbdf0c17c	-0.11755654
75	0x3d9a12c4	0.075231105
76	0xbd2d95f0	-0.04237932
77	0xbd1fb4b1	-0.03899068
78	0xbd4132f3	-0.04716773
79	0x3da02278	0.078190744
80	0x3d62fbab	0.05541579
81	0x3dd0a53d	0.10187767
82	0xbbbe0391	-0.005798765
83	0x3d7d3390	0.061816752
84	0x3dd9e04c	0.10638484
85	0xbd8b3ae1	-0.0679834
86	0xbc58bb13	-0.013228196
87	0xbdcc62b9	-0.09979767
88	0x3cc67b4e	0.024228718
89	0xbe05f50b	-0.13081758
90	0xba5b623c	-0.0008368825
91	0xbdd0463c	-0.10169646
92	0xbd9614c8	-0.073281825
93	0xbd33a138	-0.043854922
94	0x3d166f7e	0.03672742
95	0xbd74d14a	-0.059769906
96	0x3db8f7ba	0.09031625
97	0xbdc2dd3f	-0.095148556
98	0x3d9af4d8	0.075662315
99	0x3d8ca51a	0.06867428
100	0x3dde309e	0.10849117
101	0x3dc969b6	0.09834616
102	0xbd190721	-0.037360314
103	0xbcfe95e4	-0.031077333
104	0x3dbf8508	0.093515456
105	0x3bd53b71	0.00650733
106	0x3d2e61c7	0.042573716
107	0xbd99dbbb	-0.075126134
108	0xbdb0c217	-0.0863077
109	0xbda32760	-0.079664946
110	0x3d61182b	0.05495469
111	0xbdbcbac1	-0.09215308
112	0xbd29b04f	-0.041427907
113	0x3dc4f299	0.09616584
114	0xbda0a1fc	-0.07843396
115	0xbde6ea86	-0.112752005
116	0xbd80c7d4	-0.06288114
117	0x3d3f98a8	0.046776444
118	0xbd8ac789	-0.067763396
119	0x3d252edf	0.040327903
120	0xbd4d58a1	-0.05013335
121	0x3de6f898	0.11277884
122	0xbd009701	-0.03139401
123	0x3d9ec3b7	0.077521734
124	0xbce27f42	-0.027648572
125	0x3da8c051	0.082398064
126	0x3c577b59	0.013151967
127	0xbdfd0e9b	-0.123563014
128	0xbdc32436	-0.09528391
129	0xbdd04b2c	-0.10170588
130	0xbd839072	-0.06424035
131	0xbdfe129a	-0.12405892
132	0xbd3704e4	-0.0446824
133	0xbde7db9c	-0.11321184
134	0xbc7786b0	-0.015107796
135	0x3d4b1c9c	0.04958783
136	0x3de132f6	0.10996048
137	0xbc1511e0	-0.0090985
138	0x3c682d40	0.014170945
139	0xbd450500	-0.04810047
140	0xbda4837a	-0.0803289
141	0xbd851c1a	-0.064995006
142	0xbc532830	-0.012887999
143	0xbd3e3f54	-0.046447113
144	0xbc85a550	-0.016314179
145	0xbd393308	-0.045214683
146	0x3d249dcc	0.04018955
147	0x3de6c34e	0.1126772
148	0xbcc26d70	-0.023733824
149	0x3da1e8f0	0.079057574
150	0x3d8d5f9c	0.06903002
151	0x3da7fc10	0.08202374
152	0xbddb4e7a	-0.107083276
153	0x3c9d12b8	0.019173965
154	0x3d873d2c	0.066034645
155	0xbddb402e	-0.10705601
156	0x3d8e0d36	0.069361135
157	0x3db47860	0.08812022
158	0x3daab9d0	0.08336222
159	0xbd915bda	-0.070975974
160	0x3be0fc20	0.006865993
161	0xbcefe0b0	-0.029281944
162	0x3d869f3a	0.06573339
163	0xbdd431a6	-0.10361032
164	0xbaef7380	-0.0018268675
165	0xbd254680	-0.040350437
166	0x3cbb69b0	0.022877544
167	0xbdabbb14	-0.08385292
168	0xbca34a60	-0.019932926
169	0x3d740090	0.05957085
170	0xbd779c54	-0.06045182
171	0x3d1ba730	0.03800124
172	0x3cdb2d70	0.026755065
173	0xbd63f82c	-0.055656597
174	0xbde7a96e	-0.11311613
175	0x3d70a38c	0.05874972
176	0xbda82674	-0.08210459
177	0x3deea092	0.1165172
178	0xbc626200	-0.01381731
179	0x3b9e7e80	0.0048368573
180	0x3cf47c38	0.029844388
181	0x3b725380	0.003697604
182	0x3d15f1c4	0.03660752
183	0xbd058ce4	-0.032605067
184	0x3d580230	0.05273646
185	0xbc902fe0	-0.017600954
186	0xbd1a1380	-0.037616253
187	0x3da45bd8	0.0802533
188	0xbdd3492a	-0.10316689
189	0x3d5faa6c	0.054605886
190	0x3d1cab6c	0.03824942
191	0xbccbbc30	-0.024870008
192	0xbd2b1233	-0.041765403
193	0xbc952780	-0.018207312
194	0xbdb41f41	-0.08795024
195	0x3cc1efd0	0.023673922
196	0x3de849ea	0.11342223
197	0x3d229ac6	0.039698385
198	0x3d892e1a	0.06698246
199	0x3d8ba0eb	0.06817802
200	0x3d5efab2	0.0544383
201	0xbe0ab86a	-0.13546911
202	0x3d19a6d0	0.0375126
203	0xbdc3e008	-0.09564215
204	0xbbcd5d31	-0.006267213
205	0xbc130b72	-0.008974897
206	0xbdd2e54a	-0.1029764
207	0xbdba5bcf	-0.09099542
208	0x3dcad609	0.09904105
209	0xbd08ee42	-0.033430345
210	0x3cee4e5f	0.029090105
211	0x3da6b833	0.08140602
212	0xbb935a36	-0.004496838
213	0xbdf9079a	-0.12159653
214	0xbdabb62f	-0.08384358
215	0x3dad681a	0.084671214
216	0x3b137b57	0.0022503936
217	0xbdec4fb4	-0.1153864
218	0x3dcda1ac	0.10040602
219	0x3bbf5187	0.0058385762
220	0xbdd845a4	-0.10560158
221	0x3bf2d1ec	0.0074102785
222	0xbd88687c	-0.06660554
223	0x3dbaa4a6	0.091134354
224	0x3cbc9f6b	0.023025235
225	0x3dc71fd5	0.09722868
226	0x3d45dd37	0.04830667
227	0x3dbf9700	0.09354973
228	0xbc7c36dc	-0.015393939
229	0x3c8affeb	0.016967734
230	0xbdf75833	-0.120773695
231	0x3e019ee4	0.12658268
232	0xbdaab966	-0.08336143
233	0xbda5a802	-0.080886856
234	0xbd89da84	-0.06731132
235	0x3dd8aeb3	0.10580196
236	0x3a5dca61	0.0008460638
237	0x3ce039f1	0.027371379
238	0xbd0ce92b	-0.034402054
239	0xbb83c784	-0.004021587
240	0x3ca450c3	0.020058041
241	0x3dde6384	0.10858825
242	0x3d0a84b6	0.03381797
243	0xbcde9558	-0.027170822
244	0xbd7e6f62	-0.06211794
245	0xbd7c060e	-0.06152921
246	0x3dfd6082	0.12371923
247	0xbd80a0df	-0.06280684
248	0xbd74400d	-0.059631396
249	0x3d4b169d	0.049582113
250	0xbdd7d6b3	-0.105389975
251	0xbd9b2949	-0.07576234
252	0xbb51fded	-0.003204222
253	0x3de90f45	0.113798656
254	0x3dd51404	0.10404208
255	0x3d325e17	0.043546762

bias f4 [64]
0	0x3c5de780	0.013543963
1	0xbe08b172	-0.1334894
2	0xbdee0830	-0.116226554
3	0x3d8a974b	0.06767138
4	0x3af1a8a1	0.0018437096
5	0xbe084777	-0.13308512
6	0xbdc6cf42	-0.097075
7	0x3d8f386e	0.06993185
8	0xbdc6733a	-0.096899465
9	0xbd9a1701	-0.07523919
10	0x3d250d9d	0.040296186
11	0xbe02e4f6	-0.12782654
12	0xbd8ba769	-0.0681904
13	0xbd625b2d	-0.055262733
14	0x3e0cb1be	0.13739678
15	0xbd2c08d2	-0.0420006
16	0xbd927801	-0.07151795
17	0xbdb6512a	-0.089021996
18	0xbdddc467	-0.108284764
19	0xbd593098	-0.05302486
20	0x3dc5864a	0.09644754
21	0x3e04135e	0.12898013
22	0xbd6defb6	-0.058089934
23	0xbdd04b30	-0.10170591
24	0x3d69ef37	0.0571129
25	0xbd509a43	-0.050928365
26	0x3c859c74	0.016309954
27	0xbc92d688	-0.017924562
28	0xbc81d0bd	-0.015846604
29	0x3d02780a	0.03185276
30	0xbd6dd073	-0.05806012
31	0x3d71c6ad	0.059027363
32	0xbd8d8008	-0.06909186
33	0xbe10b1b7	-0.14130293
34	0x3d462ba3	0.04838146
35	0xbd33b7c0	-0.04387641
36	0xbdd3a645	-0.10334448
37	0x3de58fcf	0.1120907
38	0x3e0560e0	0.13025236
39	0xbd80dffe	-0.06292723
40	0x3db85271	0.090000995
41	0x3da8439f	0.08216023
42	0xbd5aef80	-0.05345106
43	0xbdaf23f3	-0.08551779
44	0x3d3470fe	0.04405307
45	0xbc88513b	-0.016640296
46	0x3bb2815b	0.0054475493
47	0x3ded4d38	0.11586994
48	0x3db6fc13	0.08934798
49	0x3ce2f4a1	0.027704539
50	0xbdddbfee	-0.10827623
51	0x3d8dccdf	0.06923842
52	0xbdaacfdb	-0.083404265
53	0xbdc0dc43	-0.094170116
54	0xbdacd773	-0.08439531
55	0x3d6f83a0	0.058475137
56	0x3db2b555	0.087259926
57	0xbdd4f03c	-0.103973836
58	0xbde1bf22	-0.11022784
59	0xbdfb6131	-0.12274397
60	0xbcc2570f	-0.023723153
61	0xbc5fe9ae	-0.013666553
62	0x3e17bf19	0.14818992
63	0xbe0e3d6f	-0.13890623

weight f4 [64, 64]
0	0x3e006233	0.1253746
1	0x3da91e2f	0.0825771
2	0xbd7b225c	-0.061312065
3	0xbd94769b	-0.07249185
4	0xbdd94397	-0.10608595
5	0xbdef2ad9	-0.116780944
6	0x3dad9a48	0.084766924
7	0xbd879030	-0.066192985
8	0x3df9b815	0.12193314
9	0xbb9ba748	-0.004750166
10	0xbc9391bd	-0.01801383
11	0x3c22de00	0.009940624
12	0xbd9cfbac	-0.0766519
13	0x3d96fc48	0.073723376
14	0x3d2039f5	0.039117772
15	0xbdc3b4b7	-0.09555953
16	0x3d9c07e3	0.07618692
17	0xbafcb424	-0.001927976
18	0x3dd73b31	0.10509337
19	0xbda2c0c6	-0.07946925
20	0x3db24696	0.087048694
21	0xbe13ab97	-0.14420925
22	0x3df596f6	0.11991684
23	0xbd144ad8	-0.03620419
24	0x3becab29	0.0072225523
25	0xbca59d02	-0.020216469
26	0xbda09b94	-0.07842174
27	0x3d0e0f0d	0.034682322
28	0xbdaf1f7f	-0.08550929
29	0xbcfa7e7d	-0.030577892
30	0xbd807945	-0.0627313
31	0x3c28893b	0.010286625
32	0x3d28c3ac	0.041202232
33	0x3df0074c	0.11720142
34	0xbc01becc	-0.007919025
35	0x3d7e6c94	0.062115267
36	0xbdb46a95	-0.088093914
37	0x3c30353a	0.010754878
38	0x3de47e53	0.11156907
39	0x3d44a029	0.048004303
40	0x3dbc0009	0.09179694
41	0x3e0de081	0.13855173
42	0x3d8cbdf4	0.06872168
43	0x3de411ec	0.11136231
44	0xbd8ad70c	-0.06779298
45	0x3c9a58c8	0.018841162
46	0xbd5878b7	-0.052849498
47	0xbdf9dcc9	-0.122003146
48	0x3dd55955	0.10417429
49	0xbcb0b4d2	-0.021570597
50	0xbd51c91f	-0.051217195
51	0x3ca4b5a9	0.020106154
52	0x3db72805	0.0894318
53	0xbd7e9a06	-0.062158607
54	0xbdb226e5	-0.08698825
55	0xbdeab7cb	-0.11460837
56	0xbd28084b	-0.041023534
57	0x3c967a64	0.018368907
58	0x3cb1c3d0	0.021699816
59	0x3dc69f0b	0.09698304
60	0x3e165d78	0.14684093
61	0xbdcbbe17	-0.09948366
62	0xbddb8a6a	-0.1071976
63	0xbd31340d	-0.04326253
64	0xbdf96bdc	-0.12178776
65	0x3d88d899	0.06681938
66	0xbd193354	-0.037402466
67	0x3dcd5fdd	0.1002805
68	0xbdb48de4	-0.08816126
69	0xbe09fabc	-0.13474554
70	0x3d960f2e	0.07327114
71	0x3d4b5cd9	0.049649093
72	0x3daae329	0.083441086
73	0x3d466928	0.04844013
74	0xbc67eb6f	-0.014155253
75	0xbd20a031	-0.03921527
76	0xbd85e5d7	-0.06537979
77	0x3dae42b3	0.085088156
78	0xbdc6d1ba	-0.09707971
79	0xbdae9332	-0.08524169
80	0x3d28e6e0	0.041235805
81	0x3da1ef34	0.079069525
82	0x3ce91d11	0.028456243
83	0x3c1d5cca	0.009604642
84	0xbe0ae955	-0.13565572
85	0x3dbfdf42	0.09368755
86	0xbe0598a4	-0.13046509
87	0xbd22e2b0	-0.039766967
88	0xbdd11787	-0.102095656
89	0x3d8c0436	0.06836741
90	0xbde6c14f	-0.112673394
91	0x3d95f898	0.07322806
92	0x3db70ebf	0.089383595
93	0xbcb3c61a	-0.021945048
94	0xbdf4ca74	-0.11952677
95	0x3d96233a	0.07330938
96	0x3d8a7292	0.06760134
97	0xbd7081f0	-0.058717668
98	0xbd3fb92d	-0.046807457
99	0xbca24618	-0.019808814
100	0x3d41c6a6	0.047308587
101	0x3d9fbc14	0.07799545
102	0xbdefea34	-0.117145926
103	0xbd5fdbcb	-0.05465297
104	0x3d223795	0.03960379
105	0x3d45b4f5	0.048268277
106	0x3d882a8c	0.0664874
107	0xbddc58eb	-0.10759147
108	0x3cf65e01	0.030074121
109	0xbcc81d1e	-0.024427947
110	0x3d5e4b95	0.0542713
111	0x3d8721ff	0.06598281
112	0x3db31fd3	0.08746304
113	0xbdff6d21	-0.124719866
114	0x3c6eb95d	0.014570561
115	0xbdcfc5a5	-0.101451196
116	0x3d928c6f	0.07155692
117	0x3dd16b9d	0.10225604
118	0x3dcd3d23	0.100214265
119	0x3d144218	0.036195844
120	0x3d39c625	0.04535498
121	0xbc75db3b	-0.015005882
122	0xbdca9da7	-0.09893351
123	0x3c9dc83f	0.019260524
124	0x3db46fda	0.088103965
125	0xbde56441	-0.112007625
126	0xbda3e723	-0.0800307
127	0xbd18e1ef	-0.037324842
128	0x3cad9205	0.021187792
129	0x3d3dd88b	0.04634909
130	0x3c2d9810	0.010595337
131	0xbd59acf6	-0.053143464
132	0xbde13e79	-0.10998244
133	0x3d9ec201	0.07751847
134	0xbd981233	-0.07425346
135	0x3da10fb1	0.07864321
136	0x3d8ef805	0.069809
137	0xbdaada38	-0.08342403
138	0x3d9c5c78	0.076348245
139	0x3c4d6ab0	0.012537643
140	0xbd84c16e	-0.06482206
141	0xbd9ae602	-0.07563402
142	0x3d533a76	0.051569425
143	0x3dcf5589	0.101237364
144	0x3d9611f9	0.07327647
145	0x3d9b1037	0.07571452
146	0xbd9bf2b6	-0.07614653
147	0x3dd6e851	0.104935296
148	0xbc8a89d8	-0.016911432
149	0x3df57b74	0.119864374
150	0x3d16f14f	0.036851224
151	0xbc3c6cd0	-0.011500552
152	0x3e012b06	0.12614068
153	0xbd6ccb47	-0.057811048
154	0xbd82c6f6	-0.06385605
155	0x3d32f6b5	0.04369231
156	0xbd20e7db	-0.039283615
157	0x3dda9d60	0.10674548
158	0x3a7279f2	0.00092497387
159	0xbd23ceeb	-0.039992254
160	0x3de4c98c	0.111712545
161	0xbdae078d	-0.08497534
162	0x3d74453a	0.059636332
163	0xbde72ea4	-0.11288193
164	0x3b665884	0.0035147974
165	0x3e0b6929	0.13614334
166	0x3e176c06	0.14787301
167	0x3a4d8bfe	0.000784099
168	0xbcb67c3f	-0.022276042
169	0xbcd6d168	-0.0262229
170	0xbdc604b8	-0.09668869
171	0x3dadeb1e	0.08492111
172	0x3d734df7	0.059400525
173	0xbd8d57b4	-0.06901494
174	0xbde8822d	-0.11352954
175	0x3da6e809	0.08149726
176	0xbc15ca98	-0.00914254
177	0xbdfd11ec	-0.12356934
178	0xbd974331	-0.073858626
179	0xbdf15ad1	-0.117849
180	0xbd0f0093	-0.034912657
181	0xbdbe22d0	-0.09283984
182	0xbc89cba0	-0.016820729
183	0x3d1e4934	0.03864403
184	0x3d97f313	0.074194096
185	0xbc99db78	-0.018781409
186	0xbcba6e5d	-0.022757703
187	0xbd535849	-0.051597867
188	0xbccbb453	-0.024866259
189	0xbca8165e	-0.020518478
190	0x3cd1f1d6	0.025628012
191	0xbd8302c3	-0.06397011
192	0x3da1b8e2	0.07896592
193	0x3d5b102f	0.05348223
194	0x3d542ce8	0.05180064
195	0x3c5e1daa	0.013556877
196	0xbb67dff7	-0.0035381296
197	0xbd000115	-0.031251032
198	0x3d442dd2	0.04789526
199	0xbccf3d86	-0.025297891
200	0xbdebda78	-0.11516279
201	0xbdb1162d	-0.08646808
202	0xbc51f546	-0.012814825
203	0x3dd4fdd6	0.10399978
204	0xbd6c501e	-0.057693593
205	0xbdabef9c	-0.08395311
206	0x3e08acc4	0.13347155
207	0xbdec3a2f	-0.11534535
208	0x3d502f43	0.050826322
209	0xbd27cea9	-0.04096857
210	0xbdd36152	-0.10321297
211	0xbe18d102	-0.1492348
212	0x3cf6fd65	0.030150125
213	0x3af97cc4	0.0019034375
214	0x3e0d06d6	0.13772139
215	0xbd65d1b4	-0.05610819
216	0xbd5ecbea	-0.054393686
217	0x3dec86c2	0.115491405
218	0x3b4f57cd	0.0031638027
219	0xbd101dc8	-0.03518465
220	0x3ce4f5f5	0.027949313
221	0xbd4d8911	-0.050179545
222	0xbd5f102f	-0.054458793
223	0xbd40f7a6	-0.047111176
224	0xbd036688	-0.032080203
225	0xbd935d2e	-0.07195507
226	0x3e0eae57	0.13933693
227	0x3dd32100	0.103090286
228	0xbdedeae7	-0.1161707
229	0xbd843dae	-0.06457077
230	0x3cd18c68	0.025579646
231	0xbd6dafec	-0.0580291
232	0xbdc0b215	-0.094089665
233	0x3dd06e35	0.1017727
234	0x3d879842	0.06620838
235	0x3d197620	0.03746617
236	0x3cf428f9	0.029804694
237	0x3cdcccb6	0.026953083
238	0xbd448231	-0.047975723
239	0xb9b2db88	-0.0003411437
240	0xbd7e374d	-0.062064458
241	0xbdcc6b01	-0.09981347
242	0x3dabbea6	0.08385973
243	0x3dcde9b0	0.10054338
244	0x3c7ba71e	0.015359668
245	0xbd9a6d7a	-0.07540412
246	0x3dae32fc	0.08505818
247	0xbbbf4a87	-0.005837742
248	0x3daac882	0.08339025
249	0x3cb2ac78	0.021810755
250	0xbbd7a190	-0.006580539
251	0xbd254eee	-0.040358476
252	0xbdcb15bf	-0.09916257
253	0x3d617226	0.0550405
254	0x3df73f3f	0.1207261
255	0xbda29b3c	-0.07939765

bias f4 [64]
0	0xbd9f33c1	-0.07773543
1	0xbd6aaeee	-0.057295732
2	0x3de7ba7b	0.11314865
3	0x3dd5b445	0.10434774
4	0x3dafbd51	0.08581031
5	0xbd309c22	-0.04311765
6	0xbda2aa01	-0.07942582
7	0x3db87ddb	0.0900838
8	0x3d85fcbd	0.065423466
9	0x3d908c66	0.07058029
10	0xbdecfbec	-0.11571488
11	0x3cf7b3cd	0.030237103
12	0x3da8d85f	0.082443945
13	0xbd0eda56	-0.03487619
14	0x3bd330f9	0.006445047
15	0xbdeb2de7	-0.114833646
16	0xbd8a8383	-0.06763365
17	0xbc968dbe	-0.018378135
18	0x3d5d86cd	0.054083634
19	0x3d19fa8d	0.03759246
20	0xbde414d9	-0.11136789
21	0xbd9d1e00	-0.07671738
22	0xbd7f7b1e	-0.062373273
23	0x3dd90a7e	0.10597704
24	0x3e10e2b8	0.14148986
25	0xbde36236	-0.111027166
26	0x3e0a839a	0.13526765
27	0x3d4eafd2	0.050460644
28	0x3da3a484	0.07990363
29	0x3d1e2754	0.038611725
30	0xbd2eef2d	-0.042708565
31	0x3d796e3b	0.06089614
32	0x3d31129c	0.043230638
33	0xba0c6543	-0.00053556653
34	0x3d14c868	0.036323935
35	0xbca8eeae	-0.020621624
36	0xbdcb744a	-0.0993429
37	0xbcee7d3a	-0.029112447
38	0xbcf7a0e0	-0.030228078
39	0x3cfc0271	0.030762883
40	0xbdf2e8d2	-0.11860813
41	0xbd9be00a	-0.076110914
42	0x3e159c5e	0.1461043
43	0x3dde7e0e	0.10863887
44	0xbd52901b	-0.05140696
45	0xbc8f9e08	-0.01753141
46	0x3df2fcd7	0.118646316
47	0xbdd6abf5	-0.10482017
48	0xbd632a1c	-0.05546008
49	0xbd61e65e	-0.055151336
50	0xbd2f29b2	-0.042764373
51	0xbd23e740	-0.04001546
52	0xbddebd2a	-0.10875924
53	0xbd97e388	-0.07416445
54	0xbd214271	-0.039370004
55	0x3dbfcb59	0.09364957
56	0xba8b6641	-0.0010635332
57	0xbda30958	-0.079607666
58	0x3d668c1c	0.056285962
59	0x3e0f4147	0.13989745
60	0xbdda8842	-0.1067052
61	0xbd0aa434	-0.033848003
62	0x3d28020f	0.04101759
63	0xb953ddc9	-0.0002020515

weight f4 [64, 64]
0	0xbd9bd694	-0.07609287
1	0x3de38a26	0.11110334
2	0xbd93eee2	-0.07223298
3	0x3d30467c	0.04303597
4	0x3d457cbc	0.04821466
5	0xbdfd5ecc	-0.12371597
6	0xbd87ceaa	-0.06631215
7	0x3d7dad8c	0.061933085
8	0xbd6487f8	-0.055793732
9	0xbb5da5c0	-0.0033820719
10	0xbd063a18	-0.032770246
11	0x3c4e2210	0.012581363
12	0xbdaa8480	-0.083260536
13	0xbd443090	-0.047897875
14	0xbd8edcdc	-0.06975719
15	0x3d4d75c8	0.050161153
16	0xbd80b466	-0.06284408
17	0xbdcf0e6c	-0.10110173
18	0xbcd0a588	-0.025469556
19	0x3daae194	0.08343807
20	0x3d9b87fa	0.07594295
21	0xbdd751a4	-0.105136186
22	0xbd826384	-0.06366637
23	0xbd9d1dc2	-0.076716915
24	0x3d944e46	0.07241492
25	0xbdab54a2	-0.08365752
26	0x3d85a794	0.065261036
27	0xbd3a97c0	-0.045554876
28	0x3d1c05ec	0.038091585
29	0x3dc56c64	0.096398145
30	0x3d25c3dc	0.04046999
31	0xbdd76c0a	-0.10518654
32	0x3d47ebf0	0.048808992
33	0x3d4f920c	0.05067639
34	0xbdbafdce	-0.09130441
35	0xbdfd7adc	-0.12376949
36	0x3d671754	0.05641873
37	0x3dc4cf1c	0.096098155
38	0x3dc435b4	0.095805556
39	0xbcfdc018	-0.030975387
40	0xbcba0ba8	-0.022710636
41	0xbdb6db32	-0.08928527
42	0x3b6dc840	0.0036282688
43	0x3a87db00	0.001036495
44	0x3c12ef40	0.008968174
45	0x3df2fe1a	0.11864872
46	0x3de111ea	0.10989745
47	0x3d351684	0.044210926
48	0x3d9ec096	0.077515766
49	0x3c1f4040	0.009719908
50	0xbd3bcf28	-0.045851856
51	0x3daa7690	0.08323395
52	0xbda0e688	-0.0785647
53	0x3d62df4c	0.055388734
54	0xbdad2da6	-0.084559724
55	0xbdfc6d08	-0.123254836
56	0xbc599190	-0.013279334
57	0xbaab4f80	-0.0013069957
58	0xbcf78780	-0.030215979
59	0xbde217ec	-0.11039719
60	0xbae74500	-0.0017644465
61	0x3dfc27e8	0.12312299
62	0xbd9db18a	-0.076998785
63	0x3dc5325a	0.096287444
64	0x3de641ee	0.11243044
65	0x3d90ccb6	0.070702955
66	0x3ceaf8cd	0.02868309
67	0x3d00f2a5	0.031481404
68	0x3d994166	0.07483177
69	0x3d54125e	0.05177533
70	0xbd5e9483	-0.05434085
71	0x3d825f86	0.06365876
72	0xbc8920b9	-0.016739236
73	0x3d914f57	0.07095211
74	0xbda168d2	-0.07881321
75	0x3d881242	0.066441074
76	0x3d482095	0.048859198
77	0xbd9b4809	-0.07582099
78	0x3d83e67d	0.064404465
79	0x3da14692	0.07874788
80	0x3d69106e	0.056900434
81	0x3d5207b2	0.05127687
82	0xbd4fc120	-0.050721288
83	0x3d173115	0.036912043
84	0x3dab290e	0.0835744
85	0xbbff3b20	-0.0077890307
86	0x3cd59e48	0.026076451
87	0x3d9b3bc4	0.07579759
88	0xbe016459	-0.12635936
89	0xbc023ea0	-0.007949501
90	0x3dea8635	0.11451379
91	0xbd92068b	-0.07130154
92	0xbd08713c	-0.033311114
93	0x3e052fa6	0.13006458
94	0xbc9077b3	-0.017635202
95	0xbdfa46fd	-0.12220571
96	0x3d157b04	0.03649427
97	0x3d12a0a5	0.035797734
98	0xbd82fc5e	-0.063957915
99	0x3d9bf5df	0.076152556
100	0x3cf5d2e8	0.030007794
101	0xbdc85e58	-0.0978362
102	0xbd51bb58	-0.051204056
103	0x3c933efb	0.017974367
104	0x3c88938e	0.016671922
105	0xbdc09dce	-0.09405099
106	0xbdae5a8b	-0.085133635
107	0xbdbc383e	-0.09190415
108	0xbcb95d72	-0.022627566
109	0xbddd0610	-0.10792172
110	0xbdd78e2f	-0.10525166
111	0xbc849fb8	-0.016189441
112	0x3d385250	0.045000374
113	0x3d054ba8	0.032542855
114	0x3d3a8990	0.045541346
115	0x3c866e38	0.016409978
116	0x3e05633b	0.13026135
117	0xbdabf3d8	-0.08396119
118	0xbdefe40c	-0.11713418
119	0xbba03900	-0.0048896074
120	0xbde8b22a	-0.11362107
121	0xbd030577	-0.031987634
122	0x3d4a0770	0.0493235
123	0x3dab24a7	0.083566
124	0x3d254490	0.04034859
125	0xbd958498	-0.07300681
126	0xbd662412	-0.056186743
127	0xbda03238	-0.078220785
128	0x3d2aa076	0.041656934
129	0x3c28c373	0.010300505
130	0x3d4f91b4	0.050676063
131	0x3dd13ee4	0.102170736
132	0x3dc0a2f8	0.09406084
133	0x3cf6d57b	0.030131092
134	0xbe2c9c87	-0.16856585
135	0xbc05cec3	-0.008166972
136	0xbded7af2	-0.115957156
137	0x3d8cdad5	0.068776764
138	0x3d563d19	0.05230436
139	0xbdbadd6d	-0.09124265
140	0x3cb09f90	0.02156046
141	0x3d202fa7	0.039107945
142	0x3df48c9c	0.119408816
143	0xbd5fe5cb	-0.054662507
144	0x3df2e159	0.11859388
145	0xbd98fad7	-0.07469719
146	0x3dc7466a	0.09730227
147	0xbc8c2510	-0.017107517
148	0xbdf2497b	-0.118304215
149	0xbda90fc2	-0.08254959
150	0xbab31664	-0.0013663289
151	0xbd910bcf	-0.070823304
152	0x3e099281	0.13434793
153	0x3c064250	0.008194521
154	0x3e0c55d9	0.13704623
155	0x3d0684d2	0.03284151
156	0x3ddaa321	0.106756456
157	0x3cee636e	0.029100146
158	0xbdee5cff	-0.11638831
159	0xbdafa988	-0.085772574
160	0xbce4be07	-0.027922643
161	0xbda63ae5	-0.08116702
162	0x3cbf625c	0.023362331
163	0xbc2d652e	-0.010583205
164	0xbce0d0de	-0.027443346
165	0xbd3bada3	-0.04581989
166	0xbdee982e	-0.1165012
167	0xbd799ff4	-0.06094356
168	0x3d4d9620	0.050192
169	0x3d4af354	0.049548462
170	0xbcde4446	-0.027132165
171	0xbca3f835	-0.020015815
172	0x3daafb3f	0.08348703
173	0x3d033dac	0.032041237
174	0x3c79f1ed	0.0152554335
175	0xbd43c2c5	-0.04779317
176	0xbdb9c888	-0.090714514
177	0x3da544fc	0.08069798
178	0x3c6c48dd	0.014421669
179	0x3d938a75	0.07204143
180	0xbe1bdbb7	-0.15220533
181	0xbdac0e58	-0.08401173
182	0xbdaebc34	-0.08531991
183	0x3cc9ca6d	0.024632657
184	0x3dada46d	0.08478627
185	0x3d4a3105	0.049363155
186	0x3ce49b48	0.027906075
187	0x3db37055	0.0876166
188	0xba614c00	-0.0008594394
189	0xbd9f000a	-0.07763679
190	0xbd29a47b	-0.041416626
191	0x3d33874b	0.043830197
192	0x3d8dd528	0.06925422
193	0x3970aed5	0.00022953314
194	0xbd729a0d	-0.059228946
195	0x3d82bb5c	0.06383392
196	0xbb4cb429	-0.0031235314
197	0x3d26f0c6	0.040756963
198	0x3e193e40	0.14965153
199	0xbc8dd910	-0.017315418
200	0x3d9b069a	0.075696185
201	0xbe038da7	-0.12847005
202	0x3d3d3895	0.04619654
203	0xbc845a8c	-0.016156457
204	0xbdba3f42	-0.09094097
205	0xbd1921dd	-0.03738581
206	0x3d3bce5e	0.045851104
207	0x3d873a5f	0.0660293
208	0x3ad54013	0.0016269706
209	0xbe071b9d	-0.13194127
210	0x3d7ebd3a	0.06219218
211	0x3dda2e09	0.10653312
212	0x3d1a491d	0.037667383
213	0xbc83e8f0	-0.016102284
214	0x3dc8033d	0.09766243
215	0xbc6a2d60	-0.014293045
216	0xbda9b3cf	-0.08286249
217	0xbdb4a012	-0.088195935
218	0xbd987cf7	-0.0744571
219	0xbaf69561	-0.0018812829
220	0xbdbd4a36	-0.0924267
221	0xbdd51789	-0.104048796
222	0xbdbbf070	-0.09176719
223	0x3dc453a7	0.09586268
224	0x3c83d874	0.016094424
225	0x3ddf3181	0.10898114
226	0xbdf9db30	-0.1220001
227	0x39e2d884	0.00043267396
228	0x3c1c8580	0.009553313
229	0x3dca5460	0.098793745
230	0x3d95cba9	0.07314236
231	0xbcc6804c	-0.024231099
232	0x3dc2b9cf	0.095080964
233	0xbd3428e8	-0.043984324
234	0x3d9d9411	0.07694257
235	0xbd6c8724	-0.057746068
236	0xbd869c74	-0.0657281
237	0xbd7c85a4	-0.061650887
238	0xbcd98bd3	-0.026555931
239	0x3bd06f64	0.006360935
240	0xbdb6c8e6	-0.08925037
241	0x3dce6b00	0.100790024
242	0xbcaa53cb	-0.020791909
243	0xbd9c959e	-0.07645725
244	0x3e3363f6	0.17518601
245	0x3b50d840	0.0031867176
246	0xbd0c3a48	-0.03423527
247	0x3ce39a84	0.02778364
248	0x3d51fde0	0.051267505
249	0xbddc913c	-0.10769889
250	0xbd699f95	-0.057036955
251	0x3d4e0297	0.05029544
252	0xbd6b09b8	-0.057382315
253	0x3d992d00	0.07479286
254	0x3d93c615	0.072155155
255	0x3ddf2c1c	0.10897085

bias f4 [64]
0	0xbd994db4	-0.07485524
1	0xbdcc41d2	-0.09973492
2	0x3dfc06cd	0.12305985
3	0x3d4e01e9	0.05029479
4	0x3d55b840	0.052177668
5	0x3e0d8b8d	0.13822766
6	0xbdd68ffa	-0.1047668
7	0x3d69c5f7	0.05707356
8	0x3d4e4a83	0.05036403
9	0xbe03b0c0	-0.12860394
10	0x3d8208b5	0.06349317
11	0xbdbcf218	-0.09225863
12	0x3bfa1033	0.0076313256
13	0xbd1f5cb9	-0.038906787
14	0xbc5e936b	-0.013584952
15	0x3c58055f	0.013184874
16	0xbd32dd14	-0.043667868
17	0xbb95c371	-0.0045704176
18	0xbd09ff16	-0.033690535
19	0xbafdafca	-0.0019354757
20	0x3d1e4f92	0.038650103
21	0xbc7c704b	-0.015407632
22	0x3c2d0fab	0.010562818
23	0x3de4c94d	0.111712076
24	0x3c02cbde	0.007983176
25	0xbd28e1bc	-0.041230902
26	0xbd1bf29c	-0.038073167
27	0xbd8059be	-0.06267117
28	0x3dcbbe51	0.09948409
29	0xbddac25f	-0.106816046
30	0xbcb03460	-0.02150935
31	0xbc35733d	-0.011074838
32	0xbdb6eda8	-0.08932048
33	0x3d222b18	0.03959188
34	0xbb19f7c0	-0.0023493618
35	0xbd2f608a	-0.042816676
36	0x3dab48d4	0.083635
37	0x3da4b297	0.08041876
38	0x3d9a5765	0.075362004
39	0x3cd22efa	0.025657166
40	0xbd90c094	-0.07067981
41	0xbc4578cf	-0.012052729
42	0x3dae16f8	0.08500475
43	0x3dbe6614	0.092968136
44	0x3c35541a	0.011067415
45	0x3d58c8e9	0.052925978
46	0x3d338d2a	0.043835796
47	0xbdc57910	-0.096422315
48	0x3c895bd7	0.016767425
49	0xbd3c8058	-0.046020836
50	0x3db3ef99	0.08785934
51	0x3dbea047	0.09307914
52	0x3d9eb6ed	0.07749734
53	0xbd82b670	-0.063824534
54	0xbdca6226	-0.098820016
55	0xbc386ec8	-0.011256881
56	0x3dacf3f4	0.08444968
57	0x3dafa3c2	0.08576156
58	0xbd0740f5	-0.033020932
59	0xbcdbfd40	-0.026854157
60	0x3ddd4758	0.10804623
61	0x3d6df651	0.058096234
62	0x3cb56db9	0.022147046
63	0xbd774acd	-0.06037407

weight f4 [1, 64]
0	0xbcc05758	-0.023479149
1	0xbd201372	-0.039081044
2	0x3cd9536a	0.026529033
3	0xbdacde8c	-0.08440885
4	0x3ddb1841	0.106979854
5	0x3ddf2558	0.10895795
6	0xbd8f0722	-0.06983782
7	0xbd5cddc3	-0.053922426
8	0x3dee9cd8	0.11651009
9	0x3d91887d	0.07106111
10	0x3dacccd0	0.084375024
11	0x3cae19a8	0.021252468
12	0xbd1346a9	-0.03595606
13	0xbe025d15	-0.1273082
14	0xbd991460	-0.07474589
15	0x3d2227b3	0.03958864
16	0x3dc9a0c2	0.09845115
17	0x3e072812	0.1319888
18	0x3d6bfe38	0.05761549
19	0x3b9cf4ac	0.0047899093
20	0xbdb844d3	-0.08997502
21	0xbd7056c5	-0.0586765
22	0xbd0b8f52	-0.034072228
23	0x3dca31ff	0.09872817
24	0xbd5fa639	-0.05460188
25	0xbd6ffea1	-0.058592442
26	0x3df5d4ea	0.12003501
27	0x3dd20a48	0.10255867
28	0x3deddad6	0.11614005
29	0x3d540f14	0.051772192
30	0xbc168230	-0.009186313
31	0xbdd7e6d1	-0.105420716
32	0xbd80ff7d	-0.062987305
33	0x3d8fb5e7	0.07017117
34	0x3ab11f00	0.0013513267
35	0xbdf63716	-0.120222256
36	0xbd9fdb18	-0.07805461
37	0x3c1fe683	0.009759548
38	0xbcfffaa9	-0.031247454
39	0x3db290cf	0.08719026
40	0xbbebae20	-0.007192388
41	0x3d562009	0.052276645
42	0xbdc002ed	-0.09375558
43	0x3e0583eb	0.13038604
44	0xbddb25c9	-0.10700566
45	0xbd43f0eb	-0.04783718
46	0x3df6faa7	0.12059527
47	0x3cd763de	0.026292738
48	0xbd96deb4	-0.07366696
49	0xbdcad382	-0.09903623
50	0x3d35c762	0.0443796
51	0x3de04477	0.10950559
52	0x3b332cd6	0.0027339957
53	0xbd4a1e38	-0.049345225
54	0xbd0632fc	-0.032763466
55	0xbdb7cddf	-0.08974814
56	0xbdce7cf4	-0.10082427
57	0x3e002e23	0.125176
58	0x3d2b0b10	0.041758597
59	0xbdecbbf8	-0.1155929
60	0x3d684450	0.056705773
61	0x3ddf6d6d	0.10909543
62	0x3d792fe7	0.0608367
63	0xbdeb0aa0	-0.11476636
