src/model.pt (torch, 55279 bytes, 9 tensors)

weight f4 [64, 2]
000000 7a d6 d7 bd 7b c3 14 3f 3c dd fb 3e e2 37 2b 3f
       -0.10538955 0.5811078 0.49192226 0.66882145
000010 29 42 eb 3a 04 87 78 3e 37 2c dc be ed c5 bb be
       0.0017948794 0.24270254 -0.43002483 -0.36674443
000020 34 80 4d be d7 01 18 3e 82 83 d5 3e 21 1a 7c be
       -0.20068437 0.14844452 0.41701895 -0.24619342
000030 02 a3 e0 be 6e 59 2e be b2 1e 3a be 80 f7 fb 3e
       -0.43874365 -0.17026302 -0.18175772 0.49212265
000040 47 a6 16 3e 8b 97 b4 bc dd f8 9b 3e e7 de 84 3e
       0.14711867 -0.022044918 0.30463305 0.2595131
000050 2f 4b 07 3f 8b 02 03 3f d0 f1 0f 3f fe c0 b4 3d
       0.52849096 0.51175755 0.5622835 0.08825873
000060 6f 2d 82 be 8f 96 40 bd ab bc 00 3f 30 54 29 3e
       -0.25425288 -0.047018584 0.50287884 0.16536021
000070 d1 5e 06 3d 69 81 80 3e 84 1a ff bd dc a5 02 3f
       0.032805268 0.25098732 -0.12456229 0.5103433
000080 48 aa 32 bf 9a a3 4f 3e f4 b5 6b 3d f9 52 13 bf
       -0.6979108 0.20277253 0.05754657 -0.5754848
000090 8f ee 1b bf 0d 3c 2e bf 20 97 12 bf a8 fd fa bd
       -0.60910887 -0.6806038 -0.5726185 -0.12255412
0000a0 16 a4 f1 3e 76 e5 1e bf b8 20 aa 3e c1 a5 8c 3d
       0.471955 -0.6206888 0.33228087 0.068675525
0000b0 fa 66 14 bf 51 ac e3 be 57 98 ae 3e 5a 7b f7 3e
       -0.5796963 -0.44467404 0.341006 0.48336297
0000c0 d9 ea ee 3e 9b 33 0c 3f 53 76 33 3f 5b 9e 4c be
       0.4666355 0.54766244 0.70102423 -0.19982283
0000d0 a1 97 2e 3f 77 cd 21 bf 49 3a 11 3f 30 6c 14 bf
       0.6820012 -0.6320414 0.5672956 -0.5797758
0000e0 86 52 82 be dd 67 a6 be e3 a8 2d bf e5 f9 81 be
       -0.25453585 -0.32501116 -0.67835826 -0.25385967
0000f0 92 e4 af 3e 25 91 e5 bd 10 27 09 bf 11 0b 0a bf
       0.34354073 -0.11209325 -0.5357523 -0.53923136
000100 fb 23 3c 3f fe 7b 42 be 68 e4 1d 3f 01 d5 2e bf
       0.734924 -0.18992612 0.61676645 -0.6829377
000110 fb 7c 0c 3f be fc 03 bd 53 c8 12 bf 61 7b 56 3c
       0.54878205 -0.032223456 -0.5733692 0.013090939
000120 56 d6 bd bd a4 40 e6 3e c8 0c 79 bd 86 65 a8 3e
       -0.09269397 0.44971192 -0.060803205 0.32889956
000130 ad 86 ec bd 21 e8 58 be 24 d3 d5 3e 67 63 23 bd
       -0.11549125 -0.211823 0.4176265 -0.03988972
000140 10 22 d0 3b 69 8a a1 bc 75 c7 1c bf 96 aa 9e be
       0.006351717 -0.01971932 -0.6124185 -0.30989522
000150 ba 99 1a be a7 81 ec bd b6 74 0c 3f 87 28 c0 3e
       -0.15097705 -0.11548167 0.54865587 0.3753092
000160 0a dc 12 bf c2 3b 4c 3d bd aa 9a be 19 18 9f be
       -0.57367 0.049861677 -0.30208388 -0.31073073
000170 2d ca 95 3e bf d5 ca 3d 08 d0 01 3e 30 5a 5d 3d
       0.2925581 0.0990405 0.12677014 0.054041088
000180 cb 64 df be 37 34 70 be 87 d9 17 3f 77 79 28 bf
       -0.43631586 -0.23457418 0.59316295 -0.6581034
000190 e5 d9 c8 3e 3d 65 34 bf c8 55 05 3f ab c8 03 3f
       0.3922874 -0.7046698 0.52084017 0.5147807
0001a0 05 2d 25 bf 60 a3 b2 bd 3d 64 b3 be 24 ec 16 bf
       -0.6452182 -0.087225676 -0.35037413 -0.5895407
0001b0 dd cf 9e 3e ab ec 9a 3e 16 63 9c 3e 49 16 30 bf
       0.31017962 0.30258688 0.30544347 -0.68784004
0001c0 6f 41 ac 3e 8d ff e6 bd 70 29 06 3e 2c 65 00 3f
       0.33643672 -0.11279211 0.13101745 0.50154376
0001d0 96 9b 1b be f7 93 2f be df b2 9e 3e e3 22 e1 3e
       -0.1519607 -0.17146288 0.30995843 0.4397193
0001e0 c9 cd ad 3e 6e fb d6 be 80 19 6c be 34 71 06 3f
       0.33946064 -0.419887 -0.23056602 0.52516484
0001f0 5e 23 a3 3e 80 11 c2 bc 70 ac 04 3d e8 e8 80 bd
       0.3186292 -0.023689985 0.03239101 -0.06294423

bias f4 [64]
000000 af 7f 2c 3f b1 38 00 3d d5 be 0c be 92 b6 8b be
       0.6738233 0.031304065 -0.13744672 -0.27287728
000010 6d 88 17 3f 07 d2 15 3f 1e 3a a9 3e 18 9c d6 be
       0.59192544 0.585236 0.33052152 -0.41915965
000020 ca c3 07 be a0 78 1a be 8c 7e 0f 3f 4e b7 a6 3e
       -0.13258281 -0.15085077 0.5605247 0.32561725
000030 db 00 cf 3c 60 d3 05 3f 65 16 c4 bc c3 ff e7 3d
       0.025268963 0.5227566 -0.02393646 0.113280796
000040 d1 51 35 3e 7b 58 f7 be 3e 3e d7 be f1 42 6f be
       0.17706992 -0.48309693 -0.42039675 -0.2336538
000050 9d 7c 10 bf 92 6d 1a 3f 6f 17 5c 3d 7a e1 c6 bd
       -0.56440145 0.6032344 0.053733286 -0.09710975
000060 e7 64 40 3f 1b fc f2 3d 6b 3f fe 3e aa 7d 7e 3e
       0.75153965 0.118644916 0.4965776 0.24852625
000070 5a 32 35 be 32 da aa be 0e 5d 04 3f 2e 5f 15 3f
       -0.17694989 -0.33369595 0.5170449 0.5834836
000080 8c e6 91 3d 24 44 81 be 8c 53 0a bd c9 9a bc 3e
       0.071240515 -0.252473 -0.033771083 0.36836842
000090 42 40 3a be f3 f3 32 bf 27 29 13 3f 4a 88 b1 3e
       -0.18188575 -0.69903487 0.5748467 0.34674293
0000a0 d3 75 6f bd b7 ed 40 bf 2b 08 9d be 79 3f c8 be
       -0.058461975 -0.75362724 -0.30670294 -0.39110926
0000b0 fc c5 1d bf d5 5e 23 3e dc 25 04 3d 46 99 27 bf
       -0.61630225 0.15954144 0.032262668 -0.6546825
0000c0 b1 e2 cb 3e 7e cb 18 bf 5b e4 0a bd 56 fb ba 3c
       0.3982139 -0.59685504 -0.033909183 0.022824924
0000d0 1c 2a 2b bf 32 db 42 3c 75 84 2c 3e f5 ed 38 3e
       -0.6686113 0.011893081 0.16847403 0.18059523
0000e0 36 47 d6 be 5c 2a 47 bf b5 04 44 3e 3d bb 2a be
       -0.41851205 -0.7779901 0.1914242 -0.16672988
0000f0 9d 00 b4 3d d7 cc 7a be 58 5c 1e bf 04 ed 29 be
       0.087891795 -0.24492203 -0.61859655 -0.1659432

weight f4 [64, 64]
000000 65 18 9d 3b 16 5c bf 3d 5b 28 4b 3c 8c 9f 9b 3d
       0.004794168 0.09343736 0.012399758 0.075987905
000010 e6 d8 06 3d 05 01 d0 3c 5a f7 f5 bc 3a 88 d6 3d
       0.032921694 0.025391111 -0.030025173 0.10475202
000020 1a 33 01 bd 1f b8 e3 bd b6 81 b9 3d 3a 4f c4 3b
       -0.031542875 -0.11119103 0.090579435 0.00599089
000030 d4 6b d6 bd 3f 5e f4 bd 14 3f dc 3d 90 66 04 3d
       -0.10469785 -0.119320385 0.10754219 0.032324374
000040 13 5b cc bd fc 0b 02 bc 18 62 4d bd 22 7c 18 bc
       -0.099783085 -0.007937428 -0.050142378 -0.009306939
000050 04 7f 03 3e cf 67 a0 3d a8 44 02 3c cf cd f3 bc
       0.12841421 0.078323 0.007950939 -0.029761223
000060 0e 4e e2 3a c2 ac 79 3d b1 70 71 3b 35 e7 d4 3d
       0.0017265694 0.06095577 0.003684085 0.10395662
000070 74 50 26 bc ce f1 03 3e 8f 5a 69 3d 99 fc 5e bc
       -0.010151017 0.1288521 0.05697113 -0.013610029
000080 4f b8 91 3d aa 58 03 3e e2 28 02 be 3d d5 ab 3c
       0.07115232 0.12826791 -0.12710908 0.020975703
000090 43 19 95 bd f8 e7 b9 3d 2c 08 99 3d 94 97 85 3d
       -0.07280209 0.09077448 0.07472262 0.06523052
0000a0 d6 d7 cb bd 96 0b cc bd 4b 84 e3 bc 8d a0 d1 bc
       -0.09953277 -0.09963147 -0.027773043 -0.025589252
0000b0 39 a0 0c bc 3e d0 97 3d 1e 2a bc 3b 3c b9 9a bd
       -0.008583122 0.07412766 0.0057423254 -0.07554862
0000c0 1b c2 69 bc 3a 74 f5 bd b7 fe 86 3d 7b ff 58 bd
       -0.01426747 -0.11985059 0.06591552 -0.05297802
0000d0 b9 90 ae bd 2a 51 5f 3d f7 fe 01 be b9 75 c8 3d
       -0.085236974 0.054520763 -0.12694918 0.09788079
0000e0 c1 c5 8c 3c e3 c8 24 3d 33 82 8b 3d 12 d6 a2 3d
       0.01718414 0.040230643 0.06811943 0.07950987
0000f0 d1 fd 27 bd b4 52 50 bd c6 1a 91 3d a0 83 17 3c
       -0.041013543 -0.05086012 0.07085185 0.00924769
000100 6f 16 cc bd 1a 21 8b 3d 91 8b fa bb 08 ab db bd
       -0.09965216 0.06793423 -0.007646032 -0.10725981
000110 ee 22 a2 bd ff 00 0d bd 99 3e 83 bd b9 cc 83 bd
       -0.079168186 -0.034424778 -0.06408424 -0.06435532
000120 7c 85 bb 3c 66 8b c7 bd d1 35 0e 3e b4 71 f8 3d
       0.022890799 -0.09743385 0.13887717 0.12131062
000130 53 c3 20 3e 3a 7e aa bd 0a 43 b4 3d 96 f8 ae 3d
       0.1569951 -0.08324857 0.08801849 0.08543508
000140 d9 9d 60 bd 39 e6 9d bc e8 61 de bd dc e2 5f 3d
       -0.054838035 -0.019274818 -0.10858518 0.05465971
000150 67 62 c9 3d 4f b4 7c bd 9b bb a8 3d 4d 63 ba 3d
       0.09833222 -0.061695393 0.08238908 0.09100971
000160 0f 36 b8 3d fc 37 c3 bd 11 97 0b bd de 1d e2 3d
       0.08994686 -0.095321625 -0.034079615 0.11040853
000170 c0 90 01 be cd 25 3c bd 63 6e 81 bd e2 b4 8a bd
       -0.12652874 -0.045934487 -0.06319883 -0.06772782
000180 8f 07 93 bc ec 35 35 3c 60 3d 6a 3d ef 7d 01 bc
       -0.01794794 0.011060219 0.057187438 -0.00790356
000190 6f a3 cc 3d d0 11 8f 3c 32 61 a5 3c 74 4b 2e bc
       0.0999211 0.017464548 0.020187948 -0.010638107
0001a0 84 19 ed bd d8 d5 06 bd 88 1e cf 3c 24 18 8d bc
       -0.11577132 -0.03291878 0.025283113 -0.017223425
0001b0 2b e5 91 3d fa 6a e9 bd 24 39 08 3e 36 66 be 3d
       0.071237884 -0.11397357 0.13303047 0.09296839
0001c0 26 79 3f bd 62 9e e8 3d 5a 2d 04 3e 35 d2 d8 3d
       -0.046746396 0.11358334 0.12907925 0.10586969
0001d0 77 e6 f1 bc 77 88 97 bc ac c6 f0 3d 23 ab 86 ba
       -0.02952884 -0.018497689 0.11756644 -0.0010274391
0001e0 fe 29 05 bd 50 98 d9 3d e0 cd cc 3c a6 0c 35 3d
       -0.03251075 0.106247544 0.025000513 0.044201516
0001f0 41 36 cc 3a 92 b6 df 3d 7e 53 98 3d 34 e1 c9 3d
       0.0015580134 0.109234944 0.074378 0.09857407
000200 48 35 27 bd 35 2c f0 bc a3 4c e3 3d fc 03 c4 3d
       -0.040822297 -0.029317955 0.11098602 0.095710725
000210 45 d0 ac bd d9 cb 00 3e d7 97 a3 3d 5e c8 51 bc
       -0.08438162 0.12577762 0.079879455 -0.012804119
000220 d1 02 30 be c9 db 93 3c 76 be 79 bd 8e 77 8f 3d
       -0.17188574 0.018049138 -0.060972653 0.07005225
000230 e0 55 4d bd 27 90 c3 bb 8b 36 a6 bb b2 43 9d 3d
       -0.050130725 -0.005968112 -0.00507242 0.076789275
000240 67 9b 8c bd 5a 3a 88 3d 6a cf 47 bc 3b 6a 16 3d
       -0.06865578 0.06651755 -0.012195447 0.036722403
000250 16 b0 5b 3d 83 b5 96 bd 51 4e 7a bd 92 4e b7 bd
       0.053634726 -0.07358839 -0.061109845 -0.08950533
000260 05 5f d3 3d 32 46 09 3c a1 98 65 3c 65 2a 05 3d
       0.10320858 0.008378552 0.01401344 0.032511134
000270 f8 d3 7c 3c a0 cb 13 3d c8 8b 20 3d 72 cf 67 3b
       0.015431397 0.036082864 0.039195806 0.003537145
000280 00 f5 1e bd 46 57 a9 bc 39 19 8c bc 69 7a 44 bd
       -0.03880787 -0.020671498 -0.01710187 -0.047968302
000290 ad 37 17 3e 78 24 0a 3d d9 cd 01 bb 09 4f c4 bc
       0.14767332 0.033726186 -0.0019806533 -0.023963468
0002a0 77 94 cf bd ae 00 5a bd 3f 36 15 bd e7 32 10 3e
       -0.10135739 -0.053223304 -0.036428686 0.14081918
0002b0 ee 37 1a be 4f d5 86 3d 45 07 d4 3d 42 52 b7 3d
       -0.15060398 0.06583654 0.10352949 0.08951236
0002c0 3a 1a d1 3d 5d 1b cf 3d b0 ce 56 3d 18 2b c7 bc
       0.102100804 0.10112641 0.052443206 -0.02431254
0002d0 36 e9 dc bd 56 03 30 bc c0 3f 16 bd 4e f7 d6 3d
       -0.10786669 -0.010742983 -0.03668189 0.104963884
0002e0 69 2a 9e 3c 2d 36 28 bc 4b c9 18 3d 05 86 1c 3b
       0.019307332 -0.010266823 0.037301343 0.0023883593
0002f0 70 f7 97 bd f7 4b 84 3d f6 86 af 3d 7c 5f a7 3d
       -0.07420242 0.06459802 0.08570664 0.08172509
000300 3c a1 45 3c b2 cc 46 3d d7 de c8 bd 9e ca e2 3c
       0.012062367 0.048535056 -0.09808128 0.027684506
000310 c6 14 12 be 2c 55 92 bd 43 a1 5c bc 1f e8 bf bd
       -0.14265737 -0.071451515 -0.013466182 -0.093704455
000320 5c 56 03 3e 5c be 74 3d c9 e9 46 3d 07 60 09 bb
       0.12825912 0.059751853 0.0485628 -0.0020961778
000330 1c cf d2 3d 3b ca 1e bc 6c 75 15 3c ca 94 f8 bd
       0.10293409 -0.00969177 0.009122234 -0.12137754
000340 0e 3e 86 3d 84 3e 04 3d 2b 68 15 3d 9c 8f 3f ba
       0.06554805 0.032286182 0.036476295 -0.0007307471
000350 56 1c 09 3e 78 7f b5 3d 3e c6 55 bb 88 ab 40 bd
       0.13389716 0.08862203 -0.0032619382 -0.047038585
000360 cd 71 3d bd d0 36 85 bd 94 9e a6 3d 4e ee c9 3b
       -0.046251107 -0.06504595 0.08135715 0.0061624413
000370 9a 52 16 bd 39 f5 a6 3d e0 7d a2 bd ef b2 7c bd
       -0.03669987 0.08152241 -0.07934165 -0.061694082
000380 11 e2 9c 3d e3 9f 1b bd 75 f7 01 3e fa c7 cd 3d
       0.07660306 -0.037994277 0.12692054 0.10047908
000390 70 bf a7 3d 4b 05 ea bd 30 0b 01 3e 62 0f 03 3d
       0.08190811 -0.11426791 0.12601924 0.031997092
0003a0 e3 d1 8a 3d e7 18 00 3e 76 1f 04 3c 0d ae 0f bd
       0.06778314 0.125095 0.0080641415 -0.035078097
0003b0 33 bb f7 3d 50 f9 ea 3c 6d ec 62 3d 60 dc cc 3c
       0.12096252 0.028683335 0.055401254 0.025007427
0003c0 3c 2b 74 bc c4 0f 63 bd 40 2e b0 bc 4f e2 a1 3d
       -0.014902886 -0.055434957 -0.021506429 0.07904493
0003d0 c3 44 2f 3d 3a 72 86 3d 5f 80 de 3d 85 72 02 3e
       0.042790186 0.06564756 0.108643286 0.12738998
0003e0 0e ef 34 3d d8 7c 36 bb e1 7b 35 3d 82 0d ce 3d
       0.044173293 -0.0027845409 0.044307593 0.1006117
0003f0 41 19 50 bd c9 0c ff bd 70 d6 de bd 50 de 20 bd
       -0.050805334 -0.124536105 -0.108807445 -0.039274514

bias f4 [64]
000000 66 f2 f8 3d de 22 3f 3c c9 c4 0a 3e 20 35 b3 3c
       0.12155609 0.011666028 0.1355163 0.021875918
000010 6f 66 36 3c ab 5c 09 3e d9 b1 b7 bc 54 6d 55 bd
       0.0111328205 0.13414256 -0.022423672 -0.052106217
000020 ab 52 dc 3d 2b 0f c2 bd 7e a2 83 3d 5c 3b 18 3d
       0.10757955 -0.09475549 0.06427477 0.037165985
000030 99 5e 5c 3d a2 61 ca bc b9 64 bb 3d 09 59 b4 bc
       0.053801153 -0.024704758 0.09150071 -0.022015112
000040 6e d9 f7 3d 8a c7 17 be 4e 79 e0 3d 68 20 4c 3c
       0.12102018 -0.14822212 0.10960637 0.012458898
000050 25 89 d1 3d 86 26 c4 3c f1 ff dc 3c 31 c1 c9 3d
       0.10231236 0.02394415 0.026977511 0.098513015
000060 30 7d ed 3c 79 06 f3 bd 0e 8f 49 3d 64 70 84 bd
       0.028990358 -0.11866469 0.049208693 -0.06466749
000070 d0 ca 9e bc fb ed 05 3e 37 bd a2 3d 38 4b 04 be
       -0.019383818 0.13079064 0.07946246 -0.12919319
000080 f3 ed 9d bd ca a5 ee bd 9c 9f 63 bd bc 08 3c bd
       -0.07711401 -0.116527155 -0.055572137 -0.045906767
000090 c2 a6 10 be 38 32 ac 3b 1e 07 04 bd 70 52 6b 3d
       -0.14126113 0.00525501 -0.03223335 0.057451665
0000a0 50 3d cf bc 74 29 b1 3b 0c a9 1e bd 5f d9 65 bd
       -0.02529779 0.005406553 -0.038735434 -0.056115504
0000b0 cd e2 fa bb c2 cf b2 bd 66 4d c1 bd 54 b1 4d bc
       -0.0076564313 -0.08731033 -0.09438591 -0.012554485
0000c0 27 c3 11 3d 08 4d fa bd b6 2d 37 3d 45 d8 ab bd
       0.035586502 -0.12221724 0.044721328 -0.083908595
0000d0 69 e1 40 3d 39 c5 94 3d de 0e f8 bd 59 df bd bd
       0.047089968 0.0726418 -0.12112211 -0.09271116
0000e0 39 94 9e bd 72 cc cc 3d 0a 4a bc 3d 04 b8 8a 3d
       -0.07743115 0.09999932 0.09193809 0.067733794
0000f0 98 81 90 bd db ef 11 be 86 a0 0b bd 0e 36 70 3d
       -0.07055968 -0.14251654 -0.034088634 0.0586453

weight f4 [64, 64]
000000 3f 35 b5 3d 9a cb b3 bc 62 70 d5 bd bc 7d 8b 3d
       0.088480465 -0.02194767 -0.10421826 0.06811091
000010 78 23 ea bd 00 28 9b bd 77 df 82 3c be 53 97 bd
       -0.114325464 -0.07575989 0.015975697 -0.073890194
000020 c9 af 87 bd e2 cc c3 bd 9a 4b 10 bc 34 16 45 3d
       -0.06625325 -0.09560563 -0.008807087 0.048116878
000030 f7 a4 c3 bd da da ef 3d 3d 19 04 bc 62 51 cf bd
       -0.09552949 0.117116645 -0.008062658 -0.101229444
000040 95 83 81 3d a0 88 e3 3d ba bc b3 3d d1 d1 ce bd
       0.063239254 0.111100435 0.08776231 -0.10098613
000050 80 da 1d bd 81 24 05 bd 1d 29 b1 3d 63 cc aa 3a
       -0.038538456 -0.032505516 0.0865042 0.0013030883
000060 34 8f ac bd ff 1e 95 bb 5e c5 9f bd ae e4 bd 3d
       -0.08425751 -0.004550814 -0.07801317 0.09272133
000070 52 36 be 3c 82 1e d3 bd 4d 58 be bd 51 d9 ce bd
       0.023219261 -0.10308553 -0.09294186 -0.101000436
000080 11 5b 87 3b c8 15 ac bd 44 9b 51 bd 62 95 47 bd
       0.004130729 -0.08402592 -0.051173463 -0.048726447
000090 47 a1 4c 3d da 34 7e 3c f7 5d cc bd ce 95 b0 3d
       0.049958494 0.0155155305 -0.0997886 0.08622323
0000a0 f0 02 c6 bd 35 b7 8f bd e0 b0 8b 3c 9d 18 f0 3c
       -0.09668529 -0.07017366 0.017052114 0.029308612
0000b0 20 d7 38 3d cd 04 ef 3d e0 41 b6 3c 45 f6 f3 bd
       0.045127034 0.116708376 0.022248209 -0.119122066
0000c0 46 af 91 3d 0c f8 b3 3d 0f e8 93 bd 0f d1 e4 3d
       0.07113509 0.087875456 -0.07221996 0.11172687
0000d0 cf fa b0 3d 04 11 4e bd 48 29 25 3d 02 a8 ec 3b
       0.08641588 -0.050309196 0.040322572 0.0072221765
0000e0 26 e8 fa bd e9 9f 86 bd f8 71 6f 3d 45 e0 96 bc
       -0.1225131 -0.06573469 0.0584583 -0.018417487
0000f0 a0 31 e0 bc 6d f9 52 bd 11 31 c7 bd 07 64 db bd
       -0.027367413 -0.051507402 -0.097261555 -0.10712438
000100 d3 e4 35 bc 77 07 01 bd ee 11 02 3d 8f 41 20 3c
       -0.011101919 -0.03150126 0.03175538 0.009781255
000110 e8 ae d2 3d 33 5c 9d bd 89 7b 10 bb 0a b9 fc 3c
       0.10287267 -0.07683601 -0.002204629 0.030849952
000120 b0 bb fe 3c c4 38 d3 bd dd 00 09 3c de 7f da 3d
       0.031095356 -0.103135616 0.008362022 0.1066892
000130 04 c0 db bd 94 54 87 bc f3 45 43 3d ca 08 2f bc
       -0.107299834 -0.016519822 0.04767413 -0.010683248
000140 7e 8c ea 3d 9c c5 21 bc 4d 08 0e bd 44 3e ae bc
       0.11452578 -0.009873774 -0.034675885 -0.021269925
000150 42 3e c1 bd 1a e2 c5 bd 65 d1 c5 3d 67 0b 8e 3d
       -0.09435703 -0.09662266 0.096590795 0.069357686
000160 3e 6f bf 3d 2d 66 b3 bd 87 3c 89 3d 52 30 97 3d
       0.0934739 -0.08759723 0.06700998 0.07382263
000170 4f ba b4 3d 3f b9 41 bd 64 24 bc bd e3 6f 08 3e
       0.08824598 -0.047295805 -0.091866285 0.13323931
000180 ca ba 11 be 58 2d 72 bd e9 74 f6 bd 9f 27 94 3d
       -0.1423141 -0.059125274 -0.120340176 0.072341196
000190 5a a8 e1 bd 5b fe 9e 3d e3 c6 1e bd d2 81 8c 3d
       -0.11018439 0.07763358 -0.038763892 0.06860699
0001a0 90 b5 5c bd e9 22 95 bd 80 e2 10 3c fb cc df bd
       -0.05388409 -0.07282049 0.008843064 -0.10927769
0001b0 64 2e de 3d 7d 20 8c bc fe d2 c9 bd d6 4a c9 bd
       0.10848692 -0.017105335 -0.09854697 -0.09828727
0001c0 6c 5e 72 3d 6c 6a 14 3e 81 b2 af 3d a0 cb d9 bd
       0.05917208 0.14493722 0.08578969 -0.106345415
0001d0 19 c8 6e bd 32 47 ac bd c2 10 f2 3d db de be 3d
       -0.058296297 -0.08412017 0.118196025 0.0931985
0001e0 6f c5 7b 3c 81 60 b7 3c 34 ce 2f bd 6c 85 b8 3c
       0.015366896 0.022384884 -0.04292126 0.022524558
0001f0 08 c6 58 bd 58 7e f9 bb 03 74 a7 3d 0e 9c 91 3d
       -0.052923232 -0.0076139383 0.08176424 0.07109843
000200 9c 5e eb bd f0 94 6e bd a0 e2 c0 3c 3e 35 9c bd
       -0.11492655 -0.058247507 0.023545563 -0.07627343
000210 60 40 b9 3b 46 6e bb bd 9a fc 81 bd 06 29 d2 3d
       0.005653426 -0.09151892 -0.06347008 0.10261731
000220 de 5f 9d 3d c0 4e 05 3c de b8 9d 3d 78 5c 6a 3d
       0.07684301 0.008136451 0.07701276 0.05721709
000230 c4 c5 c2 bd 0c 7a 67 bd a0 2d 33 3d 18 5a 5c bd
       -0.09510377 -0.056512877 0.043744683 -0.053796858
000240 1e 9f 9a bd 6c 7a 4b bd 52 fd a8 3d 50 39 60 3d
       -0.075498804 -0.049677297 0.08251442 0.054742157
000250 24 ba 79 3d f8 d1 e0 3d 04 73 07 3d 6a f6 cf bd
       0.060968533 0.10977548 0.03306867 -0.10154422
000260 00 ae d1 3c 00 10 38 3d a8 c2 fa 3d 58 38 71 3d
       0.025595665 0.044937134 0.12244159 0.058891624
000270 ba 0b b7 bd 02 c8 85 bd 80 01 46 bd 7c 30 0a 3d
       -0.089377835 -0.06532289 -0.048341274 0.033737645
000280 90 d0 aa bd a0 82 57 3c 62 8e a6 3d 00 f3 02 bc
       -0.083405614 0.013153702 0.08132626 -0.007992506
000290 60 5a 23 bc 1e 32 a8 bd 24 d8 3d 3d e4 af a4 bd
       -0.009970278 -0.08212684 0.046348706 -0.08041361
0002a0 de c5 ea bd 88 f6 b4 bd 30 c9 60 3d 30 82 b6 3c
       -0.114635214 -0.088360846 0.054879367 0.022278875
0002b0 22 d9 f0 bd c8 a7 6f 3d 4c 21 30 3d c0 0c 15 bd
       -0.11760165 0.058509618 0.043000504 -0.036389112
0002c0 26 ad 83 bd c8 02 08 3d 5c dd 9a 3d d2 4b f5 3d
       -0.0642951 0.033205777 0.07561752 0.11977352
0002d0 30 de 1b bc a4 1b d0 bd 70 93 bb bc 4c aa fe 3d
       -0.009513423 -0.10161522 -0.022897452 0.12434825
0002e0 40 fa 86 3b 98 73 7f bd 0a c8 d9 bd c4 23 29 bd
       0.0041191876 -0.0623661 -0.106338575 -0.041293874
0002f0 00 f8 8a bb 90 55 bd 3c 90 6f ea 3c a6 b6 e3 3d
       -0.0042409897 0.023112088 0.02861765 0.11118822
000300 ca 2c 5a 3c 90 88 af bd fb 6e e0 bc a2 5b d5 bb
       0.013316343 -0.08570969 -0.02739667 -0.0065111676
000310 46 61 00 3e 5b 5f 13 3e fb 8c 54 bc de 77 22 3e
       0.12537107 0.14391844 -0.0129730655 0.15866038
000320 93 ea 96 ba 6f bf ab bd e9 51 ae bc 0e 84 8a 3d
       -0.0011514 -0.083861224 -0.021279292 0.06763469
000330 87 08 a6 bc 37 6a 26 3c a3 b0 53 bd 30 ec c2 bd
       -0.020267738 0.0101571595 -0.051682126 -0.095177054
000340 32 89 a2 3d bf d2 55 bc d0 ce 05 be e5 15 05 3c
       0.07936324 -0.013050734 -0.13067174 0.008122896
000350 22 74 d8 3d e1 6d 82 bc 5e 5c 47 3d 0c 09 e8 3d
       0.105690256 -0.015921535 0.048672073 0.113298506
000360 8f c6 7c bd 90 df 9c bc 7c a4 d1 3b 88 99 de 3d
       -0.061712798 -0.019149572 0.006397782 0.108691275
000370 40 b5 d9 3c 4a f4 a1 3d c1 65 03 3e 82 6f 04 bd
       0.026575685 0.079079226 0.12831785 -0.032332905
000380 56 f1 c2 3c d4 1d ba 3d 20 b4 f1 3d f9 72 81 bc
       0.023796719 0.090877205 0.11801934 -0.015801894
000390 73 0e f4 bc 7c 17 6d 3d 79 51 62 bd b0 d8 9e 3d
       -0.029792046 0.057883725 -0.05525348 0.077561736
0003a0 85 ce 2e bd 20 cf 67 3d 72 b4 bd 3d bf 5a 2a 3d
       -0.04267742 0.056594014 0.09262933 0.04159045
0003b0 56 9b 99 3c 50 5f 51 bd a0 ea 83 bc 5e 37 98 3d
       0.018750828 -0.051116288 -0.016103089 0.074324355
0003c0 49 cf b8 bd 6f b2 75 bc a2 8e ba bc 8e be f7 bc
       -0.090239115 -0.014996155 -0.02277309 -0.03024223
0003d0 41 25 09 3c 99 16 a6 bd 88 44 ef bc 26 5b bd 3d
       0.008370698 -0.08109779 -0.029207483 0.09245901
0003e0 9b b7 7c bd bf d0 33 3a b8 af a0 3c 0d b2 0e bd
       -0.061698537 0.00068594137 0.01961504 -0.03483777
0003f0 a4 ff b2 3d 0c 06 78 bd 21 cc 18 bc 4d 23 c8 bd
       0.08740166 -0.06055264 -0.009326012 -0.09772358

bias f4 [64]
000000 89 b2 d7 3d 28 1e 41 3d e8 69 b5 bd ce d6 ab bd
       0.105321 0.0471479 -0.08858091 -0.0839058
000010 be 85 84 bd ec 40 73 3d c5 98 0c be 6d 32 e9 bc
       -0.06470822 0.059388086 -0.13730152 -0.028466428
000020 24 0d a7 3d 3e 95 8e bd 47 45 e6 3d a9 09 f9 3b
       0.08156803 -0.069620594 0.11243682 0.0076000285
000030 ec 53 b5 3d f7 80 e5 bc 53 83 04 bd 68 f1 a3 3d
       0.088538975 -0.028015597 -0.032351803 0.08005029
000040 eb 08 70 bd d1 4a f1 3c 7e d3 d8 bd 1e 53 a1 bd
       -0.058602255 0.02945462 -0.10587214 -0.078771815
000050 7d 0c 99 bd 31 1c ef 3d cd 3f d0 3c 8f 6d a2 3c
       -0.07473085 0.11675299 0.025421048 0.019827632
000060 b5 4b 11 3e 21 8a 07 3e cf dd d9 3d c7 8a 0f bd
       0.14189036 0.13236286 0.1063801 -0.035044458
000070 4b b9 06 3e 88 54 9f bc 3b 13 84 bc 0f a7 61 3d
       0.13156621 -0.019449487 -0.016122451 0.05509096
000080 f6 ff a6 3d 17 ad e6 3c 69 60 c5 3d 43 4b 77 3d
       0.081542894 0.028158708 0.096375294 0.06037451
000090 f0 f1 e5 bd c4 2d e6 3c 82 55 38 bd 7f eb 19 3c
       -0.112277865 0.028097995 -0.04500342 0.009394526
0000a0 e6 93 56 bd 88 57 b2 bc f4 d0 37 3d f5 8c 4c bd
       -0.05238714 -0.021770254 0.044877008 -0.049939115
0000b0 d9 e3 34 3d 76 7e 96 3d dd b6 30 3d f1 d8 de 3c
       0.044162605 0.07348339 0.043143142 0.027203055
0000c0 06 a9 dd 3c e8 28 2f 3d 1d 22 a8 3d 8f d9 46 bd
       0.027058136 0.04276362 0.082096316 -0.048547324
0000d0 2e da f4 3d 0c 76 0c 3d 65 ce a7 3d f9 73 22 3d
       0.11955677 0.034292266 0.081936635 0.03966138
0000e0 4f 89 09 3d 31 f6 29 3d a4 8a 03 be e7 9b 08 be
       0.033578213 0.041494552 -0.12845856 -0.13340722
0000f0 68 42 06 bc a4 cc e1 3d fe fd d9 3b 92 f6 09 3e
       -0.008194543 0.1102536 0.0066525927 0.13472965

weight f4 [64, 64]
000000 75 e4 79 bd e2 c4 ca bd da b1 f6 bd ea ed 8f bd
       -0.06100889 -0.09900834 -0.12045641 -0.070278004
000010 96 2a c2 3d b3 79 a5 3d ea 2a 17 be d1 33 cc 3a
       0.09480779 0.08079853 -0.14762464 0.0015579407
000020 3c e1 c9 bd 95 62 1d 3d a5 9b 3c 3d 85 f3 78 3d
       -0.09857413 0.038424093 0.04604687 0.060779113
000030 88 e8 25 3d 86 06 dd bd 2d 07 1b bd d7 91 ca bd
       0.040504962 -0.1079226 -0.03784864 -0.09891098
000040 bf 0a 10 3d 4f e9 da bc 8b 73 f8 3d 97 7e 8f bd
       0.0351665 -0.026722578 0.12131413 -0.07006567
000050 1a 6e f8 bc d3 df 44 3d 28 78 d3 3d 08 fe 18 bc
       -0.030325938 0.048065018 0.10325652 -0.0093379095
000060 fc 5f d8 3d 6b f3 66 bd bd 3f ec 3d 41 68 3d bd
       0.105651826 -0.056384485 0.115355946 -0.046242002
000070 c9 42 2a 3d f0 20 a1 bd 51 75 f7 3b 1a 6f be 3b
       0.041567598 -0.078676105 0.007551827 0.005811584
000080 7b 33 a0 bd 85 17 5c 3d da 41 eb bd 84 37 89 3d
       -0.07822319 0.053733367 -0.114871696 0.06700042
000090 fe ca f3 3d 5b 70 a5 bd 3e ed 82 bd ca c6 84 bc
       0.11903952 -0.08078071 -0.063929066 -0.016208071
0000a0 48 f9 98 bd 70 6a 47 bc 59 98 ef bc 28 4e 83 bd
       -0.074694216 -0.012171373 -0.02924745 -0.064113915
0000b0 4b 90 f5 3d 56 d0 e0 bd b1 d0 da bd f5 c5 e2 bd
       0.11990412 -0.10977237 -0.10684336 -0.110729136
0000c0 dc cd b9 bd 93 e6 f8 3d 9a bb 14 3e d6 74 0e 3d
       -0.09072468 0.121533535 0.1452469 0.034779392
0000d0 ab 6e 5d 3b 8e bf ba 3b 76 55 0f 3e b2 d0 59 3d
       0.0033787887 0.0056991046 0.13997445 0.053177543
0000e0 65 1a b7 3d 3c 8e 05 3d f4 e3 1c bc 75 a2 44 be
       0.08940581 0.03260635 -0.009575833 -0.19202597
0000f0 a7 5d c6 bd b6 8c b1 bc cb 38 ee 3c 4b cf b5 3c
       -0.096858315 -0.021673542 0.029079815 0.022193572
000100 05 34 73 3d 06 2e c5 3d 66 47 e0 3d 45 4f 01 be
       0.05937578 0.09627919 0.10951118 -0.12627895
000110 6d 33 d7 3d fc c9 dc bc 98 22 9d bd 92 72 93 3c
       0.105078556 -0.026951782 -0.07672614 0.017998967
000120 33 f5 48 bd 55 0a 0a be ea 1b f0 3d 86 1d ec 3d
       -0.049061965 -0.13480504 0.11724074 0.11529069
000130 0c 5d b6 bd f7 02 3f bb fb d5 11 be db d8 00 3d
       -0.08904466 -0.0029146054 -0.14241783 0.03145681
000140 3d 5c d5 bd 97 5a 0a bd 80 9f f4 bd 79 56 c3 bc
       -0.10417984 -0.0337778 -0.11944485 -0.023844944
000150 cc 22 91 3d 94 3d bb bd 94 36 f4 3b 02 52 1d 3d
       0.07086715 -0.091426045 0.0074527953 0.038408287
000160 1e e7 ff ba f7 a1 b5 3d 45 49 e9 bc fe 47 01 be
       -0.0019523834 0.08868783 -0.02847732 -0.12625119
000170 f3 cf 6f 3d c0 9b 17 3d fc 84 87 3c 4d 2b df b9
       0.058547925 0.03701377 0.016542904 -0.00042566136
000180 e9 1d ab 3d f1 6e db bd f3 f2 64 b9 b8 07 19 3e
       0.08355314 -0.1071452 -0.0002183428 0.1494435
000190 54 65 c2 3d fb 57 a3 bd b7 fc 7e 3d db 7e 05 be
       0.09491983 -0.07975765 0.062252726 -0.13036673
0001a0 5b f0 98 3d ec d2 fe bd 5c c2 ba bd 99 9d 9e bc
       0.07467719 -0.12442574 -0.09119102 -0.019362258
0001b0 4e d7 7f bd 6c 69 63 bb 4c 2c 9e 3d 55 4b 09 3e
       -0.06246119 -0.0034700288 0.07723293 0.13407643
0001c0 69 04 0e 3e 0e 9f 7a 3d 81 1e e8 bc a2 8b c1 bd
       0.1386887 0.061186843 -0.028334858 -0.09450461
0001d0 39 ce b0 bd b2 49 ab bd cd f7 ec 3d 35 eb aa ba
       -0.08633084 -0.08363666 0.11570702 -0.0013040068
0001e0 12 c1 ac bd 90 69 ab 3d 8f e4 dd bd 99 df aa bb
       -0.08435263 0.08369744 -0.1083461 -0.005214643
0001f0 92 ce ca 3c 75 cd ab bd d3 c5 ea bd d3 09 1f 3e
       0.024756704 -0.08388797 -0.11463513 0.15531091
000200 9d 26 c5 3d 30 1c c3 bc f0 59 b5 3c e9 40 35 bc
       0.096265055 -0.023817152 0.022137612 -0.011062839
000210 69 83 b5 3b be f2 c5 bd cb 6f 29 3d b0 1d f6 bb
       0.005539347 -0.0966544 0.04136638 -0.0075108632
000220 5f c0 c2 3d 14 4e 83 3d 27 14 06 be e6 eb f8 bd
       0.09509348 0.064113766 -0.13093625 -0.12154369
000230 60 10 9a bc 0e 04 ac bd 97 1a 8a bd f1 d9 a9 3d
       -0.018806636 -0.08399211 -0.06743353 0.08293522
000240 9a a1 3b 3c 2c 63 cb 3d bc f6 f2 bb 6c 1e a2 bc
       0.011452103 0.09931025 -0.007414667 -0.019789897
000250 9c 54 e0 bd 06 4b 06 be ec e0 3e 3d cb cf f6 bc
       -0.10953638 -0.13114557 0.04660122 -0.03012838
000260 d2 2f 9c 3c 12 f1 9f bd fc 5c 7d bc c6 2b 56 bd
       0.019065771 -0.078096524 -0.015464064 -0.05228784
000270 04 df b8 3d d0 39 91 bd af 32 0c be 02 52 f3 bd
       0.09026912 -0.07091105 -0.1369121 -0.11880876
000280 6c 74 f6 bc 41 4d b9 bd a9 22 02 3d f3 cc c3 3d
       -0.030084811 -0.09047938 0.031771336 0.09560575
000290 00 8d d9 3c fe fa 35 3c 37 56 de bd 74 59 fe 3d
       0.026556492 0.0111072045 -0.10856288 0.124194056
0002a0 dd 15 95 bd fa 3b 80 bd d6 2a af 3c 39 b5 cc bc
       -0.07279561 -0.062614396 0.02138273 -0.024988757
0002b0 7b 7c 9b 3d c7 4c a7 3c ec 81 28 3c e9 c2 0d 3d
       0.07592102 0.020422352 0.010284882 0.03460971
0002c0 a3 ba a3 3d 0a 47 06 be 6c cc af 3d c0 64 56 bc
       0.079945825 -0.13113037 0.08583912 -0.013085544
0002d0 66 3c d0 bd c8 65 05 be bc 99 61 bd 1e 5e dd bd
       -0.1016777 -0.13027108 -0.055078253 -0.10808967
0002e0 89 45 07 bd 1a 7f 54 bd 30 16 65 3c 6c da 0f bd
       -0.0330253 -0.051879026 0.013982341 -0.035120413
0002f0 8e b2 97 bc d9 c0 0d be d5 ec 42 bd 52 ef 52 3d
       -0.018517759 -0.13843097 -0.047589142 0.051497765
000300 1f 2c 8a bd 9f b8 0a bd 50 26 60 bc c0 1a f0 bd
       -0.06746697 -0.033867475 -0.013681009 -0.11723852
000310 17 39 cc 3b 1d c8 ce 3d 3d f4 c5 bd 92 44 f4 3d
       0.0062323916 0.10096762 -0.096657254 0.11927141
000320 78 e8 73 bc db 11 18 be a7 93 1e bc d6 ac 0f bd
       -0.014886968 -0.14850561 -0.009678758 -0.03507694
000330 80 c0 3c 3b b0 61 55 3d 40 4d e8 bd 79 a3 ca bd
       0.0028801262 0.052095115 -0.11342859 -0.09894461
000340 63 b2 91 3c 76 9b 4b bd 83 b0 ee bc 04 76 7a 3c
       0.017785257 -0.049708806 -0.029136902 0.015286926
000350 69 a8 c8 bc ae bb d9 3c 8f f8 c3 3d f2 a2 89 bd
       -0.024494367 0.02657875 0.09568893 -0.067205325
000360 0d dc 14 3e c9 f8 20 3d 2e b3 99 bd 07 eb 61 bd
       0.14537068 0.03929976 -0.07504879 -0.05515578
000370 97 77 00 3e 40 df c3 3b 4d 72 d3 bd db 81 c8 bd
       0.1254562 0.005977541 -0.103245355 -0.09790393
000380 a6 5c 0c 3e 19 6f 71 bd 59 5b e0 3c 71 84 78 3d
       0.13707218 -0.05894384 0.027387308 0.06067318
000390 e6 c3 c5 3d ba 33 93 3d 51 3c f9 3d ba 13 47 bd
       0.09656505 0.071876004 0.121697076 -0.048602797
0003a0 c7 60 92 bd 5c e0 37 bd 41 37 d9 3c 25 05 b9 bd
       -0.07147365 -0.0448917 0.026515605 -0.09034184
0003b0 a1 f1 e3 3c 21 33 c6 3d d3 4f b2 3d fb 8d 03 3e
       0.027825179 0.09677721 0.087066315 0.1284713
0003c0 ba 20 66 3c dd 86 83 bb ff 53 94 3d fd 14 61 3d
       0.014045889 -0.0040138797 0.072425835 0.054951657
0003d0 17 1a 0f 3e 5e cc af 3d 26 4d a6 bc 82 45 0a 3e
       0.13974796 0.08583902 -0.02030046 0.13503078
0003e0 12 bc 1e 3d 6b 0e d9 3d 41 21 83 3d a0 03 b4 3a
       0.038753577 0.10598453 0.06402827 0.001373399
0003f0 d1 3c dc 3d e6 c6 e0 3d f4 e5 6a 3d a1 f1 9e 3d
       0.10753787 0.10975437 0.057348207 0.07760931

bias f4 [64]
000000 a6 3a 1a 3e 72 65 18 3e c9 e6 b8 3d 15 56 5d 3c
       0.15061435 0.14882448 0.09028394 0.013509293
000010 a4 a1 dc bd 82 0d 2e bc da 6f 8c 3d db 82 90 bd
       -0.10773018 -0.010623338 0.068572715 -0.07056209
000020 1f b9 80 3c ee c0 8d 3d 4c a9 6a bd 10 73 5f 3c
       0.015713273 0.06921564 -0.05729036 0.013638273
000030 79 2e 94 bd e5 8b c0 bd 6c ce a7 3d 50 b3 df 3d
       -0.072354265 -0.09401683 0.08193669 0.10922873
000040 2d 69 d5 3b b6 ba fc bd c8 62 2f 3d 59 b3 86 bc
       0.006512782 -0.123403 0.042818815 -0.016442942
000050 68 fc 85 bd 1b 08 43 3d fc c1 ac 3d 41 ea a1 bd
       -0.06542283 0.04761515 0.08435437 -0.079060085
000060 1d f1 b9 3d a3 13 35 3b a0 38 13 be 38 9c 0e 3e
       0.09079192 0.0027630113 -0.1437707 0.1392678
000070 df 05 43 bd 8b f0 36 3d 4a 21 f6 3d 2e 49 c6 bd
       -0.04761302 0.044662993 0.12018068 -0.09681927
000080 19 d0 10 3e d0 ac 3b bd 5e 3f c7 3d e0 88 30 bd
       0.14141883 -0.045819104 0.09728883 -0.043099284
000090 95 44 80 bd 88 c8 e3 3c 38 f8 ef bd f1 b3 94 bd
       -0.06263081 0.027805582 -0.11717266 -0.072608836
0000a0 77 b8 d0 3d 54 da c5 3d 8f b4 40 3d ea 78 72 bd
       0.10191434 0.096607834 0.047047194 -0.059197344
0000b0 03 d9 ab bd 73 4b 00 3e 88 38 ee 3d 54 d2 8c bc
       -0.08391001 0.12528782 0.11631876 -0.017190136
0000c0 57 7e 7a bd 33 e3 22 3d d3 1e 34 3d 0b eb 0a 3e
       -0.061155643 0.039767455 0.04397471 0.13566224
0000d0 62 c4 ab 3d 04 98 32 bd 0b 5c 5c bd bb 47 cf bd
       0.083870664 -0.043602005 -0.053798717 -0.101211034
0000e0 1c 52 28 3d 72 56 fb bd d5 65 b6 bd b6 e9 03 3e
       0.04109393 -0.122723475 -0.08906142 0.12882122
0000f0 5b 05 cf bd cc ac c9 bd 91 27 0b 3e 0a b9 c5 3c
       -0.10108443 -0.098474115 0.13589312 0.024136085

weight f4 [1, 64]
000000 21 d1 98 3d 12 25 e4 3d b7 16 36 bd 0b b5 cc 3d
       0.07461763 0.11139883 -0.044455256 0.09995469
000010 cc 40 5e bd 10 31 89 bd 53 39 ff bc 78 f5 3c be
       -0.054261014 -0.06698811 -0.031155264 -0.18453014
000020 d7 1d ee 3c 8b 21 b3 bd 68 7f b5 bd 3d a3 43 3d
       0.029066963 -0.08746632 -0.088621914 0.047763098
000030 c7 97 15 bd 73 12 1c be e8 38 99 bd 65 7a d4 3d
       -0.0365217 -0.15241413 -0.07481557 0.103749074
000040 c1 37 af bd 54 6a e8 3d ac c4 ab bd 07 f2 8f 3d
       -0.08555556 0.113484055 -0.083871216 0.07028585
000050 04 6a 4a bd 2e 40 33 bd ff f8 d7 3c 33 08 d4 bd
       -0.04941751 -0.04376238 0.026363848 -0.103531264
000060 23 ea 10 3d 79 be e0 bc aa 43 8b bd 83 2d e0 3d
       0.03537954 -0.027434574 -0.06800015 0.10946181
000070 9c 47 89 3d 9b c6 77 3d 2d 26 a9 3d ca fe 22 bd
       0.067031115 0.06049214 0.082592346 -0.039793767
000080 4d e8 33 3d 0e 7b 18 bd 5d 24 a3 bd c5 73 4b 3d
       0.04392271 -0.03722673 -0.0796592 0.049670953
000090 9d 87 f5 bd fc 80 ad 3d 8a e8 b3 3d 1d 62 fc bc
       -0.11988757 0.084718674 0.08784588 -0.030808503
0000a0 2b 4e cc 3c 81 c0 05 3e dd a2 bf bd 62 5a 82 3d
       0.024939617 0.13061716 -0.093572356 0.063648954
0000b0 bc 9c f5 3d 55 57 90 3d a5 72 23 3d 04 74 db bc
       0.11992785 0.07047907 0.039904255 -0.026788719
0000c0 92 2d 0a be fc 7c d4 bd 96 57 b1 3d db b5 02 3d
       -0.13493946 -0.103754014 0.08659284 0.031911712
0000d0 7e 9d 5f bd d8 24 6d bd 2d cf 2d bd 13 8f d1 3d
       -0.054593556 -0.057896465 -0.042433906 0.10232367
0000e0 68 61 92 3d 98 e2 e7 bd aa 4e ca bd be ba ec 3c
       0.07147485 -0.11322516 -0.09878285 0.02889764
0000f0 9d 26 9a bd 3f ba cf 3d 26 ef 98 3d ae 65 bd 3d
       -0.07526896 0.101429455 0.07467489 0.092479095
