src/model.pt (torch, 20679 bytes, 5 tensors)

weight f4 [64, 2]
-0.64319605 -0.38164935 0.46805373 0.65045166 -0.58077466 0.28796712 -0.9334305 0.031139208
0.5049383 0.41567034 -0.013538037 -0.006673682 -0.04532057 -0.30877843 0.5737638 -0.22232826
0.5000403 -0.09852902 -0.1859823 0.2711156 0.5110007 -0.3683407 0.41490474 0.39640942
0.76971203 0.52386916 -0.2356884 -0.034532066 0.08788893 0.058256313 -0.4651834 0.4433467
-0.21207526 0.035207868 -0.7306001 0.33371645 -0.82683617 0.00017616709 0.45893604 0.6377636
0.11931448 0.25431034 0.16025168 -0.23834282 -0.25412062 -0.22180343 0.25655392 0.5695155
-0.7888654 0.0063837594 -0.39892337 -0.14162217 0.12448323 0.08230251 -0.045942485 0.4552229
-0.40459776 -0.12422359 0.41870165 0.61071974 -0.81619036 0.29393804 -0.673573 0.24001439
0.18766996 -0.00065469847 0.89470965 0.1998566 -0.22266847 -0.5040193 0.7206911 0.020952843
-0.013835311 -0.3504764 -0.06833637 -0.024993837 -0.30361983 0.16449298 0.5443057 -0.21395493
-0.72666675 0.5176167 0.59335464 -0.3168508 -0.1969722 -0.2750966 -0.7961288 0.00018024855
-0.46492514 0.19792147 -0.117259264 0.2896508 0.7305029 -0.00018149294 -0.5637458 0.039305627
0.46980694 -0.070689924 -0.65704936 -0.35077944 -0.559461 -0.0053657787 0.3444261 0.0027047512
0.13678838 -0.015776822 0.81017 -0.22573858 0.54539686 0.3652211 -0.35144657 0.51254356
-0.031094061 0.083251104 -0.63720465 -0.2532674 0.14002858 -0.5860536 -0.24427685 0.2680452
0.45246872 0.52999747 -0.2761509 0.24447466 -0.11672053 0.1379116 -0.5538832 -0.17243385
00000000: 7fa8 24bf 8b67 c3be bda4 ef3e 0084 263f
00000010: a6ad 14bf 6d70 933e 4df5 6ebf a717 ff3c
00000020: a343 013f bed2 d43e a5ce 5dbc e7ae dabb
00000030: 10a2 39bd 3518 9ebe 2fe2 123f 05aa 63be
00000040: a402 003f 95c9 c9bd 2572 3ebe aacf 8a3e
00000050: f1d0 023f 2797 bcbe 656e d43e 2df6 ca3e
00000060: d90b 453f 4a1c 063f 4d58 71be 7f71 0dbd
00000070: 1dff b33d 2c9e 6e3d 852c eebe 57fe e23e
00000080: 422a 59be 2036 103d 9c08 3bbf e2dc aa3e
00000090: 89ab 53bf 7eb9 3839 aaf9 ea3e 7a44 233f
000000a0: 265b f43d f734 823e 0419 243e 2410 74be
000000b0: 191c 82be 7020 63be 095b 833e c5cb 113f
000000c0: 15f3 49bf db2e d13b af3f ccbe 6705 11be
000000d0: 10f1 fe3d 388e a83d 302e 3cbd fa12 e93e
000000e0: 7027 cfbe f068 febd 1060 d63e 2158 1c3f
000000f0: daf1 50bf 0c7f 963e 486f 2cbf 55c6 753e
00000100: 8e2c 403e 12a0 2bba b10b 653f 35a7 4c3e
00000110: 3403 64be 6907 01bf 367f 383f 4ca5 ab3c
00000120: 80ad 62bc a571 b3be f0f3 8bbd e0bf ccbc
00000130: 0f74 9bbe d970 283e 9e57 0b3f 0017 5bbe
00000140: d506 3abf 8782 043f 17e6 173f 453a a2be
00000150: 15b3 49be 76d9 8cbe 19cf 4bbf 1a01 3d39
00000160: ab0a eebe edab 4a3e a025 f0bd 1c4d 943e
00000170: 3d02 3b3f 244f 3eb9 a551 10bf f0fe 203d
00000180: 898a f03e e1c5 90bd 6334 28bf 5d99 b3be
00000190: d638 0fbf 6ad3 afbb 9e58 b03e 3242 313b
000001a0: 4112 0c3e 653e 81bc 4d67 4f3f 0428 67be
000001b0: 219f 0b3f 43fe ba3e cef0 b3be 0e36 033f
000001c0: f9b8 febc 8e7f aa3d d81f 23bf 44ac 81be
000001d0: a763 0f3e 9c07 16bf b623 7abe 383d 893e
000001e0: fba9 e73e eaad 073f a763 8dbe 9157 7a3e
000001f0: 2c0b efbd b338 0d3e 4acb 0dbf 8092 30be

bias f4 [64]
0.6674418 0.40299302 0.62966007 0.3353026 0.35780475 0.0004880142 -0.16441339 -0.5841013
-0.48015016 0.46600464 0.11642091 0.2218706 -0.4175023 0.21819289 0.52865416 0.4648745
-0.3311993 0.73031807 0.15609387 0.32001793 0.31101918 0.1759779 -0.61732733 -0.066815816
0.20762119 0.8182604 -0.3141202 -0.5733079 -0.36551517 0.4853153 -0.27506828 0.6919743
-0.1765694 0.24394499 -0.38006788 -0.40156356 -0.3376309 -0.5551167 0.3997754 -0.52685344
0.7347789 0.38206276 0.6164041 0.26246417 0.46456304 -0.2896559 -0.37476388 -0.5797192
0.06829711 -0.43969345 0.15549612 -0.32409143 -0.115181774 -0.26275992 -0.42080382 -0.5235549
-0.077701025 0.5007069 0.6958055 -0.2628172 0.03301621 0.08741764 0.11636628 0.013167127
00000000: 77dd 2a3f 1a55 ce3e 6731 213f c8ac ab3e
00000010: 2f32 b73e 28dc ff39 fc5b 28be aa87 15bf
00000020: 3ed6 f5be 2998 ee3e 166e ee3d 0c32 633e
00000030: ddc2 d5be f56d 5f3e e155 073f 0804 ee3e
00000040: f492 a9be 20f6 3a3f 12d7 1f3e 64d9 a33e
00000050: e83d 9f3e 8d33 343e 2a09 1ebf bbd6 88bd
00000060: a69a 543e 8379 513f 5dd4 a0be 4ec4 12bf
00000070: ce24 bbbe 3f7b f83e c0d5 8cbe 3a25 313f
00000080: 9cce 34be b7cc 793e 4298 c2be bd99 cdbe
00000090: f5dd acbe 211c 0ebf 5caf cc3e dedf 06bf
000000a0: 781a 3c3f bb9d c33e a9cc 1d3f b461 863e
000000b0: 35db ed3e c74d 94be 0de1 bfbe 7a68 14bf
000000c0: 5bdf 8b3d 801f e1be 603a 1f3e 50ef a5be
000000d0: 6ce4 ebbd 7888 86be 9973 d7be b207 06bf
000000e0: b721 9fbd 542e 003f 4f20 323f fa8f 86be
000000f0: 013c 073d 0508 b33d 7251 ee3d efba 573c

weight f4 [64, 64]
0.027712768 0.008791509 -0.058976598 -0.2066582 -0.025390767 0.034671646 0.025704682 -0.03355159
0.04513408 -0.122366026 0.113811344 0.1286226 0.084106125 0.10256059 -0.08170312 -0.008018909
0.091838986 -0.081625015 0.121784754 0.09606897 0.011093225 -0.05711126 0.117078766 0.052272756
0.033020437 -0.14392474 -0.027295902 0.03683047 0.119662225 0.06673374 -0.0314913 -0.1142219
0.099623226 0.12301448 -0.009366885 0.21238838 -0.032526106 -0.07706787 -0.014822926 -0.07537531
-0.21378848 0.14763635 -0.18569145 0.029203499 -0.077521175 0.03240497 0.2931008 0.078219146
0.16905911 0.09514594 -0.017570466 0.01947892 0.104120985 -0.03356172 -0.005685299 0.013003272
0.013532143 0.022031672 0.030139394 0.03459938 0.07915215 0.008494077 -0.120006755 -0.07747179
-0.039175585 -0.11913726 0.058281187 -0.0018453159 0.0070737354 -0.020094158 -0.08642812 -0.0077655464
0.008252159 0.039682284 0.0070339274 -0.024170242 -0.07984675 0.021342501 -0.047212828 0.09855141
-0.05750972 -0.06191153 0.00052032375 -0.060383137 0.067163564 -0.083009824 -0.06053716 -0.019469583
-0.076041885 -0.054795817 -0.0017982125 -0.07250026 0.046799675 -0.047538478 0.05810984 -0.0057425904
0.02157245 -0.04920573 -0.07525556 -0.11146809 -0.088587865 0.082775205 0.02463379 -0.102016896
0.057282336 0.047918864 0.04813938 -0.005051685 0.020490585 -0.0756145 -0.090749 -0.025863022
-0.09832845 0.115560144 0.10405392 0.0107054105 -0.003914386 -0.008247547 0.12422869 0.04791341
-0.107348464 -0.03577609 0.09837117 -0.0031768724 0.056595504 0.10377794 0.060304 0.04972217
0.0029230046 0.031424582 0.115428835 -0.124815285 -0.042202152 -0.06923901 0.119539425 -0.13078994
-0.0567722 0.1231307 -0.110952295 0.010975046 0.05857668 0.029603822 0.15246798 0.040982276
-0.063062474 -0.05624648 -0.28786236 0.10062025 -0.018368522 0.006612971 -0.11649351 0.10524955
0.012233976 0.2112805 0.08351767 0.08647703 -0.020563677 0.13271709 0.031227304 0.059057154
-0.056975268 0.13480118 0.09994961 -0.118832245 0.049055606 -0.07706034 -0.052306555 0.018701967
0.0378922 -0.03818107 0.0468216 -0.100914106 -0.08737992 -0.07889261 -0.27749118 -0.037712693
0.049032774 -0.07869966 -0.23274478 0.06146589 0.12813266 -0.054012526 0.03923717 0.0092713535
-0.08732353 -0.016764909 0.049387734 -0.07469627 -0.121011466 0.0840839 -0.07963743 -0.038650632
0.06446978 0.0732283 -0.069133356 -0.072742626 0.08930177 0.015788825 -0.023410633 -0.030201185
-0.039398007 -0.07615354 -0.0024825495 -0.10451342 -0.11647293 -0.015464874 0.08096189 0.031065416
0.09044935 0.07010218 -0.29642835 0.09729583 0.12531659 -0.12223298 0.094252825 -0.11542812
-0.032346986 -0.008248648 0.053899795 -0.10766496 0.0054768026 0.055055283 -0.017015465 0.14457133
-0.11149363 -0.07300429 0.07978614 0.008628274 -0.088880435 0.076510146 -0.07168351 0.11793409
0.081059486 -0.05655821 0.07455028 -0.26590458 0.015230804 -0.045350432 -0.2866157 -0.1016542
-0.044956475 0.011141032 -0.0439673 -0.10448354 -0.037697036 -0.057392083 -0.05709665 -0.08599342
-0.0025252572 -0.036085702 0.10423822 0.004032649 -0.021401767 0.038673352 0.056484524 0.060441617
00000000: e305 e33c 430a 103c 7291 71bd 359e 53be
00000010: 4c00 d0bc db03 0e3d a092 d23c 646d 09bd
00000020: 83de 383d 0a9b fabd ec15 e93d a5b5 033e
00000030: d53f ac3d 490b d23d f753 a7bd be61 03bc
00000040: 1416 bc3d 042b a7bd 496a f93d cfbf c43d
00000050: 5cc0 353c 7fed 69bd fec6 ef3d f51b 563d
00000060: 7040 073d 0261 13be a89b dfbc 8cdb 163d
00000070: 7811 f53d b3ab 883d 05fd 00bd 2ced e9bd
00000080: 4307 cc3d 04ef fb3d 9077 19bc 577c 593e
00000090: 183a 05bd c2d5 9dbd dcdb 72bc 5f5e 9abd
000000a0: 5eeb 5abe fc2d 173e e625 3ebe 2d3c ef3c
000000b0: 6cc3 9ebd 13bb 043d 4f11 963e 5c31 a03d
000000c0: d51d 2d3e e0db c23d f0ef 8fbc 4292 9f3c
000000d0: 623d d53d 0478 09bd bf4b babb ad0b 553c
000000e0: ecb5 5d3c c47b b43c e4e6 f63c 14b8 0d3d
000000f0: 861a a23d be2a 0b3c 1ac6 f5bd 88a9 9ebd
00000100: 9476 20bd 3cfe f3bd 41b8 6e3d 87de f1ba
00000110: cbca e73b 819c a4bc 3a01 b1bd 2076 febb
00000120: 1034 073c e489 223d dc7c e63b ac00 c6bc
00000130: b186 a3bd 78d6 ae3c 3d62 41bd 52d5 c93d
00000140: 508f 6bbd f296 7dbd 5666 083a 4f54 77bd
00000150: 0d8d 893d 0e01 aabd d0f5 77bd ad7e 9fbc
00000160: d9bb 9bbd 9471 60bd 00b2 ebba 047b 94bd
00000170: 04b1 3f3d b5b7 42bd 9504 6e3d 572c bcbb
00000180: b5b8 b03c f38b 49bd 961f 9abd 6249 e4bd
00000190: 8e6d b5bd 0c86 a93d cdcc c93c 3cee d0bd
000001a0: e2a0 6a3d 9246 443d cc2d 453d 9b88 a5bb
000001b0: dfdb a73c c6db 9abd 9dda b9bd b0de d3bc
000001c0: 6d60 c9bd ccaa ec3d 391a d53d bf65 2f3c
000001d0: 4044 80bb b820 07bc 9d6b fe3d da40 443d
000001e0: 83d9 dbbd f389 12bd d376 c93d 1333 50bb
000001f0: b0d0 673d 8789 d43d 5401 773d 79a9 4b3d
00000200: e18f 3f3b 10b7 003d f465 ec3d 289f ffbd
00000210: 2adc 2cbd 2fcd 8dbd 16d1 f43d cced 05be
00000220: f789 68bd f32b fc3d f53a e3bd aed0 333c
00000230: 1aee 6f3d b783 f23c 9120 1c3e 08dd 273d
00000240: e626 81bd b662 66bd b262 93be fd11 ce3d
00000250: 9579 96bc 9fb1 d83b 2694 eebd 138d d73d
00000260: 0471 483c ea59 583e 500b ab3d de1a b13d
00000270: 2875 a8bc fde6 073e 67d0 ff3c eae5 713d
00000280: e65e 69bd 5209 0a3e 62b2 cc3d 525e f3bd
00000290: 88ee 483d d0d1 9dbd 663f 56bd de34 993c
000002a0: da34 1b3d c163 1cbd 02c8 3f3d 0eac cebd
000002b0: 3ef4 b2bd 7392 a1bd 5313 8ebe a078 1abd
000002c0: 97d6 483d 4a2d a1bd a654 6ebe a8c3 7b3d
000002d0: 3535 033e 3d3c 5dbd 28b7 203d e0e6 173c
000002e0: aed6 b2bd 9056 89bc cb4a 4a3d 5cfa 98bd
000002f0: dcd4 f7bd 2e34 ac3d f318 a3bd 2050 1ebd
00000300: bb08 843d b8f8 953d ca95 8dbd 16fa 94bd
00000310: d9e3 b63d 9157 813c a8c7 bfbc 7a68 f7bc
00000320: ce5f 21bd 63f6 9bbd 45b2 22bb 220b d6bd
00000330: 5c89 eebd 6260 7dbc 59cf a53d e67c fe3c
00000340: 823d b93d bb91 8f3d 75c5 97be 0943 c73d
00000350: fe52 003e 4955 fabd a007 c13d 9465 ecbd
00000360: 467e 04bd 5625 07bc 08c6 5c3d 727f dcbd
00000370: c076 b33b a681 613d 0464 8bbc 820a 143e
00000380: c656 e4bd 4683 95bd ea66 a33d 9b5d 0d3c
00000390: f206 b6bd 5ab1 9c3d cece 92bd 6e87 f13d
000003a0: 8402 a63d 95a9 67bd d1ad 983d a524 88be
000003b0: 9f8a 793c 60c1 39bd 4bbf 92be 1430 d0bd
000003c0: 4824 38bd e088 363c 0e17 34bd 77fb d5bd
000003d0: 3568 1abd f613 6bbd 2dde 69bd 511d b0bd
000003e0: c97e 25bb 9ace 13bd d97a d53d 5024 843b
000003f0: c252 afbc f367 1e3d 515c 673d a191 773d

bias f4 [64]
-0.042684745 -0.08518442 -0.042102784 0.10129119 -0.024131864 -0.010466154 -0.102949396 0.07230184
-0.0143114 -0.13318312 0.05755844 -0.2136509 -0.18969359 -0.026971685 -0.05924938 -0.082073316
0.012894884 0.026896415 0.078353584 0.0026125847 -0.049289525 0.17058921 -0.09942929 -0.088734224
-0.03910506 -0.0958474 -0.019411352 0.097180024 0.008758218 0.08033905 -0.011038374 0.18452346
0.06722401 -0.059490286 -0.011101917 0.18851867 0.090318635 -0.063338935 -0.07972611 0.08977043
0.071755946 -0.0102578625 0.03756236 0.017592937 0.052926313 -0.21023747 -0.076689385 0.10319457
0.018518776 0.07394959 -0.059780777 0.000612454 -0.108078495 0.03479 -0.024641125 0.12823011
-0.113803625 0.04903135 0.18587935 -0.022401137 0.09636148 -0.006372232 0.06897229 0.071346544
00000000: 33d6 2ebd 2b75 aebd f873 2cbd c171 cf3d
00000010: 30b0 c5bc 3b7a 2bbc 22d7 d2bd fd12 943d
00000020: 5d7a 6abc 2861 08be 66c2 6b3d 4dc7 5abe
00000030: 093f 42be b9f3 dcbc 7aaf 72bd 0e16 a8bd
00000040: 1045 533c df55 dc3c d877 a03d e637 2b3b
00000050: d0e3 49bd f0ae 2e3e 95a1 cbbd 4aba b5bd
00000060: a12c 20bd a44b c4bd 8e04 9fbc 5206 c73d
00000070: a17e 0f3c cd88 a43d 4cda 34bc b8f3 3c3e
00000080: beac 893d 16ac 73bd d1e4 35bc 0a0b 413e
00000090: faf8 b83d d8b7 81bd 7147 a3bd 8fd9 b73d
000000a0: c8f4 923d 9810 28bc fdda 193d 101f 903c
000000b0: 43c9 583d 7e48 57be 530f 9dbd ad57 d33d
000000c0: b0b4 973c e272 973d b0dc 74bd 188d 203a
000000d0: 4258 ddbd f67f 0e3d 2fdc c9bc c14e 033e
000000e0: e011 e9bd 19d5 483d 2857 3e3e 9782 b7bc
000000f0: 2b59 c53d 28ce d0bb 5841 8d3d 231e 923d

weight f4 [1, 64]
-0.20775352 0.035935204 0.090335384 0.036547326 0.08002263 0.05502207 0.00017021596 0.13823049
-0.00908113 -0.14963838 0.035466067 -0.20608073 -0.2195674 -0.101636894 0.027976824 0.013622686
-0.06369209 -0.009310042 -0.031035423 0.13469201 -0.1474487 0.06329759 0.08538389 0.0048497613
-0.124948114 -0.15729272 -0.14875586 0.04893805 0.10223581 0.000111674795 0.10810014 0.06284004
-0.09015462 -0.12326731 -0.00061641855 0.17194127 -0.11050977 0.082869984 0.07393158 0.03257423
-0.049287446 -0.20080207 0.040586933 0.1092218 0.050478596 -0.2015398 0.008352586 0.011651491
0.03129348 -0.0032320444 -0.0016029753 -0.15071523 -0.023080975 0.09214425 -0.20558344 -0.19674075
0.09760018 -0.16431925 0.16214521 -0.18900467 0.0606803 -0.0022421181 0.021011693 0.030521039
00000000: 57bd 54be cb30 133d c201 b93d a6b2 153d
00000010: e8e2 a33d d25e 613d 007c 3239 4b8c 0d3e
00000020: 05c9 14bc ce3a 19be de44 113d d406 53be
00000030: 47d6 60be 0127 d0bd a72f e53c b031 5f3c
00000040: 0071 82bd 2589 18bc 003e febc b4ec 093e
00000050: cbfc 16be 2ba2 813d c0dd ae3d bfea 9e3b
00000060: cce4 ffbd 5811 21be 7553 18be 4473 483d
00000070: 0261 d13d f332 ea38 9b63 dd3d 47b2 803d
00000080: fca2 b8bd 9273 fcbd 2697 21ba 5f11 303e
00000090: f252 e2bd bdb7 a93d 7169 973d 8e6c 053d
000000a0: a2e1 49bd 0f9f 4dbe 7c3e 263d aeaf df3d
000000b0: a5c2 4e3d 7360 4ebe 49d9 083c e5e5 3e3c
000000c0: 982d 003d b5d0 53bb ed1a d2ba 1855 1abe
000000d0: 5014 bdbc 20b6 bc3d 7784 52be 6876 49be
000000e0: 9ae2 c73d 4e43 28be 6509 263e 718a 41be
000000f0: e88b 783d 80f0 12bb b720 ac3c 4207 fa3c
