src/model.pt (torch, 55279 bytes, 9 tensors)

weight f4 [64, 2]
0.39911008 0.6591623 -0.26673964 -0.53421134 -0.2552348 0.2549333 -0.61375153 0.4063121
0.6645865 -0.070800215 -0.6146453 0.21220277 0.03672306 0.6824617 0.23785149 0.5790655
0.3951068 -0.17213732 -0.42723826 -0.5063342 0.024125705 0.48605442 -0.17416976 -0.0865339
-0.5958745 -0.07141761 0.63823336 -0.40611485 0.36570677 0.41519257 0.6648006 -0.50886196
0.42288643 -0.65029454 -0.072143726 -0.723257 -0.36977807 0.5371051 -0.44817635 -0.24743755
-0.61325055 -0.56513655 0.53900903 -0.43077043 0.41822743 0.6595186 0.09004503 0.21918406
-0.38809422 0.43180618 0.2699996 -0.3735222 0.23286085 -0.21098177 -0.42855287 0.013230777
0.19246665 -0.2964602 -0.28995407 0.24523129 0.3995556 -0.037783157 -0.36563674 -0.31751314
-0.043549452 0.6831396 -0.1725484 0.34926087 -0.3469152 0.41087714 0.69354975 0.5171721
0.085656814 -0.46397334 0.20036319 0.1564145 0.35453016 0.376815 -0.70296985 0.58247787
0.69629836 0.4062943 -0.5665609 0.653203 -0.3477265 0.5097979 -0.7142256 -0.13253878
-0.6785255 -0.66864675 0.37398782 0.6639454 0.3878321 0.28562316 -0.16554971 -0.061112188
-0.1776387 -0.66176176 -0.15216157 0.42854193 0.004577346 0.62406415 0.22777219 -0.30952883
0.5278234 0.15545179 0.5619241 -0.7116683 -0.33875453 0.20434876 0.2795893 -0.2932737
-0.084109135 -0.19836892 -0.16944966 0.44342905 -0.47878277 0.40103605 0.35977015 0.3829321
0.09183566 0.6075805 0.6276798 -0.3308254 0.072129816 -0.38128933 0.5798333 0.46996912
00000000: 2858 cc3e dcbe 283f 1992 88be 13c2 08bf
00000010: 23ae 82be 9e86 823e d21e 1dbf 2408 d03e
00000020: 5722 2a3f b4ff 90bd 6559 1dbf af4b 593e
00000030: eb6a 163d cfb5 2e3f 578f 733e a33d 143f
00000040: 704b ca3e c444 30be f9be dabe 1e9f 01bf
00000050: 45a3 c53c 20dc f83e 8f59 32be af38 b1bd
00000060: 3b8b 18bf 6543 92bd 4363 233f 49ee cfbe
00000070: eb3d bb3e 1f94 d43e 5f30 2a3f c744 02bf
00000080: 9284 d83e b479 26bf 17c0 93bd 5f27 39bf
00000090: 8d53 bdbe b87f 093f 5f77 e5be 4560 7dbe
000000a0: fdfd 1cbf caac 10bf 7ffc 093f f18d dcbe
000000b0: e821 d63e 36d6 283f 8769 b83d c971 603e
000000c0: 49b4 c6be b315 dd3e 633d 8a3e 4d3e bfbe
000000d0: 1373 6e3e 9b0b 58be 486b dbbe e7c5 583c
000000e0: fa15 453e a2c9 97be dc74 94be e91d 7b3e
000000f0: 8d92 cc3e 83c2 1abd bd34 bbbe 1591 a2be
00000100: e960 32bd 3de2 2e3f 87b0 30be 52d2 b23e
00000110: de9e b1be 7d5e d23e 7a8c 313f 6465 043f
00000120: d76c af3d ea8d edbe 022c 4d3e 1f2b 203e
00000130: fa84 b53e e5ed c03e d5f5 33bf 451d 153f
00000140: 9c40 323f ce05 d03e 230a 11bf 5038 273f
00000150: 3509 b2be 1d82 023f 7dd7 36bf 3fb8 07be
00000160: d9b3 2dbf 6f2c 2bbf 557b bf3e 53f8 293f
00000170: ee91 c63e 333d 923e dd85 29be c650 7abd
00000180: ebe6 35be 3869 29bf 3ed0 1bbe d969 db3e
00000190: 90fd 953b abc2 1f3f 1d3d 693e 907a 9ebe
000001a0: 6f1f 073f c12e 1f3e 42da 0f3f e52f 36bf
000001b0: 3c71 adbe cd40 513e 5426 8f3e f827 96be
000001c0: 6941 acbd 3921 4bbe 3684 2dbe 2209 e33e
000001d0: 0423 f5be 9954 cd3e cb33 b83e ad0f c43e
000001e0: 5614 bc3d 658a 1b3f a0af 203f f261 a9be
000001f0: ccb8 933d 5b38 c3be f56f 143f cb9f f03e

bias f4 [64]
-0.024193756 0.03815341 0.3431243 -0.3735356 -0.6444339 -0.61385715 0.20001623 -0.49152988
-0.3879626 0.50113374 0.22304702 0.20959224 -0.3657475 0.117819436 0.2597867 -0.09037134
0.4758772 -0.25405458 0.28978977 0.7256989 0.08102547 0.32966888 -0.14880417 0.5675777
-0.50289166 0.21593194 0.15550268 -0.099355616 0.40005624 -0.23373383 -0.32792655 0.36352792
0.21028194 0.4869254 0.28194368 -0.0238712 -0.6024223 0.61276823 0.21215804 0.5951374
0.04716665 -0.04803636 -0.35699436 -0.48708618 0.46517873 0.26285222 0.21939754 0.23765948
-0.57531726 -0.05004179 0.4455641 -0.7130671 0.41326505 0.16168289 0.50333065 0.7080827
-0.13960958 -0.50502926 0.16986464 -0.38741428 0.07505155 -0.3004192 0.30768514 0.55202186
00000000: fc31 c6bc c046 1c3d fdad af3e 0f40 bfbe
00000010: 9ff9 24bf be25 1dbf 0ed1 4c3e cea9 fbbe
00000020: 09a3 c6be 4d4a 003f 7066 643e 599f 563e
00000030: 4243 bbbe 514b f13d c302 853e 9c14 b9bd
00000040: 2da6 f33e 7113 82be 535f 943e 67c7 393f
00000050: aef0 a53d 5cca a83e 1f60 18be c64c 113f
00000060: 82bd 00bf 431d 5d3e 183c 1f3e f57a cbbd
00000070: 2cd4 cc3e ec57 6fbe fde5 a7be 5520 ba3e
00000080: 2654 573e 494e f93e ec5a 903e 898d c3bc
00000090: 5938 1abf 61de 1c3f f53f 593e ed5a 183f
000000a0: d131 413d c6c1 44bd f7c7 b6be 5c63 f9be
000000b0: e82b ee3e 9194 863e c0a9 603e 025d 733e
000000c0: fe47 13bf 9ff8 4cbd fa20 e43e 918b 36bf
000000d0: 7a97 d33e 3390 253e 47da 003f e844 353f
000000e0: d0f5 0ebe 9949 01bf fff0 2d3e 2a5b c6be
000000f0: a1b4 993d 8cd0 99be e888 9d3e 4e51 0d3f

weight f4 [64, 64]
0.05795589 -0.08439013 0.08782047 -0.03165546 -0.14467686 -0.08319967 0.05075797 -0.038301684
-0.080802694 0.080137804 0.06492348 0.036362667 0.023719076 0.07601334 -0.1103187 0.0480808
0.034018256 0.1057144 0.049624156 -0.035863657 -0.065626405 -0.01657342 0.08728248 -0.012740057
-0.09990484 0.10519661 0.06351661 0.0015841202 0.06824831 -0.09297024 -0.11900132 -0.023976345
-0.073797934 -0.048048448 -0.028315894 0.12644945 0.0068717864 0.0011206067 0.056735553 -0.056898065
-0.0148622375 0.008018293 0.07275638 -0.00445577 0.03271768 0.026721425 -0.015466991 0.052419007
0.051478405 -0.01618245 0.019268708 -0.012415228 0.04132472 -0.020720711 0.05556332 0.10273507
0.121533334 -0.06233806 0.114120975 -0.11090421 -0.0971984 0.009931015 -0.025642218 -0.019945947
-0.021494517 0.090760544 0.046552043 0.099957414 -0.02051714 0.01910856 -0.0602637 -0.107037984
-0.050744038 0.06786137 0.07274233 0.14178205 0.097062245 -0.1550125 0.010147873 0.024915121
-0.095012136 0.09310817 0.029756702 -0.03128152 0.117892176 0.037108853 -0.0906582 -0.08567152
0.12624757 -0.06334585 -0.040198855 0.025245076 -0.095144585 0.029655792 -0.09966523 -0.0167965
0.048885163 0.008891004 0.026497496 -0.12816517 -0.2418132 -0.06616166 -0.047582462 0.102319695
-0.07376956 -0.039435104 0.01567335 -0.05771866 0.10159421 0.03945599 -0.078692116 -0.023588985
0.11328741 0.011197747 -0.0067165415 -0.040787116 0.06485149 -0.07066577 0.06805829 -0.072688974
0.091455705 -0.05614276 -0.008321417 -0.03051585 0.10700487 -0.18752296 -0.098386176 0.11399527
0.023101281 0.014711418 -0.026512947 0.009536616 0.005379451 0.07382275 -0.10716563 -0.026704991
-0.027707225 -0.06323886 -0.050433032 0.04215042 0.065084174 0.009969083 0.003944765 -0.019524725
-0.07610767 -0.044893038 -0.03575366 0.04682016 0.10843828 0.011384394 -0.07524043 -0.024308091
-0.025064494 -0.04141661 -0.071992956 0.101066604 0.043455742 -0.06266648 -0.15459198 0.0128721045
0.09653894 0.12860918 0.065028146 0.022450125 -0.11299216 -0.03821672 0.115000434 -0.016360397
-0.10013476 0.11473624 0.037550483 -0.09416506 0.13002446 0.11450013 0.111500226 0.12933314
0.16305168 -0.026803276 0.0027633272 -0.07733424 -0.010070258 0.16334438 -0.037208285 -0.0111747105
0.0029774967 0.039453276 -0.047001805 -0.09035742 -0.10591944 0.03627917 0.017078398 0.02021918
-0.041493323 0.040626664 0.07071324 -0.08656747 -0.038807385 -0.09243673 -0.007760091 -0.089607075
-0.069830246 0.015253543 -0.033006128 -0.08265139 -0.0021855885 0.10507321 -0.09672061 -0.13198544
-0.1199168 -0.105935596 -0.04098672 -0.12864473 0.08886516 0.09246628 -0.09727397 -0.08609282
-0.05698411 -0.098248616 -0.10921206 -0.035497256 0.10289157 -0.108840704 -0.006775758 0.07961318
-0.019418295 -0.07293104 -0.10271096 -0.056342583 0.055295665 0.0285794 0.10024929 -0.064516984
-0.093108326 0.06786593 0.009846956 -0.060154468 -0.0046999813 0.09465977 0.072832525 0.046611696
0.028595477 0.059385195 -0.017780827 0.12032432 -0.022774536 -0.032293405 -0.026989847 0.10789104
-0.0938167 0.11436966 0.014902153 -0.094492614 -0.057275165 -0.047491997 0.09538919 -0.080606304
00000000: 2863 6d3d bcd4 acbd 38db b33d 28a9 01bd
00000010: 2c26 14be 9764 aabd 97e7 4f3d 3ae2 1cbd
00000020: e27b a5bd 4a1f a43d 9af6 843d 05f1 143d
00000030: 824e c23c e2ac 9b3d c5ee e1bd 5ff0 443d
00000040: ba56 0b3d cb80 d83d b342 4b3d c5e5 12bd
00000050: 2367 86bd fbc4 87bc 28c1 b23d acbb 50bc
00000060: e99a ccbd 5271 d73d ff14 823d 41a2 cf3a
00000070: c5c5 8b3d 2e67 bebd f7b6 f3bd 0a6a c4bc
00000080: 5f23 97bd 73ce 44bd bcf6 e7bc f77b 013e
00000090: b92c e13b 52e1 923a 8a63 683d f20d 69bd
000000a0: be80 73bc 295f 033c 4c01 953d b501 92bb
000000b0: f902 063d e4e6 da3c 4369 7dbc 50b5 563d
000000c0: 05db 523d 0f91 84bc 69d9 9d3c 3e69 4bbc
000000d0: 1c44 293d 7bbe a9bc 5d96 633d c466 d23d
000000e0: 78e6 f83d 3256 7fbd 42b8 e93d bf21 e3bd
000000f0: f40f c7bd b2b5 223c a10f d2bc af65 a3bc
00000100: 4515 b0bc aae0 b93d 5bad 3e3d 79b6 cc3d
00000110: 9013 a8bc 8e89 9c3c 12d7 76bd bb36 dbbd
00000120: fbd8 4fbd e7fa 8a3d eef9 943d 502f 113e
00000130: 92c8 c63d 99bb 1ebe 4443 263c cc1a cc3c
00000140: b995 c2bd 7faf be3d 54c4 f33c 0d21 00bd
00000150: 7471 f13d 74ff 173d 02ab b9bd 8d74 afbd
00000160: 0b47 013e 78bb 81bd 8ea7 24bd c3ce ce3c
00000170: 2adb c2bd b4f0 f23c 491d ccbd d098 89bc
00000180: cf3b 483d 93ab 113c 4711 d93c bb3d 03be
00000190: e19d 77be c47f 87bd d4e5 42bd fd8c d13d
000001a0: 7f14 97bd b486 21bd 6665 803c 676a 6cbd
000001b0: a010 d03d 9b9c 213d 5529 a1bd b03d c1bc
000001c0: 3b03 e83d c176 373c 6f16 dcbb 6410 27bd
000001d0: dcd0 843d 37b9 90bd 2562 8b3d f5dd 94bd
000001e0: 214d bb3d f3f5 65bd 8d56 08bc 60fc f9bc
000001f0: 5f25 db3d 0506 40be b17e c9bd 5a76 e93d
00000200: e63e bd3c 2908 713c ae31 d9bc 773f 1c3c
00000210: 1b46 b03b 6230 973d a779 dbbd 6dc4 dabc
00000220: 43fa e2bc 6083 81bd de92 4ebd eba5 2c3d
00000230: da4a 853d 5d55 233c 1643 813b 51f2 9fbc
00000240: 57de 9bbd c3e1 37bd 6e72 12bd 7fc6 3f3d
00000250: e414 de3d 9c85 3a3c a817 9abd c321 c7bc
00000260: 0e54 cdbc 77a4 29bd 0b71 93bd 02fc ce3d
00000270: a6fe 313d 4957 80bd 5c4d 1ebe 85e5 523c
00000280: 35b6 c53d 20b2 033e 7a2d 853d 53e9 b73c
00000290: 6f68 e7bd 2389 1cbd 5985 eb3d 3d06 86bc
000002a0: 7413 cdbd d5fa ea3d 89ce 193d 9cd9 c0bd
000002b0: 2225 053e 0b7f ea3d 3b5a e43d e86f 043e
000002c0: 05f7 263e 8b92 dbbc f018 353b 6a61 9ebd
000002d0: b9fd 24bc c043 273e b767 18bd 2216 37bc
000002e0: 1b22 433b c299 213d f784 40bd 500d b9bd
000002f0: 4bec d8bd 7899 143d ffe7 8b3c b2a2 a53c
00000300: e7f4 29bd 2568 263d 1ad2 903d 494a b1bd
00000310: 7ef4 1ebd 784f bdbd 5d48 febb ea83 b7bd
00000320: 2903 8fbd ffe9 793c 6f31 07bd 2245 a9bd
00000330: 173c 0fbb a030 d73d 7515 c6bd 3127 07be
00000340: f096 f5bd c3f4 d8bd b1e1 27bd 72bb 03be
00000350: f0fe b53d f65e bd3d 9337 c7bd 6f51 b0bd
00000360: 2c68 69bd 9236 c9bd 93aa dfbd 9265 11bd
00000370: d1b8 d23d e0e7 debd 2e07 debb 3c0c a33d
00000380: 1e13 9fbc de5c 95bd 205a d2bd 7bc7 66bd
00000390: b57d 623d 591f ea3c 804f cd3d 7b21 84bd
000003a0: 94af bebd 4bfd 8a3d 2055 213c 8864 76bd
000003b0: 4d02 9abb fbdc c13d 3829 953d e8eb 3e3d
000003c0: 1041 ea3c e43d 733d 19a9 91bc 996c f63d
000003d0: aa91 babc 1746 04bd d019 ddbc faf5 dc3d
000003e0: f822 c0bd a43a ea3d 2928 743c 5885 c1bd
000003f0: 5d99 6abd f886 42bd 685b c33d eb14 a5bd

bias f4 [64]
0.027416412 0.030498354 0.1071987 0.010044155 -0.046501014 0.003600615 -0.064574376 0.011639148
-0.08074184 -0.090631105 0.09608265 0.013311808 -0.10753592 0.0834906 0.055375427 0.091708094
-0.02400994 0.1040924 -0.009193213 -0.029383108 -0.024205953 0.119371995 0.04351396 -0.054813024
0.05432839 -0.044770822 0.024752557 0.052153952 0.12523004 0.14019987 0.10214236 -0.06228965
-0.08724345 -0.055146348 0.07215103 -0.027121961 -0.06033471 0.08265487 0.0072301296 -0.044541374
0.08576669 -0.017678583 -0.059637222 0.0338761 0.10079049 -0.029889526 0.13919666 -0.11616801
-0.052247547 0.02732557 -0.10923493 -0.16281797 -0.045967508 0.12355891 0.10551053 0.06813642
-0.020783901 -0.0499973 -0.047834564 0.05051158 0.10637756 0.118768044 -0.0719549 0.038868595
00000000: 6298 e03c afd7 f93c fe8a db3d 3d90 243c
00000010: d977 3ebd 4cf8 6b3b 923f 84bd 20b2 3e3c
00000020: fa5b a5bd cd9c b9bd fbc6 c43d c519 5a3c
00000030: cb3b dcbd 1ffd aa3d 58d1 623d 74d1 bb3d
00000040: 7eb0 c4bc 652e d53d 219f 16bc d8b4 f0bc
00000050: 904b c6bc 4e79 f43d b23b 323d 9f83 60bd
00000060: 7287 5e3d 9c61 37bd e0c5 ca3c 629f 553d
00000070: 4e3c 003e 8e90 0f3e 0330 d13d 6f23 7fbd
00000080: b2ac b2bd 23e1 61bd ebc3 933d e02e debc
00000090: 8721 77bd f546 a93d b9ea ec3b 0471 36bd
000000a0: 72a6 af3d add2 90bc 2946 74bd aac1 0a3d
000000b0: 3f6b ce3d e1da f4bc 9289 0e3e 7ee9 edbd
000000c0: 8601 56bd e0d9 df3c 90b6 dfbd c1b9 26be
000000d0: 6d48 3cbd 740c fd3d e815 d83d 1b8b 8b3d
000000e0: 0043 aabc f8c9 4cbd 2dee 43bd 3be5 4e3d
000000f0: 7adc d93d a93c f33d 175d 93bd ad34 1f3d

weight f4 [64, 64]
0.039953668 -0.10526604 0.0768686 -0.028178487 -0.19427168 -0.008463394 0.09875496 0.0443397
-0.056498773 0.07028628 -0.041751377 0.04333937 -0.14268295 0.28358722 -0.08470099 0.121478856
0.1356272 0.09516836 0.038937755 -0.011801034 -0.01725615 -0.052428957 0.03220501 0.07543854
-0.052180845 0.02940233 0.027919307 0.013733652 -0.02231684 -0.0924176 0.15540215 0.09113603
-0.13744442 0.014751859 -0.070038855 -0.03475773 0.11676565 0.10396675 0.031366434 -0.019458577
-0.0060694967 -0.050451133 -0.06689114 -0.08792468 -0.008524945 0.009286761 0.13164876 -0.029272228
0.054791242 -0.09583798 -0.025661139 -0.031990327 -0.008684167 -0.09649816 0.0050816685 0.051968485
0.075231075 -0.06281608 0.06542932 0.034021642 0.10961306 -0.045967624 -0.13275002 -0.06745075
-0.008420348 -0.0016961737 0.069872014 -0.0019889027 0.030803666 -0.020963572 -0.098629504 0.08787495
0.009581703 -0.10356021 0.059111763 -0.0110218525 0.11279224 0.0205912 -0.02368325 0.09737154
-0.11572572 -0.09568252 -0.007561758 0.097078145 -0.057278667 0.07188138 -0.02015077 0.048838362
0.10107608 -0.08762953 -0.08458464 -0.076504566 -0.079598814 -0.07735763 0.112259254 -0.107873686
0.10741463 -0.010561581 -0.017105443 -0.12743159 -0.10211849 -0.09658097 -0.083973154 0.024968982
0.11036447 0.08516458 -0.05909287 -0.07784063 -0.0024674789 -0.036932006 -0.110046566 0.1046713
-0.11152278 0.09014003 0.07263655 0.029856943 -0.11762297 -0.08655767 -0.05515383 -0.120052755
0.023615455 0.10009234 0.030270986 -0.05195563 -0.03662741 0.044740725 -0.085285336 0.011367626
0.053387947 0.02851504 -0.0516742 0.10651304 -0.15406261 -0.002675693 -0.08052828 0.06681383
-0.0047785784 -0.12622194 0.07728925 0.045707993 -0.09258095 -0.13064523 0.07563831 0.053921994
-0.012514819 0.059709657 -0.0031420835 0.089700565 0.01742799 -0.14048468 0.065495014 0.08070131
0.088150494 -0.091372415 0.029461903 -0.10291267 -0.047965392 0.014613234 -0.06520706 0.03147755
-0.05741846 0.08287767 -0.010014298 0.008464803 0.09581765 -0.08396796 0.08940847 -0.12082413
0.08003656 0.062085897 -0.07307754 -0.09817467 0.10600078 -0.02390687 -0.10917344 -0.050027296
0.08907426 -0.11872299 -0.114854276 -0.0054624192 0.07430977 -0.043984074 -0.011282474 -0.098653644
-0.0784294 -0.0063486993 0.004132299 0.04307872 -0.043477237 0.057812333 0.013656247 -0.07777984
-0.005043057 0.02402906 -0.08705456 0.014537386 0.09332139 -0.046872336 -0.04020728 0.07282959
-0.051807597 -0.09386232 0.077042796 -0.083634675 0.124070585 0.022185376 0.1046256 0.05083006
-0.05716148 -0.056111407 -0.0043322276 0.0020950884 -0.10321757 0.09635635 0.010073102 0.0202487
-0.023816613 0.09181327 -0.053261817 0.03482022 -0.004618507 -0.029255193 -0.08338501 0.07775388
0.041745834 -0.030727442 -0.07547605 -0.020457473 -0.109544285 -0.006183684 0.09117463 0.12309086
-0.038229283 -0.092870854 -0.0057035373 -0.042371873 -0.14893521 -0.020793945 0.054419436 -0.03804712
0.12297885 -0.10118295 -0.12071936 0.00082748575 0.07902263 0.14418957 0.017562345 0.010656394
-0.138151 -0.1094248 -0.0974385 0.021709714 -0.015146777 0.003078812 0.1384533 -0.08280614
00000000: 75a6 233d b995 d7bd 496d 9d3d 92d6 e6bc
00000010: 28ef 46be 0caa 0abc 0a40 ca3d 8c9d 353d
00000020: 426b 67bd 41f2 8f3d 7e03 2bbd a084 313d
00000030: 7b1b 12be 5832 913e b677 adbd e8c9 f83d
00000040: dbe1 0a3e a1e7 c23d 327d 1f3d 2059 41bc
00000050: c55c 8dbc bfbf 56bd 67e9 033d 857f 9a3d
00000060: 95bb 55bd 28dd f03c 08b7 e43c 1d03 613c
00000070: ced1 b6bc 7045 bdbd be21 1f3e 87a5 ba3d
00000080: 3bbe 0cbe c8b1 713c 8870 8fbd 1f5e 0ebd
00000090: d422 ef3d 85ec d43d 177a 003d 9867 9fbc
000000a0: a1e2 c6bb d9a5 4ebd 39fe 88bd db11 b4bd
000000b0: 36ac 0bbc 8027 183c efce 063e 50cc efbc
000000c0: c86c 603d b446 c4bd 4f37 d2bc 4a08 03bd
000000d0: 0948 0ebc d4a0 c5bd 2084 a63b e8dc 543d
000000e0: c012 9a3d b8a5 80bd cfff 853d 475a 0b3d
000000f0: d07c e03d 8c48 3cbd 9fef 07be 9e23 8abd
00000100: 80f5 09bc 2552 deba 0f19 8f3d 4058 02bb
00000110: f857 fc3c ccbb abbc 44fe c9bd c8f7 b33d
00000120: 93fc 1c3c 6017 d4bd 2d1f 723d 0095 34bc
00000130: 9eff e63d e0ae a83c 6003 c2bc bb6a c73d
00000140: 9b01 edbd 32f5 c3bd a0c8 f7bb e8d0 c63d
00000150: 099d 6abd 8c36 933d 3a13 a5bc bc0a 483d
00000160: fa00 cf3d 1c77 b3bd b63a adbd 6dae 9cbd
00000170: b404 a3bd ad6d 9ebd 2ee8 e53d e1ec dcbd
00000180: 34fc db3d 7b0a 2dbc b720 8cbc 6d7d 02be
00000190: 8023 d1bd 3ecc c5bd 1efa abbd c08b cc3c
000001a0: c406 e23d c46a ae3d 5e0b 72bd e96a 9fbd
000001b0: 6db5 21bb 0446 17bd 1860 e1bd e85d d63d
000001c0: 0e66 e4bd 569b b83d 79c2 943d 8c96 f43c
000001d0: 50e4 f0bd 2645 b1bd fce8 61bd 38de f5bd
000001e0: 3375 c13c 36fd cc3d dcfa f73c 6dcf 54bd
000001f0: a006 16bd 0d42 373d 14aa aebd 473f 3a3c
00000200: 52ad 5a3d 6098 e93c 53a8 53bd 8223 da3d
00000210: 97c2 1dbe ae5a 2fbb 03ec a4bd b0d5 883d
00000220: 9f95 9cbb 5340 01be d449 9e3d 4e38 3b3d
00000230: 159b bdbd ddc7 05be 42e8 9a3d 4fdd 5c3d
00000240: f50a 4dbc 1d92 743d 6aeb 4dbb eeb4 b73d
00000250: 25c5 8e3c 37db 0fbe 4022 863d ba46 a53d
00000260: 3f88 b43d 7621 bbbd 175a f13c e1c3 d2bd
00000270: 5c77 44bd 596c 6f3c 478b 85bd 9aee 003d
00000280: 9e2f 6bbd c5bb a93d 0313 24bc f5af 0a3c
00000290: 0b3c c43d 65f7 abbd ca1b b73d a472 f7bd
000002a0: 35ea a33d c84d 7e3d ada9 95bd cd0f c9bd
000002b0: f016 d93d 57d8 c3bc 5396 dfbd 6ce9 4cbd
000002c0: 916c b63d 0a25 f3bd b838 ebbd 18fe b2bb
000002d0: b82f 983d a528 34bd 20da 38bc ec0a cabd
000002e0: 989f a0bd c008 d0bb 3d68 873b 5073 303d
000002f0: 3015 32bd a0cc 6c3d 74be 5f3c 094b 9fbd
00000300: 3a40 a5bb 97d8 c43c a949 b2bd 372e 6e3c
00000310: 491f bf3d 35fd 3fbd 64b0 24bd ae27 953d
00000320: 3434 54bd e33a c0bd 9dc8 9d3d a848 abbd
00000330: b818 fe3d 1bbe b53c f245 d63d 2e33 503d
00000340: 2822 6abd 13d5 65bd 5cf5 8dbb c04d 093b
00000350: bc63 d3bd 7a56 c53d a709 253c 9ae0 a53c
00000360: 0f1b c3bc 9808 bc3d 1029 5abd a69f 0e3d
00000370: d856 97bb 96a8 efbc c3c5 aabd 6d3d 9f3d
00000380: aefd 2a3d 1eb8 fbbc 3093 9abd 6e96 a7bc
00000390: c158 e0bd 80a0 cabb c4b9 ba3d 1017 fc3d
000003a0: 4f96 1cbd 1333 bebd bde4 babb 218e 2dbd
000003b0: 7982 18be 1058 aabc eae6 5e3d 4cd7 1bbd
000003c0: 56dc fb3d 0239 cfbd b63b f7bd a1eb 583a
000003d0: 9ed6 a13d 6ea6 133e e8de 8f3c 2898 2e3c
000003e0: 7577 0dbe 1c1a e0bd d68d c7bd 92d8 b13c
000003f0: 302a 78bc e5c5 493b b4c6 0d3e 4496 a9bd

bias f4 [64]
0.027293142 -0.06763966 0.07523723 -0.04026674 0.11217883 0.016143534 -0.08681887 -0.05626946
-0.066446364 -0.16063413 0.11655634 0.11188322 -0.005619231 0.05857219 0.08863584 -0.006951142
-0.048012957 -0.08396802 -0.00788705 -0.0507208 -0.082798496 0.050562277 0.08126375 -0.02343365
0.10737573 -0.08345711 0.027925797 0.032545898 0.10199463 -0.11128119 0.05676531 -0.05423906
0.043372046 -0.09753119 0.11706476 0.11174322 -0.07108568 -0.11229899 -0.08887655 0.11291962
-0.02020178 0.081820376 0.06775753 0.09285903 -0.012662035 0.12985569 0.038063586 0.05910509
0.09016957 -0.15462679 0.055166863 -0.034840826 -0.095115535 -0.021594087 -0.08137395 -0.010059968
-0.06646505 0.0046973117 0.01904847 0.0802649 0.08105547 -0.013268299 0.0537045 -0.010333179
00000000: de95 df3c a986 8abd fa15 9a3d bdee 24bd
00000010: 04be e53d 723f 843c 17ce b1bd ce7a 66bd
00000020: 0815 88bd 467d 24be 17b5 ee3d 0823 e53d
00000030: 8721 b8bb 65e9 6f3d b586 b53d 68c6 e3bb
00000040: 3ca9 44bd 6df7 abbd af38 01bc 9dc0 4fbd
00000050: 4292 a9bd 641a 4f3d 9c6d a63d edf7 bfbc
00000060: cfe7 db3d 90eb aabd a4c4 e43c d94e 053d
00000070: 90e2 d03d 64e7 e3bd be82 683d c729 5ebd
00000080: e3a6 313d 6fbe c7bd a6bf ef3d a1d9 e43d
00000090: 5e95 91bd 03fd e5bd e904 b6bd 6742 e73d
000000a0: 347e a5bc 7191 a73d 76c4 8a3d e02c be3d
000000b0: 6d74 4fbc e4f8 043e 90e8 1b3d 2e18 723d
000000c0: d3aa b83d 7c56 1ebe a6f6 613d 41b5 0ebd
000000d0: efcb c2bd 15e6 b0bc 63a7 a6bd 90d2 24bc
000000e0: d41e 88bd e8eb 993b 890b 9c3c ed61 a43d
000000f0: 6900 a63d 4863 59bc 40f9 5b3d 7e4c 29bc

weight f4 [64, 64]
-0.01786589 -0.008429985 0.09837237 -0.01870615 0.13589652 0.08917776 -0.06416553 0.06622579
-0.04041309 -0.039826114 -0.060498837 0.122969896 0.070701145 -0.029870866 -0.119434215 0.012138532
0.07646242 -0.053117782 0.040334344 0.12144324 -0.112049915 -0.051567584 -0.100561075 -0.04348947
0.002408393 -0.034476236 0.023694072 0.10125736 0.14456458 -0.06016299 -0.00066286273 -0.02419413
-0.06872044 -0.007971258 0.09346646 -0.0138105545 -0.092251286 0.045681972 0.013313309 -0.014465091
0.08011376 0.052981686 -0.054188494 -0.020752745 -0.10104994 0.13145745 0.02170059 0.104938574
0.006099954 0.011426138 -0.021151882 -0.10368131 0.062633194 0.01620827 0.06443521 0.038844008
0.10459949 0.060347576 0.04887164 0.12820151 0.077442475 0.077398986 0.01756133 0.11776492
0.121804036 -0.018673271 -0.06386242 -0.048515804 -0.043872386 -0.019810082 0.01475784 -0.03673355
0.036433134 -0.16736336 0.1241109 0.017915394 0.104621656 0.012159177 -0.072515465 0.08944886
-0.029138118 0.010843077 0.016229738 0.09356243 -0.024292331 -0.009613857 -0.011471432 0.066601425
-0.039252646 -0.005142823 0.00835082 -0.030400887 0.08071631 0.12483774 -0.024027282 0.014636226
-0.08549686 0.03156206 0.118242584 0.01129501 0.021033734 -0.018220037 -0.107568696 0.077340335
-0.03189868 -0.017586872 0.14387883 0.04539306 0.09328812 -0.01290566 -0.11481992 -0.045622878
0.08903554 -0.05608692 0.11683764 -0.07518195 0.04521834 -0.0004951042 0.036348403 -0.0989954
0.090540394 -0.049113587 0.09274591 -0.0578019 0.01589249 -0.042836312 0.025891861 -0.119938985
0.035347153 -0.019252928 0.03635615 -0.09014884 0.0006633764 0.02116691 0.0216039 0.09783773
0.048469882 -0.068328984 -0.090197474 0.118523955 -0.11929706 0.05716118 0.03376329 -0.017756466
0.0017410517 0.13496533 0.014628648 0.1416087 -0.12539895 -0.032071695 0.08515511 -0.036272664
0.090217106 -0.06626211 0.0029390068 0.029755732 -0.018110247 0.038770527 0.12857388 0.05345472
-0.04811225 0.04605385 0.10008937 -0.06696416 -0.076322585 0.054070298 -0.004753334 0.044309653
-0.10458368 -0.05647016 -0.060996354 0.074870706 0.029272838 0.051448103 0.011298457 0.06175738
0.09450061 -0.16122946 0.009574864 0.07160353 -0.13650456 -0.04137298 -0.11570945 -0.058873087
-0.10970411 0.061508197 0.05621495 -0.03790004 -0.10064919 0.010458996 0.057946038 0.01769452
0.06278262 0.037231956 0.029860975 -0.015992055 0.024967572 0.11198607 -0.11001464 -0.015906
-0.04014993 -0.05070511 0.07420813 0.03607932 0.037243716 0.08120604 -0.051144015 -0.052409403
0.10220967 0.09021818 -0.07758902 -0.04540179 0.056501158 -0.07956375 0.014859371 0.021832313
0.060386915 0.113908574 -0.015935428 0.05046874 0.015642934 -0.105246976 0.08710121 0.09415849
-0.12000908 -0.027559929 0.06577921 0.07513867 0.09028138 -0.08081018 -0.009099966 0.1086604
0.06768529 -0.07042761 0.1523515 0.015397806 -0.079916336 -0.058477957 -0.15153475 0.012468333
-0.08512936 -0.03216435 -0.044297203 -0.02303999 -0.042829387 0.01859349 0.016451705 -0.10265836
-0.083505094 -0.07595974 -0.0952391 0.075546235 -0.0037832826 -0.08586969 0.023759302 0.05433458
00000000: 7d5b 92bc eb1d 0abc 7477 c93d a43d 99bc
00000010: 7528 0b3e d4a2 b63d 3869 83bd 63a1 873d
00000020: 3288 25bd b520 23bd a1cd 77bd a4d7 fb3d
00000030: c3cb 903d bfb3 f4bc ed99 f4bd b1e0 463c
00000040: 5498 9c3d 0892 59bd a035 253d 3cb7 f83d
00000050: 6d7a e5bd 8838 53bd f7f2 cdbd 0422 32bd
00000060: 21d6 1d3b f436 0dbd 121a c23c 0560 cf3d
00000070: bd08 143e 786d 76bd f7c3 2dba c532 c6bc
00000080: 4dbd 8cbd e199 02bc 586b bf3d aa45 62bc
00000090: 3eee bcbd 051d 3b3d 1120 5a3c fdfe 6cbc
000000a0: af12 a43d 5303 593d c1f4 5dbd a901 aabc
000000b0: 45f3 cebd c89c 063e 70c5 b13c 09ea d63d
000000c0: 1fe2 c73b b234 3b3c b646 adbc de56 d4bd
000000d0: d545 803d 35c7 843c 9bf6 833d e51a 1f3d
000000e0: 4238 d63d 052f 773d a12d 483d 4247 033e
000000f0: 299a 9e3d 5c83 9e3d c7dc 8f3c bc2e f13d
00000100: 6574 f93d b0f8 98bc 4dca 82bd 82b8 46bd
00000110: 88b3 33bd c148 a2bc deca 713c eb75 16bd
00000120: e93a 153d 4d61 2bbe db2d fe3d 4ec3 923c
00000130: e143 d63d 4937 473c fd82 94bd f730 b73d
00000140: 10b3 eebc 29a7 313c 3af4 843c a99d bf3d
00000150: b600 c7bc 7083 1dbc acf2 3bbc 5466 883d
00000160: 62c7 20bd 2085 a8bb e1d1 083c 480b f9bc
00000170: 984e a53d eeaa ff3d ddd4 c4bc c8cc 6f3c
00000180: fa18 afbd 3847 013d 2b29 f23d b50e 393c
00000190: f04e ac3c 3042 95bc fa4c dcbd 9c64 9e3d
000001a0: 31a8 02bd 5812 90bc f954 133e 13ee 393d
000001b0: d80d bf3d 4372 53bc b526 ebbd 0edf 3abd
000001c0: 4458 b63d 66bb 65bd 9348 ef3d fff8 99bd
000001d0: de36 393d e1c9 01ba 10e2 143d 1abe cabd
000001e0: 3e6d b93d 542b 49bd 91f1 bd3d afc1 6cbd
000001f0: f830 823c 2175 2fbd 2b1b d43c 92a2 f5bd
00000200: 2dc8 103d 51b8 9dbc 30ea 143d f49f b8bd
00000210: 70e6 2d3a 3a66 ad3c a9fa b03c 265f c83d
00000220: 5b88 463d 11f0 8bbd 74b9 b8bd b0bc f23d
00000230: 0452 f4bd d721 6a3d 604b 0a3d 0276 91bc
00000240: 0034 e43a 5a34 0a3e ffac 6f3c df01 113e
00000250: 9568 00be 9c5d 03bd cd65 ae3d a592 14bd
00000260: bfc3 b83d 6eb4 87bd 5a9c 403b 4bc2 f33c
00000270: f15b 94bc d8cd 1e3d dfa8 033e 56f3 5a3d
00000280: 5a11 45bd f6a2 3c3d a8fb cc3d 8124 89bd
00000290: 044f 9cbd d178 5d3d dbc1 9bbb 0a7e 353d
000002a0: f82f d6bd 414d 67bd 50d7 79bd d055 993d
000002b0: 97cd ef3c 3fbb 523d 2a1d 393c 4ef5 7c3d
000002c0: 8989 c13d 5619 25be e4df 1c3c dfa4 923d
000002d0: dac7 0bbe b776 29bd 13f9 ecbd e824 71bd
000002e0: 8cac e0bd 05f0 7b3d a641 663d 133d 1bbd
000002f0: 2a21 cebd 355c 2b3c d358 6d3d 19f4 903c
00000300: 2d94 803d 8980 183d 019f f43c c501 83bc
00000310: cb88 cc3c f458 e53d 5b4f e1bd 4d4d 82bc
00000320: 4174 24bd 29b0 4fbd 6ffa 973d e9c7 133d
00000330: de8c 183d 5a4f a63d 637c 51bd 3eab 56bd
00000340: 4e53 d13d 4fc4 b83d fee6 9ebd 3af7 39bd
00000350: c26d 673d 52f2 a2bd b874 733c aed9 b23c
00000360: 4558 773d e648 e93d 048b 82bc 4fb8 4e3d
00000370: 9c25 803c ba8b d7bd 1f62 b23d 2bd6 c03d
00000380: 52c7 f5bd 5cc5 e1bc 40b7 863d 4ee2 993d
00000390: 72e5 b83d cf7f a5bd 0618 15bc 5889 de3d
000003a0: 969e 8a3d 5a3c 90bd 0802 1c3e 1447 7c3c
000003b0: 2dab a3bd 9586 6fbd ed2b 1bbe fb47 4c3c
000003c0: 4d58 aebd c4be 03bd fc70 35bd 5cbe bcbc
000003d0: de6d 2fbd 6051 983c bac5 863c 8c3e d2bd
000003e0: b804 abbd c890 9bbd b80c c3bd fcb7 9a3d
000003f0: f3f0 77bb 73dc afbd dea2 c23c f08d 5e3d

bias f4 [64]
-0.006727681 0.097972326 0.048094198 0.04490193 0.14212888 -0.025305502 0.022096772 -0.069093585
-0.0054612737 -0.041810434 -0.085080326 -0.11966248 -0.056618124 0.025871089 0.010084886 -0.10880004
0.06175304 0.123634726 0.030891838 0.040650226 -0.03743194 0.008909371 -0.009458258 -0.09366169
0.123692885 0.03330625 -0.019190378 -0.11319311 -0.10429339 0.14266007 0.09583268 -0.07421723
0.034898005 0.008625121 0.10845031 -0.083951876 -0.12314781 -0.012505589 0.010907327 0.022745313
0.110189795 0.0599802 0.030132517 0.06891306 0.013873741 0.095328175 0.13982698 0.08137406
0.13010332 0.10715089 0.10590114 0.026782751 -0.10935937 -0.052499335 0.04966294 -0.071987465
0.0058526117 -0.07883395 -0.04615302 -0.09179376 -0.06342491 0.04606997 0.029344417 0.0443928
00000000: e173 dcbb b7a5 c83d 6cfe 443d 16eb 373d
00000010: 3c8a 113e 7c4d cfbc 4a04 b53c f080 8dbd
00000020: 7cf4 b2bb 6b41 2bbd 983e aebd 9a11 f5bd
00000030: 68e8 67bd 9bef d33c 143b 253c 8ed2 debd
00000040: c1f0 7c3d 3434 fd3d e110 fd3c da80 263d
00000050: 3c52 19bd 9cf8 113c cff6 1abc b3d1 bfbd
00000060: b252 fd3d 226c 083d 2435 9dbc cad1 e7bd
00000070: c697 d5bd 7b15 123e ed43 c43d 34ff 97bd
00000080: 36f1 0e3d 6150 0d3c 321b de3d f6ee abbd
00000090: eb34 fcbd 3ee4 4cbc a5b4 323c 6154 ba3c
000000a0: 30ab e13d ccad 753d 78d8 f63c 4a22 8d3d
000000b0: b04e 633c 6b3b c33d ce2e 0f3e 71a7 a63d
000000c0: ce39 053e ed71 db3d b2e2 d83d 8067 db3c
000000d0: cef7 dfbd 8b09 57bd 5e6b 4b3d 2a6e 93bd
000000e0: 44c7 bf3b b273 a1bd f30a 3dbd 5efe bbbd
000000f0: ebe4 81bd ddb3 3c3d b463 f03c 3ad5 353d

weight f4 [1, 64]
0.08791573 0.14610456 0.13552913 0.025241325 0.092615135 -0.10678496 0.007079366 -0.071178176
0.11592638 0.0006370515 0.09086573 0.104860194 -0.06507896 0.01772181 0.1136468 -0.09400078
0.111741416 0.12808406 0.076196395 -0.12640801 0.0774531 -0.057182387 -0.07012419 0.019863235
0.025256457 0.06296029 0.10707049 -0.057168007 0.036390737 0.03129465 0.107931025 -0.07677204
0.107252054 0.06404722 0.13392128 0.047300532 -0.12335237 -0.06492009 -0.07920077 -0.08803342
0.07661905 0.07327453 0.10448706 0.12164015 -0.10816549 -0.06340653 0.07590257 0.032950263
0.05143031 0.105708554 0.048063483 -0.086630784 -0.09126146 0.03626663 -0.06862463 -0.005575359
-0.06424537 0.03641051 0.06342361 -0.22727986 -0.11605769 0.07251377 -0.071339846 0.034996647
00000000: 2a0d b43d 6f9c 153e 26c8 0a3e e5c6 ce3c
00000010: 01ad bd3d 13b2 dabd 07fa e73b ddc5 91bd
00000020: cf6a ed3d cdff 263a d017 ba3d f1c0 d63d
00000030: 1e48 85bd 542d 913c a7bf e83d 7b83 c0bd
00000040: afd8 e43d 7828 033e db0c 9c3d 1a71 01be
00000050: bb9f 9e3d 1438 6abd 459d 8fbd 39b8 a23c
00000060: a1e6 ce3c 53f1 803d c647 db3d 0029 6abd
00000070: 740e 153d d22e 003d f10a dd3d a93a 9dbd
00000080: f7a6 db3d 302b 833d a922 093e 34be 413d
00000090: 2ba0 fcbd d3f4 84bd 0334 a2bd de4a b4bd
000000a0: 73ea 9c3d f510 963d 50fd d53d 791e f93d
000000b0: de85 ddbd 48db 81bd ce72 9b3d dbf6 063d
000000c0: 97a8 523d ba7d d83d 37de 443d 7b6b b1bd
000000d0: 4ae7 babd 518c 143d 128b 8cbd 80b1 b6bb
000000e0: 1493 83bd 3023 153d 3de4 813d 0dbc 68be
000000f0: a7af edbd 1982 943d a01a 92bd a558 0f3d
