models/1d-heat-pinn-500epochs-lr0.001-adam-x51-t1000-alpha1.22e-3.pt (torch, 56619 bytes, 9 tensors)

weight f4 [64, 2]
00000000: 4d0b abb9 33e1 8bbe d5c3 9dbd a05b 8bbe
00000010: 1948 9f3d e396 8b3e 5a0e 53bd 54da 36be
00000020: 0985 1ebe e66f a13e b2e2 c73c 8419 49be
00000030: 8668 3a3e ee95 74be 0b2a 4ebe 041d 7fbb
00000040: 5fda 9b3d 34ee 1bbe 76d9 223e 73be 97bc
00000050: ba67 a53e 7480 33be 993f acbe f628 c03d
00000060: f3a1 fdbd 3199 e53d 8fbe 9f3e 7eb5 c7bd
00000070: 4a29 15be 58c9 563b 894e 913c 1a30 1cbe
00000080: 8a5d 263e 18ad 52be 8e79 4c3e f6c3 a53e
00000090: a579 62bc 9ce7 81bd 29d4 bc3c 7fe7 dbbd
000000a0: ed6d 68be 4559 80be dd99 96be cdf8 2a3d
000000b0: d308 c5bc 6289 55bd 0488 e1bd 4a3b 4dbe
000000c0: 5187 903e c841 6cba 7dae 933e e1e7 a63d
000000d0: ab4e 27be 135e 87bc eb33 3dbe 6a28 b7bd
000000e0: 9380 6a3e 2af1 5f3c d74c 02be 5fa7 77be
000000f0: bffa 5a3e dfcf a63d 4298 923d ee9e 85bd
00000100: 65a1 5cbe fba5 f1bc a891 293e ce03 9cbd
00000110: 464b f83a d40c 3cbe e3ce 2fbe ff2d 3cbe
00000120: c67a 223e bb38 83be a448 b6bc c4f4 573d
00000130: 2b55 17be 297d 693e d35f 8b3b 3b69 7ebd
00000140: 890d 693c 50e8 13bd 902a 13be 2e8b b6bc
00000150: 922c 25be 433c 773e a96d e5bd 9145 f5bb
00000160: 560a 8dbe bac9 a6bb 5def e73d e476 9b3e
00000170: b732 90be fb80 c6bd dff5 25be c4fd 3ebe
00000180: 9a64 31be a363 ffbd c17e fc3d 8d98 bfbd
00000190: 07ce a33c e420 223d b44a 4e3d 0961 b53d
000001a0: 9663 143e 658a 8fbd 6059 463d f46f 643e
000001b0: ee48 9dbc bc62 aab9 493d 2b3e 9dcb 81be
000001c0: 9e36 003c 13f3 663d 4413 2f3d cee4 66be
000001d0: e06a a4bd 851a 86be be29 c53d 341d 9b3d
000001e0: 3cf9 88bd 44e2 3abd b9ba 553d fb39 f1bd
000001f0: a785 943e 1656 e9bc a10e 7abe 30bc c2bd
-0.0003262408 -0.2732025 -0.077033676 -0.27218342 0.077774234 0.27263555 -0.05152736 -0.17856723
-0.15480436 0.31530684 0.024400089 -0.1963864 0.18203935 -0.23885319 -0.20133226 -0.0038927207
0.0761001 -0.15227586 0.15903267 -0.01852343 0.323057 -0.1752947 -0.3364227 0.09382813
-0.12384405 0.112108596 0.31200072 -0.09751414 -0.14566532 0.0032773819 0.017737644 -0.15252724
0.1624662 -0.20573843 0.19968244 0.3237607 -0.013822948 -0.06343004 0.023050385 -0.10737514
-0.22698183 -0.25068107 -0.29414263 0.04174118 -0.02405206 -0.05213297 -0.11012271 -0.20042148
0.28228238 -0.0009012488 0.28844061 0.08149696 -0.16338603 -0.01652435 -0.18476836 -0.08943255
0.2290061 0.013668338 -0.12724625 -0.24184941 0.21384715 0.08145117 0.07157947 -0.06524454
-0.21545942 -0.029498091 0.1655947 -0.07617913 0.0018943332 -0.18364269 -0.17168765 -0.18376921
0.15867147 -0.2562922 -0.022251435 0.05272366 -0.14778583 0.22801651 0.0042533665 -0.062112074
0.014224418 -0.036110222 -0.14371705 -0.022283163 -0.16130283 0.24144082 -0.11202557 -0.0074850996
-0.27546948 -0.0050899656 0.11324952 0.30364144 -0.28163692 -0.0969257 -0.16207074 -0.18651491
-0.17323533 -0.12470176 0.12328864 -0.093552686 0.019995702 0.03958215 0.05036421 0.088563986
0.14491114 -0.070088185 0.04842508 0.22308332 -0.019199815 -0.0003249849 0.16722597 -0.25350657
0.007825522 0.056384157 0.042742983 -0.2254822 -0.08028197 -0.26192108 0.09627102 0.075739294
-0.06688163 -0.04562594 0.052180026 -0.11778637 0.2900822 -0.028483432 -0.24419643 -0.0950855

bias f4 [64]
00000000: 1d1d 6f3d 5040 2dbe 67ae debd 11f6 b5bc
00000010: 75af a83c 637b ec3d bb3e f73d 6469 2cbd
00000020: b652 4dbc 240f e2bd c338 b1bd aaab b53d
00000030: 3d1d 2fbe 5551 2fbb 5159 e1bd a8c2 b93d
00000040: e198 dc3d 6a2e 2c3d 84aa bb3d 8cf3 ce3d
00000050: ce1a 023e e900 12bd f437 abbd e583 cbbd
00000060: 6301 a0bd bbc5 de3d da95 6bbd 8606 57bd
00000070: 33cf 2fbc b3e3 043e c434 023e f198 bc3d
00000080: 3561 34bd 159c c43c 11db 0d3e 13c1 b53d
00000090: 249e bc3c f600 f6bd 2809 893d bf92 f7bd
000000a0: 1243 5c3d 7144 bb3c 395a 04be 227a 51bc
000000b0: 6c50 29bd ed4e 9fbd 6db8 31be 7991 9f3d
000000c0: c0f3 973d b67e 9c3d 4d14 b33c bd32 c3bd
000000d0: badf 85bd db16 92bd a591 873d eeef ef3c
000000e0: 8bb1 dcbd 2f89 e23d 40ba cd3d 839f 603e
000000f0: a738 b53d 3d34 5abd d3f5 60bd 2081 abbc
0.058377374 -0.16919065 -0.10873108 -0.02221206 0.020591477 0.11546972 0.12072512 -0.042092696
-0.012531927 -0.11038044 -0.086534046 0.08870633 -0.17100997 -0.0026751359 -0.11003364 0.09070331
0.10771347 0.04203645 0.09163383 0.10105047 0.12705538 -0.0356454 -0.083602816 -0.09937266
-0.078127645 0.10877558 -0.057515956 -0.052496456 -0.0107305525 0.12977485 0.12715441 0.09208859
-0.044038016 0.024000207 0.13853098 0.088747166 0.023024626 -0.12011902 0.066911995 -0.120885365
0.0537749 0.022859784 -0.12925042 -0.012785466 -0.041336462 -0.07778726 -0.17355509 0.077914186
0.074195385 0.07641356 0.021860266 -0.09531162 -0.06536813 -0.071332656 0.06619576 0.029289212
-0.10776051 0.11061322 0.1004529 0.21935849 0.08848696 -0.053272475 -0.054921936 -0.020935595

weight f4 [64, 64]
00000000: ddda 5abc 1fda 16be 5676 03bd 1856 9cbe
00000010: 1146 f03d f9c7 98be a837 d93d e011 893d
00000020: be61 54be 8831 32be 4dd7 013e 1c30 693e
00000030: 8858 12be db96 ffbd 26d0 fabd 254b 8dbe
00000040: 07a1 9cbe ce21 f3bc f486 87be 6ed2 99be
00000050: 4884 23be 4151 25be d24d b0bc 190b 47bd
00000060: 3b86 05bd 8bb4 9b3b f0cb 6a3e 9906 933c
00000070: 2804 66bb ff6a e9bd b211 343e 1abd 33be
00000080: c1f9 9a3c adb0 94be b623 9e3c 0351 21be
00000090: 46e3 c0bd 4652 adbd 477d 30be a48b a2bd
000000a0: 4aaf 56be e4a8 df3c 3981 2b3d 8cf9 8d3d
000000b0: 1da7 4fbe bd4d 84bd 6b36 9bbd cd8c 50bd
000000c0: 0ab0 8d3c 04f4 5dbe e588 0dbe d5d3 11be
000000d0: 6748 73bd 0742 e23d 3e45 79be f0df 0a3e
000000e0: 08bc 813e 75aa a0be 562f a9bd 8101 d3bd
000000f0: 80fc 0d3e 2ac1 cdbc 15d7 48be 290c 75bd
00000100: e0c5 6c3b 80e0 283d a80c 07bd 6caf 163e
00000110: 26c9 10bd 4b17 543e f4ff 4cbe 0c59 e5ba
00000120: 267e 43be 4035 32bd ffa2 bcbd 82e1 d1bd
00000130: 85d3 973d c16d 593d 93d9 a13d 1ab7 0dbe
00000140: f59c f93c 3f74 4fbb b7dd 043d 9f2a 85bd
00000150: a4bb 1cbe 5296 fb3d 512f 193e 5b5c 14be
00000160: 3228 67bd ebb3 66bc 8421 d83d 6f4c f33d
00000170: d270 3cbc 8636 023e 789c 263e b459 0c3e
00000180: 30a7 b7bd 9c59 02be afbe ee3d 3905 1f3e
00000190: 8c00 4cbe c8e7 5abd b026 bdbc 526f 113d
000001a0: f482 c0bd b8fb 3fbe 2e76 3b3e 4411 7d3d
000001b0: 48a9 293e f813 8cbd 6ab6 2c3e 0838 703e
000001c0: 8c5e 07bd 1ff2 91bd b3f7 42be 1bc2 be3d
000001d0: 20ba 113e 2568 26bd ff21 b53d 9b81 e03d
000001e0: 8016 04bd 1c84 0cbe ee2c 8cbd d841 0a3e
000001f0: 7bbb 233e 30a3 353e 56e3 bd3e 9272 17be
00000200: fc9c 953d c157 033e 8fbb 1bbe 3f0f 20be
00000210: 1210 ff3d b996 333d cc9d 18b7 698b 45be
00000220: d82d 2ebe 1976 d9bc 9d79 47be ee20 403c
00000230: 06d4 18be 5ebb 203d 289f fc3d 60da f9bc
00000240: 1be3 bb3d be67 31be 7481 543e c5fc fc3d
00000250: a6d5 2d3e e259 f73d 9d7f d13d 9ad5 263d
00000260: 0091 2c3e b667 0f3e b4d7 263e d82d a639
00000270: 70f8 1f3e d017 f2bd 88a0 cdbd 11ef 26be
00000280: 5726 e03d ec76 153e ca5e 423e 15f2 7fbd
00000290: 22a6 76bd e011 e2bd 4134 4dbe de27 773d
000002a0: aaf7 8d3d 75ad b43d e753 5cba 644b db3d
000002b0: 7c4a 3e3e 40be 463d 17f4 32be 0e09 c7bd
000002c0: 00ed 3d3c 556e 0dbe ba7c 053e a023 49bc
000002d0: 25d1 a1bc 0a35 3f3e b6e2 efbc cfb1 1bbe
000002e0: 824e 783d f870 bdbb 529e 113c d52f 31be
000002f0: b028 25be 67d4 123e 5e64 78bd ac54 50be
00000300: fd4e 023e 2fc9 0a3e 693a 0c3d 624a 183d
00000310: fa41 273e e142 e83d c596 1dbe 760a 373e
00000320: 9e71 0cbb 6762 6fbe ee83 44be b4c4 833d
00000330: 4d82 193e 85de 333e 2399 923d 4966 bbbd
00000340: 91f8 c03c 7fe9 1abc 152a acbc d21f 1e3e
00000350: feb6 04be 6a04 dabd 3c14 323e f415 a2bd
00000360: 4e1d 0b3d e1b8 53bd ae66 a5bd 7af4 5ebd
00000370: 98da 08be ff6d 3f3d a609 3d3e 056f 413e
00000380: 93b8 803d 5095 db3d 8ed9 c4bd 3069 20be
00000390: 5e68 fabd 6ade 45bd 000d 1a3e d67f bf3d
000003a0: 663c 3e3e 1430 a7bc 68e0 3c3e 267d af3d
000003b0: fc3c ff3d c669 053e 1c14 26bd e55e 3c3e
000003c0: 96aa 3d3e 10c2 18be 9674 98bd b18b 523e
000003d0: 2ba7 4d3e 3fb0 263e af50 003e 88e6 703c
000003e0: 4167 42be 7940 36bd 6391 c63d 867c 6e3e
000003f0: 80ef 213e 9047 4fbe a17a 45be 14a2 f5bd
-0.013357845 -0.14731644 -0.032095276 -0.30534434 0.11732114 -0.29840067 0.10606319 0.066928625
-0.2074041 -0.17401707 0.12679787 0.22772259 -0.14291584 -0.12479945 -0.122467324 -0.27596393
-0.30591604 -0.029679205 -0.2647015 -0.30043358 -0.1596843 -0.16144277 -0.021521483 -0.048594568
-0.032598715 0.004751747 0.22929358 0.017947482 -0.0035097692 -0.11397361 0.17584875 -0.17552605
0.01891792 -0.29041043 0.019304138 -0.1575356 -0.09418349 -0.08462958 -0.1723529 -0.079367906
-0.20965305 0.027302213 0.041871283 0.06932363 -0.20278592 -0.0646014 -0.07578739 -0.050915528
0.017295856 -0.21675116 -0.13821752 -0.14240964 -0.05939522 0.1104775 -0.2434282 0.13561988
0.2533877 -0.31380048 -0.08260982 -0.10303021 0.13865852 -0.025116522 -0.19613297 -0.05982605
0.0036128685 0.041229725 -0.032971054 0.14715356 -0.03534808 0.2071201 -0.20019513 -0.0017497852
-0.1909109 -0.043507814 -0.092107765 -0.1024809 0.07413391 0.053083185 0.07902827 -0.13839379
0.03047035 -0.0031654981 0.032438006 -0.0650227 -0.15305954 0.12284531 0.14959456 -0.14488356
-0.056434818 -0.014080982 0.105532676 0.11879813 -0.011501508 0.12716112 0.16270626 0.13706094
-0.08967435 -0.12729496 0.11657464 0.15529336 -0.19922084 -0.0534437 -0.023089737 0.035506554
-0.09399977 -0.18748367 0.183068 0.061784044 0.16568482 -0.06839746 0.1686646 0.23458874
-0.03304915 -0.07126259 -0.19039802 0.093143664 0.14231157 -0.040626664 0.08844375 0.1096222
-0.03224802 -0.1372227 -0.06844507 0.1350168 0.15989487 0.17738032 0.37087506 -0.14789799
0.07305333 0.12826444 -0.15208267 -0.15630816 0.12454237 0.043844912 -9.096646e-06 -0.19291462
-0.17009676 -0.026545571 -0.19479986 0.011726601 -0.1492463 0.039241187 0.12335044 -0.030499637
0.09174176 -0.17324731 0.20752507 0.123528995 0.16976032 0.12077691 0.102294184 0.04073105
0.16852188 0.14004406 0.16293222 0.00031696144 0.15622115 -0.11820948 -0.100403845 -0.16302134
0.10944813 0.14596146 0.18981472 -0.062486727 -0.06021703 -0.11038566 -0.20039465 0.060340755
0.06932004 0.08822147 -0.00084048364 0.10707739 0.18583101 0.04852128 -0.17475925 -0.09718524
0.01159215 -0.1381162 0.1303586 -0.01227656 -0.019753048 0.18672577 -0.029282909 -0.15204547
0.060621746 -0.005781289 0.008887844 -0.17303403 -0.16128802 0.14338838 -0.060642593 -0.203448
0.12725444 0.13553308 0.03423539 0.037180312 0.16333762 0.11340881 -0.15389545 0.17875084
-0.0021430026 -0.23377381 -0.19190952 0.064340025 0.14991112 0.17565353 0.07158115 -0.09150369
0.023556026 -0.009455084 -0.02101616 0.15441826 -0.12960431 -0.10645373 0.17390531 -0.079143435
0.033963494 -0.051689986 -0.08076225 -0.05443237 -0.13364637 0.04673576 0.18460712 0.18890007
0.06285205 0.107218385 -0.09611808 -0.15665126 -0.12226938 -0.048307814 0.15044022 0.09350555
0.18577728 -0.020408668 0.18444979 0.08568792 0.12462804 0.1302863 -0.04054652 0.18395574
0.18522105 -0.14917779 -0.07444112 0.205611 0.20083301 0.1627817 0.12530778 0.0147034
-0.189847 -0.04449508 0.09695699 0.2328969 0.15814018 -0.20242143 -0.1928506 -0.119938046

bias f4 [64]
00000000: b95c 00bc dc5a ad3b c143 63bd 6aba fe3c
00000010: 5f6d 85ba 7379 b13c 4cbf acbd 74f2 7bbc
00000020: 9f69 433c 4bb5 c5bb ed3b 5c3c 3c1f 0a3d
00000030: 50eb 283d 0e51 0c3c c453 8a3d 0e99 b6bc
00000040: 04d4 03bd a064 28bd 3d4d 3dbc 8351 cbbc
00000050: 87cf efbc 26a8 893d 36e7 1e3b a11b c9b9
00000060: 964d 83bc cd78 9c3c 53ae 0e3d 0d23 693d
00000070: c90b dcbc 6c43 7bb9 a69c ba39 4d7d 9b3d
00000080: f9a8 0bbd 13cd 39bb 0fd3 043c 7c02 053d
00000090: 1aee a2bd f3c6 413d 8280 863c 5ce5 2e3c
000000a0: 2e21 e4bc 912b feba d231 a03d 1d45 643d
000000b0: 0481 753c d0cb c7bc a1d4 e63c 30f0 13bd
000000c0: d59e 0dbd 91b7 983a a2d2 16bd 53bf efbc
000000d0: 4672 ffbc 4056 313d 3439 813b d92f ad3b
000000e0: cf9f f1bb 57a8 47bd 1d37 493d bc2d bdbd
000000f0: 8307 b4bc ed85 76bc ca16 673d 5f77 67bd
-0.007834607 0.0052903723 -0.055484537 0.031094749 -0.001017969 0.021664357 -0.084349245 -0.01537763
0.0119270375 -0.0060335747 0.013442022 0.033721194 0.041240036 0.008564247 0.06754258 -0.022289779
-0.032184616 -0.04111159 -0.01155406 -0.024819141 -0.029273761 0.06721525 0.00242467 -0.00038358293
-0.016028207 0.019100571 0.034834217 0.056918193 -0.026861088 -0.00023962342 0.00035593397 0.075922586
-0.03409669 -0.0028350994 0.008106961 0.032473072 -0.079555705 0.047308873 0.0164187 0.010674801
-0.027847853 -0.0019391646 0.078220025 0.055729974 0.014984373 -0.024389178 0.028177561 -0.036117733
-0.034575302 0.0011651387 -0.03682197 -0.029266035 -0.03118242 0.043295145 0.0039435867 0.005285245
-0.007373787 -0.048744526 0.049124826 -0.09237239 -0.021976238 -0.015046579 0.056418218 -0.056510326

weight f4 [64, 64]
00000000: 3a16 dd3d 0af7 033e d40d 203e 11c7 033d
00000010: f826 d13d fd28 293e 9e33 18bc 9ab9 dcbd
00000020: a12e afbd da96 a33b eceb 2bbe bf98 e8bc
00000030: 5bba 4d3a 3579 01bd 0f6b 233e d0b3 db3d
00000040: aa50 533e 6c45 0b3e f470 03be 4749 f1bb
00000050: fffb 31be da82 193e 4f04 8f3d 7512 32be
00000060: a007 7e3d 13e8 323d 92a7 3bbe 8cd3 a2bb
00000070: 2ca0 77bc 03cf 7cbe b1a2 1f3e 68c4 67be
00000080: 7d6d 5abe 69d6 44be 500f e2bd 30c3 38be
00000090: 1a69 5cbe c04c 96bc 38ab 423e d878 bd3d
000000a0: 11ca 21be 3448 0b3e d69a 143e 26c4 8abe
000000b0: 29b3 28be 4219 b6bd 1983 023e b1bc 1dbe
000000c0: ea2e fcbd a84d 233d 757c 893d 8c59 3f3e
000000d0: 9aff 4b3e 0082 3b3e 7a67 47bc fdb4 d23c
000000e0: 2244 483e 9109 de3a 2e36 d7bc 56a2 043d
000000f0: 5bf8 5d3e 601b 84be ae21 51be 6d4e 0ebe
00000100: 7892 70bd 7593 95bd 1ddd bdbd 9922 66be
00000110: fae1 48be bc7d 28be 9676 223e c326 58be
00000120: 0e3c e83d 8801 3a3e 7e61 6fbd f8bb 0c3c
00000130: 7c61 0fbe 4aa3 a33d 4ec5 a93d 5e11 463e
00000140: d319 b23d 637c 1f3c 36d7 04be 89e3 dc3d
00000150: df91 35be 321e 51be a551 49be 7a2d 18be
00000160: c504 043d 6dc1 963d 45a4 11bd b7af a63d
00000170: 1c90 1b3d 2ce0 3f3e fd8c 3c3e 77c5 e63d
00000180: f823 063e 9b12 25be eaa0 37be 66a1 083e
00000190: 3a4e ee3d 2a72 4f3e b25c a83d b0a8 3c3e
000001a0: e22b 27be 2820 a5bc 0b53 afbd de53 b6bc
000001b0: 6928 b93d 843d 2cbd e076 5abe b06e 103e
000001c0: 523d 4dbe 5ea7 283e 98a7 3abe da57 fb3d
000001d0: ba44 1d3e 9373 743d 16fe 4f3e 7ce5 4f3e
000001e0: 7d19 263e 5a45 57be 669e 4abe 33e6 66bd
000001f0: 8043 053d 4709 813d 0138 2bbc 6cd3 f23c
00000200: 1182 593e a389 1abe 7157 48be ed52 463a
00000210: 829a 37bc 452f 6b3b c84a 34be 0fe6 363d
00000220: e510 c13d 3356 41be aa01 92ba af9a 793c
00000230: 1109 023d 618f 1f3e f8c9 b2bc e091 913d
00000240: fe0e 7b3d 4c9f 513e 47f0 0ebe 1a65 a13d
00000250: a368 5bbe 346c 08be e2e5 e03d ae9d 1d3e
00000260: c990 2fbe 22f7 37be e5d1 70bd 52c3 4e3e
00000270: cd75 123d 53e9 d93d 2c89 04be e040 bebd
00000280: 8464 7f3e b691 88bd b081 563e f58a 83bd
00000290: 5dca 563d 0daf 863d 6c34 2c3e e7aa 19be
000002a0: 860e 3c3d 5259 1c3e 3a1c 343d ac07 3abc
000002b0: dcef 003b 8eb2 223c 90de be3d a161 183e
000002c0: cae8 223e fdb6 f4bd 607f 353e 0bc5 5abe
000002d0: e62d 70be db59 c33d 2440 363e 9fa7 4cbe
000002e0: 7da5 943b 98bf 1abe 72c9 2c3e bc15 cd3d
000002f0: b441 0ebe 3647 293e f4b0 b93d c814 3cbd
00000300: f6a3 4b3e d2e4 2dbe fe08 1dbe d5e0 62be
00000310: b18a 12be b79a 073d 2dd0 30be f3a3 20be
00000320: 22db 5abe 2b5a dc3d 76db 6cbe be56 37be
00000330: 8b30 2d3d 0350 81bd 6099 1f3e 49b2 d0bd
00000340: c6d1 a23d 4bd0 673c 9ca3 043e fbd2 dabb
00000350: 7622 c93d ae47 253e e1b0 e03d 1c38 55be
00000360: 4fee 2dbe 8096 ac3d 14c1 a13d 322d ddbd
00000370: 3d81 bb3d 4f57 c0bd f042 27be b982 253e
00000380: 1618 a4bd 09b1 2cbc d378 a93d 4d91 52bc
00000390: 527a 5ebd 6c85 113d 7d07 22bd 332b cebd
000003a0: 4886 193d 1d98 873d fa42 ff3d b7cc 5a3e
000003b0: bc34 fc3b e2f6 d53d 6943 2bbd ea01 883d
000003c0: 5333 263e 61ce 0abe 4110 5fbe c9d7 243e
000003d0: b99b 41be 5c73 bfbd 05f8 c1bd acac 33be
000003e0: ae29 3abe a188 f73d 3738 883d 3924 6f3d
000003f0: 3224 073e e916 1cbe 3437 0a3e a21c 02be
0.10795255 0.12887207 0.15630275 0.032172266 0.10212511 0.16519542 -0.00928965 -0.10777588
-0.08553816 0.004992348 -0.16789216 -0.028393148 0.00078478985 -0.031609733 0.15958808 0.10727656
0.2063624 0.13600701 -0.12836057 -0.0073634717 -0.17381285 0.14991322 0.06983244 -0.17389853
0.06201899 0.043678354 -0.18325642 -0.004969066 -0.015113872 -0.24688344 0.15589406 -0.22633517
-0.21330829 -0.19222416 -0.11038077 -0.18043208 -0.21524468 -0.018347144 0.19010627 0.09251565
-0.15799738 0.13601762 0.1451219 -0.27102774 -0.16474594 -0.08891536 0.12745322 -0.15404011
-0.12313636 0.03986898 0.067131914 0.18686503 0.19921723 0.1831131 -0.012170667 0.025721068
0.1955724 0.0016940107 -0.026270952 0.032381378 0.21676771 -0.25802135 -0.20423004 -0.13897105
-0.058733433 -0.07303516 -0.0927069 -0.22474135 -0.19617453 -0.16454214 0.1586555 -0.21108536
0.113395795 0.18164647 -0.058442585 0.008589737 -0.14002031 0.07990129 0.08289586 0.19342563
0.08696332 0.009734246 -0.12972721 0.107855864 -0.17731427 -0.20421675 -0.19660051 -0.14861098
0.03223111 0.07361112 -0.03555705 0.08138984 0.03797923 0.18737859 0.18413158 0.11268132
0.13099658 -0.16120379 -0.17932478 0.13342819 0.11636014 0.20258394 0.08220805 0.18423724
-0.16325334 -0.020156935 -0.08560761 -0.022256788 0.09040911 -0.042050853 -0.2133441 0.14104724
-0.20042923 0.16470096 -0.18227994 0.12272616 0.15358248 0.059680533 0.2031177 0.20302385
0.1622066 -0.2102255 -0.19786987 -0.05637188 0.032535076 0.06300598 -0.010450364 0.02964183
0.21241023 -0.15091567 -0.19564606 0.00075654575 -0.011206271 0.003588633 -0.17606652 0.044652995
0.094270505 -0.18880539 -0.0011139412 0.015234633 0.031746928 0.15582038 -0.021824822 0.071079016
0.061293595 0.20470923 -0.13958846 0.07880612 -0.21426634 -0.13322526 0.10981347 0.15392181
-0.17145075 -0.17965367 -0.05879392 0.20191696 0.035756875 0.10640206 -0.12942952 -0.09289718
0.24940687 -0.06668417 0.2094791 -0.06422988 0.052439082 0.06576357 0.16816872 -0.150066
0.045912288 0.15268448 0.04397223 -0.011354368 0.0019674217 0.009930266 0.09319794 0.14880992
0.15909114 -0.11948965 0.17724371 -0.21364228 -0.23455009 0.09538623 0.17797905 -0.19985817
0.0045363293 -0.1511215 0.1687372 0.10013911 -0.13892251 0.16531071 0.09066954 -0.045918256
0.19886765 -0.1698182 -0.15335461 -0.22156079 -0.14310719 0.033106532 -0.17266913 -0.15687542
-0.21372655 0.10759386 -0.23130593 -0.17904183 0.042282622 -0.06314089 0.15585852 -0.10190255
0.07950167 0.014148782 0.12953037 -0.006677983 0.09821026 0.16140625 0.10971237 -0.20822185
-0.16985439 0.08427143 0.07898155 -0.10799636 0.091555096 -0.09391653 -0.16334128 0.16163148
-0.080124065 -0.010540255 0.082749985 -0.012852025 -0.054315872 0.03552763 -0.039557923 -0.10066833
0.037481576 0.0662081 0.12463947 0.21367155 0.007696716 0.1044748 -0.041812334 0.0664099
0.16230516 -0.1355529 -0.21783544 0.1609794 -0.1890706 -0.09348175 -0.09471134 -0.17546338
-0.18179962 0.12086607 0.06651347 0.058384154 0.13197401 -0.15243115 0.13497621 -0.12706235

bias f4 [64]
00000000: 19d5 ecbc 8824 bb3a fa9d 8b3d 9a87 cb3c
00000010: 69dc 363c 42af e43c a3ff ca3c 02bc 0bb9
00000020: 82f1 8abd 34c4 263d 9ce4 4c3b 5d49 3f3d
00000030: 6c68 873d d8e2 70bc fd54 83bb f3f0 d43b
00000040: 0ad7 233c fc1d 863d acb7 f53c adf2 473d
00000050: 6fe7 343d e9df 82bc 0e9d 3c3d d5d9 28bd
00000060: 8eb6 543d 4b1f 47bd 10e2 4abc 6459 173d
00000070: 47b8 a2bc f873 5cbc 6968 273c 877b f73c
00000080: dc21 40bd 8497 0c3c b060 8ebb 31da 743b
00000090: 37ec 613d 43ce 5cbc f440 d7bc ac5c 01bd
000000a0: f896 3abc b8d9 0ebd 7e1e a63b a169 863d
000000b0: 0ad7 233c 17cc c73c b8f7 8f3c 207e ac3a
000000c0: 296c d1bc 9d4f be3c 8315 85bd 7d6c 613d
000000d0: 437a 393b 0a8a 593c c854 1fbb 466f 6e3b
000000e0: 05a3 9bba 2721 8dbc ea1a 5539 a0f7 643d
000000f0: 095f 493d e1cb 303d 0f9c c0bb 3525 203d
-0.028910207 0.0014277855 0.06817241 0.024844933 0.011160948 0.0279156 0.0247801 -0.00013326111
-0.06784345 0.040714458 0.0031264191 0.046700824 0.06611714 -0.014702521 -0.004007934 0.00649845
0.01 0.06548688 0.029994808 0.048815418 0.044166025 -0.01597591 0.046048217 -0.041223366
0.05193191 -0.048613828 -0.012382999 0.036950484 -0.01986326 -0.0134553835 0.010217764 0.03021027
-0.04690729 0.008581046 -0.004345022 0.0037361498 0.055156913 -0.013476911 -0.02627609 -0.03158252
-0.011388533 -0.0348756 0.005069553 0.06563116 0.01 0.02438931 0.017574176 0.0013160147
-0.02556427 0.023231322 -0.06498244 0.055035103 0.0028301633 0.01327754 -0.0024312008 0.0036382242
-0.0011874145 -0.017227722 0.00020323289 0.055900216 0.0491629 0.043163184 -0.0058779786 0.039097983

weight f4 [64, 64]
00000000: 7ad1 ed3d 1382 413e 1864 15bd a619 57be
00000010: 85c0 0b3e d60a 8f3d be3c 4abe bc29 3f3d
00000020: 57f2 083e 1f51 4ebe e006 81bd f877 c9bc
00000030: fed4 25be f6ec 18be 42bc aebd 8059 faba
00000040: 531f 283e 4067 02be 4025 38bb 5020 1fbd
00000050: 8e08 ec3d 4128 1fbe cb87 393e de88 a5bd
00000060: 4a7f 88bd 8923 3f3e 0d12 373e 8074 a5bd
00000070: 38ee b7bc 88a1 51be ea88 893d 0c68 51be
00000080: c095 5a3b 4801 5dbd b215 42be a68c d43d
00000090: 8cb1 9dbd f0bf 70bd 4ac2 5abe 822c a6bd
000000a0: 7222 e3bd c010 44bc 7492 7cbd 7d5e 0abe
000000b0: 2432 203d a1dc cebd 6387 4e3e 0ad1 15be
000000c0: a947 3bbe e0e7 b83b 50c0 44bd d313 303e
000000d0: cab5 a1bd af1c 3b3e dd97 083e ad08 563e
000000e0: 4ca8 65bd b43e 43bd 0145 ddbd ed8e 5dbe
000000f0: 4b91 24be 47e1 2abe 753f 57be 8c5b 53be
00000100: f519 a1bd 6ee5 c43d 17f5 62bd fc17 343e
00000110: e0a9 3c3d 394a 253e d170 48be 373a 393e
00000120: 13bd 243e 318c 56be cc83 2c3e 95ff 13be
00000130: d2b8 60bd ceac f7bd 9819 c9bc 5615 78bd
00000140: 5688 b73d 632e 493e fc57 03bb 6d76 2cbe
00000150: da1c e8bd 90bc 83bc 1d9a 1b3e 6037 063e
00000160: baa8 6bbe 2b37 283e 52c0 de3d 053f c1bc
00000170: 1061 3b3e 549d 05be 46f1 03be 0111 d3bb
00000180: 2aeb 813c 5121 683e 3e19 60bd 2461 523e
00000190: 9cd1 50bd 39bf 03bd dab1 3bbe 71e5 f5bd
000001a0: 02c7 623d 2edf df3d 6396 4cbc 20df 373b
000001b0: b2b7 1abe 7f58 093d 675d 1e3e c84b 04be
000001c0: b1d6 f0bd f24d 7cbd 811f eb3d 9d47 b83d
000001d0: e06b 55be c899 5c3d 385c 8c3d 336f c2bc
000001e0: 0569 19be b47a 9cbb 1fce 1b3e 3e2f 5e3d
000001f0: 424d 153e b780 52be f245 fcbd 925b 67bd
00000200: 27ae d93d b837 353b 9bf4 97bb f231 40be
00000210: f581 13be 0836 89bc 9d75 9abd 0512 40be
00000220: 7462 213e 3e65 1bba a8a4 163e f439 353e
00000230: f8d2 863d 2c48 583e 70fe fbbd f788 18be
00000240: 9c9d 7f3d 49d4 923d 6d22 c63d 3879 46be
00000250: 9808 2ebe 772d 12bd a921 d4bd ddc7 ce3d
00000260: 532a 553e 83db 163e 6fb4 c33d 3d3a debd
00000270: 83cf edbd e735 fb3d be28 003d e921 253e
00000280: 0271 5e3e 81fc 0e3e a8aa 1b3e 9bda cbbd
00000290: 1c73 463e eed4 21be c4ec d83d 6af7 3cbd
000002a0: b2e9 003e 851f 463e 89d1 2d3e 2a7a 7cbd
000002b0: 912c 41be 5c45 c53d 5f4d 353e 99d4 4fbe
000002c0: 05c2 663d 8b6a 24be 3d4f 0abe 1e6d b8bd
000002d0: a3e9 13be 4287 47be 560d 573c ac61 0b3e
000002e0: ec55 623e 0ef0 dabd 8975 4c3e f2bc a7bd
000002f0: 7d1a 2b3e 5b86 1a3e 35f3 1fbe 7092 eebc
00000300: 0c7a 2e3e fad1 3a3d 7bca 19be 0c4d 323e
00000310: 8120 3dbe 8d64 d53d e7e5 433d 0cec 393c
00000320: 256e 30bd a088 ccbd dea2 eebd 087e 64be
00000330: 7cf0 383e 5e20 623e 4c6a 373d d447 363c
00000340: 00e0 e537 f68e 9d3d d43b d73c 24f6 9c3d
00000350: e1c1 723c 69ff 813d 0dd4 babd a0e9 2d3e
00000360: 27da 06bd ed3c 803d a243 cdbc a154 863d
00000370: d0b7 f0bc cf13 3b3e f013 17bd 6eba 0e3e
00000380: 5b85 59bd baaf 023b 98c3 143e e368 3e3e
00000390: 011e 2fbe 05e4 45be dea0 133e 36c8 c4bd
000003a0: bc87 65be e86f 4d3c 75d3 9ebd b774 3cbe
000003b0: edd6 4d3e 5932 303e 4eb4 bdbd 96f8 33bd
000003c0: 29ae 03bc 88a3 48be bc11 ad3c 6130 db3c
000003d0: 6dce 6fbe 9e34 61bd a990 0cbd 1d3d 16be
000003e0: 8ca3 34be e789 dd3d baaf 39be 20ac 8b3d
000003f0: aaf2 53be b878 093e 9435 ef3c 3d16 69be
0.1161222 0.18897276 -0.03647241 -0.21005878 0.13647659 0.06984489 -0.19749734 0.04667066
0.13373695 -0.20148133 -0.063001394 -0.024593338 -0.16194531 -0.14934143 -0.08532001 -0.0019100159
0.16418199 -0.12734699 -0.0028098375 -0.038849175 0.11525069 -0.155427 0.18118207 -0.08082746
-0.066649035 0.186659 0.1787798 -0.08078861 -0.022452459 -0.20471776 0.067155674 -0.20449847
0.0033353418 -0.0539563 -0.18953589 0.10378389 -0.0769988 -0.058776796 -0.21363178 -0.08113958
-0.11090554 -0.011966884 -0.061663106 -0.13512607 0.039110318 -0.101006754 0.20168833 -0.14630523
-0.18289055 0.005642876 -0.048034966 0.17195062 -0.07896002 0.1827266 0.13339181 0.20901747
-0.056068704 -0.04766722 -0.10804177 -0.21636553 -0.1607105 -0.16687499 -0.210203 -0.20640391
-0.07866279 0.09614073 -0.055409517 0.17587274 0.046060443 0.16141595 -0.19574286 0.18088613
0.16087751 -0.20951916 0.16847152 -0.14452966 -0.05486376 -0.12093507 -0.024548337 -0.060567223
0.08961551 0.19646601 -0.0020041456 -0.16842051 -0.11333628 -0.016081125 0.15195508 0.13107061
-0.23013583 0.16427295 0.10876526 -0.02358962 0.18298745 -0.13048297 -0.12885007 -0.006441236
0.015859205 0.22668959 -0.054711573 0.20544869 -0.05098115 -0.032164786 -0.18329564 -0.12006653
0.05536557 0.1093124 -0.012487027 0.0028056577 -0.15109137 0.033531662 0.15465318 -0.12919533
-0.11759699 -0.061597772 0.11480618 0.08998034 -0.20841932 0.053857595 0.06853527 -0.023734665
-0.14981468 -0.0047753695 0.15215348 0.054244272 0.14580253 -0.20556913 -0.123180285 -0.056483813
0.1062892 0.002765162 -0.0046373135 -0.18769053 -0.14405043 -0.016749397 -0.07541964 -0.18756874
0.15760213 -0.0005927867 0.14711249 0.17697889 0.06583208 0.21121281 -0.123043895 -0.14895998
0.062406167 0.071693964 0.09674535 -0.19382179 -0.16995466 -0.03568789 -0.10357983 0.10096715
0.20816927 0.14732175 0.09555899 -0.10850952 -0.11611845 0.122661404 0.031288855 0.16126217
0.21722797 0.1396351 0.15201819 -0.09953805 0.19379848 -0.15803882 0.105920345 -0.04613439
0.12589148 0.19347961 0.16974463 -0.061639942 -0.18864657 0.0963237 0.17705296 -0.20295943
0.056337375 -0.16056268 -0.1350679 -0.090051875 -0.14444594 -0.1948519 0.013125738 0.13611478
0.22103089 -0.10690318 0.19966711 -0.08190335 0.16709323 0.15090315 -0.1562012 -0.029122561
0.17038745 0.045610406 -0.15018646 0.17412204 -0.1846943 0.10419569 0.047826674 0.011347782
-0.043073792 -0.09986997 -0.11652158 -0.22313702 0.18060488 0.2208266 0.044779107 0.011125524
2.7403235e-05 0.07693283 0.026273645 0.07664135 0.014816732 0.06347544 -0.09122477 0.16983652
-0.03292289 0.06261621 -0.025056664 0.065591104 -0.029384524 0.18269275 -0.03688425 0.13938305
-0.053105693 0.0019941167 0.14527738 0.18594699 -0.1710129 -0.19325264 0.14416835 -0.096085
-0.2241506 0.012538888 -0.07755176 -0.18403898 0.20101519 0.17206706 -0.09262906 -0.043938242
-0.0080371285 -0.19593632 0.02112662 0.026756467 -0.23418589 -0.05498182 -0.034317646 -0.1467175
-0.17640513 0.108173184 -0.1813344 0.068199396 -0.20698038 0.13424957 0.029200353 -0.2276239

bias f4 [64]
00000000: 0ad7 233c 0da1 a4bb 6b69 ecbb f3be a83c
00000010: bd0d 88bc 6095 c5ba 8570 59bb 3c31 39bc
00000020: 7739 73bc 6317 3bbd 3931 26bc 1445 8ebc
00000030: 737d 423d 9e0c 503b be6e 85bc 35f0 a1bb
00000040: c190 d5bb be05 1f3c eaef 163d 2f7a 203d
00000050: 62b5 cfbc a1ff 163d 908a d6bc 76c3 813d
00000060: 4335 ed3b 66dc 133d 7ecf 0cbc 21cd a9bc
00000070: a0f6 263d fab4 b43c fbce 423d 0ad7 233c
00000080: 456c 603d e7a1 453d 0ad7 233c 1e17 da3d
00000090: 0c08 693c 758b 27bb 0730 2c3d 53c8 d53a
000000a0: 9136 343d 9d41 d0bc 96c1 183d d1ce 3e3d
000000b0: 4aeb f13b c8f1 263c 6e1f ffbb d6b9 b3bc
000000c0: 0fd4 853b a507 163d dbaa 333d f35e 27bc
000000d0: 8383 053c d8ae 5ebc 6952 133b 1ef3 dd39
000000e0: 85b3 5fbc 13d3 80bc 233c e43c 0ef4 5d3b
000000f0: ee4b b83d a190 2e3d 3202 88bb 5e93 f43d
0.01 -0.0050240816 -0.0072147152 0.020598864 -0.016608113 -0.0015074424 -0.003317864 -0.011303242
-0.014845244 -0.0456766 -0.0101435715 -0.017366923 0.04748292 0.0031745802 -0.016288158 -0.004941965
-0.0065175 0.009705959 0.036849894 0.039179023 -0.025355045 0.03686488 -0.026189119 0.06336109
0.0072390153 0.03609886 -0.008594392 -0.020727696 0.040762544 0.022058953 0.047560673 0.01
0.054790754 0.048250105 0.01 0.106489405 0.01422311 -0.00255653 0.04203799 0.0016310312
0.04399735 -0.025421912 0.037293993 0.046583954 0.007382785 0.010189481 -0.007785729 -0.0219392
0.0040841172 0.036628384 0.043864112 -0.010215509 0.008149031 -0.013591491 0.002247954 0.0004233354
-0.013653641 -0.015725648 0.027860707 0.0033867392 0.089988574 0.042618398 -0.0041506523 0.119421706

weight f4 [1, 64]
00000000: 1881 58be 1601 693e 2b1d 53be 9e86 7c3e
00000010: b083 90bd 79d6 633e da32 5fbe 21f1 06be
00000020: c37f 81be 3210 e6bd 6714 ab3d 37f1 40bd
00000030: 595f 873e b511 8abe c4d6 0bbe fbe3 53be
00000040: 32e7 f6bd 6715 3e3d b0eb 873e 4013 6f3e
00000050: 7a96 66bd 0d9a 363e c474 b9bd bfda 8a3e
00000060: 1d1b c0bd 2f26 d63b 9cd8 f4bb f218 96bd
00000070: 9782 233c 0a66 84bc 7eb0 003e 7e37 283e
00000080: 3671 2e3e 6fc7 b73c 5cce a1bd 978d 303e
00000090: 59ef 6a3e 42b5 d83d 518a 2c3e 18bd 58be
000000a0: 862c 7e3e 48f4 e4bd 0ad5 c03d f9ad 853e
000000b0: f77b 0cbe 669c 7cbe 8574 683e 12d9 47be
000000c0: f80a 38be 17e2 053e 5fed 863e c958 ad3c
000000d0: 3387 d5bd 4813 8dbd 1048 c53c a4eb babd
000000e0: 0b9f b7bd 2386 16bd cd3b 843e c9b3 8b3e
000000f0: 035a ca3d b007 9a3e 3a80 88be 1446 9e3e
-0.21142995 0.2275432 -0.20616595 0.24660727 -0.070563674 0.22249784 -0.21796742 -0.13177921
-0.25292787 -0.11233558 0.08353501 -0.04710504 0.26439932 -0.26966634 -0.13656145 -0.20692436
-0.12055816 0.04640713 0.26547003 0.23347187 -0.05629585 0.17832203 -0.090554744 0.27120015
-0.093801714 0.0065353136 -0.007472111 -0.07328977 0.0099798655 -0.016161937 0.12567326 0.16427419
0.17035374 0.022433965 -0.07900688 0.17241512 0.22942866 0.10581447 0.16849639 -0.21165884
0.24821672 -0.111794055 0.09415634 0.26109293 -0.13719164 -0.24669036 0.22700699 -0.195164
-0.17972934 0.13074528 0.26352975 0.0211605 -0.10426178 -0.06888443 0.024082214 -0.09126976
-0.08965882 -0.036749016 0.25826874 0.27285603 0.098804496 0.3008399 -0.2666033 0.3091284
