models/1d-heat-pinn-2000epochs-lr0.001-adam-x51-t1000-alpha1.22e-3.pt (torch, 56631 bytes, 9 tensors)

weight f4 [64, 2]
00000000: e062 2e3e e0d0 ecbd ccac 21bd 2078 363e
00000010: 30d6 25bf 4939 633e ceb1 4b3f c932 4dbe
00000020: 3a32 d83e 8d8b 8d3c 6f11 63bd edf8 5e3e
00000030: 4de7 8dbd 569f 55be cc6a 38bf af7a 4e3c
00000040: 1821 e9bd 500e 6a3d 9611 f03e f1ec f63d
00000050: 8137 003e 2cee d73d 71ad 38bf c1dc 8b3b
00000060: 8f71 a23e 8b21 2d3e 1773 423e b8fc ecbd
00000070: 61ed 803e f439 cdbd 11b2 c7be 21ec f7b9
00000080: 9a28 193f f5f4 c9bd c1a3 c4be e9cc 4d3e
00000090: 91c0 273f c389 b8be 89f8 91be 62da a5bd
000000a0: cf2d 21be c73b 18be 6fc3 83ba dfeb 62be
000000b0: f3da 56be 59ad 723e d4ba 7e3e e5b7 afbe
000000c0: 22fa 963d 1b07 69be 1599 1b3f c102 0dbe
000000d0: ad68 9ebe c218 1e3e 4d8c 1abf 8b1d 923e
000000e0: 15f3 38bf 26a5 16be 41b4 813e 9966 b0bd
000000f0: 3481 debe f237 303a 57b0 f33e df2d f6ba
00000100: 58f1 483f 74e5 a93e 48ba 28be 1b0c 3d3e
00000110: 6680 38bf 820b 5bb8 f479 2cbe 1848 f43d
00000120: d52f febe 36b7 5fbe 54ff 92bb b55a f73d
00000130: 4810 5abc 174e d3bd 753c 33bf 2768 303e
00000140: 7000 0bbf 6d7e 833d f2b3 3abf ce72 6cbd
00000150: 454a 413f f738 0a3c cd11 2f3f e5e2 4d3a
00000160: e615 34bd 627e 81be b142 383d 57fa cebd
00000170: 6cb2 043f d1a8 b13e 82d8 a0bc ee10 bbbc
00000180: 5e9f 10bf aee3 49ba 855c 1c3e 6ea6 9bbe
00000190: 3441 bb3e 2ccc 4c3e 6d9c 1cbf 8316 4a3e
000001a0: e127 7b3e c276 1bbd 953f d13e 1f5d 21ba
000001b0: 4640 173f d8ba 10be 5f7e ef3e 6769 8d3a
000001c0: 3678 c83e cf1b 94be 81ba 0b3f c9d8 94be
000001d0: be4a 3cbe 1f45 f93d 4f19 c23e 40d6 d7b5
000001e0: 8ffd 01bf 2368 693e 0163 bdbe 2a09 e5bc
000001f0: 59e1 98bd f3d6 4cbc d88b 9abc 0d88 5bbe
0.17029905 -0.11563277 -0.039471433 0.17819262 -0.6477995 0.22189821 0.79568183 -0.20038904
0.4222582 0.017278457 -0.055436548 0.21774645 -0.06928883 -0.20861563 -0.7203796 0.012602492
-0.11383265 0.057142556 0.46888417 0.12056912 0.12521173 0.105434746 -0.7213965 0.0042682593
0.31727263 0.16907327 0.18989216 -0.1157164 0.25181106 -0.10020819 -0.3900304 -0.0004728744
0.5982758 -0.09861175 -0.38406184 0.20097698 0.6552821 -0.36042604 -0.2850993 -0.08098294
-0.15740131 -0.14866553 -0.0010052751 -0.2216029 -0.2098196 0.2369894 0.24875957 -0.34319988
0.07371928 -0.22756617 0.6078046 -0.13770582 -0.30939236 0.15439132 -0.6037033 0.28538164
-0.72245914 -0.14711437 0.25332835 -0.08613319 -0.4345795 0.00067222037 0.47595474 -0.0018781981
0.7849326 0.3318287 -0.1647731 0.18461649 -0.7207092 -5.2224386e-05 -0.16843396 0.11927813
-0.49645868 -0.21847233 -0.004486004 0.12077848 -0.013309546 -0.10317629 -0.70014125 0.17227231
-0.5429754 0.06420598 -0.72930825 -0.057726674 0.7550395 0.008436433 0.68386537 0.00078539393
-0.043966196 -0.25291735 0.044985477 -0.10106342 0.5183475 0.3469911 -0.019634489 -0.022835221
-0.56493175 -0.00077014684 0.15269668 -0.30400413 0.36573184 0.1999976 -0.61176187 0.1973515
0.24526931 -0.037955053 0.40868822 -0.0006155539 0.5908245 -0.14133775 0.467761 0.0010788859
0.39154214 -0.28927466 0.5458146 -0.29071644 -0.18387887 0.12171387 0.37909934 -1.6081103e-06
-0.50777525 0.22793631 -0.36989596 -0.027958471 -0.07464857 -0.01250242 -0.01886551 -0.21438618

bias f4 [64]
00000000: dee5 2bbf febc 253e 2435 13bf 8524 9c3e
00000010: 15fa 07bf 3dd9 cf3e c46b 113f b584 a5bd
00000020: 7df4 bebe d0af c4be 4280 85be d2c6 86be
00000030: 98fb 07bf fe0e 30be a497 0cbf 9e02 95bd
00000040: e6a2 fabe 5087 9c3e 21de 113f a8f0 1abf
00000050: d923 3cbe 097c 143c bde8 d4be 8e71 093f
00000060: 67d1 013f 1f82 18be 2fd3 20bf 2d26 f7be
00000070: dd66 4b3d 6b28 49be 25c6 d9be cfc8 00bf
00000080: 6603 273f 5771 203f 5362 bfbe 95ea 24bf
00000090: 265e aabc 32eb 2b3f 3378 563e 4440 89be
000000a0: 421c 11bf c518 9fbe 0ac7 97be cb54 1bbe
000000b0: 33b3 07bf ec54 8b3e 9248 f73e b470 933c
000000c0: c7b4 3ebf 8881 0cbe bb00 903e 3107 a9be
000000d0: 5c2c f33e bd50 613e 8183 0bbe c695 b1be
000000e0: d23a a53e 819c 9e3e 463a 1d3f be47 07bf
000000f0: 79b1 aabd ca0e 2d3f 9885 5b3e ef9b a43e
-0.67147624 0.16185376 -0.5750296 0.30496612 -0.5311597 0.40595427 0.5680506 -0.080819525
-0.37295905 -0.38415384 -0.26074415 -0.26323563 -0.53118277 -0.17193219 -0.54918885 -0.0727589
-0.48952407 0.30571985 0.56979567 -0.6052346 -0.1837305 0.009062775 -0.41583815 0.53688896
0.5071015 -0.14893387 -0.6282224 -0.48271313 0.049658645 -0.19644324 -0.42533985 -0.5030641
0.6523956 0.6267294 -0.37379703 -0.64420444 -0.020796847 0.67155755 0.2094429 -0.26806843
-0.56683743 -0.31073585 -0.29644042 -0.15169065 -0.5300781 0.27213228 0.48297554 0.017998077
-0.74494594 -0.13721287 0.28125557 -0.330133 0.4749478 0.22003455 -0.13624384 -0.3468458
0.3227144 0.30978778 0.61417043 -0.52843845 -0.083346315 0.6760069 0.2143768 0.32150218

weight f4 [64, 64]
00000000: 7608 9a3d 9d12 d83d b05b 56bd edf9 a73c
00000010: 20f4 e3bd 760c e33d 4592 b03d 3595 d53d
00000020: 2ced 0cbd a6af 413d 12ac b1bd 8fcd d6bc
00000030: 2c00 b43d b810 6c3d 7866 aebd 2502 17bd
00000040: 2967 3bbd fed7 2c3c 9ee7 c63d 16e9 13be
00000050: 4cc1 a73d 3324 093c c134 6a3d dd33 803d
00000060: bcb7 29bd 258c 14be 0cb5 f0bc 265b aabd
00000070: cdf7 a0bd 4014 6f3d 75ae 9dbd 3c01 c23d
00000080: 65ca b53d 3a72 8bbc 3e93 a63d 8241 903d
00000090: d48d a5ba 30b4 39bd 5ea5 813c 4add 143e
000000a0: 0909 5a3d 9569 da3d f3e8 f7bd 9852 233d
000000b0: 2b20 043d 013c 133d 756b 17bd 7054 e4bc
000000c0: 8ded fcba 18e8 5f3d 4667 783c d226 59bd
000000d0: f82c 253d 797c 5b3c e7f4 61bd b718 f73d
000000e0: f41e 54bd 00d0 b83d 2d08 4c3d d282 a23d
000000f0: 25a3 8fbd c8ed 13be f673 08be edb4 0cbe
00000100: 3036 5dbd 0a5e 903c d449 243c 20e8 e9bc
00000110: eb5f ecbd 4ff6 91bc 4a24 05bd 94f6 063e
00000120: f8ef 81bc 18b8 a2bd 1be1 d93a 227d dbbc
00000130: 662b 493d 5542 a9bd 75f4 a8bd 9a71 283e
00000140: cbcb 533d 90c7 843c cc15 92bc d04c 063d
00000150: b500 173e df16 afbd 1800 bc3d 20ca d03d
00000160: 6f2a ce3d cacc 78bd 357f 59bc 9faa 953c
00000170: c571 fd3d 59b4 1ebb 296a ba3d 4d38 793d
00000180: 7ba1 a33d d61a 24bd 2fb7 493e b84a 563d
00000190: 8ec2 35bd 71ef dabd 1249 083e 9b00 0cbd
000001a0: 1a8e 293d 4bc4 8f3d 0899 e43d a54e b03d
000001b0: 8347 843c 1aca be3d c6a0 f23d 189b 2cbd
000001c0: ef26 b73d 9060 973d 4a7c 0b3d 93ab f83c
000001d0: 7704 973d 7cc8 bb3d 555a ce3d 27ac 013e
000001e0: b73e 95bd a9d4 ff3c b652 f63c 6ed2 593e
000001f0: 119b e8bd 7c23 963d a9b3 53bd ceaf 16bc
00000200: d0b1 5cbd b762 4bbd daaf c5bd 7fed d9bd
00000210: 6562 dabd 5c02 01be 8b15 dcbc 7800 fabd
00000220: a0e0 8bbd f52e 25bd a6e1 1c3d 940e 023e
00000230: 5229 d3bd 901a c3bd 802d e43b b323 dc3d
00000240: f949 f03c 01bb 403d d61a 3c3c 701c 57bc
00000250: e4bb ce3d d484 a0bd c2d8 9ebd 6f05 8dbd
00000260: 7a28 b8bc 2cd1 513c 602d c73d 2007 93bd
00000270: 6f67 d2bc f028 593c 8c61 adbd 31e0 ca3d
00000280: 2000 8c3d 932d 68bd 0855 d33c babc eb3d
00000290: 782d dabc da27 48bd 06c8 34bd dbca 9cbc
000002a0: 3fff d5bd 4c7f cc3d 5afd 813d 8c89 b5bd
000002b0: 10fc 093d 03b1 0a3e 2307 753d c832 b73d
000002c0: b221 bc3d 0000 aeb7 cd2e 9ebd e8f7 f3bd
000002d0: 51f5 f73c 404e c7bd 9a94 29bc 50aa 8dbd
000002e0: 3625 b0bc fe02 e4bc 700c 243d 3ee9 d5bc
000002f0: d5d6 91bd 65f0 593d 68cc 9bbd bcdd adbd
00000300: 70ae 88bd 3068 be3d e20f 22bd 49b2 1d3e
00000310: ed81 d8bd 49b2 eb3c e9d0 15bd 6d9d 05bd
00000320: 10d8 9bbd f27f 02bd 4516 d43c 873f 2dbe
00000330: f58d bf3d 3f27 a93c d4f5 443d 7476 6f3a
00000340: 0a4d a2bc 9ce0 97bd fc54 cc3d 78d8 e23c
00000350: e41f a4bd 32a8 2b3d 6e99 1f3d 1860 1dbd
00000360: fee0 c1bc 9e04 d33c 0d8b 9dbd c64c 96bd
00000370: 8aee 07be d7c1 8b3d d451 37bd ee8e 9e3d
00000380: 0605 0b3e 1a83 f53c 09b7 123d 782a f03d
00000390: 34e7 b93c 4c29 0cbd 0934 8e3d ad5f 6bbd
000003a0: d6ee 53bd afd7 49be 6295 7cbd 7a4a dc3d
000003b0: 90a7 bf3b 7de0 3c3d e57c b73d 7b7f 043d
000003c0: 6451 f0bd 1133 863d 832f 4abd 3443 d3bd
000003d0: 07c7 9f3d 7181 963d 407b 523d 41c5 113e
000003e0: d52a 043e 3557 84bd 86ea 2c3c 449d 8f3d
000003f0: 6057 acbd 0159 a7be 1365 c8bc 5d02 82bd
0.07521145 0.10550425 -0.052333534 0.020504916 -0.111305475 0.11086361 0.08621649 0.104288496
-0.034405872 0.047286652 -0.08675398 -0.026221065 0.08789095 0.05763313 -0.08515638 -0.03686728
-0.045752678 0.010549543 0.09712146 -0.14444384 0.08191165 0.008370447 0.057179216 0.06259892
-0.04143499 -0.14506586 -0.029383205 -0.083181664 -0.07859764 0.05836892 -0.07699291 0.09472892
0.08876494 -0.01702224 0.08133553 0.070437446 -0.0012630769 -0.045337856 0.015825924 0.1453754
0.053231273 0.106646694 -0.121049784 0.03987369 0.03225724 0.035945896 -0.036967713 -0.027872294
-0.001929687 0.0546647 0.015161341 -0.053015538 0.04032609 0.013396376 -0.055165198 0.12065261
-0.05178733 0.09024048 0.049812485 0.07935108 -0.07013539 -0.14446175 -0.13325486 -0.13740893
-0.054006755 0.017622966 0.010027368 -0.028553069 -0.115417324 -0.017817644 -0.03250531 0.1318
-0.015861496 -0.07945269 0.0016622873 -0.026793066 0.049113654 -0.08264605 -0.082497515 0.16449586
0.051708024 0.01620844 -0.01783266 0.032788098 0.14746363 -0.08549284 0.091797054 0.10194802
0.10066687 -0.060742177 -0.013274957 0.018269835 0.123752154 -0.0024216382 0.0910228 0.06084471
0.07989784 -0.040064655 0.19698785 0.05231735 -0.044374995 -0.10690201 0.13309124 -0.034180265
0.041395284 0.07019862 0.11162001 0.0860875 0.01614738 0.093158916 0.11847071 -0.042140096
0.08942973 0.07391465 0.03405408 0.03035525 0.073738985 0.09169099 0.10075823 0.12663327
-0.072873525 0.031229334 0.030068737 0.21271679 -0.113577016 0.07330987 -0.05168501 -0.009197189
-0.053880513 -0.04965469 -0.09652682 -0.10641002 -0.106632985 -0.12598556 -0.026865741 -0.12207121
-0.06829953 -0.040327985 0.038301133 0.12700874 -0.103106156 -0.09526551 0.006963432 0.107489966
0.029332148 0.04705334 0.011481008 -0.013129339 0.10094431 -0.07837835 -0.07756187 -0.06885802
-0.022480238 0.012806218 0.097254515 -0.07179093 -0.025684087 0.013254389 -0.08465871 0.09906042
0.06835961 -0.056684088 0.025797382 0.11510606 -0.02663301 -0.04886613 -0.04413607 -0.019139698
-0.10449075 0.099852175 0.06347151 -0.088641256 0.03368765 0.13544087 0.05982126 0.08945233
0.09186114 -2.0742416e-05 -0.0772377 -0.11912519 0.030268343 -0.09731722 -0.010350371 -0.0691725
-0.021502119 -0.027833458 0.040050924 -0.026112195 -0.07121054 0.053207774 -0.07607347 -0.08489558
-0.06673896 0.09297216 -0.03956593 0.15400042 -0.105716564 0.028771536 -0.036576185 -0.032620836
-0.0760957 -0.0318603 0.025889525 -0.16918765 0.09353248 0.020648597 0.048086002 0.00091347774
-0.019812126 -0.07415888 0.09977147 0.027691111 -0.08013895 0.04190845 0.03896468 -0.03842172
-0.023666855 0.025759038 -0.076925375 -0.07338862 -0.13274589 0.068240814 -0.04475577 0.077421054
0.13576135 0.02996974 0.035819087 0.1172685 0.022693254 -0.03421907 0.06943519 -0.05746429
-0.051741444 -0.19711183 -0.0616659 0.10756393 0.0058488324 0.046112526 0.089593686 0.032348137
-0.11734274 0.06552709 -0.049361717 -0.10315552 0.07801633 0.07348908 0.05138707 0.14235403
0.12906964 -0.06461946 0.010553962 0.07012418 -0.08415103 -0.32685092 -0.024462258 -0.06348107

bias f4 [64]
00000000: 2ee2 09be 29c0 c0bd 326d e3bd b77a 11be
00000010: 8019 26be 92ad 433b 6ccc 29bc 1fa6 d4bd
00000020: 4d21 ab3c ebd9 ba3c ce76 363d a8ba d93c
00000030: 881d ce39 1274 933d d13c 1fbe 4cee 713d
00000040: 83f3 843d 41a1 19be 5183 99bd 5e15 c6bd
00000050: cb16 e93c f2d1 2e3e c197 b7bd 7c6e 33bd
00000060: d132 883c 6285 63bc 6d82 5e3d d350 ed3b
00000070: de07 a1bc 7994 9ebd b476 08bd 019e 19bd
00000080: 2dc8 3c3c 02fe 083d e71f d83d e7e1 ffbd
00000090: f615 67bd c720 943d c01a 053e 9b6d d03d
000000a0: 086d 7c3d 4762 803d 7a8f a53d 6374 4e3d
000000b0: ae53 c13d 55d7 af3d ee42 883d 0c55 863d
000000c0: 4bc2 083d 08bf a0bd 0de3 dc3d 3850 a63c
000000d0: 866c f4bd c258 353c 2e45 d53c be50 d1bc
000000e0: 2fb5 10be 25a7 2bbe 0bcd 81bc ce10 c2bd
000000f0: b40c c8bd ec03 a8bc c1c5 a8bd cf54 cc3d
-0.13465187 -0.09411652 -0.11104812 -0.14206968 -0.16220665 0.0029858095 -0.010363679 -0.103832476
0.020889902 0.02280899 0.044546895 0.026578262 0.00039313384 0.07199873 -0.15550543 0.05906515
0.06491759 -0.1500292 -0.0749575 -0.09672044 0.028453251 0.17072275 -0.08964492 -0.043806538
0.016625794 -0.013886781 0.054323602 0.007242301 -0.019657072 -0.07743163 -0.03331633 -0.0375042
0.011522335 0.033445366 0.1055296 -0.12494259 -0.056417428 0.07232814 0.12998486 0.101771556
0.061627418 0.06268745 0.080840066 0.050403964 0.09439789 0.08585993 0.06653391 0.0655919
0.033388417 -0.07848936 0.10785494 0.020301923 -0.11934762 0.011068525 0.026033964 -0.025551196
-0.14131616 -0.1676298 -0.015844842 -0.094758615 -0.09768048 -0.020509683 -0.082408436 0.099771135

weight f4 [64, 64]
00000000: 06b5 8e3a da4d a13d 73e2 d03b 04cf 793d
00000010: 474a 913d e3de a4bd af3a 003e 0174 ee3d
00000020: 0025 0a3d c900 e83b bfa7 11bd ae1e d0bd
00000030: 4efd 0abd 98d2 e73c bc3b 88bd acd5 c8bd
00000040: e3f6 74bb cde9 093d 4730 a5bd 536a d33b
00000050: 16d9 dfbd 90f1 d23b b796 c73d 663b ce3d
00000060: 7320 043c b44a 2fbd 6045 e13d 795e af3b
00000070: b43f cfbc 4a94 60bd 6e84 90bd e94b d9ba
00000080: 7a29 803d bb69 aebd eca1 20bd cbf1 b33d
00000090: 1aca ba3a a046 393d aa74 73bd 32c1 ad3d
000000a0: eee3 ee3d 75b6 fcbd 60c0 ee3b 2d99 a13b
000000b0: 3aa8 973c ea9a ea3c dd4e 7bbd 58cd 8a3d
000000c0: 4294 f9bd 4467 24bd b079 c23b fb4b fabc
000000d0: 9c44 86bd be09 ae3d 8607 7dbd cb61 003b
000000e0: 3f1c c13d a27e 88bc fa18 a3bd 6814 a5bc
000000f0: 905d 293c a2ef f1ba 555b 0fbd 48eb c0bd
00000100: e1db acbd 3fd6 46bd 68d2 cd3d 592c 443d
00000110: 3f99 973d a49e 78bc 7ec7 81bc c78e e03d
00000120: 0239 f0bd 2a5a 47bd aa68 d3bd 0ee6 a03d
00000130: 6e6a 36bd 3ec4 e63d c161 d13d bb16 013e
00000140: d2de 95bd 0b36 b2bc 411c a73b 476d 9f3c
00000150: b47d 273d 8a54 e5bd 19eb c1bb 5017 833d
00000160: 373b e23d 76aa 05bd 60d5 b1bd cef7 77bd
00000170: 9e1c e3bd df43 283e a6a5 95bd 6e4d 21bd
00000180: b9ee 06be 77aa 12bb 7a59 873d defe 3fbe
00000190: 3fc5 0c3d ae49 55bd 0a68 3a3d e3e7 43bd
000001a0: de06 eb3d 0939 92bd c2c8 1fbd d886 043e
000001b0: 1fa7 e83d 58d1 2a3d 5850 0e3e b7de 1cbd
000001c0: 41fc 79bb f66f e73d ddb6 193d fae7 c5bd
000001d0: 22be de3d 3e0e 8b3d 2788 babd 9ebe 25bc
000001e0: 3c01 cdbd e082 023d 0d43 543d cd07 983d
000001f0: 7a12 d2bd ad45 0bbe bf2b 973d 1716 b0bd
00000200: dce5 123e c99f 8dbd 8e5a d33d 7ed6 193d
00000210: b084 a1bb 82e0 eabb 4512 723c 9c0e 2c3d
00000220: 629e f43d 5364 a4bd 127a 91bc 90f4 7b3d
00000230: a020 f7bd 8d06 f93d dbba 91bd 9741 233d
00000240: da81 353d 7d77 153e a6c2 4dbc c0ba b5bd
00000250: 860d e0bd 2dc8 713a 9c8a 853c 0433 04bd
00000260: 2a4e ffba 208c 81bd b868 13bd d4f0 8f3d
00000270: 796b 6abd 7e3d 583d 2f10 c83d 2375 c83d
00000280: 0388 7bbb 7edd 20bc b676 0b3c 8404 9b3d
00000290: 9bb4 e73d 4e06 07be ee13 b2bd 492c 06be
000002a0: 488d d5bc 41d8 953d 8b4c 18be e97d fd3d
000002b0: 616b d1bc b2ec c8bd b01e a8bd f492 99bd
000002c0: 39af b6bd 2b98 183d e21e aebd db7f 06be
000002d0: c01e e23d b832 093d 382b 86bc dfe5 c13c
000002e0: 9611 f9bd ff76 bebd 9874 fabc c426 21bd
000002f0: cce8 74bd 47ef b6bc a2b9 49bd 1d08 a5bd
00000300: d025 0a3d 8a31 d4bd d05f aa3c cad8 b9bd
00000310: c0a1 73bd 1819 903c 50d3 7bbc 28a5 da3d
00000320: 6698 803d 2281 dc3d 20ae 39bd 34d1 5bbd
00000330: 4434 a8bd 4038 f73c 1eb0 b6bd 4aaa b93d
00000340: fee9 c13d fe4e f93d b03d 73bc 6217 c8bd
00000350: c4f3 7dbd 583d 533d 1844 8abc 300b 09bc
00000360: b07a 9abc c096 e6bd eaf4 8d3d 8e9e c7bd
00000370: 34cf 6abd 8828 9bbd 3615 dbbd 485f de3c
00000380: b013 32bd 54b2 52bd cebc e5bd 261c ac3d
00000390: c0a7 babd 782b e5bc 70ea c3bc c075 a33d
000003a0: 4068 5b3d e870 38bd 38a2 403d f80b e5bd
000003b0: 12b9 833d 80f7 d23a 80ee 5d3d f81d 8fbd
000003c0: 020b c6bd e2a2 c9bd a004 e63b 0053 f63d
000003d0: 10bd debd fc96 ebbd c0cb 6d3d 603e f53c
000003e0: de3a 843d 082c 2d3d d0d8 743c 945b 8abd
000003f0: 7a7d da3d 8095 043d ae05 9cbd 60bd 93bb
0.001088769 0.07876177 0.006374651 0.06098844 0.070942454 -0.08050325 0.12522386 0.1164322
0.033726692 0.0070801717 -0.035560366 -0.10162102 -0.033932976 0.028298661 -0.066520184 -0.0980638
-0.0037378601 0.033670235 -0.08065849 0.006451884 -0.10930078 0.006437488 0.097455435 0.10069923
0.008064377 -0.04279585 0.1099956 0.005351838 -0.02529893 -0.05482892 -0.07056509 -0.0016578409
0.06257911 -0.0851626 -0.03921692 0.08786353 0.0014250905 0.04523337 -0.05943743 0.08484115
0.11664568 -0.123394884 0.0072861165 0.00493159 0.018512834 0.028638322 -0.061354507 0.067774475
-0.12186481 -0.040137544 0.0059349164 -0.030553808 -0.06556055 0.08497952 -0.061774753 0.001958954
0.09429216 -0.016661946 -0.07963748 -0.020151332 0.010337248 -0.0018458257 -0.03499921 -0.09419876
-0.08440376 -0.048544165 0.100498974 0.047893856 0.07402276 -0.015174542 -0.015842196 0.109647326
-0.117296234 -0.04866997 -0.103226975 0.078563794 -0.044535093 0.11267899 0.10223723 0.12606327
-0.0731789 -0.021754285 0.0050998037 0.019461287 0.040891364 -0.11197765 -0.0059179184 0.06400931
0.110464506 -0.032633267 -0.08683276 -0.06053906 -0.11089443 0.16432141 -0.073069856 -0.039380483
-0.13177003 -0.0022379437 0.06608863 -0.18749568 0.034367796 -0.05207222 0.045509376 -0.047828566
0.11475919 -0.07139785 -0.039009817 0.12942064 0.11360001 0.041703552 0.13897836 -0.038298335
-0.003814474 0.11300652 0.037527908 -0.09663387 0.10876109 0.06789826 -0.09108 -0.010116247
-0.10010001 0.031863093 0.051821757 0.07423363 -0.102574304 -0.13600798 0.07381391 -0.08597963
0.14345497 -0.06915242 0.10320006 0.03755807 -0.0049291477 -0.0071678767 0.014774864 0.04200612
0.119442716 -0.08026948 -0.017758403 0.06151253 -0.120667696 0.121594526 -0.07115718 0.039857473
0.04431329 0.14596362 -0.012558615 -0.0887351 -0.109400794 0.0009223249 0.016301446 -0.032275215
-0.0019478251 -0.06325555 -0.03598854 0.07028356 -0.0572314 0.05279302 0.09768712 0.09787967
-0.003838063 -0.009818433 0.00851219 0.07569221 0.11313745 -0.13185999 -0.086952075 -0.13102831
-0.026068345 0.07316638 -0.14872949 0.12377531 -0.025563898 -0.09810771 -0.08208978 -0.07498732
-0.0892014 0.037254494 -0.08501984 -0.1313471 0.11041021 0.033495635 -0.01637803 0.023669181
-0.121615574 -0.093000405 -0.030573174 -0.03934361 -0.059792325 -0.022330893 -0.0492493 -0.08058188
0.033727467 -0.10361011 0.02079764 -0.09074552 -0.05948043 0.01759009 -0.015370205 0.10676032
0.06279068 0.10766818 -0.045332074 -0.05366631 -0.08213094 0.03017819 -0.089203104 0.09065683
0.094684586 0.1217327 -0.01484625 -0.09770085 -0.06200005 0.051572174 -0.016878173 -0.008364484
-0.01885733 -0.11259222 0.06931479 -0.09747039 -0.05732651 -0.0757609 -0.10697405 0.027145043
-0.043475807 -0.0514396 -0.11217652 0.084038064 -0.09114027 -0.02797483 -0.0239155 0.079814434
0.053566217 -0.04502955 0.047029704 -0.111839235 0.06431784 0.0016095489 0.05418253 -0.06988138
-0.09670068 -0.098455206 0.0070195943 0.1202755 -0.108759046 -0.11503407 0.05805564 0.02993697
0.064565405 0.04227832 0.01494427 -0.067557484 0.10668464 0.032369137 -0.07618271 -0.0045086592

bias f4 [64]
00000000: 070f 0abe a683 b0bd bc91 38bd ea21 bdbd
00000010: 3334 14bd 2f13 03be 55db adbd 42c9 77bc
00000020: 5f69 16bd 0d8a ddbd b093 d0bc 54ec 0b3e
00000030: aa98 8fbd 5521 33bc 3d69 f5bc b375 863d
00000040: bf94 25be d75a cb3c 0be9 c7bc 8a1f f1bd
00000050: 9d5e d0bc e26d ebbd 7cbd 2d3d 1680 afbd
00000060: d283 963d 11d9 a2bc 5b55 67bd 8f7f 9a3d
00000070: 8fff 423e 1d0f 9c3d 28f6 c13c 6ab8 2ebd
00000080: c73c 90bc 16d0 a93d c538 7dbc 9832 173d
00000090: 1290 10bd 44c6 07be a873 17bd 40f9 98bd
000000a0: e210 dbbd ac46 2fbd 0721 9dbd d61e edbd
000000b0: 9158 5cbd 3f07 4a3e cdd3 fdbc dfc2 503c
000000c0: 173c 2c3e 946f 9dbd 47de ed3d 1f30 74bd
000000d0: eb1c e6bd b227 f5bc 906e 48bd 60e5 9c3d
000000e0: 2299 043d 48c9 e9bd c912 34bd 2522 2c3e
000000f0: 453f 1ebd c71b 083d f4e9 ae3b 4747 d5bd
-0.13482295 -0.0861886 -0.045060858 -0.09234984 -0.036182594 -0.12800287 -0.084891 -0.015123667
-0.036721583 -0.10817347 -0.025461048 0.13664371 -0.0701154 -0.01093324 -0.029957408 0.06565418
-0.16170023 0.02482359 -0.024403116 -0.11773594 -0.02543574 -0.11495568 0.042417035 -0.08569352
0.073493615 -0.019878896 -0.056477886 0.07543861 0.190428 0.0762007 0.023676947 -0.04265634
-0.017607106 0.08291642 -0.015455429 0.036913484 -0.035293646 -0.13259226 -0.036975533 -0.07469416
-0.106965795 -0.042792007 -0.07672315 -0.11578147 -0.0537954 0.19729327 -0.030984784 0.012741773
0.16819797 -0.076872975 0.11614662 -0.059616204 -0.112359844 -0.029926155 -0.048933566 0.07660937
0.0323726 -0.114153445 -0.043963227 0.168099 -0.038634557 0.033229616 0.005337948 -0.10413986

weight f4 [64, 64]
00000000: 7cd1 d53c 7493 aebc b94f 11bd 6c42 6fbd
00000010: 1340 9abd 942a ffbb 758b b1bc 29f2 04be
00000020: e1ab b1bd 704a bfbd 70d1 4ebb 6c6c fc3c
00000030: 8605 5cbd 506a 59bd b9e7 df3c db32 36bb
00000040: d52e d9bc bdc8 b13d 4df1 00be 2992 23be
00000050: ec14 0abe cc44 0d3d be89 c03d e917 5d3d
00000060: 90c2 dabc 4c8f 2e3d a747 033d e959 d7bc
00000070: 95f4 343c 9fa6 663d a85e d1bd ef40 b83d
00000080: ae94 2cbe 2996 f0bc 6653 a33c 6bad 14bb
00000090: 6a2d 82bd da15 c23d 75a4 553d 297f f6bc
000000a0: ff91 96bd db92 973d f332 14bc 00cb 58ba
000000b0: 14d2 ecba c3ab a23c 5b05 2dbd eeab b3bd
000000c0: 9ed1 163e 7092 7e3d 1497 453c 5170 7c3d
000000d0: b779 033e 61ff 963d 59b2 5c3d 5326 f63d
000000e0: 6cd8 b1bd 3038 8f3d b87e d7bd 5c8c fb3d
000000f0: 0bcd 9abd b068 a7bc 3bf4 f7bd 6de8 853d
00000100: 4626 aa3d b6d9 9a3b 79f6 cf3d e8d0 f9bc
00000110: 6c24 a23d fbf2 bf3d b561 543b 8a37 cfbd
00000120: 305e 0fbd 59de f93d 0ca6 2a3d 007a 86bd
00000130: 7a5a 3cbd a2f9 843b 44bf c43c ddf8 afbd
00000140: ad67 1a3d 9127 1d3e 51a5 c53d d42f 223e
00000150: da97 d13c b084 eabd 3069 98bd 87b3 bc3c
00000160: c9ee d8bd e3fc ad3b 6884 aa3c 48f0 663d
00000170: 8758 86bc 025a 9b3d 3a82 ebbd 3fe3 a33d
00000180: eda3 9fbb b70b fb3d 7859 5dbd 8b49 d73b
00000190: 9494 cd3d ca15 c039 f867 313d c087 dcbd
000001a0: 8442 0f3b 012e 733d 1f95 3b3d 787d 76bd
000001b0: 63c7 483d 2be5 663d 0bc5 be3d 5ec4 043c
000001c0: c84c 4abe fc68 e2bd 667c e3bd a05f 5cbd
000001d0: c79f 32bc 1cc2 063e df9b 003e 32fb f83c
000001e0: b8d3 aebb 70c7 1b3e d454 6a3d 67d1 e2bd
000001f0: 1555 cc3c ba2a 49ba 8d74 2cbd 90e8 aabd
00000200: 8c61 89bd 6043 413c 5248 e3bd 560d d63d
00000210: d487 953d 2083 d73b 440e 5bbd a445 03bd
00000220: 1066 24bc 6878 07bd daeb 813d f6fa e5bd
00000230: 6c02 afbd 063d bdbd f08e 3b3d 1060 9cbd
00000240: 8015 05bc c04b 3e3d be5b bd3d 106e ad3c
00000250: 005c 5e3b e644 ecbd a02d 893d c2cd f13d
00000260: 0022 b3ba 007b 413c ac95 e83d 00d1 53ba
00000270: 2000 bd3d 50af 0a3c 88fd 38bd fc8f ddbd
00000280: 5cce b03d c8dc d4bc 04a4 1b3d e049 cb3c
00000290: b4d2 4f3d 26a1 d7bd 108b 2dbc 567e b63d
000002a0: c4e8 20bd c4fd c63d c0e0 f73c c068 1dbd
000002b0: 5444 bc3d 5a5e 883d 5435 34bd 0442 813d
000002c0: bc43 42bd 1844 ea3d f8cd 693d 0cfb 5e3d
000002d0: e853 dbbc 70cb 5f3d 388b 06bd 503f ccbd
000002e0: 58f0 fabd 1e12 8fbd 083f 103d 341f 9ebd
000002f0: 66c5 f43d 96c6 bbbd fcff 42bd 6016 bebc
00000300: cd3e 28bd c810 57bd 2cf6 bd3d ec49 81bd
00000310: ab4d be3d a456 ce3d 70e2 8f3d 1920 a8bd
00000320: 769e d13d 1306 d8bd d013 993c 1d8c 60bd
00000330: 049b 1ebd b863 c3bd 4022 c93b b46a f2bd
00000340: e8c7 9f3d 96de cfbd f32a 3fbd be5d 943d
00000350: a0ed 243d 402e 4dbd 044b bbbd 9e01 b0bd
00000360: c966 4cbb 6ede c6bd 6ca4 8abd dbe9 b3ba
00000370: 6c5d bdbd b6aa 243d 7ca2 a1bd 312d d3bd
00000380: 8e1a 9a3d 434c 633d f4c7 dc3d 58ac 13bd
00000390: a8f3 bfbd 00d7 02bb a03a 7c3c df1e 17bd
000003a0: c0b2 233d 5061 3d3d 0008 d0bc 70da d03d
000003b0: b7aa 03bd 9cf8 09be 6f88 e73d 1f99 fabd
000003c0: dc91 efbc 18bb 96bc 565c dd3d b5af e23d
000003d0: 3610 b8bd 9d57 bf3d 9ec7 aebd 8ef1 98bd
000003e0: 3bcc 2e3d 80a5 b2bc d0b5 ad3d 9864 54bd
000003f0: 4071 203b be10 ed3d 506c 99bc fcc3 bf3d
0.026100866 -0.021310546 -0.03547642 -0.058412954 -0.075317524 -0.007787058 -0.021672944 -0.12983002
-0.086753614 -0.0934037 -0.003155794 0.030813418 -0.053716205 -0.053079903 0.027332174 -0.0027801308
-0.026511589 0.08680866 -0.12592049 -0.15973724 -0.13484544 0.034489438 0.09401272 0.05397788
-0.026704103 0.042617127 0.032050755 -0.02628799 0.011044641 0.056311246 -0.10223132 0.0899676
-0.16853592 -0.029368477 0.019937228 -0.0022686373 -0.06356318 0.09476824 0.05215879 -0.030089932
-0.07352065 0.07401057 -0.00904535 -0.00082699955 -0.0018067979 0.019857293 -0.042241435 -0.08773027
0.147284 0.062151372 0.012059946 0.06163055 0.128394 0.073729284 0.053881023 0.120190285
-0.08683857 0.06993139 -0.105222166 0.12282631 -0.0755864 -0.020435661 -0.1210713 0.06538472
0.08308081 0.00472566 0.10154433 -0.030495122 0.07917103 0.09372517 0.003240687 -0.10118015
-0.035001934 0.122006126 0.04166226 -0.065662384 -0.045984723 0.004058079 0.024016984 -0.08592389
0.03769653 0.15347125 0.09650672 0.15838557 0.025585104 -0.114510894 -0.07441938 0.023034824
-0.1059242 0.0053096875 0.02081509 0.056381494 -0.016399635 0.07585527 -0.11499448 0.08002328
-0.0048718364 0.12258094 -0.054040402 0.0065700463 0.10038105 0.00036637328 0.043312043 -0.1076808
0.0021859715 0.059370045 0.04579651 -0.06017825 0.049018275 0.056370895 0.09314927 0.008103458
-0.19755852 -0.110551804 -0.111077115 -0.053802133 -0.010902352 0.13159984 0.1255946 0.030393217
-0.0053352974 0.15212798 0.057209805 -0.110750966 0.024942914 -0.0007673908 -0.04210334 -0.08345139
-0.06708059 0.011795849 -0.110977784 0.104517624 0.07301298 0.0065769106 -0.0534804 -0.032048836
-0.010034099 -0.033073813 0.06343813 -0.112295076 -0.08545384 -0.09240155 0.045790613 -0.0763551
-0.008122802 0.04645896 0.09246014 0.021170646 0.0033929348 -0.11536579 0.066981554 0.11806823
-0.0013666749 0.011809111 0.11356673 -0.00080801547 0.092285395 0.008464649 -0.04516366 -0.108184785
0.0863311 -0.025984183 0.037998214 0.0248155 0.05073805 -0.105287835 -0.010592237 0.089108154
-0.039284483 0.09716371 0.030258536 -0.038429976 0.0919272 0.06658621 -0.04399617 0.063114196
-0.047427878 0.11438769 0.057081193 0.054438636 -0.026773408 0.054637372 -0.032847613 -0.099730134
-0.12252873 -0.069858775 0.03521636 -0.07720795 0.11951713 -0.09168737 -0.047607407 -0.023204029
-0.041075516 -0.05250624 0.09275469 -0.063129276 0.09292158 0.10075119 0.070256114 -0.08209247
0.10235302 -0.105480336 0.018686205 -0.054821122 -0.038722053 -0.09540504 0.006138116 -0.11836758
0.07801801 -0.10149877 -0.04667182 0.072444424 0.04026568 -0.050092936 -0.091451675 -0.085940585
-0.0031189194 -0.09710394 -0.06769642 -0.001372631 -0.092463344 0.040201865 -0.078923196 -0.10311354
0.07524596 0.05549265 0.107803255 -0.03605303 -0.093726456 -0.0019964576 0.015394837 -0.036894675
0.03996539 0.046235383 -0.02539444 0.10197914 -0.03214523 -0.13473743 0.113053195 -0.12236237
-0.029244356 -0.01839976 0.10808627 0.1106867 -0.08987467 0.09342883 -0.08534168 -0.07467948
0.042675238 -0.021807432 0.084819436 -0.051853746 0.0024481565 0.11575459 -0.018728405 0.09363553

bias f4 [64]
00000000: a84c 003e 0808 5a3d ce79 cdbd 1fda a8bd
00000010: fd93 1c3d 8cdf 333d 8151 063e 3558 273d
00000020: 9485 ce3d 611c 07be 802d 713d d44a 9dbd
00000030: d108 5c3c def7 3abc db9e 323e f96f 98bd
00000040: 8597 e43c 0ba4 fbbd 7ff6 c23c f98d 4e3c
00000050: 7899 f0bd d30c a73d 6811 6a3d 3390 523d
00000060: 641b 53bc bc58 233e 91d1 2c3e 7cf3 b7bd
00000070: 2f31 1fbe 05c2 07bd 00ae 4cbd 1152 3c3e
00000080: 709d bdbd 111e 3cbd 78c2 0bbe 5c38 b23c
00000090: c4dd 8b3d 741a 8fbd 91fb 44bd 22ee 47bd
000000a0: e927 afbd c036 db3d 506b dabc 7a78 bc3d
000000b0: 0d3b 9ebd c879 a73c db11 83bd ca5d 44bc
000000c0: 6f58 bf3c 2ba3 333e 333a 223e 7d34 373e
000000d0: 405d cdbd 3168 a63d 43c6 2b3e b65c f2bd
000000e0: db9b c03d bb16 f1ba 7f56 3b3c d3db 3d3a
000000f0: 8ef1 5cbd 0449 03bd 0ba0 093e acf6 84bd
0.12529242 0.053230315 -0.10032998 -0.08244728 0.03822707 0.043914363 0.13117029 0.040855605
0.10084072 -0.1319442 0.058881283 -0.07680288 0.013429836 -0.011411635 0.17443411 -0.07443232
0.027904281 -0.12287148 0.02379918 0.012607091 -0.11748022 0.08156743 0.057145506 0.05140705
-0.012884948 0.15951818 0.16876818 -0.08981988 -0.15546106 -0.033144016 -0.049970627 0.18390681
-0.092585444 -0.04592711 -0.13648403 0.02175539 0.06829408 -0.069874674 -0.048091475 -0.048811086
-0.08552534 0.10703802 -0.026662499 0.092026666 -0.07726107 0.020443812 -0.0639989 -0.011985252
0.023357598 0.17542712 0.15842514 0.17891116 -0.10027552 0.08125342 0.1677485 -0.118340895
0.09404727 -0.0018393615 0.0114341965 0.0007242534 -0.053941302 -0.032052055 0.13439958 -0.064923614

weight f4 [1, 64]
00000000: f1f4 c13d 6f7c 28bd b2f2 8f3d bea8 97bd
00000010: 2d0f a8bd 08d3 75bd 5e72 d13d 654b e6bd
00000020: e127 7d3d ddb4 87bc 3336 a6bd 4ed9 c43d
00000030: fb44 543d 4308 2a3c 9f61 2a3e e476 eebb
00000040: 3717 79bd fa77 afbd 630c 9dbd 53bb 00bc
00000050: 28fe 913d b1bc d3bc 72da 01bc da4f 643d
00000060: 771d 78bd e8fd eb3d f233 4e3e 64bb 2b3d
00000070: f32c b0bd f093 aabd 38d4 9bbd 13d7 903e
00000080: c5d8 213d 65a3 8abd b392 693d b510 99bd
00000090: cb9e 58bd 3897 743d 6e48 fd3b a21e d23d
000000a0: aab4 7f3c f618 cb3d de53 e83d 5097 cabc
000000b0: 9504 1bbe 33ff a1bd c5d9 a73d 1901 193d
000000c0: 2c89 adbc f5e8 1d3e 66e7 9b3e 0060 463e
000000d0: 70ce 033c 7aab b23d 04dd 073e 700e 083b
000000e0: beb9 113e ba0c e6bd ee0d 503c 7982 93bd
000000f0: 392e 48bd 2954 77bd 9bcb 043e b0d3 25bd
0.09470547 -0.041134294 0.07028712 -0.07405232 -0.082060196 -0.06001571 0.10226892 -0.11244849
0.06180561 -0.016565735 -0.081158064 0.0961176 0.051823597 0.010377946 0.16638802 -0.0072773565
-0.060813155 -0.085678056 -0.07668378 -0.007857162 0.071285546 -0.025846811 -0.007925617 0.055740215
-0.060574975 0.11523038 0.20137003 0.041926757 -0.086023234 -0.08328998 -0.07608837 0.2828909
0.03951337 -0.06769446 0.05702467 -0.0747389 -0.05288581 0.059714526 0.0077295816 0.10259749
0.0156070385 0.0991687 0.113441214 -0.024730355 -0.15138467 -0.079100035 0.08195833 0.037354562
-0.021183573 0.15420897 0.3044998 0.19372559 0.008044824 0.08724113 0.13267905 0.0020760559
0.14231011 -0.11232896 0.012698634 -0.0720262 -0.048872206 -0.060382996 0.12968294 -0.040485084
