models/1d-heat-pinn-20epochs-lr0.001-adam-x51-t1000-alpha1.22e-3.pt (torch, 56607 bytes, 9 tensors)

weight f4 [64, 2]
000000 bc 49 cf bd da b7 43 be 19 bb 8e be 76 8e 79 be
       -0.101214856 -0.19113103 -0.2787712 -0.24370751
000010 05 ae 43 3e e0 9b 83 3c a5 44 5a be aa dd 8e 3d
       0.19109352 0.016065538 -0.21315248 0.06975873
000020 01 1b 51 3e 4a 4d 5d be 52 33 34 be 18 56 21 be
       0.20420457 -0.21611515 -0.17597702 -0.15755498
000030 27 87 7c 3e 3f 21 61 3e 36 ac 3a 3c 47 da be bd
       0.24660932 0.21985339 0.011393597 -0.09318977
000040 c2 9c 3b be 77 d7 9b bd ed ce 25 bd 75 7b 8c be
       -0.18321517 -0.07609456 -0.040480543 -0.2743794
000050 c3 c5 81 3e d8 b6 34 be de 78 08 bd 40 af 4e 3e
       0.25346193 -0.17647874 -0.033318393 0.2018404
000060 69 9b 0a be d1 e1 ad 3c e6 c6 84 3d ea a8 24 be
       -0.13535847 0.021225842 0.06483249 -0.1608006
000070 51 b3 61 be 8f 3d 08 3d 24 41 86 3c 82 35 14 3d
       -0.2204106 0.03326183 0.016388483 0.03618384
000080 fa 78 8d 3d 81 d6 f1 3d e6 03 74 3e 1f aa 71 be
       0.0690784 0.118084915 0.23829612 -0.23600052
000090 2a ee fe bd 7d 12 7e 3e 2d 2b 6d be b5 88 2e bc
       -0.1244777 0.2481174 -0.23161002 -0.010652711
0000a0 e6 07 85 3e 00 ae 1c 3e 90 f5 28 3d e6 87 9d bc
       0.2598259 0.1530075 0.04124981 -0.01922984
0000b0 30 c5 71 3e 3a 61 29 bd 04 9f 76 be fc b9 90 bd
       0.23610377 -0.041352488 -0.24084097 -0.07066724
0000c0 02 0b ca 3c ce 32 dc bd 09 c0 b2 3d 03 74 cf 3d
       0.024663452 -0.10751878 0.08728034 0.10129549
0000d0 83 58 72 3e 84 31 a1 3d a3 c2 5c be ee 8c 8c 3e
       0.23666577 0.078707725 -0.21558623 0.2745127
0000e0 b5 e1 55 3e db 6c 16 be 57 7e b0 3d 12 b6 84 3c
       0.20886882 -0.14689963 0.086178474 0.0162001
0000f0 6f 70 92 bd d8 01 e7 3b 32 a6 b3 bd 27 36 89 3e
       -0.07150351 0.0070497803 -0.087719336 0.26799127
000100 73 06 b4 3b 52 a9 38 3e d9 d0 2e be e0 df 95 be
       0.005493933 0.1803334 -0.17071857 -0.29272366
000110 2c 3e 90 3e 05 f2 1e be d2 10 c1 bd a9 ad 55 3e
       0.28172433 -0.1552201 -0.09427036 0.20867027
000120 d9 5d 0c 3e c2 97 72 be 25 f3 c7 3c 46 89 94 be
       0.13707675 -0.23690704 0.024407933 -0.2901098
000130 35 f9 e3 3d ea 97 76 be 7d 4b 40 3d e5 a7 7b 3d
       0.11131517 -0.24081388 0.04694699 0.061439414
000140 20 7f 88 3e 22 0f ab 3c 9f 93 81 3e 07 66 1b be
       0.2665949 0.02088124 0.25307938 -0.15175639
000150 27 45 20 be 4d ae 13 be 3a 67 4b 3e 7c 59 5d be
       -0.1565138 -0.14421959 0.19863597 -0.21616167
000160 3b 8f ea ba 31 ee 31 3e 34 f5 50 bd 5a ab 90 be
       -0.0017895469 0.17376019 -0.051015094 -0.2825573
000170 c2 f4 7b 3e 6c 4f c1 3c a4 6b 6f be 9b 60 8b 3e
       0.24605086 0.023597442 -0.23380905 0.27222142
000180 c4 29 4d 3d 46 00 5a 3d ae 34 44 3e de 8c c6 bd
       0.05008866 0.053222917 0.1916072 -0.09694837
000190 5e d2 27 3e 07 0f 97 3e aa 26 1f 3e d7 a7 57 bd
       0.16388842 0.29503652 0.15542093 -0.0526503
0001a0 4d cc 40 be 51 a2 72 3e 2f 8c c3 3d fd bb 02 3e
       -0.18827935 0.23694731 0.09548222 0.12767024
0001b0 74 03 d3 3d 89 9c 8b 3d 5c 11 05 bd 6c 6f b3 bd
       0.10303393 0.06816966 -0.03248726 -0.087614864
0001c0 ea d1 5a 3e a7 fd d2 3d 0d 7b 42 3e 27 7b 13 3e
       0.21369138 0.103022866 0.18992253 0.14402448
0001d0 fe df db 3d 72 2c d2 bc 95 6f ab 3d 23 7f 97 be
       0.107360825 -0.025655959 0.08370892 -0.29589185
0001e0 4d f0 83 bd 7c 38 48 be e4 6f 5c 3d 38 e4 46 3e
       -0.06442318 -0.19552797 0.053817645 0.19422996
0001f0 3f a6 bd bd 21 73 dc bd 55 44 18 3d 1f df 3a be
       -0.092602246 -0.107641466 0.03717454 -0.18249176

bias f4 [64]
000000 84 4a a3 3c e1 9c aa 3c ad 03 9e 3b e0 5b 5a 3c
       0.019932993 0.020826759 0.0048222155 0.013327569
000010 96 04 60 39 db 9b a0 3c 74 30 0a 3b 7a f5 9b 3c
       0.00021364013 0.019605568 0.002108601 0.01903795
000020 08 22 b2 3a 50 ab 76 3c 5d 86 9a 3c 69 14 36 3b
       0.0013590464 0.0150554925 0.018862898 0.0027783161
000030 82 5b 37 3c 16 5d 41 3c f2 49 5f ba e5 a0 e7 3b
       0.011191251 0.011801979 -0.00085177936 0.0070687407
000040 45 6f f4 3b 54 ae a8 3c ac 90 d1 3b 5a f9 8c ba
       0.0074595534 0.020590939 0.00639542 -0.0010755465
000050 c5 f9 bb 3b 0a 09 b4 3c 2a 98 98 bb c9 a3 3c 3c
       0.005736562 0.021976966 -0.0046568112 0.011513659
000060 33 07 50 3a ce 7f 0b 3c 08 a8 25 3c e2 ee 91 3c
       0.0007935643 0.008514358 0.010110863 0.017814104
000070 10 1f c2 3c ba ae 6e 3c 56 51 05 3c 62 f0 2f 3c
       0.023696452 0.014568025 0.008137068 0.010738464
000080 44 d4 e3 3b ed 94 4c 3c 0e 2a db 39 52 85 b1 3b
       0.0069527943 0.012486679 0.00041802268 0.0054175043
000090 25 70 c5 39 18 83 8d 3c 00 74 14 39 2b d1 50 3b
       0.00037658322 0.017274424 0.00014157593 0.0031862955
0000a0 c3 fe be 3b bd 3a a2 3c ed 8a a4 3c e6 23 b7 b9
       0.00582871 0.0198034 0.020085776 -0.00034931226
0000b0 a0 1d 6e 3b 67 26 86 3c 4c dc 49 3b da ce 08 3c
       0.0036333576 0.016375734 0.0030801473 0.0083500985
0000c0 1a 49 99 ba 2a c8 ac 3c 7c 5a 56 3c ee aa b8 3c
       -0.001169476 0.02109154 0.013083097 0.022542443
0000d0 92 9d 3d ba d0 ad 45 3c d7 af 21 3c a8 b7 c3 bb
       -0.00072332576 0.012065366 0.009868584 -0.0059728213
0000e0 49 06 ed 3c 08 d0 e5 3c 62 db ab 3c 03 a6 7e 3c
       0.028933661 0.028053299 0.020978633 0.01554251
0000f0 6c df 75 3c 2a 4a 14 3c d9 12 93 3c 9c 71 9b 39
       0.015006881 0.009050885 0.017953323 0.0002964855

weight f4 [64, 64]
000000 7b 16 06 be 0b 8b 1d 3d ba 3c a4 3d 27 93 87 bd
       -0.13094513 0.03846268 0.08019395 -0.06619864
000010 a8 28 17 3d 6d d7 31 bd 52 3e 5e be 8b f7 20 be
       0.036904007 -0.043418337 -0.21703461 -0.1571943
000020 6f 6e ae 3d a5 1b 94 bd 13 b8 99 bd 06 c4 71 bd
       0.08517157 -0.07231835 -0.075058125 -0.059024833
000030 e7 39 ff bd 0f 7d b0 bd f7 3a 0e be 27 bf cf 3d
       -0.12462216 -0.08617603 -0.13889681 0.10143881
000040 11 da 12 3e ae 72 cb bd f0 e5 c8 3b e7 60 2e 3d
       0.14340998 -0.09933983 0.0061309263 0.042572882
000050 41 96 33 be 89 10 0c bc 3b a1 2e be ed 6a 1b bd
       -0.17537786 -0.008548864 -0.17053692 -0.03794377
000060 d0 b6 1c bd bd d1 ef bd 6e 30 a7 bd f0 27 da bd
       -0.03826028 -0.11709926 -0.08163534 -0.10652149
000070 ef 34 c6 3d 16 e1 15 be 35 9e 46 3e 60 8d d3 3d
       0.09678065 -0.14636645 0.19396289 0.103296995
000080 19 6a 47 be f5 4c 0a bc a8 02 ac bd 4d 11 4b bc
       -0.19474067 -0.0084412 -0.08398944 -0.012394262
000090 58 7a 1b 3e 2a d1 54 3d cf 49 4f 3e 2f 54 40 bb
       0.15183389 0.051957287 0.20243 -0.0029347052
0000a0 83 57 1a 3d 5c 89 3e be a2 c0 75 ba 1e 49 f2 3d
       0.037681114 -0.18607086 -0.0009374713 0.11830352
0000b0 5e 6e f6 bd 4a 37 64 bd 07 17 04 3e bd 4f 34 3e
       -0.120327696 -0.05571679 0.12899409 0.17608543
0000c0 2f 64 bd 3d 86 b4 af bb 00 73 c9 3b 4e a3 30 3e
       0.09247624 -0.0053620962 0.0061477423 0.17249796
0000d0 c2 f2 f7 3c f6 76 04 3e 1d 91 e6 bd ee 20 b1 3d
       0.030267123 0.12936005 -0.11258147 0.08648859
0000e0 34 c0 1a be a0 7c 91 3c 63 9b 9a 3d ea 67 39 3e
       -0.15112382 0.017759621 0.07549169 0.18106046
0000f0 83 6c 96 bb eb 59 48 3e 00 69 9a bd c2 91 bc bc
       -0.0045905723 0.19565551 -0.075395584 -0.023018721
000100 69 36 4f 3e 42 bc 30 bd 67 e1 e4 3d 63 b8 0d be
       0.202356 -0.043148287 0.111758046 -0.13839869
000110 74 d0 f1 bd cf f6 51 be a7 8f 8e 3d a8 84 5a be
       -0.118073374 -0.20504306 0.06960993 -0.21339667
000120 5d be 48 3e bf 55 1b 3e 99 4c ac bd 77 1e 45 3c
       0.19603868 0.15169428 -0.08413047 0.012031189
000130 eb a1 8c bd 5d 9d 37 3e 26 39 d3 3d cd 6c 18 3e
       -0.06866821 0.17931123 0.103136346 0.14885254
000140 00 2c 84 3d 97 86 a1 bc 6f 6e 27 be 08 17 f6 3d
       0.06453705 -0.019717498 -0.16350721 0.120161116
000150 70 c0 0b be 66 23 b2 3d c5 16 34 3e d4 c5 85 3d
       -0.13647628 0.08698158 0.17586811 0.06531873
000160 8c a7 cd 3c e6 0d 6b 3c 19 3b da bd 3b 4d 04 3e
       0.025104307 0.014346575 -0.10655803 0.12920086
000170 27 b7 12 3e 85 7c 43 be c6 bd 01 be 6a 4b 32 be
       0.1432768 -0.19090469 -0.12670049 -0.1741158
000180 09 d1 93 bd 8d 84 e8 bd 3b 37 40 3c 88 14 26 be
       -0.07217605 -0.11353407 0.011731918 -0.1621877
000190 9f 7b 11 3e 26 de b8 bd 2c 29 6e 3d 36 58 19 bd
       0.14207314 -0.090267465 0.058144733 -0.03743764
0001a0 c5 c2 53 be e2 17 a9 bd d5 fe f7 bd 1f 5f 14 3e
       -0.20679767 -0.082565084 -0.12109152 0.14489411
0001b0 61 27 f8 bd 8a 2a 02 bd fc 34 3c be 8b 51 22 be
       -0.12116886 -0.03177885 -0.18379587 -0.15851419
0001c0 38 e1 0f 3e 8b c6 85 bd 66 38 b0 bd ff de ef 3d
       0.14050758 -0.0653201 -0.08604507 0.11712455
0001d0 32 a0 06 3e f8 a1 7f 3d 08 d8 42 3e 70 63 06 3e
       0.13147047 0.062410325 0.19027722 0.1312387
0001e0 c6 f6 9a 3d 8e 53 2c 3d 28 27 99 bd 50 8b e7 bd
       0.075665995 0.04207187 -0.074781716 -0.113058686
0001f0 f9 da f3 3d 27 99 2d 3d d9 e1 73 3d e2 8b 7f bd
       0.11907 0.042382386 0.059541557 -0.062389262
000200 b3 57 25 3e 1b f4 21 be 30 9b 26 be 8f b8 0a 3e
       0.16146736 -0.15815775 -0.16270137 0.13546966
000210 3b c3 9c bd fe d3 d5 3d 30 98 e7 39 ca f9 09 3e
       -0.07654425 0.10440825 0.00044173142 0.13474193
000220 b9 60 6d 3c 6b 0f 0e bd dd 49 04 be c2 80 22 be
       0.0144883925 -0.034682672 -0.12918802 -0.1586943
000230 ce 11 f8 3d b1 3f 68 3e 26 33 01 be 05 db d2 3d
       0.12112771 0.22680546 -0.12617168 0.10295681
000240 e0 7c c4 3c e2 ac 5e 3e 27 3a cf bd d5 f9 d9 3d
       0.023985326 0.21745637 -0.101185136 0.10643355
000250 f4 0c fd bd 0f 03 8b bd 67 dd 76 bd 5b 1e d8 bd
       -0.12355986 -0.06787693 -0.06026974 -0.10552665
000260 84 8c 25 3e 2c b6 1d be bb e8 f3 3d f0 42 fd 3d
       0.16166884 -0.15401524 0.11909624 0.12366283
000270 85 fe 00 be e7 5c aa bd 47 58 52 bd cc 63 1f 3e
       -0.12597091 -0.08318501 -0.05135372 0.15565413
000280 8c 95 3d be 12 98 22 3e 08 5a d9 3d 52 71 95 bd
       -0.18514079 0.15878323 0.10612875 -0.07297005
000290 35 c7 0b 3d e3 8f 73 bc b6 5e 19 3e b0 68 33 3e
       0.034125526 -0.014865848 0.14977536 0.17520404
0002a0 88 0d 18 3d 41 04 6a 3e 49 20 f3 3c e5 0b 8b 3d
       0.03712228 0.22853185 0.02967848 0.06789378
0002b0 28 85 17 be 10 33 2c be 4f 42 02 be da 09 7a bd
       -0.14796889 -0.16816354 -0.12720607 -0.06104455
0002c0 d1 80 84 bc 65 42 0d 3e f2 8c 57 3e 58 05 2b bd
       -0.016174706 0.13794859 0.2104986 -0.041753143
0002d0 9e 50 33 3c 4d 8e e9 3d aa 04 4b 3e d5 4a 42 be
       0.010944514 0.11404095 0.19825998 -0.18973859
0002e0 9d 28 51 3e bd 36 21 3e a0 c7 7e bd b2 bd 4b 3e
       0.20425649 0.15743537 -0.062202096 0.19896582
0002f0 63 d6 56 bc 5e 9d 9a bd 36 1a 01 be 34 f6 3a be
       -0.013112637 -0.07549547 -0.12607655 -0.18257982
000300 ef a4 17 be 53 22 4e 3e 0c db 40 be 30 01 5d be
       -0.14809011 0.20130281 -0.1883356 -0.21582484
000310 5e a0 80 3d 12 49 19 be 94 71 6a 3d 84 f3 43 bc
       0.062805876 -0.1496928 0.057237223 -0.011959914
000320 a0 74 9b bc 8c e9 29 3d 77 31 f8 3c 74 20 38 be
       -0.01897651 0.041482493 0.030297024 -0.1798113
000330 07 5d c0 3d 14 f3 1e 3d 19 0a 14 bd bc 6f 58 3d
       0.093927436 0.038806036 -0.036142442 0.052840933
000340 d7 c1 23 3d 4b 0a 47 3e 42 cd 3b 3e 10 91 9e bd
       0.039979782 0.1943752 0.18340018 -0.07742512
000350 1d f4 c2 bb 40 76 37 3e e7 a2 91 3d d5 ec 3f 3e
       -0.0059495107 0.17916203 0.07111149 0.18742688
000360 ca 5a 26 3e e5 99 98 3d 4f 9c 0c be 39 10 de bc
       0.16245571 0.07451228 -0.13731502 -0.027107345
000370 03 23 c9 3c 61 48 9c 3c 32 04 ca bd 9f 90 10 3b
       0.024552828 0.019077482 -0.098640814 0.0022058857
000380 cf 4a 4f 3e cd ae 08 bd a5 b5 41 be 4b 5f 09 be
       0.20243381 -0.033369828 -0.18916948 -0.13415258
000390 e3 61 ab 3d 22 60 76 3d 91 ce 07 bd 3b 5a ca bc
       0.0836828 0.060150273 -0.03315598 -0.024701228
0003a0 94 8c c2 3d c8 f6 34 be 6f 8a 0a be 12 af fc 3d
       0.094994694 -0.17672265 -0.1352937 0.123380795
0003b0 0b 77 36 3d 4d 4b 5c 3d 5c e1 c9 bd f5 31 4a 3e
       0.044547122 0.05378275 -0.09857437 0.1974562
0003c0 52 fe ca bd 74 25 2f 3e 68 e8 a8 3d d0 a0 94 3d
       -0.09911789 0.17104131 0.08247453 0.07257235
0003d0 d5 69 8f bd 17 6b 16 be eb 64 a5 3c ce 14 af 3b
       -0.07002608 -0.14689289 0.020189723 0.0053430563
0003e0 60 c6 a2 3b ca 92 4a 3e 04 2e c5 3d b3 08 12 be
       0.004967496 0.19782558 0.096279174 -0.14261131
0003f0 6b 89 47 3e 7e 70 48 3e d9 b8 d7 3d 07 d7 a5 bd
       0.19486015 0.19574162 0.10533304 -0.08097654

bias f4 [64]
000000 4e 8f 41 3c 1f 0f 2a bb c6 25 aa 3c 50 3f 95 3c
       0.011813952 -0.0025948954 0.020769965 0.018218666
000010 1c 70 fa 3b 69 3b aa 3c a7 c7 3d 3b 94 0b 92 3c
       0.007642759 0.020780282 0.0028958113 0.017827787
000020 6a 65 2d 3c e4 25 b1 3b 6e 88 af 3c fc 84 04 3b
       0.010583261 0.0054061282 0.02142736 0.0020220866
000030 16 f8 c3 3c 76 77 d6 39 f9 2d 63 3c 91 70 c3 3a
       0.023922008 0.00040906266 0.013865941 0.0014910867
000040 b6 1a 75 3a 98 e4 81 3c 98 49 9a 3c 26 b4 d7 3b
       0.00093499885 0.015856072 0.01883392 0.0065827547
000050 02 52 90 3c bf 72 60 3c 63 2a 97 3a fd a3 aa 3c
       0.01761723 0.013699233 0.0011533018 0.020830149
000060 4f d9 33 ba 44 21 b5 3b db 37 91 3c 88 6b b0 3c
       -0.00068606896 0.005527647 0.01772683 0.02153565
000070 2c 10 8f 3a 46 4a 4d 3a 95 8c 9c 3c b1 78 be 3c
       0.0010914854 0.0007831197 0.019110003 0.02325091
000080 0e 38 a2 3c 54 e4 0d 3b 5e 71 31 3c b8 7c f9 3a
       0.01980212 0.0021650987 0.0108302515 0.0019034361
000090 42 7c 55 3c 6b 18 f7 3b 20 fc 7d 3c 07 70 0f 3c
       0.013030114 0.0075407526 0.015502006 0.008754737
0000a0 f8 d7 8a 3c ec 75 a5 ba 84 76 29 bb 85 b6 a5 3c
       0.016948685 -0.0012623644 -0.0025857994 0.020228634
0000b0 9c 06 9f 3c c7 e2 a8 3c 19 ff 92 bb 57 c1 cb 3b
       0.019412331 0.020615948 -0.0044859764 0.0062181163
0000c0 1e 6c 8e 3c f7 e0 e3 3c 87 b4 68 3c 74 7d 79 ba
       0.017385539 0.027817233 0.014203197 -0.000951729
0000d0 0a d7 23 3c 0a d7 23 3c aa 47 12 bb 2f 6d 81 3c
       0.01 0.01 -0.0022320547 0.015799133
0000e0 77 ed 87 3c eb 6b 86 3c 04 2b 9f 3c 80 3f 44 3c
       0.016592724 0.016408881 0.019429691 0.01197803
0000f0 bb cd 19 3c e8 e2 15 3c b0 f7 03 3c ae 40 05 3c
       0.009387429 0.009148337 0.008054659 0.008133097

weight f4 [64, 64]
000000 63 58 8c bd 72 03 31 be 1c dc a4 bb 02 51 0b bd
       -0.06852796 -0.1728647 -0.005031122 -0.034012802
000010 27 5e 17 be 2b cd 8a bd 2e fe ac bd 90 25 8b 3d
       -0.1478201 -0.06777414 -0.084469184 0.06794274
000020 6f ca d3 3c 65 95 49 3e f8 ea 3e 3d c2 9f 1d be
       0.025853364 0.19685896 0.046610802 -0.15392974
000030 5f 71 b2 bc 1f cd 5a be 20 de 4c be 42 ab 2d 3e
       -0.021782575 -0.2136731 -0.20006609 0.16959861
000040 3d 71 3f bd d2 13 25 3e 58 98 81 3d e8 10 65 be
       -0.04673885 0.16120842 0.063278854 -0.2236973
000050 4d cb 13 3e 81 ad 10 be 5d 9e 03 3e 7b 30 4f 3e
       0.14433022 -0.14128686 0.1285338 0.20233338
000060 56 02 c9 3d a5 6f 30 bb 98 b7 62 bb 09 60 c6 3d
       0.09814899 -0.0026922014 -0.0034594294 0.09686286
000070 1b 8f 5a 3e 4d b5 48 be 42 d9 e7 3c d6 5e ef 3d
       0.21343653 -0.19600411 0.028301839 0.116880104
000080 2d 45 31 3e dc 84 2b be bc af 4f be e3 65 44 be
       0.17311545 -0.167499 -0.20281881 -0.19179492
000090 f2 62 60 3d a0 d0 3c 3e e1 02 1b be 50 1d 9c bd
       0.05478186 0.18438959 -0.15137817 -0.076227784
0000a0 a0 7b 92 bd 4d b4 03 be 38 43 cd 3d 1b f1 26 be
       -0.07152486 -0.12861748 0.100225866 -0.16302912
0000b0 b8 b8 3a be 98 ca 18 bd 0e 6e 10 bd 19 6c d4 3d
       -0.18234527 -0.037302583 -0.035261206 0.103721805
0000c0 a6 1f da bc b4 49 a1 bd 63 c3 03 3e 83 cb 51 be
       -0.02662642 -0.07875386 0.12867503 -0.2048779
0000d0 7a 98 05 be de de d2 bd 40 58 97 3c e7 cd ae bd
       -0.13046446 -0.10296415 0.018474698 -0.085353665
0000e0 c4 4a 08 3e 76 c7 4e be 9b 61 7d 3b ea 19 17 3d
       0.13309771 -0.20193276 0.0038662914 0.036889948
0000f0 cd 23 ed 3d fd 64 58 be e5 6c 59 be b0 39 42 3e
       0.11579094 -0.21132274 -0.21232946 0.18967319
000100 dc ce 0d be ae bc b2 bd d5 72 11 be d0 22 32 be
       -0.13848442 -0.08727394 -0.14203961 -0.17396092
000110 c0 7d 55 3e 38 cf 12 3d a6 fa 53 3e 48 c3 9a bc
       0.20848751 0.03584215 0.20701084 -0.018891945
000120 d0 73 6e bc 12 12 ec 3c 8e 90 35 be 01 6b c7 3d
       -0.014553979 0.02881721 -0.17730924 0.09737206
000130 5d 1b 4e be d3 46 99 3d e5 63 48 be 26 06 8d 3d
       -0.20127626 0.07484212 -0.19569357 0.06885938
000140 68 65 05 be cd 20 09 be 2b 1d 9c 3d fe 23 6a 3d
       -0.13026965 -0.13391419 0.07622751 0.05716323
000150 03 71 e1 bd 92 8b 39 3e 80 f2 98 3d d3 47 03 3e
       -0.110078834 0.18119648 0.07468128 0.12820368
000160 e7 7c 6d bd 80 af 24 3d d6 81 50 3e 28 f7 89 bd
       -0.057980444 0.040206432 0.20362028 -0.067365944
000170 24 f0 38 bd b3 4b 38 3e f5 bc 47 be 25 b9 ab 3d
       -0.04515089 0.17997627 -0.19505675 0.08384923
000180 5d 0a e9 bc 4c 65 0d be b1 df 00 3d d4 1c 44 bd
       -0.028447324 -0.13808173 0.03146333 -0.047879055
000190 8e 25 b9 3c ff 2c 11 3e 73 92 d3 bc 90 59 31 3c
       0.022600915 0.14177321 -0.025826668 0.010824576
0001a0 12 a0 5e bd 90 a6 8f 39 59 e7 41 be 2d 81 29 bc
       -0.054351874 0.00027399184 -0.18935908 -0.010345739
0001b0 e3 1e ad 3d 25 86 31 3c f3 0a 16 3e 5e d1 8a bd
       0.08453157 0.010835205 0.14652614 -0.06778215
0001c0 3c 76 1c 3e 84 eb 0b 3d a4 e8 46 be 84 b7 54 be
       0.15279478 0.034160152 -0.19424683 -0.2077313
0001d0 ca 24 0e be f4 55 06 3d 86 ad 2c 3e ef 7b fe bd
       -0.13881221 0.032796815 0.16863069 -0.12425982
0001e0 ba 7e 2c 3e 53 e1 06 3e b0 2e 75 bd 5c 7c e4 3b
       0.16845217 0.13171892 -0.059858978 0.0069728326
0001f0 00 62 80 3d ea 82 70 bd 99 c2 66 bd 2a 8d 9e 3d
       0.06268692 -0.0587186 -0.056337927 0.07741769
000200 81 0e a9 3d ee c7 05 be 09 d9 c1 3d 15 eb 27 3e
       0.082547195 -0.13064548 0.09465224 0.1639827
000210 a7 7f 2a be a5 31 a8 bd 5c 7f 85 bd ad 77 d1 bd
       -0.16650258 -0.08212594 -0.065184325 -0.102279045
000220 cd 87 4d be 38 94 4f 3e 22 97 17 bd 5f ba 7c bd
       -0.20071335 0.20271385 -0.037009366 -0.061701175
000230 10 4c ca bd 9e 72 2d 3e 34 28 3b 3e 80 38 e7 bd
       -0.09877789 0.16938254 0.18277055 -0.112900734
000240 cc 0b f7 bd eb 02 cc 3d af 6b 15 be 9e 93 c2 bd
       -0.12062797 0.09961494 -0.1459186 -0.09500812
000250 01 cd 8f bd de 71 28 3b 11 c2 d8 bd 6c 33 38 3e
       -0.07021523 0.0025702636 -0.1058389 0.17988366
000260 59 29 c6 3d 4b a6 14 be da d1 49 3e 31 8c 47 3e
       0.09675855 -0.1451656 0.19708958 0.19487073
000270 b7 57 53 3e c9 e3 2e bd a9 dc 04 3e 7a d0 35 3e
       0.2063893 -0.0426977 0.129748 0.17755309
000280 fd be 55 3e 58 f4 d0 3d f7 c3 11 3e af 5b 87 3c
       0.20873637 0.10202855 0.14234911 0.01652321
000290 75 bd ce bd 40 ca 14 bd 8b 18 00 be 1a f7 34 be
       -0.1009473 -0.036325693 -0.12509362 -0.17672387
0002a0 a5 e0 63 bd 4b fe 17 bd e2 89 5e 3e fe e1 bc 3c
       -0.05563416 -0.037107747 0.21732286 0.02305698
0002b0 cc 36 10 be d3 ca a1 3d b0 8e 43 be 79 3c 99 3d
       -0.14083403 0.07900014 -0.190974 0.07482237
0002c0 99 2f 1e 3d d2 90 90 3d af 42 82 bd c1 d4 ee 3d
       0.03861961 0.07058872 -0.06360375 0.11661673
0002d0 db fe 08 3e e1 30 4a 3e b0 b7 a2 3d 42 b6 34 bd
       0.1337847 0.19745208 0.07945192 -0.044119127
0002e0 7b 0c 97 bb e8 df cc 3d ec 08 15 3d 25 40 57 3e
       -0.004609642 0.10003644 0.03638546 0.21020563
0002f0 d4 d5 62 be 60 a5 a5 3d 76 15 17 be c3 49 90 bd
       -0.22151881 0.080881834 -0.1475428 -0.07045319
000300 82 c5 d3 3c 90 ea a4 bd b6 1a 17 3e d0 6c 93 3d
       0.025851015 -0.08052552 0.14756283 0.07198489
000310 1a 5c 43 be 56 69 1c be a6 4f f9 bd dd cc 13 3d
       -0.19078103 -0.15274557 -0.12173395 0.036084045
000320 88 9c 1f 3e 7a 1d 5b 3e 01 5f 14 3e ff 72 3c be
       0.15587056 0.21397963 0.14489366 -0.18403243
000330 06 a2 69 3e 74 aa 45 3e cb 6b 3f 3d 6a 62 b1 3a
       0.22815713 0.19303304 0.04673366 0.0013533358
000340 1f 33 28 bc 51 30 c8 bd e4 d1 15 be 21 e3 89 3c
       -0.0102660945 -0.097748406 -0.14630848 0.016831936
000350 a0 e2 ee bd 1a 75 38 3e 64 6d 03 be 83 24 59 3c
       -0.11664319 0.1801342 -0.12834698 0.013253334
000360 9f 73 1a 3e 8e 3e 37 be 28 6e 1c 3d 4c e1 43 3e
       0.15083168 -0.17894956 0.03819099 0.19128913
000370 04 29 21 be 58 f2 81 bc 26 e9 63 3e e4 49 06 3e
       -0.15738302 -0.015862629 0.22256908 0.13114125
000380 23 cb 56 3e 9e 71 bb bb f8 3f 36 be ee 69 9e bd
       0.20975928 -0.0057203313 -0.1779784 -0.07735048
000390 4d 9b d4 3d 28 79 29 3d cf 9c 42 3e c4 5c 96 3d
       0.10381184 0.04137531 0.1900513 0.073419124
0003a0 68 02 63 bc ed 9c 11 be d6 4f ed 3d 64 bd 87 3c
       -0.013855554 -0.14220019 0.11587493 0.0165698
0003b0 78 41 83 3d fb 4e 1c bc 78 72 37 3e 83 22 23 3e
       0.064089715 -0.009540315 0.1791476 0.15931134
0003c0 4f 6e 17 3e 63 bc 2a 3e 66 68 2e 3b f7 14 87 bd
       0.14788173 0.16673426 0.002661252 -0.065957956
0003d0 7a 82 8a 3d 08 a4 91 bc 3f b5 09 3e 2f 2a e6 bd
       0.06763168 -0.017778412 0.13448046 -0.11238515
0003e0 82 84 5c be f2 90 c4 bd a1 25 a6 3c 04 5f ab 3d
       -0.21534923 -0.095979586 0.020281615 0.08367732
0003f0 ed ac 0e be 62 2c 03 bc 1a 78 5a be 5b 1c e5 3d
       -0.13933153 -0.008006187 -0.21334878 0.11187049

bias f4 [64]
000000 8e dd 5b 3b 46 1c 68 3c c9 40 42 3c 15 7d 91 3c
       0.0033548805 0.014166897 0.011856266 0.01775984
000010 fb 34 8e 3c 84 84 8e 3c 0a d7 23 3c 5a 9c 7f 3b
       0.017359247 0.017397173 0.01 0.0039003105
000020 0a d7 23 3c fa 91 8c 3c ef 02 7e 3c a0 a5 c1 3c
       0.01 0.01715945 0.015503629 0.023638546
000030 fc 6f ba 3a d8 b8 bd 3a 89 ae ae 3c e8 5f 8b 3c
       0.0014224048 0.0014474643 0.02132346 0.017013505
000040 95 3c 18 3b 10 65 66 3c 08 75 a7 3c a4 2c 45 3b
       0.002322947 0.014062181 0.020441547 0.0030086422
000050 02 93 08 3c 29 c4 94 3c e3 17 a1 3c 94 b0 7e 3a
       0.008335831 0.018159943 0.01966471 0.0009715643
000060 0a d7 23 3c e0 a0 17 3b 59 6f 30 3c 4e 73 b7 3a
       0.01 0.002313666 0.010768735 0.0013996155
000070 0a d7 23 3c fe 60 8f 3c c7 46 2f 3c 4a c0 7f 3c
       0.01 0.017502304 0.010698027 0.01560981
000080 fd 34 01 3b 71 c8 8e 3b 0a d7 23 3c 48 2d 8a 3c
       0.0019715421 0.0043573906 0.01 0.016867295
000090 28 cb 7b 3c 7c b5 1f 3b 7d 0d 8f 3c 32 85 26 ba
       0.01536826 0.0024369648 0.017462486 -0.0006352245
0000a0 ee 55 15 3c 41 3b f4 3a e0 9e d8 3a f1 07 4e bb
       0.0091147255 0.0018633382 0.0016526841 -0.003143784
0000b0 92 6f 46 3b fd 97 82 3c 64 14 8c 3c dd 67 e5 3a
       0.0030278903 0.015941614 0.017099567 0.0017502267
0000c0 0a d7 23 3c 76 d3 a7 3c 96 d6 d8 3c 95 83 9e 3c
       0.01 0.020486575 0.02646951 0.019349853
0000d0 d4 85 f4 3a e5 5c 99 3c 0a d7 23 3c 88 58 65 3c
       0.0018655607 0.018721053 0.01 0.013998158
0000e0 0b 96 39 3c 64 a3 20 b8 fc ca 91 3c 1b db 61 3b
       0.011327277 -3.8299142e-05 0.017796986 0.0034462872
0000f0 0a d7 23 3c 75 be a6 3b 81 a8 97 3c 74 cd ab ba
       0.01 0.005088622 0.018512966 -0.0013107494

weight f4 [64, 64]
000000 a9 4b ff bd de 5c 85 3d cf b6 93 3c 5e 33 df 3c
       -0.12465603 0.06511854 0.018031506 0.027246173
000010 91 32 97 bb b2 fc 24 be 7e 5f 10 be ff bc 99 3d
       -0.0046141823 -0.1611202 -0.14098927 0.07506751
000020 ab d0 3e be c7 8e 98 bd 99 3c 11 be d2 fa ed bc
       -0.18634288 -0.074491076 -0.14183272 -0.029050265
000030 de c4 43 3e 1b 71 00 3d cf 46 51 3e be 53 1e 3d
       0.19118068 0.031357866 0.20437168 0.03865408
000040 0c 52 1c bd c8 fc b4 3d fa 83 3d bd bf fc 4a 3e
       -0.038164183 0.08837277 -0.04626844 0.19822977
000050 6e 6c 96 3d 77 74 9e bd 60 3a 44 3d da e9 14 be
       0.073449 -0.07737058 0.047907233 -0.14542332
000060 62 cf cc bd 62 ca 5f 3e a4 57 53 3e 4c 56 e0 3c
       -0.10000493 0.21854547 0.20638901 0.0273849
000070 60 e6 6c 3c a3 3b ab 3d 94 ba 26 bd a0 e0 29 3e
       0.014459223 0.08360984 -0.04070528 0.16589594
000080 38 c8 2c be 5f 85 f5 bc d6 2b fa 3d 33 7e 18 3d
       -0.16873252 -0.029970823 0.12215392 0.037229728
000090 31 98 2f 3d 8b f5 ee 3d 52 5f 56 be eb 57 4b 3e
       0.04286975 0.11667927 -0.209348 0.19857757
0000a0 ec 10 57 3d 6d 54 8d bc 04 41 c8 3d 78 97 2f be
       0.052506372 -0.017252171 0.09778026 -0.17147624
0000b0 7b 5f 05 3e e8 c8 58 bd 72 5f 8f 3c 4a e5 33 3e
       0.13024704 -0.052925974 0.017501567 0.17567936
0000c0 f6 d3 91 bd 47 18 79 3c 28 81 c2 3c 8b 62 27 3e
       -0.071205065 0.015203542 0.023743227 0.16346185
0000d0 43 fe 8b bd 9c 37 d9 bd 50 3a 52 3c 48 83 92 bd
       -0.06835606 -0.1060631 0.012831286 -0.07153946
0000e0 33 9e df bd 7c 08 00 be 9a 53 eb bc 07 f5 f8 bd
       -0.10918846 -0.12503237 -0.028726388 -0.1215611
0000f0 21 71 2d be eb c0 8f bc e5 bf 56 bd 94 16 f4 bd
       -0.16937687 -0.017548045 -0.0524291 -0.11918369
000100 a2 c3 bb 3d 8e 82 bf 3c 54 17 1e be 78 24 1f bd
       0.091681734 0.023377683 -0.15438586 -0.03885314
000110 8f b7 32 3e 7b 27 3f 3c 16 94 91 3d fc ed 77 3d
       0.17452835 0.011667128 0.07108323 0.060529694
000120 a6 1f 24 be e9 3d f9 bc 2d fe 17 be 7f d7 36 be
       -0.16027698 -0.030425029 -0.14843054 -0.17855643
000130 f8 28 09 3d 7a 9a 42 bd a9 a4 3d be 80 15 db bd
       0.033486336 -0.0475106 -0.18519844 -0.1069746
000140 93 58 a9 3d 1b df c2 bc 6f 19 8e 3b 9c 4e d7 bd
       0.08268847 -0.023788026 0.004336528 -0.105130404
000150 74 1e 55 3d 65 f0 d5 bd 4f af 38 3e c1 12 b7 3c
       0.052030995 -0.10446242 0.18035625 0.02234781
000160 c0 6d 31 bb 24 11 38 3e 09 54 00 be b7 c6 2e 3e
       -0.0027073473 0.17975289 -0.12532057 0.17067991
000170 9c b8 25 bd d8 5d 11 be c6 0d 36 be ff 99 7f bd
       -0.04045926 -0.14195955 -0.17778692 -0.06240272
000180 9e 38 00 be e7 90 2d 3e fb e8 18 3e 1d a4 91 3b
       -0.12521598 0.16949807 0.14932625 0.0044446127
000190 15 3d 7b 3c a7 79 10 3e da dd b3 bd 9e f5 35 3e
       0.015334387 0.14108907 -0.08782549 0.17769477
0001a0 ed c9 d8 3d ed a7 17 be 81 7c 5d 3e 2e 0e 9c bd
       0.10585389 -0.14810152 0.21629526 -0.07619892
0001b0 b9 0a 4e be b7 59 d3 bd b2 12 a8 bd 67 43 a0 3d
       -0.20121278 -0.10319846 -0.08206691 0.07825356
0001c0 9b 5c 2e 3e c4 02 a2 bd 3d c4 77 3c 61 17 97 bd
       0.17027514 -0.07910684 0.01512247 -0.07377506
0001d0 e2 05 07 3e 8d fb 73 3d dd bb 32 be a0 3f b5 bd
       0.13185838 0.05956607 -0.17454477 -0.08850026
0001e0 25 af 89 3d 01 54 02 3d b1 fb 9d 3d 6c ac 15 3e
       0.06722859 0.031818394 0.07714022 0.14616555
0001f0 5c 36 7e 3d 61 be 4b 3c 4f fc 5c 3e bd f7 b9 3d
       0.06206356 0.012435527 0.21580623 0.090804555
000200 19 ec 1a 3e e3 0c 42 be 6c 2f 1d 3e 72 6c 3d be
       0.15129127 -0.18950228 0.15350121 -0.184984
000210 fc c0 ad 3d c7 b0 ed 3c dc fb 6b 3d 1f d7 95 bd
       0.084840745 0.029014958 0.05761324 -0.07316422
000220 a4 6b 52 bd d0 8c b5 bd bf a5 4f be ec ac 53 3e
       -0.051372185 -0.088647485 -0.20278071 0.20671433
000230 4b 19 3d be 52 07 27 3d 7b 88 ec bd 7a 14 39 be
       -0.1846668 0.040778466 -0.11549469 -0.18074217
000240 24 e9 34 3e ec 87 44 3c f5 f5 0c 3e 93 10 7a 3c
       0.17667061 0.011995297 0.137657 0.015262741
000250 c0 4b ab 3b 89 85 4b be 42 e8 31 be bd dd 2e 3e
       0.005227536 -0.19875158 -0.17373756 0.17076774
000260 36 e1 02 be 91 f0 9c 3d 14 60 d4 3d 5a 5d 55 3e
       -0.12781224 0.07663072 0.10369888 0.20836392
000270 f1 fd 58 be cb 0c 09 3e 38 ee 5a 3e fe 20 37 be
       -0.21190621 0.13383786 0.21379936 -0.1788368
000280 39 0f af bd 59 92 26 3d 95 da 2e 3e af 96 03 be
       -0.08547825 0.04066691 0.1707557 -0.1285045
000290 bc c4 35 3e b4 90 02 3c ea fc dc 3c 2d 49 7e bd
       0.1775083 0.00796907 0.026976068 -0.062081505
0002a0 9a 58 ba 3a 1b c0 e9 3d 15 6e 1e bd e8 a5 2f be
       0.0014217079 0.11413594 -0.0386792 -0.17153132
0002b0 6e ce da 3d b5 41 22 3e 47 6e ca 3d df af 46 3d
       0.106839046 0.15845378 0.09884315 0.048507567
0002c0 de cd e2 3d 2e 8c 38 be 01 3c 92 bd 66 ec 63 bc
       0.11074422 -0.18022224 -0.07140351 -0.013911342
0002d0 c8 0d 7b 3d 27 43 47 bd 34 98 9e bd 4b 2f 9b bd
       0.06129244 -0.048648026 -0.07743874 -0.0757738
0002e0 af a2 a2 bd 2d 6d 61 3c 61 6f fd bd 87 ae 3f bd
       -0.07941186 0.01375894 -0.123747595 -0.0467973
0002f0 b1 13 12 3e 60 6b e4 3d fb 03 f7 3d 9e e5 53 3e
       0.14265324 0.11153293 0.12061306 0.20693061
000300 a7 1c f2 bd 0b e3 c1 bd 4d ab 16 3d f7 02 56 be
       -0.11821871 -0.09467133 0.03678446 -0.20899568
000310 22 ab 32 be 57 89 5a 3d 00 8c 90 bb 16 1f 4e 3e
       -0.17448094 0.053353634 -0.0044112206 0.20129046
000320 bf 1d 0c 3e 4c 85 4f bc 2d 39 dc bd ae 4d 1b 3e
       0.13683222 -0.012666058 -0.10753093 0.15166351
000330 02 ea e9 3d 68 48 54 bc 56 66 50 3b a8 73 11 3e
       0.114215866 -0.012956716 0.0031799278 0.14204276
000340 bb 98 0b 3e 98 d1 43 3e 7b 4b 05 3c 06 c2 09 3e
       0.13632481 0.19122922 0.008135672 0.1345292
000350 85 7c 51 3d 23 22 42 3e 1c 52 39 be 66 ba ff 3d
       0.05114414 0.18958335 -0.18097728 0.124867246
000360 7b 21 31 3e c5 ba 42 3e 49 2f 0f bd b5 0c 37 be
       0.17297928 0.1901656 -0.034957204 -0.17875941
000370 40 7a b1 3b bb d7 51 3e 3d 12 14 be 62 81 05 bd
       0.0054161847 0.20492451 -0.14460082 -0.032594092
000380 e4 7b a6 3d 94 ed b7 bd ce b9 fa 3d c8 b9 2f 3e
       0.08129099 -0.08980861 0.12242471 0.17160714
000390 41 4d 3d be 91 d5 27 be e7 8f 6b 3d b9 f6 db bd
       -0.18486501 -0.16390063 0.057510283 -0.10740418
0003a0 98 f0 55 bc ea b7 2d 3e 5d f8 2d be 05 21 1f 3d
       -0.01305785 0.16964689 -0.16989274 0.03884985
0003b0 a1 47 2a 3e 4d fe 8c bd 1f 4b 3d be 2f f0 29 3e
       0.16628887 -0.068844415 -0.18485688 0.16595529
0003c0 63 11 09 3e 18 81 d5 bd 29 79 35 be 85 6a 34 3c
       0.13385539 -0.10425013 -0.17722 0.011011724
0003d0 bb f2 24 be 42 ae d1 bd 96 92 f8 3d 26 07 cf 3d
       -0.1610822 -0.10238315 0.12137334 0.10108785
0003e0 34 86 20 be 26 a3 18 3e 5b 30 51 3d 1a 61 99 bd
       -0.15676194 0.14905986 0.051071506 -0.07489224
0003f0 10 1c a3 bd 0d 82 2e be 78 4e 52 3e e4 66 5d bd
       -0.07964337 -0.17041798 0.20537746 -0.054053202

bias f4 [64]
000000 2e bb b6 3b 98 6b 8d 3c 52 7e 9a 3c 0b 38 a3 3b
       0.005576513 0.017263219 0.018859062 0.004981046
000010 c8 cf 74 3b 28 83 94 3c 62 cd e1 3a aa 7b 92 3c
       0.0037355293 0.018128946 0.0017227347 0.017881233
000020 f2 11 e8 3a 50 60 95 3c b5 54 95 3c ba 8e 12 ba
       0.0017705543 0.018234402 0.018228868 -0.0005590726
000030 2a 52 0f 39 98 4b fa 3a 38 fd 94 3c 04 be 87 3c
       0.00013668151 0.0019096015 0.01818715 0.016570099
000040 f9 d2 30 3b c8 c7 1d 3c 08 f6 99 3b 0b 88 94 3c
       0.0026981218 0.009630151 0.0046985187 0.018131277
000050 20 0e 3e 3b f5 05 94 3c a8 73 a4 3b d3 82 93 3c
       0.0029000118 0.018069247 0.00501867 0.018006718
000060 98 b6 81 3b 62 a2 99 3c 0a d7 23 3c 5f ef 89 3b
       0.0039585344 0.018754188 0.01 0.0042094435
000070 5d 71 94 3c d5 ee 49 3b 3b 1e 96 3c ab 6b 94 3c
       0.018120462 0.003081252 0.018324962 0.018117746
000080 19 ef 03 3c 0a d7 23 3c 87 ec 99 3b b9 11 83 3c
       0.008052611 0.01 0.0046973857 0.015999662
000090 05 da 94 3c 0a d7 23 3c e1 9f 94 3c 45 c5 a1 3c
       0.018170366 0.01 0.018142642 0.019747386
0000a0 14 e6 98 3c b7 68 a3 3b 0a d7 23 3c 79 b2 89 3c
       0.018664397 0.004986848 0.01 0.016808735
0000b0 dd 49 94 3c 69 44 96 3c 45 f1 f3 3a 3e 73 45 3c
       0.018101627 0.018343167 0.0018611333 0.012051402
0000c0 6d d1 9b 3b e2 50 2c 3a 63 5c 09 3b 71 5b 1b 3c
       0.00475519 0.0006573332 0.0020959608 0.009482251
0000d0 9c 22 92 3c c5 2d 0a 3b fd 62 1b 3a a8 80 47 3b
       0.017838769 0.002108441 0.0005927531 0.0030441675
0000e0 b7 89 94 3c 64 7d 3e 3b c9 da 95 3c 06 ad a7 3a
       0.018132074 0.0029066438 0.018292801 0.0012792654
0000f0 d2 11 e4 3a c7 67 89 3a e4 c7 6d 3c aa cd ca 3c
       0.001740033 0.0010483199 0.01451299 0.024756271

weight f4 [1, 64]
000000 16 8d 1e be 21 e3 96 3c 18 73 fb 3d 5f fc d4 bd
       -0.15483508 0.01841885 0.12277812 -0.103996985
000010 2c ae af bd 67 71 23 3d 5b e0 d3 bd 23 d4 27 3d
       -0.085781425 0.03990307 -0.10345527 0.040973794
000020 39 49 95 be 5c d0 41 3e fc 59 0e 3d 77 23 3b be
       -0.29157427 0.18927139 0.034753785 -0.18275248
000030 df fb 53 be 3b 45 d6 bd ef d1 62 3e c7 c2 85 3d
       -0.2070155 -0.104624234 0.22150396 0.065312915
000040 a1 4f a0 bd 5c 34 bb 3d 05 97 93 be d1 f1 57 3e
       -0.07827688 0.09140846 -0.28826156 0.2108834
000050 b6 e2 4f be 4b c8 e2 3d 68 5d 4e bd fe 44 5b 3d
       -0.20301327 0.11073359 -0.050382048 0.053532593
000060 2d 47 5c be c5 69 29 3d c8 61 08 3d 48 a5 67 be
       -0.21511526 0.041360635 0.033296376 -0.22621644
000070 91 7d 2c 3e a7 32 6a be bc 83 8b 3e 4d 13 0e 3e
       0.16844775 -0.22870885 0.27248943 0.1387455
000080 10 4e 7b 3e 00 a9 6a 3b cb 49 6c be e6 5d 7f 3e
       0.24541497 0.0035806298 -0.23075025 0.24938163
000090 44 8d 5a 3e 00 30 8b 3e e2 e7 81 3e d4 95 05 3e
       0.21342951 0.2718506 0.25372225 0.13045436
0000a0 ce ef 03 3e 6e 2a 83 be d2 2e 4d be d0 dd 78 3e
       0.12884447 -0.2561831 -0.20037392 0.24303365
0000b0 e7 5b cc 3d 95 7b 97 3e 73 c0 94 be f7 47 2c bd
       0.099784665 0.29586473 -0.29053077 -0.04206082
0000c0 00 5b 23 bd e6 5d 5b be 30 64 87 be d6 dc 47 be
       -0.039881706 -0.21422538 -0.26443624 -0.19517836
0000d0 11 a8 1e 3d 85 30 a9 bd 6e 8c 71 be 3f 82 9b bc
       0.0387345 -0.082612075 -0.23588726 -0.018983005
0000e0 f3 f8 f2 3d c1 be 3b be cf d3 de 3d b8 c0 8a be
       0.118638895 -0.18334486 0.10880243 -0.27100158
0000f0 40 27 1e be a5 97 22 be e7 33 b2 3d 91 bd b0 3d
       -0.1544466 -0.1587816 0.08701306 0.08629907
