models/1d-heat-pinn-5epochs-lr0.001-adam-x51-t1000-alpha1.22e-3.pt (torch, 56595 bytes, 9 tensors)

weight f4 [64, 2]
000000 e0 5b 68 be 58 1d 1e 3e 77 ef 8a be 4c 19 98 3d
       -0.22691298 0.15440881 -0.27135822 0.074267
000010 0b e4 b3 bd fd fa 86 3e d9 3f c8 bc a8 35 bb bc
       -0.0878373 0.26363364 -0.024444507 -0.022852734
000020 32 3c 79 be 6d fa 40 be 6a b0 6d 3e 6d 2f 94 3e
       -0.24339369 -0.1884553 0.23211828 0.28942433
000030 c8 db c2 bc 12 a5 51 3e 4f a0 27 be 4f 22 e1 3d
       -0.02378644 0.20473126 -0.16369747 0.10992872
000040 1b ab 56 3e 81 3c 82 be 08 a5 4f be 45 c2 82 be
       0.20963709 -0.25436786 -0.20277798 -0.2553884
000050 b7 2c 34 bd 97 fa 91 3d 4e 28 47 be 4e 37 db 3d
       -0.043987956 0.07127874 -0.19448969 0.10703908
000060 29 17 92 3e f9 71 5a be 4a 18 94 bd 8a 62 0c 3e
       0.28533295 -0.2133254 -0.07231195 0.13709465
000070 d3 f7 56 3e 99 0d 98 be 24 48 85 be c8 71 7e be
       0.20992975 -0.29697874 -0.260316 -0.24848092
000080 11 9f 99 3d 7c 8c 84 3d 18 f4 4b 3e 38 44 83 be
       0.07501043 0.06472108 0.19917333 -0.25637984
000090 9f 67 95 3e a5 1b 92 3c dd eb 57 be 4b 61 e2 3d
       0.2918062 0.017835448 -0.21086068 0.110537134
0000a0 15 58 6d bd 88 d3 6f be 47 c4 51 3e 2a f7 69 be
       -0.05794533 -0.23420537 0.2048503 -0.22848192
0000b0 a1 76 82 bd d5 dc 8b 3e 61 e6 fa 3d ca 9b 5a bd
       -0.06370283 0.2731692 0.122509725 -0.05337123
0000c0 13 72 c7 3d c3 d4 71 be 32 57 ed 3d f5 a4 67 bd
       0.09738555 -0.23616318 0.11588897 -0.0565538
0000d0 5e 2c cc 3c 84 ef 0c bd e7 66 56 be b0 3e 3f 3d
       0.0249235 -0.034408107 -0.20937692 0.046690643
0000e0 02 f8 e0 3d a1 83 ae bd 1f b8 07 be c5 2a a1 bd
       0.10984804 -0.085212 -0.1325383 -0.07869486
0000f0 25 df 46 3e 0b 25 45 bc 70 ef 08 3e fe 60 54 3e
       0.1942106 -0.0120327575 0.13372588 0.20740125
000100 34 1e 05 be 4d ae 95 be bc 64 83 3e aa 49 88 3e
       -0.12999803 -0.29234543 0.25662792 0.266187
000110 ef 35 8f bc a9 08 84 3e 2b c1 82 3e bf 5c c3 bd
       -0.017481772 0.25787857 0.25538 -0.09539174
000120 e1 99 35 be c2 4a 5e 3e 8a d8 fd 3d 5b d4 be 3c
       -0.17734481 0.21708205 0.12394817 0.023294618
000130 8a 1f 91 bd b8 88 8a 3e 8f 42 46 be 72 a8 97 3e
       -0.07086094 0.27057433 -0.19361328 0.296207
000140 82 71 8a 3e bf 61 0a be e0 f4 95 be 6f a2 7b bd
       0.27039725 -0.1351385 -0.29288387 -0.061434206
000150 26 e8 73 be 32 45 3e 3e 65 07 d2 3d 63 04 e8 3d
       -0.23819026 0.18581083 0.10255317 0.11328962
000160 7f 3d 27 bd 9d 83 86 3e 73 bb 83 bc 64 1c 0b 3e
       -0.04083013 0.26272288 -0.016080594 0.13585049
000170 e5 de 82 3d f2 1a 72 bd a5 ee 4f 3e ae a3 a1 3d
       0.0639017 -0.05910773 0.2030588 0.078925475
000180 55 e9 c5 3c 3c 90 7d 3e 25 6b 54 3e 8a 28 11 be
       0.024159113 0.24762052 0.20743997 -0.1417562
000190 0c ca a7 bd 9e 10 e1 bc f7 0e 66 3d 0d 5d b3 bc
       -0.08192834 -0.027473744 0.056166615 -0.021894956
0001a0 85 d8 8c 3d d2 59 69 3e 2d 03 c5 bd 99 12 19 be
       0.06877235 0.2278817 -0.09619746 -0.149485
0001b0 1d da 44 3d 6b 87 b5 3d d4 79 1a 3e 23 1e 97 3e
       0.04805957 0.088637196 0.15085536 0.2951518
0001c0 f4 b9 b0 3d 6c 3b dc bd c9 03 4d 3e 1e e5 01 bd
       0.08629218 -0.10753521 0.20020975 -0.031712644
0001d0 14 73 2c 3e e1 7b 1d 3e ea ef 24 be 35 54 c5 3d
       0.16840774 0.15379287 -0.16107145 0.09635202
0001e0 3c 41 ce 3d c0 89 8d 3e a7 fa 40 bd c5 c2 db bd
       0.10071036 0.27644157 -0.04711404 -0.10730509
0001f0 c0 54 57 be 5e 35 28 bd 6c ff 1d 3b 9a 10 7b be
       -0.21028423 -0.04106652 0.0024108542 -0.24518052

bias f4 [64]
000000 bd 30 5d 3c f7 76 a9 3b a3 9c 5d 3c 32 5c c5 3b
       0.01350039 0.0051716524 0.013526115 0.0060229534
000010 89 14 cc 3b 91 f2 59 3c d8 d8 59 3c b1 95 5f 3c
       0.006228034 0.013302461 0.0132963285 0.013646529
000020 a3 a7 d1 3b 08 74 65 3c ea 8a d7 3b 3c 4c cf 3b
       0.0063981577 0.014004715 0.006577839 0.0063262265
000030 cf 6c 69 3c 0e 3e e0 3b d8 8b ca 3b a6 cf c5 3b
       0.014247133 0.006843335 0.0061812215 0.0060367165
000040 68 f9 5f 3c 07 57 4a 3c 53 84 68 3c 32 5d 6e 3c
       0.013670303 0.0123498505 0.014191705 0.014548587
000050 c3 d2 69 3c b7 a8 75 3c 01 d1 fb 3b 13 c0 d7 3b
       0.014271441 0.014993838 0.0076848273 0.0065841763
000060 00 30 c5 3b 6c 56 69 3c a6 51 d4 3b 7d 52 6d 3c
       0.006017685 0.014241796 0.00647946 0.014484999
000070 15 9d a6 3b f5 6b ca 3b 27 39 c5 3b 94 1e dc 3b
       0.0050846436 0.0061774203 0.006018776 0.0067175124
000080 a6 2a 63 3c 84 8e 5a 3c f6 ff d3 3b ec 41 5e 3c
       0.013865149 0.013339642 0.006469722 0.013565522
000090 50 de 5e 3c 0f 38 ee 3b 5b 95 61 3c 6a 00 cc 3b
       0.013602808 0.0072698663 0.013768519 0.0062256353
0000a0 66 b3 d8 3b a6 c3 6d 3c 31 45 66 3c 44 07 dc 3b
       0.006613183 0.014511978 0.014054582 0.0067147333
0000b0 c4 14 da 3b 0b 4b d8 3b 14 51 c4 3b ab 18 b1 3b
       0.0066553075 0.0066007427 0.0059911106 0.005404552
0000c0 88 1b d9 3b b1 2a c2 3b 54 6c 63 3c 8a c0 c7 3b
       0.0066255964 0.0059254994 0.013880808 0.0060959505
0000d0 46 c7 45 3c 0d 11 d1 3b 14 2d d6 3b c6 2f d6 3b
       0.012071436 0.0063802064 0.0065361355 0.0065364568
0000e0 b9 c2 be 3b d5 74 c3 3b 0f 7a 59 3c 9c 90 d8 3b
       0.0058215526 0.005964855 0.01327373 0.0066090357
0000f0 57 56 60 3c b9 fc 65 3c 70 0f 4d 3c 73 91 64 3c
       0.01369246 0.014037305 0.012515888 0.013950693

weight f4 [64, 64]
000000 c1 f5 91 b9 a1 04 07 bd a3 1f b8 bd c2 12 5e be
       -0.00027839656 -0.0329634 -0.08990409 -0.21686843
000010 d7 77 4a bd 8f 74 57 3e ff 0a f4 3d 2f 0e db 3d
       -0.049430694 0.21040557 0.1191616 0.10696065
000020 51 e0 0d bd e5 f0 e5 bd d5 81 ec 3d 65 b3 72 bd
       -0.034637753 -0.112275876 0.11548201 -0.059253115
000030 10 96 2b bd 59 31 d4 3c 8a 26 e7 bd 43 d4 62 bc
       -0.041891158 0.025902437 -0.112866476 -0.013844552
000040 2a 82 15 be bd 76 1e 3e 18 78 4b be 96 d5 93 3b
       -0.14600435 0.15474983 -0.19870031 0.0045115454
000050 19 ea fe 3d 5e f7 fc ba df 7b 36 be fd 12 1c be
       0.12446994 -0.0019299795 -0.1782069 -0.15241618
000060 27 ad 87 3c a0 1a 12 bd 34 c0 0e be 0f de f5 bd
       0.016562058 -0.035669923 -0.13940507 -0.12005245
000070 15 a9 4f 3e e7 2c 5b 3c b8 f4 ae bd a9 91 25 3e
       0.20279343 0.013377405 -0.0854277 0.16168846
000080 be 4c 4e bd 1c d9 3b 3e 85 e8 56 3e 36 32 a7 bd
       -0.050366156 0.1834454 0.20987137 -0.08163874
000090 b9 9b 57 be 58 32 83 bd 97 b3 30 be 0b 60 b4 3d
       -0.21055497 -0.06406087 -0.17256008 0.08807381
0000a0 23 7f 3b 3e c7 66 00 bd 1b 2f 7d bd 0e d5 52 bd
       0.18310218 -0.031348016 -0.0618125 -0.051472716
0000b0 e7 1c 57 3e e9 3d e1 3d 6b b0 30 be 8f 6b 5a bd
       0.21007119 0.109981366 -0.17254798 -0.053325232
0000c0 44 11 a3 bd 13 60 3b 3e 00 20 45 be ad 62 7e bc
       -0.079622775 0.18298368 -0.19250488 -0.015526456
0000d0 ce 20 10 3e cf 15 37 be b9 4d 08 bd a5 88 38 3d
       0.14075014 -0.17879413 -0.033277247 0.04505219
0000e0 1b 5d ef 3d ac 96 b1 3c db 04 85 bd 84 2a 01 3c
       0.1168768 0.021678291 -0.06495067 0.007883672
0000f0 9c 38 31 be d1 82 35 be 4e ff 16 be 38 68 b7 bd
       -0.17306751 -0.17725684 -0.14745829 -0.08955425
000100 60 61 4a 3d 57 e1 f0 3d 6b 58 36 be d6 44 e9 bc
       0.04940927 0.1176173 -0.17807166 -0.028475206
000110 1c c5 56 be 6c ac f5 bd fe 7d b8 bd a9 92 5b be
       -0.20973629 -0.119957775 -0.09008406 -0.21442665
000120 3a c3 50 3e a3 4c de bd ad 54 56 bc a7 76 46 3e
       0.20386973 -0.10854461 -0.013081712 0.193812
000130 b7 a3 a7 3d 0b 84 43 3e fc 80 51 be 2a 3e eb bd
       0.08185523 0.19093339 -0.2045936 -0.11486466
000140 1e 1f 55 bc 7f 3a e7 3d 68 86 20 bd 20 e6 1e be
       -0.013007907 0.11290454 -0.03919068 -0.15517473
000150 e8 7b 2d 3e 07 09 77 3c c6 a3 f5 bd 67 8f 83 bd
       0.16941798 0.015077836 -0.11994128 -0.06423836
000160 0a ff ae 3c 47 a1 e0 3d 69 44 37 be 0c 94 5f be
       0.021361846 0.10968261 -0.1789719 -0.21833819
000170 6b 52 15 be ee 5c bf 3d 19 5d 4d 3e f2 eb 57 be
       -0.14582221 0.09343897 0.20055045 -0.210861
000180 82 e2 06 be 04 76 d1 3d 9e 11 10 3e ee 6b a7 bd
       -0.13172343 0.10227588 0.1406922 -0.08174883
000190 9c ec cf 3d de 22 f9 bd 67 46 55 3e 26 26 06 bb
       0.101525515 -0.121648535 0.20827638 -0.0020469516
0001a0 14 4c 1c 3e b1 78 c4 3b 21 96 17 bd 34 06 63 bc
       0.15263397 0.005995833 -0.03700841 -0.013856459
0001b0 4f 7b 1a be bc 55 ac 3d 28 e2 af 3d 61 d7 8c 3b
       -0.15086101 0.0841479 0.08588058 0.004298136
0001c0 30 c0 3c 3e a9 27 1e be 2b 59 42 bd 25 f7 11 be
       0.18432689 -0.15444817 -0.04744832 -0.14254434
0001d0 f8 91 88 3d d9 e2 eb 3c 3f 83 91 3d a7 9b 27 3e
       0.06668466 0.028794693 0.07105111 0.1636797
0001e0 01 9d e5 3c 37 95 20 bd e7 70 a1 bc c9 77 1b 3e
       0.028028967 -0.039204802 -0.019707156 0.15182413
0001f0 26 02 1f be 6e 00 5d bd 1d f2 30 be 9e 0c 4c 3e
       -0.15528163 -0.053955488 -0.17279859 0.19926688
000200 da f6 a6 bd 7a 1b 11 be 5a f4 08 be ec 5f 8c bd
       -0.08152552 -0.14170638 -0.13374463 -0.06854233
000210 d1 89 77 3c 44 ec 3c 3e c1 98 36 3e 3b 15 0e be
       0.015108542 0.18449503 0.17831708 -0.13875286
000220 df ad 2e 3e 31 25 1a 3e 0e 2f ee bd 2a 94 54 bc
       0.17058514 0.1505325 -0.11630069 -0.012974778
000230 8c 8e f7 bd 90 0f eb 3d 72 86 34 3e 95 ca 28 3e
       -0.120877355 0.11477578 0.17629412 0.16483529
000240 2f 31 b5 3c d2 84 ff 3d d7 7f e8 bd a6 1f 1c 3e
       0.02211818 0.12476505 -0.113525085 0.15246448
000250 88 7b 1b be aa a9 27 be f4 5e 84 3d 7a 65 35 3d
       -0.15183842 -0.16373315 0.06463423 0.04428623
000260 c6 b2 49 be 22 ab aa 3d dc 22 bf 3d 92 a9 bf bd
       -0.19697103 0.08333422 0.09332821 -0.09358515
000270 2b 61 e0 3d 53 22 1e be 38 c9 3e 3e d1 b3 d5 bd
       0.10956033 -0.15442781 0.18631446 -0.10434688
000280 92 0b c7 3d f3 09 92 bd 57 9a b0 3d cd 40 eb 3d
       0.09719004 -0.07130804 0.08623188 0.11486969
000290 32 b9 05 3e 77 9d a5 3d 9e 34 fd bd ab e1 91 3d
       0.13058928 0.08086675 -0.123635516 0.07123121
0002a0 44 27 0a 3e 43 6a 50 3e 64 5e 88 3d c0 fa 48 be
       0.13491541 0.20353036 0.066586286 -0.19626904
0002b0 41 28 0d 3d 1f c6 fa 3d f1 77 4b bc 2d b8 50 bd
       0.034462217 0.1224482 -0.012418733 -0.050956894
0002c0 a5 ef 56 3d 9b eb 0f 3e 87 2e f8 3d b3 95 ad bd
       0.052474637 0.1405472 0.121182494 -0.084758185
0002d0 93 9d 5a 3c 87 87 d6 3c 90 45 05 3e ab dd c5 bd
       0.013343233 0.026187671 0.13014817 -0.096614204
0002e0 c7 3c 4f 3e db 94 f6 3d 83 c7 89 3d ed bb f5 3d
       0.20238028 0.12040111 0.06727507 0.119987346
0002f0 4d 4a b1 3d d9 a9 2a 3d fe 47 fa bc a6 cd a4 bd
       0.0865675 0.041665886 -0.030551907 -0.08047037
000300 67 bd 19 be 8d 94 f8 bd 4c 30 ca bd 48 6b f8 bd
       -0.15013658 -0.12137709 -0.09872493 -0.12129837
000310 b2 69 20 3e 78 af 3f 3d 98 5f 88 bd df 83 16 3e
       0.1566532 0.0467982 -0.06658858 0.14698742
000320 05 27 18 3e 80 bb 53 3e 75 08 85 3d b7 b7 0f 3e
       0.14858635 0.20676994 0.06495754 0.14034925
000330 63 97 2d be 6a e7 7b bc 39 f3 2f be 7b a4 34 be
       -0.1695228 -0.015374998 -0.17182626 -0.1764087
000340 e4 00 1b 3e 0c 47 f0 3d 88 d1 50 3e 5f 3b 35 3e
       0.15137058 0.11732301 0.2039243 0.1769843
000350 69 98 34 3e 22 32 fd 3d 73 a7 0d be de ac fe bd
       0.17636265 0.12363078 -0.13833408 -0.124353155
000360 bc da 69 bd ea ad 76 3c 29 b5 36 be db 31 cf bd
       -0.057093367 0.015056113 -0.17842545 -0.10116931
000370 fa 22 b2 3d 05 9a 00 bd 83 7a b4 3d 22 73 18 be
       0.086980775 -0.031396884 0.0881243 -0.1488767
000380 40 56 4a 3e b2 20 52 3e 91 53 30 be 47 dd 48 3e
       0.19759464 0.20520285 -0.17219378 0.1961566
000390 ff 33 6c bc 82 18 48 be 11 02 44 be 58 ce 67 3d
       -0.014416694 -0.19540599 -0.19141413 0.05659327
0003a0 e7 c9 0e be d0 e1 48 3e e1 1e b8 bd 94 96 56 3c
       -0.13944207 0.1961739 -0.08990265 0.013097424
0003b0 3f 4e 05 3e 4a 15 22 3e f1 c3 c0 bd 4e 23 20 3e
       0.1301813 0.15828434 -0.09412373 0.15638468
0003c0 6a 3e d3 3d 92 d4 64 bd 7e 98 fb bd c9 ab 08 3e
       0.10314639 -0.055866785 -0.12284945 0.13346781
0003d0 a9 ad 07 be ac 72 65 3d fd c0 10 3e b1 26 4b be
       -0.1324984 0.056017563 0.14136119 -0.19838978
0003e0 00 84 55 3e 6d e5 15 3e 1c ed c8 bd d7 f4 db bc
       0.20851135 0.146383 -0.0981085 -0.026850147
0003f0 23 4f fe bd e7 0d 07 3d a2 26 25 be ed 29 13 3e
       -0.12417438 0.032972243 -0.16128018 0.14371462

bias f4 [64]
000000 e0 5f 52 3c 19 9d 65 3c 76 b8 b4 3b af 3d 65 3c
       0.012840241 0.014014506 0.0055151535 0.013991757
000010 29 a1 6e 3c d2 07 62 3c ef 6d 67 3c e7 70 d1 3b
       0.014564791 0.01379581 0.014125331 0.006391633
000020 f2 c1 c3 3b cd 2b 00 3c 88 ff 10 3c b1 4d c8 3b
       0.005974048 0.007822943 0.008849986 0.006112777
000030 ce 49 6f 3c 43 38 dc 3b 7e 8a bb 3b 7a 25 c8 3b
       0.014604999 0.006720574 0.0057232967 0.006107983
000040 d0 71 b7 3b 9f f9 a8 3b 25 35 d6 3b 32 a1 c6 3b
       0.0055982843 0.0051567103 0.006537097 0.0060616964
000050 e6 4c d5 3b 9c a4 5d 3c 39 38 d5 3b 64 ac d9 3b
       0.006509411 0.013528015 0.0065069464 0.006642865
000060 09 08 e2 3b 13 d3 6a 3c 55 1b ac 3b e7 2b d9 3b
       0.0068979305 0.014332551 0.0052522817 0.006627548
000070 3e bf 5c 3c db 1a 67 3c 9d 81 cf 3b 2c e9 c3 3b
       0.01347333 0.014105524 0.00633259 0.005978724
000080 a7 c7 5c 3c 0a d7 23 3c 6c 7e 5b 3c 66 6f 64 3c
       0.013475335 0.01 0.013396841 0.013942575
000090 94 62 07 3c 1e 0a 66 3c ea 6f c6 3b b8 d4 b5 3b
       0.008263249 0.014040498 0.0060558217 0.0055490397
0000a0 02 d5 64 3c 90 63 62 3c e9 16 d8 3b eb 91 bc 3b
       0.013966801 0.013817683 0.006594528 0.0057546995
0000b0 0a e9 66 3c 7f 48 71 3c cd 91 e7 3b 8f 6a 74 3c
       0.014093647 0.014726757 0.0070669414 0.014917984
0000c0 d1 54 18 3c d5 e4 ca 3b 4b d8 42 3c 9c b2 bf 3b
       0.009297566 0.0061918297 0.011892389 0.0058501493
0000d0 e6 9f c8 3b 68 1f 65 3c 47 8d 6a 3c fc a6 d8 3b
       0.006122577 0.013984539 0.01431591 0.006611703
0000e0 a4 37 c6 3b a8 bc 66 3c 18 29 d8 3b b6 d9 c7 3b
       0.0060491133 0.014083065 0.0065966956 0.006098951
0000f0 8b 2e ce 3b 12 18 cb 3b 5d 8c 68 3c bb 2b 40 3c
       0.0062921694 0.0061979378 0.014193621 0.011729176

weight f4 [64, 64]
000000 db b3 44 be 97 04 da 3d ae 11 a3 3d fa 78 81 3d
       -0.19209234 0.10645407 0.079623565 0.063219026
000010 cc 88 1f be 04 dc 24 3e c8 74 46 be f3 77 1d be
       -0.15579528 0.16099554 -0.19380486 -0.15377788
000020 ca d9 8b 3d 15 f1 5c bc ae 5a fc 3d 35 8d 19 3d
       0.06828649 -0.013485213 0.12321983 0.03748818
000030 72 81 20 be a3 76 0a be 0d 54 f7 3b 64 a7 0d be
       -0.1567438 -0.13521819 0.0075478614 -0.13833386
000040 f7 d1 cf bd 67 cc db bc e5 cd 73 3c 11 9c 2d 3e
       -0.101474695 -0.026830865 0.014880632 0.16954066
000050 4c fc e0 3d 6f 66 b1 3d d7 c3 5b 3e de 54 10 be
       0.10985622 0.08662116 0.21461426 -0.14094874
000060 2e 1e 4b be 18 4e ab bb 1e 32 12 be 14 c2 ed 3d
       -0.19835731 -0.0052278154 -0.1427693 0.11609283
000070 6c 47 c8 3c fb 49 f9 bd 93 1f 16 bd 6f 67 89 bd
       0.02444812 -0.12172314 -0.036651205 -0.067091815
000080 18 3f f1 3d 9b d4 4c 3e c4 82 14 be ba 33 42 3d
       0.11779612 0.20002978 -0.14503008 0.04741261
000090 53 38 19 3e 31 07 36 be 18 5a ea 3d 7a 68 06 3e
       0.14962892 -0.17776181 0.11442965 0.13125792
0000a0 d4 80 d2 bd 93 5f 03 3e ab b1 e2 3d 4c df e9 3d
       -0.10278478 0.12829427 0.11069044 0.114195436
0000b0 5f 3d 0a 3e 91 04 c0 bd c9 f0 fa bd 1f 07 44 bd
       0.13499974 -0.09375871 -0.122529574 -0.047858354
0000c0 b2 21 2a 3e 03 9d 94 3d 98 bd 59 3e 87 f5 18 3e
       0.16614416 0.0725651 0.2126373 0.14937411
0000d0 7f c1 1f bd 32 d1 4c 3d 55 16 c9 bd 6e 91 1b be
       -0.03900289 0.05000419 -0.098187126 -0.15192196
0000e0 0f 6e 83 bd ee ce 33 bd df c7 d1 bd 27 1e 6b bd
       -0.064174764 -0.043898515 -0.102432005 -0.057401802
0000f0 9c ad da bd e6 47 23 3e b0 b0 58 bd bd 2f 1f 3e
       -0.106776446 0.15945396 -0.052902877 0.15545554
000100 60 73 65 3c 31 55 55 be d0 fa 09 be 5b 92 3b 3e
       0.014004558 -0.20833279 -0.13474584 0.18317549
000110 b2 e1 8e 3d ed 8d d3 bd 0c c5 12 3d f0 49 25 be
       0.06976642 -0.103298046 0.03583245 -0.16141486
000120 a8 d4 05 be 30 63 1d bd 8c 77 2e 3d e0 c1 3b bd
       -0.13069403 -0.03842467 0.042594478 -0.04583919
000130 96 67 af 3d 80 f8 cd 3c f0 ee 1b be 55 60 5a be
       0.08564679 0.025142908 -0.15227866 -0.2132581
000140 c0 65 6c 3b a1 dc 32 be 65 c7 ed bd 26 0d 84 bd
       0.003607139 -0.17466976 -0.11610297 -0.0644782
000150 28 15 01 be 99 3c 3a 3e ec 41 67 bd 64 f6 2b bd
       -0.12605727 0.18187179 -0.056459352 -0.041983023
000160 bc 3d 18 be 12 02 49 be 7a 46 8b 3d 8a 30 e1 3d
       -0.148673 -0.19629696 0.06800552 0.10995586
000170 c0 8c 6c bd a0 e0 06 3d a4 82 2d be c0 b2 9a 3b
       -0.057751417 0.032929063 -0.16944367 0.0047210157
000180 91 3a 31 3e f0 1d 7a bd 71 e3 01 3e 2f 19 22 be
       0.17307498 -0.061063707 0.12684418 -0.1582992
000190 99 db 4b be f4 4d 51 3d 54 46 51 be 4a 01 8d bd
       -0.19907989 0.051099733 -0.20436984 -0.068850115
0001a0 e6 13 e8 3d a7 d1 4d 3e d3 1e 08 3e 10 83 3e bc
       0.1133192 0.20099507 0.13293009 -0.011627927
0001b0 68 27 10 bd 52 53 c1 3d f9 45 01 3e a5 00 10 be
       -0.03519383 0.0943972 0.12624349 -0.14062746
0001c0 03 58 03 be cd 83 c0 bd c0 62 f3 bd 86 fc 12 be
       -0.12826543 -0.09400139 -0.118840694 -0.14354143
0001d0 5e 2d a0 3d 2c 66 4d be 18 cf c5 bc ec 68 74 3d
       0.07821153 -0.20058507 -0.024146602 0.059670374
0001e0 e2 56 9e bd c0 fc be bd 40 29 43 bd cc 5d 2e bd
       -0.07731415 -0.09325552 -0.04764676 -0.04256992
0001f0 82 44 ee 3d 40 ff 66 bc 8c 98 be bd da 3d 10 be
       0.116341606 -0.014098942 -0.0930644 -0.14086094
000200 19 32 bc bd 21 ea 8e bd 13 b9 ec bd 6a 79 55 3e
       -0.09189243 -0.0697825 -0.115587376 0.20847097
000210 da 13 13 3e 28 69 3b be 42 ed 2c be 06 20 cc bd
       0.14363042 -0.18301833 -0.16887382 -0.099670455
000220 24 f7 e5 3c 61 75 0d 3e b7 7f 2e 3e e1 46 d0 3d
       0.028071947 0.13814308 0.17040907 0.10169769
000230 3b 3e 18 be 0f 35 46 bd 3d 20 3b bc 28 01 a0 bd
       -0.14867489 -0.048390444 -0.01142126 -0.078127205
000240 39 3f cb 3c f2 60 27 3c d2 af 1b 3e 23 60 4f 3e
       0.02481042 0.010215985 0.15203789 0.20251517
000250 69 fa 3c 3d 7d dd 4b be cd 7b 79 bc 16 4a 33 3d
       0.046137247 -0.1990871 -0.01522727 0.043771826
000260 55 06 0c be 51 22 4f bd 26 a1 34 be 1f 9b 1d 3e
       -0.1367429 -0.050569836 -0.17639598 0.15391205
000270 52 5c 39 be dd a2 11 3d 5c 5a 3d 3c 43 6b 15 be
       -0.18101624 0.03555571 0.011557188 -0.14591698
000280 44 8e 1a 3e a0 4f 67 bd 6a 0d 80 3c 9c 26 22 3d
       0.15093333 -0.05647242 0.015631396 0.039587602
000290 40 2c 4a bb f6 4d 96 bd 9b 9f 87 bd c5 c2 b6 3d
       -0.003084913 -0.073390886 -0.06622239 0.08923868
0002a0 cf 34 51 be fe 9b 99 3d 1e 7a 37 be 7b 96 58 3e
       -0.20430301 0.07500456 -0.17917678 0.21151154
0002b0 a9 97 e0 3d fc 93 c5 bd 4a dd 9b 3d 46 3a 5f 3e
       0.10966427 -0.096473664 0.07610567 0.21799573
0002c0 24 cc 80 3a 6d 6f 00 bd 6b e4 ff bc 05 d1 2d 3e
       0.0009826464 -0.031356264 -0.031236848 0.16974266
0002d0 8d 4b 12 3e 4e dd 5b 3e 01 b6 97 3d 87 66 91 bb
       0.14286633 0.2147114 0.07407761 -0.004437271
0002e0 cd eb 7a bd de b6 29 be a6 c1 18 bd 60 cb 4b bd
       -0.061260033 -0.16573665 -0.037294053 -0.0497545
0002f0 30 d1 4a 3e 5b e9 b0 bd 56 1f 20 be 5c b4 04 be
       0.19806361 -0.08638259 -0.15636954 -0.12959427
000300 d5 a6 23 3e fd 4b 33 be 69 ec 37 3e ab ed 20 be
       0.1598161 -0.17509456 0.17961277 -0.15715663
000310 68 9d b3 3d 2f 81 bf bc 7a 18 43 3e c9 6e 49 be
       0.08770257 -0.02337703 0.19052306 -0.19671167
000320 54 dd c9 3b 04 a9 8d bd a7 c1 c1 bd 49 33 3d bd
       0.0061604176 -0.06917003 -0.094607644 -0.046191487
000330 9c 51 2f 3e 84 ac 1b be c9 d7 97 bd 85 5a e4 3d
       0.17120975 -0.15202528 -0.074142046 0.11150078
000340 59 27 84 3c aa 65 dd 3d 84 52 ba bd 78 ac 04 bb
       0.016132044 0.108104065 -0.0909777 -0.00202444
000350 b6 a9 e1 3d df d9 ac bd 18 f5 59 3d e4 7b d9 3d
       0.11018698 -0.08439993 0.053212255 0.106193334
000360 65 36 02 3a fc 4d 15 bd b5 47 0b bd 32 89 47 3c
       0.0004967212 -0.036451325 -0.034003932 0.012178706
000370 9a 42 04 3d 0c bc 8b 3c f9 ce 75 3d 03 7b eb bd
       0.03229008 0.017057441 0.060011838 -0.11498072
000380 9c 80 98 3d 58 37 a3 3c 18 64 a2 bb 59 b8 38 3e
       0.07446405 0.01992385 -0.0049557798 0.18039073
000390 d4 ef 4b be 47 6f 0f be 41 7a 35 3e a2 b1 10 be
       -0.19915706 -0.14007293 0.17722417 -0.14130262
0003a0 50 43 00 3d 8d d7 0f 3e 25 29 55 3e 97 04 d9 3d
       0.031314194 0.1404707 0.20816477 0.105965786
0003b0 27 00 42 3e e6 71 32 3c 88 57 90 bd 25 b6 44 3d
       0.1894537 0.010891413 -0.07047945 0.04802527
0003c0 74 50 5f bc 97 39 54 3e e8 c1 03 bd e3 d5 16 3e
       -0.013630021 0.20725094 -0.032167345 0.14730029
0003d0 a8 dd 41 be cf c5 59 be 29 1b d1 bd ec 53 3d 3c
       -0.18932211 -0.21266864 -0.102102585 0.011555653
0003e0 29 ad e0 bd 46 5c 29 3e 96 f8 08 be a0 93 d1 3d
       -0.10970528 0.16539106 -0.13376078 0.10233235
0003f0 3b bf 0c 3e 15 03 bd 3d 42 f4 9c bc 78 b9 4e 3d
       0.13744824 0.092291035 -0.01915944 0.050469846

bias f4 [64]
000000 a4 2f b6 3b 0a d7 23 3c ba cb 68 3c 56 25 e9 3b
       0.0055598784 0.01 0.014208728 0.0071150465
000010 b2 e4 66 3c 0a d7 23 3c f0 63 d7 3b c4 57 6a 3c
       0.014092611 0.01 0.006573193 0.0143031515
000020 e1 a1 58 3c 0c ab 6e 3c ef ad 72 3c 6e d4 e0 3b
       0.013222189 0.014567148 0.014811977 0.006861261
000030 3a 30 c6 3b 86 bc cc 3b 2b d8 cc 3b 85 c2 5c 3c
       0.0060482295 0.0062480597 0.006251355 0.013474111
000040 be 65 d2 3b f8 d7 71 3c 55 e5 ce 3b 67 37 67 3c
       0.00642082 0.014760964 0.0063139596 0.01411233
000050 02 bc e0 3b 33 ed d3 3b 4a 9b 4d 3c 1e 42 e1 3b
       0.00685835 0.0064674853 0.012549231 0.006874337
000060 3c 33 6b 3c 3e e0 6b 3c 65 24 c8 3b 89 ba e4 3b
       0.014355477 0.014396725 0.006107854 0.0069802445
000070 88 48 cf 3b f6 a8 66 3c 50 71 6d 3c 0a d7 23 3c
       0.006325785 0.014078369 0.014492348 0.01
000080 75 66 65 3c be c3 d0 3b f9 f0 c5 3b df 00 69 3c
       0.014001478 0.0063709905 0.006040689 0.014221399
000090 2b 5a ce 3b 31 13 d9 3b 6d 26 a6 3b b9 ed d7 3b
       0.00629737 0.0066246022 0.0050704987 0.006589618
0000a0 00 ce da 3b c6 20 72 3c cd c3 2c 3c 0a d7 23 3c
       0.006677389 0.014778322 0.010544729 0.01
0000b0 15 f7 65 3c 6f 5a 5c 3c c3 e7 eb 3b 54 4e c5 3b
       0.01403596 0.013449295 0.007199259 0.0060213003
0000c0 20 7c 73 3c 61 44 6e 3c 19 44 c5 3b 17 bf 6e 3c
       0.014861137 0.01454267 0.0060200808 0.014571927
0000d0 0b 19 d9 3b e9 6d 65 3c 46 b9 e5 3b 3a 14 df 3b
       0.0066253 0.014003255 0.0070106117 0.006807831
0000e0 d1 a5 6b 3c 99 48 d9 3b 8d 8e d7 3b 58 86 67 3c
       0.014382795 0.006630969 0.0065782727 0.014131151
0000f0 89 84 59 3c ab b3 bd 3b 42 6f c7 3b d9 4f 6f 3c
       0.013276228 0.0057892404 0.006086261 0.0146064395

weight f4 [64, 64]
000000 e5 db c8 3b 12 f4 a4 3d f4 62 0e bc 9d d3 44 3e
       0.006129729 0.08054365 -0.008690584 0.19221349
000010 7a 0b 9b bd 86 48 b4 bd fe 0a 88 3d f3 9b 12 be
       -0.07570548 -0.08802895 0.066427216 -0.14317302
000020 9f 56 53 bb aa 4d a9 bd c8 b2 a1 3d 42 19 58 3a
       -0.0032247675 -0.08266766 0.07895428 0.000824351
000030 45 a2 58 be 4f d3 d7 bd be ac 07 be b8 74 4d be
       -0.21155651 -0.10538351 -0.1324949 -0.20064056
000040 3e 27 b7 3d 42 94 47 be 37 23 e4 3c 60 d8 8b bd
       0.08943032 -0.1949015 0.027848823 -0.0682838
000050 01 35 c7 3d 78 46 1b 3e dc 27 7d bc f2 69 ca 3d
       0.097269066 0.151636 -0.015451398 0.09883489
000060 20 1d 4d be a7 cd 13 3e c1 3e d6 3d 9d f6 b7 3d
       -0.20030642 0.14433919 0.10461188 0.089825846
000070 eb a6 b7 bd 2e 7d e4 bd 6f 1f 04 be 4c ef 61 bd
       -0.08967384 -0.11156689 -0.12902616 -0.055159852
000080 b1 db 3c be 47 f7 17 3e bc 94 2f 3c 3a 49 52 be
       -0.1844318 0.14840423 0.010716613 -0.20535746
000090 ec c9 d3 3d f9 b5 1b bc d1 31 34 3d 74 51 13 be
       0.10341248 -0.009503835 0.04399282 -0.1438654
0000a0 3a 49 9d 3d 3a d7 11 3d 9b bf fd bd f3 68 1f 3e
       0.076799825 0.035605647 -0.123900615 0.15567379
0000b0 dd 22 31 be d6 49 28 be d6 ea 23 be dc 63 0b bb
       -0.17298456 -0.16434416 -0.16007552 -0.0021269238
0000c0 14 59 46 be 91 7e 78 3d ff cc 56 be f5 a3 0e 3e
       -0.19369918 0.060667578 -0.20976637 0.13929732
0000d0 26 1c 49 3e c8 61 da 3d 9e d2 92 3d 08 f5 d3 3c
       0.19639644 0.106631815 0.07169078 0.025873676
0000e0 68 24 7f 3d 7e b3 c3 3c eb b3 24 be 17 ed 4c be
       0.06229058 0.0238893 -0.16084258 -0.20012318
0000f0 49 42 24 bb b6 e5 5f be 48 5d f9 3c f9 91 22 3d
       -0.0025063923 -0.21864972 0.030439988 0.03968999
000100 89 ce a1 3d 5f c5 0d be c0 f1 c9 3d 7c 70 87 bd
       0.079007216 -0.13844822 0.09860563 -0.066132516
000110 3c e0 38 be fd 9a f0 bd 5a fa 03 be 61 33 2b 3e
       -0.18054289 -0.11748312 -0.1288847 0.16718818
000120 5a b9 9b bd 9c 83 df 3d f6 60 88 bd 96 8f b4 bd
       -0.076037124 0.10913774 -0.06659119 -0.08816449
000130 3b b0 b0 3b fd 14 48 3e 88 ee 24 be 0f 7c 32 be
       0.005392102 0.19539256 -0.16106617 -0.17430137
000140 a9 92 bf 3d 39 f8 2a 3e 48 3e 40 3e 96 4c a5 3d
       0.09354145 0.16696252 0.18773758 0.08071248
000150 6f 75 ef 3d 93 de 5e be 07 df 98 bd 95 05 4f be
       0.116923206 -0.21764593 -0.07464414 -0.20216973
000160 ec c8 62 3d b1 34 41 be de cf 9c bb e7 fe 4d 3c
       0.055367395 -0.18867756 -0.004785522 0.0125729805
000170 34 74 51 3d 88 b6 16 be e4 57 33 3d 40 e8 cd 3c
       0.05113621 -0.14718068 0.04378499 0.02513516
000180 10 27 3a bd 9f 4b 26 be 62 17 00 be a3 b5 98 bc
       -0.04544741 -0.16239785 -0.1250892 -0.018641299
000190 1a e4 59 3e 55 58 20 3e ef 59 d2 3d 06 ff 14 bc
       0.2127842 0.15658696 0.1027106 -0.009094005
0001a0 ba 74 f6 3d b2 dc 91 bb 9f fe fe bd 06 58 85 3d
       0.120339826 -0.0044513578 -0.12450909 0.0651093
0001b0 3e 30 1e be 3a 05 63 bd 2f 71 19 bd c7 8a 48 be
       -0.1544809 -0.055424906 -0.037461456 -0.1958419
0001c0 9e ab d8 bd e5 9b 44 bd a8 e6 e9 3d 93 6e 76 3c
       -0.105796084 -0.048000235 0.11420947 0.015041011
0001d0 72 ea 09 be d9 96 3c be 44 d7 0a 3d 90 60 85 3d
       -0.1346834 -0.18416919 0.0338967 0.065125585
0001e0 ea 91 9e bc ab 5f 5a 3e ee 56 03 3e 98 a9 bc bc
       -0.019356687 0.21325557 0.1282613 -0.023030087
0001f0 4a 2d 4d bd aa d5 5f 3e 0a 89 55 3d 94 7d cb 3d
       -0.05009202 0.2185885 0.052132644 0.099360615
000200 b9 0c 73 bd 90 82 12 bc 4b 52 bc 3c 53 cc 46 3b
       -0.059338305 -0.008942261 0.02298846 0.003033419
000210 34 b9 fe 3c bd 62 07 3e da 20 21 3e 8e fb ec 3d
       0.031094171 0.1322126 0.15735188 0.11571418
000220 98 ed b1 bd fc 5b bf bd bb ab f0 3d 4b 21 2a bd
       -0.086878955 -0.093437165 0.11751505 -0.041535657
000230 05 95 42 3e 71 3b 2e bd cd 13 f5 bd 62 40 41 be
       0.19002159 -0.042537156 -0.11966667 -0.18872216
000240 b9 37 1b 3d 74 1f c1 bd f3 7d c0 bd c2 fb 2e 3d
       0.03789494 -0.09429827 -0.09399023 0.042720564
000250 19 2c a1 bc f7 a6 d7 3c 6b de 3c be 98 35 08 3e
       -0.019674348 0.026324732 -0.1844422 0.13301694
000260 a8 41 6e 3d 74 f5 4c 3e 4f d6 58 3e cb 2c 00 be
       0.058168083 0.20015508 0.21175502 -0.12517087
000270 71 77 20 3d 07 fb 16 3e 5e a1 4b 3e be 0e dd 3d
       0.03917641 0.14744197 0.19885775 0.107938275
000280 69 cf 93 3c 90 94 01 3e ca f9 16 3e 46 3c 17 bd
       0.018043237 0.12654328 0.14743724 -0.036922716
000290 84 b4 b9 3d ca 0f 00 3d 97 1e c7 bd 77 4a 2a be
       0.09067634 0.031265058 -0.097226314 -0.16629969
0002a0 35 69 51 3e fa 5d 3a 3e 5c 67 c4 3c 5d 84 41 3e
       0.2045029 0.18199912 0.023975067 0.18898149
0002b0 98 76 87 3c f5 ed 33 3e 43 fa 45 be fb cc f9 3d
       0.016536042 0.17571242 -0.19333749 0.121973
0002c0 48 0d 17 3e f2 a8 21 bd 75 e8 bb bd 57 0e ae bd
       0.1475116 -0.03946776 -0.09175197 -0.08498829
0002d0 85 aa b6 3d 77 33 a6 bc d6 70 82 3d 3e 96 0d be
       0.08919243 -0.020288212 0.06369178 -0.13826844
0002e0 e2 fb f4 bd fc 01 f5 3d a6 49 e1 bd f0 40 51 3c
       -0.11962105 0.11963269 -0.110003754 0.01277183
0002f0 eb 70 1b be f2 b8 13 be 5a 79 02 be f5 8d 8b 3d
       -0.15179794 -0.1442602 -0.12741604 0.068141855
000300 42 9e af 3d 97 8f 3f 3e 55 05 b4 bd b3 9b 37 3e
       0.08575107 0.18707119 -0.087900795 0.17930488
000310 ef 32 1d 3d 2f 9d 33 3e ca a2 a9 3c 2b 24 3e 3e
       0.038378652 0.1754043 0.020707507 0.18568484
000320 41 d3 62 bd 2a 82 cc bc 20 0d a8 bd df 5a 44 be
       -0.05537725 -0.02496441 -0.082056284 -0.1917529
000330 da 4f 57 3e c7 17 18 3e 86 54 1d bb a7 ba 4b be
       0.21026555 0.1485282 -0.0024006679 -0.19895421
000340 12 d3 07 3e 8c 0e 29 3e 45 1f e2 bc 6c 34 1a be
       0.1326411 0.16509455 -0.027602801 -0.1505906
000350 25 42 36 3e 40 80 d6 bd 81 dd 33 be 8c 5a 46 bd
       0.1779867 -0.104736805 -0.17564966 -0.048426196
000360 0c 19 4b be 07 bd 84 3d 8d a6 16 3e 9b 8a 12 be
       -0.19833773 0.064813666 0.14711972 -0.14310686
000370 5d 21 1a 3d 89 64 95 bd 2b a6 c3 3d 6d a8 18 3e
       0.037629474 -0.07294566 0.095531784 0.14908
000380 5a 52 53 3e 65 54 9b 3d eb 1b 74 3c 24 90 08 be
       0.20636883 0.07584456 0.014899234 -0.13336235
000390 ba 0b d2 bc c2 2e bf 3c 57 12 f5 bd fa 0c 15 be
       -0.025640357 0.023337726 -0.11966389 -0.14555731
0003a0 5e 6b 1d 3e 54 ff f9 3d 3f f8 07 be 32 67 d1 3d
       0.15372989 0.12206903 -0.13278292 0.10224761
0003b0 5e 24 d6 3d a4 4d 41 be ed ac 27 3e 8f 7b 25 3d
       0.10456155 -0.18877274 0.1637456 0.040401038
0003c0 c7 2c 0e be b9 03 82 3d 44 ac 98 bd 7c d4 b9 bd
       -0.13884269 0.06348366 -0.07454732 -0.09073731
0003d0 db ab a1 3d 3d 09 2e bd e2 a1 24 3e dd e3 5a 3d
       0.07894107 -0.04248928 0.16077378 0.053439964
0003e0 bd bb 5a bd 26 22 55 3e 72 63 69 3d cf 0e 5c bd
       -0.053401697 0.20813808 0.056979604 -0.05372506
0003f0 a8 dd a0 bd 08 ec 28 3d 15 2b 34 3e 4b 0f 46 be
       -0.078547776 0.041240722 0.1759456 -0.19341771

bias f4 [64]
000000 55 54 e6 3b 6a 7a 5f 3c c2 f8 64 3c 5d ed c5 3b
       0.007029096 0.013640026 0.013975324 0.006040259
000010 be 08 66 3c 2e f7 dc 3b 72 88 c6 3b 65 15 66 3c
       0.01404017 0.0067433333 0.006058746 0.014043187
000020 3a d0 d3 3b 88 7b ca 3b 9c f5 64 3c bc 89 66 3c
       0.0064640315 0.006179277 0.013974573 0.014070924
000030 25 2b c9 3b da dd 68 3c 36 3a 62 3c 27 40 c6 3b
       0.0061391764 0.01421305 0.013807824 0.006050128
000040 29 f5 db 3b d6 01 64 3c 02 63 c8 3b 24 10 73 3c
       0.006712575 0.013916453 0.0061153183 0.014835391
000050 cb 15 c7 3b ca cf 6e 3c 3d 28 ca 3b 60 47 58 3c
       0.006075596 0.014575908 0.0061693476 0.013200611
000060 b1 80 c8 3b 44 9a 5f 3c 6d c9 64 3c de 13 d6 3b
       0.006118857 0.01364762 0.013964039 0.00653313
000070 9e 9a 67 3c f4 43 65 3c 9b ff 6a 3c 3c 62 cf 3b
       0.014135985 0.013993252 0.014343168 0.006328849
000080 fc ae c4 3b 8c fc cc 3b 83 95 ca 3b 6f 39 d7 3b
       0.006002305 0.006255692 0.006182374 0.006568126
000090 18 40 67 3c 18 7c cf 3b 0e 9b cd 3b 55 70 c7 3b
       0.014114402 0.006331932 0.0062745875 0.006086389
0000a0 94 ff 65 3c 0a d7 23 3c 31 79 c5 3b 0a dc d3 3b
       0.014037985 0.01 0.00602641 0.0064654397
0000b0 4c 7e dd 3b 64 72 c8 3b 52 01 68 3c de 8b e6 3b
       0.0067594405 0.006117152 0.014160471 0.0070357164
0000c0 90 b9 64 3c 40 5f 69 3c 0a d7 23 3c db 28 70 3c
       0.013960257 0.014243901 0.01 0.014658178
0000d0 c9 91 c5 3b f0 ba 60 3c a2 bc 64 3c 09 c5 5a 3c
       0.006029342 0.013716444 0.013960989 0.013352641
0000e0 8f 13 c6 3b 04 75 c6 3b 7b 7a 6b 3c 48 f2 d4 3b
       0.006044812 0.00605643 0.014372463 0.0064986087
0000f0 cd 3b 68 3c dd 43 65 3c 4b 05 64 3c e2 4a 6c 3c
       0.014174414 0.013993231 0.013917278 0.01442215

weight f4 [1, 64]
000000 80 63 85 be 68 e4 2a 3e b0 ea 55 3d 3e 03 04 be
       -0.26052475 0.16688693 0.05222577 -0.12891862
000010 ff 11 89 3d cf 0d 32 bc b1 6a bc bd a1 3e 78 3d
       0.066928856 -0.01086755 -0.09200037 0.060606603
000020 1e 1c 8d be b8 c1 75 be 0c bb 8f 3d 2b f8 14 3d
       -0.27560514 -0.23999679 0.07018098 0.036369484
000030 17 7e af bc 3a dc 9b 3e 2a c0 5a 3e b0 93 7c be
       -0.021422429 0.30441457 0.21362367 -0.24665713
000040 8a b1 ef bd 3c 4f df 3d a7 1d 86 bc 3a fd 13 3e
       -0.11703785 0.10903785 -0.016371561 0.14452067
000050 19 16 21 bd 79 8b 87 3e 5f ba 8c be 3e 4d 99 3c
       -0.039327715 0.26473597 -0.2748594 0.01871359
000060 43 68 8d be b5 bb e5 3c 8b 2a 1c 3e 8e 3d a2 bd
       -0.27618608 0.028043607 0.15250604 -0.07921897
000070 d6 93 5b 3d 71 86 b1 3d 4c 65 58 3e 38 8d 43 bd
       0.053607784 0.08668221 0.21132392 -0.0477421
000080 19 f2 2b be 6b b3 93 bc 29 39 23 bd 3e b3 92 be
       -0.16791572 -0.01802989 -0.039849434 -0.28652376
000090 ae 3c bb 3d fc 5a cc bd 4c 11 52 be 3b 36 13 be
       0.09142433 -0.099782914 -0.2051441 -0.14376156
0000a0 9b a7 da 3c 7a f2 8b be 47 a8 77 be 83 7b 6a be
       0.026691249 -0.27333432 -0.24185286 -0.22898678
0000b0 21 63 05 bd 9c b7 7c be 6f 10 06 3e aa 64 2d be
       -0.03256524 -0.24679416 0.13092206 -0.16932932
0000c0 80 ee 86 3e 94 91 c6 3d 37 85 4b be 7f b6 a7 3d
       0.26353836 0.096957356 -0.19875036 0.08189105
0000d0 52 73 1d be 4b df 60 3e db e0 69 3e 13 9e 9f 3d
       -0.15376022 0.2196018 0.22839682 0.07793822
0000e0 7d 51 b2 bd b2 87 e2 bd 0f 68 95 3e 56 9f 97 bd
       -0.08706949 -0.11061038 0.29180953 -0.07403438
0000f0 0b 66 78 3e 0f 49 1b 3e b5 4f 26 3d 0b 18 dd 3c
       0.24257676 0.15164588 0.04060336 0.026989004
