models/1d-heat-pinn-1epochs-lr0.001-adam-x51-t1000-alpha1.22e-3.pt (torch, 56595 bytes, 9 tensors)

weight f4 [64, 2]
0	0xbe4aa29b	-0.19788592
1	0xbf25afb7	-0.64721245
2	0x3f303756	0.68834436
3	0xbf249306	-0.6428684
4	0x3ebbaba4	0.3665439
5	0xbe419e2f	-0.18907999
6	0xbf0c8d27	-0.5490288
7	0x3f1e9c9e	0.6195773
8	0x3f221988	0.6332021
9	0xbee38495	-0.4443709
10	0x3eab3a20	0.33442783
11	0x3dfd767a	0.12376113
12	0xbf0a9a21	-0.5414143
13	0xbdcb760e	-0.099346265
14	0x3ef176fc	0.4716109
15	0xbe845cd8	-0.25852084
16	0x3eaefa60	0.34175396
17	0xbe8be4b9	-0.2732294
18	0xbca50626	-0.020144533
19	0x3f258056	0.6464895
20	0xbe9518a1	-0.29120353
21	0x3eba12ac	0.3634237
22	0xbf2227b7	-0.6334185
23	0xbf120a4c	-0.5704696
24	0xbf33b524	-0.70198274
25	0xbebb25ef	-0.3655238
26	0x3f1ed77e	0.62047565
27	0xbf28bf1a	-0.659166
28	0xbd017e43	-0.031614553
29	0x3eb518fc	0.35370624
30	0xbdc0c4b2	-0.09412517
31	0xbee3059d	-0.4434022
32	0xbea4521f	-0.32093903
33	0x3d153003	0.03642274
34	0x3d8441a8	0.064578354
35	0xbdc4bab8	-0.09605926
36	0x3f22d042	0.63599026
37	0xbe63ec63	-0.22258143
38	0x3ccabde7	0.024748756
39	0xbe66f2fb	-0.22553627
40	0xbf10d04e	-0.5656785
41	0xbedf1032	-0.43567044
42	0x3f2dde8c	0.67917705
43	0x3f08f0fe	0.53492725
44	0x3ec24b90	0.37948275
45	0x3e8f1e5c	0.2795285
46	0x3ecfe1a8	0.4060185
47	0x3e33a981	0.1754513
48	0xbf32bf59	-0.69823223
49	0xbd84a11a	-0.0647604
50	0xbf10f451	-0.566228
51	0xbec69cae	-0.38791412
52	0x3edfe480	0.4372902
53	0xbf1aaff2	-0.6042472
54	0xbf207bcf	-0.62688917
55	0xbe6c68d5	-0.23086865
56	0xbf2800ac	-0.65626025
57	0x3ef4f184	0.47840512
58	0xbefa8720	-0.48931217
59	0x3f33cb92	0.702325
60	0x3cfc9039	0.03083049
61	0xbecd3e93	-0.40086803
62	0xbe8b034a	-0.27150947
63	0xbdaffb52	-0.085928574
64	0xbe859f37	-0.26098034
65	0xbbc230e4	-0.0059262384
66	0x3e7550e5	0.2395664
67	0x3f318354	0.69341016
68	0xbeba7a72	-0.36421543
69	0xbf0aab9d	-0.5416811
70	0x3ee39948	0.44452882
71	0x3e7c9721	0.24667026
72	0x3ef4f014	0.47839415
73	0x3e5b4d27	0.2141615
74	0x3e3f8db1	0.18706395
75	0x3d89619e	0.06708072
76	0x3f2e7378	0.6814494
77	0x3e8fc25e	0.28077978
78	0x3e9e68d8	0.30939364
79	0x3f31972e	0.69371307
80	0x3f05486a	0.5206362
81	0x3ebf9e74	0.37425578
82	0x3e2b74d1	0.1674378
83	0x3d49fafd	0.049311627
84	0xbd83f62a	-0.064434364
85	0xbf0a306e	-0.5398015
86	0x3dc00532	0.09375991
87	0x3f0eea20	0.55825996
88	0xbf17296d	-0.59047586
89	0x3e916db4	0.2840401
90	0x3cc8b1e7	0.024498893
91	0xbdbe2672	-0.092846766
92	0x3e5e12df	0.21686886
93	0xbe6c530b	-0.23078553
94	0x3f050d24	0.51973176
95	0x3d7e8f23	0.062148225
96	0x3ee4637c	0.4460715
97	0xbee06342	-0.43825728
98	0x3f28af94	0.6589291
99	0x3eb6e128	0.35718656
100	0x3efc0b5c	0.49227417
101	0x3e7fadf1	0.24968697
102	0x3e254c3f	0.16142367
103	0x3ee87808	0.45404077
104	0x3d309813	0.04311378
105	0x3f23bbfe	0.6395873
106	0x3ad5986d	0.0016296037
107	0xbe237ccf	-0.1596558
108	0x3ee6b1e0	0.45057583
109	0xbee4bc95	-0.44675127
110	0x3f1a37c2	0.6024133
111	0x3d970e56	0.07375781
112	0x3f18c88e	0.5968102
113	0xbed57b0f	-0.4169545
114	0xbea77755	-0.3270823
115	0xbf0782c1	-0.5293389
116	0x3ec3fd50	0.382792
117	0xbe8f16dc	-0.27947128
118	0xbed8fda2	-0.42381006
119	0xbeef1fa0	-0.46703815
120	0xbf315193	-0.692651
121	0xbf08147a	-0.53156245
122	0x3e2eb291	0.17060305
123	0xbef46198	-0.47730708
124	0x3f209b20	0.627367
125	0x3e92ec2c	0.2869581
126	0x3f13054a	0.57429945
127	0xbe92e777	-0.2869222

bias f4 [64]
0	0x3ef8d6b0	0.48601294
1	0x3e82c05c	0.25537384
2	0xbf144c75	-0.57929164
3	0x3f30bb3e	0.6903571
4	0x3e2ca6ef	0.16860555
5	0xba940a6e	-0.0011294612
6	0x3e89f002	0.26940924
7	0x3e9d9004	0.30773938
8	0x3e99f4e0	0.30069637
9	0x3eae142c	0.33999765
10	0x3dc0d87e	0.094162926
11	0x3f255fda	0.6459938
12	0xbf096e75	-0.5368417
13	0xbef16139	-0.47144488
14	0x3ec2bb08	0.3803332
15	0x3e85cd9c	0.2613343
16	0xbc158a0e	-0.009127153
17	0xbf0610d9	-0.5236946
18	0x3dc2b37e	0.09506892
19	0x3f2f8f9c	0.68578506
20	0xbef90408	-0.48635888
21	0xbe1abc1f	-0.15110825
22	0xbe9b085e	-0.3027982
23	0x3cb4813a	0.022034276
24	0xbf14b12a	-0.5808283
25	0xbee6334b	-0.44961008
26	0xbf100fe7	-0.56274265
27	0xbe9c2c6c	-0.3050264
28	0xbf1b7585	-0.60726196
29	0xbe181a7b	-0.14853851
30	0xbe7f7873	-0.24948291
31	0x3ec02544	0.3752843
32	0x3e1e4d8f	0.15459274
33	0xbf01baab	-0.5067546
34	0x3ef5f6b4	0.48039782
35	0x3f013780	0.5047531
36	0x3f22e970	0.6363745
37	0xbddcbb7e	-0.10777949
38	0xbd8c20be	-0.068421826
39	0xbddeda3a	-0.10881467
40	0xbd1e795d	-0.03868996
41	0xbd77053d	-0.06030773
42	0xbf09b867	-0.53797
43	0x3c30ba8d	0.010786665
44	0x3ea438d0	0.32074594
45	0x3e8bde1c	0.27317894
46	0x3ea34ee4	0.31896126
47	0x3ec99e80	0.39378738
48	0xbf23b89c	-0.63953567
49	0xbf071947	-0.52772945
50	0x3db0844e	0.08618985
51	0x3ed9d4b8	0.42545104
52	0xbe984855	-0.29742685
53	0x3f1e3934	0.61806035
54	0x3d813d0e	0.063104734
55	0xbf032d81	-0.5124131
56	0xbe488f5f	-0.19585942
57	0xbec2e404	-0.38064587
58	0xbe0bedbb	-0.13664906
59	0xbeeb4fe2	-0.45959383
60	0x3e475bc3	0.19468598
61	0x3ecc7068	0.3992951
62	0x3f342490	0.7036829
63	0x3e130ec1	0.14361097

weight f4 [64, 64]
0	0x3decdf90	0.11566079
1	0xbd58a5cf	-0.052892502
2	0x3da4296a	0.080157116
3	0xbdc8a53a	-0.097971395
4	0x3def48e2	0.11683823
5	0xbd39cc9f	-0.045361158
6	0x3d6ba689	0.057531867
7	0x3d8031c8	0.06259495
8	0xbd80c89a	-0.06288262
9	0x3dc0426a	0.093876675
10	0x3da0f6d0	0.07859576
11	0x3c4e6312	0.012596862
12	0x3dc82e2c	0.097744316
13	0x3d5ed899	0.054405782
14	0xbdd62e0a	-0.10458
15	0xbda3fc32	-0.08007087
16	0x3db66278	0.089055
17	0x3d5b37f4	0.053520158
18	0xbdc36390	-0.095404744
19	0x3df10cf2	0.11770047
20	0xbca75527	-0.020426346
21	0xbd715f2d	-0.058928657
22	0x3b4538b6	0.0030093617
23	0xbbf2ae9b	-0.0074060685
24	0xbde55964	-0.111986905
25	0x3d65a5e1	0.056066398
26	0x3d913662	0.07090451
27	0x3d7145e1	0.058904532
28	0x3d0d93af	0.03456467
29	0x3d76e513	0.060277056
30	0xbdf0572c	-0.11735377
31	0xbd7a38bf	-0.061089274
32	0x3d83af8a	0.06429966
33	0xbdccddda	-0.10003252
34	0x3d98079a	0.07423325
35	0xbdfa0024	-0.12207058
36	0x3d218791	0.039435927
37	0xbdccec9a	-0.10006066
38	0xbdc58926	-0.096452996
39	0x3d83adcc	0.064296335
40	0xbcc85ff9	-0.024459826
41	0x3db5d816	0.08879106
42	0x3db0be08	0.086299956
43	0x3d86207e	0.06549166
44	0x3dfcb794	0.12339702
45	0x3db9485a	0.09047003
46	0xbdb78b0a	-0.089620665
47	0xbd7e98ff	-0.062157627
48	0x3d8f9ada	0.070119575
49	0xbdea6782	-0.11445524
50	0xbd4f17e3	-0.05055989
51	0x3d19af43	0.03752066
52	0xbd81f92c	-0.06346354
53	0x3d6aaf85	0.057296295
54	0x3d0046ed	0.03131764
55	0xbda8f1de	-0.082492575
56	0xbd33f8bb	-0.04393838
57	0x3de70e56	0.11282031
58	0xbd8b23a8	-0.0679391
59	0x3b903c44	0.0044017155
60	0x3c6c6b82	0.014429929
61	0x3cd72971	0.026264878
62	0x3daba80e	0.08381663
63	0x3dc14d98	0.09438628
64	0x3dbf6234	0.09344903
65	0x3d1e6caf	0.038677868
66	0x3ce6cd0f	0.028173951
67	0xbdebd996	-0.115161106
68	0x3d11a3fb	0.035556775
69	0x3d8382aa	0.064214066
70	0xbdbf0a48	-0.09328133
71	0x3d84bd20	0.06481385
72	0x3d78cbcf	0.060741242
73	0xbd1064df	-0.03525245
74	0xbd1d3863	-0.038383853
75	0x3c73f76e	0.014890535
76	0xbca946b9	-0.020663606
77	0x3d3678b3	0.0445487
78	0x3d9752f4	0.07388869
79	0xbd826fee	-0.06369005
80	0x3df9458a	0.12171467
81	0xbd953a9c	-0.072865695
82	0xbd34653d	-0.04404186
83	0xbdc9f64c	-0.098614305
84	0x3d88ac4e	0.066734895
85	0xbce553a9	-0.027993994
86	0xbd136d75	-0.03599306
87	0x3badb81c	0.0053014886
88	0x3d3582af	0.044314083
89	0x3de5b260	0.11215663
90	0xbcc0b489	-0.023523586
91	0xbcfe7899	-0.031063365
92	0x3ddc8ba1	0.107688196
93	0x3dab4cc8	0.08364254
94	0x3dacd37a	0.084387735
95	0x3da26c0e	0.07930766
96	0x3d03c6df	0.03217208
97	0x3ddabb18	0.106802166
98	0x3d340a0f	0.043954905
99	0x3c3f80ee	0.011688454
100	0xbd0760d9	-0.033051345
101	0xbc8b3f21	-0.016997876
102	0x3d700bc3	0.058604967
103	0x3b2ddcf0	0.0026529394
104	0x3dee99c0	0.11650419
105	0x3dac95d2	0.084270135
106	0x3c56e05e	0.013115017
107	0x3cf09f7f	0.029372929
108	0xbd37f3f5	-0.04491039
109	0xbd5fd659	-0.054647777
110	0x3b87d21c	0.00414492
111	0x3ba80b5b	0.005128307
112	0x3dfbdc90	0.12297928
113	0xbdcc9cda	-0.099908546
114	0xbc7b9702	-0.015355827
115	0xbd5b6449	-0.053562436
116	0x3db79c7a	0.089653924
117	0xbd55a959	-0.052163456
118	0xbd3fd649	-0.046835218
119	0x3d59aadf	0.05314147
120	0x3df9a61c	0.12189886
121	0xbd80acf0	-0.06282985
122	0x3e004d0b	0.1252939
123	0xbc2a9b32	-0.010412978
124	0xbdbd7108	-0.092500746
125	0xbce814c9	-0.028330224
126	0x3db057a4	0.08610466
127	0x3d833a20	0.06407571
128	0x3d58fc8f	0.052975234
129	0x3d9a1c64	0.07524946
130	0x3c02212c	0.007942479
131	0xbd58758f	-0.052846488
132	0x3db6664e	0.08906232
133	0xbda45b4c	-0.08025226
134	0xbd6e7181	-0.058213715
135	0x3dc42fde	0.095794424
136	0x3c50f59e	0.012753872
137	0xbd0be2ef	-0.034151968
138	0xbca74ff7	-0.020423872
139	0x3d5b3b4b	0.053523343
140	0xbca2dcf9	-0.019880759
141	0x3d40e297	0.047091093
142	0x3dc3cc2a	0.095604256
143	0x3d1dff77	0.03857371
144	0x3df89424	0.121376306
145	0xbcf26140	-0.029587388
146	0xbd7b049f	-0.061283704
147	0xbda36c3a	-0.07979627
148	0x3df29cd4	0.11846319
149	0xbd9f69d2	-0.077838555
150	0xbdee21ba	-0.116275266
151	0xbd0c002b	-0.034179848
152	0x3db72f80	0.08944607
153	0xbca83901	-0.020534994
154	0x3dba4e04	0.090969115
155	0xbd809cca	-0.06279905
156	0xbde4332c	-0.11142573
157	0xbd1b47c3	-0.037910234
158	0x3d9193d2	0.071082726
159	0xbdd13260	-0.102146864
160	0xbde8ad6c	-0.113612026
161	0x3d1628c1	0.03665996
162	0xbd591a0d	-0.05300336
163	0x3d63aff9	0.055587742
164	0x3dafaf3e	0.08578347
165	0xbd878992	-0.06618036
166	0x3cc46ae1	0.023976745
167	0x3deb91fc	0.11502454
168	0xbd986c1a	-0.07442494
169	0x3d072c4f	0.03300124
170	0x3db775c8	0.08958012
171	0x3da57b16	0.080801174
172	0x3d836bf2	0.06417073
173	0x3d66cf7b	0.056350213
174	0xbdb4cfac	-0.08828673
175	0x3d9dcf0c	0.07705507
176	0xb85b8d80	-5.234545e-05
177	0xbdfeb2ae	-0.12436424
178	0xbded3e82	-0.11584188
179	0x3d739671	0.059469644
180	0x3d019399	0.0316349
181	0xbdccd264	-0.10001066
182	0x3dc39aba	0.09550996
183	0xbd2072f5	-0.03917213
184	0xbdb2bed0	-0.08727801
185	0xbdd26690	-0.102734685
186	0x3d3ef146	0.046616815
187	0x3dbedb04	0.09319118
188	0xbd8a285c	-0.06745979
189	0xbd86d780	-0.06584072
190	0x3cb79191	0.022408279
191	0xbd223fc6	-0.0396116
192	0xbdb9d2d2	-0.09073414
193	0xbdc3e33c	-0.09564826
194	0xbdbc90e8	-0.09207326
195	0xbdd0abe2	-0.10189034
196	0x3be76de5	0.007062661
197	0xbd3c2898	-0.04593715
198	0x3d050d41	0.032483343
199	0xbc81bcf7	-0.015837176
200	0xbd4c0267	-0.04980698
201	0xbde22b4a	-0.11043413
202	0x3c8fb8ec	0.017544232
203	0xbdb944ee	-0.090463504
204	0x3cea5b51	0.028607996
205	0x3ddd0d56	0.10793559
206	0x3deaaa5c	0.11458275
207	0x3d98cee8	0.07461339
208	0xbde703cc	-0.11280021
209	0xbdaa4dbc	-0.08315608
210	0xbd75104b	-0.05982999
211	0x3dc99922	0.09843661
212	0xbdc3c82a	-0.09559663
213	0xbdae379e	-0.08506702
214	0xbcc23e68	-0.023711398
215	0xbddc5096	-0.10757558
216	0x3defc7a8	0.11708003
217	0xbdf52e64	-0.11971739
218	0xbd56ce58	-0.05244288
219	0xbc3f032e	-0.011658473
220	0xbdb70bae	-0.089377746
221	0xbd055771	-0.032554094
222	0x3d644b55	0.055735905
223	0x3c8361d9	0.016037868
224	0x3cf3dc79	0.029768215
225	0x3caf6908	0.021412387
226	0x3dfc9540	0.12333155
227	0x3c559be3	0.013037655
228	0xbcbcb0ff	-0.023033617
229	0x3dbcbe70	0.092160106
230	0xbd024a44	-0.031809106
231	0xbbe20da0	-0.006898597
232	0xbd982850	-0.07429564
233	0x3da5340c	0.08066568
234	0x3cbfde12	0.023421321
235	0x3d306fac	0.04307525
236	0xbd25d523	-0.040486466
237	0x3d330d69	0.04371396
238	0x3d58ab49	0.052897725
239	0x3dd51800	0.10404968
240	0x3df28aee	0.11842905
241	0x3ddce538	0.107859075
242	0xbc254f4e	-0.0100897085
243	0xbdf7eea4	-0.12106064
244	0x3da03090	0.078217626
245	0x3db63ccc	0.08898315
246	0xbd854ab2	-0.065083876
247	0xbdb5e200	-0.08880997
248	0xbda3e5f2	-0.08002843
249	0xbddd6e44	-0.10812047
250	0xbdb0b12d	-0.086275436
251	0xbcfb038f	-0.030641345
252	0x3df0ed94	0.117640644
253	0x3c8f5e69	0.017501073
254	0x3da22388	0.07916933
255	0xbdfe451c	-0.12415525

bias f4 [64]
0	0x3ddd5116	0.108064815
1	0x3d6d4007	0.05792239
2	0x3d9fa882	0.07795812
3	0xbddbb732	-0.10728301
4	0x3dfb52f4	0.122716814
5	0xbdedddfa	-0.11614604
6	0x3ddc8bb4	0.10768834
7	0xbdf02316	-0.11725442
8	0x3dace4b4	0.08442059
9	0xbde1fe26	-0.11034803
10	0x3d863130	0.065523505
11	0xbd43148c	-0.047627017
12	0xbddab616	-0.106792614
13	0xbc60d0fe	-0.013721703
14	0xbdfec5fe	-0.12440108
15	0xbc2c67b2	-0.01052277
16	0x3d275109	0.040848766
17	0xbdac34d8	-0.08408517
18	0xbdbe4dba	-0.09292169
19	0xbdaa4112	-0.083131924
20	0xbc6df50d	-0.014523757
21	0xbbb7bbbc	-0.0056070965
22	0x3b7be237	0.0038434395
23	0x3dcd0122	0.10009982
24	0xbc7ec640	-0.015550196
25	0x3d011541	0.03151441
26	0xbc1655de	-0.009175746
27	0xbdfc245a	-0.12311621
28	0xbdfb7064	-0.12277296
29	0xbcc3dfb7	-0.023910386
30	0xbd971724	-0.073774606
31	0xbd91c830	-0.07118261
32	0x3d281b5d	0.04104172
33	0x3cdc202f	0.026870815
34	0xbc975339	-0.0184723
35	0xbdb81330	-0.08988035
36	0x3df63156	0.12021129
37	0x3d824e98	0.06362647
38	0xbde7ec7e	-0.11324404
39	0x3b45f78a	0.003020736
40	0x3d00ba81	0.031427864
41	0xbc38f4de	-0.01128885
42	0x3db22668	0.08698732
43	0xbdcd2410	-0.10016644
44	0x3badf385	0.005308571
45	0xbdab3c5e	-0.083611235
46	0x3dfc0948	0.12306458
47	0xbb81dcbc	-0.003963081
48	0x3badd55c	0.0053049754
49	0xbd94f138	-0.07272571
50	0xbd59acc3	-0.053143274
51	0xbd80e7f6	-0.06294243
52	0x3cffd3e1	0.031228961
53	0xbd601277	-0.05470511
54	0x3db7d946	0.089769885
55	0xbd135bd5	-0.03597625
56	0x3db7f2f0	0.089818835
57	0xbdf7cac0	-0.12099218
58	0xbd5c7bdb	-0.053829055
59	0xbd09666f	-0.033544954
60	0xbdb8bad8	-0.090200126
61	0xbdfda244	-0.12384465
62	0xbcd87431	-0.026422592
63	0x3dda0e0a	0.10647209

weight f4 [64, 64]
0	0x3cf9e1f9	0.03050326
1	0xbd9fad54	-0.077967316
2	0xbd10d90d	-0.035363246
3	0xbcc5f8a9	-0.024166422
4	0x3b769f49	0.0037631562
5	0x3dd34852	0.103165284
6	0x3d383e83	0.04498149
7	0xbd103f70	-0.03521675
8	0xbdb268e4	-0.087114125
9	0x3da502fe	0.08057211
10	0xbd049eb5	-0.032377917
11	0xbde8ac04	-0.113609344
12	0x3de02758	0.10945004
13	0xbd3582db	-0.044314247
14	0xbd08b0bd	-0.033371676
15	0x3deb2144	0.11480954
16	0x3d6bd565	0.057576556
17	0x3d194935	0.03742333
18	0xbc4bbd08	-0.012435205
19	0xbc7933d0	-0.015210107
20	0xbc3f82b3	-0.011688876
21	0x3d2141a2	0.039369233
22	0xbbf24b1c	-0.0073942076
23	0xbd4001c8	-0.0468767
24	0x3d5355cc	0.051595494
25	0x3ddd29d8	0.10798997
26	0xbd235351	-0.03987438
27	0x3db976ce	0.09055863
28	0xbdd0f67e	-0.10203265
29	0xbd864e3c	-0.06557891
30	0xbdc0d262	-0.09415127
31	0x3d88cd5e	0.06679796
32	0x3d9b8b3f	0.075949185
33	0xbdfb74d6	-0.12278144
34	0xbd9b841e	-0.07593559
35	0xbd173f6c	-0.03692572
36	0xbdcd57d0	-0.100265145
37	0xbbd16940	-0.0063907206
38	0xbd9e231c	-0.0772154
39	0xbd81ad2c	-0.06331858
40	0x3dc60132	0.09668197
41	0xbd909ade	-0.070607886
42	0xbdcffb7e	-0.1015539
43	0xbd3f8fe0	-0.04676807
44	0xbd25a291	-0.04043824
45	0xbdf0e36a	-0.11762126
46	0xbbac6605	-0.005261185
47	0xbda5f018	-0.08102435
48	0x3ddb8ce8	0.10720235
49	0x3d9ad1be	0.075595364
50	0xbdae4f94	-0.08511272
51	0x3ddb6b98	0.10713881
52	0x3dfd78e2	0.12376572
53	0xbcb02337	-0.021501167
54	0xbd173191	-0.036912505
55	0x3cea1881	0.028576137
56	0x3dae294e	0.08503972
57	0x3d8bc2f8	0.06824297
58	0xbdfa3180	-0.122164726
59	0x3dd724b0	0.105050445
60	0x3d3a154c	0.045430467
61	0x3ddd22c8	0.107976496
62	0xbd25729b	-0.0403925
63	0x3db8d352	0.09024681
64	0xbcfbc301	-0.030732634
65	0x3d833164	0.06405905
66	0xbdfaaf58	-0.122404754
67	0x3dade3be	0.08490704
68	0x3d7b40e7	0.061341193
69	0x3ca12b7f	0.01967406
70	0xbd4412d5	-0.047869522
71	0x3d8d6754	0.06904474
72	0xbd62d0b5	-0.05537482
73	0xbc613dee	-0.013747675
74	0x3de9bd86	0.11413102
75	0x3dd557f0	0.10417163
76	0x3bf3551c	0.0074259173
77	0xbde63176	-0.11239903
78	0xbd809b22	-0.06279589
79	0x3e00b1cb	0.12567823
80	0xbc9acbf1	-0.018896075
81	0x3c90b2ef	0.017663447
82	0xbc8aecc7	-0.016958607
83	0xbd81245a	-0.06305762
84	0x3dc81360	0.097693205
85	0x3dede638	0.11616176
86	0x3de0f660	0.10984492
87	0x3dbaf7ae	0.091292724
88	0xbd654b3c	-0.055979952
89	0x3d773157	0.06034979
90	0xbc8efbd1	-0.01745406
91	0x3df85988	0.12126452
92	0x3d222801	0.039588932
93	0xbd7fc58d	-0.06244426
94	0x3aac7780	0.0013158172
95	0x3cd96668	0.026538089
96	0x3dac93ca	0.08426626
97	0x3d89fa74	0.06737223
98	0x3d7c04ad	0.061527897
99	0x3d8311f4	0.06399909
100	0x3d887854	0.06663576
101	0xbd46f537	-0.0485737
102	0xbc96aa69	-0.018391805
103	0xbd8098aa	-0.06279118
104	0xbdeb9bb2	-0.11504306
105	0xbd185955	-0.03719457
106	0xbd8ce5fc	-0.068798035
107	0x3d3bce04	0.04585077
108	0xbda435d2	-0.08018078
109	0xbde084c2	-0.109628215
110	0xbcda50a9	-0.02664979
111	0x3d394593	0.045232367
112	0x3d140147	0.03613403
113	0x3d79db80	0.061000347
114	0xbdc79e1e	-0.09746955
115	0xbced46d8	-0.028964445
116	0xbd205bdd	-0.039150108
117	0xbd5030e1	-0.050827865
118	0xbcade9b9	-0.021229612
119	0x3df58710	0.11988652
120	0x3dc4e4e2	0.096139684
121	0x3d97143e	0.07376908
122	0x3d628c4f	0.05530959
123	0x3adf6b6f	0.0017045568
124	0xbdca3cb8	-0.098748624
125	0xbdf45590	-0.11930382
126	0x3da99057	0.08279484
127	0x3d462f9b	0.048385244
128	0xbda42f54	-0.080168396
129	0x3dee194c	0.11625919
130	0x3dc33274	0.095311075
131	0x3dff7bf9	0.12474818
132	0x3df392e0	0.118932486
133	0xbde6663a	-0.11249967
134	0xbd9d0b70	-0.07668197
135	0xbcc7ada1	-0.024374785
136	0x3cafa7c7	0.021442307
137	0x3df9c042	0.121948734
138	0x3dcd99ce	0.100391015
139	0xbde69956	-0.11259715
140	0x3d92159e	0.071330294
141	0xbd2acd65	-0.041699786
142	0xbd9a6cd4	-0.075402886
143	0xbcbe11c1	-0.023201825
144	0xbdd263c4	-0.10272935
145	0x3d6828e3	0.056679618
146	0x3d4540ef	0.04815763
147	0x3d8cfad2	0.06883778
148	0x3d354162	0.044251807
149	0x3dbe6578	0.092966974
150	0xbd76f6d1	-0.060293976
151	0x3dacf204	0.08444598
152	0x3d13ab20	0.03605187
153	0x3d34af27	0.04411235
154	0x3d8dff94	0.06933513
155	0xbc20de12	-0.009818571
156	0x3cb2533f	0.02176821
157	0xbd2ab5d5	-0.041677315
158	0xbdca8e06	-0.0989037
159	0xbd86bc70	-0.0657891
160	0x3c60afd3	0.013713795
161	0xbd677c5d	-0.056515086
162	0x3d23ead7	0.040018883
163	0x3d1e0ba0	0.038585305
164	0xbd9142f2	-0.07092847
165	0xbd6d8395	-0.057986815
166	0x3dbfb54e	0.09360753
167	0x3d78e6b3	0.060766887
168	0x3d367237	0.044542518
169	0xbc84ce29	-0.016211586
170	0xbda4d264	-0.08047941
171	0x3dd0244c	0.10163173
172	0x3d9a2c58	0.07527989
173	0x3df9e414	0.122017056
174	0xbc881311	-0.016610654
175	0x3d33f3e7	0.043933775
176	0x3d71119f	0.058854695
177	0x3cf133d8	0.029443666
178	0xbdbe3baa	-0.09288724
179	0xbbf0e9c0	-0.007352084
180	0x3d9fd0e2	0.07803513
181	0xbdde2a92	-0.108479634
182	0x3dedb68c	0.11607084
183	0xbd2ebf05	-0.04266264
184	0xbbec6e65	-0.0072153085
185	0x3cd8761f	0.026423512
186	0xbde11aa8	-0.109914124
187	0x3d26093b	0.040536147
188	0x3dbec41a	0.09314747
189	0x3d911d96	0.07085721
190	0xba773b26	-0.0009431116
191	0x3dcf7b7c	0.10130975
192	0x3d49c589	0.04926065
193	0xbda940b8	-0.08264297
194	0xbd2479c1	-0.040155176
195	0x3c4d1dcd	0.012519312
196	0xbd8edd00	-0.06975746
197	0xbd0d41e7	-0.034486677
198	0x3db54cd6	0.08852546
199	0xbd7169ef	-0.058938917
200	0xbddcb2d8	-0.10776299
201	0x3d98ca20	0.07460427
202	0x3d8dc2d6	0.06921928
203	0x3d932d00	0.071863174
204	0xbdfdf650	-0.12400496
205	0x3de5059a	0.11182709
206	0xbd3d9279	-0.046282265
207	0xbc80cd57	-0.015722914
208	0x3d8b0dee	0.06789766
209	0xbd2beb15	-0.04197224
210	0xbda8d144	-0.08243039
211	0x3ddffbf2	0.10936727
212	0xbc23fae2	-0.010008546
213	0x3d88e3aa	0.066840485
214	0xbc90be57	-0.017668886
215	0xbdf12212	-0.117740765
216	0xbdf19a6a	-0.1179703
217	0x3c348f32	0.011020469
218	0x3cb6c690	0.022311479
219	0x3dabdc70	0.083916545
220	0x3d6dbbef	0.058040556
221	0xbd19a35b	-0.037509304
222	0xbdfa576c	-0.12223706
223	0x3a476c00	0.0007607341
224	0xbdbd44e4	-0.092416555
225	0x3d2dcff1	0.042434637
226	0x3c31165e	0.010808555
227	0x3d9f1806	0.07768254
228	0xbc49ad82	-0.012309434
229	0xbdfa4f10	-0.12222111
230	0xbcc6ad60	-0.024252594
231	0xbdefaa80	-0.11702442
232	0xbddbe4e4	-0.10737017
233	0xbdc626c8	-0.09675366
234	0x3dda02bc	0.10645053
235	0xbc13c2d0	-0.009018615
236	0xbde7c120	-0.113161325
237	0xbd9f054c	-0.07764682
238	0xbd1244ef	-0.03571027
239	0x3dc5b8fa	0.09654422
240	0xbcfe5627	-0.03104694
241	0xbc9647c8	-0.018344775
242	0x3d71faa1	0.05907691
243	0xbdbee49a	-0.09320946
244	0xbd178e67	-0.03700104
245	0xbd4992d3	-0.049212288
246	0x3db0eeb0	0.08639276
247	0x3d455201	0.04817391
248	0xbdf2f6b8	-0.11863464
249	0xbda36b38	-0.07979435
250	0xbd025041	-0.031814817
251	0x3b671d09	0.003526511
252	0x3d810a1c	0.06300756
253	0xbde08e48	-0.10964638
254	0xbd1af2e1	-0.037829284
255	0x3db9a78c	0.0906516

bias f4 [64]
0	0x3abb6312	0.0014296493
1	0x3dd8d51a	0.10587521
2	0x3cd11677	0.025523407
3	0xbc34e8fe	-0.011041878
4	0x3de877be	0.11350964
5	0x3d90359a	0.07041474
6	0x3d913f26	0.07092123
7	0xbd7200bc	-0.05908273
8	0xbc3bb64e	-0.011457039
9	0x3d40c2bf	0.047060724
10	0xbc7a1b52	-0.015265303
11	0xbd808eea	-0.06277259
12	0x3d3d026d	0.04614489
13	0x3ccccb11	0.024999173
14	0xba379026	-0.0007002376
15	0x3c6169f2	0.0137581695
16	0xbdbdb5aa	-0.09263165
17	0x3df40894	0.11915699
18	0xbd0f3a25	-0.03496756
19	0xbd80c82c	-0.0628818
20	0x3d65912b	0.056046646
21	0xbd8404f6	-0.06446259
22	0xbd0cec35	-0.034404952
23	0xbd88fe1c	-0.066890925
24	0xbc133192	-0.008983986
25	0x3dbea3a0	0.09308553
26	0xbd9f918e	-0.07791434
27	0x3cc186e9	0.0236239
28	0x3de913bc	0.11380717
29	0xbd23046f	-0.03979915
30	0x3d595a17	0.053064432
31	0x3d8b8de6	0.06814174
32	0x3a88c1ed	0.0010433771
33	0xbdcf5fe8	-0.101257145
34	0x3cd56e59	0.026053594
35	0x3dd2e990	0.10298455
36	0x3db41722	0.08793475
37	0xbde5521c	-0.11197302
38	0xbd918fd6	-0.07107513
39	0x3d67cbd3	0.056590866
40	0x3de9cb22	0.11415698
41	0xbdb4707e	-0.08810519
42	0xbd3b4c30	-0.045726955
43	0x3dd26c24	0.102745324
44	0x3cbf5139	0.02335416
45	0xbda0b04c	-0.07846126
46	0x3b9c551b	0.0047708875
47	0x3de34e9e	0.110989794
48	0xbd8f5568	-0.06998712
49	0xbdd5ad54	-0.1043345
50	0x3ce78cef	0.028265445
51	0x3d891a28	0.06694442
52	0xbdf2d454	-0.118569046
53	0x3d563a6b	0.052301805
54	0xbcce3168	-0.025170043
55	0x3dd0e156	0.101992294
56	0x3dd06562	0.10175587
57	0xbc77bbbe	-0.015120445
58	0x3c46f6a2	0.012143763
59	0xbcdd6b71	-0.027028771
60	0x3dd93b2a	0.10606988
61	0xbd9b69c8	-0.075885355
62	0xbd549103	-0.051896106
63	0x3e008031	0.12548901

weight f4 [64, 64]
0	0x3c0533e0	0.008130044
1	0xbd8e6352	-0.069525376
2	0x3d372c04	0.04471971
3	0x3db7ec68	0.08980638
4	0x3d99e6ea	0.075147465
5	0x3c724960	0.014788002
6	0xbdddd28e	-0.10831176
7	0xbdc1c872	-0.0946206
8	0xbdaf5108	-0.08560377
9	0xbd577a30	-0.05260676
10	0xbd96ee3e	-0.0736966
11	0xbddd63ac	-0.108100265
12	0x3c546330	0.012963101
13	0x3d8db312	0.069189206
14	0x3df6ba72	0.1204728
15	0xbd594424	-0.0530435
16	0x3d469c7c	0.04848908
17	0x3d8fb200	0.07016373
18	0xbd3ffd70	-0.046872556
19	0x3dec3822	0.11534144
20	0x3daf5546	0.085611865
21	0x3dd687b0	0.10475099
22	0xbd9c608a	-0.07635601
23	0x3dcb9a3a	0.09941526
24	0x3d999024	0.07498196
25	0x3de3a61a	0.11115666
26	0x3dd1610a	0.10223587
27	0xbdff58ea	-0.12468131
28	0x3d842a6e	0.06453405
29	0xbde1aafa	-0.11018939
30	0x3d247e54	0.04015954
31	0x3de3306c	0.1109322
32	0x3ddba57a	0.107249215
33	0xbd89fa62	-0.0673721
34	0xbd617040	-0.05503869
35	0x3d9d3050	0.076752305
36	0xbda105a2	-0.078624025
37	0x3dcb80f8	0.09936708
38	0xbd9aefda	-0.07565279
39	0x3db14304	0.0865536
40	0x3baceb40	0.0052770674
41	0xbc85b200	-0.016320229
42	0x3c4a8680	0.012361169
43	0x3d3ab1a4	0.045579568
44	0xbddc9112	-0.107698575
45	0x3d9d5e08	0.07683951
46	0xbdbdd954	-0.09269968
47	0xbdd57426	-0.10422544
48	0xbd9dbfb2	-0.077025786
49	0x3d45e544	0.048314348
50	0x3d4f0b70	0.050548017
51	0xbdffc260	-0.12488246
52	0xbdeb4c2e	-0.114891395
53	0xbd916cbe	-0.07100819
54	0x3d4bc8d4	0.04975207
55	0xbcf043e0	-0.02932924
56	0xbd1d6c54	-0.038433388
57	0xbd19af08	-0.03752044
58	0xbd67cab8	-0.056589812
59	0xbcdf28e8	-0.027241185
60	0xbdf39106	-0.118928954
61	0xbd1c3754	-0.038138703
62	0x3dcfa2fc	0.10138509
63	0xbd01cbfc	-0.031688675
64	0x3da38004	0.079834014
65	0x3c8488af	0.016178457
66	0x3dd77f9c	0.105223864
67	0xbd15ecc9	-0.03660277
68	0x3d01baa3	0.03167213
69	0x3c97ee26	0.018546175
70	0xbcd99bd1	-0.026563557
71	0xbd7fe87c	-0.062477574
72	0x3d353363	0.04423846
73	0xbd258065	-0.04040565
74	0x3c37bc9d	0.0112144025
75	0xbd5cea45	-0.053934354
76	0x3daba94a	0.08381899
77	0xbdac34cc	-0.08408508
78	0x3cd504f7	0.026003344
79	0x3cde5aa3	0.027142828
80	0xbc055c13	-0.008139628
81	0x3d928f5e	0.07156251
82	0x3d211133	0.039323043
83	0x3d03dbd4	0.032192066
84	0xbc5f73e3	-0.013638469
85	0xbdd851d6	-0.10562484
86	0x3d21e70f	0.039526995
87	0x3ca44588	0.020052686
88	0xbb9fb8c6	-0.0048743216
89	0x3e00b327	0.12568341
90	0x3d2e995c	0.042626724
91	0x3cec4f6f	0.02884647
92	0x3d8e6a10	0.069538236
93	0xbcba3589	-0.022730606
94	0xbd376c56	-0.04478105
95	0x3cb72fa7	0.02236159
96	0xbdd13e98	-0.10217017
97	0x3cf75368	0.030191138
98	0x3ac86bee	0.0015290955
99	0x3ddaf8c4	0.106919795
100	0xbd974a1c	-0.07387182
101	0xbc0432bc	-0.008068737
102	0xbc462423	-0.012093577
103	0x3d2db2da	0.042406894
104	0x3e009462	0.12556604
105	0xbc814f71	-0.01578495
106	0x3df2e504	0.118600875
107	0x3de5100a	0.111847
108	0xbdccd8fe	-0.100023255
109	0xbda4abec	-0.08040604
110	0x3dbe2cf0	0.09285915
111	0xbd1f4f89	-0.03889421
112	0xbcc091b9	-0.023506986
113	0xbc3ba042	-0.011451783
114	0xbc42e472	-0.011895286
115	0x3c839736	0.016063314
116	0xbcbd4af0	-0.023107022
117	0xbda9312a	-0.082613304
118	0x3ded3140	0.11581659
119	0x3db86934	0.09004441
120	0xbdaefa28	-0.08543807
121	0xbdcf4c68	-0.10121995
122	0xbdec0e70	-0.11526191
123	0xbdb08e16	-0.08620851
124	0xbba825e5	-0.0051314705
125	0xbdace1aa	-0.084414795
126	0x3dfcebba	0.12349649
127	0xbdc0d1c0	-0.09415007
128	0xbd7a5557	-0.061116543
129	0x3dc7fc26	0.097648904
130	0xbda3b078	-0.07992643
131	0xbce651bf	-0.028115151
132	0x3cee5eb1	0.029097887
133	0x3dac589e	0.0841534
134	0x3d5923ed	0.053012777
135	0x3d0c226c	0.034212515
136	0xbd94eeb2	-0.0727209
137	0xbdd3f6f0	-0.10349834
138	0x3b9a7dbc	0.0047146957
139	0x3d75dd85	0.06002571
140	0xbd74f697	-0.05980548
141	0xbd8a6426	-0.06757383
142	0x3c8d4eb1	0.017249437
143	0xbdc7de97	-0.097592525
144	0xbd9b8414	-0.07593551
145	0x3cc97c41	0.024595382
146	0xbd56345f	-0.05229604
147	0xbd334fb3	-0.04377718
148	0x3ba41644	0.005007537
149	0x3d094b5c	0.033519134
150	0xbdc5ea88	-0.09663874
151	0x3c867ca8	0.016416863
152	0xbbea7944	-0.0071555693
153	0xbd90fbd8	-0.070792854
154	0x3d851cae	0.06499611
155	0x3df412fc	0.119176835
156	0xbd8bff50	-0.06835806
157	0xbd335209	-0.043779407
158	0x3d9648f4	0.073381335
159	0x3dcc90ba	0.09988542
160	0x3d2399ed	0.039941717
161	0x3d58296c	0.052773878
162	0xbdff0b3e	-0.12453316
163	0xbd02ee9b	-0.031965833
164	0x3dcd46c0	0.1002326
165	0xbdedcb07	-0.1161099
166	0x3ddfdbec	0.10930619
167	0xbde21644	-0.11039403
168	0xbd224ef3	-0.039626073
169	0xbdee69a8	-0.11641246
170	0xbc95e110	-0.018295795
171	0xbd2df6cf	-0.042471703
172	0x3de32b8c	0.1109229
173	0x3dae753e	0.08518456
174	0xbdd83a8a	-0.105580404
175	0xbda75f1a	-0.08172436
176	0xbd81ebf0	-0.0634383
177	0x3d910d9a	0.070826724
178	0x3dbf5046	0.09341483
179	0x3dcb9a0c	0.099414915
180	0x3d5b5098	0.053543657
181	0x3d93eb04	0.0722256
182	0x3baf7640	0.0053546727
183	0x3d296fa1	0.041366223
184	0x3dca3940	0.09874201
185	0xbcd172ff	-0.02556753
186	0xbc7d1fce	-0.015449477
187	0xbdc90ff8	-0.09817499
188	0x3975bc90	0.00023435266
189	0x3d459d04	0.048245445
190	0x3d828d52	0.06374611
191	0xbd09458f	-0.033513602
192	0xbde1da02	-0.1102791
193	0xbc166a9e	-0.009180693
194	0xbd96783a	-0.0734715
195	0x3d8af6e2	0.067853704
196	0x3ba72124	0.005100386
197	0xbc811bf1	-0.015760394
198	0x3db67146	0.08908324
199	0x3dca5f0a	0.098814085
200	0x3da8e050	0.08245909
201	0xba8e6fec	-0.0010867096
202	0xbdecb584	-0.11558059
203	0x3da14672	0.078747645
204	0x3b2d348c	0.0026429025
205	0x3de380b2	0.11108531
206	0x3dfc6388	0.123236716
207	0x3cbc50ad	0.022987688
208	0x3caea6d1	0.021319779
209	0xbd31a523	-0.043370377
210	0xbcdfa3d9	-0.027299808
211	0x3d4bcd18	0.04975614
212	0xbde840fa	-0.11340518
213	0x3d8cd168	0.068758786
214	0x3cac86c1	0.02106035
215	0x3dfd9ad6	0.12383048
216	0xbdb7f678	-0.08982557
217	0x3d65d7d9	0.05611405
218	0x3d724b04	0.05915357
219	0x3d4e69d9	0.050393913
220	0xbd2eae6f	-0.04264682
221	0x3cbadabf	0.022809384
222	0xbd1462ed	-0.036227155
223	0xbdfe4848	-0.1241613
224	0xbddcbfaa	-0.107787445
225	0x3d5a79f4	0.05333896
226	0xbdb163a4	-0.08661583
227	0x3d3fea05	0.046854038
228	0x3bc7e144	0.006099852
229	0x3d8c2970	0.06843841
230	0x3d06f8c5	0.03295209
231	0xbdab47a8	-0.08363277
232	0x3c9f7429	0.01946457
233	0x3db9820e	0.09058009
234	0x3dadcaf0	0.08485973
235	0x3db17c44	0.0866628
236	0x3d5701ed	0.05249207
237	0x3b6762f6	0.0035306788
238	0x3c2da2f0	0.010597929
239	0xbd65a76b	-0.056067865
240	0xbd0a51b0	-0.03376931
241	0x3df87cc4	0.12133172
242	0x3c0f76c2	0.008756341
243	0xbd123b1b	-0.0357009
244	0xbd953538	-0.07285541
245	0x3d0fb0e5	0.03508081
246	0x3c931320	0.017953455
247	0xbd304f6f	-0.043044504
248	0xbd943682	-0.07236959
249	0xbd5c0723	-0.053717744
250	0xbca35b0f	-0.019940881
251	0xbd24810f	-0.040162142
252	0xbdb7de14	-0.08977905
253	0xbd75f138	-0.060044497
254	0x3babff25	0.0052489215
255	0xbdb66904	-0.08906749

bias f4 [64]
0	0xbd26d4dc	-0.040730342
1	0xbd044e5d	-0.032301296
2	0x3dd3a38e	0.1033393
3	0xbcc673f7	-0.024225218
4	0x3d88c706	0.06678586
5	0xbd3ba730	-0.04581374
6	0xbd132153	-0.035920452
7	0xbbefecfb	-0.0073219514
8	0xbdc492f2	-0.0959834
9	0x3d6588f7	0.056038823
10	0xbd677c1f	-0.056514855
11	0xbcafbbb1	-0.021451803
12	0xbddf1fc2	-0.10894729
13	0x3c52d8b0	0.012869045
14	0x3df70e2a	0.120632485
15	0xbdc5a7f0	-0.09651172
16	0xbc2a6112	-0.01039912
17	0xbd447377	-0.04796168
18	0xbdabc4b4	-0.083871275
19	0xbcf03448	-0.029321805
20	0x3d8d8c96	0.0691158
21	0xbd8a0f76	-0.0674123
22	0x3d927db4	0.07152882
23	0xbd682565	-0.056676287
24	0x3dc2be0a	0.09508903
25	0xbde222e2	-0.110418096
26	0xbd90af74	-0.07064715
27	0xbda8d754	-0.082441956
28	0x3ddba6aa	0.10725148
29	0xbd71a405	-0.05899431
30	0xbd941ce2	-0.072320715
31	0xbd86a498	-0.065743625
32	0x3ddc4bb6	0.10756628
33	0xbd28ee37	-0.041242804
34	0xbccf1769	-0.025279718
35	0xbd5bf94c	-0.053704545
36	0x3d016b6c	0.031596586
37	0xbd50ff28	-0.051024586
38	0x3d5f9b39	0.05459139
39	0xbd9ceccc	-0.07662353
40	0x3d259841	0.040428404
41	0x3dab3a86	0.08360772
42	0xbd24e91c	-0.040261373
43	0x3d4aac6b	0.049480837
44	0x3c765982	0.015035989
45	0xbd9141d0	-0.07092631
46	0xbcb05b87	-0.021528019
47	0xbda4c70e	-0.08045779
48	0xbdc30f0e	-0.09524356
49	0xbc3bf0d2	-0.01147099
50	0x3d568a05	0.05237772
51	0xbd787be4	-0.060665026
52	0xbdcbae1c	-0.09945318
53	0x3dabe1b0	0.08392656
54	0x3db90d58	0.09035748
55	0xbd3c7710	-0.046011984
56	0x3c8dd519	0.017313527
57	0xbd9bc54c	-0.07605991
58	0xbdb122c4	-0.08649209
59	0x3dcf9d06	0.10137372
60	0xbcf54df7	-0.029944403
61	0x3ae16480	0.0017196089
62	0x3d7e62d3	0.062105965
63	0x3dc008d0	0.09376681

weight f4 [1, 64]
0	0x3df2768e	0.11839019
1	0x3ce54d3f	0.027990935
2	0xbd7761c9	-0.06039599
3	0xbd8200e0	-0.06347823
4	0x3daa544c	0.083168596
5	0x3de15a0c	0.11003503
6	0xbdeb1a94	-0.11479679
7	0xbda33564	-0.07969168
8	0xbdaa0cdc	-0.08303234
9	0x3dfc6a46	0.123249575
10	0xbddfa9ae	-0.10921036
11	0x3df366cc	0.11884841
12	0x3de15666	0.11002807
13	0xbd27e8b8	-0.040993422
14	0xbd480631	-0.04883403
15	0xbdeea95e	-0.11653398
16	0x3d80c5ea	0.06287749
17	0xbd15cd31	-0.03657264
18	0x3dda62cb	0.106633745
19	0x3db13102	0.086519256
20	0x3df4c9d0	0.11952555
21	0x3dd22216	0.102604076
22	0xbc850ca1	-0.016241373
23	0x3daefeb8	0.085446775
24	0xbdc8aefa	-0.09798999
25	0x3d8cfab4	0.06883755
26	0xbc80e808	-0.015735641
27	0x3d798b28	0.060923725
28	0x3d0cbb4f	0.03435832
29	0x3d56d24f	0.05244666
30	0xbde6e8ea	-0.112748936
31	0xbdc2cdba	-0.095118955
32	0xbdf1882c	-0.11793551
33	0xbc990721	-0.018680157
34	0x3d228fdf	0.039687987
35	0xbd95a146	-0.07306151
36	0xbda6c15a	-0.08142348
37	0x3dbe849e	0.093026385
38	0xbdeb92cc	-0.11502609
39	0x3dbc6468	0.091988385
40	0xbdb2adb2	-0.08724536
41	0xbdce446c	-0.10071644
42	0x3d48b5d8	0.049001545
43	0x3d21f1b7	0.039537158
44	0xba06d924	-0.0005144051
45	0xbd8d3572	-0.068949595
46	0xbdf7ead2	-0.12105335
47	0x3d2f8af0	0.04285711
48	0xbdf7c1c0	-0.12097502
49	0x3df068e2	0.11738755
50	0xbde59b6a	-0.112112835
51	0x3c069170	0.008213386
52	0xbc034600	-0.008012295
53	0x3db44e40	0.088039875
54	0x3c54221e	0.012947587
55	0xbd2ce968	-0.04221478
56	0xbdd4b48e	-0.103860006
57	0xbdbf22fa	-0.09332843
58	0xbdec9ca6	-0.11553316
59	0x3dbe7362	0.09299351
60	0xbdb718b2	-0.08940257
61	0x3db9fb60	0.09081149
62	0x3bebb13c	0.007192759
63	0x3d32d13f	0.043656584
