models/1d-heat-pinn-100epochs-lr0.001-adam-x51-t1000-alpha1.22e-3.pt (torch, 56619 bytes, 9 tensors)

weight f4 [64, 2]
0	0x3f20752f	0.6267881
1	0xbe652586	-0.22377595
2	0x3e7ffd8d	0.24999066
3	0xbe8865a2	-0.2664004
4	0xbf3e9f50	-0.7446184
5	0xbd8ca2c5	-0.06866983
6	0xbf31deb1	-0.69480425
7	0xbcf8a959	-0.030354189
8	0x3ebdfd41	0.3710728
9	0x3d087d7e	0.033322804
10	0x3e55d5b6	0.20882306
11	0xbe251a0d	-0.16123219
12	0x3e84c7cf	0.25933692
13	0xbe8d617d	-0.2761344
14	0x3efdf0e8	0.4959786
15	0xbeac0910	-0.33600664
16	0xbeec85cb	-0.46195826
17	0x3e8c5f79	0.2741659
18	0xbeca47d3	-0.39507923
19	0x3e51f264	0.20502621
20	0x3f4307d4	0.7618382
21	0xbe5747c1	-0.21023466
22	0x3e902996	0.28156728
23	0xbd1bdf69	-0.038054857
24	0xbe1ccaf7	-0.153118
25	0xbef37d77	-0.4755666
26	0xbddbd510	-0.10733998
27	0x3e3e33a8	0.18574393
28	0xbd589035	-0.0528719
29	0x3f192f4c	0.59837794
30	0xbe6a7ce7	-0.22899209
31	0x3e9c4ab8	0.30525756
32	0x3f3f257c	0.7466657
33	0x3db878cb	0.090074144
34	0xbf00013e	-0.50001895
35	0xbefd1c2e	-0.49435562
36	0xbf198814	-0.59973264
37	0x3e1c066f	0.15236829
38	0x3d5a6209	0.05331615
39	0xbe01d254	-0.1267789
40	0xbe8d7b12	-0.27632958
41	0x3c2a4938	0.010393433
42	0xbeb48684	-0.35258877
43	0x3ef70961	0.48249343
44	0x3e87758d	0.26456872
45	0xbed88c54	-0.42294562
46	0xbef77eb3	-0.4833885
47	0x3d8e3088	0.0694285
48	0x3ecfc03e	0.40576357
49	0x3e62d657	0.22152077
50	0xbeefb864	-0.46820366
51	0xbe9e2437	-0.30887005
52	0xbea31f0b	-0.3185962
53	0x3f004659	0.5010734
54	0xbdfc7941	-0.12327815
55	0xbecbb780	-0.39788437
56	0xbf04b637	-0.5184054
57	0xbf09b1cd	-0.5378693
58	0x3daaf7a8	0.08348018
59	0x3f18bbb8	0.59661436
60	0xbf04aae7	-0.51823276
61	0x3f08c74c	0.534291
62	0x3f090ab8	0.5353198
63	0x3f1dcf3b	0.61644334
64	0xbee529d1	-0.44758466
65	0xbefac0bd	-0.48975173
66	0x3e98e735	0.29863897
67	0xbeda9f15	-0.42699495
68	0x3dff6c0c	0.1247178
69	0xbf1a5c91	-0.60297495
70	0xbe4970f8	-0.19672
71	0xbf047b81	-0.5175095
72	0x3eb58aca	0.3545745
73	0x3ed7213e	0.4201755
74	0x3f15b896	0.5848478
75	0x3e9b78f0	0.30365705
76	0x3d5756d0	0.052573025
77	0xbdfb9f08	-0.12286192
78	0x3deb6d95	0.114955105
79	0x3f170d81	0.5900498
80	0xbf0b9422	-0.5452291
81	0xbf14c220	-0.5810871
82	0x3f1592cb	0.58427113
83	0xbf155504	-0.5833285
84	0xbe33b3f3	-0.17549114
85	0xbed1f626	-0.4100811
86	0xbf03090d	-0.51185685
87	0xbe1486cb	-0.14504544
88	0x3f2c693f	0.6734809
89	0xbece359a	-0.4027527
90	0xbe816485	-0.25272003
91	0xbd9d2103	-0.07672312
92	0x3e1c67bd	0.15273948
93	0x3cc327b6	0.023822647
94	0x3e0fbcd4	0.14036876
95	0x3ec557a4	0.38543427
96	0xba5424d8	-0.00080926483
97	0xbeb6ffb1	-0.35741952
98	0x3dc92dcc	0.09823188
99	0xbe10d309	-0.14143004
100	0x3e9ded27	0.30844995
101	0xbdd0d2d7	-0.101964645
102	0xbb49a324	-0.0030767405
103	0xbef6a54a	-0.4817298
104	0xbeeebef7	-0.4663007
105	0xbf1c249b	-0.60993356
106	0xbecfc862	-0.40582567
107	0x3f0abc43	0.54193515
108	0xbece5fa5	-0.40307346
109	0xbc196e5a	-0.009364689
110	0xbeb0ba34	-0.34517062
111	0x3dcd9205	0.10037617
112	0xbe609bff	-0.21934508
113	0x3f2577e9	0.64636093
114	0xbf143f08	-0.5790868
115	0x3ecf6833	0.40509185
116	0xbe44c5db	-0.19216101
117	0x3f12d48d	0.57355577
118	0x3e3059f3	0.17221813
119	0x3f0db3de	0.5535258
120	0xbf02af84	-0.51049066
121	0x3e1f967c	0.15584749
122	0x3e7eafaa	0.24871698
123	0x3edacc26	0.42733878
124	0x3f1e7c9f	0.61908907
125	0xbe2187c0	-0.15774441
126	0x3d8a2be7	0.06746655
127	0x3f10c241	0.5654641

bias f4 [64]
0	0x3f2cb276	0.6745981
1	0xbf1abcd4	-0.6044438
2	0xbebaa1ea	-0.36451656
3	0xbea5dcdf	-0.32395074
4	0xbe0c5915	-0.13705857
5	0xbf0ee759	-0.5582176
6	0xbf087eb8	-0.5331836
7	0xbe12d268	-0.14338076
8	0x3f0856a8	0.53257227
9	0xbf08daf8	-0.5345912
10	0x3dcce67e	0.100049004
11	0xbd2baab5	-0.041910846
12	0xbccea607	-0.025225652
13	0x3e538420	0.2065587
14	0x3df4547b	0.11930176
15	0x3ee6fcac	0.45114648
16	0x3ed8805a	0.42285424
17	0x3f0af8e0	0.54286003
18	0x3d3fd498	0.046833605
19	0x3e1cf6f1	0.15328576
20	0x3ef6ab8a	0.4817775
21	0xbed20221	-0.4101725
22	0x3ec4978e	0.38396877
23	0x3ee81d50	0.45334864
24	0x3e1fe14d	0.15613289
25	0x3f12f9bd	0.5741232
26	0x3ec2b3b7	0.38027737
27	0x3e7f9df8	0.24962604
28	0x3ded6539	0.11591572
29	0x3ebf680d	0.37384072
30	0xbe83e384	-0.25759518
31	0x3e9dfa2d	0.3085493
32	0xbf25f0ab	-0.64820355
33	0x3e621be9	0.2208096
34	0xbebc7bb2	-0.36813122
35	0x3e1acd89	0.15117468
36	0x3d95741b	0.07297536
37	0x3f1cca05	0.6124576
38	0xbf1ec117	-0.6201338
39	0x3f1d0bd0	0.6134615
40	0xbf1873a8	-0.5955148
41	0x3f0720f3	0.5278465
42	0xbf227d6d	-0.63472635
43	0x3ed064a6	0.4070179
44	0xbb8c5fe5	-0.0042838925
45	0x3e89431e	0.2680902
46	0x3e90eae2	0.283042
47	0x3ede7ae7	0.43453142
48	0xbe5f5572	-0.21809939
49	0x3ec8466f	0.39116237
50	0x3eed76a4	0.46379578
51	0xbf187c6f	-0.5956487
52	0x3e08badf	0.13352536
53	0x3d4624e7	0.048375037
54	0xbf00e343	-0.50346774
55	0xbe7f20f2	-0.24914911
56	0xbe2eacbd	-0.17058082
57	0x3e597c0f	0.21238731
58	0xbef0b5b6	-0.47013634
59	0xbec6447d	-0.38724127
60	0x3d8660d1	0.06561435
61	0x3e6a6bbf	0.22892664
62	0x3f27b128	0.65504694
63	0x3f08bb63	0.5341093

weight f4 [64, 64]
0	0xbd6fce88	-0.058546573
1	0xbdae9436	-0.08524363
2	0x3c6c1acf	0.014410689
3	0x3e275527	0.16341077
4	0xbd45ee7b	-0.048323136
5	0x3b746788	0.0037293155
6	0xbd2a7b07	-0.041621234
7	0xbdbf6680	-0.09345722
8	0xbbf56b2f	-0.007489584
9	0xbd043580	-0.032277584
10	0xbb9c1b7f	-0.00476402
11	0x3ddae025	0.106872834
12	0xbd66ee26	-0.05637946
13	0xbdde1c65	-0.108452596
14	0xbcaef96a	-0.021359164
15	0xbdeddc15	-0.11614243
16	0xbd278393	-0.040896963
17	0xbd145035	-0.036209304
18	0x3c8beba6	0.01708014
19	0xbc91994a	-0.01777329
20	0xbd031925	-0.0320064
21	0x3df71239	0.120640226
22	0x3d567ec3	0.052366983
23	0xbc150377	-0.009095064
24	0x3d31f4d8	0.04344639
25	0x3d038597	0.032109823
26	0x3dd882f3	0.105718516
27	0x3bffbf65	0.0078047984
28	0xbca9962e	-0.020701494
29	0xbde548c5	-0.1119552
30	0x3da7e835	0.08198587
31	0x3d9b0a25	0.07570294
32	0xbd3e668d	-0.04648452
33	0xbce251c7	-0.027626885
34	0x3cf394ec	0.029734097
35	0xbcf96234	-0.030442335
36	0x3d8b4b5e	0.068014845
37	0xbe0682f8	-0.13135898
38	0xbda4727a	-0.08029647
39	0x3b9946a3	0.00467761
40	0x3b3b9f58	0.0028628912
41	0x3d7e3a00	0.06206703
42	0xbb689802	-0.0035490994
43	0xbc2fb97f	-0.010725378
44	0x3dc56ae2	0.09639527
45	0x3def3038	0.11679119
46	0x3d66c1e8	0.056337267
47	0xbd9a0654	-0.07520738
48	0x3d2fd57b	0.0429282
49	0xbd4a0025	-0.049316544
50	0x3d8cd10a	0.068758085
51	0xbda234b0	-0.079202056
52	0x3df050a0	0.11734128
53	0x3d0cc276	0.03436514
54	0xbce8d55e	-0.028422054
55	0x3e0d4279	0.13794889
56	0x3d093db8	0.033506125
57	0x3d40c3dc	0.047061786
58	0xbdc1555b	-0.094401084
59	0x3dd64c75	0.10463802
60	0x3dd6b519	0.104837604
61	0xbd368dcf	-0.044568833
62	0xbbf06a6b	-0.0073369048
63	0x3dbe5cd7	0.092950515
64	0xbcf720b8	-0.030166969
65	0xbd02ca24	-0.031931058
66	0xbddec6ea	-0.108777836
67	0xbd3659b8	-0.044519156
68	0x3d242924	0.040078297
69	0xbdbc254a	-0.091868
70	0xbd101250	-0.035173714
71	0x3d1a967c	0.03774117
72	0x3c435110	0.011921182
73	0xbd0b6b64	-0.034037963
74	0xbdc7c15c	-0.09753677
75	0xbd85a684	-0.06525901
76	0x3d7e9b8c	0.06216006
77	0x3dac7fa2	0.084227815
78	0x3db4c050	0.08825743
79	0xbdd27b9e	-0.10277484
80	0xbdfc9302	-0.12332727
81	0xbd3e2b10	-0.046427786
82	0x3d3762f0	0.04477209
83	0xbd007358	-0.03136
84	0x3da09050	0.078400254
85	0x3d2ec690	0.042669833
86	0xbde2384a	-0.110458925
87	0x3dc63a62	0.096791044
88	0xbdbdd028	-0.09268218
89	0xbdc417c6	-0.09574847
90	0xbdc68b56	-0.09694545
91	0x3c806780	0.015674353
92	0xbd701648	-0.058615
93	0xbde3ed60	-0.1112926
94	0xbd9b849c	-0.075936526
95	0xbc8ca5b0	-0.01716885
96	0xbdbfcdc8	-0.093654215
97	0xbdfba998	-0.12288207
98	0x3d135de8	0.035978228
99	0x3dba0c8c	0.090844244
100	0x3d9b54a0	0.075845
101	0xbde4b8e8	-0.111680806
102	0xbdee2996	-0.11629026
103	0x3d966ff4	0.07345572
104	0xbd8e5de8	-0.06951505
105	0xbd75fbac	-0.060054466
106	0xbd38adcc	-0.04508762
107	0xbde28066	-0.11059646
108	0x3df50902	0.11964609
109	0x3df72132	0.120668784
110	0xbdac390a	-0.08409317
111	0x3cfda510	0.030962497
112	0xbdea241c	-0.114326686
113	0x3de3ba8a	0.11119564
114	0x3cfd9230	0.030953497
115	0xbb94fee0	-0.004546985
116	0xbd323cb8	-0.043514937
117	0xbd584d68	-0.052808195
118	0x3cd84130	0.026398271
119	0xbda9a56e	-0.08283506
120	0xbde11104	-0.109895736
121	0xbd3ed8e0	-0.046593547
122	0xbd42b540	-0.047536135
123	0xbdf7184a	-0.1206518
124	0x3d874788	0.066054404
125	0xbb36d080	-0.0027895272
126	0xbd1752e0	-0.03694427
127	0xbc9c3230	-0.0190669
128	0x3a66570c	0.00087867747
129	0xbc9e553d	-0.019327754
130	0xbd35a7c2	-0.04434944
131	0x3c822eab	0.015891394
132	0x3d2a711a	0.04161177
133	0x3c45e02f	0.012077375
134	0xbde597a6	-0.11210565
135	0xbd01f07c	-0.031723484
136	0x3c472fdc	0.012157407
137	0x3d1ba711	0.038001124
138	0x3d9be318	0.07611674
139	0x3e011ef3	0.12609462
140	0xbde7d260	-0.11319423
141	0xbd5e2906	-0.05423834
142	0xbcb48e9f	-0.022040663
143	0xbd57cc40	-0.052685022
144	0x3dc583e5	0.096442975
145	0xbd12f80e	-0.035881095
146	0x3ba7f7be	0.0051259687
147	0xbbcd52e6	-0.006265986
148	0x3d8ca3b8	0.068671644
149	0x3ce3b1dc	0.02779477
150	0x3d9c561d	0.07633612
151	0xbd7ace63	-0.061231982
152	0x3de09885	0.10966591
153	0x3dd07e2f	0.101803176
154	0x3db9a53a	0.090647176
155	0xbdd07d49	-0.10180146
156	0x3d02f0b8	0.03196785
157	0x3d5cde8c	0.053923175
158	0xbd8e06d9	-0.069349
159	0x3d077fae	0.03308075
160	0xbdfb3edf	-0.12267851
161	0xbdabaa32	-0.083820716
162	0x3e033e00	0.1281662
163	0x3db93b94	0.09044567
164	0x3dd2e0aa	0.102967575
165	0x3dab1310	0.08353245
166	0x3da40ff6	0.08010857
167	0xbd861802	-0.06547548
168	0x3c6f9609	0.0146231735
169	0x3d05a4b0	0.03262776
170	0xbe17b5b7	-0.14815412
171	0x3d67a3bb	0.05655263
172	0xbd81d42d	-0.063392974
173	0xbddaf9c6	-0.10692172
174	0x3d4c8a1b	0.049936395
175	0x3def8357	0.11694973
176	0x3db63838	0.088974416
177	0xbbe4bba0	-0.0069803745
178	0x3cb6d4f6	0.022318345
179	0x3d93b857	0.072128944
180	0x3da688a6	0.08131532
181	0xbda46437	-0.08026927
182	0x3d688e68	0.056776434
183	0xbafca6a4	-0.0019275737
184	0xbdcdd386	-0.100501105
185	0xbda613e0	-0.081092596
186	0x3debf3f0	0.11521137
187	0x3d1505b2	0.036382385
188	0xbdc176b5	-0.0944647
189	0x3ce2a7b6	0.027667861
190	0x3d91f9a2	0.07127692
191	0x3e02f40b	0.12788408
192	0xbd205412	-0.039142676
193	0x3dd3e6b2	0.10346736
194	0xbc862ed5	-0.016379753
195	0xbd59bca9	-0.053158436
196	0xbde9694a	-0.113970354
197	0x3cb6ced0	0.022315413
198	0x3a93d036	0.0011277262
199	0xbdc0ead1	-0.09419788
200	0x3be7dc78	0.0070758425
201	0x3de9bcb5	0.11412946
202	0xbd11591c	-0.035485372
203	0xbdb3d414	-0.08780685
204	0xbc09fb3f	-0.008421718
205	0x3c9375ed	0.018000567
206	0x3d25c4b3	0.04047079
207	0x3da8d2fa	0.082433656
208	0x3ca4fedb	0.020141056
209	0xbdbb2327	-0.09137564
210	0x3806fdcb	3.2184453e-05
211	0xbd6b65c4	-0.0574701
212	0x3bcfeb1c	0.006345166
213	0x3db24e35	0.08706323
214	0x3e00c718	0.12575948
215	0xbda349a9	-0.07973034
216	0xbd441435	-0.047870833
217	0xbc7383a6	-0.01486293
218	0xbdfcf8c1	-0.123521335
219	0xbcc6ec0b	-0.024282476
220	0x3dace86f	0.08442771
221	0xbd23c18c	-0.039979503
222	0xbc081911	-0.008306758
223	0xbd11f6c3	-0.03563572
224	0xbc60e97c	-0.013727542
225	0xbdac9a05	-0.084278144
226	0xbd38cefa	-0.045119263
227	0x3d1648ba	0.03669045
228	0xbd4d596b	-0.050134104
229	0x3d12cddd	0.035840858
230	0x3db4e362	0.08832432
231	0xbdb64408	-0.08899695
232	0x3c87dbc9	0.016584294
233	0xbbc38da8	-0.0059678145
234	0xbcd52dc4	-0.0260228
235	0x3daef988	0.08543688
236	0xbdb1db26	-0.08684377
237	0x3dc017b9	0.09379525
238	0xbe2bff7a	-0.16796675
239	0xbdb4a742	-0.088209644
240	0xbbd246f9	-0.006417152
241	0xbe196e1e	-0.14983413
242	0xbd945fee	-0.0724486
243	0x3d660c9d	0.056164373
244	0x3dbf6c0f	0.093467824
245	0x3d5ee092	0.054413386
246	0x3d6940aa	0.056946434
247	0xbd8ec3d5	-0.06970946
248	0x3d127c70	0.035763204
249	0xbcd94898	-0.026523873
250	0x3c9ba1fc	0.018998139
251	0xbd53cfa9	-0.051711712
252	0x3db71e4f	0.08941328
253	0xbd9874d6	-0.0744416
254	0xbd2a9017	-0.04164132
255	0x3d084f1a	0.033278562

bias f4 [64]
0	0x3dbe99d5	0.09306685
1	0xbdbf5a56	-0.09343402
2	0x3dc47852	0.09593262
3	0x3d3b8fbe	0.04579138
4	0x3cfa1819	0.030529069
5	0xbdf0e9ab	-0.11763319
6	0x3d44b598	0.048024744
7	0x3e20c2d7	0.15699326
8	0xbd5e87bd	-0.05432867
9	0x3d59577a	0.05306194
10	0xbde69db9	-0.11260552
11	0x3c7d1110	0.015445963
12	0x3d75dbac	0.06002395
13	0xbdc96955	-0.098345436
14	0x3d6469db	0.055765014
15	0x3db0e322	0.08637072
16	0xbdeb2941	-0.11482478
17	0x3d6de2bb	0.058077555
18	0xbcc45c6b	-0.02396985
19	0xbc183f14	-0.009292383
20	0xbcfa0408	-0.0305195
21	0xbcc2689a	-0.023731519
22	0x3d5aebad	0.053447414
23	0x3e0ec4b5	0.13942225
24	0xbdec13b3	-0.11527195
25	0x3d193cc1	0.037411455
26	0x3a86341b	0.0010238917
27	0xbd54df3a	-0.051970698
28	0x3d173277	0.03691336
29	0xbde4752f	-0.111551635
30	0x3e0da808	0.1383363
31	0x3c8c16ed	0.017100776
32	0x3d425a64	0.047449484
33	0xbda47bba	-0.080314115
34	0xbd365734	-0.044516757
35	0x3de37174	0.11105624
36	0xbd26eaa9	-0.040751133
37	0xbdbb89ec	-0.09157166
38	0x3d89dfdb	0.0673215
39	0x3d42b99b	0.04754029
40	0xbbc63984	-0.006049337
41	0x3d8c1201	0.068393715
42	0x3ce47bf9	0.027891146
43	0x3d4e077a	0.0503001
44	0x3b047b5e	0.0020215134
45	0xbdb94d40	-0.090479374
46	0x3d8cee58	0.06881398
47	0x3c286716	0.010278484
48	0xbe015b10	-0.12632394
49	0x3d8f7bab	0.0700601
50	0xbd0d914c	-0.034562394
51	0xbdd0fcec	-0.10204491
52	0xbd470a70	-0.04859394
53	0x3d8cc84b	0.0687414
54	0x3cd829c0	0.026387095
55	0xbdc8f2ea	-0.09811957
56	0x3dbde38f	0.09271919
57	0xbd9926cf	-0.07478105
58	0xbdcb26c2	-0.09919502
59	0xbd39606c	-0.04525797
60	0xbc7e2deb	-0.015513877
61	0x3dab2f1a	0.08358593
62	0xbd0fa5eb	-0.03507034
63	0xbdd298fe	-0.10283087

weight f4 [64, 64]
0	0x3ca19ff4	0.019729592
1	0x3da1ec10	0.079063535
2	0x3c9c6190	0.01908949
3	0x3d9eca75	0.07753459
4	0xbe0e4e6c	-0.13897103
5	0xbcfa127e	-0.030526396
6	0xbd9f8a2f	-0.07790028
7	0xbdf712f4	-0.12064162
8	0xbe0abf2b	-0.13549487
9	0x3d807bfe	0.0627365
10	0xbde38a06	-0.1111031
11	0x3b820154	0.0039674435
12	0x3c13c501	0.009019137
13	0xbdbc7a62	-0.0920303
14	0x3cecf8a0	0.028927147
15	0xbd4b7214	-0.04966934
16	0x3dfe778b	0.12425145
17	0x3d6d092d	0.05787008
18	0xbc122a27	-0.008921183
19	0x3dca5382	0.09879209
20	0x3dcce980	0.10005474
21	0x3dd5635d	0.10419343
22	0xbd3b463b	-0.045721274
23	0x3d98f914	0.07469383
24	0xbde93b35	-0.11388246
25	0x3da36a0f	0.079792134
26	0x3e16d051	0.14727904
27	0xbe0c75c0	-0.13716793
28	0x3db1ee9f	0.086880915
29	0xbd66109d	-0.056168187
30	0x3da03baa	0.0782388
31	0x3db3e5e6	0.08784084
32	0x3d9e8037	0.07739299
33	0x3c0c2790	0.008554354
34	0xbd3f6b6a	-0.046733297
35	0xbc4253e4	-0.011860821
36	0x3dd6dc36	0.10491221
37	0xbcf6f120	-0.030144274
38	0xbcacf9b4	-0.021115161
39	0xbd8c36e3	-0.06846406
40	0xbdd3c4dc	-0.10340282
41	0x3d8dedd5	0.069301285
42	0x3d0474f1	0.032338087
43	0x3cf03717	0.029323144
44	0xbcf1a681	-0.02949834
45	0xbda08b7c	-0.078391045
46	0x3e0e5ddc	0.13902992
47	0xbc71f19a	-0.014767075
48	0xbcad0e98	-0.021125123
49	0x3d912c6a	0.070885494
50	0x3d145070	0.036209524
51	0x3d48c5c1	0.049016718
52	0x3df2bee7	0.11852818
53	0xbda3633f	-0.07977914
54	0xbdc81bb3	-0.09770908
55	0xbde9f1fa	-0.114231065
56	0x3d69a849	0.057045255
57	0x3d84bbf6	0.06481163
58	0x3e082588	0.13295567
59	0xbd88f24a	-0.06686838
60	0x3dda8734	0.10670319
61	0xbdd4c470	-0.1038903
62	0x3d3361ab	0.043794315
63	0x3d8cd880	0.068772316
64	0x3dfc7694	0.123273045
65	0x3de691a0	0.112582445
66	0xbde1fb7c	-0.11034295
67	0xbd554241	-0.052065138
68	0x3c179717	0.009252331
69	0xbd04246e	-0.032261305
70	0x3d463e5a	0.048399307
71	0x3cac948e	0.02106693
72	0x3bd08448	0.0063634254
73	0x3dc7f929	0.097643204
74	0x3dd95323	0.1061156
75	0x3dec7aa7	0.115468316
76	0xbd71338a	-0.058887042
77	0xbb87740b	-0.0041337064
78	0x3dc829f1	0.09773625
79	0x3c040f60	0.008060306
80	0xbdf46a80	-0.11934376
81	0x3dad2b14	0.08455482
82	0xbcaefc32	-0.02136049
83	0x3c5207cf	0.0128192445
84	0x3d34a450	0.044102013
85	0xbdbdf087	-0.092743926
86	0x3d890e14	0.06692138
87	0x3e0afcea	0.13573042
88	0xbdc25d90	-0.09490502
89	0xbc7b7142	-0.015346827
90	0xbc2275b7	-0.009915761
91	0xbcfc233b	-0.030778518
92	0xbd1ec83e	-0.038765185
93	0xbd4e89b7	-0.050424304
94	0x3d3c2f48	0.04594353
95	0x3dfc0418	0.12305468
96	0xbd91a4fc	-0.071115464
97	0xbcae4c90	-0.021276742
98	0x3d3eb948	0.046563417
99	0x3db20fe1	0.08694435
100	0xbbad666f	-0.005291752
101	0xbd9f5e72	-0.07781686
102	0x3babe010	0.005245216
103	0x3d8099a4	0.062793046
104	0xbdf51b1c	-0.11968061
105	0xbd10cad9	-0.0353497
106	0x3d1d3d56	0.038388573
107	0xbde95854	-0.113938004
108	0xbd4e6f83	-0.050399315
109	0x3bf76631	0.007550024
110	0xbceaa9c0	-0.028645396
111	0x3d238579	0.03992221
112	0xbd8bb686	-0.06821923
113	0x3dc6cd8d	0.097071745
114	0xbdb32378	-0.087469995
115	0x3c61820f	0.013763919
116	0xbcdbb0d1	-0.026817711
117	0xbd848e21	-0.064724214
118	0x3b02790a	0.001990857
119	0x3de125b0	0.109935164
120	0x3d92e6ae	0.07172905
121	0xbdc98cac	-0.09841284
122	0xbd0b4738	-0.034003466
123	0x3b23f5b1	0.002501827
124	0x3d50a851	0.05094177
125	0xbb9ede18	-0.004848253
126	0xbd2fab70	-0.042888105
127	0xbd8d26cb	-0.06892165
128	0xbdae8305	-0.08521084
129	0xbd8e1bdc	-0.069389075
130	0xbd51f7cb	-0.051261704
131	0xbd10c8c5	-0.03534772
132	0xbcaf1933	-0.02137432
133	0x3d895230	0.06705129
134	0xbdd02661	-0.1016357
135	0x3e019c33	0.12657242
136	0xbc80453d	-0.015658015
137	0x3dc020bc	0.093812436
138	0x3da845b9	0.082164235
139	0xbdf88793	-0.12135234
140	0xbcf1fdf5	-0.029540041
141	0x3c71b1b4	0.01475184
142	0x3e06c1a7	0.1315981
143	0x3dc5143a	0.096229985
144	0x3c4eb6f5	0.012616863
145	0xbd6b434d	-0.05743723
146	0x3d99521c	0.07486364
147	0x3d9cb25a	0.07651205
148	0xbd241c14	-0.04006584
149	0xbe0b02b1	-0.13575245
150	0xbe01bb7b	-0.12669174
151	0x3dfeda98	0.12444037
152	0x3daa2974	0.08308688
153	0x3dd5b5f1	0.10435093
154	0xbc963c20	-0.018339217
155	0x3c35c901	0.011095286
156	0x395e147e	0.00021179204
157	0xbda525c2	-0.08063842
158	0xbc381d64	-0.011237476
159	0xbd6b38fa	-0.057427384
160	0x3de59478	0.11209959
161	0xbd991840	-0.074753284
162	0xbdd70662	-0.10499264
163	0x3ce6c7ff	0.028171537
164	0xbde15575	-0.11002628
165	0x3da5eb70	0.08101547
166	0xbd75650a	-0.05991081
167	0xbd0d4d44	-0.034497514
168	0x3dcdc6f3	0.10047712
169	0xbba4cc65	-0.0050292485
170	0x3de0e0f8	0.109804094
171	0x3dcb9e36	0.09942286
172	0xbb910b60	-0.004426405
173	0xbd53dd8c	-0.051724955
174	0xbe0880c7	-0.13330375
175	0x3c8f0b5e	0.017461475
176	0x3be36f05	0.006940725
177	0x3df39691	0.11893953
178	0x3d28ef98	0.04124412
179	0x3db99172	0.090609446
180	0x3dcffb1d	0.10155318
181	0x3dbc8aa6	0.092061326
182	0x3ddc150f	0.10746204
183	0x3d9aa30a	0.075506285
184	0x3de34cc3	0.110986255
185	0x3da9dd02	0.08294107
186	0xbceaa5d9	-0.028643535
187	0xbc4fa441	-0.0126734385
188	0x3db3c4b9	0.08777756
189	0xbd86b4f0	-0.0657748
190	0xbd8bfb1b	-0.06835004
191	0xbdcd1980	-0.10014629
192	0xbdaca8b0	-0.08430612
193	0x3d5c55e0	0.053792834
194	0x3dfef518	0.12449092
195	0x3cacf3a1	0.021112265
196	0xbd9a0545	-0.07520536
197	0x3d9079f1	0.070545085
198	0xbd6b2d81	-0.057416443
199	0x3dfda873	0.12385645
200	0x3da568f8	0.08076662
201	0xbbf605ab	-0.007508
202	0x3cb1ed44	0.021719582
203	0x3e079a59	0.13242473
204	0xbcb19a25	-0.021679947
205	0x3dc323c5	0.09528307
206	0x3d4ecef4	0.050490335
207	0xbbe2af00	-0.0069178343
208	0xbdbae7d8	-0.09126252
209	0xbd59860d	-0.053106356
210	0x3dc8c086	0.09802346
211	0xbdd6fda4	-0.10497597
212	0x3c8bfb18	0.017087504
213	0x3d67997d	0.056542862
214	0x3ab40ab4	0.00137361
215	0xbd263fdf	-0.040588256
216	0x3d7e1fbc	0.062041983
217	0x3d236a40	0.03989625
218	0xbdb0713b	-0.08615347
219	0x3d507313	0.050890993
220	0xbd2cd09a	-0.042191125
221	0x3cdebcde	0.027189668
222	0xbb8b1777	-0.0042447406
223	0xbdf0f375	-0.11765186
224	0xbc242db4	-0.010020662
225	0xbd2041d4	-0.03912528
226	0xbbded88d	-0.006800717
227	0xbd4d23b9	-0.050082896
228	0x3e16a5cc	0.14711684
229	0x3dcd34be	0.100198254
230	0x3c2b7cf9	0.0104668075
231	0xbd1d9f1c	-0.038481817
232	0x3e06a411	0.13148524
233	0x3d6bf9d2	0.057611294
234	0xbda2a6d6	-0.07941978
235	0x3d783340	0.06059575
236	0xbe045aca	-0.12925258
237	0x3da42379	0.08014578
238	0x3cbdbdf3	0.023161864
239	0x3df627e7	0.120193295
240	0x3deb452d	0.114878036
241	0x3dd2ef90	0.10299599
242	0xbdc8d442	-0.0980611
243	0x3db7f95b	0.08983108
244	0xbdaaa56e	-0.083323345
245	0x3db3de6e	0.087826595
246	0x3d84d2db	0.0648553
247	0x3d4d3660	0.050100684
248	0xbdc2889a	-0.09498711
249	0xbdea850d	-0.11451159
250	0xbe0254ae	-0.12727615
251	0x3de90c1f	0.11379265
252	0x3dfbc92f	0.12294232
253	0xbe12029a	-0.14258805
254	0x3dd79029	0.10525543
255	0x3c78ddac	0.015189569

bias f4 [64]
0	0x3ddfe577	0.10932439
1	0x3db1087e	0.08644198
2	0x3dcd83e2	0.1003492
3	0x3c5f43a0	0.013626963
4	0xbdf3452b	-0.11878427
5	0x3cb45da0	0.0220173
6	0xbdb8be1e	-0.09020637
7	0xbd97a9b9	-0.07405419
8	0x3d356e6d	0.044294763
9	0xbd7d3c24	-0.061824933
10	0xbd807db8	-0.06273979
11	0x3d417e4c	0.047239587
12	0x3d51f178	0.051255673
13	0x3bdb05db	0.0066840476
14	0x3d33a3db	0.043857437
15	0xbdb689a0	-0.08912969
16	0xbe026d03	-0.12736897
17	0x3dc42142	0.09576656
18	0xbcc97460	-0.024591625
19	0xbe0b684c	-0.13614005
20	0xbe0f89d8	-0.14017427
21	0xbe131a74	-0.1436556
22	0x3dc88718	0.09791392
23	0x3d702e5d	0.058637965
24	0x3d899824	0.06718472
25	0xbd184b12	-0.037180968
26	0x3d127da1	0.03576434
27	0xbd2b838b	-0.041873496
28	0xbd80cccd	-0.06289063
29	0x3de44149	0.11145265
30	0x3e418e0d	0.18901844
31	0xbe01ca4f	-0.12674831
32	0x3cdaa06a	0.02668782
33	0xbcb4ca21	-0.022069039
34	0xbddcddbc	-0.1078448
35	0xbd9c49f5	-0.07631294
36	0xbc21fac0	-0.009886444
37	0xbdeb47cd	-0.11488304
38	0xbdf21b80	-0.118216515
39	0xbde386d3	-0.111097
40	0x3dc60ab0	0.09670007
41	0x3d5003af	0.050784763
42	0xbd53064e	-0.051519684
43	0xbc195452	-0.009358482
44	0xbc964274	-0.018342234
45	0xbce271cb	-0.027642151
46	0x3de3f23b	0.11130186
47	0x3e2bef0a	0.16790405
48	0xbdd2dad0	-0.102956414
49	0x3cdde07b	0.02708458
50	0xbe018f9a	-0.12652436
51	0xbdc95365	-0.09830359
52	0x3d9b2eb7	0.075772695
53	0xbbbd2fbc	-0.0057735126
54	0x3d5fb401	0.054615024
55	0xbc109b0a	-0.008826027
56	0xbcb7212c	-0.022354685
57	0xbe37757c	-0.1791591
58	0x3d0d9a0b	0.034570735
59	0x3e2eb0df	0.17059658
60	0xbd86757e	-0.065653786
61	0xbd212246	-0.039339326
62	0x3d226732	0.039649196
63	0x3ca576c0	0.020198226

weight f4 [64, 64]
0	0x3d989dd9	0.07451982
1	0x3dab259a	0.08356781
2	0xbdcc8d23	-0.09987857
3	0x3d75a437	0.05997106
4	0xbb1c1ee5	-0.0023822126
5	0xbdeb22a2	-0.11481215
6	0xbdcea31c	-0.100897044
7	0xbdbca81e	-0.09211753
8	0x3dc72684	0.09724143
9	0xbe045100	-0.12921524
10	0xbbc8c8e2	-0.0061274627
11	0xbde00183	-0.10937788
12	0xbdc80a3c	-0.09767577
13	0x3d7e4c28	0.062084347
14	0x3d3edb5d	0.04659592
15	0x3d959b98	0.07305068
16	0xbd2c6caa	-0.042095818
17	0xbcf98463	-0.030458635
18	0x3da83828	0.08213836
19	0x3d8c6032	0.06854285
20	0x3d1fdb2f	0.03902739
21	0x3ccbecc0	0.024893165
22	0xbcf94425	-0.030428002
23	0xbd9d233b	-0.07672735
24	0xbce5b9a1	-0.028042616
25	0x3e1933fc	0.14961237
26	0x3dd47641	0.10374118
27	0x3de17dc0	0.11010313
28	0x3d4cc37d	0.04999112
29	0xbcb50ada	-0.022099901
30	0x3da9aae9	0.08284552
31	0x3dd97eec	0.106199116
32	0x3e0082d0	0.12549901
33	0xbd976aaa	-0.073933914
34	0x3c3e5d24	0.011618886
35	0x3d211769	0.039328966
36	0x3cf372e8	0.029717878
37	0xbdf3578f	-0.11881935
38	0xbde0eadb	-0.10982295
39	0x3d8691f4	0.06570807
40	0x3d0634c5	0.03276517
41	0x3d789512	0.06068904
42	0xbc31db31	-0.010855482
43	0x3d914a12	0.07094206
44	0xbd2d26c3	-0.042273294
45	0x3da8a44b	0.082344614
46	0x3db4df88	0.08831698
47	0x3dc4666e	0.095898494
48	0x3dd9fa35	0.10643426
49	0xbb23e855	-0.0025010307
50	0xbd3d69ca	-0.046243466
51	0xbd900cbc	-0.07033679
52	0xbdfb4d36	-0.12270586
53	0x3d4f8f08	0.050673515
54	0xbd2292a6	-0.039690636
55	0xbcfe0c2a	-0.03101166
56	0x3d1ef30f	0.038806017
57	0xbd3ecc87	-0.04658177
58	0x3db8ab0c	0.090169996
59	0xbd9b437e	-0.075812325
60	0x3dd474ee	0.10373865
61	0xbdb57b76	-0.08861439
62	0x3dba8e41	0.09109164
63	0x3de06a76	0.10957806
64	0xbd98de94	-0.074643284
65	0x3dcf0bae	0.101096496
66	0x3db6329d	0.088963725
67	0xbdeb10c5	-0.11477808
68	0xbd8338be	-0.06407307
69	0xbd297d48	-0.041379243
70	0xbd6a23a0	-0.05716288
71	0xbdeeeea8	-0.11666614
72	0xbdfe9950	-0.12431586
73	0x3cc490ab	0.023994764
74	0x3acd65ba	0.0015670576
75	0x3dec5c4d	0.115410425
76	0x3da71349	0.08157975
77	0xbbe7e378	-0.007076677
78	0xbcae49f1	-0.021275492
79	0xbdb64162	-0.088991895
80	0x3dbe8234	0.09302178
81	0xbdf19397	-0.11795729
82	0x3dfca990	0.12337029
83	0xbd839bdc	-0.06426212
84	0x3d752935	0.05985375
85	0x3d98122e	0.074253425
86	0xbdf9e0d1	-0.122010835
87	0xbde391ad	-0.1111177
88	0x3d2ca289	0.042147193
89	0x3d8f2998	0.06990355
90	0x3ddb7414	0.107154995
91	0xbcbdcec5	-0.023169884
92	0x39bdc600	0.0003619641
93	0xbdbe15dd	-0.09281514
94	0x3de21902	0.11039926
95	0xbd813c1a	-0.063102916
96	0xbde93817	-0.113876514
97	0xbcc1dcbb	-0.023664823
98	0x3bcb23e8	0.0061993487
99	0xbdb27c7a	-0.08715148
100	0xbd7abdc4	-0.06121613
101	0xbde9630a	-0.11395843
102	0x3da0b926	0.07847814
103	0x3b5a8600	0.003334403
104	0x3db0761e	0.08616279
105	0xbd278bd4	-0.040904835
106	0x3dfaf9d6	0.12254684
107	0xbd85d3ec	-0.065345615
108	0xbdbbd050	-0.09170592
109	0xbdd000bc	-0.1015639
110	0xbd96fd8c	-0.07372579
111	0x3ddde2fe	0.10834311
112	0xbe01fd35	-0.12694247
113	0x3d56323e	0.05229401
114	0x3c89e788	0.016834036
115	0x3df020f0	0.11725032
116	0x3dd59128	0.10428077
117	0x3d4a439d	0.049380887
118	0xbd9fbfe4	-0.07800272
119	0xbc2088cc	-0.00979824
120	0xbda2cb87	-0.07948976
121	0x3cfcbd04	0.030851848
122	0xbdb56949	-0.08857972
123	0xbdeac46b	-0.11463245
124	0x3d5e425c	0.054262504
125	0xbba7dcbc	-0.005122749
126	0x3d968fd6	0.07351653
127	0xbd59852f	-0.05310553
128	0xbddd46ca	-0.108045176
129	0xbb343b52	-0.0027501178
130	0x3ccfa8e1	0.025349082
131	0x3c39ac8c	0.011332642
132	0xbc4d0fde	-0.01251599
133	0xbcef4d10	-0.029211551
134	0xbd0fbff0	-0.035095155
135	0xbd11f37c	-0.035632595
136	0x3da597fd	0.0808563
137	0x3dbc0cb8	0.091821134
138	0x3d6d4426	0.05792632
139	0x3dc2f76e	0.0951985
140	0xbe072436	-0.13197407
141	0xbd4c92f4	-0.049944833
142	0x3d066a4b	0.032816213
143	0x3da193cc	0.07889518
144	0xbd430a80	-0.047617435
145	0x3c7f08ca	0.01556606
146	0x3dabe3da	0.083930686
147	0x3cf85cf4	0.030317761
148	0xbdd2ecc9	-0.102990694
149	0x3de62c24	0.11238888
150	0xbdf5a5db	-0.11994525
151	0xbd20bd3d	-0.03924297
152	0xbc60e48a	-0.013726363
153	0x3dbcb114	0.092134625
154	0xbdd3712a	-0.10324319
155	0xbcb69cf8	-0.022291645
156	0xbc365740	-0.0111292
157	0xbc83c038	-0.016082868
158	0xbdbfc123	-0.0936301
159	0x3cc3a578	0.023882613
160	0xbbc2bedb	-0.005943162
161	0xbded301f	-0.11581444
162	0xbc480220	-0.012207538
163	0xbd900b8f	-0.070334546
164	0xbd9d4c9c	-0.07680628
165	0xbdd1af1a	-0.10238476
166	0x3bc42340	0.0059856474
167	0x3d8168f3	0.063188456
168	0x3d7c6d60	0.061627746
169	0x3db956bc	0.090497464
170	0xbd9c4fb2	-0.07632388
171	0x3c2535b0	0.010083601
172	0x3ca91fa0	0.020644963
173	0xbd7a4fe4	-0.061111346
174	0x3d033d4a	0.03204087
175	0x3d28b440	0.041187525
176	0x3ddbd555	0.10734049
177	0xbdd353da	-0.10318728
178	0xbca9a6e8	-0.02070947
179	0xbd858d9d	-0.06521151
180	0x3d948a60	0.072529554
181	0xbd0ae684	-0.033911243
182	0x3dc4cc10	0.09609234
183	0x3d2baea4	0.041914597
184	0xbdaf48ae	-0.085587844
185	0xbdb854b0	-0.09000528
186	0x3dde30c5	0.10849146
187	0xbbc4eef3	-0.0060099303
188	0xbe0324e0	-0.12807035
189	0xbce8d228	-0.028420523
190	0xbdd057ae	-0.101729736
191	0x3be707f5	0.007050509
192	0xbc6861ac	-0.014183443
193	0x3d542169	0.051789675
194	0x3deda0be	0.11602925
195	0xbd0a19ed	-0.03371613
196	0xbc4bfcbb	-0.012450392
197	0xbd57fac4	-0.052729383
198	0x3dec7294	0.115452915
199	0x3bd8d86c	0.0066175964
200	0x3b71d593	0.0036900982
201	0x3dd94dfc	0.106105775
202	0x3d8cc391	0.06873239
203	0x3b6ac3d1	0.0035822282
204	0x3c4e825c	0.012604322
205	0xbd371010	-0.044693053
206	0x3dd91868	0.10600358
207	0xbd8b236c	-0.067938656
208	0x3c02b63a	0.0079780165
209	0x3ddbcb2c	0.10732111
210	0xbdece4b3	-0.115670584
211	0x3d1b6bd4	0.03794463
212	0xbd91d874	-0.07121363
213	0x3d489aae	0.04897564
214	0x3d18ebbf	0.0373342
215	0xbdba737e	-0.0910406
216	0xbd0948e2	-0.033516772
217	0xbe0a5a23	-0.13510947
218	0xbd4d4841	-0.050117735
219	0xbddb59eb	-0.1071051
220	0xbdf762f1	-0.120794185
221	0xbbe93959	-0.007117432
222	0x3e0fd960	0.14047766
223	0x3d4c5327	0.049883988
224	0x3d9b668d	0.075879194
225	0x3d442f73	0.047896814
226	0x3dbf7b2b	0.09349664
227	0x3d7b658c	0.06137614
228	0xbd98164c	-0.07426128
229	0xbe019f2e	-0.12658378
230	0xbdc5be06	-0.09655385
231	0xbd8c246b	-0.06842884
232	0xbda61148	-0.08108765
233	0x3dde15c2	0.10843994
234	0xbce348e5	-0.02774472
235	0x3d933527	0.071878724
236	0x3d619d00	0.055081367
237	0xbdc5ccb8	-0.09658188
238	0x3cf8d9dd	0.030377323
239	0xbd50e9b8	-0.05100414
240	0xbdfe529d	-0.12418101
241	0x3daa3d4b	0.08312472
242	0x3ddc4caf	0.10756814
243	0xbdf5e405	-0.12006382
244	0x3da0abce	0.07845269
245	0xbbcc8b1e	-0.00624217
246	0xbdcc816c	-0.09985623
247	0xbb2d675d	-0.0026459314
248	0x3d9eab35	0.07747499
249	0xbdefb1b4	-0.11703816
250	0xbc6913f0	-0.014225945
251	0x3d2a4a28	0.041574627
252	0xbdbda537	-0.09260028
253	0xbe08c6b1	-0.13357045
254	0x3d019635	0.03163739
255	0xbd2c1396	-0.042010866

bias f4 [64]
0	0x3d930823	0.07179286
1	0xbd8c3338	-0.06845707
2	0x3c9a4edc	0.018836431
3	0x3dfa8d7b	0.122340165
4	0xbd4d1c14	-0.050075606
5	0xbbb940e0	-0.0056534857
6	0xbc2fe090	-0.010734692
7	0xbdc0a16c	-0.09405789
8	0x3d77e60f	0.060522135
9	0x3dda465a	0.1065795
10	0x3dcc3d2d	0.09972606
11	0x3be8aefb	0.0071009374
12	0x3e358a5c	0.17728561
13	0x3d1eba00	0.038751602
14	0xbdb36037	-0.08758586
15	0xbdfec496	-0.124398395
16	0x3d662007	0.056182887
17	0x3d98df66	0.07464485
18	0x3daa594d	0.08317814
19	0x3e30b88f	0.17257904
20	0xbd5f703f	-0.054550406
21	0xbdbed580	-0.09318066
22	0x3b459be5	0.0030152735
23	0xbd541446	-0.051777147
24	0xbd820474	-0.063485056
25	0xbdfce404	-0.12348178
26	0xbd9f5c2c	-0.07781252
27	0xbd963f7f	-0.0733633
28	0x3d0b45dd	0.034002174
29	0x3c598842	0.013277115
30	0xbce47d84	-0.027891882
31	0x3e15a782	0.1461468
32	0x3dff1c03	0.12456515
33	0x3dd911c4	0.10599092
34	0x3d4d71b0	0.05015725
35	0xbcc967fe	-0.02458572
36	0xbc709d95	-0.014686008
37	0x3e09bd19	0.13451041
38	0xbd99c139	-0.075075574
39	0x3da48862	0.080338255
40	0x3c87eb2b	0.016591629
41	0xbdee549a	-0.1163723
42	0xbc7694bb	-0.015050109
43	0xbd1b00e0	-0.03784263
44	0xbcc8f9d8	-0.024533197
45	0x3c61226a	0.013741115
46	0x3da5b87f	0.080918305
47	0x3d97dc53	0.074150704
48	0xbcaaac0c	-0.020833991
49	0xbd432034	-0.047638133
50	0x3cab5467	0.02091427
51	0xbdf952e4	-0.12174013
52	0xbdf74992	-0.12074579
53	0x3e00edc7	0.12590705
54	0xbd97c28e	-0.07410155
55	0x3caddc18	0.021223113
56	0xbd401505	-0.046895046
57	0x3e253959	0.16135158
58	0xbd195cc3	-0.03744198
59	0x3d74ebbf	0.059795137
60	0xbd39617a	-0.045258977
61	0xbda95c9a	-0.082696155
62	0xbdc49260	-0.09598231
63	0xbdde29f2	-0.10847844

weight f4 [1, 64]
0	0xbdb2b445	-0.0872579
1	0x3d7c3bbe	0.061580412
2	0x3d96a256	0.07355182
3	0x3e23a004	0.1597901
4	0x3d6eede1	0.058332328
5	0x3d9f6920	0.07783723
6	0xbdd6a4f8	-0.10480684
7	0xbd81e100	-0.063417435
8	0x3d895c32	0.06707038
9	0x3c6cb526	0.014447486
10	0x3d89dd85	0.067317046
11	0x3c9b60c3	0.018967038
12	0x3df3d340	0.11905527
13	0xbe0ce085	-0.13757522
14	0xbe01170f	-0.12606452
15	0xbdeed646	-0.11661963
16	0xbd6c77d4	-0.057731465
17	0x3e0f43b9	0.13990678
18	0x3d851ba2	0.06499411
19	0x3e02a1ef	0.12757085
20	0xbd0b3c9f	-0.03399336
21	0xbdf1266a	-0.11774905
22	0xbd9ebceb	-0.07750877
23	0x3c8e71e4	0.017388292
24	0x3d517c68	0.051144034
25	0x3d2d5b20	0.04232323
26	0xbd8ec2b3	-0.0697073
27	0xbc0e6905	-0.008692031
28	0x3db154e2	0.08658768
29	0xbdbbeba2	-0.09175803
30	0x3d182a38	0.037149638
31	0x3d92d426	0.0716937
32	0x3e231366	0.15925369
33	0x3e045de6	0.12926444
34	0x3de2999a	0.110644534
35	0x3daa2420	0.083076715
36	0x3cd72cfa	0.026266564
37	0x3dd0e920	0.10200715
38	0xbdc8854e	-0.09791051
39	0x3beac6cb	0.0071648112
40	0x3c066722	0.0082033
41	0xbca96f30	-0.020682901
42	0xbd70fc54	-0.05883439
43	0x3dab72ef	0.08371531
44	0xbdf86bf6	-0.12129967
45	0xbdcac3a7	-0.09900599
46	0xbcd51e52	-0.026015434
47	0x3deaefb9	0.11471505
48	0x3d42b8a4	0.04753937
49	0xbdf83726	-0.12119894
50	0xbd38b357	-0.045092907
51	0x3d190c4c	0.037365243
52	0x3d6b82dc	0.057497844
53	0x3de8d151	0.11368049
54	0x3d43f0b8	0.04783699
55	0x3b177014	0.0023107575
56	0xbc2fa0a0	-0.010719448
57	0x3dfe5df9	0.124202676
58	0xbdf1d1ce	-0.11807595
59	0x3c9b452e	0.018953886
60	0xbd3cf73a	-0.04613421
61	0x3dea43d8	0.114387214
62	0xbd247260	-0.04014814
63	0xbcbe4ee8	-0.023230985
