models/1d-heat-pinn-100epochs-lr0.001-adam-x51-t1000-alpha1.22e-3.pt (torch, 56619 bytes, 9 tensors)

weight f4 [64, 2]
00000000: 7e81 5ebe 15a1 3abe 7703 23bf 57b3 68be
00000010: b7e7 e2be ff6a 10bf 42f4 ddbe ec78 15bf
00000020: 6e9f 0cbe 9d5f 593d 759a ba3d 731d 2dbf
00000030: 63b1 d23e 8a90 9d3c 8713 733e 44af 0e3f
00000040: 4ff0 b4be 8b8d fcbc 9abf 99be 93b4 933e
00000050: cf6e 8fbe 9735 c2be ae8d 50be 2de0 2dbe
00000060: 40b0 e93c 4083 503d 8d86 3e3f bed3 783e
00000070: 0fee 673e c2ed c0be 2d4b a3be b692 fe3e
00000080: 87b7 12be 1fbb 32bf 6ce1 9e3e 51bb 173d
00000090: 3f97 ff3d 09c3 b1be 1368 babe 000a cd3e
000000a0: 3c51 b93e 22ae d73e 0586 fd3e 0382 2e3e
000000b0: b892 0c3f 734d dd3e 6d8c 923e 27ca 28bf
000000c0: 534c 203f 7ea9 c7be af75 1dbe 4225 2bbe
000000d0: 9040 fa3e ef65 5bbe 9016 213e c71b bd3e
000000e0: 03e4 003e a1b3 a53e 500a c0be 1017 dabd
000000f0: ef5d 263e 5192 0ebe a556 93be 65ce d1bd
00000100: 3c66 c63c 3556 7c3e 8aae e9be e061 05be
00000110: 9d62 a03e b127 e13e 6471 cd3e 12a2 29be
00000120: 0f73 00bf 75e7 e2be 165d c43d cc2a e0be
00000130: d3b8 95be b55e c0bd 0ef5 aa3e c735 2bbf
00000140: 413b a1be 5217 253f 31c1 b3be f823 88be
00000150: 1985 87be b2bb b9be 4c92 253f a625 073e
00000160: 2f9c c8be 0a1b b63e ee0b 09bf 584a 133f
00000170: 677a 253f ac05 ec3e a383 7f3e 8b17 003f
00000180: e4bb b6be 52b9 04bf 5873 a03e 229c 163f
00000190: 0853 523e 3f40 0fbf 695d c43e 5c18 6fbe
000001a0: 3755 f4be cbb8 773e 5d3f 05bf febf f0be
000001b0: a302 57be 7e10 5cbe eca9 783e 376c cd3e
000001c0: 72f3 b13e bfa5 1fbf 3c48 ffbe f1b0 813d
000001d0: baea 04bf d6aa 973e 7bb4 063f 3c4a 7fbe
000001e0: ff09 2d3f 2698 9cbe 7d95 e3be bdcb 4bbe
000001f0: 2bce 833d 7cd5 ca3e 94da 023e c009 adbe
-0.21729085 -0.1822551 -0.6367716 -0.22724663 -0.4431741 -0.56413263 -0.43350416 -0.5838764
-0.13732693 0.0530697 0.091114916 -0.6762306 0.4115096 0.01923396 0.23737918 0.55736184
-0.3533959 -0.030829212 -0.30028993 0.28848705 -0.28014228 -0.3793151 -0.20366547 -0.16980048
0.028526425 0.05090642 0.7442406 0.24299523 0.22649406 -0.37681395 -0.31893292 0.49721307
-0.14327823 -0.69816774 0.31031358 0.037043873 0.1248002 -0.34719113 -0.36407527 0.40046692
0.3619479 0.4212504 0.4951631 0.17041783 0.54911375 0.43223152 0.2862276 -0.6593346
0.6261646 -0.389965 -0.15376924 -0.16713431 0.48877382 -0.21425603 0.15731263 0.36935255
0.1258698 0.32363608 -0.37507868 -0.1064893 0.1624677 -0.13923003 -0.28777042 -0.10244445
0.024218671 0.2464226 -0.45640975 -0.13025618 0.31325236 0.43975595 0.40125573 -0.16565731
-0.50175565 -0.44317213 0.09588067 -0.4378265 -0.29242572 -0.09393064 0.33390087 -0.6687893
-0.3149052 0.6448871 -0.3510833 -0.26589942 -0.26468733 -0.36276013 0.64676356 0.13197955
-0.3918166 0.35567504 -0.5353383 0.57535315 0.64639896 0.46098077 0.24952559 0.50035924
-0.35690224 -0.51845276 0.31338 0.5883199 0.20539486 -0.55957407 0.38352516 -0.23349136
-0.47721264 0.24191587 -0.5204981 -0.47021478 -0.209971 -0.21490666 0.2428357 0.40121624
0.34756047 -0.62362283 -0.49859798 0.06332577 -0.51920664 0.29622525 0.5261914 -0.24930662
0.6759338 -0.3058483 -0.44449988 -0.19901939 0.06435808 0.39616 0.12778693 -0.337965

bias f4 [64]
00000000: a5f2 b23e d208 97be 82b1 203e 9987 d23e
00000010: 8df1 203e ebe7 b3be 44f8 45be 64f7 e6be
00000020: 584e 143f 8259 ca3d a4cd 9b3d 8869 b9be
00000030: dc3c dabe 73fe 03bf 4803 873e b386 41be
00000040: 5e83 bebd e9e2 513e 8605 f13d dbfe 4fbe
00000050: 8af8 c9be 31d9 1abe d9b9 23bf efe4 923e
00000060: a942 0a3f 0737 e73e 5ed0 ecbe 958d e6be
00000070: d9d5 cb3e a7a5 973d 78e6 b93d 0e3c 00be
00000080: 5fba ab3e 192e 77bd d5ba 18be 3807 00bf
00000090: 9dbf 303f 63f5 1c3f 197e 093f e453 143f
000000a0: 3b95 193f 3784 af3e 892d 34bf cc21 15be
000000b0: 2ec7 133c 4b40 263f 8217 b33e 4296 8fbe
000000c0: e012 3cbe eafc 41bf ecd0 393f d938 b2bd
000000d0: 7d18 ea3e 3ddd 673e 1b92 4f3e 72d0 693e
000000e0: ccf8 81be 9fb3 d7be efda c2be 758d acbe
000000f0: 8868 8b3e 5680 5f3d b627 f13e e643 1f3f
0.34950748 -0.29498917 0.15692714 0.41119078 0.15717144 -0.35137877 -0.19332987 -0.4511062
0.57932043 0.098803535 0.07607582 -0.36213326 -0.42624557 -0.51560134 0.2636969 -0.1889904
-0.093024 0.20496716 0.11768632 -0.20312063 -0.39447433 -0.15121914 -0.63955456 0.28690287
0.54007965 0.4515917 -0.46252722 -0.45029894 0.3981159 0.074046426 0.090771616 -0.12522909
0.33540627 -0.060346697 -0.14915021 -0.50011015 0.6904238 0.6131193 0.53708035 0.57940507
0.5999333 0.3428056 -0.7038198 -0.14563674 0.009019656 0.64941853 0.34978873 -0.28044325
-0.18366575 -0.7577654 0.72584414 -0.08702249 0.45721808 0.2264299 0.20270579 0.22833422
-0.2538513 -0.42129228 -0.38057658 -0.33701673 0.2722819 0.05456575 0.4710061 0.6221298

weight f4 [64, 64]
00000000: 3f8f e73d 877b b5bb 6ab0 a9bc c168 dbbc
00000010: e9af d13d 54eb 3aba cd6f cc3d 7a88 b53c
00000020: d493 e43d e517 e3bd dc02 bd3b d05a 9dbd
00000030: 0e92 d0bd 0d19 c0bc 8e42 c3bd d0e6 91bd
00000040: 89d2 f03b 6e1b 893d 63e2 d43c 300f f33d
00000050: 070b 5fbd ce09 1c3e dfdf e93d 9c71 cbbd
00000060: 46f6 083c 9fa2 d53d b223 9ebc fb0c 8c3d
00000070: 020c cebd 40c6 d2bd 28db e33d ac26 e53d
00000080: 82ee bbbd eba6 c0bd bde4 693d c1e2 25bd
00000090: 1f30 e93c c27f f7bd d0d9 c73d af41 2abd
000000a0: cc0d 7dbc 88e0 143d c2f5 8cbc faec b33c
000000b0: 46c8 65bd 0d7b c73b ef4a 6bbc d949 cc3d
000000c0: 3d4b 423d 761e 1dbd a6c7 ac3d ef84 853b
000000d0: 2eab f03d 0c9d 0e3d 6034 3dbb 2f67 023e
000000e0: 6a9d a43d 5419 ffbb 618e 4f3d e205 023e
000000f0: f8be 20bd 3de0 903d 3771 da3d 5a37 f9bd
00000100: e10c 73bd 20c8 ca3d b75c b6bd 5da5 80bd
00000110: 7289 1e3e 0221 a3bb e2cc 68bb a03d cb3b
00000120: cbc5 80bd d4bb 06bd 7e6f 8b3d 1728 aabd
00000130: 508a 8d3c 29ff 173e aa08 c73d 016f ac3c
00000140: c6ca 79bd 21d1 163e a34f 133e e620 293c
00000150: 0ae7 86bd 4732 133e 6d69 993d 88a2 e73d
00000160: 2806 94bd 27a5 2abd f5c0 fe39 9560 693d
00000170: 446a 22bb 3092 90bd 7c17 d93d 8582 9c3d
00000180: d52f 62bd b223 6b3c 3366 a0bd 0464 173e
00000190: d1ba 8bbc c300 3cbd 8c6a bebd f107 e03d
000001a0: 0067 06bc 58ca 69bd e410 65bd 6848 1c3e
000001b0: 4a43 f83d 63cd cf3d cb38 863d 1839 cebc
000001c0: d0ac 89bd 8470 8dbd c260 763c 2145 c33d
000001d0: 0707 553d 2209 dfbc 7095 2ebd 9bcb 093d
000001e0: 3aa9 a9ba 97f7 b03d 0f5c 59bc 53b8 f33d
000001f0: 1374 29bc 6a54 b7bd c373 813d 7ded b03d
00000200: 7b70 87bb 8510 ff3c bd18 953d b310 6dbd
00000210: acb3 13bd 2640 803d 853e 10be 82d3 a4bc
00000220: b5a5 953d 765d 373c 934e b13d 36e8 c3bd
00000230: e822 ed3c 99be e1bd 50e7 f53d 8e4b 673d
00000240: 5b40 e4bd 85f2 f3bd ed8b f23d e33d d9bd
00000250: 3d3b 133e bb45 10be 6e3c 6fbd ee0d c7bc
00000260: 7381 ff3d cd32 8bbd 6c51 c6ba c3ca 83bc
00000270: d6be a93d 139c 043d a8fe 083d f586 fbbc
00000280: bd19 3d3d a453 0c3d f0ad c43c e4e5 a8bd
00000290: 4919 073e de9c 32bd 7438 6a3b b6ea b13d
000002a0: da5d 8bbd cad3 d93d 67b5 9dbd 884c 57bd
000002b0: 1f7c afbd 1131 c73d e8b6 c83a 1fe6 923c
000002c0: ad8f eabc d589 80bd 38f5 873d dcb2 ad3d
000002d0: 7582 9ebd 054a c6bd d4b3 4e3c b0af 313c
000002e0: d23a 1bbc 8e12 9e3d d37c 68bd f258 55bc
000002f0: 452c a6bd e79a 1ebd bf6b cc3d 8206 083e
00000300: c1e9 86bd 9abd 9b3d b668 cabd 82f9 4ebd
00000310: e538 cd3d 2640 f03d d3ea 1bbd f383 b3bd
00000320: c516 dbbc e820 ae3c e794 063e 2fe1 963d
00000330: 885a b1bc 183f 5fbd 453b fa3d 3bdc dcbb
00000340: 5996 95bd d675 023e f72b b2bc 1c78 bdbd
00000350: 4df6 633d 478d 01be 1d63 9b3d a877 363d
00000360: b7d6 923d 269d c53d bb16 cabd 4c65 f63d
00000370: 5adc 90bd 3f86 bcbc e299 1ebd 48ce ed3a
00000380: 1aeb bc3c 2c6a ba3d fa7c 2abc 5603 92bb
00000390: 1a4f c83d b20e ca3d 3908 adbd 72c0 29bd
000003a0: 9445 a3bb 3296 41bd c506 cebc 0241 583c
000003b0: b64a 40bd 7de9 243d 1496 d5bd a934 e83d
000003c0: c171 263d f62d 763d 8b85 c3bb db60 113d
000003d0: 673d b43d 90eb 57bd 735a 6e3c 6021 acbd
000003e0: 47f1 043e 6c58 56bc 2d96 d3bd 471e d5bd
000003f0: 6362 c23d 3d6f 8dbd 37e6 52bc 96b5 25bd
0.11306619 -0.0055384072 -0.020714004 -0.026783349 0.1023863 -0.00071304035 0.09982262 0.022159804
0.111610085 -0.11088542 0.005768163 -0.07683337 -0.10184108 -0.023449445 -0.09534179 -0.07124102
0.0073493165 0.06694685 0.025986856 0.11868131 -0.054453876 0.15238115 0.11419653 -0.09933779
0.008359497 0.10431408 -0.01930413 0.06838413 -0.10060884 -0.102917194 0.11125785 0.11189017
-0.09176351 -0.09406837 0.057102907 -0.040499453 0.028465329 -0.12084915 0.09758341 -0.041566547
-0.015445184 0.036346942 -0.01720703 0.021963585 -0.0560992 0.006087667 -0.014361127 0.09975023
0.047435034 -0.038359128 0.084365174 0.004074685 0.117514 0.03481774 -0.002887033 0.12734674
0.08037837 -0.007785002 0.050672892 0.12697557 -0.039244622 0.0707402 0.10666125 -0.121687606
-0.059338454 0.09901452 -0.08904403 -0.062815405 0.15482119 -0.0049783 -0.003552251 0.0062024146
-0.06287726 -0.03289397 0.06808375 -0.08308428 0.017277867 0.1484343 0.097184494 0.021049025
-0.060984395 0.14728214 0.14385848 0.010322785 -0.06587036 0.14374648 0.074908115 0.11310297
-0.07227737 -0.041661408 0.0004859042 0.056976873 -0.0024782578 -0.07059133 0.106001824 0.07642082
-0.055221397 0.014351772 -0.07831993 0.14784247 -0.017056854 -0.045899164 -0.09297666 0.10939015
-0.008203268 -0.057077736 -0.05592431 0.15261996 0.12122209 0.10146596 0.06553801 -0.025173709
-0.067224145 -0.06906226 0.015037717 0.0953467 0.052008655 -0.027226035 -0.042622983 0.03364144
-0.001294411 0.08640974 -0.013266577 0.119003914 -0.010342616 -0.089516476 0.06320908 0.08639047
-0.0041332818 0.031135807 0.07280109 -0.057877254 -0.03606002 0.06262235 -0.1408635 -0.020120386
0.07306997 0.011191716 0.08657565 -0.09565775 0.028947309 -0.11022682 0.1200701 0.05646854
-0.11145087 -0.11911491 0.11843095 -0.10607507 0.14378066 -0.140891 -0.05840724 -0.024298634
0.12475862 -0.06796799 -0.0015130467 -0.016087895 0.08288352 0.032375406 0.033445984 -0.030704001
0.046167124 0.034259453 0.024008721 -0.08246973 0.1319324 -0.04360663 0.0035739215 0.08687346
-0.0680501 0.10636099 -0.077006154 -0.05256322 -0.08568596 0.097261555 0.0015313299 0.017931996
-0.028632963 -0.062762894 0.06638569 0.0848138 -0.077397265 -0.09682087 0.012616117 0.01084511
-0.009474473 0.07718383 -0.056759667 -0.0130216945 -0.081139125 -0.038721945 0.099814884 0.13283733
-0.06587554 0.07604523 -0.09883253 -0.050530918 0.100206174 0.11730985 -0.038065743 -0.08765402
-0.026744256 0.021255925 0.13142739 0.07367169 -0.021649614 -0.05450353 0.12218336 -0.0067401207
-0.07304067 0.12740263 -0.02174948 -0.09251425 0.055654813 -0.1265155 0.07587264 0.044547707
0.0716986 0.09649114 -0.09867617 0.120310396 -0.07073279 -0.023013232 -0.038720973 0.0018143142
0.023061324 0.09102282 -0.010405773 -0.004455964 0.097807124 0.09866084 -0.08448834 -0.041443296
-0.0049826596 -0.047262378 -0.025149712 0.013199093 -0.04694625 0.040261734 -0.10429016 0.11338169
0.040635828 0.060102426 -0.0059668473 0.03549276 0.08800774 -0.052714884 0.014547932 -0.08404803
0.12982665 -0.013082605 -0.10331378 -0.104061656 0.09491422 -0.06905983 -0.01287227 -0.040456377

bias f4 [64]
00000000: 348c de3b 6ae4 23bd 3e89 6abd b8b7 0f3e
00000010: ce2c 043e bfff 88bd 2a42 97bd 6110 d6bd
00000020: 3434 f93d f70f 933c 437e d7bd f313 363d
00000030: 7893 383d 62af 9ebc 15d6 c9bd 689c c73d
00000040: 0808 d33c 64e2 893d ac19 d9bd b310 c9bd
00000050: 16d1 cbbd 009c c9ba 4b71 043e a79f b73c
00000060: 2df6 a83c 0ced 4dbd f0a9 9f3d bfd3 7cbd
00000070: f0c6 063c ebd0 033e 3449 d83d 608c b1bc
00000080: faa2 8abd 70f3 1f3d 2aac 61bc 5b80 253d
00000090: a523 1eba 6db5 c3bd e8dc 14bd 8b4b f2bc
000000a0: d8f5 4dbd 61f2 4d3d 3163 b43d dc24 06be
000000b0: c15c a2bd fa1b 1f3d 54c6 ce3d 8745 d93c
000000c0: a7d5 963d 1a46 343c 5eb4 e03d 68cf 9dbd
000000d0: a853 f53d 37d9 59bd 80ac 343d bb78 2d3d
000000e0: c8dd 2f3d c569 613c a663 4ebc 0711 083d
000000f0: 9f25 6a3d ece0 b7bc 6ba0 63bc ada2 e9b9
0.006791616 -0.040012754 -0.05725979 0.14034927 0.12907717 -0.06689405 -0.07385667 -0.10452343
0.1216816 0.017951949 -0.105221294 0.04445262 0.045062512 -0.019370738 -0.09855286 0.09746629
0.025760666 0.06732634 -0.106006 -0.09817638 -0.09951989 -0.0015381575 0.12933843 0.022414995
0.020625198 -0.050274894 0.07796085 -0.061725374 0.008226141 0.12872665 0.105608374 -0.021673381
-0.067693666 0.03905052 -0.013773957 0.040405612 -0.0006032533 -0.095560886 -0.036343485 -0.029577037
-0.050283283 0.05027998 0.08807982 -0.13099998 -0.07927848 0.03884504 0.10096422 0.026522411
0.0736497 0.011003042 0.10971902 -0.07705575 0.11978847 -0.053185668 0.04410982 0.042351466
0.042936116 0.013758128 -0.012597 0.033219364 0.057164785 -0.022446118 -0.013893227 -0.00044562426

weight f4 [64, 64]
00000000: 3e20 e3bc 364d e53d ee59 3f3d 22f5 2c3d
00000010: ed59 7b3c 9f6a b83d 59b8 f43d 2762 393d
00000020: c3fd ce3a 69fa cb3d 44e9 bfbd 9c72 7b3d
00000030: 8472 8a3d 30bf 1abd 888a 71bc 4e6b b9bb
00000040: e8a3 18bd 5d4c ddbd d156 a1bd 5c7e d1bd
00000050: 6c08 293c 6a30 fd3d c520 7dbd d9a9 923d
00000060: c69a a7bc 7b69 803d 35e4 953c 79f9 8d3b
00000070: 60b0 00bd df51 a6bd 6302 9e3c 1e07 053e
00000080: 781d 8ebc c911 343d b2b7 733d b5bd c73d
00000090: d144 003e eac2 8f3d c61f 0b3e bd07 80bb
000000a0: b060 d33d 7cc6 953d 5b5c 9b3d 4cd5 96bd
000000b0: 4201 3abd 70e3 29bc 393c 0cbd 9c9a 12bd
000000c0: ff01 8d3d e4d1 c0bc c089 d53d 2983 8dbc
000000d0: 250e a9bc 8d84 01bd 571d ed3d a3e0 043e
000000e0: c0ef 05bd 923e b53d 161d c3bc 4532 763d
000000f0: 4c0b 503d 076d a4bd 17dc ac3d eed1 bd3b
00000100: 2dd7 e23d 1db1 a2bd 44be 61bd 62e6 57bd
00000110: 6afe e4bd 7747 943d b0cb 333d dc3e 463d
00000120: a76c 9e3b 439b 043c 5324 143d 947e 383d
00000130: 61d0 3d3d 5060 dc3d 28e9 bc3d 83ff 7e3d
00000140: 88b6 a33c be52 97bd e4af c5bd feb7 f3bc
00000150: 629d 84bd 1e2f ddbd c68e b6bd bc61 f4bd
00000160: 499e 05be 5cb5 5c3d 0d28 a4bd 838d 8ebc
00000170: 8856 17bd 6c30 e03d 1d54 f73d fb1a 673d
00000180: e0a7 de3d b2de 573d c8ef db3d 44b0 7fbc
00000190: f78c c2bc 90f7 49bd 4ff6 343b cd3b cfbd
000001a0: 6067 e6bd 2762 eb3c 8a3a 91bd e9f9 e03d
000001b0: ef84 693c 58fc 4f3d 70b3 da3d c217 d6bd
000001c0: a0f1 0ebc 0aad ebbb 0d97 47bd ad0c 863d
000001d0: aaaf 853d 60e1 523b b4fc 533d b75a 813d
000001e0: b09b 163c ea2e 9bbb 437f d0bd f13e d3bd
000001f0: 4019 7dbc 999d a43d dde4 1a3d 2567 a4bd
00000200: a6c8 0c3d 3741 abbd 7199 893d 717f 493c
00000210: e2db 07bd d335 933d 073d 64bb f09a f83c
00000220: d834 86bd 76d5 6dbd 0235 f23d df42 eebd
00000230: aa25 8ebb 9c44 443d bca2 0a3d 7d37 01be
00000240: 8069 353b 682e 553d ab8f e63d b6e9 093d
00000250: 1d83 cbbd 50f0 6d3d 70ad c2bc fb0f 983d
00000260: 2b27 263d 55ba debc ba30 2b3d 6792 0abd
00000270: 1805 e53c 6d4a ddbd 1ddc 5d3d fa3d f2bd
00000280: de35 8e3d c5d5 76bd 59cb 36bd 2cc9 2ebd
00000290: 8f5b 0bbe 599d 9e3c f781 8bbd d724 b93b
000002a0: 64b9 95bd 67df f1bd 13dc dfbd 7c60 9d3d
000002b0: afb0 c9bd fd72 b6bd 01ec 863d 770c 363d
000002c0: 80f4 13bb 29bc 663d 5b85 e9bd 7e3c b5bd
000002d0: 159e 7bbd a8dd aa3d 0328 573c c440 bc3d
000002e0: 4674 95bd 77f0 e23d 8d2d 833d f2dc ccbd
000002f0: 6dd5 28bd 6b05 e33c 4a24 9cbc a4c5 94bd
00000300: 44d8 983d 0a8e ca3c 0049 25bc d835 ce3d
00000310: 18c1 f9bd 2161 21bd 79bd 02bd 0898 4abd
00000320: 841d c13d fc3b b2bb a8bc 9dbd 1194 d8bd
00000330: d755 3c3c ce0d d8bd f779 f5bc 893c f83c
00000340: 808f 963c c2f9 723d d279 733d 1582 d7bd
00000350: f36b 1d3e 406f 363d d1a0 ba3d 3b4f f3bd
00000360: a4db d0bd 2319 dbbd 6ffd e03d 0971 28be
00000370: a014 eebd 2f5c c4bd fc53 09bc a369 adbd
00000380: f672 02bd 2ea4 16bc ec9f f2bc 7051 2e3d
00000390: 9867 cfbd f28a 93bd 3ee9 a93d 4f29 183d
000003a0: 2609 83bd a52c 9a3d 70b1 a1bd aeec be3c
000003b0: 08c8 57bd 852f f6bb 6c20 bf3d 91c8 abbd
000003c0: e468 523d 6fe6 b8bc 1f1a a5bc 63b4 c2bd
000003d0: f0d9 0bbe 48b4 853c 5c83 94bc 0223 47bd
000003e0: 1a6b b8bd 334d c13d 8604 743d ab10 b3bd
000003f0: a1ec fc3b 8c61 013e 49d8 0abe bcd8 c5bd
-0.027725335 0.111963674 0.046716623 0.042225964 0.015341264 0.09004711 0.11949224 0.04525962
0.001579218 0.09959871 -0.09370664 0.061388597 0.06760123 -0.037779987 -0.014742501 -0.0056585437
-0.03726569 -0.10805581 -0.07877887 -0.10229179 0.010316949 0.1236275 -0.06179883 0.07161302
-0.020459544 0.06270119 0.018297294 0.004332718 -0.031418204 -0.081210844 0.019288247 0.12990996
-0.017348036 0.043962274 0.059501357 0.097529806 0.12526251 0.07019599 0.1358634 -0.0039071725
0.10321176 0.073132485 0.07585975 -0.07364902 -0.045411356 -0.010369167 -0.03423712 -0.03579198
0.06885146 -0.023537584 0.10426664 -0.017274456 -0.020636627 -0.03162055 0.11577862 0.12976317
-0.032699347 0.08849825 -0.02381758 0.060106535 0.050792024 -0.08028608 0.08440416 0.005792848
0.11076198 -0.07943938 -0.055113092 -0.052709945 -0.11181338 0.07240193 0.043895423 0.04839979
0.0048347297 0.008093658 0.036167454 0.04504259 0.046341304 0.10760558 0.092241585 0.062255394
0.019984499 -0.07388829 -0.09652689 -0.02975082 -0.06475331 -0.108000025 -0.089139506 -0.11932704
-0.13048662 0.053883895 -0.080154516 -0.017401462 -0.036947757 0.10946736 0.1207659 0.056422215
0.10871863 0.052702613 0.10739094 -0.01560599 -0.023748858 -0.04930836 0.0027612632 -0.10118828
-0.11250186 0.028733326 -0.070912436 0.109851666 0.014252885 0.050777763 0.10678756 -0.1045375
-0.0087246 -0.0071922587 -0.048728038 0.065453865 0.06527646 0.003217779 0.05175467 0.063161306
0.009192392 -0.004735817 -0.10180523 -0.103147395 -0.015447915 0.08037872 0.037815917 -0.08027486
0.03437104 -0.08362048 0.0671872 0.012298451 -0.03316868 0.071880005 -0.0034826414 0.030347317
-0.06553048 -0.0580649 0.11826517 -0.116338484 -0.004337986 0.047916993 0.0338466 -0.12618823
0.002768129 0.05204621 0.11257871 0.03367015 -0.09937117 0.058090508 -0.023764342 0.07424923
0.040564697 -0.02718846 0.041794516 -0.033831026 0.02795653 -0.10805211 0.054164995 -0.11828227
0.06943868 -0.06026246 -0.04462752 -0.04267232 -0.13609146 0.019362139 -0.06811898 0.0056501436
-0.07310751 -0.11810189 -0.10930648 0.076844186 -0.09848153 -0.08908651 0.06587983 0.04444548
-0.0022576153 0.056331787 -0.11402389 -0.088494286 -0.061430056 0.08343059 0.013132098 0.091920406
-0.07297568 0.11081021 0.064051725 -0.100030795 -0.041219164 0.027712544 -0.019060273 -0.072642595
0.074631244 0.024725933 -0.010088205 0.10068864 -0.12195033 -0.03939927 -0.031918976 -0.049461395
0.09429458 -0.0054392796 -0.07701999 -0.105751164 0.011495075 -0.10549508 -0.029965384 0.030302303
0.018378973 0.05932022 0.05944235 -0.10522858 0.1537321 0.04453969 0.091127045 -0.118803464
-0.10198143 -0.10698154 0.109858386 -0.1644937 -0.11625028 -0.09587895 -0.00838184 -0.08467414
-0.031847917 -0.009194417 -0.029617272 0.042558134 -0.10127181 -0.07204236 0.082964405 0.03714877
-0.06398229 0.075280465 -0.07895172 0.023306217 -0.052681 -0.007512989 0.09332356 -0.083878644
0.051369563 -0.022570817 -0.020154057 -0.09507062 -0.13657355 0.016321316 -0.018129043 -0.04861737
-0.09004803 0.09438553 0.059574626 -0.087434135 0.007718638 0.12634867 -0.13559069 -0.096604794

bias f4 [64]
00000000: a19d 003e 6597 2b3d 7db6 f1bd e8e8 a63d
00000010: 0e86 cd3d 52cd a63d 7ff4 b4bd 2a67 e9bd
00000020: 2b57 acbd dfcc fabc 5e5f be3d 6ab8 97bd
00000030: ea94 833d be05 54bb 85a3 b63d 257f 603c
00000040: a847 7dbd 2c21 403d 06ee e1bc b1ec 9f3d
00000050: f462 ae3d b26d 09bc e8f3 833c dbdd 01be
00000060: becd 07bc b589 afbd cc5c 8bbd 22d5 883d
00000070: b31c d93d 95a8 e4bd 86b2 0d3e bc95 83bd
00000080: 2f2a 423c df6d 6e3d feb2 fabd adf3 d9bd
00000090: 97e7 43bd 54f7 eb3d 7d80 18bd 489b af3d
000000a0: 5200 fa3d a000 c13d 1c79 afbd 76d5 12bd
000000b0: 6dd6 e43d d778 0abd 81ed 483d 5408 5d3d
000000c0: 54b1 eebd bdc3 783b 7f90 e93c 23d8 87bc
000000d0: c464 debc a7b9 0d3d 280e bd3c 201a 943d
000000e0: 9d58 003e 8070 853d a4ac 96bc b342 183e
000000f0: 52ee c63d 08c4 923d 7ecb 9b3d cd39 d13c
0.1256013 0.041892428 -0.11802385 0.08149892 0.100353345 0.081446305 -0.088356964 -0.1139663
-0.084150635 -0.030615268 0.092955336 -0.07408221 0.064248875 -0.0032352055 0.089179076 0.013702189
-0.061835915 0.046906635 -0.027579319 0.07808817 0.085149676 -0.00838797 0.016107515 -0.12682287
-0.008288799 -0.085711874 -0.06804809 0.06681277 0.10601177 -0.11164967 0.13837633 -0.06425044
0.011850878 0.05821025 -0.12241171 -0.106421806 -0.047828283 0.115217835 -0.03723191 0.085745394
0.12207092 0.09423947 -0.08568022 -0.035848103 0.11173711 -0.033806648 0.049054626 0.05396302
-0.116549164 0.0037958466 0.028511284 -0.016582554 -0.027147658 0.03460088 0.02307804 0.072315454
0.12533803 0.06515598 -0.018392868 0.14869194 0.09713425 0.07166296 0.076071724 0.025540257

weight f4 [64, 64]
00000000: d836 ee3d c019 dfbd 7ab0 943d 8af8 f8bd
00000010: 5d51 943c 88a5 ffbd 0857 ef3c 7c68 eabd
00000020: c0f7 f3bb 1926 46bd c87e 183d be58 873d
00000030: d39e 64bd 1721 c43d db45 95bc d244 cabd
00000040: f49a fd3d 7ad7 acbd 6961 8a3d ee30 efbd
00000050: 19c4 303d c4bf 8e3d 5a48 93bd fce1 923d
00000060: b677 403d c452 053d 4c69 373d 65ff 39bd
00000070: 7f48 16bc 2040 723c 96b9 fabd afcd b0bd
00000080: deb2 ab3d ce74 a63d 2cd2 3bbd 0039 843c
00000090: 485e 61bd e4c6 89bd d8a8 933d 16d3 30bd
000000a0: 7ac6 87bc b0fc 08bd b07c 46bd 912c e63d
000000b0: 5025 c73c 9ab9 463d 020b a5bd 8c9c eebd
000000c0: 5a5d dfbd e42a 82bd dddc a03d 5da5 a0bd
000000d0: 4833 8d3d a8ca 3abd da7d e6bd 99a3 ed3c
000000e0: 882b ec3c 529b 863d 851c 413d 586a 04be
000000f0: 5c23 69bd 82c4 c03d 55b2 09bd ea4b c23d
00000100: 4526 c13d 18d9 e03d 686d 65bd d679 57bd
00000110: 2938 10bd cf4e 07bd 4b5c efbd 34cd eabd
00000120: 33e8 78bc a56e bc3d 54fe 36bc c7c3 503d
00000130: a291 40bd d529 f5bc 5217 e0bd a008 e7bc
00000140: 619b 1f3d 15a6 35bd 8f01 bb3d 4c6e e83d
00000150: 7fb5 23bd e4a7 55bc f669 9d3d 296a d8bd
00000160: 4542 e23d ba5c 12be f006 2bbe 3134 033e
00000170: a4b0 57bd f8ab d83d 085b a83d 65b8 95bd
00000180: 8be5 9b3d 012f ec3d 6430 63bd 5de6 a1bd
00000190: 9805 8cbd 9670 143d f3aa 77bc abd0 0b3d
000001a0: defa 0f3e 6bdd d4bc 6412 f43d a15c 0bbd
000001b0: 940f d3bc e081 8a3d 0a82 443d 4675 3fbd
000001c0: f6c3 a1bd 04d2 153d 8ffe 3bbd 33b4 babd
000001d0: 67c1 d63c 14ae 5c3d bae1 783d 6f92 a8bc
000001e0: aeff e03d ff48 003e 1ad1 a53d f832 bc3d
000001f0: 922c 86bb 86f9 923d 1f0d e13d 18e9 0b3e
00000200: 3732 9fbc 6127 013e f7c2 d8bd a983 4abd
00000210: f120 d63c 4f6e 95bc d09b 11bd 6a91 8dbd
00000220: 07cd b7bd 4212 a838 8a54 24bd 4527 20bd
00000230: 2278 2d3d c61d c4bd 4978 98bc 71a1 81bd
00000240: 80f7 ca3d e39a f53b c076 90bc c2be 4bbd
00000250: 28d4 0a3e 92e1 ccbc 33c2 4dbd d4e9 e9bd
00000260: b18d 3ebd fbf7 70bd 853e 123d 74c2 3b3d
00000270: efb2 f73d 3a49 14bd d2a3 dabd 03eb 95bd
00000280: 1ea2 91bc ab1f e23d c84b 14bd b790 af3d
00000290: 8e9e a63b 76c9 9a3d 983f 093e b5a8 73bd
000002a0: ae73 983d 5428 ddbd 202c 913b 51e6 0b3c
000002b0: d470 a6bc cf14 7bbd 44cc 803d c7c2 b93c
000002c0: fca5 3bbd 2228 8b3d 9b5f c5bd 74b7 cfbb
000002d0: 2961 d93d 5467 83bd 5d53 27bd 89b9 da3c
000002e0: db04 053e dba7 e0bc fb69 70bd c49b 3b3d
000002f0: a978 d63d 434c 0a3e 45c2 bd3d d308 a13b
00000300: ed31 193e f190 97bd 4bdb 423d 298a 043e
00000310: 124d f2bd c650 aa3c 550c 99bd 1284 edbd
00000320: 3c61 babd 0e39 7d3d 1aa2 f53c 33a5 03be
00000330: aaec c03c 7c38 3dbd 00f1 ea3c 704c 0b3e
00000340: fb8e 9fbd d52a 113d 2136 333d 00ff 033e
00000350: 5f23 0f3d 32f1 e73d ffab 83bd 9e05 8dbd
00000360: b9c9 563d eb78 553d 864b fbbc faa6 fe3d
00000370: ae58 dabd c5c0 cc3d ea85 83bc 81ee c43d
00000380: 3f58 b03d d84e 42bd 38d6 bdbc a409 7bbd
00000390: bde0 013d 79b6 59bd 2f82 db3d d7c5 063d
000003a0: caa0 08bd e09f 2f3d f253 913d 23b3 863d
000003b0: 8169 60bc 4ca2 733d 9dc8 eabd f42b f43c
000003c0: 74f5 93bd 36d4 893d 8f94 bcbd 516e fdbc
000003d0: ae6a 423d f8e3 87bd 3773 19be 6375 a4bd
000003e0: 6056 103c 9a33 9c3d c87e 133e 0a3e 333d
000003f0: 48e8 dabd 457e a53c 6ca4 fcbc 2b71 bf3d
0.11631554 -0.10893583 0.07260223 -0.1215678 0.018105203 -0.124827445 0.029216304 -0.1144571
-0.0074453056 -0.048376177 0.037230283 0.06608723 -0.05581553 0.09576624 -0.018221786 -0.09876408
0.123830706 -0.084395364 0.06756861 -0.116792545 0.043155763 0.0697017 -0.07191534 0.07172009
0.046989165 0.032549635 0.044778153 -0.04540958 -0.009172558 0.014785796 -0.12242429 -0.08632981
0.083837256 0.081277475 -0.045854732 0.016140461 -0.055021554 -0.067273885 0.07209939 -0.043170057
-0.016574133 -0.033444107 -0.048458755 0.11238969 0.024309784 0.048516847 -0.0805874 -0.11650953
-0.10906477 -0.06355837 0.07854626 -0.078440405 0.06894547 -0.045603424 -0.11254473 0.029008674
0.028829351 0.06572594 0.04714634 -0.12931192 -0.056918487 0.09412481 -0.033617336 0.09487136
0.094311275 0.10978907 -0.05601254 -0.052606426 -0.03520981 -0.033034142 -0.11687525 -0.11464921
-0.015192079 0.09200791 -0.011169035 0.050967958 -0.047013886 -0.029927174 -0.10941948 -0.028202355
0.03896654 -0.04434784 0.09131157 0.113491625 -0.03996801 -0.0130405165 0.07686226 -0.105671234
0.11047796 -0.14293185 -0.16701865 0.12812878 -0.052658692 0.105796754 0.08220488 -0.07310561
0.07612141 0.11532403 -0.05546607 -0.079052664 -0.068370044 0.036240183 -0.015116441 0.03413455
0.14060542 -0.025984487 0.1191757 -0.034023885 -0.025764264 0.06763053 0.047975577 -0.0467427
-0.07898705 0.03657724 -0.045897063 -0.091164015 0.026215268 0.05387695 0.060762145 -0.020577637
0.10986267 0.12527846 0.080965236 0.09189409 -0.0040946687 0.07176499 0.10988831 0.13663137
-0.019433124 0.12612678 -0.105840616 -0.049441967 0.026138755 -0.018241076 -0.035548985 -0.06912501
-0.08974653 8.014265e-05 -0.040119685 -0.03909995 0.042350896 -0.09575991 -0.018612044 -0.06329621
0.09910488 0.0074952706 -0.01763475 -0.049742468 0.13557494 -0.025009904 -0.05023403 -0.11421552
-0.046521846 -0.058830243 0.035704155 0.04583974 0.12094676 -0.036202647 -0.106757775 -0.073202156
-0.017777499 0.110411964 -0.036205083 0.08572524 0.005084819 0.07557957 0.13403165 -0.059487063
0.07443939 -0.107987076 0.004430309 0.008538798 -0.020317473 -0.06129914 0.062889606 0.022675885
-0.045812592 0.06794764 -0.09637376 -0.006339008 0.10614235 -0.06416193 -0.040850986 0.026699798
0.12990133 -0.02742379 -0.05869482 0.045802847 0.10472233 0.13505654 0.092655696 0.004914382
0.14960451 -0.07400692 0.047572415 0.12943329 -0.11831106 0.020790469 -0.07473055 -0.11597456
-0.09100577 0.06182199 0.029984523 -0.12855987 0.02355035 -0.046196446 0.02867937 0.13603377
-0.07790943 0.03544124 0.043752793 0.12890244 0.034945842 0.11325301 -0.0642929 -0.06885837
0.05243847 0.05211727 -0.03067566 0.12434192 -0.106614456 0.09997705 -0.016055066 0.096158035
0.086105816 -0.047438473 -0.023173437 -0.06128849 0.031708468 -0.053152535 0.1071819 0.03290352
-0.033356465 0.042877078 0.070960894 0.06577136 -0.013697029 0.05948095 -0.11464045 0.029806115
-0.07224551 0.06729929 -0.09208023 -0.030936392 0.04746502 -0.066352785 -0.14985357 -0.08030202
0.008809656 0.0762703 0.14403832 0.043760337 -0.106888354 0.020201812 -0.030840121 0.09347757

bias f4 [64]
00000000: 6e4e d3bd b23b f03d fa64 e3bc 1627 e3b7
00000010: 85e1 163d 033c c23d 56b0 48bd b794 cebd
00000020: 40a7 283d d0ff c1bc fb99 6d3c f4f4 123c
00000030: fa6c 533d 3cf9 a03d 41b9 6c3d 62c2 833d
00000040: cc3a dcbd b23b f93d 5f97 773d e051 373c
00000050: 2191 c03d 81b5 ff3d 60fa c73d b242 c1bd
00000060: ccb5 0f3d b75e b63d 164d 8b3b 8a21 253d
00000070: 4301 943d f2b8 9cbd 306b 913c 405f 08bd
00000080: 445e 2b3b 8c33 873d 7d78 483d 9a5a 913d
00000090: bbf3 aabd 3c4d 8fbd 9843 063e 00e7 61bd
000000a0: 9cd9 00be 883a c93d b4de d7bd 0851 bfbd
000000b0: 5ab7 0f3d de96 fe3d 6c9e a83d 26f1 eebd
000000c0: 5c7c fdbd 75cb 583d 2954 19bc 153d 893b
000000d0: 7bec e13c b497 edbc d65d aa3d a309 9dbd
000000e0: 726a 81bd 6c77 98bd 2c6b dfbd 0c30 1ebd
000000f0: 4f8f a9bd 48e8 023e 5b72 a8bc f394 0f3e
-0.10317694 0.11730136 -0.02775811 -2.707871e-05 0.036836166 0.094841026 -0.048996292 -0.10086959
0.041175127 -0.023681551 0.014502044 0.008969534 0.0516176 0.07860038 0.05779386 0.0643356
-0.10753402 0.12169589 0.060447093 0.011188954 0.09402681 0.12485791 0.09764552 -0.09436549
0.035085484 0.08904784 0.0042511327 0.04031519 0.07226803 -0.07652463 0.017751306 -0.033293962
0.0026148716 0.06601629 0.04894303 0.07097359 -0.08347269 -0.06997153 0.13111722 -0.05515194
-0.12583011 0.09825617 -0.10540524 -0.09341627 0.035086967 0.124311194 0.082333416 -0.11667089
-0.12377235 0.052928407 -0.009358444 0.0041881897 0.027578583 -0.029003002 0.08318679 -0.07667854
-0.06319131 -0.07444653 -0.10909113 -0.03862004 -0.08279287 0.12783921 -0.020562341 0.14021663

weight f4 [1, 64]
00000000: ff56 ae3d dcdc 2d3d 052b a33d c585 c0bd
00000010: 00fb 123e db34 e93d a075 463d bed0 583c
00000020: 62d5 35bd 4a60 ab3d a9e8 56bd 5c9e d73d
00000030: bd45 61bd 891c 803d 79f5 ce3d 4b76 6fbd
00000040: 0678 ea3d 1674 153e 353b 6dbd b8d9 093d
00000050: 83c5 c13d e68f 8c3d 7698 dd3c 1603 84bd
00000060: 3f24 cc3d f022 3bbd ae31 1c3e 1360 d03d
00000070: a36e 2c3d fa5c bd3d 7910 a03c c1cb f9bd
00000080: 2c18 03be 0502 c0bd 885d d6bd 665f c63d
00000090: dd42 4cbb c491 ccbd c9bd bc3d 7885 30bd
000000a0: c71e b3bd c2e1 8b3d 2050 61bc 4c9c 17bd
000000b0: 90ff 4a3d 442f eb3d f32d babd ec80 123d
000000c0: 60ad 25bd a957 bb3d f23e 8cbd bf92 863d
000000d0: 6be2 003e acda e13d 5d37 6abd c6ec 47be
000000e0: 8aba cabd a87b dabd 86fe f83d 6a19 dd3d
000000f0: 0c2f 0ebe 32f4 063e adce 7cbd 7e63 003e
0.08512687 0.042446956 0.0796719 -0.094005145 0.14353561 0.113870345 0.04845202 0.013233362
-0.04439295 0.08367975 -0.052467976 0.105282515 -0.05499815 0.06255443 0.10105414 -0.058462422
0.11448674 0.14595065 -0.057917792 0.0336549 0.094615005 0.06863384 0.027050238 -0.06445901
0.09967851 -0.045687616 0.15253326 0.10174575 0.0420977 0.092462495 0.019539105 -0.12197066
-0.1280219 -0.09375385 -0.104670584 0.096861646 -0.0031167783 -0.0998874 0.09215886 -0.043096036
-0.08746105 0.06830169 -0.013752013 -0.03701429 0.04956013 0.114836246 -0.09090795 0.03576748
-0.040448546 0.09147579 -0.06847943 0.06570958 0.12586372 0.110280365 -0.057181705 -0.19523916
-0.09898861 -0.10668117 0.121579215 0.10795863 -0.13885134 0.1317909 -0.06172054 0.12537953
