models/2d-ns-pinn-1epochs-lr0.001-adam-cavity-nu0.01-u1-20x20.pt (torch, 57339 bytes, 10 tensors)

weight f4 [64, 3]
00000000: 8c00 d63e 7860 a93e 9648 9d3e b342 4d3e
00000010: d041 f8be f75b 563e ce28 9ebd 8276 a83e
00000020: b43e 8e3e 3021 0abf eeba f43e 96c3 88be
00000030: adea 083d e36c 623e 3927 cd3c 032d 6a3e
00000040: c3e4 213d 9d77 403d d5f2 e3be 6cf9 d8be
00000050: bff2 0e3e 6366 0abe 93ad 49bd bca9 d3be
00000060: b42c eebe 0733 4b3e 2e71 f8bd cfab 253e
00000070: 239f 53bd 8b72 d0be 7a2d 933e 98fe d1be
00000080: 18a8 c73e 8ea1 abbe 2385 92be e788 0a3e
00000090: 4cb1 abbe 7f92 09bf bbec 0f3f 676f cebc
000000a0: 25b4 68be 137e 083f 2a25 d93e 69f9 aebe
000000b0: 4dea 063f 1978 02bf 37e6 54be e673 8bbe
000000c0: 5da0 793e f227 05bc 92bd 85be 160f d43e
000000d0: 5e8a b43e e6e8 dc3e 9c1d a53e 0e8e eabe
000000e0: 2e87 f93e 32fb f8be 74ed 9bbe f357 3b3e
000000f0: 0af9 ed3e 2d5a e9be e6d8 e23e 025c c83d
00000100: 8145 333e 7f40 1cbe 8dac 4dbe 39de 653e
00000110: 2dd9 023f 05ce 20be bdd4 09bf ca05 02bf
00000120: bc9f bd3e dd5b 4fbe 7637 d8be 1ff5 0c3e
00000130: 2e40 be3d d89b fdbe ffef 10bf b9bb 373e
00000140: 3935 9ebc c393 593d dd91 0c3f e793 c5bc
00000150: 10c2 10bf c862 03bf 4ef7 e0be 4fe1 84be
00000160: d5d3 10bf 1354 3abe c04c 12bf 867f d13e
00000170: bdd7 7bbe 43d1 66bd 0be1 11be 4bb2 0a3f
00000180: 2ec2 f13e 1c69 d8be d7b9 463e 4cd8 d6be
00000190: df0a 103e edb1 303d 0c1b e0be 1b52 6abe
000001a0: 74cd ba3e 50d0 efbe 783b c8be c7fb 013e
000001b0: 4964 92be 4ab7 f03e 42ab e23d 941c cd3e
000001c0: da34 8b3e f1b4 6cbe 267a b83e 9652 da3d
000001d0: 87ea 8fbc 826a 99bd c0b4 12bf 19be 0ebe
000001e0: ecde 0fbf c348 10bd 0ba8 573e 5188 073f
000001f0: ca43 21bb 0071 21bb cd6f 06be 2425 84be
00000200: 662b ee3e e94c 1d3e f683 acbd 93a3 37bd
00000210: 1e53 973e 43b8 103f 7e7b f83d 6738 0fbf
00000220: 2623 ae3e 8dbc 643d befb ce3e 55e0 efbe
00000230: c87b 9f3e b6b7 d7be 6600 acbd ce30 f8be
00000240: ab79 34be 6786 e7bc c3fd 063f 6da8 46bd
00000250: efc4 2b3e eb70 043f 8877 b1be 8e5a fd3e
00000260: 05a1 17be 2340 f5be 8a07 93be 02f1 0fbf
00000270: f5a7 113f 62ec f53e 1acb 813e 305f a33e
00000280: 8bc6 90be 3b77 723e 31e8 043f 3e73 8d3e
00000290: f7d9 033f d460 ac3e 92bf b23e 62f3 813d
000002a0: 2b25 29be 65da 043e 5c3d eebe 7eb3 603d
000002b0: fbd1 5cbe 39c1 ddbc e7d9 4abe a42e 8a3e
000002c0: b256 d2bd 6a30 91be bf74 04bf 5bc9 47be
000002d0: 9aa2 03bf 669e 9fbe 1ba2 95be 5e85 ab3e
000002e0: e449 8dbe 406e cdbe 554a c73d cd86 3bbe
000002f0: 9c9a 48be 9f0f e7be 73bd 1d3d af07 55be
0.41797292 0.33081412 0.3071944 0.20044975 -0.4848771 0.2093352 -0.077226266 0.32902914
0.27782214 -0.5395689 0.47798866 -0.2671172 0.03342693 0.2211185 0.025043117 0.22868733
0.039524805 0.046989072 -0.44521204 -0.42377794 0.13959788 -0.1351562 -0.0492378 -0.41340435
-0.4651848 0.19843684 -0.12130962 0.16178821 -0.051665436 -0.4071239 0.28745633 -0.41014552
0.38995433 -0.33521694 -0.286172 0.13528787 -0.33533704 -0.5373916 0.562206 -0.025199605
-0.2272497 0.53317374 0.42411166 -0.3417466 0.52701265 -0.50964504 -0.20790945 -0.2723686
0.2437758 -0.0081271995 -0.26121193 0.4141776 0.35261816 0.43146437 0.32249153 -0.45811504
0.48735946 -0.48629147 -0.304546 0.18295269 0.46479064 -0.4557661 0.44306105 0.09783174
0.17506982 -0.15258978 -0.20085354 0.22448052 0.51112634 -0.1570359 -0.5384024 -0.50790083
0.3703593 -0.20249887 -0.42229813 0.13765381 0.09289585 -0.49532962 -0.56616205 0.17942704
-0.019312488 0.053119432 0.5491007 -0.024118377 -0.56546116 -0.51322603 -0.43938679 -0.25953147
-0.5657323 -0.18196134 -0.5714836 0.40917605 -0.24594016 -0.05635191 -0.14246003 0.54178303
0.4721846 -0.42267692 0.1940683 -0.41961896 0.14066647 0.043138433 -0.43770635 -0.22882883
0.36484873 -0.46838617 -0.3910787 0.12693702 -0.28592137 0.47014838 0.11067821 0.40060866
0.2718876 -0.23115899 0.36030692 0.10660283 -0.017567886 -0.07491018 -0.5730705 -0.13939704
-0.56199527 -0.03522564 0.21060197 0.5294238 -0.0024607056 -0.0024634004 -0.13128586 -0.25809586
0.46517485 0.1536137 -0.08423607 -0.04483373 0.295556 0.5653116 0.12132929 -0.5594544
0.3401119 0.05584388 0.4042644 -0.4685084 0.31149125 -0.42132348 -0.083985135 -0.48474735
-0.17624538 -0.02826233 0.5273096 -0.048500467 0.16774343 0.517348 -0.34661508 0.4948315
-0.14807518 -0.47900495 -0.2871669 -0.56227124 0.5689691 0.48031908 0.25350267 0.3190856
-0.28276476 0.23678295 0.51916796 0.27626985 0.5150446 0.33667624 0.34911782 0.0634525
-0.16518085 0.12973936 -0.46531188 0.054858677 -0.21564476 -0.027069675 -0.19809686 0.2698871
-0.10270442 -0.2835725 -0.5174064 -0.19510405 -0.51419985 -0.31175536 -0.2922524 0.3350019
-0.27595437 -0.40123177 0.097309746 -0.18313141 -0.19590229 -0.45129105 0.03851075 -0.20803712

bias f4 [64]
00000000: 654f 35be a69c be3d 7291 cdbe 3c27 0dbf
00000010: bd7f 673d 2b16 6a3e 7013 c63e 26ae 9a3e
00000020: de95 f63e dee1 b13e b842 af3e d980 0e3f
00000030: 93f4 053f b589 303e bffb 10bf 7964 063f
00000040: 0529 7d3e 0e8f f73e 3a36 12bf 88f1 963e
00000050: 552b fcbd 2e5f 0ebe 87f7 62be ad90 093e
00000060: 5720 0e3e aefd fa3d cc71 bf3e 3f8c f3bc
00000070: 410d d7be 499d 503e fdb3 053f 96cc ea3e
00000080: c2bb 98be 5a85 b3bd e5b2 033f 231b 68bd
00000090: 7c9e d0be bece f43e 92fa 9a3e 68e5 0fbf
000000a0: 4220 f93e 0e6d cabe a01d c9be d692 a13e
000000b0: 32d7 a7be aef3 f1be 3cc1 ad3e 7f4b 0a3f
000000c0: 62d0 ef3e 43f4 013f 0960 0abe a108 08bf
000000d0: 8272 81be bf1f 1e3e cea3 26bc bd6b debe
000000e0: b615 bb3e ad94 623d f470 9a3e 35b6 793e
000000f0: 90c7 d2be 12fb b93d e624 12bf 095f 1abe
-0.17706068 0.09307222 -0.40150028 -0.5513799 0.056518305 0.22860019 0.38686705 0.3021099
0.48161215 0.34742635 0.3423059 0.55665356 0.52326316 0.17240031 -0.56634134 0.5249706
0.24722679 0.4835133 -0.57113993 0.2948115 -0.123129524 -0.13903496 -0.22164737 0.13434096
0.13879524 0.12255417 0.37391508 -0.02972996 -0.420023 0.203725 0.52227765 0.45859212
-0.29830748 -0.08765669 0.51444846 -0.056666505 -0.40745914 0.47813982 0.30269295 -0.5620942
0.48657423 -0.39536327 -0.39280415 0.3155734 -0.32781368 -0.47256225 0.3393649 0.5402145
0.4683867 0.5076334 -0.13513197 -0.53138167 -0.25282675 0.15441798 -0.01017089 -0.43441573
0.36540002 0.05531757 0.301643 0.24385913 -0.4116788 0.09081091 -0.5708755 -0.15075316

weight f4 [64, 64]
00000000: d6a2 d2bd 8777 dd3d 510d e83d 33c0 293c
00000010: 7cab d3bd e0e4 de3d 79a5 adbc 2dcd 113d
00000020: 375c b63d 9906 e8bb 6df7 48bc a817 ab3d
00000030: 7e99 e0bd edf6 2b3d 9c2e ca3d ef6c 8c3c
00000040: 169d c4bd 33ef 50bd cd67 d6bd 1868 90bd
00000050: 2e54 ddbc 2be7 21bd f701 dd3d 2781 a33c
00000060: 1163 fdbd 4814 c2bd 9318 cf3c e275 1d3c
00000070: e279 883a 3928 09bd a11b d93c e1dd 94bd
00000080: 65f2 913d bb5e cabd b413 89bd 7c45 c1bd
00000090: fbdb 06bd 32fc 9d3d 0172 683d 8930 94bd
000000a0: 5d6f 58bd a5ce 4c3d 4cd0 f0bd 5cec cd3d
000000b0: 99ea 603d a661 ffbd 2294 e7bd a71a 643d
000000c0: 1b02 0f3d 2daa 203d 0c1c eb3d 0f26 f33d
000000d0: ee66 d93d 1be8 03bd 07c1 abbc 5dac 24bc
000000e0: a1d0 de3c e48a aebc 6c6a d8bd fa7f f73d
000000f0: 4e55 ca3c e3d0 c2bd f8d1 0a3d 0c4a 163d
00000100: cd4d 70bd ba35 b63d 50d3 d4b8 e2fe dcbc
00000110: 8e04 853d 69b5 80bc b50b 24bd bbbf e53b
00000120: 765a 113b 5e6b fa3d bf85 973c 2162 98bc
00000130: 763f 983d c29f 92bd 5afe f43d 7709 463d
00000140: 8bb8 493d 6eea e2bd 109f d53d c6e4 b33d
00000150: 53d4 213d 758c 7b3d 2fb0 1b3d a56b 80bb
00000160: f428 a93d b113 09bd 1a81 ca3d 9ce1 a23d
00000170: 67e3 163d a8d8 c43d 39fc dbbc 6cca cf3d
00000180: 9470 9a3d cbc0 6e3d 1c9b f4bd 7fc1 ce3c
00000190: eef6 b53d 85c1 83bb f71b 4e3d 1d20 56bd
000001a0: 207a 99bd 94a6 9fbd 7500 c63d 3f3a 813c
000001b0: 81ee f8bc d0f1 d33d 66c6 efbd 02e0 ec3d
000001c0: ac06 89bd b944 6fbd 5089 b43d bf87 a53d
000001d0: be7a cd3d 7bfa 263d 9a57 f3bd c5cc 78bd
000001e0: 37bc 1c3b f0f6 c8bd 520d 94bd 4b11 793d
000001f0: a54f ecbb 7407 9f3d 9aa0 4c3d b582 6ebd
00000200: 2fde cdbc f652 963d e8e0 9f3d 1858 c83d
00000210: c729 a5bc f32c 5bbd bf65 ecbc 59af fdbc
00000220: 3ab5 a23d e719 093d d16f 703d 2702 84bc
00000230: 8b1f 6fbd 5771 66bd 2182 5e3d 068e c73d
00000240: a2ce b9bd 8c91 cc3d 44e8 d93d bab9 c8bb
00000250: 6e61 a5bd 8dee b9bd 83b3 05bd f976 f0bc
00000260: 0765 423d 7a63 913d c4c9 ee3d 293e 693d
00000270: 4328 b93d e0f4 f53d 0496 fdbd 6e03 d93d
00000280: fc84 a23d 5133 2d3d 0a68 483b c393 f4bd
00000290: e302 1dbd 2763 74bd c90c 093d d54e 793d
000002a0: f854 e33d efd7 5abd 8653 b23d 2e74 ddbd
000002b0: 520f 853d e963 5a3d 2e21 9c3d 9ca9 d8bd
000002c0: 4f1d 67bd f302 75bd de1a cb3d 4282 863d
000002d0: 9b34 7ebd 9ddd 5d3d 9522 023d 1938 943c
000002e0: 9627 b23d e94d 823d e677 cb3b 50c7 f53d
000002f0: 4661 92bc f8e5 b93d 1868 e6bd 2b75 ac3d
00000300: a53e 893d a271 91bd d8be c03d bc9e f23d
00000310: b851 92bd 3fda e63c e4be 97bd 0f3c c9bc
00000320: 59de 223d fffa 78bd 2745 713d f28d e63d
00000330: a6b7 a63d b845 c63d d962 6abd f682 fbbd
00000340: 4bb3 20bd 2041 ec3d 0a93 adbd 78ef e43d
00000350: cd19 4ebd 9603 e9bd 6476 e639 d4d3 e63d
00000360: f158 dd3d f203 db3d d759 a63d fe4c d2bd
00000370: 4a73 ec3d af94 163d 26ee cd3d 67ec 8b3c
00000380: 32b7 d3bd 8202 69bd 5843 933d cf46 adbd
00000390: 2129 ec3d 7dd6 463d 46c0 5dbd 9977 4abd
000003a0: fd0c d23d a357 443d cd99 10bc cf3c 333d
000003b0: 7137 2c3d 3873 843d 4aa6 fabd 6c9a d23d
000003c0: 845d e43d 2d88 0dbd d8af 9b3d 520b a43d
000003d0: b664 f1bd d749 633d 1abc c23d eea6 953d
000003e0: a6e4 e13d b28f cd3d aa43 a0bd 7ff4 563d
000003f0: 2955 eabd 0daa 5b3c a82c 32bb d98f 163d
-0.10284965 0.10813814 0.11330665 0.010360765 -0.103354424 0.10883498 -0.021197068 0.03559606
0.08904307 -0.0070808646 -0.012266022 0.083541214 -0.10966776 0.041983534 0.09872171 0.017141787
-0.09600274 -0.05100937 -0.10469017 -0.07051104 -0.027017679 -0.0395271 0.107913904 0.019959046
-0.12372411 -0.094765246 0.025280273 0.009610625 0.00104123 -0.033485625 0.026502432 -0.072688825
0.07126311 -0.0988135 -0.06693211 -0.09437081 -0.032924633 0.07714118 0.056749348 -0.0723582
-0.05284058 0.05000176 -0.117584795 0.100548476 0.05491123 -0.12469797 -0.11307551 0.05568948
0.034914117 0.039224792 0.11479959 0.118724935 0.106153354 -0.032203775 -0.020966066 -0.01005086
0.027199091 -0.021306463 -0.10567173 0.120849565 0.02469888 -0.09512498 0.033891648 0.03669171
-0.058667947 0.08896966 -0.00010148308 -0.026977006 0.06495009 -0.015711503 -0.040050227 0.0070113814
0.0022179163 0.1222751 0.018496392 -0.018601479 0.07433979 -0.07159378 0.11962576 0.04834887
0.04924826 -0.1107987 0.104307294 0.087838694 0.03950913 0.061413247 0.03800982 -0.003919082
0.08259764 -0.033466045 0.098879054 0.07953188 0.03683796 0.096116364 -0.026853668 0.10146031
0.07541004 0.05828933 -0.11943647 0.02523875 0.08884989 -0.004020872 0.050319638 -0.05227672
-0.074939966 -0.07795444 0.09668056 0.015774844 -0.030387165 0.103488564 -0.117077634 0.115661636
-0.06690726 -0.05841515 0.08815253 0.08082532 0.10033177 0.04076622 -0.11881943 -0.06074216
0.0023915896 -0.098127246 -0.07229103 0.060807507 -0.007211643 0.077650934 0.04995785 -0.05823012
-0.02513036 0.07340042 0.07806569 0.097824275 -0.020161523 -0.053509664 -0.02885711 -0.030967401
0.079447225 0.033471968 0.058700386 -0.016114308 -0.05837969 -0.056260433 0.05432332 0.09743886
-0.09072615 0.09988698 0.10640004 -0.006125656 -0.08075224 -0.09078703 -0.0326419 -0.029353606
0.04745963 0.07099052 0.116595775 0.056944046 0.090408824 0.12009597 -0.12382129 0.10596357
0.07935521 0.042285267 0.003057959 -0.11942246 -0.03833283 -0.05966487 0.03345946 0.060866196
0.11100191 -0.053428587 0.08707337 -0.10813175 0.06497063 0.053317938 0.07623516 -0.105792254
-0.056424435 -0.059817266 0.09917234 0.065678135 -0.062061887 0.054166425 0.03177126 0.018093156
0.08698957 0.063625164 0.0062093614 0.120009065 -0.01786865 0.09077066 -0.11250323 0.084207855
0.067014016 -0.07101752 0.094114006 0.118466824 -0.07144493 0.02818024 -0.07409456 -0.024564771
0.03976283 -0.060786244 0.05890384 0.11257543 0.08140497 0.096812665 -0.057223175 -0.12280838
-0.039233487 0.11535859 -0.08475311 0.111784875 -0.050317574 -0.11377637 0.00043957226 0.11270872
0.1080798 0.10694112 0.08122604 -0.10268591 0.11545427 0.03676289 0.10055189 0.017080499
-0.10337676 -0.056887157 0.07190579 -0.08460771 0.11531282 0.048544396 -0.054138444 -0.049430463
0.102563836 0.04793514 -0.008825731 0.043759163 0.04204506 0.06467289 -0.12238748 0.1028336
0.11150649 -0.034553695 0.07601899 0.08009972 -0.11786787 0.05549034 0.09508534 0.0730723
0.11029939 0.10037173 -0.07825406 0.052479263 -0.11442024 0.0134072425 -0.0027187262 0.036758278

bias f4 [64]
00000000: 45b3 acbd 000c f4bd c7b7 2dbd c2a7 f3bd
00000010: 3c9c b2bd 4601 8abd 2f16 f8bc 59f2 633d
00000020: 526f 913d c6c6 ef3c 9029 d03d df25 9f3c
00000030: 51d9 473d 1a05 a7bd 485e 9a3d e1e6 c7bc
00000040: cc83 8a3d 3ce6 e83d ed00 0fbd 3768 66bd
00000050: baf8 8fbd f82a dd3d 292a 1f3d 28c1 bdbd
00000060: 572f ddbc 28ad 1fba 23ba 5bbd 166f f33d
00000070: f2d5 bcbd 57d0 673d e709 d0bc eef1 f5bd
00000080: 79bb 8b3c 6aac e3bd 1e4d e1bd da4f f13d
00000090: 1e96 013c d1a0 21bd 620d ea3d 7f6a 81bc
000000a0: fcfb b83d 86b9 873d d6b9 893d 1c28 ae3d
000000b0: 0efa 843d 522d b93d f411 d83d b7ac 413d
000000c0: 3958 f4bc c2be 823d 7273 81bd 165f 523d
000000d0: 8a89 a5bd ece8 9abd 7378 75bd 680f 973d
000000e0: 06ea a83d 6d54 01bc c744 a43c 0c9b ff3d
000000f0: 312d 4b3d 565e b3bd 0c3f aa3d cc75 9a3d
-0.084326304 -0.11916351 -0.04241159 -0.11897232 -0.087212056 -0.06738524 -0.030284015 0.055651043
0.07101311 0.029269587 0.101641774 0.019427238 0.048791233 -0.0815527 0.07537514 -0.024402084
0.067634195 0.11372039 -0.034912992 -0.05625173 -0.07029863 0.10799211 0.038858566 -0.09265357
-0.027000112 -0.0006091171 -0.05364431 0.11886422 -0.09220494 0.056595173 -0.025395347 -0.12009035
0.017057167 -0.1111687 -0.11001037 0.117828086 0.007909326 -0.039460007 0.11428334 -0.015797852
0.09032437 0.06627183 0.067248985 0.08503744 0.06493007 0.09041847 0.10550299 0.047283854
-0.029827224 0.063840404 -0.063208476 0.051360212 -0.08082874 -0.075639576 -0.059929322 0.073759854
0.082477614 -0.007893664 0.020052327 0.12480745 0.049603645 -0.087582275 0.083128065 0.07541999

weight f4 [64, 64]
00000000: 2e1d ac3d d252 d93d dbf7 99bb dae9 db3d
00000010: ebd4 38bc efad 15bd c907 123d 875c 93bc
00000020: 6078 833d 3c4f ebbd ef4f 37bd 7ba5 73bd
00000030: 44bd 96bd 1789 f1bd 54e0 db39 b500 143d
00000040: 4595 e23d 90da e8bd d200 413c 16c4 c1bd
00000050: 4dea e23c 824e 933d e634 8d3d b7c5 12bd
00000060: 2e02 c4bd f7f1 66bd 1e73 41bc 170c f4bc
00000070: 0085 713d 306f efbd 282d a03d b0f2 3cbc
00000080: fe33 55bc 0f89 0fbd 36e3 cfbc ca69 e63d
00000090: ce49 7bba b694 98bd b7f7 30bd 607e e13d
000000a0: 4ec2 dcbd ff39 27bd 102f 8ebd f272 1d3c
000000b0: f611 c5bd 54a8 ecbd e540 1f3d 4459 e43d
000000c0: 863c b23d 7d82 503d fc71 ed3c dc4e b3bd
000000d0: 8380 19bd 9fbe 6dbd 92fb e83d 3fbf b4bc
000000e0: 8e74 d63d f230 843d dc6b 923d cce2 983d
000000f0: 3f7b e6bc e66a a03d 21ab 6e3d 1056 a73c
00000100: 4a75 963d 35d8 6b3d 4792 e1bc d18e 52bd
00000110: 301d 02bd 4095 e73d f16c cb3c 1a17 a43b
00000120: a543 553d 17c6 d33d 12ab cebd 5a26 b2bd
00000130: a5b3 6ebc 419f cf3d 576c 5abd cbef 863d
00000140: b2e3 293c f6ec 8dbd 4df9 36bd 3d0d 1bbc
00000150: b9a5 1cbd 0f7c 67bd 5e99 9c3d 53a8 44bd
00000160: 10a7 0dbb a491 94bd 6e52 25bc 13ba 9f3a
00000170: 28a8 f83d ca73 d93d 6393 083d c0e2 4fbb
00000180: fa67 c4bd 4a4e a2bd df4f 2fbd 0702 173d
00000190: 0320 17bc 489c 8e39 b2c7 b43d f852 d23d
000001a0: 57d9 923c fe9a bdbd d38d 6d3d 279d 7f3d
000001b0: a154 823c b172 813c 5479 973d c638 ccbd
000001c0: d408 a13d fc78 dabc 3990 e4bd 6594 c7bd
000001d0: 8653 823d b78b 973d d016 df3d e5eb 40bd
000001e0: c154 2abd bdc4 413d 248c 99bd d20b cf3d
000001f0: 078d 58bd 4b7c 2cbd 575a a4bc d037 783d
00000200: f279 fb3d f8b6 f4bd 86a9 863d 0939 783d
00000210: 47af 823d bcc2 a5bd 5044 f33d 1844 a53d
00000220: 06c0 e23d 3ef9 4ebd 889b bbbd ec1d b7bd
00000230: 4ef2 923d 7662 ecbd 4974 ba3c 26b8 fcbd
00000240: bf41 51bd 4cea e13d 8476 19bc b7ea 75bd
00000250: 0835 99bb 7d77 0abc 1936 043d 9855 f03d
00000260: e6f4 9dbb ac1c 853d 4df1 733d b769 01bd
00000270: 3424 863d 8bd5 10bd dfe7 afbc d867 993c
00000280: ffe6 98bc 287d b2bd 6f19 d5bc 07c2 9cbd
00000290: 4446 f63d 64c9 f13d 572f 5b3d 1629 9ebd
000002a0: 98a5 923d af9f ecbc 14e5 b9bd cc3b cd3d
000002b0: c230 afbd 660c b33d 6841 e93d 426c a3bd
000002c0: 099a 7e3d 5dc7 703d 4472 df3d e9c4 b93d
000002d0: e971 bf3c 89be e9bd 83f0 383c c309 00be
000002e0: 8d45 dabd 5afe b63d ed02 2fbc 88ac bbbd
000002f0: d8d5 fcbd ad90 71bc 24e2 e13d 96f8 a7bd
00000300: 956b 63bd 1b0a 0dbd efae 3fbd d14d 103d
00000310: fc10 8eba 91d3 9bbd a060 fabd ad2f 01bd
00000320: a448 d13c 997a e2bd f06b b13d 8d1c 7d3d
00000330: b430 84bd 00cd 6bbc 0bd9 aebd b599 debd
00000340: afe4 f73d 4763 e7bd d8d2 a53d b687 783d
00000350: 9747 ec3d 908b a0bd 43a8 41bd 3033 8a3d
00000360: e202 6cbd 267c db3c 419d 65bd dfb7 09bc
00000370: 1637 8f3d c255 c83d e601 bd3d 3446 8d3d
00000380: e011 a23d 42a8 e33d a3ef 6f3d 99b9 f8bd
00000390: 9a04 57bd a90f 7b3d ef78 813d 36cb 923d
000003a0: 38ae 2a3c 300a 9bb8 f253 fbbd a76a 70bd
000003b0: ee5b 3e3b 9bda 2abd 0904 6b3d dce1 96bd
000003c0: cb46 fc3d 497d 823d e130 babd 5d9f 4f3c
000003d0: b4a1 fb3c e5a6 58bd e9a2 98bd 2c40 b8bd
000003e0: c764 adbc 704a cc3d 5c1d c3ba c0a6 c4bd
000003f0: 075a 98bd fa63 4f3d 9f59 cf3d c07e 49bc
0.08404003 0.106115 -0.004698736 0.10737963 -0.011281232 -0.03654283 0.035651956 -0.017988456
0.06419444 -0.11489722 -0.044753965 -0.059483986 -0.07360318 -0.11793726 0.00041938073 0.036133487
0.11063627 -0.113698125 0.011779981 -0.094612285 0.027699614 0.071927086 0.06894855 -0.035833087
-0.09570728 -0.0563831 -0.011807231 -0.029790921 0.05896473 -0.11691129 0.07821113 -0.011532471
-0.013012884 -0.03504282 -0.025376897 0.112506464 -0.0009585888 -0.07450239 -0.04320499 0.11010432
-0.10779248 -0.040826794 -0.0694257 0.009609925 -0.096225664 -0.115555435 0.038880248 0.111498386
0.0870295 0.050905693 0.028985016 -0.087552756 -0.037476074 -0.05804312 0.11376108 -0.02206385
0.1047145 0.06454648 0.07149479 0.07465133 -0.02813494 0.07832889 0.05826867 0.02042678
0.0734659 0.057579238 -0.02753557 -0.05140573 -0.031766117 0.11307764 0.02483222 0.0050076367
0.052066464 0.10340517 -0.10091223 -0.08698721 -0.014569198 0.10137797 -0.053325977 0.06588706
0.010369228 -0.06929962 -0.044671346 -0.0094636055 -0.038243983 -0.056514796 0.0764644 -0.04801209
-0.002161447 -0.07254341 -0.010090454 0.0012186192 0.12141448 0.10617788 0.033343684 -0.0031720847
-0.095901445 -0.07925089 -0.04280078 0.036867168 -0.009223941 0.0002720079 0.08827151 0.10269731
0.017925901 -0.09258078 0.057996582 0.06240573 0.015909495 0.01580176 0.073961884 -0.09971766
0.07863012 -0.026669018 -0.11160321 -0.09745101 0.06363587 0.07399695 0.10893023 -0.047099967
-0.041584734 0.047306765 -0.07497433 0.101096764 -0.05286887 -0.042110723 -0.020062609 0.060600102
0.122791186 -0.11948961 0.06575303 0.060601268 0.06381088 -0.08093783 0.11878264 0.080696285
0.11071782 -0.050530665 -0.091605246 -0.08941254 0.07175122 -0.115422174 0.022760527 -0.12339811
-0.05108809 0.11031017 -0.009366635 -0.060038295 -0.0046755113 -0.00845134 0.032278154 0.11735076
-0.004820454 0.06499609 0.059556294 -0.03159496 0.06549874 -0.0353599 -0.02147287 0.018726274
-0.018664835 -0.08715278 -0.026013104 -0.07654195 0.12025121 0.1180599 0.053511944 -0.0772268
0.07160491 -0.028884737 -0.09076896 0.10021171 -0.08554222 0.08742599 0.113894284 -0.07979633
0.062158618 0.058783878 0.10910466 0.09070761 0.023369746 -0.11413295 0.011287811 -0.12503724
-0.10657797 0.089352325 -0.01068185 -0.09163767 -0.12345475 -0.014743966 0.11029461 -0.08201711
-0.05552252 -0.034433465 -0.04679769 0.03523046 -0.0010838802 -0.076087125 -0.12225461 -0.031539608
0.025547333 -0.1105854 0.086631656 0.061794806 -0.06454602 -0.0143921375 -0.085374914 -0.10869161
0.12104165 -0.112982325 0.08096856 0.0606763 0.11537092 -0.078391194 -0.047279608 0.067480445
-0.057619937 0.026792597 -0.056058172 -0.008405655 0.06992929 0.09781982 0.09228878 0.06898156
0.07913566 0.11116077 0.058578145 -0.12144775 -0.052494623 0.06129423 0.063218944 0.07167666
0.010417514 -7.3928735e-05 -0.12271871 -0.05869546 0.0029046494 -0.041712385 0.057376895 -0.07367298
0.1231819 0.063715525 -0.09091354 0.0126722725 0.030716754 -0.052893538 -0.07452948 -0.08996615
-0.021166218 0.09975135 -0.0014886069 -0.096021175 -0.07439046 0.050632454 0.10124516 -0.012298286

bias f4 [64]
00000000: 4ff6 fdbc 0230 f03d 3d6a 613d db9e 5cbd
00000010: f6a4 ae3d 9ab4 9f3d 4081 8fbd fe02 9dbd
00000020: e272 203c f0b0 b73d db42 4f3d 1c00 ffbd
00000030: 1ff6 253d a7a0 39bd 8ac0 f9bd 7113 163d
00000040: 22aa b9bd 2fe0 a4bc e701 883c 9c77 6fbd
00000050: a883 bb3d b4a6 fc3d 5842 d93d f007 50bc
00000060: 4d03 043d 72ae 80bd bccf dd3d 321f 913d
00000070: ec06 86bd a38d 6b3c 9c95 f9bd 7205 a3bc
00000080: 41e9 47bd 804b f8bc ef7d f63c e7f6 eebc
00000090: 63d4 44bd 2a33 ee3d 98cc adbd e8ec c23d
000000a0: 2fcc 613d b039 163d 13d1 41bc 3874 fd3d
000000b0: c835 eb3d 6c4d ee3d a558 2fbd 0fd4 ed3c
000000c0: 1f34 4a3d e474 8c3d e48c 933d 8411 d0bd
000000d0: b923 903c 783e 89bd e51b aabb b1cb 26bd
000000e0: 9f2a 233d 7308 5dbc 1a82 d43d 4c01 bb3d
000000f0: 5ff3 d03c 09e0 b5bc 39a4 dbbc 78f4 b63d
-0.031001238 0.11727907 0.055032957 -0.053862434 0.085275576 0.07798119 -0.07007074 -0.07666586
0.009793015 0.08969295 0.050600868 -0.12451193 0.040517922 -0.045319226 -0.12194927 0.036639635
-0.090656534 -0.02012643 0.01660247 -0.058463678 0.09155971 0.123364836 0.10608357 -0.012697205
0.03222971 -0.06283273 0.10830638 0.07086028 -0.06544289 0.014377031 -0.12186739 -0.019900057
-0.048806433 -0.030309439 0.030089347 -0.029170467 -0.04805411 0.116308525 -0.08486289 0.095178425
0.055126365 0.03667611 -0.011829632 0.123756826 0.11484867 0.11635861 -0.042809147 0.029031781
0.049366113 0.068582326 0.07204607 -0.10159591 0.017595159 -0.06701368 -0.0051913136 -0.0407216
0.03983557 -0.013490784 0.103763774 0.09131107 0.025506673 -0.022201555 -0.026811706 0.089333475

weight f4 [64, 64]
00000000: 30c4 bfbc 1c7c 523d fc1e f63d d004 ffbd
00000010: 504e 043c caf1 b7bd 8c80 bdbd a2ae 98bd
00000020: a4e4 2dbd 9a41 983d 8c1d 6e3d 6479 78bd
00000030: 78a8 e93d b8b1 c1bd 5802 ffbd 0016 58bc
00000040: 8081 b63b f04e 59bc c82f b8bd 1406 41bd
00000050: c0ec 60bc 1015 47bc 62d6 fabd c237 d1bd
00000060: 84b6 60bd 20c2 f93b ea4e 90bd 84eb b43d
00000070: 2447 93bd e0a7 af3c ac53 923d 30ca 2fbc
00000080: aa98 e6bd d655 9a3d 3831 b23c 5cc9 863d
00000090: c075 2abc 804e 1d3d e0be b13b a270 f0bd
000000a0: 40cd bb3c 5221 f6bd 1804 a43d becb d63d
000000b0: 98b8 8bbc d2f1 c03d 4472 573d 507d f13d
000000c0: 00ba e0ba 5ec1 a8bd e06f 50bc a045 0f3d
000000d0: 0e0a c03d 1810 253d bc5d 43bd 3465 8fbd
000000e0: ec8d d0bd 60a7 f83d c0a6 e7bd e86c 8e3d
000000f0: 307a cbbc 5024 ee3c 50e0 80bd 208f 12bc
00000100: 845d cabd 20b6 813d 7161 e33c f236 ab3d
00000110: 47f8 22bd 5734 f8bc e234 92bd 4a73 90bd
00000120: 0751 b1bc d400 91bd f86a 8fbd 2007 f7bd
00000130: b8e5 e3bd 3ebd 42bc f117 553d a4be a3bd
00000140: 60e9 8cbd af43 b4bc 0077 f93d aee4 95bd
00000150: 9b7c 38bd 0530 3f3d 92ad 5a3c f60c a0bd
00000160: da51 a9bd 4dfd 543d 49c5 473d 6165 c03c
00000170: 8488 ad3d 2a26 a63d 68c4 efbc 8f55 8b3d
00000180: e85a 8c3d 268d a6bd 69e5 fa3c c451 da3d
00000190: 03f0 573d aa48 863d b8a3 52bd 3aab d6bd
000001a0: 3c5f b1bd 64fd 42bd 5ca5 14bd 5cf2 cebd
000001b0: 90b5 8ebd ac88 d1bd 1c59 87bd 24f6 9e3b
000001c0: 6d87 dcba 6f96 ebbc 81cf ee3c 2803 da3d
000001d0: 8804 a73d 9491 823d c534 d83d eaa4 a53b
000001e0: b596 513d 6114 5e3d 7fc7 513d b35b 3fbd
000001f0: 3b75 febb ee39 b8bd ec52 d0bd 5175 ae3c
00000200: ca05 373b b8f8 e13d ef31 5f3d b9ae e2bc
00000210: 9112 48bd 00f9 8a3d 0852 6e3d b097 b6bd
00000220: 104c eb3d ad07 6bbc 18a7 963d 304e 52bd
00000230: e237 833d 1046 f13d 7ef6 c93d 7bbf bcbb
00000240: 6e7c 8e3d af81 833c 0618 92bd 9ab8 e4bd
00000250: 7256 fb3d e414 bb3d a2f6 8dbd 9804 89bd
00000260: 1655 edbd fc1c 99bd 74c4 e73d 4ede 5b3c
00000270: 9ecf 8d3d f973 88bc 2c48 d5bd 80fc fe3d
00000280: 25e2 48bd 9011 2abc 4199 a0bc 64af f5bd
00000290: 2e7d d73d f39c 1e3d 941a c0bd 7bec a03b
000002a0: 5bd7 913b 685d 6f3d 9148 923d ded3 e2bd
000002b0: 4716 353d d2ce dc3d c551 fe3d d60c fa3d
000002c0: c563 f8bb 92ae 79bc 6ebe 3a3c 71b5 ab3d
000002d0: fad1 af3b e262 adbd 3d0c f03a 3a79 b23d
000002e0: cd22 6c3c e5d3 b4bd 0e5f 74bc 5691 a8bd
000002f0: d82e ecbd 9d8e 483c d8bc 843d 3b77 553d
00000300: 86d4 cf3b deb8 fdbd c8f3 963d 508e f13d
00000310: 5e35 e43c 19f7 843d 7cd2 2bbd c85e 773d
00000320: 9400 8d3d c5f5 943b bdc7 493d f882 d5bc
00000330: e833 a6bd dcb5 d1bd 685f ddbd f59e 6e3d
00000340: 6cd2 83bd 67a2 ed3d 14a5 eebd 6e4a cbbd
00000350: 419c 03bd dd96 44bd 9c88 45bc 68ac e13c
00000360: b912 153d 2de6 17bd 2235 cf3d 9289 adbd
00000370: ac36 ecbd 10a1 adbd d287 b3bd 30cd a23d
00000380: d03d cdbd 76e0 febd e444 bfbd 7949 f23d
00000390: 1310 9cbd 350a 573c 0077 b0bb 0edc afbd
000003a0: 1186 a1bd 9a0e b7bd fe4f d03d 215a 5b3d
000003b0: 16f7 ed3c 3b2e 9fbc 1bc5 28bd 324c cf3d
000003c0: ab93 5ebd 4b5e 0cbd 99c6 a23c 1000 b73c
000003d0: da7d f53d d830 20b9 839d f23d 635e 35bd
000003e0: a14f e9bd 066b f9bc dc06 36ba 767f cb3d
000003f0: 73f0 3fbd 18c3 ecbd cc08 3f3b 60fc d9bd
-0.02340898 0.05138789 0.120176286 -0.1245209 0.008075312 -0.089816645 -0.09253034 -0.074551836
-0.042454377 0.074343875 0.058133647 -0.060662642 0.11409086 -0.09457725 -0.12451619 -0.013188839
0.005569637 -0.013263449 -0.089934886 -0.047124937 -0.013728321 -0.012151018 -0.122479215 -0.10215713
-0.05486156 0.0076220185 -0.07046302 0.088339835 -0.07191303 0.021442354 0.071448654 -0.010729358
-0.11259587 0.07535903 0.021751985 0.06581375 -0.01040405 0.03840494 0.0054243654 -0.11740233
0.02292502 -0.12018074 0.08008593 0.104880795 -0.017055795 0.094211236 0.052599207 0.117914796
-0.0017145276 -0.08240007 -0.012721986 0.03497851 0.09376918 0.04029855 -0.047696814 -0.07001725
-0.101833194 0.12141299 -0.11311102 0.06954366 -0.024838537 0.02907005 -0.06292784 -0.0089452565
-0.09881118 0.06333566 0.027756425 0.08360089 -0.039787557 -0.030298395 -0.07138993 -0.0705324
-0.021645082 -0.07080236 -0.070028245 -0.12061906 -0.111278 -0.011885939 0.052024785 -0.07995346
-0.0688045 -0.02200493 0.121809006 -0.07319008 -0.045040708 0.046676654 0.013347046 -0.07814972
-0.08267565 0.05199938 0.04877213 0.023485841 0.08473304 0.08112748 -0.029268458 0.068034284
0.068532765 -0.08132391 0.03062697 0.10660127 0.052719127 0.06556828 -0.051425666 -0.104818776
-0.08660743 -0.047604933 -0.03629051 -0.1010482 -0.06968224 -0.10231146 -0.06608793 0.0048511196
-0.0016825028 -0.028758256 0.02915168 0.10645133 0.08155161 0.06375423 0.1055694 0.0050550597
0.051169116 0.054218654 0.051215645 -0.04671831 -0.00776544 -0.08995424 -0.10172066 0.021296175
0.0027927035 0.110337675 0.05449098 -0.027671205 -0.04884583 0.06785774 0.0581837 -0.08915651
0.11489117 -0.014345092 0.07356089 -0.051344097 0.06407143 0.117809415 0.09861468 -0.005760131
0.06957327 0.016053049 -0.07133488 -0.111680225 0.122723475 0.09134844 -0.06931807 -0.06690329
-0.115884945 -0.074762315 0.11316767 0.013419701 0.069243655 -0.016656863 -0.10414156 0.12450504
-0.049043793 -0.010380164 -0.019604327 -0.11996344 0.10521923 0.038723897 -0.093800694 0.004911003
0.004450721 0.05843869 0.07142747 -0.11075567 0.0442107 0.10781635 0.1241794 0.122094795
-0.007580253 -0.015239375 0.011397941 0.083842166 0.0053656073 -0.08466126 0.0018314194 0.087145284
0.014412594 -0.08829478 -0.014915241 -0.08230846 -0.11532372 0.012241033 0.064813316 0.05211566
0.0063424734 -0.12388776 0.07370716 0.11794722 0.027857479 0.06492443 -0.04194878 0.060393125
0.06884876 0.0045458996 0.04926275 -0.026063427 -0.08115369 -0.10239765 -0.10809213 0.058257062
-0.06436619 0.116032414 -0.1165258 -0.09926306 -0.032131437 -0.047995437 -0.012056496 0.02754803
0.03639481 -0.037084747 0.10117556 -0.08473505 -0.11533865 -0.08477986 -0.0876614 0.07949293
-0.100215554 -0.12445156 -0.09339312 0.1183042 -0.076202534 0.013124992 -0.0053852797 -0.08586894
-0.07886899 -0.08938332 0.10171507 0.05355275 0.029048484 -0.019431224 -0.0412036 0.10121955
-0.054340046 -0.034269612 0.01987009 0.022338897 0.11986895 -0.00015276985 0.11846449 -0.044279467
-0.11392141 -0.03044654 -0.0006943771 0.099364206 -0.04686017 -0.11560649 0.002914953 -0.1064384

bias f4 [64]
00000000: f65b b7bd 1990 693d 5ffd 0e3d 0131 053d
00000010: cff5 77bd 7747 71bd 305c 58bd 1e5a 8ebd
00000020: 96aa e03d e28e c13d 3674 9c3d f359 0f3d
00000030: ec5a 843d 41ef 6e3d d420 903d 78a2 aabd
00000040: 2613 e83d 5235 b73d 3e5b 853d d003 283c
00000050: 82d5 d43d 3814 58bd 9b8f 5c3d ef14 c3bc
00000060: 7049 a53d 6b82 7b3d e959 0d3d 6a66 d13d
00000070: fd6e 763d c6d8 afbd a7f4 b9bc d2ee c83d
00000080: 4452 943b 5f79 5c3d 26b8 83bd b4ec 34bd
00000090: c1ca 6dbd 10bd a13d 3c1a a23d e845 8b3d
000000a0: 9038 c73d 3d35 673d b41c c63d ba2c 79bc
000000b0: b879 d83d c6b9 84bd be85 07bc ef85 44bd
000000c0: 5ffe ca3c ef96 7bbd 7e50 833d af42 973c
000000d0: c07e aabc b4d7 c7b9 c890 c13d 97da d4bc
000000e0: e01a 94bd 9151 3d3d 40a7 c7bb fa28 a03d
000000f0: d422 b2bd 4e64 eebd 48b9 f9bd 7218 dfbd
-0.08953087 0.057022188 0.034909602 0.032517437 -0.060537156 -0.058906045 -0.05282229 -0.06950782
0.10970037 0.09451081 0.07639353 0.03499789 0.064626545 0.05833364 0.070375115 -0.0833177
0.11331777 0.08945717 0.06511544 0.010254815 0.10392286 -0.052753657 0.05384789 -0.023813693
0.08070648 0.061403673 0.034509573 0.10224612 0.06016444 -0.08586268 -0.022699667 0.09811176
0.0045264084 0.053826686 -0.06431608 -0.04417105 -0.05805469 0.07897389 0.0791516 0.06800443
0.09727585 0.056447256 0.096734434 -0.015208418 0.10570091 -0.06480746 -0.008271633 -0.04797929
0.024779497 -0.06142324 0.06411837 0.018464414 -0.020812392 -0.0003811695 0.09451443 -0.025983138
-0.072316885 0.046220366 -0.006092936 0.07820316 -0.08698049 -0.11640225 -0.12193543 -0.108933344

weight f4 [3, 64]
00000000: b289 ad3d 633c 543d eb09 21bd eedc c3bd
00000010: 4fdb e8bc 3e1d 9a3d 9ed8 d73d dcf3 bebd
00000020: db0c 05bd ba7a a53d 0291 cb3d 46d8 ddbd
00000030: 42a5 6c3c 211c e13c 2ef3 10bc 54e0 54bd
00000040: 3970 7d3d 12a6 e23a 97d6 783d 58cc e8bc
00000050: 2aea bdbd c0be d7bb dbc7 72bd 729e 57bc
00000060: fe96 d1bd ad11 2cbd ac16 d4bd 7d5e 783d
00000070: a398 013c cd9a 43bd a893 d53d 824d 7f3c
00000080: 7aa9 863d 5d57 f3bd b6bd 8a3d 78d3 873c
00000090: f69b e1bd e99f 973c 6d0c 3b3d b8a1 ab3d
000000a0: 039b 2cbd 5412 8cbd 3829 d13d a658 92bb
000000b0: 1222 00be e086 d73b e403 ff3b d876 dcbd
000000c0: 458a 603d 8f22 893d 005b 9ebd 3079 ab3d
000000d0: e889 b6bd 7b17 04bd 38a7 82bd 4c57 c73d
000000e0: 18cd d23d 9c78 fdbb b82d 643d acd7 82bd
000000f0: 787f f5bd 96c8 d0bd c85f ee3c 7838 26bd
00000100: e679 9a3d f9e6 fe3c 5cff bbbd 25da 12bd
00000110: fd09 83bc b04f f1bd 7c6f 15bd e294 fa3d
00000120: 89fb 86bc 9994 d3bc 4a9a c53d e886 db3d
00000130: 2f57 893c 68e9 b03d 7e57 e6bd 1024 abbc
00000140: f721 b53c e748 6f3d 25b5 76bd 00a2 01ba
00000150: c2fe ce3d b8c7 2dbd ae90 f63d bed0 bcbd
00000160: be50 bbbd 9ec6 33bc bfe8 8bbc 7bfd 4c3d
00000170: 9e74 afbd 71cd b4bc c025 ac3d cd8c 4fbd
00000180: a143 59bd 4fcd 03bd 3052 103d 407c e13c
00000190: 4ba3 213d e23c 6ebc a2ec 9dbd 36e4 e3bd
000001a0: 3c90 e4bd 6264 2bbc bc8a d73b 7968 a63d
000001b0: 6907 4cbd 8c5e 6bbd 41e3 6abd 7cc1 973d
000001c0: 70ff a93d 2fd2 213d 40d4 563b 56e1 e03d
000001d0: 6855 0dbd b4f7 e9bd c28a b13d 5ec7 a63d
000001e0: d657 d03d a2cc dfbd c00b e5bc 177d 383d
000001f0: c8ea f0bc 8fba 2c3d e01a d23b 8660 ebbd
00000200: f4c8 d73d 6e04 ddbd 2a32 b23d 16b1 e63d
00000210: 11fe 90bc e49a c9bd 90b8 873c 60fc d3bc
00000220: c4dd bdbd 3948 c0bc 304d 943d 6733 8d3c
00000230: 1cca db3b ecea d0bd a9dd aebc 8065 d73a
00000240: 4200 e5bd 6cc9 abbd da92 d23d b0f2 babc
00000250: 6d40 45bd 767f 8d3d 6a9c 8dbd cba0 5a3d
00000260: 9656 db3d c0ac bf3d 6ecb dabd 7083 e2bd
00000270: db11 56bd 7477 a9bd 3218 38bc 5011 efbd
00000280: c197 6abd 68c2 ba3d 8c76 67bd 9036 c13d
00000290: e971 fabc f518 52bd a25c 283c 8e09 5e3c
000002a0: 5d10 27bd 4075 c9bd d3aa 793d 741b 46bd
000002b0: 674f 473d 387e d33c 38d3 8abd e410 c7bd
000002c0: 5f0b 993c 5de7 44bd d440 e33d 22f5 d43d
000002d0: 2ee1 e63d 57e4 b73c 5676 cbbd 5d37 02bd
000002e0: 5134 483d ebf4 113d f220 ecbd 07ab 2bbd
000002f0: b629 99bd 5345 773d a86e f03d d820 8fbc
0.08473529 0.0518154 -0.0393161 -0.09563623 -0.028424887 0.07525109 0.10539363 -0.09323856
-0.032482963 0.08080049 0.099397674 -0.108322665 0.014443697 0.027479233 -0.008847041 -0.05197175
0.061874602 0.0017291924 0.060751524 -0.028417751 -0.09273179 -0.0065840185 -0.05927263 -0.013160335
-0.102338776 -0.042009044 -0.10355887 0.060636986 0.007909927 -0.04775505 0.10428554 0.015582444
0.06575294 -0.118818976 0.06774466 0.016580328 -0.11016075 0.018508868 0.045666147 0.08380455
-0.04214002 -0.06839433 0.1021294 -0.004466134 -0.12512997 0.0065773576 0.007782446 -0.10764855
0.054819364 0.06696045 -0.077322006 0.08372724 -0.08913022 -0.032248955 -0.06379551 0.097334474
0.10293025 -0.007735325 0.055707663 -0.063887924 -0.11987203 -0.10194509 0.029098406 -0.040581197
0.075427815 0.031115996 -0.09179565 -0.03585257 -0.015995974 -0.11782777 -0.036483273 0.122354284
-0.016477363 -0.025827693 0.09648569 0.10719091 0.016765205 0.08638269 -0.112471566 -0.02089122
0.022110922 0.058419134 -0.060231347 -0.00049450994 0.10107185 -0.042426795 0.12039314 -0.09219502
-0.0914626 -0.010972647 -0.017078755 0.050046425 -0.08567165 -0.022070618 0.08405638 -0.050671387
-0.05304301 -0.03217822 0.03523463 0.027525067 0.03946237 -0.014540883 -0.0771115 -0.11127512
-0.11160323 -0.010460945 0.0065778177 0.08125395 -0.049811754 -0.057463214 -0.057345632 0.07409951
0.08300674 0.039507087 0.003278032 0.109804794 -0.034505278 -0.11424199 0.08669044 0.08143495
0.101730034 -0.109277025 -0.027959704 0.04504117 -0.029408827 0.042170104 0.006411895 -0.1149302
0.10536376 -0.107918605 0.08700974 0.11264245 -0.017699273 -0.09843996 0.016567498 -0.025877178
-0.09270814 -0.023471938 0.07241285 0.017236425 0.006707443 -0.10201058 -0.02134593 0.0016433448
-0.1118169 -0.083880275 0.10281916 -0.0228208 -0.048157144 0.06909077 -0.06914599 0.053376
0.10709874 0.09359121 -0.106833324 -0.11060226 -0.052263122 -0.08274737 -0.011236237 -0.11673224
-0.05727363 0.09119111 -0.05650954 0.09434235 -0.030571895 -0.051293332 0.010275992 0.013552083
-0.04078709 -0.09836817 0.060953926 -0.048366025 0.04865971 0.025817022 -0.06778568 -0.097200185
0.01868218 -0.048072208 0.11096349 0.10398318 0.11273418 0.022447748 -0.0993468 -0.03179108
0.048878018 0.035633963 -0.11529721 -0.04191115 -0.07478659 0.060368847 0.11739856 -0.017471716

bias f4 [3]
00000000: b13e 583d a85d b0bd 3145 1fbd
0.052794162 -0.086116135 -0.038884345
