models/5000epoch-20x20_0_5_0.005_lr0.001_test0.7_adam.pt (torch, 186003 bytes, 30 tensors)

weight f4 [64, 3]
-0.50106275 -0.08356599 -0.019649232 -0.04335525 -0.0844186 0.12561883 -0.41688222 0.2267667
-0.016466979 0.20520824 0.3697557 0.0025198234 -0.10750706 -0.045930926 -0.19765791 0.33807746
-0.19639458 -0.008688695 -0.65299267 0.082636505 -0.2155343 -0.48720366 -0.25094038 -0.14643084
-0.17959157 0.48975956 0.012866286 0.08122546 -0.06015942 -0.0023529378 0.31690794 0.038932983
0.016643386 -0.40096167 0.12879233 0.05881428 -0.28975394 0.50816166 0.1051752 0.081768185
-0.71526736 -0.22097692 -0.4243631 -0.01808489 -0.0051038214 -0.0295018 0.5525875 0.11108221
0.19297409 0.47758847 -0.1829181 0.02041169 0.38162452 0.09510318 0.40569243 0.48840022
0.013507987 0.5886254 -0.11058297 -0.15669988 -0.10318239 0.092862934 -0.16783424 0.39094272
0.27759147 -0.10430744 0.45231605 -0.2279642 0.29282618 0.77179676 -0.13720433 0.0032074095
-0.73031485 -0.049038414 0.046928793 0.33213073 -0.39607695 0.2595143 0.2128944 0.3546307
0.036545377 0.07661077 -0.1063396 -0.22152972 0.2060406 -0.6488872 -0.27523795 0.56058556
-0.2228415 0.089130014 -0.27237296 -0.20883738 -0.303104 -0.29243028 0.24531327 0.113485016
0.5464881 -0.2927986 0.009933839 0.53125256 0.46064416 0.15597503 0.056650635 0.64921546
0.032571606 -0.36137158 0.24457623 0.28652483 -0.5860123 0.5415894 -0.13966757 -0.3141991
-0.45640233 -0.39490396 0.11407769 0.47553122 0.22595045 0.11921668 -0.45849612 0.13915402
0.52052146 -0.15468672 -0.1052323 -0.023554685 0.28203344 -0.23659018 0.05746317 0.4108425
-0.063680984 0.1819077 -0.5979104 0.30779615 0.22671281 0.55512977 -0.1796868 -0.14797327
0.07602598 -0.010538158 0.17535084 0.20694989 -0.11145914 0.15006302 0.5883409 0.080332674
0.4524088 0.061714545 0.08612938 -0.23332316 0.2568454 -0.09966288 -0.080275215 -0.119372085
-0.072215565 -0.11363172 -0.26166564 0.23832664 0.1505822 0.1980821 -0.24649806 0.09151883
-0.3893692 -0.1952873 -0.44112605 0.6365151 0.034669593 0.111505285 -0.3349408 0.41819036
-0.49344373 -0.3421088 0.20614316 0.20446381 0.8797506 -0.029794965 -0.5398094 -0.0643043
-0.11258631 0.75507367 -0.041846193 0.004818453 -0.112051494 -0.56162596 -0.012165403 -0.37346965
-0.11233731 -0.00705623 -0.009610638 0.5330179 0.12665725 0.29307613 0.5381087 0.086759225
00000000: a645 00bf a524 abbd 6df7 a0bc 4695 31bd
00000010: a9e3 acbd 39a2 003e 9671 d5be 8835 683e
00000020: c2e5 86bc 1c22 523e 9e50 bd3e 9f23 253b
00000030: a92c dcbd 1122 3cbd d666 4abe 7d18 ad3e
00000040: a91b 49be 075b 0ebc 872a 27bf 543d a93d
00000050: 06b5 5cbe c272 f9be 427b 80be f7f1 15be
00000060: dae6 37be c4c1 fa3e 1dcd 523c 8959 a63d
00000070: b969 76bd bf33 1abb c241 a23e 3178 1f3d
00000080: b657 883c d94a cdbe 23e2 033e 3ee7 703d
00000090: a15a 94be e216 023f 1866 d73d 1476 a73d
000000a0: c31b 37bf c647 62be 1f46 d9be c326 94bc
000000b0: f53d a7bb c2ad f1bc 6076 0d3f 127f e33d
000000c0: 009b 453e 7a86 f43e e24e 3bbe 6b36 a73c
000000d0: 4a64 c33e 75c5 c23d ebb6 cf3e 980f fa3e
000000e0: 9b50 5d3c 27b0 163f 5379 e2bd ef75 20be
000000f0: 4a51 d3bd ec2e be3d bddc 2bbe a529 c83e
00000100: 7820 8e3e 249f d5bd f895 e73e 726f 69be
00000110: 50ed 953e 7994 453f 4b7f 0cbe 6733 523b
00000120: eaf5 3abf 81dc 48bd 6838 403d 0a0d aa3e
00000130: 99ca cabe 0fdf 843e fd00 5a3e 2892 b53e
00000140: 9bb0 153d 1be6 9c3d 94c8 d9bd b0d8 62be
00000150: 4ffc 523e 791d 26bf fdeb 8cbe 8982 0f3f
00000160: 9030 64be cc89 b63d 7874 8bbe 77d9 55be
00000170: 7330 9bbe 6cb9 95be 6733 7b3e d56a e83d
00000180: a5e6 0b3f b3e9 95be 8ac1 223c 2b00 083f
00000190: 8dd9 eb3e ebb7 1f3e 7f0a 683d fc32 263f
000001a0: ce69 053d b205 b9be 3172 7a3e 62b3 923e
000001b0: e704 16bf 9aa5 0a3f 0405 0fbe b4de a0be
000001c0: 91ad e9be da30 cabe 90a1 e93d d478 f33e
000001d0: 8e5f 673e e027 f43d 01c0 eabe 647e 0e3e
000001e0: e540 053f 3266 1ebe 0884 d7bd c1f5 c0bc
000001f0: b066 903e b244 72be 805e 6b3d f359 d23e
00000200: 2d6b 82bd 0346 3a3e a810 19bf 7597 9d3e
00000210: 6727 683e fc1c 0e3f d1ff 37be 4e86 17be
00000220: 82b3 9b3d 3da8 2cbc 2c8f 333e acea 533e
00000230: b144 e4bd 1faa 193e 829d 163f 7585 a43d
00000240: 20a2 e73e 64c8 7c3d 9a64 b03d 44ec 6ebe
00000250: 3e81 833e 0d1c ccbd 5567 a4bd 5a79 f4bd
00000260: c1e5 93bd bfb7 e8bd 0af9 85be e60b 743e
00000270: 3832 1a3e 09d6 4a3e fd69 7cbe 396e bb3d
00000280: 665b c7be 65f9 47be 46db e1be a7f2 223f
00000290: b401 0e3d e25c e43d 5c7d abbe 0c1d d63e
000002a0: a8a4 fcbe e228 afbe 3117 533e f65e 513e
000002b0: 5637 613f 9214 f4bc f330 0abf f9b1 83bd
000002c0: a793 e6bd 824c 413f ea66 2bbd 1de4 9d3b
000002d0: 417b e5bd b8c6 0fbf 6651 47bc 6a37 bfbe
000002e0: 1b11 e6bd f337 e7bb f075 1dbc dc73 083f
000002f0: 70b2 013e 130e 963e 7ec1 093f d2ae b13d

bias f4 [64]
0.050993554 0.494249 0.35323134 -0.06424308 -0.60068053 0.5327856 -0.21607615 0.19995892
-0.029652724 -0.449989 0.037607674 0.59595376 0.14992596 -0.11151883 -0.21301945 0.2202424
0.51665735 0.2125561 -0.41996267 -0.0057426956 -0.47215238 -0.24362397 -0.025052609 0.010658429
-0.1861956 0.32054654 -0.08702312 -0.5146878 -0.22625242 0.18024479 -0.6727423 -0.0035666537
0.021750016 0.5533376 -0.06718256 0.4158783 0.44663665 -0.41978288 0.55494004 0.11918966
0.26287404 0.489064 0.105041936 -0.17374882 0.1824961 0.34918436 0.63904303 -0.05083814
-0.07986379 0.010897638 0.44484493 -0.002748491 0.5517443 -0.2945375 0.36517355 -0.3673137
0.5897821 -0.21438989 -0.12900317 -0.42843693 0.33187035 0.033348978 -0.09177139 0.031895697
00000000: 9ede 503d 340e fd3e bdda b43e e091 83bd
00000010: 33c6 19bf a364 083f 1143 5dbe 08c2 4c3e
00000020: 45ea f2bc f564 e6be 810a 1a3d 6d90 183f
00000030: 3186 193e fc63 e4bd c521 5abe 3987 613e
00000040: a843 043f 4ea8 593e 5905 d7be 392d bcbb
00000050: f5bd f1be 9078 79be 213b cdbc b1a0 2e3c
00000060: 0faa 3ebe ad1e a43e 2d39 b2bd 94c2 03bf
00000070: b7ae 67be 1792 383e d738 2cbf 85be 69bb
00000080: 172d b23c 88a7 0d3f 0397 89bd 00ee d43e
00000090: 8fad e43e c8ed d6be 8d10 0e3f b519 f43d
000000a0: 6d97 863e 9966 fa3e 3a20 d73d 36eb 31be
000000b0: 42e0 3a3e 4bc8 b23e 5398 233f a73b 50bd
000000c0: a08f a3bd 028c 323c b7c2 e33e 0720 34bb
000000d0: 1d3f 0d3f 9fcd 96be 07f8 ba3e 8b10 bcbe
000000e0: f6fb 163f 0689 5bbe 6819 04be 165c dbbe
000000f0: e9ea a93e f098 083d a3f2 bbbd 10a5 023d

weight f4 [64, 64]
0.057883948 -0.14091201 0.11723972 -0.07265659 0.016468206 0.09174314 0.09931566 0.08612
-0.071376 0.0971158 0.1075234 0.028009705 0.15466301 0.07973759 0.09403695 0.03984454
-0.10463053 0.037374426 -0.02480858 -0.072597615 0.1071451 0.031895444 -0.070005745 0.043015737
0.018823884 -0.12608747 -0.12880468 -0.011699814 0.003992201 -0.08123393 0.011259159 -0.08672933
-0.27592134 -0.021528909 0.09392023 0.08742255 -0.09431694 0.06525402 0.07974044 -0.06515289
0.0093033835 0.05148504 0.124961145 0.05553406 0.04046125 -0.000848039 -0.00032444505 -0.013880722
0.057196543 0.06374744 -0.16670097 0.062296193 0.0016151882 0.12486795 0.098197065 0.021007437
-0.083173 0.12025235 -0.09945031 -0.16158092 0.028997537 0.077247 0.087863445 -0.1261439
-0.05085638 0.074615255 -0.10137224 0.07120874 0.089008935 -0.10236128 0.040872335 -0.1151348
0.027773147 0.053375557 -0.08089322 0.082315415 0.00918777 0.034425702 0.08673393 -0.062870346
-0.120655224 0.067582406 -0.062266752 -0.10260733 0.0767476 0.051801555 0.040046 0.092831984
-0.0025494236 0.026945617 -0.039820127 0.07573265 -0.008059092 0.08873521 -0.06298245 -0.09605473
-0.083819605 -0.03342495 0.04448002 0.069255054 -0.1334427 0.05450734 -0.021207651 -0.025872398
0.020730224 -0.012104583 -0.12557048 -0.095072374 -0.12393448 0.006918917 0.01744433 -0.036702465
0.071505025 -0.07130657 -0.10027248 -0.11193486 -0.0039753555 -0.035838336 -0.06964314 -0.030681388
0.10109222 0.04867745 0.089647375 -0.076008484 -0.049243797 -0.10323892 -0.038301073 -0.05478777
-0.102497846 0.16648813 0.10476066 -0.066451624 0.09959893 -0.1744719 -0.033681918 0.031749927
0.09210686 0.060374394 -0.14135462 -0.013374086 0.14695072 0.14087681 -0.41331053 -0.013239354
0.0046691345 -0.07349481 -0.003220401 -0.08147915 0.07730566 0.02397849 0.09848208 0.035973933
-0.24445853 0.051864162 0.13562384 -1.4656439 0.0018333704 0.0036842234 0.06413536 0.016801126
0.057977974 0.12165365 0.1689719 0.062021114 0.13975674 -0.050123777 -0.06805843 0.04430454
-0.050375495 0.0037551515 0.13287944 -0.0049009356 0.16979596 -0.0096248165 0.052935377 0.14317256
-0.028869702 0.024779297 0.06350465 0.11235991 -0.06352036 0.14637004 -0.033822894 -0.04774016
-0.013342024 -0.049364332 0.05935312 -0.09411248 0.065751426 0.11498281 0.049284 -0.05851554
0.15259865 0.009241396 0.12623547 -0.11173836 -0.061421864 0.07048982 0.07671856 -0.0647464
0.0650645 -0.06973541 0.017041305 0.0057159164 0.13208722 0.095002726 0.09325218 -0.015502726
0.032108024 -0.018587794 0.07275178 0.012730879 0.19102545 -0.053664558 -0.032544676 -0.17479871
0.18368539 0.06841873 -0.011982764 0.2730575 0.02103588 0.06381408 -0.014916635 0.011279175
0.38512492 -0.15267196 0.12235093 -0.0040070005 0.17891608 0.08462053 0.05571068 0.033812515
0.03404118 -0.018483192 -0.091115594 0.16964054 -0.07812618 0.016795967 0.056906097 0.019013224
0.03642378 0.12695478 -0.101911165 -0.048083294 0.09847374 0.006907031 0.003911861 -0.20104069
0.1466886 -0.029865593 0.0648842 -0.32336113 0.18352868 -0.07962927 0.099694885 0.0629146
00000000: b817 6d3d 3d4b 10be 611b f03d facc 94bd
00000010: 55e8 863c d4e3 bb3d 0266 cb3d af5f b03d
00000020: 952d 92bd a6e4 c63d 3a35 dc3d 9c74 e53c
00000030: fb5f 1e3e 764d a33d 7296 c03d 0734 233d
00000040: 8848 d6bd ed15 193d 5d3b cbbc 0fae 94bd
00000050: e46e db3d cca4 023d 2c5f 8fbd 4531 303d
00000060: 8c34 9a3c 131d 01be 60e5 03be 94b0 3fbc
00000070: 02d1 823b fa5d a6bd 5678 383c 269f b1bd
00000080: 9045 8dbe 655d b0bc 4059 c03d 980a b33d
00000090: 3d29 c1bd e6a3 853d f54e a33d e16e 85bd
000000a0: 386d 183c fae1 523d a1eb ff3d af77 633d
000000b0: b2ba 253d ef4e 5eba 471a aab9 f86b 63bc
000000c0: ec46 6a3d 058e 823d a9b3 2abe 4b2a 7f3d
000000d0: b9b4 d33a c5ba ff3d 8b1b c93d ca17 ac3c
000000e0: 9b56 aabd dd46 f63d 9bac cbbd 7875 25be
000000f0: 3e8c ed3c ad33 9e3d c0f1 b33d de2b 01be
00000100: c84e 50bd e2cf 983d 409c cfbd e3d5 913d
00000110: 514a b63d caa2 d1bd c069 273d cbcb ebbd
00000120: 8384 e33c 54a0 5a3d 58ab a5bd fc94 a83d
00000130: 4d88 163c f701 0d3d 8fa1 b13d 2bc2 80bd
00000140: 161a f7bd a568 8a3d 6c0b 7fbd cb23 d2bd
00000150: d92d 9d3d de2d 543d 4607 243d b21e be3d
00000160: 3b14 27bb 0ebd dc3c 6e1a 23bd b819 9b3d
00000170: 480a 04bc ceba b53d f1fc 80bd 58b8 c4bd
00000180: 9da9 abbd 9ae8 08bd ae30 363d 98d5 8d3d
00000190: 34a5 08be 1743 5f3d abbb adbc 5af2 d3bc
000001a0: 6ed2 a93c 4d52 46bc 8c95 00be 4eb5 c2bd
000001b0: 5cd1 fdbd 15b8 e23b 69e7 8e3c 5355 16bd
000001c0: 3a71 923d 2e09 92bd a85b cdbd 1b3e e5bd
000001d0: b343 82bb 38cb 12bd 10a1 8ebd 8957 fbbc
000001e0: 7009 cf3d 0162 473d 0b99 b73d 56aa 9bbd
000001f0: ddb3 49bd ed6e d3bd 96e1 1cbd 2469 60bd
00000200: 64ea d1bd dd7b 2a3e c28c d63d ca17 88bd
00000210: 86fa cb3d c3a8 32be 0df6 09bd 360c 023d
00000220: 85a2 bc3d 244b 773d 44bf 10be fb1e 5bbc
00000230: 407a 163e 0342 103e 709d d3be e0e9 58bc
00000240: 8aff 983b 7284 96bd 5d0d 53bb 8ade a6bd
00000250: 6e52 9e3d 8a6e c43c f9b0 c93d 6759 133d
00000260: 5653 7abe 846f 543d fae0 0a3e 389a bbbf
00000270: b44d f03a 0373 713b 6659 833d 84a2 893c
00000280: 507a 6d3d 8d25 f93d f806 2d3e da09 7e3d
00000290: 641c 0f3e 974e 4dbd 3862 8bbd ad78 353d
000002a0: 8956 4ebd fd18 763b 8c11 083e 0798 a0bb
000002b0: fede 2d3e 68b1 1dbc c4d2 583d d49b 123e
000002c0: 2780 ecbc f4fd ca3c ba0e 823d f41c e63d
000002d0: f616 82bd 07e2 153e e089 0abd 308b 43bd
000002e0: 8198 5abc 4132 4abd 421c 733d 0bbe c0bd
000002f0: afa8 863d 1c7c eb3d 05de 493d fead 6fbd
00000300: d242 1c3e 3969 173c df43 013e 15d7 e4bd
00000310: 7e95 7bbd f75c 903d 9f1e 9d3d c399 84bd
00000320: 8940 853d 70d1 8ebd 359a 8b3c 954c bb3b
00000330: df41 073e ca90 c23d 00fb be3d 25ff 7dbc
00000340: b483 033d 6e45 98bc e3fe 943d 2d95 503c
00000350: 2d9c 433e 5ecf 5bbd 914d 05bd 6ffe 32be
00000360: 0618 3c3e 1e1f 8c3d 5b53 44bc 31ce 8b3e
00000370: 7053 ac3c f5b0 823d e764 74bc 4acc 383c
00000380: 182f c53e 0a56 1cbe 2093 fa3d 284d 83bb
00000390: c735 373e 874d ad3d e230 643d fe7e 0a3d
000003a0: c46e 0b3d 106a 97bc d09a babd 40b6 2d3e
000003b0: 9e00 a0bd b297 893c 5e16 693d 9fc1 9b3c
000003c0: 1a31 153d 6f00 023e cdb6 d0bd fdf2 44bd
000003d0: 9aac c93d 6054 e23b 122f 803b 9cdd 4dbe
000003e0: 8935 163e b0a8 f4bc 02e2 843d 978f a5be
000003f0: f1ee 3b3e ac14 a3bd d52c cc3d 5fd9 803d

bias f4 [64]
-0.06319163 -0.036283787 -0.056907315 -0.012663996 0.002761067 0.027170379 0.16750124 0.045607284
0.029263088 -0.07371506 -0.101920724 -0.028600438 -0.011468108 -0.034565333 0.18014677 0.10473363
-0.03978434 0.052989896 0.02666121 -0.026063325 -0.12855068 -0.068501644 -0.02010497 0.092175156
0.06839952 0.12999523 0.03288436 0.19805053 0.0015833626 0.09356953 0.0525043 -0.010511588
0.16235892 -0.02256207 -0.09302744 0.054075208 0.043033212 0.14760137 0.005758232 -0.082109496
0.037063986 -0.0330843 -0.077318236 -0.030293137 -0.12352854 0.02143753 0.0007378139 0.027640369
0.026095668 -0.05405609 -0.04336843 0.002612923 0.06688346 -0.06647721 0.08752644 0.03665103
-0.15272285 -0.123720355 -0.11366617 0.076387055 0.07506039 -0.07871413 -0.037491966 -0.06228932
00000000: 9d6a 81bd 4f9e 14bd a517 69bd a67c 4fbc
00000010: 04f3 343b 6a94 de3c 7285 2b3e b4ce 3a3d
00000020: 25b9 ef3c ecf7 96bd d0bb d0bd 774b eabc
00000030: bbe4 3bbc 6194 0dbd 6578 383e 967e d63d
00000040: e7f4 22bd ef0b 593d 9c68 da3c c182 d5bc
00000050: caa2 03be 974a 8cbd 2eb3 a4bc 54c6 bc3d
00000060: 0c15 8c3d 781d 053e c0b1 063d c2cd 4a3e
00000070: d588 cf3a 62a1 bf3d c00e 573d cc38 2cbc
00000080: 6b41 263e 17d4 b8bc 2c85 bebd f77d 5d3d
00000090: 9843 303d d024 173e 8daf bc3b 0629 a8bd
000000a0: 68d0 173d 6783 07bd 0659 9ebd 5029 f8bc
000000b0: 88fc fcbd c29d af3c da69 413a 0e6e e23c
000000c0: 95c6 d53c eb69 5dbd 18a3 31bd 933d 2b3b
000000d0: 32fa 883d 3425 88bd 1041 b33d 641f 163d
000000e0: 6163 1cbe 1961 fdbd cfc9 e8bd d170 9c3d
000000f0: 43b9 993d e034 a1bd 2d91 19bd 1623 7fbd

weight f4 [64, 64]
-0.07542802 -0.084972195 0.119647294 0.09312819 -0.034054596 -0.00670208 0.06520249 -0.08534984
-0.0972298 0.014668796 -0.0841403 -0.033914123 0.081586145 0.30094892 -0.15626669 0.055045042
0.062198404 0.14686105 -0.023932546 0.032404155 0.02080671 0.25484183 -0.1360398 -0.022071691
-0.06223269 0.088181086 -0.06414598 -0.04001718 0.12757264 0.11162677 -0.062166102 -0.010724556
0.09366933 0.071695134 -0.107433684 -0.07616075 -0.118720904 -0.19953686 -0.0064314883 0.038055524
0.079728715 -0.09713515 -0.11552249 -0.01833772 -0.042552833 0.0605163 -0.109599315 -0.18734126
-0.05074462 0.15224169 -0.18338944 -0.11614332 -0.06267939 -0.13979025 -0.09228681 0.013111613
0.077314846 0.049015615 0.13137367 -0.07438791 0.096094266 0.06470364 -0.024069952 -0.09376245
-0.045868147 0.09099058 -0.2377518 0.009936802 -0.07370894 -0.07714735 0.06739421 0.1419403
0.077764176 0.0774333 -0.041813314 0.0338057 0.04606667 -0.02182886 -0.04401881 -0.030048272
-0.06938326 0.01651691 0.09964946 -0.0135104675 -0.16438058 0.052492317 0.020243298 0.09154239
0.095511094 0.09496493 -0.05238998 0.06801824 -0.06446604 -0.13556941 0.034037292 0.0011968744
0.019444328 -0.10855843 0.035701424 0.13024884 0.0010265267 0.23196612 0.06839489 -0.03693254
-0.0075575523 -0.052384913 0.07848082 -0.23162882 -0.11710036 -0.14843683 0.049871963 -0.002498376
-0.14709528 -0.120934725 0.007979607 0.07696998 -0.04709947 0.18178162 -0.059256144 -0.09369099
-0.0058202106 -0.016574483 0.061037153 -0.16953072 0.052572366 0.040719274 0.029800268 0.007533211
0.05781162 -0.0424139 -0.07080283 -0.016759051 -0.021263992 -0.023435077 -0.09655435 0.011576794
-0.026454424 -0.014152176 -0.043774772 0.017391194 -0.0002957376 -0.16526031 -0.078293785 0.09380762
0.11414215 -0.16279359 0.02590435 0.10306816 0.0508546 0.01730962 -0.056996774 0.0005743494
-0.1467018 -0.08593431 -0.06532706 -0.097893186 0.051954776 0.11640744 0.023970768 0.07678408
0.019786118 0.040053386 0.05450816 0.049455687 -0.04122973 -0.7073317 -0.101539984 -0.041539595
-0.12192511 0.08819998 -0.074855365 -0.12309575 -0.018537091 0.0375198 -0.12800393 -0.14193581
0.0027238932 0.06650453 -0.054902934 -0.07877078 0.044425223 -0.08681502 0.016724737 0.111213006
-0.07821214 -0.088380374 -0.10721533 0.116568655 0.0713614 0.0049001416 0.034876335 -0.07665771
-0.121927164 0.114483625 0.052004576 -0.07539551 0.0062943106 0.15576658 -0.019400744 0.16015512
0.041833 0.18460724 -0.0015963737 -0.013457236 -0.08499483 -0.03930269 0.073851846 0.09271937
0.060487363 -0.015059077 -0.1093626 0.16330546 0.24382824 -0.07455565 0.08866984 -0.030882858
-0.058888927 0.03720762 0.16728662 0.10044018 0.05676376 0.0021403169 -0.041405633 0.08897607
0.002234364 -0.16283366 -0.016254958 0.048452035 0.13287543 0.25166422 -0.12378472 -0.04920681
0.03661049 -0.0076200473 -0.10011446 -0.072848156 0.062308367 0.06453407 -0.22599873 0.1179252
0.05933291 -0.035605107 0.2738007 -0.004863515 0.08633551 -0.09522445 -0.024317816 0.0908908
-0.04067709 0.111642286 -0.07556436 0.15616955 -0.079884365 -0.031831186 -0.041903175 -0.24332303
00000000: 017a 9abd e705 aebd a409 f53d feb9 be3d
00000010: d57c 0bbd 1f9d dbbb e288 853d e6cb aebd
00000020: 6b20 c7bd 6455 703c c051 acbd 89e9 0abd
00000030: a316 a73d fa15 9a3e 6004 20be e976 613d
00000040: c1c3 7e3d be62 163e 300e c4bc 38ba 043d
00000050: d572 aa3c a17a 823e 044e 0bbe b1cf b4bc
00000060: b5e7 7ebd 4998 b43d f85e 83bd 0ee9 23bd
00000070: 67a2 023e 939c e43d e2a1 7ebd 0cb6 2fbc
00000080: b5d5 bf3d e6d4 923d 3106 dcbd 2bfa 9bbd
00000090: f223 f3bd 6453 4cbe 3cbf d2bb 1ce0 1b3d
000000a0: cf48 a33d cbee c6bd 0e97 ecbd fc38 96bc
000000b0: e14b 2ebd f1df 773d 9b75 e0bd 63d6 3fbe
000000c0: 97d9 4fbd 3fe5 1b3e 71ca 3bbe 8ddc edbd
000000d0: 0d5e 80bd 2d25 0fbe de00 bdbd 17d2 563c
000000e0: 3f57 9e3d 99c4 483d d286 063e b058 98bd
000000f0: 12cd c43d 5883 843d 592e c5bc 8706 c0bd
00000100: 3de0 3bbd 4559 ba3d 3575 73be f8cd 223c
00000110: b6f4 96bd 6eff 9dbd fa05 8a3d cc58 113e
00000120: d342 9f3d 5a95 9e3d 7044 2bbd d877 0a3d
00000130: 68b0 3c3d 70d2 b2bc 114d 34bd cb27 f6bc
00000140: d018 8ebd 794e 873c 0415 cc3d 025b 5dbc
00000150: 6253 28be 2f02 573d 46d5 a53c 947a bb3d
00000160: 529b c33d f97c c23d e096 56bd 264d 8b3d
00000170: c506 84bd b5d2 0abe b06a 0b3d 71e0 9c3a
00000180: b649 9f3c e253 debd a83b 123d f45f 053e
00000190: 858c 863a 8788 6d3e 9f12 8c3d 9346 17bd
000001a0: 58a5 f7bb 9091 56bd 8dba a03d 1b30 6dbe
000001b0: 50d2 efbd d3ff 17be 8b46 4c3d cbbb 23bb
000001c0: 25a0 16be a0ac f7bd e6bc 023c 70a2 9d3d
000001d0: 60eb 40bd f624 3a3e 92b6 72bd 10e1 bfbd
000001e0: 77b7 bebb 36c7 87bc 1802 7a3d 7699 2dbe
000001f0: 1f56 573d 41c9 263d b11f f43c 27d9 f63b
00000200: e1cb 6c3d 33ba 2dbd 1301 91bd 474a 89bc
00000210: d331 aebc ebfa bfbc 49be c5bd 98ac 3d3c
00000220: f3b6 d8bc 87de 67bc 2d4d 33bd fa77 8e3c
00000230: 3b0d 9bb9 003a 29be 7e58 a0bd 361e c03d
00000240: 5cc3 e93d 5db3 26be 5c35 d43c 6615 d33d
00000250: ea4c 503d e7cc 8d3c 7375 69bd f08f 163a
00000260: ff38 16be 54fe afbd 32ca 85bd 397c c8bd
00000270: 88ce 543d 0667 ee3d 585e c43c f940 9d3d
00000280: 7f16 a23c 050f 243d f343 5f3d 0c92 4a3d
00000290: 81e0 28bd b113 35bf 32f4 cfbd 6c25 2abd
000002a0: dfb3 f9bd 31a2 b43d c54d 99bd a019 fcbd
000002b0: 19db 97bc 5dae 193d 7613 03be 9f57 11be
000002c0: 5883 323b 8733 883d e6e1 60bd 9352 a1bd
000002d0: 39f7 353d 13cc b1bd 5102 893c a5c3 e33d
000002e0: b02d a0bd c500 b5bd b693 dbbd 8cbb ee3d
000002f0: ed25 923d 5e91 a03b 7dda 0e3d b8fe 9cbd
00000300: f3b4 f9bd 6476 ea3d c002 553d f668 9abd
00000310: 8140 ce3b 4681 1f3e 4fee 9ebc b4ff 233e
00000320: 1459 2b3d ae09 3d3e 6a3d d1ba bd7b 5cbc
00000330: c511 aebd dcfb 20bd a33f 973d a7e3 bd3d
00000340: 99c1 773d 59ba 76bc 80f9 dfbd 8c39 273e
00000350: 1cae 793e a2b0 98bd 8898 b53d 0cfe fcbc
00000360: 8435 71bd 0467 183d 2f4d 2b3e 95b3 cd3d
00000370: 1e81 683d 8f44 0c3b f498 29bd 1639 b63d
00000380: 686e 123b debd 26be 1e29 85bc a475 463d
00000390: 7f10 083e 22da 803e d882 fdbd 148d 49bd
000003a0: e2f4 153d 97b1 f9bb cf08 cdbd 6a31 95bd
000003b0: 0f37 7f3d 702a 843d 366c 67be c482 f13d
000003c0: 1107 733d a9d6 11bd 9b2f 8c3e 1f5e 9fbb
000003d0: acd0 b03d 0905 c3bd 2836 c7bc f524 ba3d
000003e0: 059d 26bd b6a4 e43d 7dc1 9abd e9ea 1f3e
000003f0: 6a9a a3bd 6b61 02bd aaa2 2bbd ac29 79be

bias f4 [64]
-0.008900953 -0.08765828 -0.026097547 -0.08682527 0.20494036 0.076951176 -0.090222314 -0.13533333
0.123949654 -0.0022743952 -0.061507523 -0.045422804 0.00668483 -0.08051539 0.030297428 0.09127804
0.002717228 -0.0427225 -0.03572685 -0.17229751 0.07192152 0.10227112 0.11784129 0.015246433
-0.029110968 -0.07615928 0.13774261 -0.08722608 -0.036812194 0.13213398 -0.03310161 0.035226654
-0.080658995 0.053600896 0.07440549 -0.03868579 -0.050300326 0.0979855 0.04884017 0.01853503
-0.09308175 -0.08228586 0.07298947 -0.039997224 -0.29880735 0.07832826 -0.08282633 0.101620324
0.08122595 0.05400654 0.042574495 0.08132687 0.14351733 0.12566663 0.047904 -0.17910863
0.005352606 -0.10963811 -0.044782538 -0.078238286 0.041240957 -0.22464815 -0.089586824 -0.06611603
00000000: 4ed5 11bc 2f86 b3bd 86ca d5bc 72d1 b1bd
00000010: e3db 513e 9498 9d3d 7ac6 b8bd d294 0abe
00000020: 51d9 fd3d 050e 15bb 50ef 7bbd 430d 3abd
00000030: 6b0c db3b 41e5 a4bd 5032 f83c fbef ba3d
00000040: 8513 323b cafd 2ebd 5156 12bd c26e 30be
00000050: 974b 933d 8573 d13d c656 f13d 2dcc 793c
00000060: 207a eebc 66f9 9bbd 660c 0d3e 96a3 b2bd
00000070: 62c8 16bd 214e 073e 8e95 07bd d349 103d
00000080: 8b30 a5bd 9d8c 5b3d e861 983d fe74 1ebd
00000090: b707 4ebd 9fac c83d a10c 483d c6d6 973c
000000a0: a5a1 bebd 7d85 a8bd 817b 953d 21d4 23bd
000000b0: 47fd 98be 916a a03d daa0 a9bd 511e d03d
000000c0: ca59 a63d f635 5d3d 9862 2e3d b48e a63d
000000d0: 35f6 123e c1ae 003e fc36 443d 4168 37be
000000e0: ea64 af3b f289 e0bd e56d 37bd 653b a0bd
000000f0: 47ec 283d 2a0a 66be 4c79 b7bd d767 87bd

weight f4 [64, 64]
-0.1369089 -0.088301085 -0.115434915 -0.04388982 0.09988686 -0.0410956 -0.054397687 -0.108977914
-0.082029715 -0.019041596 0.07342494 -0.07779644 -0.1177533 -0.07089396 0.060918257 0.010313391
-0.06198798 -0.10111901 0.021923484 0.005698301 0.024375703 -0.0321357 -0.11519471 -0.036448367
0.075338036 -0.031720787 0.10009326 0.09136714 0.004712661 -0.08627525 0.046288155 0.025699139
-0.011823364 -0.09026595 0.07273327 0.05087824 -0.07574758 -0.07635191 -0.018545307 -0.10492559
0.044668708 0.08772781 0.06996932 -0.033179414 0.0353844 -0.034639087 0.07341699 0.0854373
-0.024540296 -0.043320734 0.07624064 0.08052654 -0.018637475 0.0780386 -0.10706363 -0.03713039
-0.11775821 0.11776489 -0.1081887 -0.008458791 -0.12739784 -0.00673002 0.0664521 -0.07524119
-0.10465477 0.0331767 0.019340415 -0.022029469 -0.08152923 -0.050891656 -0.01414451 -0.09230681
0.040189248 -0.034612034 0.04486077 0.14710386 0.023573022 0.0031324576 -0.073304124 0.03703612
-0.05340406 -0.114556335 0.014918292 -0.07735212 -0.014077755 -0.071688056 -0.020198472 -0.036132667
-0.18123092 -0.05241042 0.06565349 0.087697 -0.12270535 -0.080207996 0.02408751 0.09328625
-0.026546687 -0.0021738622 -0.04862423 -0.19181883 0.14765151 -0.16122344 0.04001254 -0.023533495
0.016058004 -0.09322456 0.07153983 -0.1285694 -0.066942826 0.056046218 -0.02134689 -0.2703771
-0.0649727 -0.110957906 -0.00480855 0.055414997 0.059641182 0.10932774 0.089061074 0.051191684
0.18098399 0.09974213 -0.11854103 0.0955137 0.058238182 0.06679116 -0.3781143 -0.1303508
0.047943622 0.110104546 -0.2859526 0.053781517 -0.12008763 0.12590654 0.097861275 0.030909315
-0.0033221964 0.39631602 -0.004724928 -0.0015568906 -0.12487823 -0.04617305 0.019583926 -0.11762743
-0.0101172775 0.14093806 -0.06930917 0.14245605 0.00013978813 0.11508233 0.6015696 -0.065729894
-0.100366354 -0.0020460188 -0.61996627 0.044524968 0.14060448 -0.09928094 -0.08724768 0.099735275
-0.031903323 -0.027288465 0.10824102 0.10620744 -0.09280809 -0.5915743 -0.17475808 0.089876294
-0.06812868 0.123048455 -0.20372929 -0.26403326 0.29448417 -0.008866135 -0.11068739 -0.1904556
0.064788096 0.21283539 0.085997 -0.09638417 0.35763755 -0.35818675 0.10267418 0.43136305
0.06174072 -0.09513381 -0.15023795 0.0996536 -0.025917292 0.103292316 0.433857 -0.16059174
-0.050142262 0.03984775 -0.06222519 -0.076114394 -0.13502744 0.1056108 -0.021837458 0.02675967
-0.0845421 -0.10101281 0.07671136 -0.10384541 -0.0037494968 -0.084765226 -0.118964545 0.046550706
0.09937078 0.005026445 -0.12656589 0.05496668 0.0466691 0.049117226 -0.041814223 -0.14311863
-0.08196284 0.049507935 -0.10599928 0.045924947 0.06635432 0.08024411 -0.119715005 -0.12346775
-0.042193897 0.0061970763 -0.13686737 -0.10832933 0.049164936 -0.023545578 -0.088695124 -0.006370008
-0.11938004 -0.03751849 -0.030454341 0.023138374 0.01438719 0.09238546 -0.15127088 -0.043498896
-0.05317377 0.054360244 -0.13421395 -0.07593988 0.0013605369 0.08385443 -0.048851807 -0.049394406
-0.06040065 -0.1138582 0.105587825 -0.0025679048 0.052606303 -0.09504332 0.017209694 -0.11333302
00000000: d931 0cbe 33d7 b4bd 2469 ecbd d0c5 33bd
00000010: 7b91 cc3d dc53 28bd 1cd0 5ebd d02f dfbd
00000020: 32ff a7bd 1ffd 9bbc d15f 963d bd53 9fbd
00000030: a428 f1bd da30 91bd 6c85 793d 7ff9 283c
00000040: 1ce7 7dbd 7c17 cfbd e198 b33c d0b8 ba3b
00000050: 8eaf c73c b9a0 03bd 34eb ebbd e24a 15bd
00000060: d44a 9a3d a8ed 01bd b2fd cc3d b21e bb3d
00000070: aa6c 9a3b 14b1 b0bd a698 3d3d 0087 d23c
00000080: c8b6 41bc 5bdd b8bd 2ef5 943d b465 503d
00000090: 8c21 9bbd 645e 9cbd 54ec 97bc 3ae3 d6bd
000000a0: 89f6 363d a3aa b33d 134c 8f3d 23e7 07bd
000000b0: 3cef 103d b7e1 0dbd a65b 963d c0f9 ae3d
000000c0: bb08 c9bc 1571 31bd 0d24 9c3d 19eb a43d
000000d0: 9ead 98bc b4d2 9f3d 2d44 dbbd 0916 18bd
000000e0: 372b f1bd b82e f13d 0a92 ddbd be96 0abc
000000f0: 9474 02be 8087 dcbb 0a18 883d 0e18 9abd
00000100: 3d55 d6bd 4be4 073d ca6f 9e3c 2577 b4bc
00000110: ccf8 a6bd c573 50bd 60be 67bc 5a0b bdbd
00000120: 7b9d 243d 59c5 0dbd edbf 373d 65a2 163e
00000130: 361c c13c eb49 4d3b 7920 96bd 30b3 173d
00000140: 37be 5abd 839c eabd da6b 743c ca6a 9ebd
00000150: 62a6 66bc 30d1 92bd 4477 a5bc d9ff 13bd
00000160: 9994 39be 4fac 56bd 5675 863d 7c9a b33d
00000170: f14c fbbd 1744 a4bd 2b53 c53c dd0c bf3d
00000180: 7078 d9bc 5b77 0ebb 332a 47bd 286c 44be
00000190: f531 173e c217 25be 30e4 233d 51c9 c0bc
000001a0: 138c 833c 85ec bebd 7983 923d b2a7 03be
000001b0: 5219 89bd b890 653d acdf aebc de6e 8abe
000001c0: 6810 85bd e63d e3bd 0a91 9dbb d6fa 623d
000001d0: 504a 743d 39e7 df3d a765 b63d 5fae 513d
000001e0: de53 393e 9a45 cc3d a4c5 f2bd b09c c33d
000001f0: 298b 6e3d cec9 883d 3398 c1be ae7a 05be
00000200: 8860 443d 7e7e e13d 6168 92be 024a 5c3d
00000210: 81f0 f5bd a5ed 003e 7e6b c83d 8835 fd3c
00000220: 35b9 59bb efe9 ca3e 92d3 9abb 9410 ccba
00000230: 28c0 ffbd f41f 3dbd 786e a03c a6e6 f0bd
00000240: f0c2 25bc 1152 103e f7f1 8dbd 00e0 113e
00000250: 1794 1239 49b0 eb3d 7700 1a3f 659d 86bd
00000260: e08c cdbd 8016 06bb 1cb6 1ebf d05f 363d
00000270: 9ffa 0f3e ce53 cbbd e9ae b2bd 0242 cc3d
00000280: 0fad 02bd 0f8c dfbc 78ad dd3d 4983 d93d
00000290: 2b12 bebd 6a71 17bf c8f3 32be 1011 b83d
000002a0: 0d87 8bbd d400 fc3d 699e 50be 5e2f 87be
000002b0: a1c6 963e 4443 11bc 12b0 e2bd cb06 43be
000002c0: 9faf 843d 85f1 593e 321f b03d 1065 c5bd
000002d0: 451c b73e 4164 b7be d746 d23d 9edb dc3e
000002e0: d6e3 7c3d 84d5 c2bd fad7 19be 3017 cc3d
000002f0: 8050 d4bc ec8a d33d 8122 de3e 2972 24be
00000300: f961 4dbd 6537 233d d7df 7ebd dde1 9bbd
00000310: a244 0abe 7a4a d83d 78e4 b2bc 1837 db3c
00000320: 6924 adbd cedf cebd d81a 9d3d e7ac d4bd
00000330: 1eba 75bb 6499 adbd afa3 f3bd f4ab 3e3d
00000340: e882 cb3d e0b4 a43b 7d9a 01be be24 613d
00000350: 1928 3f3d 252f 493d 6445 2bbd b18d 12be
00000360: 22dc a7bd d5c8 4a3d 2716 d9bd cc1b 3c3d
00000370: c6e4 873d 0657 a43d 242d f5bd a9dc fcbd
00000380: 82d3 2cbd d810 cb3b f626 0cbe c5db ddbd
00000390: 2c61 493d a8e2 c0bc caa5 b5bd 80bb d0bb
000003a0: 867d f4bd fdac 19bd 627b f9bc b08c bd3c
000003b0: 40b8 6b3c 9734 bd3d c1e6 1abe e62b 32bd
000003c0: bdcc 59bd d9a8 5e3d 626f 09be 5e86 9bbd
000003d0: 0b54 b23a dfbb ab3d d518 48bd ca51 4abd
000003e0: ac66 77bd 7d2e e9bd 6e3e d83d 4b4a 28bb
000003f0: b579 573d 12a6 c2bd 58fb 8c3c 241b e8bd

bias f4 [64]
-0.13017747 0.03387655 -0.14747053 -0.047579587 -0.13709791 -0.021870384 0.0594646 -0.17542326
0.11744545 -0.13664569 0.12669243 0.11633823 -0.047399063 0.051072 -0.16512342 0.0053657847
-0.009197213 -0.043371186 0.1444302 0.085724786 0.058144815 -0.08861412 0.07651142 0.1543628
-0.1376727 -0.067766525 0.13119943 0.037468188 0.070146255 -0.11890874 0.08133306 -0.014605694
0.09160719 -0.019812046 -0.031467326 -0.087838404 -0.14270122 -0.08382876 0.060944077 -0.005527823
-0.060437243 0.11223524 -0.11308812 0.12434112 0.009946688 -0.05712257 0.025901658 -0.111169964
0.043955386 -0.11078928 0.08460883 -0.09682503 0.07699404 -0.05414092 -0.008536746 -0.1865153
0.02268058 -0.18257158 -0.06316522 -0.08856137 -0.054840807 -0.07984727 -0.066374354 -0.11849914
00000000: 3e4d 05be 23c2 0a3d 8402 17be d0e2 42bd
00000010: 6563 0cbe 8529 b3bc 2791 733d 28a2 33be
00000020: 3d87 f03d d9ec 0bbe a9bb 013e bd42 ee3d
00000030: 8525 42bd e030 513d 1d16 29be 77d3 af3b
00000040: e8af 16bc fca5 31bd 83e5 133e 7a90 af3d
00000050: 4229 6e3d 527b b5bd 05b2 9c3d 4811 1e3e
00000060: 13fa 0cbe 2dc9 8abd 2559 063e 3e78 193d
00000070: d7a8 8f3d 6d86 f3bd f391 a63d b94c 6fbc
00000080: 8d9c bb3d df4c a2bc e2e3 00bd 9fe4 b3bd
00000090: 4520 12be 6aae abbd 7fa0 793d be22 b5bb
000000a0: 0b8d 77bd 97db e53d bf9a e7bd 8fa6 fe3d
000000b0: 6ff7 223c 5bf9 69bd b72f d43c 14ad e3bd
000000c0: 900a 343d 7de5 e2bd 6547 ad3d 344c c6bd
000000d0: 0daf 9d3d dfc2 5dbd b5dd 0bbc defd 3ebe
000000e0: a0cc b93c 0bf4 3abe c45c 81bd aa5f b5bd
000000f0: c1a0 60bd f786 a3bd 47ef 87bd adaf f2bd

weight f4 [3, 64]
0.0105327945 -0.008226147 -0.098874144 -0.098887384 0.013796977 -0.10131691 0.018838141 0.1546252
-0.021165209 0.07201116 -0.18460275 -0.1802539 0.11064783 0.09802068 -0.063819736 0.046749953
-0.09408354 0.16140579 -0.07912369 0.056543417 0.12889533 -0.009795144 0.08388805 0.04872666
0.064442776 -0.006026 -0.10866729 0.014033966 -0.008590824 -0.061468143 -0.1297299 0.2059882
0.17385137 0.17550424 -0.112471625 -0.11231932 -0.025257574 -0.40133056 -0.1834118 -0.08675063
-0.12614557 0.02709285 0.047282364 -0.0405442 0.053145766 -0.10417153 -0.02335259 -0.057108868
0.011331467 -0.25642908 -0.04514686 0.101239875 0.03342735 -0.010160745 0.1738945 0.033335056
0.07103007 0.1531606 0.07171205 0.26545703 -0.061809804 -0.0040464136 0.117749654 -0.031625375
0.010111084 0.13598773 -0.08377345 -0.06150408 -0.32292083 -0.19775479 0.11602176 0.14499429
-0.16055137 -0.095382206 0.065926254 0.11466325 -0.11547502 0.058181718 -0.11222246 0.014034039
-0.1485102 0.10794307 0.14068966 0.13493732 -0.032687895 0.09164925 -0.08938176 0.08089222
0.1053869 0.004656168 -0.009482715 0.13790199 0.1468547 -0.09953082 -0.04140805 -0.03702954
0.011819555 0.019040618 0.10900048 0.024480026 0.3698794 0.04940991 -0.011019039 0.024024105
-0.067271255 -0.04319936 0.04648156 -0.00028780292 -0.0014922128 0.13724105 -0.120039955 -0.067962
0.010222679 -0.14819857 -0.08656132 0.093078636 -0.10980142 -0.18884167 -0.043132376 -0.329953
0.014548756 0.08046614 0.053134296 0.051543463 0.03775571 -0.09118455 -0.064238556 0.0820927
0.018629052 0.007584515 0.40707442 0.011037763 0.18162431 -0.16355553 -0.046930574 0.04259968
0.09383186 0.061602633 0.18365918 0.0756341 -0.07338551 0.07436972 -0.031525 -0.092559405
0.05641084 0.21048494 0.006977575 -0.15065137 -0.02193345 -0.091961056 -0.09920968 -0.06761338
0.05227092 0.12680839 0.069279045 -0.041622873 -0.19205868 0.04529086 -0.07398196 -0.11083652
0.058809754 -0.074554354 -0.10380526 -0.010020618 -0.20595607 -0.017896328 -0.08710275 -0.09420903
-0.122813955 0.09970901 0.17880088 0.04802608 -0.09589712 -0.10347432 0.07578722 -0.10725047
-0.046211626 -0.03902992 -0.1182457 -0.19142854 0.061118588 0.09517132 0.0839767 -0.17362368
-0.051357 0.30524492 0.075768806 -0.15606959 -0.07775448 0.11653219 0.07217664 -0.0902692
00000000: be91 2c3c f6c6 06bc 877e cabd 7885 cabd
00000010: b70c 623c 3d7f cfbd 7252 9a3c 1256 1e3e
00000020: a962 adbc 967a 933d 8108 3dbe 7a94 38be
00000030: 549b e23d 11bf c83d ecb3 82bd e17c 3f3d
00000040: dfae c0bd 8f47 253e 9a0b a2bd 129a 673d
00000050: 23fd 033e d07b 20bc 7fcd ab3d 9b95 473d
00000060: 93fa 833d c075 c5bb f58c debd b8ee 653c
00000070: 87c0 0cbc 05c6 7bbd ead7 04be 92ee 523e
00000080: 1806 323e 62b7 333e 8657 e6bd ac07 e6bd
00000090: f9e8 cebc 337b cdbe 4ed0 3bbe 50aa b1bd
000000a0: 4e2c 01be d3f1 dd3c 27ab 413d ad11 26bd
000000b0: 60af 593d e257 d5bd ee4d bfbc fdea 69bd
000000c0: 9ea7 393c ac4a 83be eaeb 38bd da56 cf3d
000000d0: 1eeb 083d 4179 26bc 6611 323e 578a 083d
000000e0: 3778 913d 22d6 1c3e c4dd 923d fce9 873e
000000f0: 472c 7dbd c797 84bb bb26 f13d 9c89 01bd
00000100: f6a8 253c 5e40 0b3e 6a91 abbd b4eb 7bbd
00000110: e155 a5be 3b80 4abe d19c ed3d 6279 143e
00000120: 9467 24be bf57 c3bd 5804 873d 91d4 ea3d
00000130: 2b7e ecbd f44f 6e3d e4d4 e5bd 07ef 653c
00000140: 0f13 18be 4211 dd3d f310 103e 022d 0a3e
00000150: bee3 05bd 9ab2 bb3d c90d b7bd d2aa a53d
00000160: 16d5 d73d c592 983b 645d 1bbc 2e36 0d3e
00000170: 1461 163e d1d6 cbbd 7d9b 29bd 49ac 17bd
00000180: cfa6 413c 12fb 9b3c a53b df3d 568a c83c
00000190: d560 bd3e 0c62 4a3d 3389 34bc 33ce c43c
000001a0: 83c5 89bd d0f1 30bd 7363 3e3d 41e4 96b9
000001b0: 5a96 c3ba eb88 0c3e 82d7 f5bd a92f 8bbd
000001c0: 067d 273c 5ec1 17be 1047 b1bd 03a0 be3d
000001d0: 91df e0bd b65f 41be 93ab 30bd 9aef a8be
000001e0: e85d 6e3c 6ecb a43d 59a3 593d 3d1f 533d
000001f0: bba5 1a3d f7be babd 818f 83bd 3820 a83d
00000200: f49b 983c 8687 f83b 0f6c d03e bcd7 343c
00000210: b9fb 393e 1a7b 27be 463a 40bd 017d 2e3d
00000220: eb2a c03d 0b53 7c3d 2711 3c3e 0de6 9a3d
00000230: 244b 96bd 274f 983d 5c20 01bd c98f bdbd
00000240: 0e0f 673d 5d89 573e 24a4 e43b 5a44 1abe
00000250: c7ad b3bc 1456 bcbd 722e cbbd e278 8abd
00000260: 081a 563d 0fda 013e 2ce2 8d3d bf7c 2abd
00000270: 08ab 44be e982 393d db83 97bd 42fe e2bd
00000280: 7fe2 703d f4af 98bd da97 d4bd 852d 24bc
00000290: 26e6 52be 529b 92bc ed62 b2bd aaf0 c0bd
000002a0: e285 fbbd 3d34 cc3d 9417 373e ffb6 443d
000002b0: b665 c4bd 58ea d3bd 5436 9b3d 22a6 dbbd
000002c0: 6748 3dbd d6dd 1fbd cd2a f2bd d805 44be
000002d0: 7c57 7a3d 2ee9 c23d fafb ab3d 68ca 31be
000002e0: b85b 52bd 1049 9c3e ad2c 9b3d b5d0 1fbe
000002f0: be3d 9fbd 6ea8 ee3d 59d1 933d 0fdf b8bd

bias f4 [3]
-0.12126299 -0.074453115 0.029043011
00000000: bb58 f8bd e07a 98bd 9ceb ed3c

exp_avg f4 [64, 3]
5.424303e-05 0.00015209196 7.1465845e-05 -0.00035624453 -0.00021753693 -0.00018454791 0.00034883642 0.0006568922
0.0007651263 0.0028984828 -0.0025735535 0.00047900292 -1.5226079e-23 -1.2536231e-23 -1.5308113e-23 -0.0005527913
-0.002868217 -0.00012738565 0.00038041934 -3.3666634e-05 -0.00040433204 0.00032437884 -0.00024641975 -6.1533654e-05
0.0016116308 0.00046023968 -0.00013107625 0.0 0.0 0.0 -0.00047474078 0.0013837501
-0.00019767847 0.00015253978 0.00013306711 0.00024793262 0.00064181077 -8.495747e-06 4.5924735e-05 -3.9907507e-05
6.711044e-06 -9.019038e-05 0.00074582215 0.004232995 0.00018506589 0.00032456778 -0.00040316547 0.00029654734
-4.856107e-05 -0.00029268314 -0.00062708335 0.0003078547 0.0001827478 0.00049838173 0.00065151724 -0.0004959911
3.5013866e-06 -0.00022779773 -0.00042485053 -0.00030030948 0.0002984245 -5.1177245e-05 -9.193514e-06 0.00031511305
-0.0010140727 -0.0008771441 0.00021709899 0.0007031686 5.4845743e-05 -0.00014883741 -0.0009377067 0.00060529425
0.00053244916 -0.0002449284 0.00023979203 -0.0004539143 -0.00065529015 3.595498e-05 -0.00041767315 7.165741e-05
-6.338559e-05 3.6184363e-05 -4.708085e-06 4.2046315e-05 0.00011691897 4.5238314e-05 -2.4762607e-05 0.0001934636
0.00032469383 -0.00026739994 2.1067643e-05 5.3404204e-07 1.8679177e-05 0.0012018075 0.0011394679 -0.00015836481
-0.0008102576 0.00051822443 -0.00012737284 -0.00092901225 -6.681651e-05 0.0001378252 0.0014890293 4.003112e-05
0.00024439444 3.8881997e-05 0.00014056965 0.00051974395 0.0002629679 0.00013927335 0.00030338817 -0.00018038317
5.837758e-05 -0.0002733966 -0.00030349448 0.00021911334 0.0005677089 0.0006728698 0.00037232437 0.00023660026
-0.00010081906 -0.0005542343 -0.00011822146 -0.00021805394 -0.0001789612 0.00020107882 0.00039720847 -0.00017618762
0.0004746737 0.00035783686 0.00018117637 0.00027181822 0.00029055626 2.4432302e-06 -7.813638e-05 0.00039603745
0.00010081904 -0.00012078611 -0.0005400593 0.00012248711 -0.00030928545 0.0006278345 -0.0001812187 0.0002849827
0.00020669837 -0.0007273227 0.000113258866 0.0014012117 0.0018024168 0.00025564496 -0.00013704793 -0.00025189435
-0.00022809181 1.8719964e-05 0.00024872101 0.0004892395 -9.1791546e-05 0.0002913823 0.0006131479 0.00021051968
-9.514918e-05 -9.131283e-05 -8.228082e-05 -4.944263e-05 -2.99869e-05 -0.000288837 -0.00013072441 0.00016621493
0.00019154257 -2.6039219e-05 0.00069437566 0.001445165 -5.7962465e-05 -0.00035035086 0.00015961219 0.00024480236
0.00030877386 -0.0006745312 0.0016158287 0.0005959025 0.00087156106 0.0010237389 -0.0003528695 0.0002186889
0.00042168054 -6.73546e-05 0.001243925 0.00020183696 0.0003275151 -0.00085326616 -0.0003038521 2.8477745e-05
00000000: 0383 6338 e07a 1f39 efdf 9538 55c6 bab9
00000010: a01a 64b9 3483 41b9 08e4 b639 4a33 2c3a
00000020: c292 483a 79f4 3d3b 10a9 28bb af22 fb39
00000030: f241 9399 697c 7299 0d0d 9499 32e9 10ba
00000040: b2f8 3bbb d392 05b9 0573 c739 4635 0db8
00000050: 87fc d3b9 6411 aa39 e631 81b9 a10b 81b8
00000060: 5b3d d33a 534c f139 8371 09b9 0000 0000
00000070: 0000 0000 0000 0000 a1e6 f8b9 f35e b53a
00000080: e947 4fb9 16f3 1f39 ee87 0b39 f4fc 8139
00000090: 313f 283a f588 0eb7 4f9f 4038 5c62 27b8
000000a0: 6e2f e136 9724 bdb8 4783 433a f0b4 8a3b
000000b0: 3f0e 4239 c02a aa39 f45f d3b9 e979 9b39
000000c0: 0dae 4bb8 4473 99b9 da62 24ba 8f67 a139
000000d0: fd9f 3f39 d5a5 023a 95ca 2a3a 6605 02ba
000000e0: 5df9 6a36 fddc 6eb9 79be deb9 db72 9db9
000000f0: dc75 9c39 26a7 56b8 d83d 1ab7 c235 a539
00000100: a2ea 84ba 25f0 65ba 11a5 6339 d954 383a
00000110: 2b0a 6638 3d11 1cb9 6ed0 75ba 9cac 1e3a
00000120: 0f94 0b3a bc69 80b9 af70 7b39 59fb edb9
00000130: c7c7 2bba 5ece 1638 24fb dab9 c746 9638
00000140: e1ed 84b8 aac4 1738 24fa 9db6 e35a 3038
00000150: 6532 f538 45be 3d38 4bb9 cfb7 7ddc 4a39
00000160: ab3b aa39 d031 8cb9 6bba b037 175b 0f35
00000170: 3ab1 9c37 f885 9d3a 335a 953a bb0e 26b9
00000180: 7867 54ba 74d9 073a 638f 05b9 f588 73ba
00000190: d71f 8cb8 2c85 1039 882b c33a 16e7 2738
000001a0: 1122 8039 3a15 2338 e165 1339 6d3f 083a
000001b0: f4de 8939 e809 1239 1210 9f39 3d25 3db9
000001c0: 73da 7438 ac56 8fb9 571e 9fb9 cac1 6539
000001d0: 4dd2 143a 8763 303a 8834 c339 e617 7839
000001e0: d26e d3b8 094a 11ba aaed f7b8 69a5 64b9
000001f0: 88a7 3bb9 afd8 5239 6b40 d039 01bf 38b9
00000200: a0dd f839 0d9c bb39 29fa 3d39 d382 8e39
00000210: cd55 9839 60f6 2336 26dd a3b8 3fa3 cf39
00000220: cf6e d338 8d4e fdb8 c492 0dba e26f 0039
00000230: 9727 a2b9 4395 243a 8605 3eb9 bb69 9539
00000240: 2cbd 5839 cda9 3eba 6485 ed38 dda8 b73a
00000250: 123f ec3a 1608 8639 86b4 0fb9 b010 84b9
00000260: ee2b 6fb9 d108 9d37 c566 8239 4f40 003a
00000270: 3680 c0b8 acc4 9839 a9bb 203a f2be 5c39
00000280: d48a c7b8 347f bfb8 2e8e acb8 9f60 4fb8
00000290: 618c fbb7 0c6f 97b9 1113 09b9 fb49 2e39
000002a0: d1d8 4839 cc6e dab7 c306 363a b16b bd3a
000002b0: b91c 73b8 4caf b7b9 925d 2739 d158 8039
000002c0: ede2 a139 06d3 30ba 37ca d33a 5736 1c3a
000002d0: 7979 643a fa2e 863a 5801 b9b9 db4f 6539
000002e0: 0115 dd39 ba40 8db8 320b a33a 32a4 5339
000002f0: 55b6 ab39 b9ad 5fba 574e 9fb9 7ee3 ee37

exp_avg_sq f4 [64, 3]
3.6563422e-05 5.4150583e-05 2.722292e-06 0.00010048289 0.00017218076 3.333842e-05 0.00020679881 0.00038594508
3.572606e-05 0.0006161344 0.0007833834 4.5412147e-05 1.8655818e-06 1.0437955e-06 1.2829074e-06 0.00042239178
0.0011868235 0.00012071234 0.00013555498 0.00014906528 1.8069824e-05 2.1087402e-05 3.0706774e-06 2.6215346e-06
0.00031394832 0.0003072864 8.508955e-05 0.0 0.0 0.0 2.3069631e-05 2.848416e-05
4.26044e-06 0.00019020932 0.00042363608 5.9860045e-05 0.00011884257 0.00022413649 1.866351e-05 9.782515e-06
1.7148076e-06 4.468657e-06 4.4183475e-05 2.7829952e-05 8.041398e-06 1.1910376e-05 6.586897e-05 5.4739976e-06
0.00014044513 0.00017641493 2.2840582e-05 3.4056095e-05 2.8346667e-05 1.0471189e-05 0.0001575517 9.52406e-05
6.54956e-06 2.306827e-05 3.257987e-05 1.6135791e-06 0.00010515613 5.5522993e-05 3.2385233e-05 0.00064548414
0.0007285091 6.398981e-05 0.00013449432 9.087603e-05 1.557374e-05 0.00014064275 0.0001983458 1.0480898e-05
0.000207032 0.0003691577 8.421321e-06 1.6399526e-05 1.3453151e-05 4.6333585e-06 8.43714e-06 1.2385542e-05
3.8297826e-06 1.4424958e-05 6.940152e-06 1.4579008e-05 2.2001636e-06 7.0904576e-07 2.1670346e-06 7.217335e-05
0.000117688774 1.3078346e-05 5.853622e-06 1.9484041e-06 3.664897e-06 0.000107199136 0.00019891807 7.59519e-06
0.00016271972 4.5192453e-05 2.0055724e-05 0.00017367539 0.0005865196 1.4582845e-05 0.0007333585 0.0008784045
0.0001507312 2.8156595e-05 3.0193236e-05 6.174617e-06 9.3879215e-05 0.0005144916 2.1975193e-05 4.6762275e-06
1.5982046e-06 1.3719655e-06 0.00015483335 0.00026270535 1.942995e-05 1.3869264e-05 1.8392859e-05 3.5372238e-06
0.00020748537 0.00019005247 2.3577993e-05 3.797972e-05 4.5090244e-05 9.716489e-06 0.00016757092 0.00022434996
4.8344333e-05 1.5305304e-06 1.3315706e-06 1.3922858e-06 0.00023917269 0.0011214818 9.0208414e-05 4.0307343e-05
0.0001040335 1.4156889e-05 0.00010815431 7.755921e-05 1.8674165e-05 0.0005496975 0.0007179141 0.0001008431
0.0001787051 0.00016281572 1.0515346e-05 7.301026e-05 4.7526246e-05 6.204109e-06 0.00021464104 0.00019021514
3.412349e-05 1.47504525e-05 1.4860781e-05 4.4094404e-06 0.00015883191 0.00013165678 3.303557e-05 6.1145215e-07
4.820716e-07 5.289208e-07 0.00025911644 0.00021549304 5.5903005e-05 1.0646309e-06 6.4989337e-07 1.5732486e-06
1.7125696e-05 2.1362934e-05 9.566651e-06 0.0005913308 0.00016595388 3.8807062e-05 6.6092957e-06 4.2969086e-06
9.900714e-07 0.00034891194 0.00014914434 1.3580993e-05 0.00024018013 3.4423287e-05 1.2226702e-05 4.3089485e-06
2.6635748e-06 3.1786885e-06 8.469225e-05 8.677965e-05 1.8522804e-05 5.781281e-05 0.00021636176 1.6030626e-05
00000000: ad5b 1938 bf1f 6338 9fb0 3636 57ba d238
00000010: 6c8b 3439 dbd4 0b38 22d8 5839 ac58 ca39
00000020: 91d8 1538 1484 213a f85b 4d3a ec78 3e38
00000030: e764 fa35 8a18 8c35 5d30 ac35 7774 dd39
00000040: 308f 9b3a f226 fd38 c323 0e39 684e 1c39
00000050: a794 9737 dae4 b037 d611 4e36 9fed 2f36
00000060: 6e99 a439 481b a139 1b72 b238 0000 0000
00000070: 0000 0000 0000 0000 a885 c137 45f1 ee37
00000080: e7f4 8e36 ed72 4739 791b de39 3c12 7b38
00000090: 1e3b f938 2e06 6b39 958f 9c37 951f 2437
000000a0: 5728 e635 79f1 9536 a551 3938 5e74 e937
000000b0: 8be9 0637 add2 4737 2223 8a38 48ad b736
000000c0: 7444 1339 06fc 3839 c799 bf37 74d7 0e38
000000d0: 01ca ed37 6aad 2f37 7634 2539 e8bb c738
000000e0: 4bc4 db36 bc82 c137 5ea6 0838 2892 d835
000000f0: 4487 dc38 5ce1 6838 61d5 0738 b535 293a
00000100: 6bf9 3e3a 4532 8638 0b07 0d39 b294 be38
00000110: 5aa4 8237 8079 1339 0cfb 4f39 1dd7 2f37
00000120: bb16 5939 828b c139 4c49 0d37 b791 8937
00000130: d8b4 6137 3f78 9b36 3e8d 0d37 7fcb 4f37
00000140: 9581 8036 b902 7237 74df e836 5d98 7437
00000150: 86a6 1336 4155 3e35 5f6d 1136 c65b 9738
00000160: aecf f638 116b 5b37 3b6a c436 54c1 0236
00000170: 73f2 7536 19d0 e038 aa94 5039 2fda fe36
00000180: be9f 2a39 078d 3d38 573d a837 a21c 3639
00000190: aac0 193a d8a8 7437 db3e 403a ba44 663a
000001a0: 990d 1e39 d431 ec37 7b47 fd37 8e2f cf36
000001b0: 05e1 c438 f2de 063a 5e57 b837 7de8 9c36
000001c0: e481 d635 6024 b835 c35a 2239 b7bb 8939
000001d0: 80fd a237 09b0 6837 5d4a 9a37 0b61 6d36
000001e0: 6e90 5939 d248 4739 5bc9 c537 6a4c 1f38
000001f0: 481f 3d38 0104 2337 fab5 2f39 7c3f 6b39
00000200: 55c5 4a38 a06c cd35 6bb8 b235 93de ba35
00000210: 6eca 7a39 affe 923a 462e bd38 ae0f 2938
00000220: 8f2c da38 6083 6d37 e7d0 e238 49a7 a238
00000230: 77a6 9c37 9319 103a 6632 3c3a ba7b d338
00000240: c962 3b39 83b9 2a39 116b 3037 161d 9938
00000250: eb56 4738 e42c d036 4411 6139 7d74 4739
00000260: d21f 0f38 b678 7737 9252 7937 cef4 9336
00000270: 1e8c 2639 590d 0a39 ac8f 0a38 ac22 2435
00000280: b567 0135 29fb 0d35 05da 8739 f9f5 6139
00000290: 6579 6a38 70e4 8e35 5574 2e35 6928 d335
000002a0: 27a9 8f37 8d34 b337 7480 2037 8a03 1b3a
000002b0: e803 2e39 c4c4 2238 6bc5 dd36 2a2e 9036
000002c0: 98e2 8435 2bee b639 a163 1c39 ecd9 6337
000002d0: ddd8 7b39 b961 1038 4921 4d37 9695 9036
000002e0: debf 3236 7451 5536 ce9c b138 78fd b538
000002f0: 6b61 9b37 087c 7238 2bdf 6239 8279 8637

exp_avg f4 [64]
-0.00038505872 0.00013019308 0.00016436965 -0.0011600191 9.471319e-24 -0.0029893997 1.078712e-05 -0.00020886671
0.0021866553 0.0 0.0008264161 -0.00065791974 0.0007106023 8.0686055e-05 0.003525064 -0.00011389113
-0.00015966047 -0.00025638245 0.0010700024 -0.00026439643 9.38994e-06 0.0005842903 0.00050179637 -0.0006014923
-0.0004086495 -0.00040350502 0.00036818386 -1.7444649e-05 -2.213923e-05 5.2984647e-06 1.6987338e-05 0.0008576818
-0.0005765202 -0.00024584561 0.000840921 5.5488257e-05 7.837123e-05 0.00033725746 -0.0005772934 0.00016696144
-0.0010426281 -0.00015028514 -0.0006298243 4.18923e-05 0.00017963114 -0.00023314822 -0.0005415441 -0.00012499899
-0.0005904985 0.0013992552 -0.00061552314 0.00043544814 -0.00068076636 0.00020699723 8.22305e-05 0.00015618565
-0.00039917522 0.0010288081 0.00012863398 0.0012753054 0.0012278011 0.00034114686 0.0010213814 0.00016993833
00000000: b5e1 c9b9 7084 0839 a45a 2c39 c80b 98ba
00000010: b333 3719 cee9 43bb 54fa 3437 3b03 5bb9
00000020: fd4d 0f3b 0000 0000 d8a3 583a 3f78 2cba
00000030: b747 3a3a ff35 a938 c304 673b d6d8 eeb8
00000040: 886a 27b9 126b 86b9 533f 8c3a b09e 8ab9
00000050: 7c89 1d37 0f2b 193a fc8a 033a 77ad 1dba
00000060: 0240 d6b9 878d d3b9 cd08 c139 1956 92b7
00000070: a2b7 b9b7 77c9 b136 0880 8e37 0dd6 603a
00000080: 9e21 17ba d7e4 80b9 4171 5c3a 10bc 6838
00000090: 3c5b a438 eed1 b039 8155 17ba 5f12 2f39
000000a0: cba8 88ba dc95 1db9 cb1a 25ba 84b5 2f38
000000b0: 5e5b 3c39 4079 74b9 69f6 0dba 2912 03b9
000000c0: afcb 1aba 3767 b73a 0f5b 21ba dc4c e439
000000d0: 7575 32ba 650d 5939 2a73 ac38 c4c5 2339
000000e0: 6448 d1b9 12d9 863a ece1 0639 2628 a73a
000000f0: 2bee a03a f5db b239 dfdf 853a 7931 3239

exp_avg_sq f4 [64]
2.7702403e-05 0.00023804598 0.00017428346 0.0004371318 8.3312165e-07 0.0006157961 0.00010866648 1.6762193e-05
0.00033326674 0.0 2.5373027e-05 0.00026947525 0.000101105725 5.7637526e-06 2.5467725e-05 3.396751e-05
9.7228396e-05 1.4484425e-05 4.5394394e-05 1.5293419e-05 1.7133194e-05 0.0003398744 7.6763085e-05 9.5995165e-05
0.00022763076 8.522411e-06 7.9240635e-06 5.7678462e-06 2.5641655e-06 5.1619492e-05 3.5695198e-06 0.00010646644
8.322282e-05 0.00027784653 0.00052671786 2.3379833e-05 0.00017821936 2.6456703e-06 0.00011492346 6.5667223e-06
0.000118863114 3.236275e-05 0.00011867046 1.8786736e-06 0.0005380944 4.7136495e-05 0.0001105267 0.00043267745
0.000101570025 3.3963555e-05 0.00017283038 2.1926131e-05 0.00016241473 7.0498527e-07 0.00020865756 1.0970707e-06
1.2912955e-05 0.00022153619 4.3548735e-06 0.00019356364 0.00012639836 2.5636914e-06 5.9276408e-05 5.9545015e-05
00000000: 7562 e837 fb9b 7939 dcbf 3639 d62e e539
00000010: afa3 5f35 606d 213a dfe3 e338 899c 8c37
00000020: 4eba ae39 0000 0000 29d8 d437 5b48 8d39
00000030: b908 d438 4266 c136 86a3 d537 5678 0e38
00000040: 19e7 cb38 2202 7337 dc65 3e38 5e4a 8037
00000050: 41b9 8f37 2b31 b239 defb a038 0351 c938
00000060: 2bb0 6e39 7afb 0e37 98f1 0437 6c89 c136
00000070: 0714 2c36 0282 5838 e28b 6f36 bc46 df38
00000080: e987 ae38 eeab 9139 7013 0a3a cf1f c437
00000090: 65e0 3a39 458c 3136 1003 f138 b757 dc36
000000a0: 2646 f938 3dbd 0738 b8de f838 bc26 fc35
000000b0: e70e 0d3a 6db4 4538 92ca e738 fcd8 e239
000000c0: fe01 d538 1774 0e38 cd39 3539 02ee b737
000000d0: df4d 2a39 383e 3d35 16cb 5a39 103f 9335
000000e0: b8a4 5837 2b4c 6839 1420 9236 58f7 4a39
000000f0: cd89 0439 e20b 2c36 8f9f 7838 f9bf 7938
