models/model_cavity_nu0.01_U1_20x20_epochs200_noadaption_testpcnt0.2.pt (torch, 187017 bytes, 30 tensors)

weight f4 [64, 3]
00000000: 638d 9b3d 3db8 51be 1d85 71be 8368 f4be
00000010: f174 eebe 23ea ba3e 3025 803e 6c26 203e
00000020: c956 13be 444c c6bd 703e 1c3f 45e1 5dbc
00000030: 635a 1dbf 4541 dd3e 8a94 a8be dafc 053f
00000040: 74e4 b13d d61c d3be 0187 153e c702 1cbe
00000050: d78d fdbe 69de e43e 58db ed3e bee0 bebe
00000060: 73a6 62bd 1caf b5bd 59c7 073f f6b2 ef3e
00000070: efff ec3e e386 333e 177e 0a3f 4c0a 7cbd
00000080: 0ba1 e7bd b9c7 1d3d 4463 363f e0a6 38be
00000090: 0d13 b43d bff0 0c3f ea55 f03d 27fe 06bf
000000a0: d621 3d3e 7edb 893e fd6f aebe 05e0 34be
000000b0: 5a14 d9be c180 103c 024d 813e 8647 443d
000000c0: 86f2 d13e 32ea a43e a3fd ec3e 46f7 f83e
000000d0: 958f a13e 20c2 133f 6c47 1dbf b0cb e1bc
000000e0: 3581 d83e db8d 3ebb 154d 273f a6a1 a93e
000000f0: 7d1d ec3e 835b 2e3f 0729 ce3d 5741 ffbd
00000100: bdca 393d c8b2 6ebe 225c 11bf 1f4f a43e
00000110: b0fc 943e 44fe af3e 2d11 b73e a882 a7be
00000120: 535f b7be 1273 bb3e ea8f 3fbe 69f8 ec3e
00000130: 21a1 cb3e 2a3d fbbc 3d84 b1be 135c 173e
00000140: 6f48 953e c2d0 863e 14bf d23e 84fb c1bd
00000150: 8225 e63d 8efd edbe 47e4 fc3e 225f 91be
00000160: 479d 643e 2c0c dfbe 5d45 65be 8466 debe
00000170: 3f48 363d 7c6f 0abf 1f14 1d3f 0b10 af3e
00000180: 3de8 0cbf 3fb6 c83e d705 b53e 89e7 2cbf
00000190: f9e7 80be 103b 683e e8d9 e4be f931 acbe
000001a0: 142a c2be 4565 d53e 3f7a d53e 37ed be3d
000001b0: ae3a ebbe a8be 0b3f 17ce d03e 20b5 8abe
000001c0: cbd4 b7bd 98a6 b7be 6631 20be 561e 1c3e
000001d0: f782 913e 4c1f 523b 011e 93bc b190 87be
000001e0: b867 eb3d 86f2 b43c 15d8 c6be d6ca 763c
000001f0: 106e 73be f742 d2bc c739 453e 9b00 30be
00000200: d15c 0f3e 5988 d83e 31af 803e bd9b 793c
00000210: aad8 0ebd df7d ccbe 76b4 e63e effc a53e
00000220: 8ccb ebbe c2dc ab3d 64f8 2cbe 5f47 b1be
00000230: d6ff bdbe aee7 84be ca9a 2d3f 5449 663e
00000240: b92d d13e f1b8 af3e 3e48 87bd f177 d3be
00000250: d004 113f ee8d 5c3e 9088 c43e 3369 f03e
00000260: 3c4d 36be c5f6 793e 103c 273e feca 713e
00000270: 06ea 7c3e 56d4 b63e 8b76 10bf 9a12 ffbd
00000280: b55f cfbd 1d5d bb3e dd1d 133f 2025 013e
00000290: 43e0 e4bb 956b 893d f33e 933e 085d 99be
000002a0: d6e0 d2be d4f1 313f 1f6b 9b3e 8b16 95be
000002b0: b295 b93c 48b0 efbe 85b0 b6be 8d77 10bf
000002c0: 5870 a6be 91ff 93bc 05d9 623d 186f a93e
000002d0: bfb0 b93e ee0e 96be ddcf 08be 0d2e 80be
000002e0: 1ab5 eabb ef49 df3e 8c3b ac3e 5c09 183f
000002f0: 47c8 ce3d f8bf c3be 9356 31bc ff68 22be
0.07595327 -0.20480438 -0.23585935 -0.47735986 -0.46573594 0.36506757 0.25028372 0.15639657
-0.14388575 -0.09682515 0.6103277 -0.013542478 -0.61466044 0.4321386 -0.32925826 0.52338946
0.08686152 -0.41232938 0.14602281 -0.15235434 -0.49522278 0.44700935 0.46456409 -0.3728084
-0.05533452 -0.0887129 0.53038555 0.46816224 0.46289012 0.17531924 0.5409865 -0.061533257
-0.113100134 0.03852055 0.7124522 -0.18032408 0.08792696 0.5505485 0.11735137 -0.52731556
0.18469939 0.26925272 -0.34069815 -0.17663582 -0.4239834 0.00881976 0.25254065 0.047919773
0.41005343 0.32209927 0.4628726 0.48626155 0.31554857 0.57718086 -0.61437106 -0.027562946
0.42286077 -0.0029076252 0.6535199 0.3313114 0.46116248 0.68108386 0.10066419 -0.124636345
0.045359362 -0.23310387 -0.5678121 0.32091615 0.29099035 0.34373677 0.35755292 -0.3271687
-0.35814914 0.3661123 -0.18707243 0.46283272 0.3977137 -0.030668814 -0.34671202 0.14781217
0.29156825 0.26331145 0.41161406 -0.09471801 0.11237623 -0.4648251 0.49392912 -0.28392893
0.22325622 -0.43563974 -0.22389741 -0.43437588 0.044502493 -0.5407636 0.6135883 0.34191927
-0.5504187 0.39201543 0.35356018 -0.67540795 -0.2517698 0.2267878 -0.446975 -0.33631876
-0.37922728 0.41678825 0.4169483 0.09322589 -0.45943207 0.54587793 0.40782234 -0.27091312
-0.08976134 -0.35869288 -0.15643844 0.15245947 0.2842023 0.0032062111 -0.017958643 -0.26477578
0.11494392 0.0220883 -0.38836733 0.015063008 -0.23772454 -0.025666697 0.19260322 -0.17187731
0.1400025 0.42291525 0.2513366 0.015234885 -0.034874596 -0.39939782 0.45059556 0.32419536
-0.4605373 0.083917156 -0.16891629 -0.34624764 -0.3710925 -0.25958008 0.67814314 0.2248891
0.40855196 0.34320787 -0.06605576 -0.41302446 0.5664797 0.21538517 0.3838544 0.4695526
-0.178029 0.24410541 0.16331506 0.23612592 0.24698648 0.35708874 -0.5643088 -0.1245472
-0.101256765 0.36594477 0.5746744 0.12611818 -0.006984742 0.06709973 0.28758964 -0.2995379
-0.4118716 0.69509625 0.30355164 -0.2911876 0.022654388 -0.4681418 -0.3568155 -0.5643242
-0.32507586 -0.0180662 0.055382747 0.3309257 0.3626766 -0.29308265 -0.13360544 -0.25035134
-0.0071627023 0.43611094 0.3363918 0.5938928 0.100967936 -0.38232398 -0.010823864 -0.15860365

bias f4 [64]
00000000: afa7 233f 3355 a43e 0c27 c73e 6fcd 283f
00000010: c693 c23d 625a ce3d 8f52 7dbe 800f 843e
00000020: e43b dd3e 8eeb 07be 4590 d3bc a7c6 2dbe
00000030: 013c 233e d107 003f 03c6 17bf efff 743e
00000040: cb48 113f c76e a03e 2dfc dfbd f1ed 7a3d
00000050: e4da 94be ef86 243f c1eb 3fbe 6e57 963d
00000060: 0843 31bc 2f7c debd 1a68 123b c5d8 11be
00000070: 1734 adbe d27c b9be 4faf 8e3e 7052 463e
00000080: d39b 053f 762b 2dbe 26b9 403e 923c 6e3e
00000090: cbd4 8bbd 8efb f7bd fee6 d0be 33b8 fdbe
000000a0: 2249 f7be 00fc efbe e9bc aa3c 738d be3e
000000b0: 6bf8 04be 9887 093e 42cf a0be 3993 303e
000000c0: e30d 413e 42d9 fc3b 3e1e fbbd 9d94 13b9
000000d0: 51b2 503c 1d84 113f 473a 27bd 27cd 3c3e
000000e0: 42c5 acbe e8ee 12bf 203b 693e ba15 26bf
000000f0: 2369 d73e c3a2 873c bf92 17be 27db 09bf
0.6392774 0.32096252 0.38896978 0.65938467 0.09500842 0.10075833 -0.24738525 0.25793076
0.43209755 -0.1327345 -0.025825629 -0.16970311 0.15940858 0.50011927 -0.59286517 0.23925756
0.567517 0.31334516 -0.109367706 0.061262075 -0.2907325 0.6426839 -0.18742277 0.07340895
-0.010819204 -0.1086353 0.0022339881 -0.14242847 -0.33828804 -0.36228043 0.27868125 0.19367385
0.52190894 -0.1691111 0.18820629 0.23265293 -0.068276964 -0.12108527 -0.40801233 -0.49554595
-0.48297983 -0.46871948 0.020842033 0.37217292 -0.12985389 0.13430631 -0.31408125 0.17243661
0.18852954 0.007716329 -0.122616276 -0.00014074375 0.012737826 0.56842214 -0.040827062 0.18437634
-0.33744246 -0.5739579 0.2277646 -0.648769 0.420724 0.016557103 -0.14802073 -0.53850025

weight f4 [64, 64]
00000000: d50d 07bd e8d3 c23c 13b3 853c 6c4f df3d
00000010: 0e12 c538 eba5 dcbd e7c9 b0bd c788 07bd
00000020: 27de 103e 4df2 f8bd 6960 d9bd 388a a13d
00000030: 5620 9bbd c37e d53d 11b5 a1bd 1085 903d
00000040: 2ef2 2fbe 18c5 d0bd f624 c73d 2274 163d
00000050: 069c 1b3e e187 bc3d 7f85 57bc 224f 2cbd
00000060: d35b 9abc b54a b83d aa87 813d 3f28 6e3d
00000070: b8c6 233e 0fd8 3abd 5f7b 0cbd 2feb 063e
00000080: 9e00 d83d ed6d 6e3c 6734 9d3d 1a57 b43c
00000090: 1c3f b3bd 043b bb3d 6045 2e3c 1753 653d
000000a0: 5e95 833b 678e 273d 6315 66be 5a88 19bd
000000b0: e7d1 bcbd c017 55bc 2f63 3bbd edd3 033e
000000c0: 8572 6f3d 6482 ba3d 4ae1 0a3d 8b17 c0bd
000000d0: 30ed 993d f28a cb3d cae8 2bbd f97a 8a3d
000000e0: 212c 7ebc 3a96 c73d 2ac0 c0bc 0833 a5bd
000000f0: 0582 2dbd df6a dc3d 3a88 703c e215 adbd
00000100: c5b0 e83d eb03 9bbd a473 18bc 0d69 cbbd
00000110: ca48 293d 5afa 153e c6c9 80bc e930 ac3d
00000120: 6a3a fdba 602b 933d 7075 cabd d960 6fbc
00000130: cef8 cd3d 8af5 e83d a3ed 743d 2146 d7bb
00000140: 907e 3abd 9967 a8bd 37b8 74bc 2047 df3d
00000150: f231 9abc 5233 f9bc 6546 053e 86db 94bc
00000160: a9a9 07be 5fc7 f13a 9e46 923d 431e 2fbe
00000170: a5f9 23be 7b0d 913c 624d b43c 94c7 dcbd
00000180: e446 173e 5758 aa3d 5fcb f2bc 0aa7 d8bd
00000190: 15cb e1bc 5ba1 a1bc 833b f43c 11ca 10be
000001a0: ff75 e33c 82b8 05be 7024 9c3d c31a 40bb
000001b0: babe 27bb 5d49 84bd 7ea8 18bd 456b eb3d
000001c0: 3ac3 3ebd 7a6a ca3c a7a1 7fbd dfed 013d
000001d0: 70f5 34bc a70c 5f3d dabd 623d de76 c5bc
000001e0: 6abe 21bd d7df 803d 8b9d ca3d 168d e3bb
000001f0: f192 c83d a524 133d bcc0 e63d 9fbb 36bd
00000200: 0993 b23c 31c4 34bc 4ff1 50bd 27a2 833c
00000210: b829 babc 6cbc 233e 2ec7 ca3d 8f25 323d
00000220: 0482 ca3d de7f 383b 9685 0a3d d01b 013e
00000230: 5ae8 26be 20f3 adbc 3fc7 c63d 4b12 6c3c
00000240: 65a7 a3bc 301a d9bd a17f f63d 0bb3 44be
00000250: 9724 30bd 7360 993d 48bc 0f3e a1da 4b3e
00000260: b6dc 043e 2710 86bd 4fde 123d 8551 2b3e
00000270: 4cab 29bc 3050 903e 1a7d 8dbd 3be7 a93d
00000280: 2f04 7c3d 2260 243e adfc 703d 4255 21bd
00000290: d646 943c 9315 7e3b 8acd 9fbc c250 d43d
000002a0: fdff 203e 57ee b7bd 6d95 1a3e 2040 f73d
000002b0: 0f13 753e 15d4 903d 7751 af3c 568e a6bc
000002c0: a951 213e 9948 e3bd 9bc9 f13d a9a9 3cbe
000002d0: bd62 313d fd57 063d c1ff f73d 1042 403b
000002e0: 6e68 503c b543 363e cb3a 00be 5dfc 80bc
000002f0: a715 cc3d 0f4a 80bb 76d8 c6bd 47b3 343b
00000300: b519 c2bd 2c72 6d3c 6337 e0bd 11b9 fbbc
00000310: e18a 7abd 86fd 94bd cb56 dd3d 2428 ea3c
00000320: 21bf 3ebc 2dbb 603d 882c dd3d 5ff5 3b3d
00000330: 7e60 14bd 30d3 103d 63d9 23bd 7351 febc
00000340: a9be 25bd 6ae8 e5bd 0ec1 fdbd e9c5 cbbc
00000350: c9ea bfbc 2240 d83d 9d8f 04bd d32b aebd
00000360: 6252 073d 6ce1 f93c cb72 d43d 8c7f dd3d
00000370: 8003 a63c 0c90 f03c 20f4 f4bd fce9 bdbd
00000380: dd24 823d b6de e53d 07b6 dbbd 9ed0 bd3d
00000390: a525 a0bd 6b0e f33d b9ad 033c 504e 593c
000003a0: 2d02 853c 693f b1bd 3d8d 2cbd 4ccb bdbd
000003b0: 0a41 edbd 06b4 223d c8c3 2a3d 2714 b8bd
000003c0: b447 453c ded1 d83d 734e e1bd 78b9 9dbb
000003d0: 3588 d93d 37e1 05bd 105c 9cbd 7f2c 8b3d
000003e0: 0073 56ba b52f 94bd 6c41 96bd 820c 9fbd
000003f0: 54cd 95bd 1aa1 8fbd 0943 ecbd e857 97bd
-0.032972176 0.023782685 0.01632074 0.109038204 9.397055e-05 -0.10773834 -0.0863226 -0.033089425
0.14147244 -0.1215559 -0.10614092 0.07887691 -0.07574527 0.104245685 -0.07895864 0.0705663
-0.17182228 -0.10193843 0.097238466 0.036731847 0.15196237 0.09205604 -0.013154387 -0.042067654
-0.018842613 0.08998624 0.06324704 0.05814385 0.15993774 -0.045616206 -0.034297343 0.13175653
0.10546993 0.014552576 0.076760106 0.02201419 -0.087522715 0.09142116 0.0106366575 0.055987444
0.0040156087 0.04090729 -0.22469096 -0.03748355 -0.09219723 -0.013006151 -0.045748886 0.12873812
0.058458824 0.09106901 0.03390626 -0.093794905 0.07515943 0.09938611 -0.04197005 0.067617364
-0.015513451 0.0974545 -0.023529131 -0.08066374 -0.042360324 0.107625715 0.014680916 -0.084514394
0.11361841 -0.07569107 -0.009304915 -0.09932146 0.041329183 0.14646283 -0.015721213 0.08407766
-0.0019319777 0.071860075 -0.09885681 -0.014610493 0.10057221 0.11374958 0.05979694 -0.0065696393
-0.045530856 -0.08222885 -0.014936498 0.10902238 -0.018822644 -0.03041998 0.13015135 -0.018171083
-0.13248314 0.0018446258 0.071423754 -0.17101388 -0.160132 0.017706623 0.022009555 -0.10780254
0.14773136 0.08317631 -0.02963799 -0.10578735 -0.027562657 -0.01973026 0.029813534 -0.14139582
0.027766226 -0.13058665 0.076241374 -0.0029312826 -0.002559586 -0.064593054 -0.03727006 0.114950694
-0.0465729 0.024708975 -0.062410023 0.031720992 -0.011044845 0.054455426 0.055356838 -0.024104532
-0.039488234 0.06292694 0.0989333 -0.006944309 0.09793652 0.03592362 0.1126723 -0.044612523
0.021798627 -0.011033104 -0.05101138 0.016068531 -0.022724971 0.15989846 0.09901272 0.04349285
0.0988808 0.0028152387 0.033818804 0.12608266 -0.16299573 -0.021234095 0.09705972 0.014408658
-0.01997728 -0.10600698 0.12036062 -0.19208924 -0.043003645 0.07489099 0.14036667 0.19907619
0.1297482 -0.065460496 0.03585654 0.16730316 -0.010355782 0.28186178 -0.06908627 0.08296057
0.061527427 0.16052297 0.05883472 -0.03938795 0.018100183 0.0038770183 -0.019507188 0.10366966
0.15722652 -0.089810066 0.15096064 0.12072778 0.23933052 0.070717014 0.02140115 -0.020331543
0.15753807 -0.11097831 0.11806031 -0.18424095 0.043307055 0.032798756 0.12109328 0.0029336251
0.0127202105 0.17799266 -0.12522428 -0.015745336 0.09965067 -0.0039150785 -0.097092554 0.0027572678
-0.094775595 0.014492553 -0.10948064 -0.030727895 -0.0611676 -0.07274918 0.1080757 0.028583594
-0.011642248 0.054866005 0.10799509 0.0458883 -0.036224835 0.035357654 -0.040002238 -0.031044697
-0.04046503 -0.1122597 -0.12390338 -0.024874644 -0.023427384 0.10559107 -0.032363523 -0.085044526
0.03303755 0.030502997 0.103734575 0.10815343 0.02026534 0.029365562 -0.11960626 -0.092731446
0.06354687 0.11224119 -0.10728078 0.09268306 -0.0781968 0.118679844 0.008037024 0.0132633
0.016236389 -0.08654673 -0.042126883 -0.092672914 -0.11584671 0.039722465 0.041690618 -0.08988219
0.012041021 0.10586904 -0.11001291 -0.0048133694 0.106216826 -0.032685485 -0.07634747 0.06795596
-0.00081805885 -0.07235662 -0.07336697 -0.077660576 -0.07314554 -0.070131496 -0.115362234 -0.07389814

bias f4 [64]
00000000: 30af 9ebb 8856 91bd 5f09 a83d c27e ebba
00000010: 95f7 01be acce 82bc 47cb bd3b 4fcf 4dbc
00000020: 3f5a c73c 82b5 f2bd 40a8 ba3d 2022 e0bc
00000030: 8bce 37bd 04c4 bbbd 2aa5 8cbd 158c 58bc
00000040: ca61 1fbd 3a8b 32bd 63da c63c 18be 883c
00000050: f9e1 693d 17f1 b7bd 15a2 393d 0702 193d
00000060: 32f3 1d3e a7ab 7fbd e4d6 a8bd 76aa 9cbd
00000070: 12b9 443d 6cbe f7bd 5757 de3d 7497 bdbd
00000080: 9470 a4bc 6a9a 4ebc 5529 d03d 5818 843b
00000090: 2d6e 48be ca9a 17be 86d1 093d 1b8b df3d
000000a0: 7f54 b33c ad5c 143d ec57 b93d 8d15 02bd
000000b0: 17cd df3d d168 58bd 4eff b43c d105 db3c
000000c0: f491 963d f7a4 613d f3cf 2f3d 8f49 4dbe
000000d0: 6d43 e53d bc50 09bd fbd8 183e acde 203c
000000e0: 8191 ab3d 2e67 e7bd 3627 ecbd f072 d6bc
000000f0: b78f b03d d49f 3e3d 3fbd cbbd 068c b0bd
-0.0048426613 -0.07096583 0.082049124 -0.0017966854 -0.12692101 -0.01596769 0.005792055 -0.012561633
0.024335025 -0.11851026 0.091141224 -0.027360022 -0.04487471 -0.091682464 -0.0686744 -0.013216992
-0.03891162 -0.043589808 0.024274057 0.016692206 0.05710027 -0.08981531 0.04532059 0.03735545
0.15424803 -0.06241956 -0.08244112 -0.076497 0.04802806 -0.12096867 0.108565025 -0.09257403
-0.020073213 -0.012610057 0.101641335 0.0040312223 -0.19573279 -0.14805141 0.033647083 0.10915204
0.021890877 0.036221195 0.09049973 -0.031758834 0.1092779 -0.052834336 0.022094395 0.026736172
0.07352057 0.055088963 0.042922925 -0.20047592 0.11194501 -0.03352426 0.14926521 0.009818714
0.08377362 -0.11298977 -0.115309164 -0.026177853 0.086211614 0.046539143 -0.09948205 -0.08620457

weight f4 [64, 64]
00000000: c537 83bc 2454 0e3d 29db 003d 8aa2 1cbe
00000010: 28ca 5bbd 8008 36be 8a28 a13d 0046 a83d
00000020: 790b 0f3d 83e4 3fbd dc20 41bd a597 e6bc
00000030: 9a1a b03d 521a 4abe cb9c d43d bbe5 113e
00000040: c96d 4e3d 0093 d9bc 51b6 bdbd bb97 fabd
00000050: 0782 ac3d b43d a53d 754b 92bd c4fd ef3d
00000060: a156 bf3c 75f5 7cbc bc42 c5bd 21d2 82bd
00000070: ab06 0d3d 22ec 96bd 2731 d33d aa4e 173d
00000080: 9750 08bc da92 20bd 0dfd 8a3d 116e 35bc
00000090: 0b5d 4ebd cf4e ad3d a544 5f3c bb33 a03d
000000a0: b432 e1bd b97d e23d 4148 ca3d 8eda 003e
000000b0: fd76 863c a57b 06be 14f4 fabd efe3 9c3c
000000c0: 6683 d2bd aeb2 fbbb fd90 453c 7086 9abc
000000d0: 78fe 113d 5bc8 c23d 463d 0f3e e9d0 cfbc
000000e0: d838 d63d 5e91 acbd 67a5 863d 0ffa 05be
000000f0: d1fe 293d e16c b63d e6be 06bd ceea 03bc
00000100: accf 093d 7b01 fabc 308f dabd 3c6b 3bbd
00000110: 1a4c d43d 2289 cc3d 0d2c edbc fd4f a33d
00000120: f529 10be cbba 9a3d fa87 2cbd d067 2bbe
00000130: 18cb ab3d 952d f23d 1a41 a6ba 8798 0d3e
00000140: 9d43 0b3e 7ca8 73bd 3503 d13d fb21 1fbd
00000150: fd95 653c d15f e2bd 4617 c3bc f7a8 863d
00000160: 0ed4 f83d 3145 63bc 06d9 f7bd 7bf7 4abd
00000170: 2656 92bd 7490 63bd a244 25bd a330 483d
00000180: 48a1 2bbd dd73 063d e4d3 3338 60b4 4f3d
00000190: 7f29 fc3d f74d 123e ff2a e53d 89d4 c0bd
000001a0: c0a6 99bd 1fff b73c 45d0 bc3d e982 c9bd
000001b0: 6b90 bd3d 506c e83d f40d 4f3d 7b93 fbbd
000001c0: 4353 df3d 7989 ce3b 7501 afbd 479b 66bd
000001d0: 6f39 d7bd 0fa5 fd3d 0c85 023e 85ce 693c
000001e0: 347a 2dbc 400c 40bb bab4 52bd be96 b3bd
000001f0: afd4 cc3d a815 b1bd f881 5fbd f45d 30be
00000200: 053e b03c a01a d8bc 9468 87bd b9cc f33d
00000210: b4af ccbd 2419 a63d 3081 6f3d 8840 2bbe
00000220: fdf1 f83c aa8f dc3c 11f3 8e3c 79f1 c3bb
00000230: 99b3 0ebc 8474 51bc 9d66 cf3d 9912 f13c
00000240: d040 17be 7246 06bd 3233 4d3d d55b fcbd
00000250: 4348 d7bc ab04 77bd 56fe 89bd f4a7 d93d
00000260: 64c0 ac3b c052 dcbd b0af ec3c 187f 0fbd
00000270: d7ad 21be e296 a1bd 4591 90bd a28e d83d
00000280: 1445 eabd a395 e03d 5940 dabd 6332 503d
00000290: a193 2abd 4743 fabc 22fe 083e 8413 15bd
000002a0: 95f2 c93b eaeb b73d ac40 97bd 1efa 13be
000002b0: 6300 483d 6f7f 80bc 35ea e2bc 3de4 fb3d
000002c0: 70c2 313d 71fb df3d fa85 7dbc 6b1f 2f3e
000002d0: 1a77 fc3c b6d0 51be 5d22 ccbb 5f6b 083e
000002e0: 5074 e5bd 5874 fcbd 8624 013e 7f8b a33d
000002f0: 19f0 07be 40a1 ae3c 93b5 c43c acd4 263e
00000300: 79e1 92bd 4923 e8bd e7eb 63ba 38c1 d4bd
00000310: 3c66 973d 6654 d6bc 9a17 f53c ad37 bebc
00000320: c4e2 a8bd ca1d c2bd 6e9b b83d 0b6f 1a3d
00000330: b2bd 52bd b929 023d 4fae 86bd ed49 323d
00000340: ce6f 8aba 8869 e9bd 09d8 a73d 4f8e 96bd
00000350: ba46 b13b 8f5f 9f3d e145 1fbe a4d5 aa3d
00000360: 9b77 96bd dc30 ae3d c4e9 ee3d 3784 e0bd
00000370: 3d93 933d a0c4 9a3d ba8d 0cbe ad03 9ab9
00000380: 0573 713c 8d93 bb3d 7d90 febc f787 ad3d
00000390: c0c8 ca3d 310c 34bd 7a76 86bd d3fc 09be
000003a0: 772f e4bc 4674 0fbd 2a4d e4bd ce81 25bd
000003b0: c10b a23d ccda 6fbd a77f ad3d 8652 8cbd
000003c0: ff7d ef3c 1613 003d 8d05 a53d d4bc cabd
000003d0: 1ee8 b53d d36b 73bd ec21 223d 9b77 cabd
000003e0: c633 383d 4264 8e3d 22ee a4bc 509d 993d
000003f0: 1a47 53bd cf2e 4bbd f0d0 f3bd e361 84bd
-0.016017804 0.03474821 0.031459007 -0.15296379 -0.053659588 -0.1777668 0.0786906 0.082164764
0.03492305 -0.046848785 -0.047150478 -0.028148482 0.08598824 -0.19736603 0.103814684 0.14247791
0.050397668 -0.026559353 -0.0926329 -0.122359715 0.08423238 0.080684096 -0.071432985 0.11718324
0.023356738 -0.015439381 -0.09631869 -0.06387735 0.034430187 -0.073692575 0.103121094 0.036940254
-0.008319995 -0.03920255 0.06786547 -0.011073605 -0.0503817 0.08462297 0.013627206 0.07822367
-0.10995999 0.11059136 0.098770626 0.12583372 0.01641416 -0.13133104 -0.122535855 0.019151656
-0.102789685 -0.0076812124 0.012058494 -0.018862933 0.03564307 0.09510871 0.13988218 -0.02536817
0.10460061 -0.08426164 0.06574517 -0.13083671 0.041502777 0.08907486 -0.0328969 -0.008051587
0.033645317 -0.030518284 -0.10671842 -0.045756564 0.10366078 0.099870935 -0.02895167 0.07974241
-0.14078505 0.07555159 -0.042121865 -0.1673882 0.083883464 0.118251 -0.0012684197 0.13827716
0.13600011 -0.05948685 0.1020569 -0.038850766 0.014012811 -0.11053432 -0.023814809 0.06575196
0.12149821 -0.013871477 -0.12101941 -0.049552422 -0.07145338 -0.055557683 -0.040348656 0.04887451
-0.041901857 0.03282534 4.2874264e-05 0.05070913 0.12312602 0.14287554 0.111898415 -0.09415538
-0.07502508 0.022460518 0.09219412 -0.09839422 0.09256061 0.11348784 0.050550416 -0.12283989
0.10904553 0.006303009 -0.085452 -0.056300428 -0.105090015 0.12384998 0.12746066 0.0142704295
-0.0105882175 -0.0029304177 -0.051441886 -0.08768986 0.10001504 -0.08646709 -0.054567307 -0.1722334
0.021513948 -0.026379883 -0.066117436 0.11904282 -0.0999445 0.08110264 0.058472812 -0.16723835
0.030388827 0.026923973 0.017449887 -0.0059797135 -0.008709812 -0.012784127 0.10126994 0.029427813
-0.14770818 -0.032782026 0.05009765 -0.12322203 -0.026279574 -0.060307186 -0.06737964 0.10627738
0.005271958 -0.10757971 0.028892368 -0.035033315 -0.15788971 -0.07890107 -0.07058958 0.1057408
-0.11438957 0.10966041 -0.106568046 0.050829303 -0.041644696 -0.030549658 0.13378194 -0.036395565
0.0061629512 0.08980544 -0.07385382 -0.14450881 0.048828494 -0.015685765 -0.02769957 0.12299392
0.04339832 0.109366305 -0.015473837 0.17101829 0.03081851 -0.20489773 -0.0062296824 0.13322209
-0.112038255 -0.12326878 0.12611589 0.07985591 -0.13275184 0.021317124 0.024012363 0.16292065
-0.07171912 -0.11334855 -0.0008694515 -0.10388416 0.073925465 -0.026163291 0.02991848 -0.023219908
-0.08246377 -0.09478338 0.09014021 0.037703555 -0.05145044 0.03177807 -0.065762155 0.043527532
-0.0010561885 -0.113970816 0.08195502 -0.07351362 0.0054100426 0.07781898 -0.15554 0.0834153
-0.07347032 0.08505413 0.11665681 -0.10962718 0.07205818 0.075570345 -0.1372594 -0.00029375908
0.014736895 0.091590025 -0.031074757 0.08473199 0.09901571 -0.04395694 -0.06565566 -0.13475351
-0.027854664 -0.035022996 -0.111475304 -0.040406995 0.07912398 -0.05855827 0.084716134 -0.068516776
0.029234884 0.0312682 0.08057699 -0.09899297 0.088821635 -0.059429 0.03958313 -0.09886094
0.04497125 0.069527164 -0.020133082 0.07500708 -0.05158148 -0.049605187 -0.11905086 -0.06463983

bias f4 [64]
00000000: e9df 9dbd df25 79bc 26ab 46bd 8381 eebd
00000010: f845 77bd 55d5 173e 8318 90bd d6cf b93c
00000020: 3653 50bd 9208 083d 6ec2 afbd 389f 72bc
00000030: 951b 563d e639 c2bd a8c5 e0bd 54a9 a2bb
00000040: 8480 e2bd 361c 5cbd ee99 cd3d 0289 acbd
00000050: 34a4 0a3e 44ce a43c 905d c53c 7daa 843d
00000060: d3f5 c7bd ee2b ec3d e68e 01be 1ce3 95bd
00000070: 0289 ca3d 4ae3 07bd 7be0 fc3d f3de c53c
00000080: aff7 ec3d 3fe3 e63c 6131 843d d7a2 313b
00000090: e435 47bd 087d c93d d1b0 c3bd df8d 883d
000000a0: 24c5 a4bc 98bb 393d bd6f c9bb 11f9 0cbd
000000b0: 3ef3 133c 22f7 6a3d ee81 1ebd faf1 aebd
000000c0: d412 aabd 39c5 1b3e 6921 01be 3cac 0b3d
000000d0: b8ea b3bd 4927 6f3d 0308 943d 3321 a23b
000000e0: 5a6c b93d e333 91bc d341 cfbd 8cf8 093c
000000f0: 1cef 803d 0907 f93b f000 af3d 4ac9 5b3d
-0.07708723 -0.015206783 -0.048503064 -0.11645796 -0.06036946 0.14827473 -0.07035925 0.022682112
-0.050860606 0.0332113 -0.085820064 -0.0148084685 0.052272398 -0.094836995 -0.109752 -0.004964033
-0.11059669 -0.05373784 0.100391254 -0.0842457 0.13539201 0.020117886 0.024092466 0.064778306
-0.09763684 0.115318164 -0.12652168 -0.07318708 0.098894134 -0.033175744 0.12347504 0.024154162
0.115706794 0.028184531 0.06454731 0.0027105117 -0.04863538 0.09838301 -0.095552094 0.06667685
-0.020113535 0.04534492 -0.0061473534 -0.034417216 0.009030161 0.05736459 -0.03869813 -0.08542247
-0.083043724 0.15211953 -0.12610401 0.034099802 -0.087850034 0.058387075 0.072280906 0.0049478053
0.090538695 -0.017724937 -0.10119977 0.008421075 0.062956065 0.0075997156 0.08545101 0.05365876

weight f4 [64, 64]
00000000: d88b ba3c d07f ce3c 70e0 0dbd 44ea 2a3d
00000010: 18da ce3d 00de e8bb 30a6 083c d0bc f0bd
00000020: c4d3 5bbd d62e d53d f86e 97bd c0b2 1abd
00000030: 78c0 e13c 0c0f 513d 4091 41bc a82c ddbc
00000040: 30ad dc3c eaf4 9a3d b094 45bc 20f3 7fbd
00000050: a839 fdbc 848b e53d d0f6 94bd 70e0 33bc
00000060: 00f4 30b9 a87b 963c a019 bcbb 40a4 fbbc
00000070: 10b3 5fbd 8099 fbba c86b d6bd f053 4d3d
00000080: 5ab2 f2bd 9a58 dabd 80e4 f4bc 4c1e fd3d
00000090: 50cb 12bd 2a97 c9bd d82a 883d 38d4 f2bc
000000a0: 7048 f33d 6cdf 933d 0601 a6bd 00e8 5bbc
000000b0: 68ab a6bd 8e9f 84bd eaa6 dbbd ec12 073d
000000c0: 827c 87bd 8027 c43d 6cdf 1fbd 6a01 c0bd
000000d0: fe70 fa3d 860e fb3d ecbe cdbd e44a ec3d
000000e0: e0e0 263d a49b 1b3d 7439 e3bd c2bf d8bd
000000f0: 5a58 cfbd 5cca e4bd 506c e9bc dc6f c7bd
00000100: ce51 e13d 0aa1 de3c db80 d43d a86f e33c
00000110: 56f5 0f3d 9059 aebd c3f1 a5bd 50ec e1bb
00000120: 904a 0d3e 886e e7bb f895 603d 3dc1 83bd
00000130: ee76 0ebe 75c3 0bbd ac9e 70bd 18b8 4d3d
00000140: 5dbc ee3d b66f 303e 4cb9 093d 09f7 38be
00000150: 12d2 adbd 1d75 e23d fdff 0cbe 7891 0bbd
00000160: ab73 76be 700c a03d a022 093e ab24 86bd
00000170: df76 343d b41b 0fbc 683a 9b3d 1bea 843c
00000180: 3141 8f3d a01b e83c 8ed4 d33d ce15 dd3d
00000190: b445 2fbd f8b9 07bd 4075 04bb 5742 c4bd
000001a0: 020e eebd 2df6 14bc 326e 693b b09d 573c
000001b0: 90cf 37bc 8b3d efbd 179f c2bd 741d e93d
000001c0: 1026 c73d f315 d33d bc9f 23bd 2ca2 8c3d
000001d0: f830 4abd cba8 3b3d c225 10bd c6eb efbd
000001e0: 9b67 0f3d 96b6 82bd 30fe 2f3c b554 c63d
000001f0: 35ad 223d 85dd 293d 9e07 c2bd fa1c d63d
00000200: 1da7 1cbc bb5b 58bd dd81 043d 805a 2bbc
00000210: a667 c1bd facc acbd 6c11 c03d 93b5 72bd
00000220: 5a67 943d bfe0 95bd ca49 753d 86d7 813c
00000230: cb97 4fbd f4a9 14bd 7053 31bc d177 03bc
00000240: d8fe 733d 1cde e63d b815 903d 9dd9 a93d
00000250: f2eb a9bc f41b e33d ae0d 373d b0f8 09bd
00000260: 2e74 eebd 4684 1fbd 3d18 e7bd cb8f 0d3c
00000270: 90ba f7bd ab49 60bd 5e52 9f3d 4064 d43c
00000280: b4ff 64bd 02f6 a83d cbc7 f23c 329f 493d
00000290: 1b1a b03d 5f11 89bd f0da 653c 53a9 2ebd
000002a0: 902d ff3c 9159 db3d 9654 8ebd 0026 f0bc
000002b0: e2b7 bebd a522 51bd f124 a43d 1ede 823c
000002c0: f07f b73d 7239 24bd af9f ac3c 2451 dfbd
000002d0: 00e9 eabd bc47 c93d 7e89 93bc 3f21 623d
000002e0: a446 52bd 005d 9ebb a034 c2bc c06e 94bd
000002f0: 32be e2bd 9df4 aa3b afc6 bc3c 11c0 b73d
00000300: bb98 843d 6731 8f3c ba5c 333d 6756 2dbd
00000310: e520 8dbc 9ecd 583d acc8 213e c0c9 3dbc
00000320: ae86 dabd afe9 b43d f774 68bd 7ea1 15be
00000330: 3da6 0d3e daae b5bb 103a 45bc d52a 21be
00000340: 5a96 a03c 28da 01be 5edb 4e3d e46d 823d
00000350: 8196 03be d8e1 8c3d 2b34 9b3d f7c3 a03d
00000360: 9a47 9fbc e3bb 083d 3b4a 1e3e f415 e2bc
00000370: b93e 90bd 74b2 013e 7a17 c53c 2305 84bd
00000380: 78b4 cc3d 4c11 a7bd a3db 073e 7f66 93bd
00000390: 34bf b03c 7269 d43d 908d 8abd 5c8f 1e3c
000003a0: f0d9 e83c 192f 7ebd 540a 32bb adeb 4ebd
000003b0: 0d32 01be 7445 433d a830 a23d 9d79 49bd
000003c0: 860f a33d c588 823d cd57 3dbd 270a 91bd
000003d0: 345d d6bd f319 283d 4e99 e5bc bd99 be3d
000003e0: 2b66 673d 1ec6 003d 3e47 923d ac43 b83d
000003f0: 0d31 6b3c 68f5 063d 4e1a 41bd cf8b c53d
0.02277176 0.02520743 -0.03463787 0.04172732 0.10100192 -0.0071065426 0.008340403 -0.11754763
-0.053668752 0.10409324 -0.073942125 -0.037768126 0.027557597 0.05103974 -0.011814415 -0.026998833
0.026938051 0.07566245 -0.012059376 -0.06248772 -0.030911282 0.11208251 -0.07273638 -0.010978803
-0.00016875565 0.01836951 -0.0057403594 -0.030717969 -0.054614127 -0.0019195527 -0.104697764 0.050128877
-0.11850424 -0.10661431 -0.029894114 0.12359294 -0.035838425 -0.098432854 0.06648797 -0.02964221
0.11879051 0.07220349 -0.08105664 -0.013422012 -0.08138162 -0.06475745 -0.10725196 0.03297703
-0.06615545 0.095778465 -0.03903143 -0.0937527 0.12228583 0.122586295 -0.10046181 0.11537722
0.0407418 0.037990227 -0.11094943 -0.1058345 -0.101242736 -0.111714095 -0.02849403 -0.09738132
0.11001931 0.027176399 0.1037614 0.027763203 0.03514608 -0.085131764 -0.08102753 -0.0068946257
0.13797975 -0.007062737 0.05483052 -0.06433342 -0.13912556 -0.03412195 -0.05874507 0.050224394
0.11657021 0.17230114 0.03362398 -0.18062986 -0.08487333 0.11057494 -0.13769527 -0.034074277
-0.24067561 0.07814872 0.13392115 -0.065499626 0.044058677 -0.008734632 0.075794995 0.016224911
0.06994856 0.028333485 0.10343276 0.107951745 -0.042791083 -0.033136338 -0.0020211488 -0.09582966
-0.116237655 -0.009091896 0.003561866 0.013160154 -0.01121892 -0.1168166 -0.09503 0.11382571
0.09724057 0.10306921 -0.039947256 0.06866869 -0.049363106 0.04581527 -0.03519226 -0.11714892
0.035010915 -0.06382482 0.010741755 0.09684125 0.039715964 0.041471023 -0.09474109 0.104547456
-0.009561327 -0.052821856 0.03235041 -0.010458589 -0.094435975 -0.08437534 0.09378323 -0.059255194
0.07246275 -0.073182575 0.059884824 0.01584984 -0.05068187 -0.036294892 -0.010823116 -0.008024172
0.05956921 0.11272833 0.070353925 0.082934596 -0.02074239 0.11089316 0.04469078 -0.033684433
-0.11643253 -0.038944505 -0.1128392 0.00864024 -0.12096131 -0.054757755 0.07779382 0.02592671
-0.05590792 0.08250047 0.029636284 0.049224086 0.08598729 -0.066927664 0.01402925 -0.04264195
0.031149656 0.10710443 -0.06949727 -0.029314995 -0.093124166 -0.05105843 0.080148585 0.015975054
0.08959949 -0.040093847 0.021072237 -0.10904148 -0.114702225 0.09828135 -0.018009897 0.055207487
-0.0513369 -0.004832864 -0.023706734 -0.072476864 -0.11071433 0.0052171485 0.023043958 0.08972181
0.064744435 0.017479612 0.043789603 -0.042318728 -0.0172276 0.052930467 0.15799206 -0.0115837455
-0.10670219 0.08833634 -0.05675217 -0.14612386 0.13832946 -0.0055445256 -0.012037769 -0.15738995
0.019602943 -0.12680876 0.050502174 0.06368616 -0.12850381 0.06879014 0.075783096 0.07849877
-0.019443322 0.033382308 0.15458004 -0.027598359 -0.070432134 0.1266573 0.024059046 -0.06446292
0.09995359 -0.08157596 0.13267379 -0.07197284 0.021575548 0.103716746 -0.06765282 0.009677734
0.028424233 -0.062056635 -0.00271668 -0.050517727 -0.12616749 0.047673658 0.07919437 -0.049188245
0.07961945 0.06373743 -0.04622631 -0.070820145 -0.10466996 0.041040372 -0.028027203 0.09306667
0.05649392 0.03143894 0.071424946 0.089972824 0.014354956 0.03294888 -0.047144227 0.09645807

bias f4 [64]
00000000: b447 56bd d27a adbd 957e 0bbe dec9 63bc
00000010: 5146 df3d 7609 663d 5c6d e5bd 70b4 163d
00000020: 25af 0d3d 6fcc 94bc 38c6 f0bd 045f 57bd
00000030: 80a6 ae3c 23b9 0a3e b19b df3c 62fc 0dbe
00000040: 18bd 6fbd cb0d a63c c08b 54bc 37e4 11bd
00000050: 0d41 0cbe 4744 bfbd 9fbb 38bd 60a6 45bc
00000060: 1692 febd 849c 903d da7e afbd 6a9a 8c3d
00000070: 60bd bb3b e01c 6cbd 8eb3 cbbd 58be 19bd
00000080: 2bf0 c23d 44a2 fc3c 13b3 fcbd 157f d83d
00000090: 2c88 afbd 7b7b 123d 0cf2 6e3d d668 0ebd
000000a0: 8706 ccbc 760b 143e 0f61 503c 92cf f03b
000000b0: 515f e5bb 7cac 4dbd e25d 7a3d 9138 b8bd
000000c0: b0fc 763d 447b 153e 24b4 94bb a9b9 cb3b
000000d0: 8115 413d 25d7 de3a ec01 94bd ff8e 223d
000000e0: 000b b93d 65f3 a8bd c23b 9fbd 34c3 a6bd
000000f0: 025d 273d 349e 9fbd 73eb b83d f9dd 0bbd
-0.052314475 -0.08470692 -0.13622506 -0.013903109 0.10902084 0.056161366 -0.11202499 0.036793172
0.03459086 -0.018163888 -0.11756557 -0.05258085 0.021319628 0.13547187 0.02729592 -0.13865808
-0.058529943 0.020270249 -0.012972772 -0.035618033 -0.1369669 -0.09339195 -0.045100804 -0.012063593
-0.124302074 0.07061103 -0.08569117 0.0686539 0.0057293624 -0.057644725 -0.09946357 -0.03753504
0.09518465 0.030839093 -0.12338843 0.10571114 -0.085708946 0.03576229 0.058336303 -0.034767948
-0.024905456 0.14457497 0.012718453 0.007348963 -0.006999888 -0.050213322 0.06112469 -0.08995164
0.060299575 0.14597803 -0.004538076 0.006217201 0.04713965 0.0017001374 -0.07226929 0.039687153
0.09035301 -0.08249549 -0.0777507 -0.08142701 0.040860184 -0.07793847 0.090292834 -0.034147236

weight f4 [3, 64]
00000000: 28c5 a03c 9732 c7bc 47df e0bd e54d fdbd
00000010: 3561 28be 127b 20be ea0a adbd 32b4 9fbd
00000020: 4e87 d13d 3543 163e 0cd3 71bd b25c 85bd
00000030: 996c 2f3e 9e68 14be 172f e1bd 88ea 993d
00000040: 164d 4c3d fcdf 5abd ba3f 953d 784b d73d
00000050: ec0b c73d a43f d83d c989 45bb 18e0 773d
00000060: d41f afbd 66f7 a2bd 24b1 61bd 9192 313c
00000070: eaad 0fbe 514c 8c3d 80c2 47bc 40ed 513d
00000080: a94b 2d3d f5f7 a9bd 3ee0 cdbd 7331 efbd
00000090: 8d4c edbd 642f 3e3d 8faf 13be 08fc 103e
000000a0: cbd6 50bb d21f 5dbd ddac ce3d 1f97 e9bd
000000b0: 975f ccbd c0a0 c03d aed5 85bd 5e14 d63d
000000c0: 8564 933c 842b d8bd f502 623c 71ed d7bd
000000d0: fbc2 923d a754 373c d427 3abd c110 5b3c
000000e0: de87 0fbd 1402 a0bc b450 46bd 3307 4dbd
000000f0: 42d7 f4bc 6969 293d ef01 50bd 4089 09be
00000100: 582d d73d 11a7 ea3d 0143 c1bd 5820 13bd
00000110: e262 1d3e b681 093d 40bc ff3c 5846 2f3d
00000120: d0ed f0ba 2a22 01be 601c 3cbd b885 cc3c
00000130: 6cd1 edbd 90a2 cebd e4cd c03d 0df4 0b3e
00000140: 555c 0c3d 5108 f9bd 5cde fa3d e196 fabd
00000150: a5ba c23c 7714 1c3c 3181 6abd 7c15 6f3d
00000160: 0606 ffbd 8399 97bd 9065 7c3c d68e 463c
00000170: 2e83 3fbd e8de 023e 7c8e 753d 0995 d63c
00000180: e827 023e 9c51 1ebe 4b04 89bd 26dd 15be
00000190: 5ca5 62bc 7fec 43be 0fe2 58bc 4868 ed3d
000001a0: ca55 b73d 2781 9cbc 7350 353e cb4a cebd
000001b0: 629a 923d 5860 503d eac8 0ebd b589 e53d
000001c0: 4232 963d 2871 94bc 408f 96bd f5aa 3b3b
000001d0: a787 e3bd 4ec6 1dbe b77e 1cbe 31a1 2a3d
000001e0: b1dd 903d a2d8 73bd a049 c9bc 8f50 ba3c
000001f0: c714 993c b43f 073d 32e7 ce3d 5346 1a3e
00000200: c0ca 2ebd 6b0c 3e3d 85d4 983d cd89 8a3c
00000210: e6b0 8ebd d62e efbd 3c71 abbd 0067 b5ba
00000220: 3b27 893c 06b3 4d3d 00a7 d43d 28c3 b1bd
00000230: 0b6f 343c 3b69 2e3c 60d9 d73c 2fe8 8d3d
00000240: c6ca 583b 0aab 0cbd d056 9bbc 3b6e 05be
00000250: 53dc a53d 6178 ca3d 01bb ce3c 0063 dd3b
00000260: b06c 0e3d 41a4 953d a0d7 443c f17b 513c
00000270: 54a5 1bbe 525f 103e 7246 bfbd 1084 f3bd
00000280: 9c77 8d3d 410f 923d 9450 a2bd e124 293d
00000290: ca8a a3bd c36d eabb dbb5 cc3d ddf2 93bd
000002a0: 04d4 b0bd d2d4 06be 6303 f83b 70a7 99bc
000002b0: acc6 853d b831 e0bd 70d2 303c 6cfe ff3d
000002c0: 527c e83d 2d10 a6bd 186c e9bd 6226 163e
000002d0: 91ee 4a3d 4cb1 993d 25a8 7bbd d93d ec3c
000002e0: 6a64 bfbd d881 02be 0029 53bb ec5f df3b
000002f0: 372d abbd 0732 a53d ead9 053e 7b5e bfbb
0.019625261 -0.024316115 -0.10980087 -0.12368373 -0.16443332 -0.15671948 -0.08449347 -0.077980414
0.102308854 0.14674075 -0.05903916 -0.06511821 0.1713127 -0.14493033 -0.1099531 0.075154364
0.049878202 -0.053436264 0.072875455 0.105124414 0.09719071 0.105590135 -0.003014194 0.060516447
-0.085509926 -0.07957344 -0.055100575 0.010838167 -0.14031187 0.06850494 -0.0121923685 0.05125165
0.042308483 -0.08299247 -0.100525364 -0.116793536 -0.115868665 0.046431914 -0.14422439 0.14158642
-0.0031866308 -0.053985424 0.10091565 -0.11405777 -0.0997917 0.09405661 -0.06534897 0.104531035
0.017992267 -0.10555175 0.01379465 -0.10543335 0.07166096 0.011189616 -0.04544814 0.013370694
-0.035041682 -0.01953224 -0.04841681 -0.050055694 -0.0298878 0.041360293 -0.050783094 -0.13431263
0.105066955 0.11457647 -0.09436608 -0.035919517 0.15369752 0.033570968 0.031217694 0.042791694
-0.001838142 -0.12610689 -0.045925498 0.024966106 -0.1161221 -0.100896 0.094142705 0.13667317
0.034267742 -0.12159789 0.12249443 -0.12235809 0.02377064 0.009526364 -0.057252113 0.0583701
-0.12452321 -0.07402327 0.015405074 0.012119016 -0.046755962 0.12780344 0.059950337 0.026194112
0.12710536 -0.15460819 -0.06690272 -0.14635143 -0.01383337 -0.19133185 -0.01323749 0.11592156
0.0895191 -0.019104553 0.1770647 -0.100728594 0.071583524 0.05087313 -0.034859575 0.11207906
0.07333805 -0.018120363 -0.073515415 0.0028635834 -0.11109858 -0.15407678 -0.15282713 0.04165763
0.07073534 -0.05953277 -0.02457124 0.022743491 0.018686665 0.033019736 0.10102691 0.15065889
-0.042673826 0.04639856 0.0746241 0.016911412 -0.069673344 -0.11678855 -0.08371207 -0.00138399
0.01674234 0.05021956 0.10383415 -0.08679801 0.011012803 0.010645206 0.02634877 0.06929051
0.0033079847 -0.034342803 -0.018962294 -0.13030331 0.08098664 0.09886242 0.025235655 0.0067561865
0.03477162 0.073067196 0.0120143 0.012785898 -0.15199786 0.14098862 -0.09339608 -0.11890423
0.06907579 0.07131816 -0.07925525 0.041294936 -0.07985456 -0.007154198 0.09995624 -0.07224057
-0.08634189 -0.13167122 0.007568763 -0.018756598 0.06532034 -0.10946983 0.01079236 0.12499699
0.11351837 -0.08108554 -0.1139757 0.1466308 0.04954392 0.0750452 -0.061439652 0.028838085
-0.09345324 -0.12744844 -0.0032220483 0.0068168547 -0.083582334 0.080661826 0.13071409 -0.0058401204

bias f4 [3]
00000000: 33c9 a43d 1ea4 6bbd 8edc 8a3d
0.08046188 -0.05752956 0.06780349

exp_avg f4 [64, 3]
00000000: ab24 10ba f5d0 043a 93ab 9a38 7dd6 a639
00000010: 1f17 043b c3ba 813a 9b7e 1a3a 4c17 8b38
00000020: 118e 3b37 2c8f b6b8 74ad 54b8 ab4c ddb9
00000030: 0c5f 5e3a e87f 0039 b30c 0fba 7031 8cb8
00000040: cf44 ffba 3130 9fb9 e6f4 593a bbb6 deb7
00000050: 7d22 f2b8 ec64 1eba 1268 fd39 052c 5fb8
00000060: 9682 0eba 7f6c 29ba 4246 253a 897f 6439
00000070: 5b6b dfb9 e17f b438 6ca7 02ba 6996 23bb
00000080: 7974 8ab8 44ee a03a e604 b2b9 9b5b 3c3a
00000090: 6ace cf39 d6a4 0dba 3252 31b8 57f3 97b8
000000a0: fc6c 3eb8 9f54 2339 c253 9c39 fb96 02ba
000000b0: d6e5 fe39 b332 093a 25fd bb37 5de3 b4b9
000000c0: 1316 1f39 e134 0c39 d5c8 1839 25b8 1cba
000000d0: ed2a 96b9 dfaf 0d3a 271f 26ba cfe0 a839
000000e0: 0682 18ba 5a1e bcb9 ca9f 84b9 e45a aab8
000000f0: d6d4 09ba 2208 b039 c18d 91b8 1fe3 0038
00000100: 949d 71b8 ec09 bbb8 114b 87b8 8ba9 09ba
00000110: 6ac5 ddb9 47ea 25ba cd94 103a 3940 31b9
00000120: f264 69b8 0ef4 42ba 8715 39b8 db4b 9137
00000130: 5699 ecb8 88c7 51b9 bf6f e539 a6ee edb9
00000140: 6ca5 0d3a 51a4 233a ef0e 20ba a3eb c439
00000150: 36f9 fbb9 e593 0139 1bb2 c538 3773 5fb9
00000160: e928 f9ba e3f2 403a ced2 fc3a 1ef7 f13a
00000170: 4313 8b3a c582 d138 af26 edb8 4d23 3f3a
00000180: feca f439 9695 0a3a 8195 d438 f873 ac3a
00000190: eadf d7ba 24f5 1337 32d4 8138 e15b 523a
000001a0: e156 f438 e4ad 9438 ee2a 9539 a983 7ab9
000001b0: 9418 24b8 cc77 2439 355e 09b8 40d8 6c39
000001c0: 8252 03ba 11ea bf39 c3d6 16ba b158 aa3a
000001d0: d56d 8b3a 2cef 83ad adf7 3fab d785 d2ad
000001e0: 1650 183b 6d02 acb9 0630 9fba 62cb 3e36
000001f0: f3f9 67b6 66b3 51b6 8ec8 3d3a 81e9 883a
00000200: 35d6 a7ba 46e0 6c38 c8d2 9739 5a28 0a39
00000210: 9f8f 35ba cf06 903a 8ec2 5f3a 5fba 43b9
00000220: c48d 89b9 994b e439 3f28 b5b9 7fb1 9eb7
00000230: 7a34 9db9 2069 01ba 3798 57b9 5236 f739
00000240: 77fc 82b8 c225 e9b9 8f28 f439 a567 1139
00000250: 77db 9bb8 456f 853a aee8 e239 9055 16b8
00000260: 9d77 3f39 e330 00ba da4e b938 cb6d 31b8
00000270: 9417 1aba 1ef6 813a bdb4 fe39 b058 36b9
00000280: 42ea 43ba 9cc0 a93a de3e 3d39 0dc5 05bb
00000290: 071c 69b9 ec40 fab9 1120 8739 2820 d9b9
000002a0: edac b43a 5aa4 95ba f23e 1f3b 449f 2eb9
000002b0: 1acb 3dba b7f3 c839 212c d83a 6b53 07ba
000002c0: 80ba 47b9 eb36 51b7 ff4c 8238 929b 8638
000002d0: 2fbf 03bb 38e7 6f3b af14 69ba 9f55 ad39
000002e0: 9223 233a 06ae 2b39 e9ff 6c39 4db5 8eb8
000002f0: 5d2c 91b9 2036 843a c005 d0ba 43ba 983a
-0.0005498628 0.00050665374 7.3752504e-05 0.00031821794 0.0020155383 0.0009897578 0.00058934995 6.632376e-05
1.1179146e-05 -8.705104e-05 -5.070628e-05 -0.00042209527 0.0008482791 0.0001225468 -0.00054569094 -6.684929e-05
-0.0019475463 -0.0003036275 0.0008314386 -2.6549553e-05 -0.00011545883 -0.000604226 0.0004833346 -5.320834e-05
-0.0005436329 -0.00064630056 0.000630472 0.00021791285 -0.0004261386 8.606888e-05 -0.0004984054 -0.0024961478
-6.6020475e-05 0.001227804 -0.00033954455 0.0007185281 0.00039635907 -0.00054032856 -4.227664e-05 -7.245567e-05
-4.540103e-05 0.00015576415 0.00029817043 -0.0004981604 0.00048617896 0.000523369 2.2410017e-05 -0.00034501674
0.00015171645 0.0001337114 0.00014570665 -0.00059783674 -0.00028642212 0.000540493 -0.00063370395 0.00032210952
-0.0005817715 -0.00035880768 -0.00025296054 -8.1231614e-05 -0.000525785 0.00033575395 -6.9405425e-05 3.07291e-05
-5.7605634e-05 -8.918703e-05 -6.451284e-05 -0.0005251399 -0.0004229949 -0.00063291605 0.0005515337 -0.0001690396
-5.564554e-05 -0.00074368797 -4.4127486e-05 1.732067e-05 -0.00011281918 -0.00020006124 0.0004376154 -0.0004538197
0.0005403373 0.00062424416 -0.0006105741 0.00037559596 -0.00048060127 0.00012357494 9.426867e-05 -0.00021309858
-0.0019009385 0.00073604117 0.0019288899 0.0018460487 0.0010610599 9.990254e-05 -0.00011308246 0.0007291332
0.00046690548 0.0005286572 0.00010136795 0.001315712 -0.001646993 8.818959e-06 6.190724e-05 0.0008024555
0.00011651009 7.0895796e-05 0.0002845148 -0.00023890905 -3.9123537e-05 0.00015684887 -3.2751082e-05 0.00022587273
-0.0005009548 0.00036604752 -0.0005754048 0.0012996403 0.0010637591 -1.499919e-11 -6.820055e-13 -2.3933673e-11
0.0023241094 -0.00032808204 -0.0012145049 2.843059e-06 -3.4567172e-06 -3.124785e-06 0.0007239663 0.0010445566
-0.0012804928 5.6475656e-05 0.0002895801 0.00013175738 -0.0006926003 0.0010988357 0.0008535766 -0.00018666078
-0.000262363 0.00043543873 -0.00034552996 -1.891772e-05 -0.00029984472 -0.00049366243 -0.00020560702 0.00047151983
-6.245908e-05 -0.00044469355 0.00046569525 0.00013866888 -7.4318545e-05 0.0010180256 0.0004327944 -3.5842473e-05
0.00018259739 -0.0004890097 8.836175e-05 -4.230234e-05 -0.0005878147 0.0009915268 0.00048581316 -0.00017389911
-0.0007473567 0.0012951079 0.00018047864 -0.002041164 -0.00022231053 -0.00047732086 0.00025773098 -0.00041413424
0.0013784446 -0.0011416778 0.0024298993 -0.00016653264 -0.00072400423 0.00038328554 0.0016492644 -0.00051622716
-0.00019047596 -1.2470157e-05 6.213225e-05 6.418595e-05 -0.0020102968 0.0036606323 -0.0008891327 0.00033060924
0.0006223257 0.0001637266 0.00022602048 -6.8048575e-05 -0.00027689608 0.0010086931 -0.0015870854 0.001165219

exp_avg_sq f4 [64, 3]
00000000: 6aba 0a33 ea86 8d33 f7df 5033 4796 5a33
00000010: b70a ca34 6965 7e33 2314 8a33 fbe8 c932
00000020: bdb2 5b32 ac7e 8a33 9a77 9b32 65df 2e33
00000030: e355 f933 ff12 0b33 abfa 9533 9bf2 3c33
00000040: c664 6734 f7be 9732 4ce7 2834 eee0 a933
00000050: 5f4d 2932 4f4e f033 e28a 3c33 47ee 4932
00000060: a83a 3034 e656 c433 2568 2333 6ed5 0433
00000070: 7bca 1234 9ab6 6533 8059 ac34 b368 4535
00000080: 8b9d 6d33 ea21 f034 9f4b 7434 dc64 a933
00000090: bbda 3634 0e48 8533 fe7b 1632 cfa7 de33
000000a0: f593 7b34 37a8 cb33 3da5 1f33 367f ad32
000000b0: e96e 0533 7d15 c433 2904 2133 8262 bc32
000000c0: 9f9f 9a33 157d 1233 2e14 9e32 d76d 1234
000000d0: e84b b933 64be a833 a9c1 a433 3d0e 0434
000000e0: d02b 8633 baee b133 bd41 3233 18b5 bd32
000000f0: 4e3f 8333 87a8 fd33 4285 9733 ec42 0533
00000100: c159 b533 d8b0 5f33 2ff7 3932 c594 e533
00000110: e212 4733 307a 5133 e1d1 1133 e674 c432
00000120: 7d35 ea32 7c2c e333 a198 dd32 b33c 8c32
00000130: b796 ea33 5be7 7832 70ef 2434 8f31 8c33
00000140: a787 dd33 4294 b633 e49e c934 3885 2533
00000150: 755b 3433 3ee5 bf31 9790 2d32 7cc3 8a33
00000160: 7f5f 2c35 ba8f 4034 014a ca34 98a6 9734
00000170: e271 9933 04ed fe32 06ed 2b33 166f 0a34
00000180: e998 fb33 8d1e a233 a33d 6533 bb43 0034
00000190: e9f5 ad33 8951 4033 1d58 3632 99f1 a133
000001a0: 1768 9e32 e604 2233 ddc9 3032 60d8 cb33
000001b0: 5e1d a832 918e ac32 0d0f 5d32 b4ee ca33
000001c0: d728 db33 1bcc 4833 0d5a 3b33 4210 9334
000001d0: 62c7 0e34 51b8 d72f 8532 9a2f f218 6830
000001e0: ec0a c534 5d5e 3033 26c2 8f33 f7e3 2c32
000001f0: 7f99 f631 c829 d231 5ada 7b33 66fa 9434
00000200: 9380 0034 9939 1233 6398 3b33 dd26 6933
00000210: 3509 1033 6355 c233 efdf 5733 846a 8633
00000220: 4dcd ac34 6276 1333 3bd0 cc32 3fa0 1b33
00000230: e1b5 9233 6889 ce32 3448 a632 a7f1 9133
00000240: 2737 a933 2cac a333 ef97 f132 9e13 bf32
00000250: 086d b433 9d28 2134 540e 9032 67b1 1e32
00000260: c0f2 cf32 6249 5633 b16c fe33 6905 a232
00000270: 20c8 0834 2a06 0334 3dfd 6533 7d24 ae33
00000280: 4f1b 5a34 e307 6f34 7e94 9034 f923 8235
00000290: 57f9 cf32 a706 5833 84cb ca32 8c05 4e33
000002a0: 22e1 3d35 baa5 3234 0214 3735 0550 4332
000002b0: fba2 5e33 2e9f ba32 53b2 2234 84d8 cb32
000002c0: 4bc8 2633 d9fa b432 9638 4c34 1c55 9334
000002d0: 26ff 9a34 9b65 1735 162f b333 d547 fb32
000002e0: 03f0 c932 e610 3632 dd2b ad33 1cc9 d133
000002f0: d6a5 9c33 3942 9233 3c0e 9433 c197 5933
3.230017e-08 6.590365e-08 4.863247e-08 5.0893757e-08 3.7633228e-07 5.9231215e-08 6.4297886e-08 2.3505427e-08
1.2788118e-08 6.449167e-08 1.8098763e-08 4.0715708e-08 1.1610589e-07 3.2380736e-08 6.9839494e-08 4.399281e-08
2.1550213e-07 1.7665554e-08 1.5730365e-07 7.91059e-08 9.854687e-09 1.1190115e-07 4.3898474e-08 1.1753918e-08
1.6412616e-07 9.142768e-08 3.8046114e-08 3.0927758e-08 1.3670972e-07 5.3484293e-08 3.2102616e-07 7.3540576e-07
5.5324147e-08 4.472816e-07 2.2751782e-07 7.888022e-08 1.7029645e-07 6.206402e-08 8.759342e-09 1.0368205e-07
2.3430023e-07 9.483522e-08 3.7170356e-08 2.01977e-08 3.1067348e-08 9.13087e-08 3.7489517e-08 2.1930877e-08
7.200219e-08 3.4107035e-08 1.8402798e-08 1.3637269e-07 8.628541e-08 7.8577415e-08 7.672072e-08 1.2298638e-07
6.247831e-08 8.285629e-08 4.1503643e-08 2.2084848e-08 6.111678e-08 1.18118855e-07 7.055725e-08 3.102734e-08
8.4447954e-08 5.2082072e-08 1.082462e-08 1.06907045e-07 4.6350472e-08 4.8772733e-08 3.3951327e-08 2.2870562e-08
2.7265509e-08 1.0578603e-07 2.5797194e-08 1.6325748e-08 1.0923889e-07 1.4488104e-08 1.5360797e-07 6.528273e-08
1.03157895e-07 8.5020034e-08 3.7554776e-07 3.8538218e-08 4.1992696e-08 5.5848934e-09 1.0102801e-08 6.461684e-08
6.421396e-07 1.7933681e-07 3.7679277e-07 2.8247155e-07 7.145333e-08 2.9677274e-08 4.002961e-08 1.2892664e-07
1.17159125e-07 7.54927e-08 5.3374276e-08 1.1945569e-07 8.100671e-08 4.477764e-08 1.0613829e-08 7.541093e-08
1.8440955e-08 3.772302e-08 1.0290447e-08 9.4922825e-08 1.9571129e-08 2.0088267e-08 1.2867315e-08 9.449778e-08
1.0205411e-07 4.675176e-08 4.362123e-08 2.7392713e-07 1.3297316e-07 3.9239237e-10 2.8048333e-10 8.443656e-10
3.6702056e-07 4.1064016e-08 6.694272e-08 1.0063551e-08 7.1769928e-09 6.1165544e-09 5.863908e-08 2.7749337e-07
1.1967704e-07 3.404566e-08 4.3677925e-08 5.4284886e-08 3.3535986e-08 9.049361e-08 5.0262255e-08 6.259236e-08
3.2186873e-07 3.4333773e-08 2.3843418e-08 3.6234493e-08 6.8317384e-08 2.4044041e-08 1.9357778e-08 6.796045e-08
7.879708e-08 7.621597e-08 2.8125184e-08 2.2244247e-08 8.401736e-08 1.5009068e-07 1.6770322e-08 9.237147e-09
2.4208362e-08 4.98925e-08 1.18475675e-07 1.8861742e-08 1.2738792e-07 1.2202568e-07 5.3548536e-08 8.1091436e-08
2.0312767e-07 2.2261479e-07 2.6930132e-07 9.696224e-07 2.4211358e-08 5.029747e-08 2.3608443e-08 4.7968157e-08
7.07356e-07 1.6637833e-07 6.820193e-07 1.1368688e-08 5.1836633e-08 2.1725636e-08 1.51523e-07 2.373077e-08
3.8832052e-08 2.106883e-08 1.9019566e-07 2.744281e-07 2.887038e-07 5.639974e-07 8.343902e-08 2.9252911e-08
2.3508624e-08 1.05976365e-08 8.063919e-08 9.7689025e-08 7.2944815e-08 6.8107006e-08 6.894376e-08 5.066227e-08

exp_avg f4 [64]
00000000: 5dc2 dfb7 f048 c83a bb1f f6b9 3673 8439
00000010: 8068 f739 1b0f c4ba 69a3 453a 96ef 813a
00000020: 1799 a1ba da16 35ba cb2a 4bbb 3015 7b3a
00000030: c7fa d1b9 5068 b339 1c3d e4b9 9218 2b39
00000040: c9e4 95b9 c0fb e0b7 60bd 1339 ce6b 7f39
00000050: 1e8f b6b9 b247 b7b9 9032 9dba ebb5 753a
00000060: bfb2 abba a41c 20ba 5c48 0dba 1f49 1639
00000070: f78d 9db8 39e3 aeba 5973 3a3b 3b68 9539
00000080: 3856 243a fc5f 1cbb 8ebd 583a cd11 83b9
00000090: 8cca 5cb9 d375 8fb9 1663 033b 80f1 8f2d
000000a0: f2c0 003b 3f91 0e36 f6dd bf3a 4029 23b7
000000b0: b540 ba3a d83c c93a 9b7f e039 e75d 14ba
000000c0: 1903 5439 99f2 2bba 8646 1239 0440 2439
000000d0: 9bfb 1c3b bb4a acba e2cc 3ebb 6750 fcb9
000000e0: a432 edba 5978 15b9 6d4a 9fb9 bb78 5838
000000f0: 6b98 2a3b 5710 7b3a a8b2 14ba d884 83ba
-2.6674179e-05 0.0015280526 -0.00046944417 0.0002526284 0.0004718937 -0.0014958115 0.00075393036 0.0009913321
-0.001232895 -0.0006908007 -0.0031000848 0.00095780473 -0.0004005043 0.0003421926 -0.0004353308 0.00016316984
-0.00028589953 -2.6820111e-05 0.0001408956 0.00024358855 -0.00034820376 -0.00034957897 -0.0011993218 0.0009373116
-0.0013099535 -0.00061077834 -0.00053895055 0.00014332354 -7.5127864e-05 -0.0013342864 0.00284501 0.00028497152
0.0006268951 -0.0023860922 0.0008267992 -0.0002499953 -0.0002105629 -0.0002736287 0.0020048073 1.6364465e-11
0.0019646254 2.1244193e-06 0.0014638293 -9.725161e-06 0.0014209958 0.0015353216 0.00042819683 -0.00056597445
0.0002021905 -0.0006559282 0.00013949917 0.00015664106 0.002395368 -0.001314483 -0.002911382 -0.0004812509
-0.0018096757 -0.0001425458 -0.00030382295 5.1610852e-05 0.002603079 0.0009577325 -0.0005672374 -0.0010034097

exp_avg_sq f4 [64]
00000000: d8cd a933 7586 6134 045c 5633 ce9e cd32
00000010: 2058 8c33 fd82 4d34 d02e 7834 ecde a933
00000020: 4f5b bc33 2afe 8834 e68c 7835 7c44 af34
00000030: 5e5c 9033 0007 5f34 d677 3833 a54a 2c33
00000040: ab93 5b33 1dff 3434 9cbb bf33 b232 ba32
00000050: caf7 b334 45b7 4a33 4393 3134 9f6b 4a33
00000060: 02c8 7134 27f3 4134 7672 b333 30ad 5635
00000070: 38f2 8132 ece3 0e34 b13c e234 c0ca ee32
00000080: 1e14 ac33 2073 b034 cb04 5833 745e 1033
00000090: 62d7 d832 e1cb 1434 3dd9 1d35 51f5 1730
000000a0: 5e08 9d34 4dc3 7631 91de 6c34 b983 1f33
000000b0: d990 4534 7be8 1135 ea91 1234 7773 a033
000000c0: a971 7933 1d87 f133 5299 4932 65a0 3d34
000000d0: 969b 0535 17d5 a134 4821 f935 41f1 7533
000000e0: b66f 6334 ac10 9532 5c18 b133 5067 b034
000000f0: 1b32 8034 a286 b433 3a08 d634 658f 2933
7.9071185e-08 2.1003673e-07 4.9909445e-08 2.3937357e-08 6.535288e-08 1.9139766e-07 2.311383e-07 7.910225e-08
8.771041e-08 2.5516903e-07 9.2592234e-07 3.264612e-07 6.722324e-08 2.077104e-07 4.294983e-08 4.011476e-08
5.1124214e-08 1.6856616e-07 8.9282565e-08 2.1676303e-08 3.3521638e-07 4.7198473e-08 1.6537983e-07 4.712967e-08
2.2517636e-07 1.8062984e-07 8.3561574e-08 7.9973233e-07 1.5127725e-08 1.3307698e-07 4.213994e-07 2.7799047e-08
8.0130334e-08 3.286632e-07 5.0295778e-08 3.3613517e-08 2.5243654e-08 1.3857745e-07 5.880318e-07 5.5282096e-10
2.9249617e-07 3.5908727e-09 2.2060182e-07 3.7139873e-08 1.839975e-07 5.4355013e-07 1.3650393e-07 7.4715835e-08
5.8078204e-08 1.1247014e-07 1.1734601e-08 1.7660348e-07 4.977277e-07 3.014363e-07 1.8561632e-06 5.7262927e-08
2.1181663e-07 1.7353464e-08 8.246636e-08 3.2857724e-07 2.3878314e-07 8.406393e-08 3.9866592e-07 3.9478795e-08
