models/model_cavity_nu0.01_U1_20x20_epochs200_lrannealing_testpcnt0.2.pt (torch, 187059 bytes, 30 tensors)

weight f4 [64, 3]
000000 3e 1a cb 3e 74 44 1e 3f eb 8e 1a 3d 1a 93 6e 3d
       0.3966846 0.618232 0.037733953 0.058245756
000010 d9 b2 02 bf bc 2c 57 3e 27 f5 0c 3d 9c b4 da 3e
       -0.5105415 0.21013159 0.034413483 0.4271592
000020 45 28 ac 3e 31 70 19 bf 13 5a c5 be 3c 3d 13 bf
       0.33624473 -0.59936816 -0.38545284 -0.5751531
000030 73 1f 1b 3f 55 5c 9b bb b6 ef 8c bd 26 d2 0f 3e
       0.6059486 -0.0047412314 -0.06881659 0.14045009
000040 33 20 fd 3b 6c f4 f2 3e 50 a4 3f be 75 9a fb 3e
       0.0077247857 0.47452104 -0.18715024 0.4914128
000050 38 06 f3 be e7 b1 4b 3e 39 a8 ed be 61 d3 b4 3e
       -0.47465682 0.19892083 -0.46417406 0.3531752
000060 8b fe c3 3e f0 46 22 3f 79 e6 9b be d4 e8 1b 3f
       0.38280138 0.6338949 -0.30449274 0.6090214
000070 83 a3 fa be f4 16 e8 bc f0 bb 03 be dd 36 b3 be
       -0.48952875 -0.028331257 -0.12864661 -0.35002795
000080 c9 71 8e be 81 1a 2b 3f 24 d9 05 3e ef 65 cb bd
       -0.27821186 0.66837317 0.13071114 -0.09931552
000090 2f 4b 0b bf 07 e9 65 bd 5e a1 12 3d 74 18 d1 3e
       -0.54411596 -0.056130435 0.035798423 0.4083897
0000a0 bd 55 c6 be d4 00 2f bd ae f7 63 3d c4 43 31 be
       -0.38737288 -0.0427254 0.055656128 -0.17311007
0000b0 9f 95 ea 3e d9 cc d5 3e f0 58 f2 be 95 dc b0 be
       0.45817277 0.4175785 -0.4733348 -0.3454329
0000c0 89 e8 e6 bd 1d c7 a3 be 8b 30 e0 3e 86 15 91 be
       -0.11274821 -0.3198785 0.43787035 -0.28336734
0000d0 75 bc c0 be b8 3d b6 3e 80 d1 55 3d f7 b9 0f bc
       -0.3764378 0.35593963 0.052201748 -0.008772365
0000e0 72 25 f3 be f4 3a 06 3f d6 d6 3b bd 8c c3 6f be
       -0.47489506 0.52433705 -0.04585918 -0.23414439
0000f0 33 f1 01 bc a0 fa b5 be 8c 37 49 3c 9e 23 5c 3e
       -0.0079310415 -0.35542774 0.01228131 0.21497962
000100 a9 34 a0 3e 32 0d 28 3e 0a 82 44 bc d2 f0 3f 3d
       0.31290177 0.16411284 -0.011993894 0.046860524
000110 c9 37 27 be 89 6f 86 3d 53 72 23 3f d7 8e e7 bd
       -0.16329874 0.065642424 0.6384632 -0.113065414
000120 38 c7 da 3e 84 ea 09 3f f3 59 0b be a3 c4 c0 be
       0.42730117 0.5387347 -0.13608532 -0.37650022
000130 59 86 ae bb 88 86 03 bf 46 b4 19 3f a9 d3 f2 be
       -0.005326074 -0.51377153 0.600407 -0.4742711
000140 5a 84 98 3e d8 ce d6 bc 24 97 09 bf 3b 39 00 bf
       0.29788476 -0.026221678 -0.5374625 -0.50087327
000150 ef 28 40 3e cb 0f 15 bf a6 10 51 be 27 ba 00 be
       0.18765615 -0.58227223 -0.20416507 -0.12571011
000160 44 57 b9 be 88 10 f4 3c cb ed 8a be 43 1c 09 3f
       -0.3619939 0.029793039 -0.27134547 0.5355875
000170 76 e5 9d be 82 a3 59 be 26 96 91 bd be 6f d7 3e
       -0.30839127 -0.2125378 -0.07108717 0.4207744
000180 70 d5 14 bf c2 f4 d4 3d 63 2f 4e be 4c 25 40 be
       -0.5813818 0.10398246 -0.20135264 -0.18764228
000190 0c b9 69 3d 6b 76 20 3f eb a0 17 3f 91 f5 77 be
       0.05706124 0.6268069 0.59229916 -0.2421477
0001a0 88 3b 17 bc 7b f7 48 3e 0e db f7 3e 98 85 05 3d
       -0.009230502 0.19625656 0.48409313 0.032598108
0001b0 6c e1 fd 3e d6 ce e9 3d 15 a1 e3 be 53 b2 d0 bd
       0.49586046 0.11416404 -0.44458833 -0.10190263
0001c0 e7 46 ab be b0 ba 6b 3e 57 cc e9 3e 2c 46 a4 3e
       -0.33452532 0.23020434 0.4566371 0.32084787
0001d0 bf 1a 0e be ef ea f6 3e a1 bb c7 3e 0b 8e 9e 3d
       -0.1387739 0.48226115 0.39010337 0.07741936
0001e0 e5 25 5b 3c a2 89 9b 3e e0 3d 31 3e 72 fa a0 3e
       0.013375734 0.30378443 0.1730876 0.31441075
0001f0 56 e6 fa be 0d 5c ed 3e 93 fd 40 3e b6 58 d6 3d
       -0.49003857 0.46359292 0.18846731 0.10466139
000200 7f 70 5c bd 7c 50 dc 3e e9 57 e8 3e fa 4d fd be
       -0.053818222 0.43030155 0.4537957 -0.49473554
000210 3b c8 8f be 04 2d d1 3e 5c 8a 3c bd a9 e7 7f be
       -0.2808245 0.40854657 -0.046030387 -0.24990715
000220 c8 30 0a bf 31 b5 15 be b6 22 98 3e 05 de 44 3e
       -0.53980684 -0.146199 0.29713982 0.19225319
000230 02 9e 50 3e 11 19 b0 be cb 10 c5 bd 2d 89 fe be
       0.20372775 -0.34394124 -0.09622344 -0.49714032
000240 dc 9e d3 3d b4 b3 11 3f 9d 65 e5 be c6 52 cd 3d
       0.103330344 0.5691483 -0.44804087 0.100255534
000250 da 08 a0 be 97 a9 f3 3e 6e d4 42 be e9 8d f7 be
       -0.31256753 0.47590324 -0.19026348 -0.48350456
000260 f5 6c 4c 3e 19 93 11 39 6f 1b 4d 3e d5 33 b7 3e
       0.19963439 0.00013883076 0.20029996 0.35781732
000270 22 8a b2 3e 70 ea 5e 3e 57 e1 31 ba 25 50 2e bd
       0.34871012 0.21769118 -0.00067855924 -0.0425569
000280 58 a8 9e be 02 5d 14 bd ea 2e be be 5e 47 ea be
       -0.3098781 -0.03622151 -0.37145168 -0.45757574
000290 7d df 0e 3f a1 32 05 bf cb 9e c8 3d 88 1d 45 3e
       0.55809766 -0.5203038 0.09795912 0.19249547
0002a0 56 30 ea 3e ed 56 00 bd 0f fa 0a bf de 00 76 3c
       0.45740002 -0.0313329 -0.5428781 0.015014855
0002b0 e2 58 b0 3e ac 69 e8 be fd 17 a4 bd d5 87 fa be
       0.34442812 -0.4539312 -0.08012388 -0.48931757
0002c0 fc b8 ef 3d a4 10 f0 3d 7c e8 5b be 30 01 e9 3e
       0.11705205 0.11721924 -0.21475405 0.45508718
0002d0 27 33 e9 3e 6e ba 0d 3f d5 13 bd 3b 58 f1 cb be
       0.4554684 0.55362594 0.0057701864 -0.39832568
0002e0 65 e4 0c 3c 5a 2e 33 3e 92 9c f0 3e 81 d1 1b 3f
       0.008599375 0.1749815 0.46994454 0.6086655
0002f0 8c 73 c6 bd c1 da 9b 3e 34 eb a2 3e 59 d9 89 3e
       -0.096900076 0.30440333 0.3182007 0.26923636

bias f4 [64]
000000 d9 69 02 be 98 fc 91 be 2a 6a ea 3e 08 62 b6 bd
       -0.1273569 -0.28513026 0.45784122 -0.08905417
000010 95 3a af be bc 74 16 3f 57 b7 72 be a2 e9 74 bd
       -0.34224382 0.5877187 -0.23702751 -0.059793122
000020 91 dd 60 be a1 cf 78 3e 41 c6 09 bf 68 4c 05 bf
       -0.21959521 0.24297954 -0.53818136 -0.5206971
000030 aa ca 88 be 4d 8e eb 3e fc e5 07 be 19 7f 59 bd
       -0.2671712 0.46007004 -0.13271326 -0.053099725
000040 59 c9 e3 be 6e 11 be be 72 34 54 3e 28 1b 3c 3d
       -0.44489554 -0.37122673 0.20723131 0.045924336
000050 65 e7 0a 3f 5b 28 f8 3d e0 0f 49 3e 49 5f 00 bf
       0.5425933 0.12117072 0.19634962 -0.50145394
000060 d8 5c 19 bf 72 8c 22 3f 34 a4 e3 3c a2 1e d8 3d
       -0.59907293 0.6349555 0.02778826 0.10552718
000070 99 c1 df be b4 83 06 3f 03 70 9c be ab ea bf be
       -0.4370239 0.52544713 -0.30554208 -0.37483725
000080 bd a8 d8 be eb fe ba be 28 90 75 3e fd 03 b3 be
       -0.42316237 -0.36522612 0.23980772 -0.3496398
000090 02 3d fb 3e b8 3b ac be 5d 3b 04 3e b4 69 a9 bc
       0.49069983 -0.33639312 0.1291327 -0.020680286
0000a0 65 27 11 3f 4f 96 23 3e 4a 9e 11 3f 17 78 49 be
       0.56700736 0.15975307 0.56882155 -0.19674717
0000b0 41 80 eb 3c 61 2b 44 be 8c 0e 91 be 60 1f 34 be
       0.02874768 -0.19157173 -0.2833141 -0.17590094
0000c0 ca 77 8d 3e b8 d3 82 be 05 5f 39 3e 72 89 b3 3c
       0.27630454 -0.25552154 0.18102653 0.021916125
0000d0 62 83 05 bf 21 4e 02 3f c5 d4 a9 be c5 76 2a be
       -0.521536 0.50900465 -0.33170143 -0.1664687
0000e0 70 d2 9c be 21 58 eb be d9 fa 16 3f aa 21 07 be
       -0.306293 -0.45965675 0.58976513 -0.13196436
0000f0 95 57 8b 3e dc 9c 19 3f 91 f2 e1 3e d8 04 2e be
       0.27215257 0.60004973 0.44130376 -0.16994035

weight f4 [64, 64]
000000 b3 4c e0 3d 5e f1 90 3d 85 87 81 3d 1e 09 00 bd
       0.10952129 0.07077287 0.063246764 -0.031258695
000010 15 57 7f bc cb fa 79 bc 5d 1d da 3d 89 0b f8 bc
       -0.015584727 -0.015257548 0.10650132 -0.030278938
000020 73 42 13 bd a1 3e c1 3c 68 a2 8c 3d 49 d9 9c 3d
       -0.035952043 0.023589434 0.06866914 0.07658631
000030 47 f4 b1 3c c0 76 02 be b1 5f b6 3d cf b6 6a bc
       0.021722926 -0.12740612 0.089049704 -0.0143258115
000040 72 39 db 3d bf 2a d3 3d d5 12 94 3c 53 77 0e be
       0.10704316 0.103108875 0.018075386 -0.13912706
000050 5f 63 dd bd c7 a2 98 3d c9 ab c0 3d bb 16 44 3d
       -0.10809969 0.07452922 0.094077654 0.04787324
000060 43 44 9d 3d b6 ae 31 3d 83 25 5c 3d 26 31 6a bd
       0.076790355 0.043379508 0.05374671 -0.057175778
000070 c1 91 20 3c 57 1c 88 3c c0 c1 04 be 46 68 b7 3c
       0.009800375 0.016615076 -0.12964535 0.022388589
000080 53 8d be 3d 09 f3 99 bd a1 cb a4 3d 4c 60 c0 3d
       0.09304299 -0.075170584 0.08046652 0.09393367
000090 22 17 8b bd 93 22 86 3d c9 40 cb 3c 21 84 bc 3d
       -0.067915216 0.06549563 0.024811165 0.09204889
0000a0 dd ec 87 3d d7 cb e0 3c 22 91 36 bd e4 2d cd bc
       0.06636975 0.027440948 -0.044572003 -0.025046296
0000b0 1e 27 6e 3d cf 9d 8e bd be 8b a6 3d e6 e6 5b 3d
       0.058142774 -0.06963693 0.081321225 0.053687
0000c0 00 95 c5 bd 37 fa 02 be da 56 d8 bd 5a a8 1f bd
       -0.0964756 -0.12790762 -0.105634406 -0.038978912
0000d0 4e 3b 8c 3d 0c 14 92 3d e9 af e0 bd 03 4c 8f bd
       0.06847249 0.0713273 -0.10971052 -0.0699692
0000e0 fe 9d 06 3d d2 a1 60 bd 32 9a 03 3d e4 30 38 3d
       0.032865517 -0.054841824 0.032129474 0.0449685
0000f0 2d 10 06 bd 33 a1 bb bd 07 ee a5 3b 26 8f 1b bd
       -0.03273027 -0.09161606 0.0050637755 -0.037978314
000100 4c 53 c4 3c 9f 9d db bc be 30 1c 3e bd f6 bd 3d
       0.0239655 -0.026808558 0.15252969 0.09275577
000110 7b e8 cc bd 3a 0e 93 bd 52 15 39 3d 03 9d 4a bd
       -0.1000528 -0.07180448 0.04518635 -0.049466144
000120 64 1c 9c 3d b1 56 fa bd 86 50 61 3c 20 21 2c be
       0.076226026 -0.12223566 0.013752108 -0.16809511
000130 88 42 68 bd ad b8 06 be 0f 9b 89 bd f8 90 96 bd
       -0.056704074 -0.13156386 -0.06719028 -0.07351869
000140 be e8 a9 bb f7 69 d3 bd 95 d5 37 3c a4 6e c5 3c
       -0.0051852157 -0.103229456 0.0112203555 0.02410061
000150 af 48 94 bd 85 97 0a 3e 81 81 b0 bd d4 cb 39 bd
       -0.07240426 0.13534363 -0.08618451 -0.0453604
000160 e1 11 af bd 72 7d e9 bd a2 4c 57 be f3 2e 80 bd
       -0.08548332 -0.1140088 -0.21025327 -0.06258955
000170 a3 fc 7c bb 3b 98 c3 bc 9a 17 83 3d 95 c8 b5 3c
       -0.0038602732 -0.0238763 0.06400986 0.022190372
000180 a6 e5 cd 3d cf 8e 07 3e 2f fd 4e bd ea 53 90 bd
       0.100535676 0.13238071 -0.050534423 -0.07047255
000190 aa 70 05 3d 15 42 d5 bd cb be 8b 3d c7 2d b3 bd
       0.032578148 -0.10412995 0.068235 -0.08748966
0001a0 71 19 a7 3d 2d 20 c2 bd a6 e5 55 3d 57 6a d9 3b
       0.081591494 -0.09478793 0.052220963 0.006634991
0001b0 dd b0 a4 bd 9d a2 3c 3d 05 4d 8a bd a4 92 ea bc
       -0.080415465 0.046053518 -0.067529716 -0.028634377
0001c0 81 b8 e1 3d bf e6 a6 bd da 46 c5 37 26 c4 f8 3d
       0.110215195 -0.0814948 2.3517223e-05 0.12146787
0001d0 6b 92 97 bb b4 37 86 bb 13 03 13 3d d9 4b 8e 3b
       -0.0046256087 -0.004095996 0.035891604 0.004342538
0001e0 aa 0b bf bd fd eb 9a 3d 5c 9a 97 bc 97 4c fd bc
       -0.093283966 0.075645424 -0.018506221 -0.03092031
0001f0 de 95 01 3e 99 62 fa 3d 1a e6 b3 bd b8 6a ab bd
       0.12654826 0.12225837 -0.08784123 -0.08369964
000200 8b 6f 89 3d eb 9a 18 bc 9a 56 2f 3e 88 e4 e1 bd
       0.06710728 -0.009314279 0.1712288 -0.11029917
000210 f3 ed d1 3c 36 94 9e bc cd 90 30 bd 3b a4 b3 3c
       0.025626158 -0.019357782 -0.043106843 0.021928897
000220 02 fc ec bc 7d 7b ea bd 90 5d 8c bd 7d c3 32 be
       -0.02892876 -0.11449335 -0.06853783 -0.17457385
000230 a1 8f 8f 3d e1 26 a0 bd 54 7a 90 bc aa 74 dd bd
       0.07009817 -0.078199156 -0.017636456 -0.108132675
000240 7c 95 58 3c 81 f3 d3 bd 8d 54 4f 3c 6c d5 72 3d
       0.013219234 -0.10349179 0.012654436 0.059285566
000250 fd d5 03 be fe c4 c0 3d 15 6c d1 3d 4e ca bd 3d
       -0.12874599 0.09412573 0.10225693 0.09267102
000260 0a fb 02 be fe 34 31 3d 05 fd 2a bd b4 a6 82 3d
       -0.12791076 0.043263428 -0.041745204 0.06379452
000270 ed 34 44 3c d2 83 27 bd bf a0 ee 3d aa ce 8c bd
       0.011975509 -0.040897198 0.11651754 -0.068753555
000280 e5 57 ff 3d ac 2a a0 3d af c8 b3 bc 7c b3 f8 bd
       0.124679364 0.07820639 -0.02194628 -0.12143609
000290 61 42 84 3d 2f 58 58 bc b8 c7 bd bd 6d 53 7a bd
       0.06457973 -0.013204618 -0.09266609 -0.061114717
0002a0 10 e1 1d 3e 81 32 9d 3b d9 ea ac 3d 61 5c 06 3d
       0.15417886 0.0047972803 0.08443231 0.032802943
0002b0 34 22 8c bd 8e 07 d4 bd dc 06 f1 3c 24 18 2f bd
       -0.06842461 -0.103530034 0.029422216 -0.04274763
0002c0 3a d9 75 3d 51 fb c9 bb 04 f7 0f be d4 3b 88 3d
       0.060021617 -0.0061639925 -0.14059073 0.06652036
0002d0 5e aa 5e bd 06 88 dc bd eb 62 83 bd 24 0a f7 bb
       -0.054361694 -0.10768132 -0.064153515 -0.0075390507
0002e0 86 b4 e5 bd bf d9 d3 3d e0 18 83 3d e9 38 07 3e
       -0.11216073 0.10344266 0.06401229 0.13205303
0002f0 37 6b 6f 3d d5 1d 01 b9 fd 7f 37 bc 77 48 9f bd
       0.058451857 -0.00012313512 -0.011199948 -0.077774934
000300 41 25 99 bc 56 14 86 3c a7 7a 91 3d d8 b7 d9 3d
       -0.018694522 0.016367119 0.07103472 0.106307685
000310 b9 67 eb 3d 4a 49 8a 3d e1 30 b0 bd c0 8f 6a 3d
       0.11494393 0.0675226 -0.08603073 0.057265997
000320 8f e0 41 3d d0 ef 1b bd 8a 0b de 3d 78 27 2f 3e
       0.047333296 -0.0380705 0.10842045 0.171049
000330 70 08 3a 3d a8 45 c4 bd e5 39 42 3d ee 39 fa 3c
       0.045418203 -0.095835984 0.047418494 0.030545201
000340 41 4f c1 bd e7 05 73 3d b4 61 82 bd a9 14 fc bc
       -0.094389446 0.0593318 -0.06366292 -0.03077157
000350 47 5d e9 3d a8 db e8 3d d2 83 9e bd 76 a1 07 3e
       0.11394744 0.11370021 -0.077399865 0.13245186
000360 43 b5 ae bc ee e4 d9 3d a7 08 4c 3c 60 59 4d bd
       -0.021326667 0.10639368 0.012453235 -0.050134063
000370 69 ba 5f bd 82 84 32 bd 54 56 9e bb c6 01 c9 3b
       -0.054621134 -0.0435834 -0.0048320685 0.0061342446
000380 3d 66 da bd 0b fa e1 3c 40 93 84 3b 2a 36 fe 3d
       -0.10664032 0.02758505 0.004045874 0.12412675
000390 87 bd e9 3d 44 00 f2 bd bd 93 85 bd a9 31 a1 bd
       0.114131026 -0.11816457 -0.065223195 -0.078708
0003a0 32 33 eb 3d 62 56 88 3d f6 e7 4f 3d d7 54 f9 3d
       0.11484374 0.06657101 0.050758325 0.12174385
0003b0 82 de 9b bd 6c 96 02 bd a0 ac 3e 3d 4e d3 dc 3d
       -0.07610799 -0.031881735 0.046551347 0.10782491
0003c0 59 31 5b 3d 9c 03 bf 3c e7 f0 74 3d b2 16 d1 3d
       0.05351386 0.02331715 0.059800055 0.10209407
0003d0 dc 4b 82 3d a1 51 f4 3d 3d e1 93 3d 44 12 8b bd
       0.06362125 0.11929632 0.07220695 -0.06790593
0003e0 81 0d 04 3d b3 43 c3 3d fb 2b 12 3e 2a b0 ed bd
       0.03223944 0.09534397 0.1427459 -0.11605866
0003f0 f8 5f e1 3d 33 e0 bc bd fa 5d 3f bd ce 24 bd bc
       0.11004633 -0.0922245 -0.046720482 -0.023088839

bias f4 [64]
000000 6d ba b9 3d b3 08 f4 bc b2 3f e9 3d 48 00 fc 3d
       0.09068761 -0.029789304 0.11389102 0.12304741
000010 ae b0 2d b9 e7 85 9b bd 5f dc fc 3d 03 fd 19 3d
       -0.00016564384 -0.07593899 0.1234672 0.037594806
000020 c4 50 b8 bd 6e 4f ec 3d da ef 75 bb a0 32 00 3d
       -0.0899978 0.115385875 -0.0037526996 0.03129828
000030 39 08 86 bd 30 d9 97 bd be c0 80 bd c3 aa 7e bd
       -0.06544537 -0.07414472 -0.06286763 -0.06217457
000040 31 88 d6 3d d6 a4 cc 3d 29 eb 07 3e c2 97 d5 3c
       0.10475195 0.099923775 0.132733 0.02607334
000050 43 e9 3b 3c 9d ea bb 3d be 71 03 3e 0a 22 a9 bd
       0.011469188 0.09175608 0.12836358 -0.082584456
000060 74 26 23 3d d9 c9 27 bd 96 8e 02 be cd d6 b2 3c
       0.039831594 -0.04096398 -0.12749705 0.02183094
000070 2e 61 24 3d 61 05 de bd 9e 27 8c 3d d9 e8 16 bd
       0.04013174 -0.1084087 0.06843494 -0.036843155
000080 78 18 5f bd 96 b7 3b bc 25 91 f0 3d 4a 75 03 be
       -0.054466695 -0.0114573445 0.11746434 -0.12837711
000090 00 ca ac bc e8 50 c9 3c 29 2e 65 3d 3e 8c 27 3e
       -0.021092415 0.024574712 0.055952225 0.16362092
0000a0 c6 76 cf 3d c3 1e c1 3d 6b 09 2c 3d 30 b5 79 3d
       0.10130076 0.094296955 0.04200117 0.06096381
0000b0 a3 17 d5 bd b6 4e 02 3d 5d bd 63 bd e8 63 03 be
       -0.10404899 0.031813346 -0.055600513 -0.1283108
0000c0 52 24 87 bd c4 94 d6 bc 02 f0 c4 bd ba e3 e7 3c
       -0.065987244 -0.026193984 -0.0961609 0.02830683
0000d0 83 22 db 3d 56 cd a9 3c 4d f1 20 3e d2 25 b8 bd
       0.10699942 0.020727795 0.15717049 -0.08991589
0000e0 b6 2f bd 3d 9b 40 74 bd 03 6e 80 3d a9 4b 0d 3c
       0.09237616 -0.059631925 0.06270983 0.008623996
0000f0 56 b1 c8 bd a9 d9 c7 3d 1f 9f 8d 3d 4f 3a 84 3d
       -0.09799449 0.09758312 0.069151156 0.06456434

weight f4 [64, 64]
000000 23 ef 87 3d 4c b8 db bd a6 37 a2 3d 18 e0 0d 3e
       0.066374086 -0.10728511 0.0792077 0.13855016
000010 f1 ec 0b be 54 3a c6 bd a9 4d c7 bd ca fc 02 3c
       -0.13664605 -0.09679094 -0.097316094 0.00799484
000020 0a fd fa bd 08 57 3e bd e5 28 05 3d 98 ea b9 bd
       -0.122552946 -0.04646972 0.032509703 -0.09077948
000030 de c9 de bc 12 29 10 bc 64 76 e6 3c 77 c7 a9 3d
       -0.027195867 -0.008798854 0.028132625 0.08289998
000040 15 91 7a bd 29 04 d9 3d ef 31 7c 3d 46 12 86 3d
       -0.061173517 0.105964966 0.061571058 0.06546454
000050 1e 0f 11 3e b1 e1 c6 ba 28 28 11 3e 75 33 8f 3d
       0.14165923 -0.0015173462 0.14175475 0.069922365
000060 76 c6 a8 bd f3 12 47 3d 7b 36 18 bc 0e d1 ac 3d
       -0.082409784 0.048602056 -0.009290333 0.084383115
000070 1a 1c a7 bd a2 59 7c 3c 68 a5 03 bd 1d ba 42 3d
       -0.08159657 0.0154022295 -0.032140166 0.047540773
000080 f7 f3 1b 3d 6e 65 69 bd d4 13 0c bd cf 6d 9b bd
       0.03807446 -0.056981497 -0.034198597 -0.07589304
000090 76 00 4c 3d 35 16 5c 3d 01 2a fa 3d 7a da a6 bd
       0.049805127 0.053732116 0.12215043 -0.0814714
0000a0 a3 62 07 3e 2f c7 f1 bc 61 3d 29 3d 8c f9 e4 bd
       0.1322122 -0.029513923 0.0413183 -0.1118041
0000b0 c8 e7 07 be 15 a2 d9 bd 8a 79 a0 bb 07 7f 95 bd
       -0.13272011 -0.10626618 -0.004897301 -0.07299619
0000c0 e8 80 4e bc 7c a9 7c bd c1 ff 13 3e 1f ad d7 3c
       -0.012603976 -0.06168507 0.14453031 0.026327668
0000d0 41 2e 03 3b 99 5c d4 bc da 21 0b be 98 20 16 bd
       0.0020016583 -0.02592306 -0.13587132 -0.036652178
0000e0 9f af 8f 3c c7 5d b1 bd 59 8b 27 3d 60 cc f4 3c
       0.017539797 -0.08660465 0.040904377 0.02988261
0000f0 12 9f 16 be 47 4c cf bd 9f df df bd 44 1e ec bd
       -0.14709118 -0.101219706 -0.10931324 -0.1152921
000100 45 56 f3 bc 40 b2 3d 3d 69 9b 83 3d 50 1a 82 ba
       -0.029704222 0.04631257 0.064261265 -0.0009926055
000110 24 cf a8 3d 8f 1d 09 3e 5c 4d 86 3d 56 67 38 3b
       0.08242634 0.13390182 0.06557724 0.0028137765
000120 3c 16 10 bd c8 e8 ef bd 8a 34 89 3c b4 7a b3 bd
       -0.035177454 -0.117143214 0.016748685 -0.08763638
000130 1a c4 a9 3d 55 7a 3e 3d e4 be 30 3d 32 2f d0 3d
       0.082893565 0.046503384 0.043150797 0.10165252
000140 f8 61 35 bd 6c ac c8 bd 1d 98 14 3d 7c a3 7a 3d
       -0.044282883 -0.09798512 0.03627788 0.061191067
000150 3b 69 08 be 3b 43 de 3d 17 dd 15 bd a4 07 96 bc
       -0.13321392 0.10852667 -0.0365878 -0.01831419
000160 18 bf b3 bd d7 f0 aa bd 3d df da 3d 82 38 ed bc
       -0.087766826 -0.08346718 0.106871106 -0.02895761
000170 16 f3 d2 3d 6c 0d d3 3d 97 2d c2 3c 92 39 5f bd
       0.10300271 0.103052944 0.02370338 -0.054498263
000180 d3 04 42 3d 2f ab aa 3a 62 0a fd bd 64 5d e0 ba
       0.047367882 0.0013020987 -0.12355496 -0.0017117676
000190 75 93 f0 bd 7a a7 06 be b0 ce 89 3c e6 dd fb bd
       -0.11746875 -0.13149825 0.01682219 -0.12298183
0001a0 70 ed 3e 3d 94 77 22 be 29 c6 ec bd 6e 44 9f 3d
       0.046613157 -0.15865928 -0.115612336 0.07776724
0001b0 1b e1 f9 bd 2a 0c a6 bd 1a d9 17 bb 24 9d c6 3d
       -0.122011386 -0.08107789 -0.0023170174 0.09697941
0001c0 f5 d3 a4 3d ad 73 52 bc 2b b0 5a bd b0 c5 ae bc
       0.0804824 -0.012844962 -0.053390663 -0.0213345
0001d0 ab e6 07 be 1d 7a 08 bc ae 2e f6 3d bc 90 7c 3d
       -0.13271587 -0.008329895 0.12020622 0.061661467
0001e0 27 eb 96 3c 64 2f c1 bd 35 c0 b4 3d d9 5e 54 bd
       0.018422676 -0.09432867 0.08825723 -0.051848266
0001f0 86 0c 06 3e 21 31 a8 3d ea 6c c3 bd 04 71 9f 3d
       0.13090715 0.082124956 -0.09542258 0.07785228
000200 cf ef 07 3e 62 e9 c5 3d 54 98 6f 3d 66 8d e4 bc
       0.13275073 0.09663655 0.05849488 -0.027899455
000210 a5 24 ea bd 33 55 23 be a9 5f 6b bd 49 aa 1a 3e
       -0.11432771 -0.1595047 -0.057464276 0.15104021
000220 cf 90 ca bd 28 e1 1f 3e 4a 95 04 3e de e7 a3 bd
       -0.09890901 0.15613234 0.12947574 -0.080032095
000230 7b 03 0d bd f1 e9 d1 bd 28 df 21 3d ac 72 c8 bc
       -0.034427147 -0.10249699 0.03951946 -0.024468742
000240 cd 1a e7 3c 7b ac 88 3d fc 90 28 3e 34 23 fb 3d
       0.028211022 0.06673523 0.16461557 0.12262574
000250 33 0a 44 bb 66 3d 09 3e ff 9e a5 3c 26 09 0b 3e
       -0.0029913306 0.13402328 0.020217417 0.13577709
000260 45 61 2b 3d a2 e3 01 3e 39 e6 85 3c 9b 08 1f bd
       0.04184081 0.12684491 0.01634513 -0.038826566
000270 04 8c 9f ba bc 6c 52 3b 63 56 87 3d 57 f2 02 3e
       -0.0012172465 0.0032108268 0.06608274 0.12787758
000280 2c 3a 7e 3d d7 63 e2 bc cd 10 7f 3d 7b c1 94 3d
       0.062067196 -0.027635498 0.06227188 0.07263466
000290 9c 7a b2 3d b2 59 bd 3d 14 e1 45 bd 8b 32 16 3e
       0.08714792 0.09245624 -0.048310354 0.14667718
0002a0 42 6e 14 bd 3e 0e 83 bd e5 79 e0 3d 18 83 d5 3c
       -0.036237963 -0.06399201 0.109607495 0.026063487
0002b0 50 82 86 3d 95 26 29 3d 4e 0d b5 3d a7 66 59 bd
       0.06567824 0.04129656 0.08840428 -0.053076413
0002c0 fc 28 01 3e a0 d6 b7 bd d3 b8 01 bd 34 8b 0c 3d
       0.1261329 -0.08976483 -0.031670403 0.034312442
0002d0 39 86 b9 3d 17 72 af bd 3b e9 a8 bd 84 4d 91 3d
       0.09058804 -0.08566683 -0.0824761 0.07094863
0002e0 82 4b 13 3e 55 94 01 3e d6 8b 32 bd 9e 3a e8 bd
       0.14384273 0.1265424 -0.04359039 -0.11339305
0002f0 95 32 34 bd 95 2b 0b 3c 52 dd 45 3d da 0f 1e 3e
       -0.04399355 0.0084942775 0.04830677 0.15435734
000300 d9 ce 81 bc 3f 6b 19 bd e1 83 22 3e d8 48 cb bd
       -0.015845703 -0.037455793 0.1587062 -0.09926003
000310 53 8a 29 3d 22 3e d4 3b bd 2a 43 be a7 49 03 bd
       0.041391682 0.0064771334 -0.19059272 -0.032052662
000320 33 7f 1e bd c7 9a 77 3d c8 6a 1d 3e 7b cb f6 bd
       -0.038695525 0.06045034 0.15372765 -0.120505296
000330 8a a9 9b 3d 1b 6a 89 3d 42 a1 fc 3d 98 4e d2 3d
       0.076006964 0.06709691 0.12335445 0.10268897
000340 0a 06 3a bc f4 cb 41 bd 8b d5 51 3d 72 c4 74 bc
       -0.011353979 -0.047313645 0.05122904 -0.014939414
000350 1c 90 1b 3c ea a5 a9 3d 92 88 a6 3d 3f f6 c6 bd
       0.009494808 0.08283599 0.081315175 -0.097149365
000360 ab 4c 45 bd fe 4f 6f bd a2 ef a7 3d 0e ca 9c bd
       -0.04816882 -0.058425896 0.08200003 -0.076557264
000370 a3 be b1 bc 1e 30 96 3b a1 52 30 bd 82 bc 70 bd
       -0.021697348 0.0045833727 -0.04304755 -0.058773525
000380 ea ff 97 bd 3e 04 35 3d 48 1b 5f 3d ad 57 14 3d
       -0.074218586 0.0441935 0.054469377 0.036216427
000390 f2 aa 86 3c 46 37 0d 3d 41 ae a7 bd 76 e2 1a 3e
       0.016438935 0.03447654 -0.08187533 0.1512545
0003a0 b0 9b af 3d 9d a0 6e 3d e1 7a bf 3c 08 2b 9a bc
       0.08574617 0.05825864 0.023374023 -0.018819347
0003b0 a5 bb 4e 3c 15 a7 02 3d de c9 e5 3c 1b 1d b2 3d
       0.01261798 0.031897623 0.02805036 0.08696958
0003c0 fb ff 08 be e8 3c e4 3c f9 62 07 3d 0f b4 1f bc
       -0.13378899 0.027861074 0.033053372 -0.009747519
0003d0 29 25 0a 3e 6a 59 c5 3c 1c 19 fd bd c8 54 bf bc
       0.13490738 0.024090488 -0.12358305 -0.023355857
0003e0 8e 99 57 bd 6c 31 79 bc d2 c9 4a bd 17 c2 97 3d
       -0.052636676 -0.015209537 -0.049508877 0.074100666
0003f0 2c 20 e4 3d 3b e1 3a 3d ea c8 97 3d 27 20 a9 bd
       0.11138949 0.045624953 0.07411368 -0.08258086

bias f4 [64]
000000 09 fa 61 3d cd 80 c2 bb 31 e2 ee 3d 5f 58 cd 3d
       0.055170093 -0.0059357644 0.11664236 0.10026621
000010 13 f1 2b 3d 66 85 d1 3c 25 bb 5a 3d a0 1c 44 3d
       0.041977953 0.025576305 0.05340113 0.04787886
000020 c5 c4 b6 3d 94 e7 51 bd bf 2e 74 3c b6 21 91 bd
       0.089242496 -0.05124624 0.014903723 -0.07086508
000030 f2 35 9a bd b0 68 d1 bd 46 7f c9 3d 2a bf 8b bd
       -0.075298205 -0.10225046 0.098387286 -0.06823571
000040 56 6f e2 3c 72 1a 8c bd 2a 28 45 3d e0 6a e6 bd
       0.02764098 -0.068409815 0.048134007 -0.112508535
000050 f7 f9 25 3d 5c 69 9e 3c b1 32 94 bc 00 cf 6a 3c
       0.04052159 0.019337349 -0.018090578 0.014331579
000060 12 30 17 3e 26 a4 f3 bc b8 e0 27 3d 24 26 80 3d
       0.14764431 -0.029741358 0.040985793 0.06257275
000070 be 71 1a 3e 31 4d 00 3e d6 b1 b7 bd 02 f0 da bd
       0.15082452 0.12529446 -0.089694664 -0.10690309
000080 8d 6c 61 ba 7e 4f 30 bd 4e e5 80 3d 87 b8 03 3d
       -0.0008599244 -0.04304456 0.062937364 0.0321584
000090 0d b7 1d 3d 6c 73 b5 3d cf 4b 9d 3d 64 1e 55 bd
       0.03850465 0.088599056 0.07680475 -0.052030936
0000a0 1e 6a 0c be a4 a9 d8 bd 96 23 f7 3d db f3 cf 3c
       -0.13712355 -0.105792314 0.12067334 0.025384834
0000b0 33 3a 90 bc f0 61 21 3d 1d b1 72 3c c6 a3 b8 3d
       -0.017605877 0.03940004 0.014812735 0.09015612
0000c0 2d 09 d3 3c 80 fd e6 bc 21 87 b1 3d 01 d0 a0 bd
       0.025761211 -0.02819705 0.08668352 -0.078521736
0000d0 f7 35 35 bc a4 f8 b0 3a 62 f6 6d 3d af 72 d0 38
       -0.0110602295 0.0013501835 0.058096297 9.9395744e-05
0000e0 03 80 b0 3d ee d5 4a bd 92 a2 1d 3c 32 51 0f ba
       0.08618166 -0.049520425 0.009621279 -0.0005467116
0000f0 6d 64 27 bd 1b d9 89 bd e3 db e8 3c bd 29 cc 3c
       -0.040867258 -0.06730863 0.028425163 0.024922246

weight f4 [64, 64]
000000 56 46 e7 bc bb f3 a2 3d a3 bc 76 bd ea 02 5b 3c
       -0.028231781 0.07956644 -0.06023849 0.013367394
000010 70 fc 27 bd f2 45 c2 bc 71 56 da 3d c8 b7 cd bd
       -0.041012228 -0.023714993 0.10661019 -0.10044819
000020 d1 98 e0 bd 55 15 10 bd a8 1d 59 bd e4 4d 69 3d
       -0.109666474 -0.035176594 -0.053006798 0.056959048
000030 c2 48 5e 3d 4e b0 1f bb 01 13 47 bc 19 7e 05 bc
       0.054268606 -0.002436656 -0.012150527 -0.00814774
000040 27 2f 4d 3d 8c e7 db bd 4e 31 d7 bd 2e ab c0 bd
       0.050093796 -0.107375234 -0.10507451 -0.0940765
000050 1d 66 7a 3c 8f af 83 3c c2 a4 fd 3d 48 f5 cd bd
       0.015283135 0.016074924 0.12384941 -0.10056549
000060 59 37 98 bd 40 cf 89 bc 04 3e 12 3d 92 8b 39 3c
       -0.07432432 -0.016822457 0.035703674 0.01132478
000070 1e 51 2e 3c 1d 4f ab 3d 2e f1 e6 bd 16 79 db 3d
       0.010639457 0.08364699 -0.1127647 0.10716455
000080 e7 17 95 3c 7e f4 db bc a9 c3 9f bd ce fb eb 3d
       0.018199874 -0.026849981 -0.07800991 0.11522637
000090 ec 8a 91 3d ef bf 18 bb cd 0a 0e bb 1b c7 9e bc
       0.07106575 -0.002330776 -0.0021673918 -0.01938205
0000a0 64 2b f7 bd ab 87 48 bd 49 e1 cb 3d bf 20 92 bd
       -0.12068823 -0.048957508 0.09955079 -0.07135152
0000b0 38 18 d7 bd bd f3 15 bd 1a ad 2b 3c eb 34 2f 3d
       -0.10502666 -0.0366094 0.010478282 0.042775076
0000c0 68 50 d7 bd 5d 06 8e bd 45 80 92 bd 8d 2d ea 3d
       -0.10513383 -0.069348074 -0.07153372 0.11434469
0000d0 67 1c 67 3d a9 65 cc ba 72 de 69 3d 7b c1 8f 3d
       0.05642357 -0.0015594262 0.057096906 0.07019325
0000e0 a3 7b d7 3c 39 4b 85 3d a0 70 b9 3d 90 f3 19 bd
       0.026304072 0.06508488 0.09054685 -0.037585795
0000f0 38 b7 b0 bc ca a0 ad bd bd f6 ce bd f9 7c cc 3b
       -0.02157174 -0.08477934 -0.10105655 0.006240484
000100 cf 07 98 bb b5 df 04 be 4c f6 4a bd 82 e3 98 bd
       -0.0046396027 -0.12975962 -0.049551293 -0.07465269
000110 a3 a3 a2 3c ab 8a 51 3c 3b ea 04 3d 51 c9 a8 bd
       0.019853419 0.012789409 0.032449942 -0.08241523
000120 1d e3 cb bd 90 64 af bc 64 c4 97 3c 4e 4c ab bd
       -0.09955428 -0.021410257 0.018526264 -0.08364163
000130 c5 90 26 bd 61 8f 16 bd 09 c8 db bd 0b cd 5f bc
       -0.040665407 -0.03675783 -0.10731513 -0.013659726
000140 eb b5 d2 bd 17 7e e1 bd 4f 04 ac bc a0 33 03 3d
       -0.10288604 -0.11010378 -0.020998148 0.032031655
000150 d3 f5 85 bd 8b 08 93 3d 3c b9 35 3d f8 1c e8 bd
       -0.06541028 0.07179364 0.044366106 -0.1133365
000160 5d 4d 0f be 4e 55 d1 3d 3b 93 d6 3d de 92 66 3b
       -0.13994355 0.10221349 0.10477301 0.0035182755
000170 dc 97 8b 3d c9 ac 29 bd d4 95 db 3d c7 67 dd bb
       0.06816074 -0.041424546 0.10721937 -0.006756756
000180 ce db a3 3d 11 c7 b7 3d 2b 6d c2 3d 6c 6a 59 3c
       0.08000909 0.08973516 0.094934784 0.013270002
000190 49 04 f3 3d 2f cb b6 bd ad 88 e6 3d 6a 35 01 3c
       0.11866052 -0.08925473 0.112565376 0.00788627
0001a0 58 02 d5 bd 07 99 92 3d c8 51 42 bd d7 f2 93 3d
       -0.10400838 0.07158094 -0.047441274 0.072240524
0001b0 e1 25 d5 bd 50 46 18 bd 1c 53 11 bb 76 44 71 bd
       -0.104076155 -0.03717643 -0.0022174781 -0.05890318
0001c0 61 50 10 bd 96 7c 9e 3d f2 90 6a 3d a0 32 d9 3d
       -0.035232905 0.07738607 0.057267137 0.10605359
0001d0 f9 af ce 3d d7 6a dc bd 40 34 61 bd dd c2 56 bd
       0.10092158 -0.107625656 -0.05498147 -0.05243193
0001e0 ea ec b7 3c 01 2a 97 3d 81 af b7 3d 56 2f c2 bc
       0.022451837 0.073810585 0.089690216 -0.023704212
0001f0 ff 12 89 bd de 10 8e 3d 72 1e a8 3d 03 22 db 3d
       -0.06693076 0.06936811 0.08208932 0.106998466
000200 ea a7 15 be be 5f 34 3e aa 98 95 bd 3c 55 73 bd
       -0.14614835 0.17614648 -0.07304509 -0.059407458
000210 da f7 f1 bc 8f b3 c5 bd da a6 f9 3c 4c e5 c9 bd
       -0.02953713 -0.09653389 0.030475069 -0.09858188
000220 94 9f 78 bd 57 dc 4e bd fc 61 22 be 1c f1 0b 3d
       -0.06069906 -0.0505031 -0.1585769 0.034165487
000230 3c 01 06 3e 2b 63 e0 3d 85 35 90 be 99 c1 4f 3d
       0.13086408 0.10956415 -0.28165832 0.05072174
000240 47 ae c9 bd 90 44 03 3e 81 5d 6b 3d 30 f8 1d 3d
       -0.09847694 0.12819123 0.05746222 0.03856677
000250 91 14 a2 bd f0 80 99 3c d5 e2 f8 3d 1c 6e 75 bd
       -0.07914079 0.01873824 0.1215264 -0.05991946
000260 84 32 72 bd 0a 66 ef 3d c2 a0 97 bd 1c 33 0e 3e
       -0.059130207 0.11689384 -0.07403709 0.13886684
000270 6c 04 9b bd f2 cd 38 bd 80 dd da 3b 80 3b 9f 3a
       -0.07569203 -0.04511828 0.006679237 0.001214847
000280 ee f0 8c 3d 98 91 92 bb 9e 9e 9c 3d 44 ab 3b bd
       0.06881891 -0.0044729225 0.07647441 -0.04581763
000290 dc e3 54 be c2 59 27 3d 01 4d 81 3d d3 71 2a 3e
       -0.20790046 0.040857084 0.063135155 0.16644983
0002a0 e1 a3 85 bd b2 61 3b 3d 0e c3 69 3d 9f 7d a5 3a
       -0.06525398 0.045747466 0.057070784 0.0012625939
0002b0 ab 72 aa 3d d0 4b de bd fb 25 03 be 49 c3 44 3d
       0.083226524 -0.10854304 -0.12807457 0.0480378
0002c0 25 bc 07 3e 41 38 5e 39 ac e8 d5 bd 80 c9 95 bc
       0.13255365 0.00021192526 -0.10444769 -0.01828456
0002d0 0a eb d9 3d d9 79 55 be 0e c3 e3 3d 19 58 bc bd
       0.10640533 -0.20847262 0.11121188 -0.09196491
0002e0 c0 43 3f bd 63 75 11 be ad c6 e4 bd 0b a5 af bd
       -0.04669547 -0.14204936 -0.11170707 -0.08576401
0002f0 5d 65 03 bc 04 c8 8b bd 58 79 a4 3d e4 d8 60 be
       -0.008019772 -0.06825259 0.08030957 -0.21957737
000300 07 92 df 3d 50 df de 3d d2 52 b0 3c d8 1b 5c 3d
       0.109165244 0.10882437 0.021523867 0.05373749
000310 a8 b0 09 bd 93 fd d1 3a c4 cc 02 3d 23 57 82 3d
       -0.03361574 0.0016021006 0.03193356 0.06364276
000320 5c fe 3c 3d dc 79 8f 3d a0 be 44 bd 80 d4 44 bd
       0.046141014 0.07005665 -0.048033357 -0.04805422
000330 f0 55 34 3d 6a eb 8c 3d aa f0 fb bd 4c bb ae bd
       0.04402727 0.06880839 -0.123017624 -0.08531818
000340 2f 09 8c bc b6 8b d3 3d 20 3e 7e bd 92 64 e2 3d
       -0.017094223 0.10329382 -0.062070966 0.110543385
000350 5a be 4b bd 16 b4 83 3d 16 31 9b bd 52 e9 fd 3d
       -0.04974208 0.06430833 -0.07577722 0.12398018
000360 d2 7a ec bc 2a 9a af bd 02 90 e9 ba e9 ba eb bd
       -0.028867159 -0.08574326 -0.0017819407 -0.1151026
000370 12 09 e2 3a 2d cf 56 3d de ea c2 bd 9a 91 92 3d
       0.0017245135 0.052443672 -0.095174536 0.071566775
000380 d4 2b b3 3d 43 84 e5 bd c3 78 d0 bd 58 dc 72 bd
       0.08748594 -0.112068675 -0.101792835 -0.059292167
000390 46 19 09 bb 98 4d 8f bb db 7c 42 3d 3a 8a 16 bd
       -0.0020919605 -0.0043732636 0.047482353 -0.036752917
0003a0 b1 1b 1c 3b 50 57 ce 3d 80 8f f1 3b 13 09 ba bc
       0.0023820216 0.10075247 0.007371843 -0.022709405
0003b0 09 a7 d5 bd 91 6b 4e 3d b2 fe f9 bd 0d 72 ba 3c
       -0.1043225 0.050395552 -0.122067824 0.022759462
0003c0 a9 ef 27 bb c6 0a d0 3d f3 73 6a bd 68 f0 78 bd
       -0.0025625026 0.10158305 -0.057239484 -0.060776144
0003d0 16 c1 bb bd e0 9d a1 3d 7c 6d 83 3c 3f 09 80 bc
       -0.091676876 0.078914404 0.016043417 -0.015629409
0003e0 14 b6 d0 3d 8b da 9b bd 0e 02 c4 bc 4e bb ad 3d
       0.10190979 -0.07610043 -0.023926761 0.08482991
0003f0 1b f5 00 3d 06 63 e1 3d e7 c8 81 bd f0 84 5a 3d
       0.03148375 0.11005215 -0.06337147 0.053349435

bias f4 [64]
000000 18 50 bd bc a6 2a 63 bd da 8c 26 bd b8 15 80 bd
       -0.02310948 -0.055460595 -0.04066167 -0.062541425
000010 c5 79 55 3d 4c da 36 3d 70 8c 1a 3c cc 25 82 bd
       0.05211808 0.044641778 0.009432897 -0.063548654
000020 27 cf a4 3c 64 41 b3 3d f0 c7 95 bd 94 a6 d9 3d
       0.02011831 0.08752707 -0.07313526 0.106274754
000030 ca a7 f4 bd 24 5f ba bd 2a a5 e7 3c 16 be 10 3b
       -0.11946066 -0.09100178 0.028276999 0.0022085956
000040 9d 92 8f bd d2 cd 50 3c 4e e1 e5 bc 0a bb 75 3d
       -0.07010386 0.012744384 -0.028061535 0.059992827
000050 d5 98 00 3e 05 8a d4 bd 94 c3 ed bc 2b 72 01 bd
       0.12558301 -0.10377888 -0.029023923 -0.03160302
000060 71 6d a6 bd 12 0c 57 bc 6a bc 5c 3d 9d 73 0c 3d
       -0.08126343 -0.013125436 0.053890623 0.034289945
000070 20 72 6d bd a8 b2 f5 bd 89 cc d4 bb e6 fe ab bb
       -0.057970166 -0.119969666 -0.006494109 -0.005248892
000080 d7 44 66 3d 8e 1d a0 3d 66 33 0f 3e 3c 40 af bd
       0.056217995 0.07818137 0.1398445 -0.085571736
000090 e9 49 8c bc aa 37 76 3d c3 da be bd 45 cb ec 3d
       -0.017125087 0.06011168 -0.09319069 0.11562208
0000a0 fc 77 c7 bd 60 6f bf 3d 2d 73 3a 3d f6 25 7b bc
       -0.09739682 0.09347415 0.045519996 -0.015328875
0000b0 51 ce 5c b8 d1 0f 0a 3c ba 2f 01 be d3 03 1b b9
       -5.2644235e-05 0.0084266225 -0.12615862 -0.00014783377
0000c0 7d ab 34 3d 56 ab 8f 3d 2d e2 9e bc 0f 02 70 3b
       0.044108856 0.070151016 -0.019394958 0.003662232
0000d0 e1 83 4e bd 78 a8 07 be 5e 57 1a be 85 36 46 3c
       -0.05041874 -0.1324786 -0.1507239 0.012097959
0000e0 ae d5 72 3b 0e dd a4 3d e3 fc b4 3d 66 c7 b7 bd
       0.0037053633 0.08049975 0.08837297 -0.08973579
0000f0 07 f2 85 3a 61 bc e2 3d 41 30 8d bd 39 6b 09 3e
       0.0010219224 0.11071087 -0.06893969 0.13419808

weight f4 [3, 64]
000000 23 f0 ed 3d 0b d0 a3 bd 22 8b ef bd f1 50 60 bd
       0.11618068 -0.079986654 -0.11696459 -0.05476469
000010 70 f5 52 bd ac ae f5 bc b2 80 d5 3d 00 e8 fe bb
       -0.0515036 -0.029990517 0.10424937 -0.0077791214
000020 f3 94 af 3d 4d 4b 2f 3c 53 3d 61 bd 09 d4 14 be
       0.08573332 0.010699105 -0.054990124 -0.1453401
000030 22 3c 1d 3e d0 97 fe 3d 3a 98 df 3d 67 93 08 bd
       0.1535497 0.124313 0.10917707 -0.0333437
000040 6c 1e f4 bd 30 84 1a 3c f0 56 df bd bc 81 08 be
       -0.11919865 0.00943093 -0.10905254 -0.1333074
000050 db a3 e8 bd 25 e4 ec bd 8b 31 85 bb 9f 4b 79 3d
       -0.11359378 -0.115669526 -0.004064744 0.060863134
000060 bc 85 87 3b 9e d8 31 be c1 ef 9e 3c 93 f8 a7 bd
       0.0041358154 -0.17367789 0.019401433 -0.08201709
000070 40 5d c1 3d 84 44 b8 bd c8 a1 a4 bd 83 54 29 bc
       0.09441614 -0.08997443 -0.0803867 -0.010335091
000080 b4 6b f2 bd cd 96 c1 3b c7 c4 67 ba 10 cb e9 3d
       -0.11836949 0.0059078694 -0.0008841273 0.11415684
000090 e4 b7 b2 bd 99 f3 04 be 6f f6 38 3d b0 b9 b6 3d
       -0.087264806 -0.1298355 0.045156892 0.08922136
0000a0 d4 8c 72 bd c7 21 bd 3c 64 ab ff bd c4 ac 48 bd
       -0.059216335 0.023087395 -0.12483862 -0.048992887
0000b0 ee 36 13 3d e5 96 62 bd ee fd c7 3d e6 cb 20 3e
       0.035941057 -0.055319685 0.0976523 0.15702781
0000c0 13 a2 2c bd 29 69 05 3a 24 4c 40 3e 85 4a 95 3d
       -0.042146754 0.00050892174 0.18779045 0.07289604
0000d0 15 7b de bd 30 be bb bd c3 8e 9f b8 db 88 54 3c
       -0.1086332 -0.09167135 -7.608302e-05 0.012972082
0000e0 8e 4a c4 3d 6f 60 75 bc c4 7b 26 bd 8d 83 3b 3e
       0.09584533 -0.014976605 -0.040645376 0.18311901
0000f0 0a ab 85 3d 9f cf 03 3c 1c f8 77 3d 5a 06 01 be
       0.06526764 0.008045106 0.06053935 -0.12600079
000100 3d d4 39 bd 5a 50 5a 3d 4f dd 39 be ed ec 0f 3d
       -0.04536842 0.053299285 -0.18150829 0.03513806
000110 c8 11 b6 bd 47 74 9c bd 98 ec a7 bd a0 b2 89 bb
       -0.0889011 -0.07639366 -0.081994236 -0.004202202
000120 8e 96 95 bd 66 81 70 3d ea 23 a4 3c 93 7c 6e bd
       -0.07304107 0.058717154 0.020036656 -0.058224272
000130 a0 59 ac bd e7 45 ae bd 65 32 ff bc 7c fb c4 3d
       -0.08415532 -0.085094266 -0.03115196 0.09618279
000140 13 77 40 be 6b d7 65 bd 98 27 99 3d b8 9c fb bd
       -0.18795423 -0.05611364 0.07478255 -0.12285751
000150 d6 0f 82 bd b8 ac 86 3d db d5 4e be 70 aa 9b 3d
       -0.06350677 0.06575912 -0.20198767 0.07600868
000160 44 ba a3 bc 1f 07 59 3c 76 b7 a8 bd 08 c5 90 3c
       -0.01998628 0.013246327 -0.082381174 0.017672077
000170 95 87 82 3d 70 b7 ad bc fe d9 13 bd 0d ef 09 3b
       0.063735165 -0.021205634 -0.036096565 0.0021047026
000180 8b 69 8c 3c 1b a8 6f 3d 85 89 9d bd d8 8c e5 3c
       0.01714017 0.058509927 -0.076922454 0.028021261
000190 95 98 5f 3d 47 a5 f3 bd 25 3f b9 bc fb fa e3 3d
       0.054588873 -0.118967585 -0.022613117 0.11131855
0001a0 48 ca dc bd f9 cf d2 3d 52 64 0f 3e 69 64 d4 3c
       -0.107807696 0.10293574 0.14003113 0.025926786
0001b0 3e 36 83 3d 04 5c 6b bd c0 a8 07 3e dd bc d6 3d
       0.0640683 -0.0574608 0.13247967 0.104852416
0001c0 e6 cf 2e bd 0b af 98 3c 2b 40 34 3c 8e 4a 44 3d
       -0.042678736 0.018638154 0.011001627 0.047922663
0001d0 39 78 d8 bc e7 57 ab bd 23 7d 3b 3e 77 fe 43 3b
       -0.026424514 -0.083663754 0.18309455 0.0029906312
0001e0 ee bc 00 be 07 51 85 bc 4b 2f 23 bc d5 82 58 bc
       -0.12572071 -0.016273988 -0.009960006 -0.013214787
0001f0 82 f5 4e bd 23 d1 06 bd 26 ee b2 3d d3 7d 00 3e
       -0.050527103 -0.032914292 0.087368295 0.12547998
000200 cf 03 19 3d 7c 2a f2 bd 4d d8 21 be c9 63 85 3c
       0.037357148 -0.118245095 -0.15805168 0.016282933
000210 1b 86 ab bc 4d e3 50 3d 64 42 b6 bd f8 b3 dd bc
       -0.02093797 0.05099802 -0.08899382 -0.027063355
000220 39 8d b5 3d 23 d6 d4 bd 90 80 81 3d c5 bc 17 3e
       0.08864827 -0.10392406 0.063233495 0.14818104
000230 f0 22 15 be f3 0b 10 3e 8f f0 c3 bd 63 28 e8 bd
       -0.14564109 0.14067058 -0.09567367 -0.11335828
000240 63 6d aa 3d c6 bc 79 bd aa 8b a9 3d cc 9b 22 bd
       0.08321645 -0.060971044 0.08278592 -0.03969936
000250 a4 97 a9 3d c9 9b 16 be e0 42 3b be 47 d8 a4 bd
       0.08280876 -0.14707865 -0.1828723 -0.08049064
000260 1d 9f 74 bd 56 86 b3 3d b0 99 9b 3c 6c d9 94 bd
       -0.059722055 0.08765857 0.018994182 -0.072680324
000270 60 bc be 3d c8 da e4 bc 54 5e f8 bd c3 ce 83 3d
       0.093132734 -0.027936354 -0.12127367 0.06435921
000280 e6 64 b8 3d 83 be fc bb 1e 1b c5 3d 5a ca a4 bd
       0.0900362 -0.0077131405 0.09624313 -0.08046408
000290 63 c4 ad 3c f2 25 ec bc 1e eb 3b 3e 99 15 e2 bd
       0.021211809 -0.028826687 0.18351409 -0.11039276
0002a0 80 f2 7e bd eb 36 80 3d 05 6d 01 be fd 7f 90 bd
       -0.062242985 0.06260475 -0.12639244 -0.07055662
0002b0 0e aa c4 3d b9 e7 b5 bd ac bd 91 3c e7 76 95 bd
       0.09602748 -0.08882088 0.017790638 -0.072980694
0002c0 c3 66 0f 3e d6 d7 41 3d 89 7b 80 bd a4 47 25 bd
       0.14004044 0.047324978 -0.062735625 -0.040351525
0002d0 d5 53 07 3d 2a a3 d7 bb 8b 31 df 3d 12 97 82 3d
       0.033038933 -0.00658073 0.108981214 0.063764706
0002e0 ce a0 a2 bc 7d 2b c5 3d ae db b5 3d 07 e7 ea 3d
       -0.019852068 0.09627435 0.08879791 0.11469846
0002f0 42 98 02 3e f1 ac 18 3e 00 ac b1 bd 3f df f3 ba
       0.12753394 0.14909722 -0.086753845 -0.0018605961

bias f4 [3]
000000 b7 86 26 3d 2a de 90 3d 11 cd e5 bd
       0.040655818 0.070736244 -0.11220754

exp_avg f4 [64, 3]
000000 ff 20 f7 3a 4c 70 3f bb d8 26 96 bb 04 27 9e 3a
       0.0018854438 -0.0029211221 -0.0045822673 0.0012066071
000010 82 6f 35 38 9d 57 b4 3a 97 c7 83 3b 4b 4c fb ba
       4.3257613e-05 0.0013759021 0.0040215957 -0.0019172517
000020 10 d5 e4 ba 9a 07 96 39 60 0c 29 bb a4 54 8d bb
       -0.0017458517 0.00028615893 -0.002579473 -0.0043130685
000030 c0 70 6c bc 29 cd 9c bc 07 3a 72 bb 5d 1b 9b 3a
       -0.014431179 -0.019140797 -0.0036960857 0.0011833716
000040 88 b5 2c 3b 96 f6 8f 3a ff d7 e4 3b 32 c6 2a bb
       0.0026353318 0.0010983523 0.0069837566 -0.0026058075
000050 51 f8 f1 ba 0a db c4 bb 2f 58 bf ba 81 10 2b 39
       -0.0018460845 -0.006007557 -0.0014598424 0.00016313979
000060 98 1c a6 ba 35 58 d9 3a 5a b8 d4 ba 44 bb 9f ba
       -0.0012673317 0.0016582074 -0.0016229257 -0.0012186547
000070 23 36 f6 bb 87 f5 37 bb 62 9f d8 39 8f 89 80 ba
       -0.007513778 -0.002806993 0.0004131748 -0.0009806621
000080 a7 5f 45 ba e6 01 21 bc 6a 56 86 bc 2d 11 84 bb
       -0.0007529207 -0.009827113 -0.016398627 -0.004030368
000090 bd 35 95 3c 05 ce e0 bc 61 04 05 bb 8a a1 95 3b
       0.018214101 -0.027441988 -0.00202968 0.004566376
0000a0 7f 81 d9 3b f9 8c 30 bb 69 66 a1 bb a3 2b b9 39
       0.0066377516 -0.0026939495 -0.0049255383 0.00035318462
0000b0 ba 80 37 3a 18 77 d8 bb c7 f5 95 bb 89 09 a7 ba
       0.0007000078 -0.006605994 -0.004576418 -0.001274393
0000c0 98 f6 0f ba 7a 91 16 b4 5d 71 0b 3b f4 c0 80 3b
       -0.00054917624 -1.4022763e-07 0.0021277287 0.003929252
0000d0 18 44 5a bb 0d 4a 63 39 29 c5 23 bb ed df dc bb
       -0.0033304747 0.00021675993 -0.0024989343 -0.006740561
0000e0 e7 0b 9e bb 32 41 62 3a 13 31 be ba a6 6d 9e bb
       -0.004823196 0.00086309307 -0.0014510475 -0.0048348485
0000f0 91 9b 37 bb e1 e1 d8 b9 3d 92 5a 3b 62 dc 5d 3b
       -0.0028016309 -0.00041367023 0.0033351325 0.0033853282
000100 03 ec 88 ba eb e5 58 3b 2b e0 60 3a b1 80 38 3b
       -0.0010446314 0.0033096026 0.00085783255 0.0028152878
000110 9d d1 e9 39 c5 6f 7c bc 28 29 af bc 30 03 6a bc
       0.00044597397 -0.015407507 -0.02138193 -0.0142829865
000120 22 94 bc ba 7a e0 9a bb b2 f7 23 bb 78 ed da bb
       -0.0014387409 -0.0047264667 -0.0025019464 -0.0066811405
000130 4d 8b b4 3b f4 da 4a bb bf 8e 33 3b db 73 04 3b
       0.00550977 -0.003095326 0.0027398316 0.0020210657
000140 aa 93 2b 3a 1e bc 03 3c 10 ab 45 bb 24 5b 8c ba
       0.0006545136 0.008040456 -0.0030161776 -0.0010708314
000150 d8 dd b4 3a 87 81 a0 b9 31 92 52 ba 97 07 f5 3b
       0.0013799025 -0.00030614084 -0.00080326485 0.0074777114
000160 45 0c c4 3c af 7c 91 3a 1f 6e 7c 3c 81 07 39 bc
       0.023931632 0.0011099781 0.015407114 -0.011293293
000170 aa 84 1f bc 0e 28 f0 ba 67 b5 82 ba e1 91 72 bb
       -0.009736219 -0.0018322484 -0.0009972275 -0.003701322
000180 46 92 4f 3c 0c 43 f3 bc 4d 5a d0 3a 50 38 e5 3a
       0.012669152 -0.029695056 0.0015896052 0.0017488096
000190 db 56 34 bc 4a b7 d4 bb af 55 e6 3b e5 db ee 3b
       -0.011007036 -0.0064915763 0.0070292572 0.007289397
0001a0 49 cb ad bb d7 96 38 bc ac c9 02 3b 10 ea 5c bb
       -0.0053037745 -0.011266432 0.0019956632 -0.0033708848
0001b0 c2 7a c8 3b 09 f6 7e bb f1 5a cd bb 9b 1d 1d 39
       0.0061181495 -0.0038903973 -0.0062669446 0.00014983716
0001c0 02 6c 48 39 de 3c 0f ba ed 09 18 bc bf 9c 86 3b
       0.00019113722 -0.0005464087 -0.00927971 0.004108041
0001d0 2b cd 22 ba cf 75 f6 bb 3d 4a 07 3c 61 b3 86 ba
       -0.0006210382 -0.007521368 0.008257446 -0.0010276848
0001e0 97 c8 de 3a 48 c2 9c b9 b9 e5 0d bb 53 0c a1 3b
       0.0016997036 -0.0002989939 -0.0021651818 0.0049147992
0001f0 f0 81 ae 3b 99 4d 02 3b b6 62 84 3b 6a 44 b7 ba
       0.0053255484 0.0019882678 0.0040400876 -0.0013982181
000200 05 75 ad 3a 72 1d cc bb 9f df fb ba 15 93 8c bb
       0.0013233727 -0.006229096 -0.0019216425 -0.0042899945
000210 6c bd 8e 3b 18 74 47 bc 4d 36 10 bb d6 49 17 39
       0.004356077 -0.012173675 -0.0022005022 0.00014427988
000220 61 68 07 bb 61 0e eb ba 00 b6 ad bc 96 5c d6 bc
       -0.002066158 -0.0017933362 -0.021204948 -0.026167195
000230 c7 98 74 3b 48 b0 16 3a 99 4e 93 ba 6c fc 03 bb
       0.0037322508 0.0005748314 -0.0011238634 -0.0020139469
000240 b6 77 b7 3b 0c 54 96 ba 49 a0 b9 ba 7c a9 89 bb
       0.0055989875 -0.001146914 -0.0014162149 -0.0042011123
000250 5e 3d bc ba 0b 9a 1e ba db e8 a9 3b 32 13 22 bb
       -0.001436155 -0.0006050176 0.0051852292 -0.002473068
000260 91 18 b7 3b 93 25 49 3b 7d d7 5f bc 73 90 7c ba
       0.0055876453 0.0030692562 -0.013662216 -0.0009634562
000270 90 4f 49 bd 81 80 69 bd e8 af e9 ba 8c 0b 02 36
       -0.049148142 -0.057007316 -0.0017828913 1.937823e-06
000280 8e 2a 19 3c 30 5d 16 3b 9a bf f5 b9 33 d3 98 ba
       0.009348525 0.0022943728 -0.00046872796 -0.0011659622
000290 d7 09 3d bb ce 34 98 3b ad 3b 98 bc d9 75 47 ba
       -0.0028844976 0.0046449667 -0.018583143 -0.0007608808
0002a0 b3 fb cd 3b 73 97 8f 3b 2c 12 83 ba 34 5e 82 3b
       0.0062861084 0.004382068 -0.0009999922 0.003978515
0002b0 99 1e 28 3c 83 53 18 3b 3c fe ee 3c c1 08 0e 3b
       0.010261201 0.0023243136 0.029173963 0.0021672698
0002c0 3a 4e 80 3c 76 a9 d7 3b 72 9f bc 3b c1 9b 4a 3a
       0.015662301 0.0065814806 0.005756312 0.00077288976
0002d0 6c a2 dc 3b 46 9b f4 b8 eb 71 1c bb 42 69 95 3b
       0.0067332294 -0.000116637486 -0.0023871611 0.004559667
0002e0 58 e8 37 bc 8b 02 64 3b b6 6f df 38 ee 06 b0 3b
       -0.011224829 0.0034791555 0.000106542764 0.00537192
0002f0 1f 4e c4 bb 10 7b da ba 8c 00 07 bc 02 ae f6 3b
       -0.005990758 -0.0016668756 -0.0082398765 0.0075280676

exp_avg_sq f4 [64, 3]
000000 00 71 92 39 94 a6 67 39 03 8a 81 37 43 c4 76 36
       0.00027931482 0.00022091932 1.5442265e-05 3.6771096e-06
000010 82 c6 92 35 2a c7 fb 34 03 6a 02 38 9e 6e 22 38
       1.0935621e-06 4.6897304e-07 3.1093146e-05 3.872683e-05
000020 9b f9 50 36 08 b6 3f 36 a1 5e 09 37 78 d5 70 36
       3.1139705e-06 2.8567174e-06 8.187869e-06 3.5887042e-06
000030 02 34 01 39 dc 84 9b 38 f5 5b 29 37 80 e6 5f 37
       0.00012321773 7.415723e-05 1.0094595e-05 1.3345503e-05
000040 3e 20 d8 35 c4 db 53 36 ac 8c 95 38 1f 0a 66 38
       1.6102638e-06 3.156937e-06 7.131076e-05 5.48457e-05
000050 bb ee 3d 37 f2 58 61 36 49 b1 c3 35 87 14 a4 36
       1.1320862e-05 3.3579386e-06 1.4580229e-06 4.8899706e-06
000060 bc 40 cc 38 be 28 3d 38 a7 00 01 38 3e 1f cc 36
       9.739536e-05 4.5099056e-05 3.0756604e-05 6.083311e-06
000070 51 5d 38 37 b6 74 1e 36 70 6f 8d 34 c0 91 32 35
       1.0988982e-05 2.361177e-06 2.6344378e-07 6.652226e-07
000080 9f 7b 9f 34 dd 50 19 39 19 ef b5 38 73 42 0b 37
       2.9706004e-07 0.00014621341 8.675288e-05 8.300517e-06
000090 12 6f 97 38 fe 51 dd 38 61 25 1b 35 fd 88 b2 38
       7.2209295e-05 0.000105533734 5.7796393e-07 8.5132175e-05
0000a0 39 50 88 37 42 cf 11 37 50 c8 b8 36 35 64 1a 36
       1.624982e-05 8.6909295e-06 5.5069468e-06 2.3006116e-06
0000b0 b0 ce 6f 36 f6 22 de 37 97 66 8f 36 71 39 d6 36
       3.5734083e-06 2.6480742e-05 4.273675e-06 6.384384e-06
0000c0 8b 62 1d 35 d1 dc 22 35 71 fa 04 35 15 d8 90 36
       5.8630457e-07 6.0671033e-07 4.953827e-07 4.3166897e-06
0000d0 e7 bf 3d 35 9d bd 93 36 8e 44 14 37 82 ca 39 36
       7.068724e-07 4.4030153e-06 8.837449e-06 2.7685023e-06
0000e0 bb da 19 37 62 2f 58 38 4b a9 14 37 7d 9d a3 36
       9.170438e-06 5.154254e-05 8.860904e-06 4.8761126e-06
0000f0 d3 00 f2 38 9b f0 3b 36 b0 2f 6f 37 42 96 ed 38
       0.00011539613 2.8005222e-06 1.4256613e-05 0.00011329028
000100 a6 1a ee 37 28 63 38 37 7c 93 1f 37 b3 43 9c 36
       2.838422e-05 1.0990341e-05 9.511477e-06 4.6570435e-06
000110 ab 5c 3c 36 e7 9f 1a 39 47 b1 d8 38 da a4 02 38
       2.8068123e-06 0.00014746153 0.00010332703 3.1147945e-05
000120 f2 11 71 38 45 69 29 38 4e ec 9e 36 18 25 6a 37
       5.747559e-05 4.039078e-05 4.7362764e-06 1.3956123e-05
000130 0b 40 ac 38 0f 36 8c 37 27 57 15 38 8b 43 f0 36
       8.213528e-05 1.6714474e-05 3.5605535e-05 7.1604204e-06
000140 59 c7 09 37 35 25 44 37 6b 81 d2 35 ee f1 42 37
       8.212251e-06 1.1691173e-05 1.5683885e-06 1.161963e-05
000150 ca 8b d0 35 bb 90 28 35 a6 8d d1 35 c5 a9 87 38
       1.5537892e-06 6.279549e-07 1.5612939e-06 6.468924e-05
000160 71 8b 5c 39 c9 fc 00 37 02 86 41 39 b3 ca 86 39
       0.00021032781 7.688251e-06 0.00018455836 0.00025709494
000170 db 1a 2e 38 68 4f f0 36 12 ad e3 36 d5 4c 0b 37
       4.1509844e-05 7.1618015e-06 6.785275e-06 8.3029345e-06
000180 8e 91 c1 38 46 02 fb 38 8e 18 95 36 68 b2 ee 35
       9.230069e-05 0.00011969036 4.4434046e-06 1.7784305e-06
000190 21 99 04 37 ba b3 0c 36 05 59 22 38 07 d8 01 38
       7.903466e-06 2.096624e-06 3.8706716e-05 3.0957188e-05
0001a0 c5 96 69 37 48 6b b6 39 f7 2d d6 39 66 05 cb 37
       1.3922986e-05 0.00034793676 0.00040851507 2.4202e-05
0001b0 56 25 b6 37 44 ef 9a 37 6c 11 8f 37 78 7d 11 34
       2.1713477e-05 1.8469647e-05 1.7055041e-05 1.3549823e-07
0001c0 a5 a5 6d 35 4d 40 90 34 46 37 e0 37 a3 aa f0 37
       8.8530425e-07 2.6868875e-07 2.672862e-05 2.8689688e-05
0001d0 35 bb d3 36 f1 47 c8 37 18 71 03 38 21 75 86 36
       6.310084e-06 2.3875358e-05 3.133816e-05 4.007147e-06
0001e0 15 a6 11 39 fd 39 e1 36 cb 0b b7 36 20 80 b2 36
       0.00013890148 6.7122733e-06 5.455198e-06 5.319729e-06
0001f0 60 be 48 36 14 61 0f 36 3c 6d 6c 38 52 6e 34 37
       2.9913135e-06 2.1365167e-06 5.6368517e-05 1.0754522e-05
000200 47 7c 0f 37 0a 96 02 37 a9 7b d4 36 29 98 95 36
       8.5524e-06 7.7835375e-06 6.3324883e-06 4.45826e-06
000210 18 78 03 39 0f dd 1f 39 ed b1 54 37 ee 40 ad 36
       0.00012537872 0.00015245772 1.2677611e-05 5.1633606e-06
000220 b4 1c 11 36 d8 5e 05 36 ee 4f 13 39 53 7f c1 38
       2.1623391e-06 1.987375e-06 0.00014048789 9.226673e-05
000230 2a 0b 6b 37 53 38 41 36 ff e3 82 36 78 ce 9b 36
       1.4009691e-05 2.8792026e-06 3.900844e-06 4.643396e-06
000240 57 7c 4c 37 7c 4a 35 38 0e c7 d0 36 7c 19 9b 36
       1.2188298e-05 4.322313e-05 6.222056e-06 4.6223267e-06
000250 68 7b c3 35 a1 ba 68 36 e9 9e d8 36 40 e1 ad 36
       1.4564548e-06 3.4679326e-06 6.455801e-06 5.1820243e-06
000260 86 a2 bf 36 60 0f cb 36 f0 4c b3 37 26 8f 1a 37
       5.711164e-06 6.0516613e-06 2.137429e-05 9.212445e-06
000270 a5 c7 2b 3a 01 b9 c0 39 d7 aa d7 36 ec 25 54 38
       0.00065528817 0.00036758932 6.4273877e-06 5.0580056e-05
000280 61 08 94 38 d8 8e 06 37 c6 6e 6b 35 a4 09 e7 35
       7.0587506e-05 8.020281e-06 8.770552e-07 1.7213647e-06
000290 4b 38 92 35 ec c3 93 38 fc b0 0e 39 c7 d0 5d 36
       1.0894231e-06 7.0459995e-05 0.00013608107 3.305309e-06
0002a0 3e 1d 6e 37 fb bc 0a 36 9c 13 ad 36 2a e4 b9 37
       1.4192714e-05 2.0673604e-06 5.1580846e-06 2.2159966e-05
0002b0 2f 83 db 36 a4 62 82 36 a1 af 64 38 09 48 2a 37
       6.5419804e-06 3.885785e-06 5.4523003e-05 1.0149562e-05
0002c0 5c 2b 5d 37 e0 7a 62 36 a8 65 07 36 fe 9a 49 36
       1.3182722e-05 3.3748147e-06 2.017574e-06 3.0041551e-06
0002d0 77 cf b2 37 27 20 d6 36 24 fb 45 36 bf 30 34 38
       2.1315862e-05 6.38144e-06 2.950147e-06 4.2960743e-05
0002e0 17 fb 1b 38 f7 46 3c 36 a8 66 0a 38 50 28 bf 37
       3.7188725e-05 2.805549e-06 3.299737e-05 2.2787746e-05
0002f0 7f 1d d3 36 8b 83 d7 37 2f 5f d4 37 96 65 9b 36
       6.291724e-06 2.5691252e-05 2.5316693e-05 4.631186e-06
