models/model_cavity_nu0.01_U1_20x20_epochs5000_lrannealing_testpcnt0.2.pt (torch, 187101 bytes, 30 tensors)

weight f4 [64, 3]
00000000: 4b58 1e3f 577e 0fbe a2d1 dd3c dec0 9fbb
00000010: 05c9 4b3e 85ae 6cbd ea14 6b3e 474c c93e
00000020: ba43 c1bd 9130 963e 3e8e af3e c737 cc3b
00000030: 8aa1 203f 3107 f53e a911 e03b cdb2 353f
00000040: 7f1f 37be 1bb5 f33d 83c9 56bc 6836 08bf
00000050: 9e7f 593e 8c17 be3d dc4c 4d3f 7407 2e3d
00000060: baab 823e cee9 c83e 6ee7 bcb8 9727 b6be
00000070: 2f90 94be 1462 d5bc 6f2e 24be 0379 383e
00000080: 5445 80bd 5ffd b2be 62d1 aebe 7bd2 1cbb
00000090: ee14 b53d 14f1 27bf b3d2 8cbd adf7 2f3f
000000a0: d22c 813e 48bb 44be 4671 053f 67bb 5abd
000000b0: 8a4e 553e 7d59 07be ebda 2ebf a230 b1bb
000000c0: 0647 053f b87c 94be dc97 82bd 42d8 dd3c
000000d0: 490c b03e 5b0c 00b9 0fdc b9be fcd6 583e
000000e0: b015 b1b8 8221 813b 33df 353f 2a3f 003c
000000f0: af06 febe baed e53e a6b6 973d 7a75 923d
00000100: f2e9 973e ec99 bbbc 5034 9c3e 46ef 6c3e
00000110: 96e0 46bd bb85 863c f983 adbc a5da e73d
00000120: e16c 13bf 9107 9cbe d563 e0bd c3b6 053f
00000130: 0bf7 9ebe d878 853c d920 f63d 9117 7fbe
00000140: eaaf 19be 9d08 2bbf 21dc afbb 02ee e93c
00000150: 580f f3be 2cfb 8b3e 1221 883b 8d84 43be
00000160: 13e6 4c3e 1afe 43bd 62fa 40be cf75 603e
00000170: 59f3 533d 3c94 d3be 762e 13be 1ef5 a13d
00000180: c234 6cbe 3058 3ebe 802d 1f3d 54c7 2fbf
00000190: 4d98 aebc 2fac 3a3e 5951 be3d e698 823d
000001a0: 3f90 abbd 8a06 de3e 91b6 fcbe f11e 98bc
000001b0: f518 e0bd 1ac6 823e 66fc bbb8 9339 2a3f
000001c0: 251b a0bc 133c ff3b a433 9cbd 733f 42be
000001d0: 1633 d5bc 6a53 7dbe 570e 11be cf67 0bbd
000001e0: 5226 c4be 61a5 f1be 387e 95ba 7811 c73c
000001f0: b415 603c 1016 9bbe 4702 38bf 74d3 023e
00000200: 13db d6bc 2481 ddbe c884 ac3e a16e 5ebb
00000210: ed35 1d3f 8a17 d3bc 8443 3b3d c6e0 febe
00000220: e657 013f f984 f1bd 1ea5 83be 3d51 c93e
00000230: 86ef ddbc db4a 0bbf ee3e 933e ad13 26bc
00000240: 4aae 0a3f de33 70be 36a2 3abd 218e ad3e
00000250: 9b09 54bd 4e7c 4ebc c79b 62be 9e17 703d
00000260: 74b0 1e3c 511d b03b 5fea ab3e a459 7d3c
00000270: 58aa 633e 6ebc 043f 5b1d b1bc b099 a5bd
00000280: 5e05 3c3f e180 89bd 5db1 01bb 5c76 2a3f
00000290: bd21 163d aa55 bd3e e6cf 8d3e 7b09 883d
000002a0: bd79 febe 7b35 2bbe ee8a 703d 141f 113f
000002b0: 994b 0f3e 1803 783d b286 f53e 56e2 943e
000002c0: b91c fa3b 2b4f e33d 838f bcbe 4439 b6bb
000002d0: 0589 fbbe 2cea cf3e d94a bcbc 9a86 873e
000002e0: 3fca 9b3e 102c 3b3e 50de b1be 4553 c33e
000002f0: db00 863c 0bbb e0be 10a2 953e e032 0abd
0.61853474 -0.14013039 0.0270775 -0.0048752865 0.19900902 -0.057783622 0.22957197 0.39316007
-0.09436746 0.29333928 0.3428821 0.006232235 0.6274649 0.4785705 0.0068380428 0.70975953
-0.17883109 0.118997775 -0.013109568 -0.5320802 0.21240088 0.09281835 0.80195403 0.042487577
0.25521642 0.3924088 -9.007646e-05 -0.3557708 -0.29016253 -0.026047744 -0.16033338 0.18014912
-0.06263223 -0.34958932 -0.3414412 -0.0023929167 0.08841883 -0.6560223 -0.06876125 0.687373
0.25229508 -0.19212067 0.52125967 -0.053401377 0.20830742 -0.13217731 -0.6830279 -0.005407409
0.520615 -0.29001403 -0.06376621 0.027080659 0.34384373 -0.00012211634 -0.36300704 0.2117576
-8.444057e-05 0.003940762 0.710437 0.0078275595 -0.49614474 0.44907933 0.07407884 0.07151313
0.29670674 -0.022900544 0.3050866 0.2313815 -0.048554026 0.01642119 -0.021181094 0.11321
-0.5758801 -0.30474523 -0.109565414 0.52232 -0.31047854 0.016292974 0.12017984 -0.24911334
-0.15008512 -0.6681002 -0.0053668176 0.028555874 -0.47472644 0.27340066 0.004154333 -0.19093533
0.20009641 -0.047849752 -0.18845513 0.2191994 0.051745746 -0.4132403 -0.14373192 0.079080805
-0.23067 -0.18588328 0.03886175 -0.68663526 -0.021312857 0.18229745 0.092928596 0.06376819
-0.08377122 0.43364364 -0.49358037 -0.018569442 -0.1094226 0.25541764 -8.963868e-05 0.664941
-0.019544194 0.007789144 -0.07627037 -0.18969516 -0.026025336 -0.24738851 -0.14165626 -0.034034546
-0.38310486 -0.47196487 -0.0011405414 0.024300322 0.013677049 -0.3029027 -0.71878475 0.12775975
-0.02622751 -0.4326259 0.33695054 -0.0033940452 0.6141041 -0.02576806 0.045718685 -0.49780864
0.5052475 -0.11792941 -0.25711912 0.39319792 -0.027091753 -0.54411095 0.2875895 -0.010136527
0.54172194 -0.23457286 -0.045564853 0.33897498 -0.051766973 -0.012602879 -0.22129737 0.058616273
0.009685624 0.0053745885 0.33577248 0.0154632665 0.2223295 0.5185002 -0.021620443 -0.08085954
0.7344569 -0.06714035 -0.0019789555 0.6658685 0.03665327 0.3697942 0.27697676 0.06642433
-0.49702254 -0.1671962 0.058726244 0.56688046 0.13993682 0.060549825 0.47954327 0.2907893
0.0076328185 0.110990845 -0.3682824 -0.005561026 -0.49127975 0.40608346 -0.022984909 0.2646988
0.3042774 0.18278527 -0.34739923 0.38149467 0.01635783 -0.43892702 0.29225206 -0.033739924

bias f4 [64]
00000000: 07d4 a03e bb90 b73e 25dc da3e 78cb 0d3f
00000010: 6de3 a43e 7115 683c b98b 9fbd 88e2 0abe
00000020: a677 b8be b6c1 143f 1062 bf3a 28b4 90bd
00000030: 13ef c73c b889 133d cf55 183e b242 8d3c
00000040: e207 9f3c d9da 803e 8467 923e c557 d2bd
00000050: acb1 823e 4106 913e e4cb 653e 62ce db3e
00000060: 8f83 db3e ff13 a7bc fe26 a6be 623e 05bf
00000070: 0e35 8dbe 34c8 2abe 9ba9 ea3e 6b3d dc3d
00000080: 1458 903d eb66 b03e 1176 bd3e 3caf f03e
00000090: 8722 313e 3815 d33e 9631 00bf 8afc 323f
000000a0: be53 853d 5cce 1bbf 906a 7a3e 6659 5d3e
000000b0: 343a 963e e3ad 4ebe ead1 99bd 40f5 0abe
000000c0: 42aa 0b3f 1c53 943e 0ab5 983e ae03 0fbe
000000d0: 284a 803e b4b8 82be bbff 51be 4bd7 bb3e
000000e0: aa46 a03e 8ed9 aa3d 4654 b73e f716 3c3f
000000f0: c098 2d3e 54a9 e53d 6eae ea3e 9b6d 96be
0.31411764 0.35852608 0.42746082 0.55388594 0.32204762 0.014165268 -0.07790322 -0.13562977
-0.36028785 0.5810808 0.0014601368 -0.07065612 0.024405992 0.03602001 0.14876483 0.017243717
0.019412939 0.25166968 0.285946 -0.10270647 0.25526178 0.28325084 0.2244106 0.42930895
0.4287381 -0.020395277 -0.32451624 -0.52048314 -0.2757954 -0.16677934 0.45832524 0.10753902
0.070480496 0.3445352 0.3700414 0.47008693 0.17298327 0.41227126 -0.5007566 0.69916594
0.06510113 -0.60861754 0.24454713 0.21616134 0.2934128 -0.2018352 -0.07510741 -0.13570118
0.5455667 0.28969657 0.29825622 -0.13966247 0.25056577 -0.25531542 -0.2050771 0.36687693
0.31303912 0.083422765 0.35806483 0.7347254 0.16952801 0.112139374 0.45836204 -0.29380497

weight f4 [64, 64]
00000000: a664 413c 170b 373d 28c5 0cbd 176f d83d
00000010: 9d20 763c 5b3a 143c 3afc 1e3d 5e5b 4f3d
00000020: ca54 163e 3e3f de3c b05e 2c3c df2c df3d
00000030: 0ba2 2bbe 7371 c7bc 7b4c 3e3d 7d9f e9bd
00000040: 9ad3 92bb be94 153c ac39 f7bb e5ef dfbb
00000050: d855 c2bd 4857 9abd eb4f a5bd 2307 8ebd
00000060: c7ea 883d 04a2 26bd 56c7 04be 4015 c3bd
00000070: 4db6 443d 509f cebd 30fe b7bc 4957 5c3d
00000080: da0c 973d 0925 8d3d 6f9d 0a3e 379c efb9
00000090: 52ce aebd d28b fcbd 7878 5d3d c54a dc3d
000000a0: 75b6 013e ea6e 24bd dd41 1d3c ce3f 943d
000000b0: e4e9 dd3a eed6 b93c da6d 373c 98bb 033e
000000c0: 8eae 483d 4f1e 84bc 308f d0bd 7aa3 803d
000000d0: 8fb2 c83d d869 56bd 4e98 5abd 3233 70bd
000000e0: ae17 853d 4ee9 083e 16b5 b63c 903c 83bd
000000f0: dde1 cabd c461 a73d 3468 1abc 5a6a 063d
00000100: e9b5 74bd f8a8 64bd b5df 4d3d 5643 ec3b
00000110: 25d4 a7bc 65bc 1cbd 737a 75bd b03f 903d
00000120: a67e 833e 7808 313e 043f ebbd b1a9 45be
00000130: 1bf3 9b3c 3a8e d23d 6546 ad3d e0b4 d4ba
00000140: c55b 023d 748a ca3d bb2f 7d3d e820 293e
00000150: 716b 9d3c e0b7 893d f7c8 9abd da20 043c
00000160: 2681 85bd 04fc 383d f128 133e 6d92 1d3c
00000170: 880f 883b fe1d 363d 5b61 30bd 6a93 1a3e
00000180: c85a 80bc d3a8 753d dfa8 06be 5215 ef3c
00000190: 07fe 943d 78e5 3dbc b61f d4bd b9a5 97bd
000001a0: 9834 c5bd 9692 24be 9e84 a9bc d2fd be3c
000001b0: 4157 353d 0970 c43c 4a74 633e e04c 873b
000001c0: ea8c a9bd 5de3 91bc b5fd c6bc 4823 aa3d
000001d0: d4f2 1f3e 4264 833e da38 c73d 8708 dabd
000001e0: a2de 963e d4c2 723e 047c bfbc a800 6d3d
000001f0: e029 60bd 02f4 043e 1367 d53d 3c69 183e
00000200: 2275 3e3d 5469 b53c ab13 c33d d1f4 61bc
00000210: 0c81 98b9 96f0 d43d b94e e93d 4cc3 48bc
00000220: 42d5 393d ac53 633d 926a db3c d687 1abd
00000230: da68 273e 89d1 19bd b1ab d6bd eb60 b7bc
00000240: 810d c8bc daf4 5dbd 633d b1bc 063e 173d
00000250: 2fa9 a5bd 9b92 55bd dd9a d0bd ddad ca3d
00000260: a884 5dbd f1cc 013e 228d 043d 1fb6 c93d
00000270: 1665 1ebe d812 50bc a176 733d 6776 a0bd
00000280: 0f0c ec3c 3b49 1bbe 6d7c bbbc 2ed1 f5bd
00000290: d427 12bc f202 d2bd e84d 983d a331 8b3d
000002a0: 44ab 9d3d f65f c5bd 501a 04bd cec3 f6bd
000002b0: dfe7 08be 7bf4 acbd 9431 c9bd ba82 223d
000002c0: 683a bcbd f81b 10be 1f6b e63d 5396 893d
000002d0: 147b 03bd 6016 25bd b63b 97bd 36d6 b43d
000002e0: 1c5a e5bd fa5c f33a 7d33 b2bc ab85 a9bd
000002f0: e802 2cbc 1e26 6abd f179 a0bb 2123 843c
00000300: 497a 5b3c 16a1 58bb 74d5 3abd 0338 023e
00000310: 6869 9d3d 694d 71bb 731a 853d 23a0 543d
00000320: 9db7 343b 9212 3ebd 2974 ce3d a251 573e
00000330: 4986 d53d b363 bbbd f60b 813d 5987 d1bc
00000340: c584 b3bd c4ae cc3c 6a83 aebd 7dc9 ab3d
00000350: eb15 cabd 9157 e83d 74d8 f63c 9500 043d
00000360: 5209 95bd e59e 62bd 9b8d 413c 9086 34be
00000370: 72b0 01bd 6232 79bd b121 723d 498a 4c3c
00000380: 5465 8b3d 012b c5bd cc31 36bd f992 7bbd
00000390: 67a4 55bd eb5a 2fbd 30f3 b03d a810 d8bc
000003a0: 50d2 453e 13d4 ab3d 167b 113c cd56 b13d
000003b0: a832 10be f81c c33c 155b 663d 95ed ca3d
000003c0: 2178 c0bd 6729 153d 02d9 3a3d 52c0 293a
000003d0: 35ce b53d d281 923d d447 79bd a981 5a3d
000003e0: 6e4e 913c 4e0f 01be 2d26 163e 5a7c 283d
000003f0: afc3 00be 953d ac3d 2294 2cbd f26b 52bd
0.011803782 0.04468831 -0.03436771 0.10568064 0.015022424 0.009047116 0.03881476 0.050624244
0.14680782 0.027129766 0.010520622 0.1089723 -0.16761033 -0.024346089 0.046459656 -0.11407373
-0.0044807913 0.009129701 -0.007544717 -0.0068340176 -0.0948903 -0.07536179 -0.08071884 -0.06934955
0.06685405 -0.040681854 -0.12966666 -0.095255375 0.048025418 -0.1008898 -0.022460073 0.05379418
0.07375498 0.068918295 0.13536619 -0.0004570202 -0.08535446 -0.12331356 0.054069966 0.10756449
0.12667258 -0.04014484 0.009598223 0.07238732 0.0016930667 0.022685494 0.011195624 0.1286453
0.048994593 -0.016127734 -0.10183561 0.06281181 0.09799682 -0.052347034 -0.053367905 -0.058642574
0.06498657 0.13370249 0.022303145 -0.06408036 -0.09906361 0.08172944 -0.009424258 0.03281627
-0.059743796 -0.055825204 0.05026217 0.0072101755 -0.0204869 -0.038265605 -0.05993123 0.070433974
0.25682563 0.17288387 -0.11486629 -0.19303013 0.01903682 0.10281034 0.08460692 -0.0016228221
0.0318258 0.09889689 0.061813097 0.16516459 0.019216271 0.067245245 -0.07557862 0.008064473
-0.06518774 0.045162216 0.14371087 0.00961743 0.004152242 0.044462197 -0.043061595 0.15095297
-0.015668288 0.059975456 -0.13150357 0.029184971 0.07275014 -0.011590354 -0.10357611 -0.07404656
-0.09629172 -0.16071543 -0.02069312 0.02331439 0.044272665 0.023979204 0.2221233 0.0041290373
-0.0827883 -0.01780861 -0.024290899 0.083075106 0.15619975 0.25662428 0.097276405 -0.10646158
0.2946673 0.23707134 -0.023374565 0.057861954 -0.054727435 0.12983707 0.104200505 0.14883894
0.046498425 0.02214495 0.09525236 -0.013791279 -0.00029087847 0.103974506 0.11391968 -0.012253594
0.045369394 0.055499718 0.026784215 -0.0377272 0.16348591 -0.037553344 -0.10481966 -0.022385081
-0.024420502 -0.054188587 -0.021635717 0.036924385 -0.0808891 -0.052141767 -0.10185788 0.09896443
-0.05408159 0.12675835 0.032361157 0.0984919 -0.15468249 -0.012699805 0.059439305 -0.078350835
0.028814344 -0.15164654 -0.02288648 -0.120027885 -0.008920629 -0.10254468 0.074367344 0.06796577
0.07698682 -0.09637444 -0.032251656 -0.120490655 -0.13369702 -0.084450684 -0.098239094 0.03967545
-0.091908276 -0.14073169 0.112509005 0.06718125 -0.0320998 -0.04030454 -0.07384436 0.0882992
-0.111988276 0.0018567138 -0.021753067 -0.08277448 -0.01049874 -0.057165258 -0.004897349 0.016130032
0.013395854 -0.0033055 -0.04561372 0.1271668 0.0768612 -0.0036819822 0.064991854 0.05191053
0.0027575262 -0.04640443 0.100807495 0.21027234 0.104260035 -0.091498755 0.063011095 -0.025577234
-0.08765558 0.024985678 -0.08521159 0.0838804 -0.09867462 0.11344827 0.03013251 0.032227118
-0.07277168 -0.055327315 0.0118135465 -0.17629457 -0.031662412 -0.060839064 0.059114162 0.012484142
0.06806436 -0.09627343 -0.044481084 -0.06141946 -0.05215874 -0.042811316 0.08640134 -0.02637513
0.19318509 0.08390059 0.008879444 0.08659134 -0.14081824 0.023817524 0.056239206 0.099085964
-0.09397913 0.036416437 0.04561711 0.00064754963 0.088772215 0.071536675 -0.060859516 0.05334631
0.017737594 -0.12603495 0.14663 0.041134216 -0.12574647 0.08410183 -0.042133458 -0.051372476

bias f4 [64]
00000000: e75b 843c cbcd 8bbd 34ec 31bd 71b8 2b3e
00000010: 7eb9 59bc bd96 09be 7661 1a3d bb1d c7bd
00000020: 410d 313c 5009 49bd 38b8 3c3d 950f ba3d
00000030: 7589 5e3d cca2 80bd 8a88 22bd 54de 07be
00000040: de0e f13d 04cc 0dbe ba62 ed3d e80b 963d
00000050: cb18 1e3e 2d01 51bd c098 933d 83c7 84bd
00000060: 9ad7 e2bc 75f6 d53d 72d2 f7bd e560 f6bd
00000070: 6c28 a1bc 9b09 7a3d d96d a2bd f77c a93c
00000080: 9557 1ebd f762 a0bd e3f2 07bd 3cf6 d33c
00000090: 3daa 3ebe 11af 03bd cd8d 3cbd 7ade 7a3d
000000a0: 4e95 5ebd b2f2 7d3a 55a2 83bd a16b 3dbe
000000b0: 7982 a4bc 8d15 7a3d 1bcc e33b 5032 a43d
000000c0: ac83 8a3d e791 2ebd 3f25 2bbc 0152 853d
000000d0: 72cb 863c b2c8 b4bc cd00 b33d cd8b 3bbd
000000e0: 81ff 9f3c ecf9 b7bd 4593 a73d 3010 bebb
000000f0: d715 473d 5ee8 bdbc 1d3c 68be da57 663d
0.016157104 -0.06826361 -0.04343815 0.16769578 -0.013288854 -0.13436408 0.037690602 -0.097224675
0.010806383 -0.049081147 0.046074122 0.09085003 0.054330308 -0.06281051 -0.039680995 -0.13268405
0.11770414 -0.13847357 0.11591096 0.0732649 0.15439145 -0.051026512 0.07206869 -0.06483366
-0.027690697 0.104473986 -0.12100686 -0.120302 -0.019672595 0.061044317 -0.07931108 0.02068947
-0.038657743 -0.07831376 -0.03319062 0.02587425 -0.18619628 -0.03214938 -0.04603367 0.061247326
-0.054341607 0.00096873485 -0.06427447 -0.18498088 -0.020081745 0.06105571 0.0069518215 0.08017409
0.06763396 -0.042619612 -0.010445892 0.06509782 0.016454432 -0.022068355 0.08740387 -0.04578762
0.019531013 -0.08983216 0.08182386 -0.0058002695 0.048604812 -0.02318209 -0.22679181 0.056236126

weight f4 [64, 64]
00000000: 585b 22bc 39ee 243c 3e8e 863d 7897 5a3d
00000010: 02af 1abe 9f48 463e ef17 903d e997 c9bc
00000020: bad1 a53d a363 27be df89 163e b200 5ebd
00000030: 3c38 8a3d 654c 4abd 5e91 dd3d f00e c83b
00000040: 7798 ebbc d1cd 893d bff8 4c3e 6202 25bc
00000050: 1ac7 0dbd d5c8 d13d d914 293e 6d46 9fbd
00000060: 51c0 0bbe a223 b9bd 70fd 553d 68b5 963d
00000070: bff9 e43c 78a0 f83d a555 383d af06 e8bc
00000080: 700b 9b3d 4d14 b63d 4c16 8b3d 3ee9 9f3d
00000090: f591 13be f5be 75bb c36f c3bc e1d4 073e
000000a0: 6c96 acbd 939a aabc a04f c13d 37c4 97bd
000000b0: eee5 0c3d cdfd cbbd b728 babd 1e63 3d3d
000000c0: 0ec9 00bc 558d 773d 729a 57bb fb7e 81bd
000000d0: bb40 ff3d df3c 5c3e fad9 3fbe 0500 f1bc
000000e0: 79e7 4abd d368 383d 7fed 3dbd e4e6 1a3d
000000f0: e987 24bd b87c 41bd a7a4 1abd d1e6 82bd
00000100: b00f b0bc c6f1 89bc dbf3 9ebd a176 203d
00000110: 7e00 a73d d7db d8bc 2d29 56bd 9919 063e
00000120: b8c5 3e3d c482 6abe 0b99 00be a32a 183e
00000130: 4c62 b4bd bd49 ee3d 3935 f9bc 88fa a0bd
00000140: 64a0 88be 5ec1 063d d971 303e 6ed2 9abd
00000150: 2f6c 2f3e 3255 d73d 89fd cfbc f4f3 eabd
00000160: cd01 68be 7eb0 0fbc 5132 0d3e f696 15bd
00000170: 51d8 ea3d bed1 9f3d 719b 023d 38be 80bd
00000180: 279c 5a3d e7e6 e53c 4c24 4cbd d3bd b1bd
00000190: 2d4d 2d3d 195e 0dbe 4b97 a0bd 41cb 23be
000001a0: fa6e f33d 05f5 ba3e 7d1b 203d 144d 333d
000001b0: ebda cd3c e357 fe3d a12d 79bd a380 2dbc
000001c0: 4a24 11be 4d30 e1bd f7bf 9c3d ef5d a1bb
000001d0: 6beb b7bd e9c3 bfbe 2a23 2cbe 29b9 a53a
000001e0: 7abe ce3d 2691 1c3d 2153 bdbc d1ab 1abe
000001f0: 0c73 22be 2d2a e63d b3f2 aa3d ff89 053d
00000200: e798 0b3e 4d0e 683d d110 c43c d0e5 94bd
00000210: fd46 003d da28 833c 3dbd c8bc 257b 99bd
00000220: ff9d 06bd 0347 eebd eb72 cb3d 7c18 0d3e
00000230: b2a6 793d 42d0 aebd 0132 3abc c8c8 b1bd
00000240: 2ac1 b03d 612d 233c 3af3 863e 9ce1 4abd
00000250: 3a3e 583e 8a29 e03d ecb5 52bd 43cb c1bd
00000260: 08a1 0abd 8b3c 623d 0866 d23d ff14 843d
00000270: 5f05 f93c 5a60 ae3d 9f38 69bc 9b0e 7e3d
00000280: 8b32 8abd cb44 a83d ea71 ed3d 266c 53bc
00000290: 0cdc 0cbe c167 51bd cd5f debd 2f19 723b
000002a0: 6e09 ac3d ab1b c03d acaa 1a3e 7d98 a4bc
000002b0: 26d0 5dbd 7f82 83bd 3689 b2bd 82a5 fbbd
000002c0: 0b2a fc3c e242 b53c cf4b 52bd c325 c13c
000002d0: 6139 503d f73f 1abd 888a 7bbd 3b0f ec3d
000002e0: 7599 1b3e 4471 8cbd 45f6 f4bd 71da 26be
000002f0: a091 313d edbd f83d be1b 083e ac5b b93d
00000300: e129 dfbc ec8c 82bd 359d 423d 044f a0bd
00000310: 2d1f d5bd 3000 72bd a530 c2bd a219 293d
00000320: 3ca3 22be f42c 933c d74b a9bd c5a7 a33d
00000330: 4938 a0bd 006c 9fba 90ee 20bd db69 443d
00000340: d0de a13c 4cc2 9abd 0d77 f5bd 58cf 35bd
00000350: 8a1b 823d 4089 04be 6ed2 17be fb0e 23bd
00000360: 49e2 913c a037 e1bd fedb 9e3d 3a62 28be
00000370: a0b9 1fbe c8b9 d9bd b20c aabd 1fb3 6fbd
00000380: 2315 bfbd b897 fe3c 1c1c 633d a674 14be
00000390: cac6 5abd 176e c23c 5099 31bd 07f9 893d
000003a0: 2a2d d6bd 327f 863d 91d7 bbbc 795a b8bd
000003b0: 9117 b4bc f01f de3d 851c e33c b056 71bd
000003c0: 00d5 f23c a54c 213c 4d6a 4a3d 5718 cb3c
000003d0: c78c b3bc 3bdf f43c 11c0 2fbb 19d8 45bc
000003e0: d642 8e3d d966 883d e46a 13bd e783 c8bc
000003f0: b289 383d 6000 f0bd a7fd 42bd 6238 e5bd
-0.009909473 0.010066562 0.06570099 0.053367108 -0.15105823 0.1936364 0.07035815 -0.02460857
0.08096643 -0.16346602 0.14701031 -0.05419988 0.06749007 -0.04938926 0.10818742 0.0061052963
-0.028759224 0.067287095 0.20016764 -0.010071369 -0.034613706 0.10243384 0.16511859 -0.077771045
-0.13647582 -0.090399995 0.05224365 0.07358819 0.02795112 0.12139982 0.045003552 -0.0283235
0.07570541 0.08890591 0.06791362 0.07808159 -0.14411147 -0.0037497852 -0.023857003 0.132648
-0.08427128 -0.02082566 0.094390154 -0.07410472 0.034398966 -0.09960518 -0.09089797 0.046237104
-0.007860435 0.06043752 -0.0032898453 -0.06323048 0.12463518 0.21507595 -0.18735495 -0.029418955
-0.049537156 0.045021843 -0.046369072 0.03781785 -0.040168677 -0.04723808 -0.03775468 -0.06391681
-0.021491855 -0.01683892 -0.077613555 0.039175633 0.08154391 -0.026472015 -0.052285362 0.13095702
0.046575278 -0.22901446 -0.12558381 0.14860015 -0.08807811 0.11635158 -0.030420886 -0.07860285
-0.26684868 0.032899253 0.1723093 -0.075596675 0.17131113 0.105142966 -0.02538945 -0.114723116
-0.22656937 -0.008770106 0.13788725 -0.03652092 0.1146704 0.07803677 0.03188652 -0.06286281
0.053371575 0.028064204 -0.049839303 -0.08678784 0.04230993 -0.13805427 -0.07841357 -0.15995504
0.118864015 0.3651506 0.039088715 0.04377468 0.025128802 0.12419107 -0.06083453 -0.010589751
-0.14174 -0.10995541 0.07653802 -0.004924528 -0.08980449 -0.37454155 -0.16810289 0.0012643683
0.10094924 0.03822436 -0.023110928 -0.15104605 -0.158642 0.11238513 0.083470725 0.032602306
0.13632546 0.056654263 0.0239338 -0.07270396 0.0313177 0.01601069 -0.024504298 -0.07494191
-0.03286552 -0.11634638 0.09934028 0.13778871 0.06094999 -0.08535816 -0.011364461 -0.08680874
0.08630593 0.00995955 0.26357442 -0.049531564 0.21117488 0.10945423 -0.051443025 -0.09462597
-0.033844978 0.05523352 0.10273367 0.06449317 0.030398069 0.08514471 -0.014234691 0.062025648
-0.067479216 0.08216246 0.11593993 -0.012904203 -0.13755816 -0.051124338 -0.10858116 0.003694128
0.08400236 0.09380277 0.15104169 -0.020092243 -0.054153584 -0.064213745 -0.08717577 -0.122874275
0.030781766 0.022126619 -0.051341828 0.023577577 0.05083597 -0.037658658 -0.06141141 0.115263425
0.15195258 -0.06857541 -0.11961035 -0.16294266 0.04335177 0.121456005 0.13291833 0.09050688
-0.02724165 -0.06374535 0.047513206 -0.07827571 -0.10406337 -0.05908221 -0.094819345 0.04128421
-0.15882581 0.017965771 -0.082664184 0.07990984 -0.078232355 -0.0012162924 -0.03929001 0.047952514
0.019759566 -0.075565904 -0.11985598 -0.04438719 0.06352909 -0.12942982 -0.14826366 -0.03980921
0.017808096 -0.10996938 0.07756804 -0.1644372 -0.15598154 -0.10631138 -0.08303203 -0.058520433
-0.093302034 0.031078205 0.05544673 -0.14497623 -0.053412236 0.023734136 -0.0433591 0.06736951
-0.10457833 0.06567229 -0.022929939 -0.09001631 -0.021983894 0.10845935 0.02772356 -0.058920562
0.029642582 0.009844934 0.049417783 0.02479188 -0.021917714 0.0298916 -0.0026817361 -0.0120754475
0.06946342 0.06660242 -0.03599061 -0.024476958 0.04505319 -0.117188215 -0.047605183 -0.11192395

bias f4 [64]
00000000: 4e13 c43d e9a0 e7bc 119d c73d 7c18 d9bd
00000010: 4b69 123e 3a26 3abd c510 9dbe 7952 733d
00000020: 3800 59bd d663 a0bb 51a0 f43d 8432 d23d
00000030: 6540 2e3c b459 da3d e3bc 01be 12ff a53d
00000040: 1c04 d6bd 8084 cfbd 0a62 393c 14f0 b33c
00000050: 2d75 d43d 3ed1 563c c866 0cbe f438 163d
00000060: 9d37 f8bd c684 8d3d dcea 633d 2632 463e
00000070: be0f 43bd c4d7 bc3d 3bbd b4bd 20fa 46bd
00000080: 389d 263e 8302 813d a897 043d e01b e23d
00000090: 94ec 82bd d2d7 e13d 2668 b1bd 719e 76bd
000000a0: e819 a3bd f563 e6bd 1e83 59bd aece 0fbe
000000b0: 66c3 c8bd a6b2 ebbd 6768 c53a 47a1 c1bd
000000c0: da7a 313d 69f6 0bbd 20dd 1ebc 2aba 993d
000000d0: 6966 33bd b635 ce3c a305 41bd c350 843c
000000e0: 344a c93c 31fd c3bd 98da 593d 5485 a5bd
000000f0: 160a 903d b017 a0bd 313c 64be a1fe eb3d
0.095739946 -0.02827497 0.09746755 -0.10600373 0.14297979 -0.045446612 -0.30676857 0.059404824
-0.052978724 -0.004894714 0.119446404 0.10263541 0.01063547 0.10661641 -0.12669711 0.081052914
-0.104500026 -0.10132694 0.011314878 0.021965064 0.10373912 0.013111411 -0.13711083 0.03667541
-0.121199824 0.0691009 0.0556439 0.19355068 -0.047622435 0.092208415 -0.08825155 -0.04857838
0.16270912 0.06299307 0.032371193 0.11040473 -0.0639278 0.110274926 -0.08662443 -0.060209695
-0.079639256 -0.11249534 -0.05310356 -0.14043686 -0.09802894 -0.11508684 0.0015061022 -0.09454589
0.04333005 -0.034170542 -0.009696275 0.07506211 -0.043798838 0.025172096 -0.047124516 0.016151791
0.024571516 -0.09569777 0.053186983 -0.08082071 0.07033174 -0.07817018 -0.22288586 0.11523176

weight f4 [64, 64]
00000000: 4441 dfbc 224f b9bb f27f 613c a71c eb3d
00000010: f5e0 db3d ddb8 39bc 3cfa 533d eb7c 03bd
00000020: e3d7 743c 1b40 eb3d 6998 7bbd 0fd9 3dbd
00000030: ff10 81bc eb36 333c 0352 893d 3b3b 8d3d
00000040: 1881 3f3d a6bd f93d 05f7 ae3d b7cb 8d3d
00000050: 0ccf f5bd ad5b b6bd 00a3 b6bd 5089 693c
00000060: 35cd ec3c 8152 41be dae2 bcbd c782 c63b
00000070: f51a 4b3e 8a07 093e da59 433c 0b01 bcbd
00000080: 43ea 38bc def3 80bd e85b 9a3d cd09 10be
00000090: 816f 7cbd 2e37 373e 30a7 403d 0038 5c3d
000000a0: adb6 09be 78e5 fcbc 5364 d23b 39d8 5dbd
000000b0: dfc9 fdbd 00ff 013e a189 1dbe 1eb8 8e3d
000000c0: 75af 8abd 2d32 acbd 0100 52bd ffda 4abd
000000d0: b5ee c2bd a2ce 3ebd 8c44 bfbc 7293 e4bc
000000e0: 775d 2e3d 1d19 b53c b8ff c83c ffff 6ebe
000000f0: 0b92 18be 51a6 343d db5b db3c 1712 8fbe
00000100: b636 ab3c 2ef4 313d b602 5b3d 5c27 183d
00000110: d4c7 a63c 935d 09be c2d5 1b3e fc59 33be
00000120: 7f13 903e a1d3 4abd c36d 9bbe 902a 5d3e
00000130: c32a 4bbc 03ac 4d3d 852f e2bc 7a58 983d
00000140: bb8e 3d3e da0c cf3d b799 7a3d 0f88 183d
00000150: 84c7 94bd 13af d1bd b3bb 97be 8a8f ee3d
00000160: c322 6cbd 48d2 103d 36be 4b3d c623 c63c
00000170: 43d9 483e 66b6 e8bd 0a3d ae3c f964 00be
00000180: c682 683d d993 edbd e042 103c 7d45 b5bd
00000190: 89b4 4a3e 25de 2d3d 34eb 3a3e 6113 3b3d
000001a0: 9261 a33c 1040 103d a752 12bd 2756 fcbe
000001b0: 0376 0e3d 2f47 1f3b da2d 35bd a23f b53d
000001c0: b296 de3d 1bf4 393d ee5e a33d 6108 673d
000001d0: 069b 823d 8c1c 823d e1e0 643d 9062 003e
000001e0: 1db4 d93d a84f 0d3e e6d1 b03d 0cb4 8e3e
000001f0: 4a49 f33c 5a0c 97be c4cb 99bd a9e0 3bbe
00000200: e6d5 c9bd 5e7f cb3d e12d 833d ea08 81bd
00000210: 6571 06be 4c89 2bbd d4ee 1e3d fc7b e43c
00000220: b073 e4bc 90e5 33bc f391 b6bd 4842 2dbd
00000230: 48b9 50bd 9260 03bd 70c0 773d 9ff2 b53d
00000240: 120a a6bd 54d8 133d 5faa b6bc 2ba3 07bd
00000250: f259 55bd 604d c1bc f1e7 b5bd 85e6 eabc
00000260: a6f8 81bd 1e88 12be 29b3 b8bd 49c2 a6bd
00000270: f231 0d3d b741 0bbe ea81 92bc 779c ebbd
00000280: 4435 55bd 8197 cdbd 97be 50bd 9132 05bb
00000290: 84b4 4e3b 3e98 813d c89d cd3d e5ba 343d
000002a0: 0a8f 6f3d 5002 b6bd 2774 a6bd 3737 8cbd
000002b0: 61a3 8b3d 19a4 9f3d e017 c7bd 11d0 09be
000002c0: 1fdf 483d def6 333d d445 f4bd cffe a3bd
000002d0: fcc1 05bd 2f4a 3c3d 0e94 8f3d bc89 213c
000002e0: 3589 da3d 0bf3 e53c a87b 96bd c6c8 8bbd
000002f0: 938e 39bc 1205 a83d 8bd0 fe3c a05c b2bd
00000300: 8031 d3bc 2851 c2bd 1c2c d3bd 3a6a 99bc
00000310: 9bce bc3d fa4f b33d a991 51be 8142 513e
00000320: 17a6 05be 1410 77bd e3f2 593a c4db a63d
00000330: 4e34 363e 3f7e 20bd d5b8 88bd daf1 483d
00000340: 86b4 b63d 20a6 573c bfc7 9cbd 52df f63d
00000350: 68ac 673d 8034 f3bd 671f 86be 364f 5c3d
00000360: 621c d23d 6320 123e fa9e 05be ae41 e8bd
00000370: 0d70 a03d ec16 e33c 83b2 103b d443 dbbc
00000380: 71f8 273d fa05 773d 861b 083e 489d bebc
00000390: 5d25 1cbe 9e9c 39bb 4b8d 0cbb ead3 3e3d
000003a0: 2d5c 843d f8e4 bd3c bd76 be3b d967 b43d
000003b0: d1ca 9d3c d418 fabb 30e0 05be 674b acbd
000003c0: ec71 03be f7fb 23bd efc4 c8bc 9277 ca3c
000003d0: 98e8 c7bd 3554 133e 493f 85bd 19af 9bbd
000003e0: f08c b43d 53d0 febd ac09 be3d b6f1 58be
000003f0: 6552 90bd 0f70 803d d372 c53d 245c 95be
-0.0272528 -0.0056551853 0.013763415 0.114800744 0.107362665 -0.011335579 0.051752314 -0.032101553
0.0149440495 0.114868365 -0.061424647 -0.04634958 -0.015755175 0.010938386 0.067050956 0.06896063
0.046753973 0.12194376 0.08543209 0.06923621 -0.12002382 -0.089042045 -0.089178085 0.014253929
0.028906444 -0.18879129 -0.09222956 0.0060580703 0.19834502 0.13381782 0.011923278 -0.091798864
-0.011286321 -0.06296514 0.07537061 -0.14066239 -0.061629776 0.17892143 0.047034442 0.053764343
-0.13448592 -0.030871138 0.006420651 -0.054161284 -0.123920195 0.12694931 -0.15384533 0.06968711
-0.06771747 -0.08408008 -0.051269535 -0.049525257 -0.09518186 -0.04658378 -0.023348115 -0.027902339
0.042569604 0.022106702 0.024535999 -0.23339842 -0.14899461 0.044103924 0.026777199 -0.2794349
0.020900112 0.04344576 0.053469382 0.03714691 0.020358957 -0.13414602 0.15218261 -0.17514795
0.28139874 -0.04951823 -0.3035718 0.21598268 -0.012400332 0.05021287 -0.02761055 0.074387506
0.18511479 0.10109873 0.06118175 0.03723913 -0.07264617 -0.10238471 -0.2963539 0.11648472
-0.05765034 0.03535679 0.049741946 0.02418698 0.19614129 -0.11362915 0.02126934 -0.12538518
0.05676534 -0.11600465 0.008805007 -0.088511445 0.19795431 0.04244818 0.18253785 0.045672778
0.019943986 0.035217345 -0.035723355 -0.4928448 0.034780513 0.0024303903 -0.04423318 0.088500276
0.108685866 0.045398813 0.07977091 0.056404475 0.063772246 0.06353101 0.055878524 0.12537599
0.10630057 0.13799918 0.08633785 0.2787174 0.029698033 -0.2950161 -0.07509568 -0.1834742
-0.09855251 0.09936403 0.06405235 -0.06300528 -0.13129194 -0.041878983 0.038801983 0.027891152
-0.027887195 -0.010980025 -0.08914556 -0.04229954 -0.050957948 -0.03207452 0.060486257 0.08884167
-0.081073895 0.03609498 -0.022298036 -0.033114593 -0.05208773 -0.023596466 -0.0888213 -0.028674373
-0.06346254 -0.14309737 -0.09018547 -0.08142526 0.03447146 -0.13599287 -0.017884213 -0.11504453
-0.05205275 -0.10038663 -0.05096301 -0.002032433 0.0031540701 0.06327866 0.1003986 0.04412355
0.058486022 -0.0888716 -0.08127623 -0.06846469 0.068182714 0.07794971 -0.09721351 -0.13458277
0.04904091 0.043936603 -0.11927381 -0.08007585 -0.0326557 0.045969184 0.07010661 0.009859499
0.106707014 0.028069993 -0.07347804 -0.06825404 -0.011325496 0.08204092 0.0311053 -0.08709073
-0.02578044 -0.094881356 -0.103111476 -0.01872741 0.09219094 0.08755489 -0.20465721 0.20435525
-0.1305164 -0.060318068 0.0008314086 0.08147386 0.1779339 -0.039182898 -0.06675879 0.049058773
0.08921151 0.013162166 -0.07655286 0.12054314 0.056560904 -0.11875248 -0.26195833 0.05378648
0.1025932 0.14270167 -0.13048926 -0.113406524 0.07833872 0.027720891 0.0022079058 -0.026765741
0.041008417 0.060308434 0.1329175 -0.023268357 -0.15248628 -0.002832211 -0.0021446522 0.046588816
0.06462894 0.02318047 0.0058124945 0.0880887 0.01926175 -0.0076323543 -0.13073802 -0.08412819
-0.12836426 -0.040035214 -0.024507968 0.024715219 -0.097611606 0.14387591 -0.06506211 -0.076017566
0.08815944 -0.124420784 0.092791885 -0.21185955 -0.070469655 0.062713735 0.096410416 -0.2917186

bias f4 [64]
00000000: 5dc5 2c3d 722c 1bbe b43e 453d 22d3 f73d
00000010: 9bd0 6f3d c2a0 f53d e07f a4bd d22a fc3d
00000020: 87d8 7e3d ed81 c63c e239 34be 1536 b33d
00000030: d071 7bbd 461f 9b3d 9fb8 d23d 7655 e93d
00000040: 70d9 20bd f0a9 7a3d 83b3 a1bb 66fc 653d
00000050: d08b bcbd 0919 d9bd ef5d a2bd 8f86 063d
00000060: a34c 90bd 1b40 483d 0850 f6bc 40bf 043a
00000070: 32e5 af3d 471a f03c a3fc 22bc a7b3 e8bc
00000080: 1d4c 553d cd9e dbbc d494 513d daf0 493d
00000090: bab5 943d 0c81 0b3e d0a8 a03d 1f28 acbd
000000a0: 362c 1dbd 6cda f23d 85b6 873d f92c fdbc
000000b0: e4d6 e2bc 76e4 273d db68 b33c f371 ee3d
000000c0: 80b2 1bbc e127 e7bd f1fa c63d 8c7c c83d
000000d0: 8ffa 6c3d 559f 8f3b d227 173c a7ae fa3d
000000e0: de37 1cbd b2b3 1cbd 1336 503d fdf0 e4bc
000000f0: cd86 9c3d c56a 2ebd a673 83bd 271f 96bc
0.042180408 -0.15153673 0.0481555 0.12100817 0.05854855 0.11993553 -0.08032203 0.12312855
0.062218215 0.024231875 -0.17600206 0.0875055 -0.061387837 0.07574324 0.1028912 0.113932535
-0.039269865 0.06119722 -0.0049347295 0.05614891 -0.092063546 -0.10600478 -0.07928073 0.03284317
-0.07045867 0.04888926 -0.030067459 0.0005063899 0.085886374 0.029309405 -0.009947929 -0.028405977
0.05207454 -0.02680912 0.051167324 0.04930196 0.07261224 0.13623446 0.078446984 -0.0840609
-0.03837224 0.11858067 0.0662661 -0.030905234 -0.027690358 0.04098936 0.021900585 0.11642828
-0.009503007 -0.11286903 0.09715832 0.097893804 0.05785614 0.0043830075 0.0092258025 0.122403435
-0.038139217 -0.03825731 0.05083282 -0.027946943 0.07642899 -0.042582292 -0.064185426 -0.018325401

weight f4 [3, 64]
00000000: a34f 8bbd 5c29 073e 31b3 c4bc d6e7 38bd
00000010: b5d3 dbbd 53b4 92bd c74d 313e fb66 ff3d
00000020: 1ca3 7c3c dd09 b2bd 7897 ffbd 3846 1dbe
00000030: f37f 5c3d c5cc 053e 505f ddbd 5edd 113e
00000040: 25bc 9fbd 2ab0 553d 8f95 443e 8894 f5bd
00000050: 4682 f8bd 0fd7 a3bd 1f6f c3bd 13db aebd
00000060: fbcd 4c3e 1d79 30bd 409a 763d f92e d4bc
00000070: 8aa4 983b 242a 04bd d234 b23d 436f c93d
00000080: cee0 87bd 1bf7 13bd 56aa cfbd 91a0 5e3d
00000090: 83d6 a43d b585 2cbd a687 f2bd 57aa b8bd
000000a0: 149c 88bd 5812 393d 9c09 38bd 6151 debc
000000b0: 4f10 fb3d 254b 93bd dfff 91bd 779b fcbd
000000c0: 5252 e8bd 2397 7ebd 96aa 973d 6cff 073e
000000d0: 1c76 653d 0dae 023d 0526 7b3d be9e 213c
000000e0: 0501 e6be f3b4 0dbe 64f7 d63d 0f65 403b
000000f0: 0ada 2f3e 48ee 47bd 3741 b63d 4186 10be
00000100: 6931 22be 05da a03d c040 1a3d eae2 36be
00000110: 9a7f 43bd f610 d3bd 728c 2f3d 3fa6 f0bd
00000120: a32e dfbd 5b1b a3bd 7e89 fcbc bbf1 f5bd
00000130: b32b 13bd d0c0 523d 62ce a3bd 55e8 1fbe
00000140: 8d6d 9f3d ccbb d5bc c98a 0fbe c3d8 33bd
00000150: ca7d ccbd b9e3 06be c4c7 c5bd c09d b03d
00000160: ee97 703d 2337 2bbd 0233 da3d ba69 a03d
00000170: 05d7 ca3d e1a3 eebd 17fc 2abe 71e2 26bd
00000180: 240f a73d 38eb 4b3a d9b0 573d 3cce 773d
00000190: c736 9a3d 7dbd 833d 4d6c 24be 5af7 663d
000001a0: ea99 833d 00c9 21bd 3899 833d 797a d3bc
000001b0: a257 1e3d 7ce1 a4bc 8807 fdbd 0a95 cb3d
000001c0: 9003 8bbd 1b44 d43d 6c18 8bbd 49ae aebd
000001d0: 82bd b1bd 0bcc 90be 0a6f ef3d b61a b83d
000001e0: 4942 e0be 4377 2b3e 4955 cdbd 802b 993a
000001f0: 9f9a 0dbe a1a9 f7bd f659 913d c969 213e
00000200: 5fde c83d f3be 80be 7773 823d 70e7 0b3d
00000210: fdc9 86bd 35e5 303d 4faf 5a3d f002 cc3d
00000220: 4e92 d13d a2eb c93d 1a2a 17bf 15a4 273d
00000230: 3e0d 0dbc 760e 69bd 2fe2 8bbd d3a6 913d
00000240: dd57 f7bd 54bb d3bd e7a6 3b3d b8f5 7fbd
00000250: ec8d 353d 05d9 673e f4e0 bc3c a8f2 5c3d
00000260: c2cf 3ebd 987d 963d 3673 b3bd ea84 61bd
00000270: 071a dcbc b1cc b83d 9664 653f b645 bd3d
00000280: 2075 46bd 681b 28be 315b c2bd bb93 29bd
00000290: d645 18bd 9d4e ddbd 2f98 51bd cfd6 a6bd
000002a0: a60b 08bd 8ba9 a93c 44b2 c73d c58b 1f3d
000002b0: 6c4b 513e 8d91 f83d 321d 043d 45cf 76bc
000002c0: e07d b53d cf93 803c c960 963d fed1 cc3d
000002d0: 0451 c03d c78a 04bf 4606 a8bd 2558 5ebd
000002e0: 1d8f 4a3e 1a94 dc3d e37b 15be 1643 77bd
000002f0: 2248 d0bd 7758 5e3b cee1 d63e 59dd 203c
-0.06802299 0.13199371 -0.024011226 -0.04514297 -0.10733739 -0.071633 0.17314826 0.12470814
0.015419748 -0.086932875 -0.12480062 -0.15358818 0.05383296 0.13066395 -0.10809195 0.14244601
-0.077995576 0.052169956 0.19197677 -0.11991221 -0.12134223 -0.080000035 -0.09542679 -0.08537879
0.2000045 -0.043084253 0.060205698 -0.025901305 0.0046582865 -0.03226675 0.08701481 0.098356746
-0.06634675 -0.03612433 -0.10139911 0.054352347 0.08048727 -0.0421197 -0.11842279 -0.09016865
-0.066703945 0.04518351 -0.04493104 -0.027138414 0.1225897 -0.07192067 -0.07128882 -0.1233434
-0.11343826 -0.062155854 0.074055836 0.1328103 0.05602084 0.03190427 0.061315555 0.009864507
-0.44922653 -0.13838558 0.10496405 0.002935711 0.17173019 -0.048811227 0.088991575 -0.14113714
-0.15839161 0.07854084 0.037659407 -0.17859998 -0.047729112 -0.103059694 0.04285855 -0.11750459
-0.10897567 -0.07964202 -0.03082728 -0.12008997 -0.035930347 0.05145341 -0.07998349 -0.15615971
0.07784567 -0.026090525 -0.14017786 -0.043907892 -0.0998493 -0.13172807 -0.09657243 0.086238384
0.05873864 -0.04180063 0.1065426 0.07832666 0.09904293 -0.11652351 -0.16697727 -0.040743295
0.08157185 0.0007778886 0.05265889 0.060499415 0.07529979 0.064326264 -0.16056938 0.056388237
0.06425841 -0.03949833 0.064257085 -0.025815235 0.038657792 -0.02012705 -0.12354952 0.09940536
-0.06787789 0.103645526 -0.067917675 -0.08529336 -0.08678724 -0.28280672 0.11691101 0.0898947
-0.43800572 0.16744713 -0.100260325 0.0011685938 -0.13828515 -0.12092901 0.07097237 0.1576301
0.09808039 -0.25145683 0.063696794 0.034156263 -0.06581495 0.04318734 0.053389844 0.09961498
0.102329835 0.098593965 -0.59048617 0.040927965 -0.008609114 -0.056898557 -0.068302505 0.07111897
-0.120773055 -0.103384644 0.045813467 -0.062490195 0.0443248 0.2264138 0.023056485 0.053942353
-0.046584852 0.07348174 -0.08762209 -0.055058397 -0.02686788 0.09023417 0.89606607 0.09241812
-0.048451543 -0.16416705 -0.0949005 -0.041400652 -0.037175976 -0.1080601 -0.051170524 -0.0814644
-0.033214234 0.020710727 0.09750798 0.038951654 0.20438927 0.121371366 0.032254405 -0.015064065
0.088618994 0.01569548 0.07342679 0.1000099 0.093904525 -0.5177426 -0.082043216 -0.05428328
0.19781156 0.10770436 -0.1459804 -0.060366713 -0.10170008 0.003392724 0.4196915 0.009818398

bias f4 [3]
00000000: 9672 4dbd 07c4 b63d dd68 b93d
-0.050158106 0.08924108 0.09053204

exp_avg f4 [64, 3]
00000000: 3fb7 02b9 1de1 833a 0977 703a 13c0 8a39
00000010: 2a2f 88b9 3222 82b9 5e3f 6238 9cbc 9f37
00000020: 558d 6eb9 445d 1db9 f10f 5d36 0b5a 8d39
00000030: c4bb 173a 63f3 f3b9 3e41 2039 04a7 a1b7
00000040: 56e7 57b9 faba e2b9 c628 03b6 cd4e 3db8
00000050: cbd0 93b8 7d90 a6ba bae6 c939 d817 6e3a
00000060: 5490 3c3a a544 b6b9 7fb3 38b9 1263 0fbb
00000070: b77a 9dbb c119 a4b9 6d94 44b9 71c2 e4b9
00000080: 2a95 b3b9 861b f439 1d4a 9c39 180e a5b8
00000090: 0b7e db37 03bb 2639 e0b7 ea38 258b e937
000000a0: ca8d 5eb9 b32f da38 30b9 073a d40c 18b9
000000b0: b689 8ab8 861d 79b8 caf8 8638 ad89 2839
000000c0: 968d 02b9 ebf9 2539 488c 86b9 bef2 b539
000000d0: 3eef d538 d53f 8bb8 78fd f639 f1cf 8839
000000e0: 0fac e8b7 8705 04ba 732d b839 a43a 30b9
000000f0: cff3 133a a66d 8238 d7b0 0e3a deeb ce37
00000100: 88a0 8bb8 b3e2 d939 a748 14b9 427b 2a39
00000110: 4a11 16b8 67e5 8739 89b9 33b9 bae3 11ba
00000120: bb08 1738 3b90 aa3a 081e 543a 1fe6 fdba
00000130: 3ed7 9db9 3262 9f39 eab4 2138 e406 b8b7
00000140: d65e 32b6 37a1 0d3a eb9d dd3a ea73 023b
00000150: 67a1 d9b9 b486 06b9 ef36 88b9 8041 67b9
00000160: a855 d837 6d79 bcb9 a8c2 da39 6c8f bfb9
00000170: fc2a 2cb9 936b 00b9 3d39 463a 8dae 523a
00000180: e24a 91b9 476c 8d39 50c9 2c38 72c6 40ba
00000190: 97ca 7bba 418c 57ba 7cbb e038 cfb2 1fb8
000001a0: 451f d4b8 4f7f 83b9 6466 00ba 85a4 1cb9
000001b0: e565 5339 1bb7 e8b9 c6ca e739 8ae4 e1b8
000001c0: 6c8e 98ba 12fb 403a 0000 0000 0000 0000
000001d0: 0000 0000 f4eb 8939 e83d bf39 8e86 b9b9
000001e0: 5307 8c3a bb07 b839 e446 1239 0400 0080
000001f0: 0400 0080 0400 0080 cc0d 49ba 28b0 fbba
00000200: 49f7 36ba 7d71 93b6 30ea 82b8 ddfb 43b9
00000210: 3f60 6439 f68e 81b8 b4f5 b0b9 7427 a3ba
00000220: fbb9 36ba cc9d 90ba 741b 58ba a3d7 fab8
00000230: 92ad 0738 e5e8 c9b9 e6cf 16ba a894 92b9
00000240: 256a 613a cf2d f2ba 61d5 413a 7317 75b9
00000250: cd79 23ba eed5 1838 b339 7e3a 6783 5f39
00000260: 4e22 0fba ddb6 acba d6a6 ff39 1b56 0339
00000270: 43c0 4eb9 50bf 6a39 2035 b939 14b4 85ba
00000280: 0e70 cd39 5e5e 073a 49d4 86ba b722 133a
00000290: a18c 6d3a 72cd a639 fabf 58b9 7237 fcb9
000002a0: 8eef 8738 b6b1 0f3a a9bd 0339 4b75 0939
000002b0: b2c4 bbb9 c6e0 263a 033e c13a f7f6 7dba
000002c0: 9e1b 833a 6c09 a93a 75c5 2cba d6c4 393a
000002d0: 41ae 8b3a dced 5e3a 9b61 e2b9 f918 07b9
000002e0: a2fa bc38 70ab a939 3729 3a39 f3e5 2bb9
000002f0: bff0 d638 eedf 02ba 1e16 9239 0073 9db8
-0.0001246603 0.0010061596 0.0009173011 0.00026464518 -0.0002597508 -0.0002482101 5.3941614e-05 1.9042105e-05
-0.00022750099 -0.00015007431 3.2940845e-06 0.00026960703 0.0005788172 -0.0004652991 0.00015283094 -1.9270468e-05
-0.00020590177 -0.00043245387 -1.9544254e-06 -4.51345e-05 -7.048397e-05 -0.0012707856 0.00038509612 0.00090825325
0.00071931374 -0.0003476489 -0.00017614475 -0.002187912 -0.0048058885 -0.00031299706 -0.0001874731 -0.0004363242
-0.00034252676 0.00046559813 0.00029809857 -7.870438e-05 2.6165528e-05 0.00015900661 0.00011192239 2.7840559e-05
-0.0002122439 0.00010403935 0.00051774364 -0.00014500628 -6.6060034e-05 -5.9393722e-05 6.4359585e-05 0.00016073017
-0.00012450511 0.00015828728 -0.0002566299 0.00034703867 0.00010201194 -6.639926e-05 0.00047109625 0.0002609487
-2.7736676e-05 -0.0005036224 0.00035129077 -0.00016806513 0.00056439353 6.219307e-05 0.00054432213 2.4666948e-05
-6.657938e-05 0.0004155837 -0.00014141445 0.0001625838 -3.577889e-05 0.00025920125 -0.00017139887 -0.0005565245
3.6009336e-05 0.0013012955 0.0008091633 -0.001937095 -0.00030105741 0.00030400004 3.855388e-05 -2.1937718e-05
-2.6579269e-06 0.0005402746 0.0016908025 0.0019905516 -0.0004150972 -0.00012829417 -0.0002598087 -0.00022054277
2.5789093e-05 -0.00035948624 0.0004172523 -0.00036537217 -0.00016419211 -0.00012247106 0.000756163 0.00080368744
-0.00027712347 0.0002697429 4.1195482e-05 -0.00073537894 -0.00096050784 -0.00082224986 0.00010716074 -3.8075083e-05
-0.00010114772 -0.0002508112 -0.000489807 -0.00014938608 0.00020160487 -0.00044386912 0.0004421083 -0.00010771405
-0.0011639125 0.0007361631 0.0 0.0 0.0 0.00026306475 0.00036476483 -0.000353862
0.0010683335 0.00035100974 0.00013950054 -6e-45 -6e-45 -6e-45 -0.00076695974 -0.0019202279
-0.00069795974 -4.394153e-06 -6.242504e-05 -0.00018690476 0.00021779629 -6.177828e-05 -0.000337524 -0.0012447671
-0.0006970462 -0.0011033355 -0.0008243837 -0.000119610944 3.2348158e-05 -0.00038511227 -0.0005753025 -0.00027958048
0.00085988856 -0.0018476787 0.00073941617 -0.00023373756 -0.0006236106 3.643886e-05 0.0009697929 0.00021315888
-0.0005460129 -0.0013177056 0.00048761693 0.0001252521 -0.00019717314 0.00022387248 0.0003532553 -0.0010200762
0.00039184134 0.0005163903 -0.0010286655 0.0005612778 0.0009061788 0.00031815056 -0.00020670882 -0.00048106496
6.481922e-05 0.0005481498 0.00012563787 0.00013109033 -0.0003581397 0.00063658913 0.0014743212 -0.0009687985
0.0010002737 0.0012896485 -0.00065907027 0.0007086521 0.001065679 0.0008504072 -0.000431788 -0.00012883906
9.0112226e-05 0.00032361923 0.00017753696 -0.00016393494 0.00010249158 -0.00049924746 0.0002786377 -7.507764e-05

exp_avg_sq f4 [64, 3]
00000000: ad1a 453b b6a3 733b ca82 9238 4048 ca3a
00000010: 999f 163a de9b 5638 82a4 1a38 090b 5538
00000020: 8c4a 3f36 946d 173a 0e0e d33a 2f0d 1438
00000030: 3660 543a 299e 513b ec9b 5e38 bc35 9839
00000040: 4bca 7239 b337 4937 32cc 3036 ad92 8236
00000050: eade 5335 4f23 113b 4f81 a43a 3899 4d38
00000060: 7c5d bf3a f507 a23a 64ef 2039 95eb 5039
00000070: dbc8 5839 0e67 d437 8521 8638 67db cc38
00000080: 70de 1738 8688 0539 abf1 d437 400d d437
00000090: d9a9 1837 34df 8637 ce8a f035 b705 2d39
000000a0: 4762 1539 6350 1938 37ba 9239 1988 2d39
000000b0: 4896 f536 d041 f136 019d 5037 3902 d535
000000c0: bbd5 5338 5d23 4138 8578 a437 e2d3 4039
000000d0: 5c8b c538 ec17 ad38 3cf7 5c3a 63c0 733b
000000e0: 98e3 9a38 a4a9 f83a f187 9a3a 776b 3438
000000f0: 8590 453a 4ff9 823a 5385 2b38 6455 8839
00000100: b1b8 7a39 6f72 6e38 df61 d139 40fc 043b
00000110: 7774 6638 e985 2d3a a11a 9039 cafa 3e39
00000120: ddf3 113a 96e6 a93a 7733 a938 55db 1b39
00000130: 9bd6 9437 7794 2237 42d4 c235 6e7e 8d35
00000140: 1c19 b935 e698 a737 9766 9238 f27f b137
00000150: 63d1 0b3a bd9b 9f39 4eef 7436 0f08 0439
00000160: fb92 0739 a8dc 2537 2201 193b 0dab 163b
00000170: 3311 c438 c7f7 8b39 747c 323a 5949 0c38
00000180: 2135 333a fd16 4e3a f288 9c37 fbff 443a
00000190: 140b 793a 65b4 2b38 16dd 043a 0ebe 7039
000001a0: 4522 3038 97fe 013a 66d0 d539 b20f 9837
000001b0: 3af2 0339 3d7c 6738 b88c b537 c6b2 853a
000001c0: 4e10 153b 8e6a fb38 0000 0000 0000 0000
000001d0: 0000 0000 5688 7239 8491 383a 763f a739
000001e0: 9361 743a a994 2739 1cf2 f538 0786 4234
000001f0: e47d a333 be5a 9034 1bff fa39 4cb1 883a
00000200: 2c2b 7938 bd94 7039 f0bb be3a 20af 2839
00000210: 2275 ca3a 260f 033b bc22 ac37 bd28 e83a
00000220: 0b14 1d3b b9cf 9637 c48d 5339 5cbb 213a
00000230: adf9 4139 d4e0 c239 1c30 3239 2186 5737
00000240: 4f5d de3a 9f2c f83a 68fa 8b38 3a57 d538
00000250: 1c94 4938 101b ae37 f791 613a 164b 253b
00000260: 771f 7139 7cd5 cd3b 968b 3d3b dcc6 c839
00000270: 62bd 423b 632a ab3b c433 a138 de8e d43a
00000280: 9a86 d739 c1df ac39 4003 133b 2569 813a
00000290: 9422 0039 5890 1839 0e4f 713a 68c1 6037
000002a0: b68a 453b a2aa d23b d356 b938 45e6 1d39
000002b0: 6d50 ed38 3151 d537 989e 033b 69b3 f73b
000002c0: fa50 5539 83b2 df3b a237 6e3a 313d 0939
000002d0: 501a 1839 70cd 333a 60b0 2e39 0980 8838
000002e0: cc12 0539 7323 b737 1dee 3d3a 778a 2e3a
000002f0: 3855 e837 87b4 563a ee99 cf39 0476 2337
0.0030075714 0.0037176437 6.986184e-05 0.0015432909 0.0005745828 5.116674e-05 3.686967e-05 5.0793435e-05
2.850461e-06 0.0005776521 0.0016102211 3.5298228e-05 0.0008101495 0.003198514 5.3074138e-05 0.00029031734
0.00023154278 1.1993502e-05 2.63449e-06 3.891377e-06 7.892801e-07 0.002214629 0.0012550744 4.9018505e-05
0.0014600004 0.001236199 0.00015347969 0.00019924187 0.0002067419 2.5320358e-05 6.3958614e-05 9.768345e-05
3.6208367e-05 0.00012734727 2.5384905e-05 2.527854e-05 9.099452e-06 1.6077982e-05 1.7921791e-06 0.00016500695
0.00014246358 3.655291e-05 0.0002798603 0.00016549266 7.319064e-06 7.1900213e-06 1.2434321e-05 1.5870384e-06
5.0505372e-05 4.604772e-05 1.9606445e-05 0.0001838948 9.41965e-05 8.2537386e-05 0.0008429175 0.003719353
7.385685e-05 0.0018971455 0.0011789781 4.301543e-05 0.00075364887 0.0009992513 4.0893745e-05 0.00026003562
0.00023910661 5.6850196e-05 0.00039936506 0.0020291954 5.494474e-05 0.00066193804 0.0002748566 0.00018213238
0.00055676495 0.0012962397 8.068134e-05 0.0001486366 1.7742908e-05 9.69052e-06 1.4515902e-06 1.0542115e-06
1.3790882e-06 1.997915e-05 6.980931e-05 2.1159623e-05 0.000533363 0.00030442877 3.6498127e-06 0.00012591503
0.00012929358 9.886142e-06 0.0023346622 0.0022990138 9.349212e-05 0.00026696755 0.0006808706 3.344691e-05
0.0006836225 0.0007861702 1.866042e-05 0.00075149507 0.0009500247 4.0937583e-05 0.0005068345 0.00022958984
4.1993586e-05 0.00049588963 0.00040781795 1.812712e-05 0.0001258337 5.5190398e-05 2.1642409e-05 0.0010200373
0.0022745314 0.0001198846 0.0 0.0 0.0 0.00023129708 0.00070407265 0.00031900004
0.0009322401 0.00015981741 0.00011727607 1.8116417e-07 7.613178e-08 2.6888114e-07 0.00047873784 0.0010428815
5.9406433e-05 0.00022943593 0.0014551859 0.00016086968 0.0015446285 0.0019998043 2.0520172e-05 0.0017712336
0.0023968245 1.7978122e-05 0.0002017534 0.00061695813 0.00018498926 0.00037170073 0.00016993325 1.2846228e-05
0.0016965064 0.0018934197 6.674678e-05 0.00010172879 4.8060072e-05 2.0755018e-05 0.00086048193 0.0025221757
0.00022995273 0.006281553 0.002892231 0.00038295134 0.0029714932 0.0052235588 7.68672e-05 0.0016216894
0.00041108282 0.00032973106 0.0022432357 0.0009873254 0.00012219913 0.00014549622 0.00092052005 1.3396471e-05
0.0030142493 0.0064290324 8.83766e-05 0.00015058469 0.00011316021 2.5429386e-05 0.0020083543 0.007559229
0.00020343429 0.0068267 0.00090872694 0.00013088134 0.00014505652 0.00068589207 0.00016659638 6.508834e-05
0.00012690871 2.1831807e-05 0.00072452595 0.0006658206 2.7696238e-05 0.0008190353 0.00039596803 9.743035e-06

exp_avg f4 [64]
00000000: c649 6f3a 67df 2bba 752f 1fb8 04f6 98b9
00000010: 25d2 2ab9 3b95 99b9 3901 38b9 e244 873a
00000020: 1353 6c3a a022 9dbb 870e f6b9 cb45 a3b9
00000030: 9959 8cb8 d694 4339 946e 88b9 7c0d ceb8
00000040: acf6 5e39 608f 2839 237e b2b9 554f ca39
00000050: a888 7c38 ea91 00ba 3f9e 10b7 fd6a 4eba
00000060: 115e ba3a d714 603a 382c b837 0822 253b
00000070: b10f 6439 dc6c 7839 67af 3fba 1c22 5f3a
00000080: 1826 d838 43dc 51ba 4cdb bcb9 1605 74ba
00000090: 867f 36b9 52ad 27b9 0000 0000 96cb 08ba
000000a0: c050 c4b9 0400 0000 a2e6 90ba 1081 8db8
000000b0: 7967 8cb9 7494 c5b9 cde6 a539 e1d2 5439
000000c0: 9bc2 06bb a593 05ba c4d7 3638 d38d af3a
000000d0: 4a43 d738 50b5 893a 0f43 aa3a 12bb 3cb9
000000e0: 63f1 f139 df2e bcb8 3e16 11ba 4a44 e8ba
000000f0: 12be 833a 91ee fb38 aa2b 93b9 a3d9 2b3a
0.00091281196 -0.0006556422 -3.7952752e-05 -0.00029174995 -0.00016290748 -0.0002929362 -0.00017548063 0.0010320211
0.00090150646 -0.0047953874 -0.000469316 -0.00031141783 -6.692409e-05 0.00018652095 -0.00026022329 -9.825357e-05
0.00021263462 0.0001607514 -0.00034044785 0.0003858755 6.0208753e-05 -0.00049045554 -8.619913e-06 -0.0007874219
0.0014218708 0.0008548027 2.19551e-05 0.0025197286 0.0002174962 0.00023691676 -0.0007312209 0.00085118576
0.00010306778 -0.0008005539 -0.00036021543 -0.0009308619 -0.00017404379 -0.00015990928 0.0 -0.0005218325
-0.00037444197 6e-45 -0.0011055062 -6.747444e-05 -0.00026779974 -0.00037685374 0.00031643212 0.00020296454
-0.0020562771 -0.0005095548 4.359313e-05 0.0013393707 0.000102645325 0.0010506306 0.0012989956 -0.00017998766
0.0004614695 -8.973269e-05 -0.00055346254 -0.0017720547 0.0010051152 0.00012013049 -0.00028070557 0.0006555563

exp_avg_sq f4 [64]
00000000: fbb2 273b ed34 c139 381d 1338 f1ca 503a
00000010: c960 d33a 294e 2d39 3366 9236 af1f 0d3a
00000020: d5c3 063a d727 8239 6a56 9238 3c30 bf38
00000030: f575 9237 0d01 c738 e8fe 1739 1858 2137
00000040: 9438 0538 08e7 5a38 ff30 ca3a d5bf 2c3a
00000050: 06c2 9539 c41a 3b39 1b74 8d3a 93cc a739
00000060: 93ef 463a 7718 d638 728b c035 b5ec f537
00000070: 3c17 7439 07f4 9c38 2535 a93a 9bf6 e539
00000080: 58af 303a 657e 5c3a 7fa1 3539 c3c9 6d39
00000090: df24 6738 6d3d d83a 0000 0000 b1d2 023a
000000a0: 568b 283a b894 0134 01f3 1d3a fd69 103a
000000b0: 0067 a63a 5ce8 c53a 37d0 9939 10bb 3239
000000c0: 6d17 b93a 0cf0 1238 7a6d 823a 6fe4 d23a
000000d0: b0c3 143b c35c 7439 ca64 e639 1197 eb39
000000e0: a22d 9a3b a510 a638 4426 6e3b 52d4 ad3a
000000f0: b71a 9e39 3738 3f38 bac2 7c39 cb8b b839
0.0025588858 0.0003685126 3.5074743e-05 0.0007964811 0.0016126867 0.00016527683 4.3630366e-06 0.00053834444
0.00051408756 0.00024825215 6.9779184e-05 9.116574e-05 1.7459484e-05 9.489255e-05 0.00014495442 9.616859e-06
3.1762364e-05 5.2190415e-05 0.0015425979 0.00065898645 0.00028564053 0.0001784368 0.0010792048 0.00032005142
0.00075888 0.00010208872 1.4345699e-06 2.9316501e-05 0.00023278309 7.484113e-05 0.0012909515 0.0004386202
0.00067399954 0.0008411168 0.00017321667 0.00022677243 5.510903e-05 0.0016497798 0.0 0.0004990502
0.0006429454 1.2068165e-07 0.0006025285 0.00055089575 0.0012695491 0.0015099156 0.00029337566 0.00017045089
0.0014121361 3.5032674e-05 0.000995084 0.0016089807 0.0022699647 0.0002330421 0.00043944112 0.00044935246
0.004705147 7.918597e-05 0.0036338726 0.0013262129 0.00030156013 4.5590303e-05 0.00024105134 0.0003519937
