models/model_cavity_nu0.01_U1_20x20_epochs1000_lrannealing_testpcnt0.2.pt (torch, 187101 bytes, 30 tensors)

weight f4 [64, 3]
000000 37 05 07 bf 25 a2 6c be bf 25 10 bf 60 3b 05 3f
       -0.5274233 -0.23108728 -0.56307596 0.52043724
000010 87 cc a3 3c 70 b0 7f ba 25 b6 1a bf e2 0c 6f be
       0.019994987 -0.0009753769 -0.6043418 -0.23344758
000020 d9 a8 ed bd 2f ba b8 3e c9 06 98 be 97 98 00 be
       -0.11604471 0.36079547 -0.29692677 -0.12558208
000030 46 a2 c5 be e4 f4 13 3f 61 04 b3 b9 0a a7 03 3f
       -0.38600367 0.5779555 -0.00034144803 0.51426756
000040 f3 dc a2 be 80 92 0b 3e 89 7b 18 3f a7 d4 c7 be
       -0.31809196 0.13630104 0.595635 -0.39029428
000050 a3 44 02 bf 81 96 23 3e a5 69 05 3f ed 02 92 3d
       -0.5088598 0.15975381 0.52114326 0.07129464
000060 51 d2 c0 bd 06 d7 17 3e 7f c8 64 bd 94 99 42 bd
       -0.09415115 0.14828119 -0.05585527 -0.047509745
000070 f9 b3 fe 3e 2f 90 d4 bd e1 6e da be be a5 9a be
       0.49746683 -0.10379063 -0.4266272 -0.30204576
000080 fe 15 aa 3c 1e f6 7e be c2 2e 7f be 25 eb 3e 3e
       0.02076244 -0.24898574 -0.2492018 0.18644388
000090 f1 3e 5b 3e f9 6a 09 3f 19 f0 ac 3e 03 ae 94 be
       0.21410729 0.5367885 0.3377693 -0.2903901
0000a0 c3 77 05 bd 6f f9 92 be 2d a7 60 bd 40 81 86 3e
       -0.032584917 -0.28705928 -0.05484693 0.26270485
0000b0 1d 94 f2 be c2 e6 d9 3e 63 80 d5 bd 8c cf f2 be
       -0.47378626 0.42558867 -0.104248784 -0.4742397
0000c0 e6 56 38 be ee de d1 bd d7 3f a7 be 87 5c 0b bf
       -0.18001899 -0.102475986 -0.32665893 -0.5443806
0000d0 f2 0a b5 3d 33 ed 85 3e d3 fe aa be c3 92 12 bf
       0.08839978 0.2615753 -0.3339754 -0.5725519
0000e0 4a bc 6f 3e 4f b1 fa 3e 33 82 c5 bd 67 f7 07 be
       0.2341167 0.489634 -0.09643974 -0.1327797
0000f0 44 fe f8 bb 94 5e 00 bf 19 57 3e bd 17 70 a8 be
       -0.00759867 -0.50144315 -0.04646978 -0.32898018
000100 7e d2 7b 3d 50 3a 0d 3e ac e8 af 3e 92 bb fc 3e
       0.061480038 0.13791776 0.34357202 0.49361855
000110 cf c7 ae be 01 d1 1b 3e 37 e4 d2 be 1d 04 3c be
       -0.34136817 0.15216447 -0.4118974 -0.18360944
000120 6b 1b ef be 21 60 98 be 35 38 87 be 5f 3c ec bd
       -0.46700606 -0.2976084 -0.2641007 -0.11534952
000130 b6 9a 04 bf 61 55 80 be 56 85 be 3e 62 c6 84 3e
       -0.5179857 -0.2506514 0.37211102 0.25932604
000140 d7 a8 74 bd 4d 77 ac be 14 92 57 3d cb e8 99 3e
       -0.05973133 -0.3368477 0.052629545 0.3006042
000150 4e 7b 73 be 33 74 0e 3f 7f 0e 88 39 15 81 88 bc
       -0.23777506 0.55646056 0.00025950742 -0.016663114
000160 78 82 59 bd 9b c9 c4 be f6 8f 07 bf 3f b3 fd 3c
       -0.05310294 -0.38435063 -0.5295404 0.03096926
000170 bf 1e 6c 3e 55 c0 b6 3e 28 8b ad be cb 55 60 3d
       0.23058604 0.35693613 -0.3389523 0.05476932
000180 45 f7 f7 be b9 3f fd 3c ff 04 86 3d c0 79 4e 3e
       -0.4843084 0.030914174 0.06543922 0.20163631
000190 47 4f 87 be 13 ff be 3a fb 10 52 bc 1b 20 55 be
       -0.2642767 0.0014571868 -0.012821431 -0.20813029
0001a0 0e 56 c1 be ba b2 22 3f da f5 c3 bd ff aa 32 3e
       -0.37760967 0.63553965 -0.09568377 0.17448042
0001b0 b3 c3 79 be 51 08 e0 3c 8e 39 e6 be a1 76 bb 3e
       -0.2439106 0.027347716 -0.44965786 0.36613944
0001c0 cf a1 f5 be 52 be f7 bc 53 f2 64 be b2 90 a7 bd
       -0.47975013 -0.030242119 -0.22358064 -0.08181895
0001d0 10 6d 05 bf eb 07 9b be 11 64 21 be 4f cd 96 bc
       -0.5211954 -0.30279478 -0.15760829 -0.018408446
0001e0 cb b3 85 3e c6 06 c6 3e 92 9f d1 3e 3b 66 f1 3e
       0.26113734 0.38677043 0.40942055 0.47148308
0001f0 a5 22 b4 3e bd c7 8f 3e 79 9a 76 3e 37 4e 0f 3f
       0.35182682 0.28082076 0.24082364 0.5597872
000200 5f 80 05 3f d0 39 be be 91 8e ab be f8 46 86 3e
       0.52149004 -0.37153482 -0.33507207 0.2622602
000210 fe 88 89 be 78 f9 63 3e 7f 15 a3 3d 7c c5 b8 bd
       -0.2686233 0.22263134 0.079630844 -0.09022042
000220 bf 42 13 bf 89 5f d6 be f3 be ee be 15 7f 0c 3e
       -0.5752372 -0.41869763 -0.46630058 0.13720353
000230 2a 91 bf bd 11 e0 0d bf a3 ea b4 3d b2 75 bf 3e
       -0.0935386 -0.55420023 0.08833816 0.37394482
000240 07 5b 16 bf 8d 27 48 3e 18 64 9e be 18 43 96 be
       -0.58732647 0.19546337 -0.3093574 -0.29348063
000250 f4 a2 cb 3d 7f 3f 32 3d ae 57 15 3f 95 bb 93 be
       0.0994319 0.043517586 0.58336914 -0.2885405
000260 d2 75 16 39 d2 78 ec 3d 3a 2d 1c 3f 51 6e df 3d
       0.00014349006 0.11546482 0.6100651 0.10909713
000270 84 3d 57 3e 36 93 e2 be da d6 42 3d e5 b8 ef bd
       0.2101956 -0.44252938 0.04756818 -0.11705188
000280 8f a1 98 3e 5e 85 ab 3d 45 b5 c6 be 82 ae b8 3e
       0.2981076 0.08375047 -0.38810173 0.3607064
000290 a5 b6 e1 bd 6f fa aa 3e bb 2a fd be 2e dd 2b 3e
       -0.11021165 0.3339419 -0.49446663 0.16783592
0002a0 fe 2e b6 be 15 30 80 3d 9d 3b aa be 07 c4 5a bd
       -0.35582727 0.06259171 -0.33248606 -0.053409602
0002b0 2e 64 a0 be 7c 9b c1 3e 43 8e b7 3e 7c 2a ac 3e
       -0.3132643 0.37813938 0.35850725 0.33626163
0002c0 09 a2 1d 3e d7 af 31 3e 7f 1a 13 3f c8 46 79 bd
       0.15393843 0.17352234 0.57462305 -0.060858518
0002d0 84 72 2b be 0f 14 0e bf 77 7b 0e bf c6 d7 ff be
       -0.16742903 -0.55499357 -0.5565714 -0.4996931
0002e0 1e f5 c1 3e 3d bf 84 be 78 33 ad 3e 13 a5 71 3e
       0.37882322 -0.25927153 0.3382833 0.23598127
0002f0 72 f9 30 3c 97 e3 00 3f f4 58 7a 3e 6c 34 c0 3e
       0.01080166 0.50347275 0.24447995 0.37539995

bias f4 [64]
000000 3f 1b b7 be 9b 54 97 be 95 1e 0a 3e 8f af 0b 3f
       -0.35762975 -0.29556736 0.13488229 0.54564756
000010 d4 c7 03 be 89 16 43 3e 26 da cd 3e 95 b0 36 be
       -0.12869197 0.19051565 0.40205497 -0.17840798
000020 06 f4 22 3f 83 81 83 be a2 61 93 be 1b 75 de be
       0.636536 -0.25684747 -0.28785425 -0.4344872
000030 ef fc 24 3e b4 a6 96 3e ae f7 16 3f d2 1c e2 be
       0.16112112 0.2942406 0.5897168 -0.44162613
000040 86 c3 ee be 89 ec 0b be 6c c8 39 3e c2 7f 5f 3e
       -0.46633548 -0.1366445 0.18142861 0.2182608
000050 24 cd e0 be c5 3c 38 be ef 16 b4 be 36 74 54 bd
       -0.4390651 -0.17991932 -0.35173747 -0.05186864
000060 96 2f e1 be db aa c5 be 60 67 86 3e 7b ca b3 bd
       -0.43981618 -0.38606915 0.26250744 -0.087788545
000070 87 8d f0 be f3 9f 1e bf b7 06 dd be 59 84 0c 3f
       -0.46982977 -0.61962813 -0.43169186 0.54889446
000080 aa 13 33 be 7d 58 8c 3d d1 89 06 bf 41 34 71 3d
       -0.1748797 0.06852815 -0.5255404 0.058887724
000090 4c 36 e3 3d 6d 34 1d 3f 2e 4c 80 be 8c 93 d6 3e
       0.11094341 0.6140812 -0.2505812 0.41909444
0000a0 fa 7b f3 bd 27 39 a0 be 91 b4 b5 3d f4 69 dd 3d
       -0.11888881 -0.31293604 0.08872331 0.108112246
0000b0 9b b6 4e 3e 2b 61 d9 be c5 56 99 be c6 cd 10 be
       0.20186846 -0.42456946 -0.29949012 -0.14140996
0000c0 65 4e 20 be 81 67 9b be 62 64 09 bf 13 c3 1f bc
       -0.15654905 -0.30352405 -0.53668797 -0.009751099
0000d0 0e 35 fa be 09 21 cd 3e c0 f3 a6 be be ca 8e 3b
       -0.48868603 0.40064266 -0.32607841 0.004357665
0000e0 f0 32 9a 3e c9 0b ac bd c2 17 ae be 89 41 7b be
       0.30116987 -0.08400685 -0.340025 -0.24536718
0000f0 d0 d4 58 3d 3f 6f a0 be e7 04 2a bf e3 b8 1e 3d
       0.05293733 -0.31334874 -0.6641373 0.03875054

weight f4 [64, 64]
000000 a4 c5 0f 3d 32 b7 19 bd ac c0 9f 3d 06 37 13 3d
       0.035100594 -0.037528224 0.07800421 0.035941146
000010 fc 96 a2 3d 9e 59 df bd 8b b7 dc bd a2 5b a5 bd
       0.07938954 -0.10905765 -0.107771955 -0.08074118
000020 66 25 32 3e 6c c3 b5 3d 2b bf 1b 3d 69 64 5f bd
       0.17397079 0.088751644 0.03802411 -0.054539118
000030 e3 98 29 3c e5 bd a1 3d 4b 91 4f bd 0f 22 ce 39
       0.010351392 0.07897548 -0.05067567 0.00039316757
000040 32 cd a1 3d 8b a2 ef 3d 18 e0 ca bd d8 00 29 bc
       0.07900466 0.117009245 -0.09906024 -0.010315143
000050 af ba 73 3d 83 e7 0b bd a5 87 60 3c 8d 72 9f 3d
       0.059504207 -0.034156334 0.013704215 0.07785521
000060 ec 49 8d 3d cf b5 66 3c c6 ad ec 3d 3e c8 fc 3d
       0.06898865 0.0140814325 0.11556582 0.12342881
000070 76 1c 3a bc 53 e5 85 bd b3 d1 8f bd c8 bd dd 39
       -0.011359325 -0.06537881 -0.07022419 0.00042293803
000080 ae 82 48 3d c2 4f 6f 3c 7b e0 8a 3d da 61 7c 3d
       0.04895275 0.014606418 0.067810975 0.061616756
000090 cb 71 8f bc b4 f5 01 be 81 d8 55 3d 8e 80 ff 3d
       -0.017510315 -0.12691385 0.052208427 0.12475692
0000a0 f4 2a ec 3c 7b e0 62 bd f9 a1 21 bd dc e2 91 bd
       0.028829075 -0.055389863 -0.03946111 -0.07123348
0000b0 bd 94 f1 3d b2 7c 46 3c 92 ba cf 3b a2 7b 9f 3d
       0.11795948 0.012114691 0.0063393796 0.07787253
0000c0 41 17 bc bd b2 81 60 bd f3 8c 13 3e 16 86 eb bc
       -0.09184123 -0.054811187 0.14409237 -0.02875046
0000d0 be 9b 12 be e7 ab f4 3d c8 ff 82 bd 81 7a 15 be
       -0.14317223 0.1194685 -0.06396443 -0.14597513
0000e0 05 0e a2 3d a4 33 da bc a5 cf b0 3d b5 6a 48 bd
       0.0791283 -0.026635952 0.08633355 -0.04892989
0000f0 8f 8e 0c be 46 1f 06 3e 6c 42 38 be 99 d4 a3 bd
       -0.13726257 0.13097867 -0.17994088 -0.07999534
000100 61 b1 74 bd b1 d7 89 be 2f 43 ac 3d 59 8b b7 bd
       -0.059739474 -0.26922372 0.08411252 -0.08962125
000110 2d dd 82 3d 46 4b 1f be 4a d0 f4 3c e2 72 02 3e
       0.06389842 -0.15556058 0.029884476 0.12739137
000120 fd bf 1a 3e 99 dc 24 3d 5f 28 a4 bd 9e c7 8c bd
       0.151123 0.04024944 -0.08015513 -0.068740115
000130 43 f9 87 3d bf 3b 78 bd 3a 9c 4c 3d f3 0f 68 3c
       0.0663934 -0.060603853 0.049953677 0.014163959
000140 3e ea a5 bd 77 16 ff 3d e9 ad 87 3d fb 61 91 3d
       -0.08101319 0.12455457 0.066249676 0.070987664
000150 4a e5 99 ba fd 04 4e 3c 3d fc c0 bc 4e 3b 5e bd
       -0.0011741307 0.0125744315 -0.023557777 -0.054255776
000160 a9 9a 09 be 92 99 df 3d d8 c6 fd bd 1d a3 73 bd
       -0.13437904 0.10917963 -0.12391442 -0.05948173
000170 9c 7c d9 3d 2b 52 9e bd 68 6a 14 3a 1e b3 0b be
       0.106194705 -0.07730516 0.0005661608 -0.13642547
000180 0b 2d 44 bd 67 9a ed bd 18 c4 95 3c 1a 4f 5c 3d
       -0.04789452 -0.116017155 0.018281981 0.053786375
000190 d8 87 b2 bc 3a 81 c5 bd 44 cf 4f 3c 1f 54 e1 bd
       -0.021793291 -0.09643789 0.012683693 -0.11002373
0001a0 69 b0 4f bd 75 29 7f 3b d9 bc 08 3d 0f 4d 38 bb
       -0.050705347 0.0038934622 0.033383224 -0.0028122102
0001b0 8c 34 e8 bc 18 fc 21 3d 2e 27 3d bd fb 9b 7f bd
       -0.028345369 0.039547056 -0.046179943 -0.062404614
0001c0 ff d5 e3 3d b7 ab bc 3d aa 93 8a bd 28 51 13 3d
       0.11124801 0.092124395 -0.06766446 0.03596607
0001d0 bc 42 91 3d dd ac 95 3d df 07 6b 3c 58 0d fb bd
       0.07092807 0.07308362 0.014345138 -0.122584045
0001e0 3f 2a b7 3d b5 29 00 be 07 8f 1d bd 42 67 ec bb
       0.08943605 -0.1251591 -0.03846648 -0.0072144577
0001f0 03 45 b1 3d 51 cf bd bc e7 fb 0e be 30 f2 99 3d
       0.08655741 -0.023170145 -0.1396328 0.07516897
000200 80 51 50 3d 58 ed 0d be 15 e8 b9 3d 4c 40 05 bd
       0.050858974 -0.1386007 0.09077469 -0.03253202
000210 ff c6 ca bd e7 ed 82 3c 22 cc da bb c7 06 31 be
       -0.09901237 0.015982581 -0.0066771666 -0.17287742
000220 96 e7 da 3d c7 14 8d 3d bd c1 f8 3d fc 09 21 3d
       0.10688703 0.068887286 0.12146328 0.039316162
000230 39 6d 90 bd 29 82 07 bd 8b 86 91 3c c3 2c be 3c
       -0.070520826 -0.033083115 0.01776435 0.023214703
000240 33 95 b4 3b 8f c3 9e bc 20 23 9a 3c a4 90 ac bd
       0.00551095 -0.019380359 0.018815577 -0.084260255
000250 93 cc 80 bd a6 ca c1 bb 4e fd 39 bc 9f 37 03 3d
       -0.062890194 -0.00591405 -0.011351896 0.032035466
000260 6b d9 ba bd b8 8c 02 bd 2e 3f eb 3b b1 cf c9 bc
       -0.091235004 -0.03187248 0.0071791625 -0.024635168
000270 36 a7 4d 3d 36 0b 04 3e 30 82 8a 3d 12 5d 87 bc
       0.050208293 0.12894902 0.067631125 -0.016523872
000280 ca 9a 9b bc 9d 33 e3 3d 3e 5d a9 bd 5b 22 a6 bd
       -0.018994708 0.11093829 -0.08269738 -0.081120215
000290 1b a8 a4 bd 5d df 33 3c ea 63 d0 bd 43 17 65 3d
       -0.08039876 0.010978547 -0.10175307 0.055930387
0002a0 3f bc 8a bd 66 9f 8b 3d 9b 88 8d 3d d8 d9 cb bb
       -0.06774186 0.06817512 0.06910821 -0.0062210374
0002b0 aa c5 fa bc 6e 31 94 3c cc 74 e4 3d c6 18 4f 3d
       -0.030611832 0.018089976 0.1115509 0.050560735
0002c0 f7 ab 03 bd d9 51 e5 bd b5 1b 04 bd bc 10 16 be
       -0.03214642 -0.11197252 -0.032252986 -0.14654821
0002d0 46 c5 4b bd fd 47 23 bd 0c 08 ee 3d ae 4e 59 3d
       -0.04974868 -0.039863575 0.116226286 0.05305355
0002e0 38 62 a2 3c d7 21 91 3d 9e fb 6a be 3d 96 36 be
       0.019822225 0.070865326 -0.22947547 -0.17830749
0002f0 3e 27 9b 3d 22 90 08 bd a2 4d 9e be 8c c5 c7 3c
       0.07575844 -0.03334058 -0.30918604 0.02438619
000300 16 aa 35 3d ba 1c 64 bc 10 85 1f bc 34 75 80 3c
       0.04435166 -0.013922865 -0.009736314 0.015680887
000310 80 cf 0d 3e f3 f4 87 bd ad 33 de 3d 78 22 c4 3b
       0.13848686 -0.06638517 0.108497 0.0059855543
000320 b7 f0 e6 3d dc 4f 55 3d 32 d9 99 bd b1 90 08 3d
       0.112763815 0.052078113 -0.0751213 0.033341113
000330 ef 5f f0 3d 58 f6 03 be 6d 52 0a 3e 0e ab 8c bd
       0.11737048 -0.12886941 0.13508005 -0.068685636
000340 1a 17 b2 3d 7e d7 9d bd c4 ac d6 bc 64 a3 ed bc
       0.086958125 -0.077071175 -0.026205428 -0.029008575
000350 c3 0f a1 bb de e2 d8 3d e9 9a bf bc bf ae ca bd
       -0.004915209 0.105901465 -0.023389297 -0.098966114
000360 0c e1 97 3d 76 79 0d 3e 71 59 7c 3d a4 23 f8 3d
       0.07415971 0.13815865 0.061608735 0.12116173
000370 9c ed a9 bc dc 0f 58 bd 00 6d 84 bd b5 d7 62 ba
       -0.020743184 -0.0527495 -0.064661026 -0.00086533587
000380 13 c3 23 bc 0b a2 e4 bd 63 3a 04 be e9 8d f1 3d
       -0.00999524 -0.1116372 -0.12912898 0.11794645
000390 e7 68 ad bd 09 97 9c 3d e9 90 3f 3d 76 b9 87 bd
       -0.08467274 0.07645995 0.046769056 -0.06627171
0003a0 66 4f 39 bc 1e 84 a8 3d 30 b8 4e 3b 52 1d 0a 3c
       -0.011310434 0.08228324 0.003154289 0.008429842
0003b0 d4 b4 90 bd d0 31 d1 3d 11 e6 c6 3c d8 dc ca bd
       -0.0706574 0.10214579 0.024279626 -0.09905404
0003c0 f0 59 50 3c 7d ea 6a 3d 8c 06 ef bd 29 1a 2a 3e
       0.012716755 0.05735253 -0.116711706 0.16611542
0003d0 73 6d 8a 3d ab ff c6 3d 68 5a 14 3e 0f 03 dd 3c
       0.06759157 0.097167335 0.14487612 0.026978998
0003e0 3e 41 f9 3d 67 65 38 bd 81 3c 09 3e 44 80 32 3d
       0.12170647 -0.04501858 0.13401987 0.043579355
0003f0 5e 83 bc bd 05 d0 43 bd 4e 7c 5a 3e c2 88 01 3e
       -0.09204744 -0.047805805 0.21336481 0.12649825

bias f4 [64]
000000 7b 10 bd 3d 05 5f 97 3b fa 4a cc 3d e7 4c c6 bd
       0.09231659 0.0046194815 0.09975238 -0.09682637
000010 eb af 1b 3e d2 b6 90 3d 09 ba 84 3d 62 5f e3 bd
       0.15203826 0.0706612 0.06480796 -0.11102177
000020 c9 7f 00 bd f4 e9 23 3e f6 69 c1 bc c8 5e 00 3d
       -0.031371865 0.16007215 -0.023610096 0.03134039
000030 7d 11 f8 bd 58 9c 2c 3e 03 40 9b bc 95 b7 db 3d
       -0.121127106 0.16856515 -0.018951422 0.10728375
000040 a2 a3 87 bd f6 d1 63 be 4c 88 ee bd 89 ef bf 3d
       -0.06623007 -0.22248062 -0.1164709 0.093718596
000050 21 87 7a bd cc c6 9a bd 79 40 18 bc 59 71 98 3b
       -0.061164025 -0.07557449 -0.009292715 0.004652184
000060 f5 78 a3 bd a5 36 94 bd ae a1 4e bc 44 da ac 3d
       -0.07982055 -0.07236985 -0.01261179 0.08440068
000070 27 e0 c7 bd c8 b3 b6 3d ac 82 c7 3d 7a 97 83 bb
       -0.097595505 0.08921009 0.097417206 -0.00401586
000080 eb d8 f9 3d 3e 89 18 bd b0 69 6e 3d 0b 0b 8d bd
       0.12199577 -0.03724026 0.05820626 -0.06886872
000090 2b 92 a8 bd 28 b8 ad 3d 6b ad d8 bd 06 97 ab 3c
       -0.08231004 0.08482391 -0.10579952 0.020946037
0000a0 b7 41 0a 3e 06 45 0c 3e b9 c7 e7 bd c6 33 6a bd
       0.1350163 0.13698205 -0.11317391 -0.05717828
0000b0 35 2f 40 be 36 65 34 3d 49 9b 8e 3c 40 39 4f 3c
       -0.18768008 0.044041835 0.01740803 0.012647927
0000c0 8c f0 18 3e 36 5b ca bd 9b 6b f3 3d 7e 9c 4c bd
       0.14935511 -0.09880678 0.118857585 -0.04995393
0000d0 64 8b 05 3d 75 c3 dc bc 30 21 6b 3d 24 31 c9 bd
       0.032603636 -0.02694867 0.057404697 -0.09823826
0000e0 64 a5 dc bc 79 7b 1b be 56 7d 79 bc b0 58 56 3d
       -0.026934333 -0.1518382 -0.015227636 0.052330673
0000f0 7c 39 46 bc 63 c6 fc 3c 5a 49 72 bd 29 09 de bc
       -0.012098666 0.030856317 -0.059151985 -0.027103977

weight f4 [64, 64]
000000 f8 3d 36 be ef ca ba 3b e5 5e 0e be 15 93 c2 3c
       -0.17797077 0.005700461 -0.13903387 0.023751775
000010 82 f7 08 bd d1 06 ef bd e7 ea 46 be 78 29 3e be
       -0.033439167 -0.11671222 -0.19425546 -0.18570507
000020 34 3b fc bd ec 96 0f bd c5 d4 e9 3d 8f 17 14 3a
       -0.123159796 -0.03505604 0.11417536 0.00056492625
000030 b8 95 f2 bd ef d8 e2 3d 1d a7 83 3d 95 3f 1d 3e
       -0.11844963 0.11076533 0.06428359 0.15356286
000040 9c ba 36 bd 7f cd 3c be 88 70 f6 3d 86 73 18 3d
       -0.04461156 -0.18437766 0.120331824 0.037219547
000050 02 a3 ce 3d d5 9a b4 3d 2f d6 fe bb 84 eb 00 3e
       0.10089685 0.08818594 -0.0077769975 0.12589842
000060 fc 9a b0 bc 67 a0 1e bd c5 ad 4d 3d 39 a9 64 bd
       -0.021558277 -0.03872719 0.050214548 -0.055825446
000070 7d 19 22 3e a9 9d 57 bd 21 42 6f bd c9 97 e6 bc
       0.15830036 -0.05264059 -0.058412675 -0.028148549
000080 22 41 35 3d 59 ed 01 3e 14 aa 37 3e d5 9a 86 3b
       0.04425157 0.12688197 0.17935973 0.004107813
000090 c6 b9 ba 3d 0f a0 96 bd 67 7a 82 be 36 e2 09 be
       0.09117465 -0.073547475 -0.2548401 -0.13465199
0000a0 44 3e 14 bd 57 84 e4 3b 64 16 35 bd 94 62 1a 3d
       -0.036192194 0.006973784 -0.044210806 0.037691668
0000b0 d7 d1 9f bd 06 dc 7e 3d 5a 86 6c bd c3 37 57 bd
       -0.07803696 0.06222155 -0.057745315 -0.052543413
0000c0 52 18 8b 3b 15 79 bf bd 2d 11 da bd d6 3b fa bc
       0.0042448426 -0.093492664 -0.10647807 -0.03054611
0000d0 29 76 ff bd 4c de 20 be 64 8d 2c 3e 8f 63 50 3d
       -0.12473709 -0.157098 0.16850811 0.050876196
0000e0 9b fb 9f 3d 25 be 11 be 89 cd 8f 39 f1 88 16 3e
       0.07811662 -0.1423269 0.0002742822 0.14700677
0000f0 7c 27 b4 bd 96 6d 7b b9 3a 28 0f be bd e1 0c be
       -0.087965935 -0.0002397805 -0.13980189 -0.13757987
000100 7f bb 0f bd 47 15 11 3d 62 a1 b0 bc c8 3b 18 3d
       -0.03509092 0.035420682 -0.021561328 0.037166387
000110 69 00 ad 3c d9 b7 e5 3d 3b b9 fa bc 10 8e 84 bc
       0.02111836 0.11216707 -0.030605903 -0.016181022
000120 dd 67 80 3d f9 51 c8 3d 6a 60 74 bc 59 b3 a8 bd
       0.0626981 0.0978126 -0.014915565 -0.08237333
000130 f4 e8 1a 3d bb b3 89 bd 58 af 90 3d 41 a4 d1 bc
       0.037819818 -0.06723734 0.07064694 -0.025591018
000140 30 0e eb 3c 1e 78 a5 bd 00 f8 1e bd a3 11 a1 bc
       0.028693289 -0.08079551 -0.03881073 -0.01966173
000150 b7 3f ec bb 93 28 da bd d1 e2 d5 bd 83 b1 05 be
       -0.007209744 -0.1065227 -0.104436524 -0.13055997
000160 15 ba f9 bd e0 4f f1 bd c0 c7 05 3c db 38 2c bd
       -0.121936955 -0.11782813 0.0081653 -0.04204641
000170 54 00 c7 bd 21 9d b4 3d 33 cb 82 3d 83 c6 94 3d
       -0.097168595 0.088190325 0.063864134 0.072644256
000180 4a 61 58 bd 97 94 bb 3c 24 28 ca bd 0c 66 4c bd
       -0.052827157 0.022898002 -0.098709375 -0.049902007
000190 67 6c 85 bd 0b 3f 64 bd 90 19 fb bd 77 ff 2f 3d
       -0.06514817 -0.055724185 -0.12260735 0.04296824
0001a0 97 4c d3 bd 73 14 3a 3d 40 32 c9 3d 71 d4 95 bd
       -0.10317343 0.04542966 0.098240376 -0.073159106
0001b0 40 bb cd bc a3 3e b7 bd 1e 0d 56 bc ed 66 99 bb
       -0.025113702 -0.08947494 -0.013064651 -0.004681459
0001c0 77 a0 9b bd a3 9c 4f bc b2 3c 45 3d c2 60 f8 3d
       -0.075989656 -0.012671622 0.048153587 0.1212783
0001d0 05 7b df bd e8 38 73 3d 58 6b c6 bd 7d ce dd 3d
       -0.10912136 0.059380442 -0.09688443 0.108304
0001e0 36 6f f4 bd 34 ba 14 bd 3f b4 31 bc d0 67 a5 3d
       -0.11935274 -0.03631039 -0.010846197 0.08076441
0001f0 24 f5 9e bd e7 60 26 3b d8 29 de bd ba e6 6a bd
       -0.077616006 0.0025387348 -0.10847825 -0.057348944
000200 bc d0 1b bd 20 88 b2 3c 58 50 c6 bd c0 6e ba 3d
       -0.03804086 0.021793425 -0.09683293 0.09103155
000210 28 2f c1 3c 40 8e bd 3c b4 3c a3 3d 60 50 30 bc
       0.023582056 0.02313912 0.079705626 -0.01076135
000220 80 1a 2e 3c d2 25 f9 3d ea eb f2 3d 40 ae 08 bd
       0.010626435 0.12165417 0.11861403 -0.033369303
000230 d0 12 5d bc 20 5b de bb 3e 7e f5 bd 3c 3c af bd
       -0.013493255 -0.0067857653 -0.119869694 -0.08556411
000240 a4 67 11 bd e0 ae c7 bc 20 65 bd bd 6a 2f cc 3d
       -0.03549923 -0.02437538 -0.09247804 0.09969981
000250 d4 35 2c bd 28 3d 1f bd 88 42 44 3d 0a 9c 95 bd
       -0.042043522 -0.038876683 0.04791501 -0.07305153
000260 d4 00 cb bd 5c 3b 1f bd a4 48 8e 3d d8 db b4 bd
       -0.09912267 -0.03887497 0.06947449 -0.08830994
000270 7c 63 46 3d 98 f1 d0 bc 98 8a bd bc 98 25 96 bd
       0.04843472 -0.025505826 -0.023137376 -0.07331389
000280 c0 83 d4 bb f2 93 e1 bd 06 28 dd 3d a0 1d fe bc
       -0.0064854324 -0.110145465 0.107986495 -0.031019986
000290 b4 07 50 bd 94 b3 32 bd 18 33 7e bd 74 25 05 3d
       -0.050788596 -0.04362829 -0.062060446 0.03250642
0002a0 98 c0 9b bd b0 4b 10 3c 20 d7 99 3c 78 f8 e4 bc
       -0.07605094 0.008807108 0.018779337 -0.02795051
0002b0 a2 74 9e 3d 80 ea b3 bc 34 ac 15 bd b4 46 65 3d
       0.0773709 -0.021962404 -0.03654118 0.05597563
0002c0 08 94 9b bc 52 41 b6 bd 40 49 3d 3c 68 9f f0 3c
       -0.018991485 -0.088991776 0.011553109 0.029372886
0002d0 80 42 23 bd 08 90 c2 bd b0 4f 4c 3d 40 76 e4 3c
       -0.03985834 -0.09500128 0.049880683 0.027888417
0002e0 e6 0a a1 bd 48 53 cf 3d 0a f5 be 3d e4 30 48 bd
       -0.07863407 0.101233065 0.09324081 -0.04887475
0002f0 90 03 36 3d 98 8a b1 bc 4e c7 d5 3d 78 ac 5b 3d
       0.04443699 -0.021672532 0.10438405 0.053631276
000300 a8 fe 12 bd e8 de 15 be 91 47 dc 3d 96 a4 57 bd
       -0.03588739 -0.14635813 0.10755838 -0.052647196
000310 a8 03 93 3d b0 fa b3 3b 52 af a2 3d 89 17 0d be
       0.07178432 0.0054925308 0.07943596 -0.13778509
000320 69 b9 d2 bd 29 db 86 bd d2 99 16 be 14 f5 dd bd
       -0.102892704 -0.0658477 -0.14707115 -0.108377606
000330 00 ca 5a 3c 4d 1b f0 3d c5 b5 75 3d 05 81 d6 bd
       0.013353825 0.11723957 0.059987802 -0.10473827
000340 8c 91 4a 3d a4 b4 85 be 00 bb aa 3a 0b 86 da bd
       0.04945521 -0.2611438 0.0013025701 -0.10670098
000350 e4 ce aa bd c8 66 cf 3d 08 9e c7 37 16 3f b5 bc
       -0.083402425 0.10127026 2.3796238e-05 -0.022124808
000360 c6 34 91 3d 27 6e 70 bd 2a ad 95 3d d9 c6 a5 bd
       0.07090144 -0.0586988 0.07308419 -0.08094568
000370 3b 0a d1 3c dd 34 9e bd d9 e0 ba 3d 61 d8 ce bd
       0.025517574 -0.077249266 0.091249175 -0.10099865
000380 9c e8 53 3a c0 ee a8 bd 6e 06 99 3d 15 e3 6a 3d
       0.0008083673 -0.08248663 0.074719295 0.05734547
000390 65 a8 3b 3e 77 d3 ea 3d 3a 39 d7 bb c9 c0 07 be
       0.18325956 0.11466115 -0.0065681012 -0.13257135
0003a0 65 e8 51 3d 75 e8 96 3d ad e2 1a bc e5 a8 06 3d
       0.05124702 0.073685564 -0.009453458 0.032875914
0003b0 65 27 b5 bd dd 72 b2 3d 59 ae 99 3b 50 26 eb bd
       -0.088454045 0.08713315 0.0046899733 -0.11481917
0003c0 6d 7f 80 bd 48 5b a7 3d 86 d2 c9 bd 7b a5 98 bd
       -0.062743045 0.081717074 -0.09854607 -0.07453438
0003d0 2b f1 b2 3d a4 07 31 3b dc 4a ab bc c2 c4 f3 bd
       0.087374054 0.002701261 -0.02090972 -0.11902763
0003e0 fa e3 9b bd 47 08 4c 3d f5 6c b4 bd 74 ab ed 3d
       -0.076118425 0.04981258 -0.088098444 0.11604968
0003f0 8e cb ce bd ec 4c 2c be df 5f 8a bd f8 5f 82 bc
       -0.10097419 -0.16826218 -0.06756567 -0.015914902

bias f4 [64]
000000 ce d3 2e bd 62 02 47 bb 7a e6 e4 bd fb 4a 90 3d
       -0.04268246 -0.003036641 -0.111767724 0.070455514
000010 60 1c 2c bd 45 b0 7d bd de 19 98 bd 02 38 d4 bd
       -0.042019248 -0.06193568 -0.07426809 -0.10362245
000020 1e 80 b1 bc 84 5e d1 bd 7c 17 07 bd 12 58 43 3d
       -0.021667536 -0.102231055 -0.03298138 0.047691412
000030 11 2c a2 bd b8 ba 48 3d bf 58 e6 3d 00 ea 06 3e
       -0.07918561 0.049006194 0.11247396 0.13175201
000040 53 dc 3c bd b6 e2 fa bc 39 bb f7 bc 3c 4c 8a 3c
       -0.046108555 -0.030625682 -0.030240642 0.016882055
000050 38 0b 8f bd de c8 03 be c0 12 a7 bc 8a 3b 29 bd
       -0.06984562 -0.12869594 -0.020394683 -0.041316546
000060 50 4f 09 3e 08 dc aa 3d fb fc 90 bc 60 0f 97 3d
       0.13409162 0.08342749 -0.017698755 0.073759794
000070 ac 20 92 bd d6 57 c8 bd 61 0e 1d 3e 3a 02 7e be
       -0.07135138 -0.097823784 0.15337516 -0.24805537
000080 9c e4 6d bd ae 5d ae 3d 8c 65 36 bd 9d 45 fc 3d
       -0.058079347 0.08513962 -0.044530436 0.12317965
000090 39 f5 0a bd b0 a6 ad bd 77 0b 98 3c 5a b4 e9 3d
       -0.03392527 -0.08479059 0.018560154 0.114113525
0000a0 df e3 ee bc 48 fa 19 3e dd a0 31 3d 00 97 25 3c
       -0.029161392 0.15036881 0.0433663 0.010106802
0000b0 70 36 a9 bc b4 30 0f 3e b1 18 57 bd 9d 18 df bd
       -0.02065584 0.13983423 -0.052513782 -0.108933665
0000c0 96 a4 3d bd 17 da 4d 3d 1e 69 5e bd 2f 11 65 bd
       -0.04629954 0.050256815 -0.054299466 -0.05592459
0000d0 df 55 1f bd 9c bf 3b bd 25 30 b8 bd 62 dd fb bd
       -0.038900252 -0.04583703 -0.08993558 -0.12298085
0000e0 08 71 0c 3e 59 d4 b5 bd d5 5c be bc 21 c3 dc bc
       0.13714993 -0.08878393 -0.023237625 -0.026948513
0000f0 49 84 91 bd 20 8f 93 3d 27 4e 27 bd f6 53 d9 3d
       -0.071053095 0.07205033 -0.040846016 0.106117174

weight f4 [64, 64]
000000 2b 2b b1 3d db 09 53 bd e4 60 68 bd 75 42 ac bd
       0.08650812 -0.05152307 -0.056733027 -0.08411113
000010 47 20 1d 3d f0 74 82 3b 31 85 6b 3d e8 b7 c6 3d
       0.03836086 0.003981225 0.057500068 0.09703046
000020 89 5a aa 3d 00 8c 2a bd 6c 60 b4 bc 2b 40 e2 3d
       0.083180495 -0.04163742 -0.022018634 0.11047395
000030 47 22 ed 3d 7d bb d9 3d 6d 19 03 3d 77 91 95 bc
       0.115788035 0.10631464 0.03200667 -0.01825784
000040 79 f8 a3 3d 88 26 bc 3d e0 30 14 bc 75 9c a3 bc
       0.08006377 0.09187037 -0.009044856 -0.019972065
000050 4e 42 5b bd 9e 1b 41 be 66 55 8e 3d 30 a3 82 bd
       -0.05353003 -0.18858191 0.06949882 -0.06378782
000060 9d 0a 28 bc 1b dd 5a 3d 9e 4a 8e bd 9d e3 a5 3d
       -0.010256437 0.05343352 -0.06947826 0.081000544
000070 cd 96 d1 bd 5c 59 91 bd f4 0c 15 be c4 f4 da bd
       -0.10233841 -0.07097122 -0.14555722 -0.106912166
000080 c0 1b 58 3d c9 62 ad bd 52 22 99 3d 2e 0c bf 3d
       0.05276084 -0.084661074 0.07477249 0.09328495
000090 d2 36 09 bb ee de 82 3c 32 bd 94 bc 7f 93 14 bd
       -0.0020937216 0.015975442 -0.018156622 -0.036273476
0000a0 83 79 53 bd 63 2f 6b 3d e9 59 21 be 64 35 89 3c
       -0.051629554 0.05741824 -0.15756954 0.016749091
0000b0 96 36 c9 bd f9 c6 17 3d 11 d8 c9 bd 5d c7 e9 3c
       -0.098248646 0.03705499 -0.098556645 0.028537447
0000c0 2c 63 b9 bd 25 cd bf bd 67 fb 25 3d f5 d4 37 3e
       -0.09052119 -0.093653 0.04052296 0.1795233
0000d0 d2 b1 c2 bd bd 02 0f 3e 4e 3d 8f 3d 9a 33 cb 3d
       -0.09506573 0.13965888 0.06994115 0.099219516
0000e0 b1 fa 39 3d 38 ce 99 3e 22 79 1e bd 4f f1 de 3c
       0.045405094 0.30040145 -0.03868974 0.027214674
0000f0 2d 3d 93 3d cc 41 ab 3a f9 36 51 bd fe df 58 3c
       0.07189403 0.0013065874 -0.051077817 0.013236998
000100 83 23 25 3e 2f d7 12 bd 32 a3 fe 3d 9f 19 12 3e
       0.16126828 -0.035849746 0.12433471 0.14267586
000110 36 d6 13 bd 1c 3b ee bd 18 71 17 3d 2d a9 a5 3d
       -0.03609296 -0.11632368 0.03697309 0.08088908
000120 dc cc f7 bd 90 ee 34 3d 23 df 1f bd db df 71 3d
       -0.12099621 0.044172823 -0.03903116 0.059051376
000130 7d 32 43 3d 48 29 6b 3d 4d 31 b0 bc cb 19 be bd
       0.04765557 0.057412416 -0.021507883 -0.09282263
000140 e8 ae fb bc b9 54 5f 3a 5b 64 ad bd a9 b9 0d 3c
       -0.03072305 0.00085193996 -0.08466407 0.008650222
000150 1b a5 a4 3d 0a b6 2c 3c 56 7b af 3d 04 20 40 3d
       0.08039304 0.010541448 0.08568446 0.046905532
000160 0c 87 c1 3b 4b 21 e7 3d e0 28 ef bd 3e 26 9b bc
       0.0059059914 0.11285647 -0.11677718 -0.018939134
000170 b9 b1 22 3e 72 88 e3 bd a0 6a e7 3d 5c fb 36 3e
       0.15888108 -0.11110009 0.11299634 0.17869323
000180 0a 2d 76 3c 02 d7 3e bd 43 9e ba 3d 49 07 2e 3d
       0.015025387 -0.046591766 0.09112217 0.042487416
000190 f0 a8 80 3d 56 28 aa bd d2 17 0a bd 60 68 0a 3e
       0.06282222 -0.08308475 -0.033714123 0.13516378
0001a0 af a1 74 3d 47 7e 10 bc 61 d7 c5 3d a1 de 01 be
       0.059724506 -0.008819169 0.09660221 -0.12682582
0001b0 50 a1 c4 3d e9 2e 71 3d 11 87 ab bc 01 09 be bc
       0.096010804 0.058882628 -0.020938428 -0.023197653
0001c0 50 b1 9d 3d db eb 01 3d 00 3e 10 3e 18 05 3a 3d
       0.07699835 0.03171907 0.14086151 0.045415014
0001d0 3a ab ae bd 04 70 ef bd e2 db 86 bc e8 57 b6 bd
       -0.085287526 -0.11691287 -0.01646227 -0.089034855
0001e0 9a 8d b2 3b 0a 3b d6 bc 97 74 8e bd 03 0a aa 3d
       0.005449009 -0.026151199 -0.069558315 0.08302691
0001f0 02 d6 98 bd a2 da 29 b9 d0 40 99 3d e2 c9 a1 bd
       -0.07462694 -0.00016198543 0.07483065 -0.07899834
000200 4e be c5 bc e3 41 90 3d 50 7e af 3d f8 39 92 bd
       -0.024138596 0.07043817 0.08569014 -0.07139963
000210 d2 ac b2 3d dc 8f 22 3e 71 5a e3 3d 0c 82 57 be
       0.08724369 0.1587519 0.11101235 -0.21045703
000220 1d e4 6d bd 00 94 01 bd 26 6e e9 bd ec 36 4a 39
       -0.058078874 -0.031635284 -0.11397962 0.00019284681
000230 9b 4b a2 3d 5c a1 f2 3d fa 36 a3 3d 7c 11 a5 bd
       0.07924577 0.11847183 0.0796947 -0.080599755
000240 d2 e5 cc 3d 42 56 98 be 81 4d 3e 3e b2 70 02 be
       0.10004772 -0.2975331 0.18584253 -0.12738302
000250 80 12 ec bd 14 8c c7 3d 18 3f 0e 3d c9 32 01 be
       -0.11526966 0.09743515 0.03472814 -0.12617029
000260 0a 3a 58 be 8d 1f 7e 3d 91 e0 aa 3b ef a3 66 bd
       -0.2111589 0.062041808 0.0052147587 -0.056308683
000270 25 12 54 bc 3f f4 89 3d db 87 9d bd a2 28 aa 3e
       -0.012943779 0.06736039 -0.07691928 0.33234125
000280 07 49 66 3e f0 e0 e7 bc cb bc 32 bd 69 35 ec bc
       0.22488795 -0.0283055 -0.04363708 -0.028834062
000290 9e 57 68 3d 8d 6a d4 3c 7f f3 ac 39 ff 71 8a 3b
       0.056724183 0.025929714 0.00032987815 0.004225015
0002a0 b0 10 98 bc 90 96 ff bd 71 04 ae 3d 77 93 0b 3d
       -0.018562645 -0.124798894 0.08496941 0.03407618
0002b0 be 55 e4 3d 13 f1 a4 bc 77 53 02 3e f6 24 3e 3e
       0.111491665 -0.020134484 0.12727152 0.18568787
0002c0 7e 47 89 bd f9 2c df 3c c8 4e 02 3e 4c 8f e1 bd
       -0.06703089 0.027243124 0.12725365 -0.1101366
0002d0 f0 0a f7 3d fa a4 73 3d 8d 5b a5 3c a8 ff a5 bc
       0.12062633 0.059483506 0.020185256 -0.020263508
0002e0 f5 99 d8 3d 4c 8c f4 3d 2c 91 8a bd d4 0b 22 be
       0.1057624 0.11940822 -0.067659706 -0.15824825
0002f0 b2 79 18 3d 7e 6b 50 be 16 01 c4 bc 3e 13 05 3d
       0.037225433 -0.20353505 -0.023926299 0.032489054
000300 89 ae f3 3b 11 86 93 bd 08 28 b4 3c 81 e0 25 3e
       0.0074365777 -0.072033055 0.021991745 0.16198923
000310 73 dd b5 b9 37 ae ab 3c 04 be ce bd 32 23 21 3d
       -0.00034688003 0.020957096 -0.10094836 0.039340205
000320 38 b5 af 3c 6c 0c 14 3d d3 f3 0f 3e f2 f2 40 3d
       0.021448717 0.03614466 0.14057855 0.04710669
000330 35 06 9b bc f2 4e 01 3e 7f 10 05 3b 2d e4 ab 3d
       -0.018923858 0.12627771 0.0020304022 0.083931305
000340 18 91 ea bc 12 7f b5 3d 42 33 1e be 8d e2 0a 3e
       -0.02863364 0.08862127 -0.15449241 0.13562985
000350 36 0e 34 bd b6 09 81 3c 44 9f f6 bd 14 9a b7 bd
       -0.043958865 0.0157517 -0.12042096 -0.08964935
000360 70 10 e5 bc b9 97 12 3a 5f 75 32 be be 4f 51 3d
       -0.02796194 0.00055920664 -0.17427586 0.05110144
000370 12 a7 29 3c 1b 93 c7 bc a3 2d 1e bd a7 a4 c5 3d
       0.010354774 -0.024362138 -0.03861774 0.096505456
000380 84 fa d2 3d 3e 3a d2 3d 12 5a ea 3d 69 80 08 be
       0.10301688 0.10265015 0.11442961 -0.13330235
000390 68 30 fe 3c da de 27 3d 43 0c b4 bc 03 a7 bf bb
       0.031028941 0.040984012 -0.021978503 -0.005848767
0003a0 80 b7 97 3c ed 57 b2 3d 3e 5b 5f 3e 11 72 55 bb
       0.018520117 0.08708177 0.2181215 -0.003256921
0003b0 40 c8 e5 3c 71 63 99 3d 09 39 74 ba 3e 81 95 3d
       0.028049588 0.0748967 -0.000931636 0.073000416
0003c0 40 90 14 3e f9 5a 7b 3d 64 d5 08 3e 71 77 d8 3d
       0.14508152 0.061366055 0.13362652 0.10569657
0003d0 14 89 a0 3d 36 1a 10 be 5c d5 08 3d 20 06 9f bc
       0.078386456 -0.14072499 0.0334066 -0.0194121
0003e0 db a9 81 3d 0f a7 92 bd 4f 05 bc bd ee f2 39 3d
       0.063312255 -0.0716077 -0.091807 0.04539769
0003f0 a1 cf fc 3d 3e 3d 94 3d d0 b0 c1 3c a3 c8 cc bc
       0.123442896 0.072382435 0.023643881 -0.024998015

bias f4 [64]
000000 3e b2 22 3d fc da 01 3e 52 5e eb bd bc 2e 45 3c
       0.039720766 0.12681192 -0.114925995 0.012035068
000010 06 a5 b0 3c ad e5 9d 3d 09 45 70 bc b9 de 8d 3d
       0.021563064 0.07709823 -0.014664897 0.069272466
000020 ba c3 d6 3d 32 27 a9 3c 9f 79 0c 3e 38 4f 8b bd
       0.10486551 0.020648573 0.1371827 -0.06802219
000030 cd 3c f3 bb 7b 2f 51 bd b9 0b c0 bc 61 8b b2 3d
       -0.0074230195 -0.05107067 -0.02344309 0.08717991
000040 db df 4d 3d 8e 39 01 be e6 b6 b4 bd 6e 5e 93 bc
       0.050262313 -0.12619612 -0.088239476 -0.017989364
000050 e4 03 3d 3d 90 3e 5e 3e 8f 5f 5c bb 49 23 63 bd
       0.04614629 0.21703553 -0.0033626293 -0.055453572
000060 16 94 f6 bd fb f9 d4 bc a9 40 ce 3b 14 dd f4 bd
       -0.12039964 -0.025998106 0.006294329 -0.1195623
000070 64 24 8b bd c3 ca 72 3c d1 93 a6 bd bc 7c c4 3d
       -0.0679405 0.01481885 -0.081336625 0.09594104
000080 9d dc 87 3d 90 6e db bc 72 8a 9e 3d 73 d3 97 bc
       0.066338755 -0.026786119 0.0774125 -0.018533444
000090 c7 31 e1 3d e4 d9 85 bd 46 22 fa bd ae d3 b8 3d
       0.109958224 -0.065357 -0.122135684 0.0902475
0000a0 b1 a9 4f bd 50 75 ae bc 26 fd c5 3d 84 e0 79 bc
       -0.05069894 -0.021296173 0.09667425 -0.015251283
0000b0 7b 1c bb bd e8 f2 d2 bd 6d 6e b7 bd 3a 88 a0 3c
       -0.091362916 -0.10300237 -0.08956609 0.019596208
0000c0 30 d7 de 3c be 3c 19 bc 8a 8d 9b bd d4 d0 ee bc
       0.027202219 -0.009352861 -0.07595356 -0.029152311
0000d0 66 9a 52 3d 21 21 56 3d 73 3b c4 3c 92 ee 82 bd
       0.051416777 0.052277688 0.023954129 -0.0639316
0000e0 c3 28 94 bc 69 8e d5 3d 88 df 9c 3d ed ae e3 3c
       -0.018085843 0.10427553 0.07659823 0.027793372
0000f0 46 74 0a 3e 82 b4 30 3b b5 d3 b0 3d e4 6f fc bb
       0.13520917 0.002696306 0.0863413 -0.007703768

weight f4 [3, 64]
000000 11 10 89 bc 06 6a 1c be cf e3 1b 3e 42 39 6b bd
       -0.016731294 -0.1527482 0.15223621 -0.057427652
000010 a1 10 8c bd c8 2f ee bd c0 d7 8f 3c 82 42 27 be
       -0.06839109 -0.11630207 0.017558932 -0.16333964
000020 00 df ef 3c 9f 76 cb bd cf e2 af bd 4a 31 5d bd
       0.02928114 -0.099347346 -0.08588182 -0.054002084
000030 eb 2e 8c bd f0 6e 87 bd 59 fe cc 3d d9 ff 5a bd
       -0.068448864 -0.066129565 0.100094505 -0.05346665
000040 52 c2 eb 3c 06 6f 35 3e 4e e9 a2 3d 2d 27 dd 3d
       0.028779183 0.17718133 0.079546556 0.10798488
000050 a8 a5 9a bd 82 e9 9a 3d 8a 97 ff bc ce df 17 be
       -0.07551128 0.07564069 -0.03120019 -0.14831468
000060 3a d3 cc 3d f9 44 fe 3d 45 fe e7 bd 34 16 61 bd
       0.10001226 0.12415499 -0.11327795 -0.054952815
000070 11 05 29 3d a6 61 da bd 5b 55 c6 3d e2 bb 61 3d
       0.041264597 -0.10663156 0.09684249 0.05511082
000080 d7 77 be bd 2f 8d 11 3e e8 c6 47 3d ad e7 90 3d
       -0.093002014 0.14214014 0.048773676 0.07075439
000090 39 5b 50 bd 5d 0f c9 3d 1d d8 a6 be 41 0e 7f 3d
       -0.050868247 0.098173834 -0.32586756 0.062269453
0000a0 66 c8 2e bd 00 36 8b b9 72 f8 18 be ba a7 85 bd
       -0.042671584 -0.0002655238 -0.14938524 -0.06526132
0000b0 b4 d7 5e bc 75 95 01 3e d2 24 b4 3d 8f 29 01 3e
       -0.013601232 0.1265467 0.087960854 0.1261351
0000c0 9f e7 d5 bd 19 81 c5 3c d0 19 c9 bd b4 da fa bc
       -0.10444569 0.02410941 -0.098193765 -0.030621864
0000d0 9c 9e 0a be 9c 6a f1 3d 43 0a c6 3d bb 04 c5 bd
       -0.13537067 0.11787912 0.09669926 -0.09620043
0000e0 a0 9e 80 bd c6 8b 38 3d 0d 4a 2b bd 79 df a4 3d
       -0.06280255 0.045055173 -0.041818667 0.080504365
0000f0 72 96 68 be 50 82 17 bd ac c7 04 be 4a aa 12 3e
       -0.2271364 -0.03698951 -0.12966794 0.14322773
000100 40 00 d8 bd 0d c2 36 bc 2b d1 cc bd 11 47 a2 bc
       -0.10546923 -0.011154664 -0.10000833 -0.019809278
000110 c5 12 88 bd 4a f7 78 3d fd 58 cf bd ef e0 f9 3c
       -0.06644205 0.06078271 -0.10124395 0.030502765
000120 54 b3 03 3e 60 0c be bd 4e 1f d9 3c 8d 26 96 3d
       0.12861377 -0.09279704 0.026504185 0.07331572
000130 50 e8 9f bd ed fd da bd 0f 07 91 bd b0 58 dc bd
       -0.07807982 -0.10692964 -0.070814244 -0.10759103
000140 2e d3 a7 bd e7 36 04 3e f8 84 c0 3c 99 df bf 3d
       -0.08194576 0.12911569 0.023500904 0.0936882
000150 70 fa 1e 3d 13 b4 78 3e 08 c7 4d bd f7 89 cc 3e
       0.038813055 0.24287443 -0.05023864 0.3994901
000160 3e 95 11 3d 26 aa 10 3d 0e 1e 60 be 08 e8 c4 bc
       0.03554272 0.035318516 -0.21886465 -0.024036422
000170 23 ac 7a 3d e0 2a b8 bd c4 da e3 bd e5 c5 4f bd
       0.06119932 -0.08992553 -0.111257106 -0.050725836
000180 a6 29 16 be 93 e9 e9 37 70 66 39 bd 05 84 a3 bc
       -0.14664325 2.7884531e-05 -0.045263708 -0.019960413
000190 95 71 7e bd df 4e f9 bd 2d 7c df be dc d9 05 bb
       -0.06212004 -0.121732466 -0.43649426 -0.0020424044
0001a0 f8 a2 22 bd 20 9c 9b bc b2 61 97 3d 08 bb 15 be
       -0.0397062 -0.018995345 0.07391681 -0.14622128
0001b0 5c 7d 7d 3c 56 cb 8e 3d f1 7e 93 39 6c 50 a7 3d
       0.015471783 0.06972377 0.00028132604 0.08169636
0001c0 1e f3 34 bd b4 bb 15 bd 02 2e 87 3d de 97 c7 3d
       -0.044177167 -0.03655596 0.06600572 0.09745763
0001d0 b5 f5 84 bd c2 96 eb 3d 29 af c4 3d 7d db 3a 3d
       -0.064921774 0.11503364 0.09603722 0.045619477
0001e0 0b 6f 3c 3d 6c b6 c8 3d 5e e6 55 3d 66 1e ea 3c
       0.046004336 0.09800419 0.05222165 0.028578948
0001f0 61 56 09 3e 66 db 05 bd ac b9 c7 bc 0b 05 0e be
       0.13411857 -0.032679938 -0.024380527 -0.13869111
000200 22 1c bb 3d 4e 5d 1e be 8a 11 3c be ba c7 f1 bd
       0.09136225 -0.1546528 -0.18366066 -0.11805673
000210 c5 8a 31 be 41 ac c1 bd 6b 51 1d 3e 6c f5 4e 3d
       -0.17338093 -0.09456683 0.1536309 0.05052702
000220 06 ff 95 3d 3c 98 45 3c 39 d1 5e bb 90 b7 1b 3e
       0.073240325 0.012060221 -0.0033999218 0.15206742
000230 b4 3e 1c bc 94 82 ce 3d 29 fd f2 3d 0e a9 b4 bd
       -0.009536434 0.100834996 0.11864693 -0.08821307
000240 8e 43 ae bd f4 95 c5 3d ca 11 af 3d e8 44 1c be
       -0.08508979 0.09647742 0.08548315 -0.1526066
000250 7a 63 5c bc a3 66 d3 3d a2 bf eb 3d c8 6f fc 3d
       -0.013451451 0.10322311 0.115111604 0.12326008
000260 a7 15 2b 3c b7 ef 01 3e 60 99 17 be a0 b2 aa bc
       0.010442174 0.126891 -0.14804602 -0.020837128
000270 96 9f b2 3d 0d cc b7 3b 4d d9 2c 3d 75 75 16 be
       0.08721845 0.0056090415 0.04219942 -0.14693244
000280 dd c4 db 3d 8f dc 02 3e a1 6c b0 bd 59 03 01 3e
       0.10730908 0.12779449 -0.08614469 0.12598933
000290 d1 e3 4f bc d3 a8 c3 bd a8 84 2c bd df 9d a6 bd
       -0.012688593 -0.09553685 -0.0421187 -0.0813558
0002a0 ee 40 d2 bb d0 fa 42 bc 50 1a 19 be b7 44 10 3e
       -0.0064164316 -0.011900619 -0.14951444 0.14088713
0002b0 90 c4 08 3a df 8e 3e be 1f b7 6e 3c 9e a8 f8 bd
       0.00052172784 -0.18609188 0.014570027 -0.12141536
0002c0 8e 18 8f 3d 22 a4 35 3d 0c ca 2d bd ab ac 92 3e
       0.06987105 0.044345982 -0.042429015 0.2864736
0002d0 0d f1 c0 3d 9e 5d e5 bd 55 91 2a 3d f6 88 15 be
       0.09420977 -0.11199497 0.041642506 -0.14603028
0002e0 d2 31 d0 bd c6 a1 c0 bd e4 7f df 3d c9 34 0d 3d
       -0.101657525 -0.09405856 0.10913065 0.034474168
0002f0 83 b1 ea bb 8a bf 84 3d b8 97 fc 3d a1 07 31 be
       -0.0071622743 0.06481846 0.123336256 -0.17288066

bias f4 [3]
000000 ee 67 f0 3c 24 dc 64 bd 70 b1 dd 3d
       0.029346433 -0.055874005 0.10824859

exp_avg f4 [64, 3]
000000 e0 a0 81 38 20 10 a1 b8 67 30 9e 35 82 95 11 ba
       6.181165e-05 -7.680082e-05 1.1786004e-06 -0.00055535894
000010 4e 57 61 ba 96 c8 8b b7 e4 38 3f 39 63 f6 44 ba
       -0.0008596078 -1.6663496e-05 0.00018236373 -0.0007513521
000020 23 46 1a 39 bc 73 ee 38 e4 cd 35 b9 07 a0 c8 38
       0.00014712712 0.000113702816 -0.00017338205 9.5665506e-05
000030 a4 1b af b9 1a f6 d6 b9 8e ea 60 b7 97 52 57 38
       -0.00033399195 -0.0004100062 -1.3406052e-05 5.1336912e-05
000040 cf 86 54 38 6d 10 25 39 f8 2f 07 b8 90 a5 30 39
       5.067029e-05 0.00015741745 -3.2231183e-05 0.00016846345
000050 61 f0 2e b9 e6 16 81 b8 da 76 3e b8 79 78 2b b7
       -0.00016683481 -6.1554645e-05 -4.541022e-05 -1.0220444e-05
000060 83 cc a2 b7 9d 30 a7 38 96 a0 98 38 fa 25 a6 b8
       -1.9407138e-05 7.9722355e-05 7.277836e-05 -7.9225705e-05
000070 78 85 b1 b9 ac 5d 5d b9 2a 99 1b 39 b5 96 2a b9
       -0.00033859513 -0.00021111098 0.0001483901 -0.00016268606
000080 b1 8b 6f b5 fb 15 eb b7 bd e8 56 37 04 20 c0 37
       -8.9237716e-07 -2.8024418e-05 1.2809583e-05 2.2903092e-05
000090 95 62 3d 39 f5 6a f8 b8 27 96 2d 39 98 bd d5 38
       0.00018061169 -0.00011845484 0.00016554502 0.00010191946
0000a0 b5 df ed b8 69 2b 3b b9 52 f6 8b b9 60 3f fe b7
       -0.00011342709 -0.00017849881 -0.0002669567 -3.030867e-05
0000b0 a7 bf 26 b9 9d 23 03 b9 99 12 66 b9 c5 92 30 37
       -0.0001590239 -0.000125064 -0.00021941437 1.052459e-05
0000c0 2f 96 1e b9 ef 6b 0d 39 38 5f e6 b8 8d 98 56 38
       -0.00015124002 0.00013487016 -0.000109849905 5.116365e-05
0000d0 d2 b8 be b8 4f 1c 98 b8 af a2 92 b8 70 a2 ca 36
       -9.0943315e-05 -7.253198e-05 -6.992125e-05 6.0389793e-06
0000e0 9b 15 be 38 c7 42 95 38 69 9d 1e 37 1d 7a 11 b8
       9.06393e-05 7.117312e-05 9.454184e-06 -3.468442e-05
0000f0 82 ae 31 b8 45 f4 6b 35 56 79 e9 b7 ac f3 d3 38
       -4.236261e-05 8.789978e-07 -2.7832266e-05 0.000101066515
000100 12 a9 cd b8 d2 55 51 39 85 b9 7c b9 51 11 90 39
       -9.8066535e-05 0.00019963764 -0.00024101704 0.00027478722
000110 c1 f7 47 b9 ac 8a 90 38 61 be 27 38 e1 48 5f b8
       -0.00019070414 6.892285e-05 3.9993207e-05 -5.3235217e-05
000120 56 3a 1b 39 0e e8 40 b9 f3 0b e1 38 69 dd b2 b6
       0.00014803684 -0.00018396994 0.00010731062 -5.330589e-06
000130 ab d1 15 b8 1a 76 fb b7 dc 71 7a 39 6c 69 cf b8
       -3.5719637e-05 -2.9976527e-05 0.00023884274 -9.8901655e-05
000140 80 39 8c b9 10 4f e5 39 81 98 a9 b9 98 59 c4 39
       -0.00026745722 0.0004373719 -0.00032347816 0.00037450786
000150 7b 55 cc 38 cf 2e 26 ba 7f 2c 13 b9 f3 05 88 b8
       9.7434e-05 -0.00063393725 -0.00014035589 -6.4860935e-05
000160 96 84 01 b7 6f 99 f3 37 88 53 fc 39 38 41 ff b9
       -7.719869e-06 2.9039305e-05 0.0004812742 -0.00048685982
000170 b0 0a e5 39 c8 9a c7 38 dd c0 09 b9 31 97 b0 38
       0.00043686246 9.51789e-05 -0.00013137185 8.4204956e-05
000180 9c 98 bc 38 b0 47 6f b9 b3 ef 2c b8 fc 52 fc b8
       8.992964e-05 -0.00022819522 -4.1231233e-05 -0.000120317534
000190 d5 7d a0 b8 d1 f8 35 37 b7 21 85 b4 ab 27 2f b6
       -7.6528326e-05 1.0846373e-05 -2.479771e-07 -2.6100122e-06
0001a0 40 d6 b5 b7 b1 92 67 38 45 6c 71 38 bd 9e f6 38
       -2.167665e-05 5.521131e-05 5.755971e-05 0.000117597614
0001b0 3d 24 94 36 d0 75 32 37 92 83 e5 b7 ba c3 8b 38
       4.4149624e-06 1.0637057e-05 -2.7360195e-05 6.6644934e-05
0001c0 bd b2 b2 b9 14 52 30 39 2b db b8 b8 67 58 68 b9
       -0.00034083976 0.00016815244 -8.814627e-05 -0.00022158177
0001d0 5a f1 ef 38 7a d1 10 b9 bb 7a c7 b9 68 1f b5 38
       0.00011441363 -0.00013810946 -0.0003804768 8.6366024e-05
0001e0 97 e0 96 38 54 58 8d b9 c7 22 1f 39 d9 d9 0a b9
       7.1943905e-05 -0.00026959425 0.00015176377 -0.0001324186
0001f0 3d af 6d 36 b5 06 1d 39 46 68 5d b9 5f 81 b6 b8
       3.5417754e-06 0.00014975185 -0.00021115047 -8.7025335e-05
000200 17 18 71 39 20 9e 24 37 95 52 da 38 c3 04 f3 38
       0.00022992525 9.811978e-06 0.00010410432 0.0001158803
000210 d8 b4 59 39 42 ba 97 b7 b7 a3 fc 38 70 15 5e b8
       0.00020762102 -1.8087336e-05 0.00012046791 -5.294889e-05
000220 35 84 02 38 5c 48 31 37 c3 83 af 36 83 c6 ad 36
       3.1117543e-05 1.056687e-05 5.2307455e-06 5.1789116e-06
000230 a4 56 f5 38 6c de 4a 39 06 04 1d b9 23 68 08 39
       0.000116986484 0.0001934708 -0.00014974186 0.00013008765
000240 83 ba 9f b7 38 4c 13 b9 4b 80 37 35 bf 10 8e 39
       -1.9041128e-05 -0.00014047406 6.8359503e-07 0.00027096827
000250 34 5d de b9 e2 38 86 36 82 e3 36 b8 fd 45 2e 38
       -0.0004241258 4.0001332e-06 -4.3604065e-05 4.1550014e-05
000260 db 48 2d b7 7c 93 2e b9 2c 3a aa 37 7e 09 4a 39
       -1.03285665e-05 -0.00016648875 2.0292668e-05 0.00019267757
000270 32 77 e3 b7 92 f5 e4 36 ad f0 c8 37 fe a6 fd 37
       -2.7116013e-05 6.8235177e-06 2.3953931e-05 3.0237712e-05
000280 a2 8b 00 b8 84 43 82 b8 29 5d 09 39 a1 0d 62 39
       -3.064762e-05 -6.211459e-05 0.00013100043 0.00021558117
000290 8d b6 1e b9 4a 98 e7 b7 f0 65 3d b8 ad 78 9f 38
       -0.0001513606 -2.7608261e-05 -4.5156048e-05 7.6041884e-05
0002a0 93 3a 8f b9 96 72 56 b9 f3 bf 15 37 48 0d 34 b9
       -0.00027318727 -0.00020451317 8.925784e-06 -0.00017171085
0002b0 55 2e af 38 51 97 15 39 7d dd 9f 39 43 ea 5d ba
       8.35328e-05 0.00014266117 0.00030491865 -0.00084653887
0002c0 a9 ce 30 b9 07 62 b4 39 a7 5e 01 ba 16 5d 23 b9
       -0.00016861655 0.0003440531 -0.0004935064 -0.00015579569
0002d0 1e 2d 13 b5 db de 0a 39 86 5a e1 b8 e5 3f 88 39
       -5.482742e-07 0.00013243726 -0.00010745697 0.00025987547
0002e0 b9 09 fd b8 96 03 8b b9 ba bd 9f ba 6c 6c 1f b9
       -0.00012065791 -0.00026514818 -0.001218728 -0.00015203812
0002f0 51 fd f4 b7 0f c5 35 b9 37 e1 5c 39 1d 3f 97 39
       -2.9205026e-05 -0.00017334915 0.00021064734 0.00028847987

exp_avg_sq f4 [64, 3]
000000 e2 b9 5b 36 f1 03 c5 35 bc 59 eb 35 09 71 02 37
       3.274174e-06 1.4678791e-06 1.753498e-06 7.774922e-06
000010 3f 02 8a 37 30 a7 4d 35 35 00 1c 37 e2 4f 67 37
       1.6451928e-05 7.661174e-07 9.298373e-06 1.3787272e-05
000020 e8 91 ca 35 b7 5b 37 36 9f 5d d1 37 5a ad 5a 36
       1.5092637e-06 2.732251e-06 2.4958337e-05 3.2585435e-06
000030 9e 3f 93 37 88 fa 11 38 a8 39 2a 37 19 39 cb 35
       1.755339e-05 3.480402e-05 1.0146214e-05 1.5141296e-06
000040 f3 18 6a 36 da cc f7 35 bc 91 48 35 f5 38 81 36
       3.488324e-06 1.8462554e-06 7.471788e-07 3.8511303e-06
000050 97 ae dd 35 c7 32 24 37 08 0b 04 37 fe 3c 4e 36
       1.6516595e-06 9.786984e-06 7.8703815e-06 3.0731894e-06
000060 8e 98 97 36 84 11 44 37 23 56 b8 36 77 d4 64 37
       4.5179104e-06 1.1686589e-05 5.493655e-06 1.3639327e-05
000070 b0 3d 98 36 2f 3b 3f 36 a9 8b 49 36 49 be 78 35
       4.5371344e-06 2.8495667e-06 3.0032627e-06 9.26641e-07
000080 dc 48 11 35 64 97 a5 34 a0 ba 94 34 5e 42 73 34
       5.4122734e-07 3.0843796e-07 2.7702936e-07 2.2655283e-07
000090 61 6c ce 36 a7 9d 89 36 b9 9c 51 36 ab e5 6b 36
       6.1518954e-06 4.1012713e-06 3.1234651e-06 3.5151413e-06
0000a0 38 d9 1b 37 60 33 f9 36 bf 90 46 37 a7 f2 96 36
       9.289295e-06 7.426759e-06 1.1835421e-05 4.498597e-06
0000b0 29 d5 2b 36 44 43 4b 35 18 65 9a 35 9d 34 9c 35
       2.5605061e-06 7.572128e-07 1.1503316e-06 1.1638218e-06
0000c0 ca eb 8b 35 0e 02 4a 35 5a 9e 8a 35 31 8a a6 36
       1.0424931e-06 7.5253854e-07 1.0327888e-06 4.963273e-06
0000d0 25 5b 16 37 b7 bd c3 35 bf 80 f5 35 28 84 fc 35
       8.961918e-06 1.4583846e-06 1.8291393e-06 1.8813926e-06
0000e0 f3 4f a9 35 d2 7f 89 35 ef 47 96 35 30 a3 d2 34
       1.261475e-06 1.0244496e-06 1.1196806e-06 3.9234283e-07
0000f0 da 59 75 34 03 c2 28 35 44 30 5c 34 82 5d 41 36
       2.2850091e-07 6.28672e-07 2.0506656e-07 2.881367e-06
000100 d4 c0 08 36 8a 28 af 36 b3 5c 86 37 cf 02 4d 37
       2.037782e-06 5.220126e-06 1.6017211e-05 1.2219606e-05
000110 15 f6 43 36 74 7c a4 34 ce 6b 94 34 d9 66 02 35
       2.9200503e-06 3.0637932e-07 2.7645586e-07 4.8578437e-07
000120 1c f5 87 36 3b 8a da 34 52 cb 3e 35 0e 5b 17 35
       4.051848e-06 4.070624e-07 7.1076386e-07 5.6384386e-07
000130 c5 8a c5 34 0b 51 cb 33 37 fe 28 37 e3 b0 25 38
       3.6795078e-07 9.467666e-08 1.0072769e-05 3.9503804e-05
000140 05 5f b3 36 e9 5f 0b 36 58 18 0e 37 cf db 58 36
       5.3456774e-06 2.076844e-06 8.4695275e-06 3.2314454e-06
000150 96 30 da 37 1a 99 5f 38 24 2c 39 36 db 68 85 35
       2.601025e-05 5.330993e-05 2.7592841e-06 9.939789e-07
000160 7e f3 8f 34 e0 4d b2 35 ef ac 64 36 89 80 16 35
       2.681299e-07 1.3284698e-06 3.4075308e-06 5.60664e-07
000170 16 1a b0 35 4d 48 00 37 77 a3 23 38 1d 28 35 36
       1.3120614e-06 7.646228e-06 3.9014467e-05 2.699445e-06
000180 23 a7 85 35 08 6d 19 35 23 52 c2 34 12 47 2d 36
       9.957915e-07 5.7155603e-07 3.6195078e-07 2.5820377e-06
000190 22 6c 02 36 c7 48 cb 34 a3 5a a9 34 e1 d2 c3 34
       1.943445e-06 3.786465e-07 3.154465e-07 3.6475015e-07
0001a0 a9 e5 29 35 3c bc 35 36 0f 4c e6 36 d7 fb 04 36
       6.3291606e-07 2.7080669e-06 6.8633885e-06 1.9816123e-06
0001b0 0f c8 2d 36 58 b3 33 35 1a 58 0a 36 74 2a f2 35
       2.5895458e-06 6.6943676e-07 2.0614884e-06 1.804276e-06
0001c0 6f ef 0a 37 3c 77 2e 35 4e a1 27 35 a1 23 a4 34
       8.2811885e-06 6.499356e-07 6.244708e-07 3.0573304e-07
0001d0 b1 9b f8 34 ff 0c b3 36 4a 68 94 36 bc be 1b 36
       4.630688e-07 5.3361287e-06 4.4228846e-06 2.3207822e-06
0001e0 04 36 f4 36 54 c8 d3 36 45 dd c7 36 b0 62 a4 35
       7.278055e-06 6.3116113e-06 5.9564213e-06 1.2247674e-06
0001f0 28 4e 29 36 a2 75 c2 35 f2 fe 4b 36 80 aa fd 35
       2.5228455e-06 1.4488362e-06 3.0397755e-06 1.8899591e-06
000200 42 35 d6 35 69 db dd 36 54 66 cc 35 05 45 64 36
       1.5959743e-06 6.611856e-06 1.5228966e-06 3.4014822e-06
000210 af 97 62 36 98 3b 8e 37 7b 4c 32 36 d0 09 b7 34
       3.3764916e-06 1.695547e-05 2.6568584e-06 3.4093546e-07
000220 20 8c 73 35 6b 23 f5 33 f9 d3 cd 36 29 d1 34 37
       9.0728463e-07 1.1415144e-07 6.134153e-06 1.0777535e-05
000230 e3 81 31 35 cb f9 79 36 ad 3d ac 35 69 f8 17 36
       6.612665e-07 3.724929e-06 1.2832949e-06 2.2645347e-06
000240 45 cb 59 36 db 8a 35 37 1e 10 47 35 78 56 9e 37
       3.2453838e-06 1.08207705e-05 7.415673e-07 1.8875333e-05
000250 ff 60 63 37 f8 35 8a 35 40 d3 e9 36 23 ce f5 35
       1.3552838e-05 1.0297508e-06 6.968534e-06 1.8313916e-06
000260 b0 20 42 35 5a 88 5d 37 27 1a 55 37 2d 70 97 36
       7.23182e-07 1.3204373e-05 1.2701878e-05 4.5132097e-06
000270 22 0c 10 35 6b 4e 4a 35 4d a4 97 33 17 ad 11 37
       5.3661836e-07 7.536498e-07 7.0613716e-08 8.682974e-06
000280 dc e2 d0 37 12 a8 c0 36 be b4 19 37 d1 fb f2 36
       2.4901172e-05 5.741612e-06 9.161593e-06 7.2414773e-06
000290 a1 fe 84 35 8a c2 47 36 72 72 23 37 a2 05 39 36
       9.908873e-07 2.9766547e-06 9.7422035e-06 2.7570427e-06
0002a0 0a 4f 56 37 fc 58 98 36 65 24 90 36 cb 04 7c 35
       1.2773797e-05 4.540312e-06 4.2957713e-06 9.388429e-07
0002b0 b6 09 f2 34 aa 0b 21 36 b5 b8 5f 37 78 ce f7 37
       4.5083078e-07 2.399766e-06 1.3334841e-05 2.9540839e-05
0002c0 f9 ec 8a 36 d8 4b 0e 38 95 09 33 38 c0 11 c9 36
       4.1403077e-06 3.3926073e-05 4.268585e-05 5.992333e-06
0002d0 18 cb f2 35 76 44 a8 35 36 b2 00 35 9e 41 17 37
       1.8089513e-06 1.25369e-06 4.7943047e-07 9.015579e-06
0002e0 72 6b 7a 37 0d a2 32 36 76 a4 45 38 12 9b 25 38
       1.4926178e-05 2.6618393e-06 4.7121626e-05 3.9483486e-05
0002f0 88 83 37 36 45 fc 45 36 e5 0c 62 36 a7 12 56 36
       2.7345686e-06 2.9502128e-06 3.368413e-06 3.1899342e-06
