models/model_cavity_nu0.01_U1_20x20_epochs1000_softadapt_testpcnt0.8.pt (torch, 187017 bytes, 30 tensors)

weight f4 [64, 3]
000000 66 d6 e1 be 48 54 1c bf 6c 9e 8b 3d f6 a7 d5 be
       -0.44108886 -0.61066103 0.06817326 -0.41729707
000010 df 16 c6 3e c7 59 8e be f1 a5 a3 3d a5 98 33 3f
       0.38689324 -0.2780287 0.07990635 0.7015479
000020 4d 6f 13 3e 1c 97 b4 be 87 31 c5 3e b7 67 2d be
       0.14397927 -0.35271537 0.3851435 -0.16934095
000030 8b 82 c9 3d 85 dd 25 3f 4c 41 97 3e 49 06 e6 3e
       0.09839352 0.64791137 0.29542005 0.4492667
000040 90 6e 1b bf 98 ed e0 b8 a9 d6 62 3e a6 e9 01 3e
       -0.6071558 -0.000107254076 0.22152199 0.12686786
000050 f2 01 0d 3e 9f 99 67 be 45 4b 7c be 9e 44 a1 be
       0.13770273 -0.22617196 -0.24638088 -0.31497663
000060 91 c7 1d 3c 8e 71 7d 3e 1b 5e 3f 3d fc a3 46 bb
       0.0096301 0.24750349 0.046720605 -0.0030310145
000070 a2 77 38 bd eb d3 ae be ff 53 3e be 14 cd af bd
       -0.045035966 -0.34146056 -0.1858673 -0.085840374
000080 5c 72 db bd 5b 6a a2 be 6d 5a 49 be ee 3d b6 3d
       -0.10715172 -0.31721768 -0.19663401 0.08898531
000090 d2 4a a1 be 3d 1f 19 3f 80 69 b4 be 29 69 0a 3e
       -0.31502396 0.5981329 -0.3523674 0.13516678
0000a0 e0 6e ac be 5a 64 75 bd 6f dd bf 3c d5 64 a3 bc
       -0.3367834 -0.059910156 0.023421017 -0.019945541
0000b0 8d f1 c7 3e 7e bc 12 bf 41 1a 12 3f 35 8c 70 3b
       0.39051476 -0.57318866 0.5707131 0.0036704664
0000c0 79 85 d0 3e 57 05 69 3e d7 49 3a bd 38 bb 17 bf
       0.40726832 0.22755943 -0.045480575 -0.5927005
0000d0 f1 ac b9 3e b9 1c a2 3e b9 73 d4 be eb b0 82 3e
       0.36264756 0.3166254 -0.4149454 0.25525603
0000e0 e5 fc 72 3e e4 36 54 bf d3 5d 00 3d 83 3b 87 3e
       0.23729284 -0.82896256 0.031339478 0.2641259
0000f0 7c 10 f9 bd ef 8c ea 3e 09 ed 95 bd e8 2d 9f 3e
       -0.12161347 0.4581065 -0.073206015 0.3108971
000100 63 6b 0b 3f 7f 35 32 be 2d 08 63 3e b7 ad aa 3e
       0.54460734 -0.1740322 0.22171088 0.3333566
000110 f3 d1 af bd 7f c7 17 bf 81 8b f7 3e cf 54 b4 be
       -0.085849665 -0.5928878 0.4834862 -0.35220954
000120 64 cc a0 3d 2c a8 49 3f f4 e8 17 3e 11 43 1d 3f
       0.078514844 0.78772235 0.14834958 0.6143046
000130 f8 93 4c 3e a8 bd c3 be 67 25 54 bd fc c2 31 bf
       0.1997832 -0.38230634 -0.051793482 -0.6943815
000140 c9 7f 7f 3e 31 57 dc bc 4b 6f 5c bd 72 02 bc be
       0.2495109 -0.026897045 -0.053817075 -0.36720616
000150 a6 a8 13 3d d3 6f ff 3d 83 ee 7b be 3a 0d b5 3e
       0.036049508 0.12472501 -0.24602704 0.35361654
000160 e7 4c 1d 3f 6b b0 4d be bc e3 c5 3c 30 c1 1e 3f
       0.6144547 -0.2008683 0.024156444 0.6201353
000170 9c 88 46 3d 28 1a 1f 3f ed 99 b9 3e 55 84 62 be
       0.048470125 0.62149286 0.3625025 -0.22120793
000180 29 45 d5 be a4 11 e4 3e 3f fe 23 be e8 f6 d5 be
       -0.41654328 0.4454471 -0.16014956 -0.41789937
000190 d9 1e ee 3e 7d e5 b1 3d 66 49 40 be cf a1 81 3f
       0.4650791 0.086863495 -0.18778 1.0127505
0001a0 73 61 25 bd 50 47 3c bd 72 5e 04 be 8d 8d 8a be
       -0.040376138 -0.045966446 -0.12926653 -0.2706112
0001b0 65 69 26 3e 05 c0 ef bd 68 63 6e 3e 4b 08 5e be
       0.16251142 -0.11706547 0.23280108 -0.21682851
0001c0 5b cc 93 3e 75 3d b0 bc b6 bb af 3e 6d 0f 12 bf
       0.28866848 -0.02151368 0.343229 -0.5705479
0001d0 26 77 17 bd 50 05 d0 be 96 4e ff 3c de ea 9d 3e
       -0.036978863 -0.40629053 0.031165402 0.30843252
0001e0 6c 4f 6f 3e 73 c8 cf 3c 9f 5d 44 3e d4 8e 11 3f
       0.23370141 0.025364136 0.19176339 0.56858563
0001f0 bf a1 f0 3e c0 2f 72 3e b4 76 b4 bd 08 d0 37 bf
       0.46998402 0.23651028 -0.08811703 -0.71801805
000200 0a cd 41 be a2 65 5b 3d fb 8f 42 3d 1c 4e 85 3e
       -0.18925872 0.05356372 0.04750059 0.26036155
000210 5f a6 13 bf 5c 4b c1 3e 67 ac 95 3d b5 79 1f bf
       -0.5767574 0.37752807 0.07308274 -0.62295085
000220 cc 0f 16 be 7d ba 11 3e 75 38 c0 bd 5c 62 21 3e
       -0.14654464 0.14231296 -0.09385768 0.15760177
000230 5f 1d c2 be 0e 4e 4a 3e cf a5 e6 3e a6 34 48 be
       -0.37913033 0.19756338 0.45048377 -0.19551334
000240 6e 1b 34 bc da 59 94 bc 07 53 be be a6 e8 b7 bd
       -0.010992868 -0.01810925 -0.3717272 -0.08979921
000250 af af af be 8d 95 17 be 66 0f b8 be de f9 b4 be
       -0.34313723 -0.14803143 -0.35949248 -0.35346884
000260 71 10 47 3e 9f 42 d2 3e ff f1 1f 3e c3 4c 78 3e
       0.19439866 0.41066453 0.15619658 0.24248032
000270 ff 2d 09 3d fd 7a 08 3f cc c7 26 3e 93 ea 95 be
       0.03349113 0.53312665 0.16287154 -0.29280528
000280 01 0e 13 3c 4f 82 d7 3d 9e 5f 69 3d ec a1 f0 3e
       0.008975507 0.10522901 0.056975953 0.46998537
000290 18 6f e5 3d 7b 26 9e be c0 a3 e6 3c 34 88 24 3d
       0.1120283 -0.30888733 0.028154254 0.040168956
0002a0 81 1b 18 3f dd c8 d3 3e cb 1b 65 be 55 bd 1e bf
       0.5941697 0.41364184 -0.22373883 -0.6200765
0002b0 5a a7 e9 be e3 e8 16 3e 74 35 0d 3f 3f 6f 06 3f
       -0.45635492 0.14737277 0.5515969 0.525135
0002c0 4b 9f 74 be b7 c1 1c bf f4 59 e8 3e d0 b9 b0 3e
       -0.2388889 -0.61233085 0.4538113 0.34516764
0002d0 d7 02 3d be 3a a3 c3 be fb fb 87 be e0 bc 8a 3d
       -0.18458115 -0.3821047 -0.26559433 0.06774306
0002e0 00 d5 84 bb 41 3c d7 be 87 9e 1f bf 9d d5 de be
       -0.004053712 -0.42038158 -0.6235127 -0.4352235
0002f0 de 48 85 3d 8c 7f f7 be f1 36 e8 3e ab 6d e5 bc
       0.06508039 -0.48339498 0.45354417 -0.028006395

bias f4 [64]
000000 50 e5 1e 3e 70 06 94 3c f9 9b 6e 3e b7 cf ea bc
       0.15517163 0.018069476 0.23301686 -0.0286635
000010 6c 9e d2 3e 13 36 1e 3e 44 71 0b 3e f2 2d 0f bf
       0.4113649 0.15450315 0.13617426 -0.5592948
000020 ca 74 77 3e a9 1b 2b bf ef df 29 3f 22 1c 2b 3e
       0.24165645 -0.6683908 0.6635732 0.1670995
000030 4c ac 82 be 21 29 95 be 0a 00 2a 3f 95 00 d5 3d
       -0.25522077 -0.2913294 0.6640631 0.10400502
000040 71 75 a4 3e b8 92 2a 3e 62 27 81 3d 7b 9b dd 3d
       0.3212085 0.16657531 0.0630634 0.10820671
000050 0c fd 33 3e d9 d9 ec bb 3a c6 23 be f7 fa 6b be
       0.17576998 -0.007228118 -0.15993586 -0.23044954
000060 5a 9d 4b 3e db db 0d 3e 49 33 15 be 6d 79 42 bf
       0.19884244 0.138534 -0.14570345 -0.7596653
000070 85 62 b5 3e c7 ed d3 3d 97 aa ac 3e 8e 99 60 3e
       0.35426727 0.10348087 0.337239 0.21933576
000080 49 d2 48 bd 64 14 56 3e c3 b6 84 3e 30 68 0d bf
       -0.04902867 0.20906216 0.25920686 -0.552371
000090 9c 94 c2 3e 7b 88 02 3e 45 88 81 3e f5 e4 05 3e
       0.38004005 0.12747376 0.25299278 0.13075621
0000a0 12 60 df 3e 0e e0 34 3e 8b c9 d3 be 50 c0 ff 3e
       0.43627983 0.17663595 -0.41364703 0.4995141
0000b0 33 f6 c9 3e 83 e7 81 3d 4f 14 4b 3f 31 14 fd 3e
       0.39445648 0.063429855 0.79327863 0.49429467
0000c0 9e bb 23 bf ff 77 dc be e3 bd 97 3d 5a a2 c9 3e
       -0.63958156 -0.430603 0.07409265 0.39381677
0000d0 6a 6e 62 3e 44 a2 a6 3d 24 be 10 3f ef 2c 16 3f
       0.22112432 0.081364185 0.5654013 0.58662313
0000e0 01 8e be 3d a9 4d 84 3e 22 cf b6 bd 74 be 22 3e
       0.09304429 0.258405 -0.08926226 0.15892965
0000f0 89 01 d8 be fe 13 02 bf 4c b6 9d 3e 08 fb d5 3d
       -0.4218867 -0.50811756 0.30803144 0.10448271

weight f4 [64, 64]
000000 7d 2b b4 bd b8 ee db bd 3e c1 3a 3d 5d a9 7f bd
       -0.08797357 -0.10738891 0.045594446 -0.062417377
000010 5f a6 b5 3c 87 b1 74 bc ff 80 df bd 85 69 38 bd
       0.022174058 -0.014934904 -0.10913276 -0.045022506
000020 c0 ab fc bb dc 24 84 bd a0 0d 40 bd 72 1d 06 bd
       -0.007710904 -0.06452343 -0.046887994 -0.032742925
000030 e8 ad 88 3c 9b 66 e6 bd a1 22 91 3c 9e 26 bb bd
       0.016684487 -0.11250039 0.017716708 -0.09138225
000040 db be 0f be a9 ec f0 bd 1b bb e5 bd ed 10 1c bd
       -0.1403765 -0.11763889 -0.11217328 -0.03810208
000050 56 9c 2d bd 0a d3 7d bd 9b 33 ae bd e5 21 b7 bd
       -0.04238542 -0.06196884 -0.08505937 -0.08942012
000060 5b 1e 6b 3c b5 94 ec 3d 50 d7 8b bc 6f 64 fc bd
       0.014350499 0.11551801 -0.017070442 -0.12323844
000070 d6 d5 9a 3c c7 c9 ac bd a8 a1 93 3d bc fb ba bc
       0.018900793 -0.084369235 0.07208568 -0.022825114
000080 70 b6 60 3c be 7b 0e bd bd dc 3f 3e f4 4c d4 3c
       0.0137153715 -0.03478598 0.18736549 0.0259156
000090 ba 4c 67 3d b7 b0 a2 bb f8 35 a9 3c 1d 35 dd bc
       0.056469657 -0.0049649137 0.020655617 -0.027002865
0000a0 4c 2f 85 bd ee 63 15 bd c4 14 9d bc 37 32 55 bd
       -0.06503162 -0.036472254 -0.01917494 -0.05204984
0000b0 03 bc 85 3d 9d fe 72 3c 68 17 16 be 45 d2 03 be
       0.06530001 0.014831212 -0.14657366 -0.1287318
0000c0 7f 7e 8d 3d 90 7b d5 bd f7 d7 9c 3d ff 59 07 bc
       0.06908893 -0.10423958 0.076583795 -0.008261203
0000d0 b8 7c 03 3e 13 ed 77 3d 19 8c 93 bd 03 9f ef 3c
       0.12840545 0.060528826 -0.07204456 0.029250627
0000e0 d3 cf 22 3d 40 1a 1e be c0 b1 c8 3c 58 8a 99 3d
       0.039748978 -0.15439701 0.02449882 0.0749709
0000f0 61 9b 10 be 75 cc 2a be 75 c1 87 bd 68 ad a2 3d
       -0.14121772 -0.16679557 -0.06628696 0.07943231
000100 29 84 26 3e 40 3f e3 bc 56 4e 8e bb cf 3f db 3d
       0.16261353 -0.02774012 -0.0043428345 0.1070553
000110 99 ee 2b 3c ec af d4 3c 22 bc 21 3e c9 3d c0 bd
       0.010493898 0.025962792 0.15794423 -0.093867846
000120 f2 03 aa bd 05 6c 22 3e bf c5 36 3e ec 48 4c 3e
       -0.08301534 0.15861519 0.17848872 0.19949692
000130 39 be 06 3d 96 66 68 3c 06 dd 4f 3e da eb 1e 3d
       0.032896254 0.014184615 0.20299158 0.038799144
000140 90 d3 b1 3d 16 a8 3a 3d 9e 8c e7 3d 45 14 30 3d
       0.086829305 0.045570455 0.113061175 0.04298808
000150 f9 1d 75 bd 23 8c 9e 3e df 27 8d 3c 42 e6 26 3b
       -0.059843037 0.3096629 0.017230926 0.0025466834
000160 21 f9 d2 3d f9 f7 f5 3d 3c b4 6a 3a 4f 5a 24 be
       0.10301424 0.12010188 0.00089532486 -0.16050075
000170 a1 c2 23 bd 28 3a 83 3e 6b 82 51 be e4 68 b4 bc
       -0.039980534 0.25630307 -0.20459907 -0.022022672
000180 12 9b 0a be ef 4e b5 bb dc 85 1b be 4c 3a 3d bd
       -0.13535717 -0.0055330913 -0.15187782 -0.046198174
000190 ae 1a 4b 3e dc e7 fb bc cc db 2b 3e 34 ae aa bd
       0.19834396 -0.030750208 0.16783065 -0.08334008
0001a0 d8 a3 0f be 98 d4 5e 3d 97 58 cc 3d c1 40 32 3d
       -0.14027345 0.054401964 0.09977835 0.043518785
0001b0 24 bd 09 bd 01 1f 18 3e f9 bd 89 bd 98 57 75 3d
       -0.033627644 0.14855577 -0.067256875 0.05989799
0001c0 19 1a ea bb b7 a7 89 3b dd dd 66 3c bd 79 d5 3d
       -0.0071442244 0.0042009014 0.014090982 0.1042361
0001d0 f6 0d 5b bc b7 ae ba 3d ac 2d 05 be 60 bf 5e 3e
       -0.013370028 0.091153555 -0.13005704 0.21752691
0001e0 4b dd e5 3d 93 44 5b bd d4 6e d0 3d 5e b7 8b 3c
       0.11223849 -0.053532194 0.10177389 0.01705521
0001f0 e1 72 80 3d b9 7c 38 be de 2a 22 3e bc cf 4b bd
       0.062719114 -0.18016328 0.15836665 -0.049758658
000200 01 aa 85 3e 4f 80 1e 3e 56 41 79 bd f9 6a 79 bd
       0.26106265 0.15478633 -0.060853325 -0.060893033
000210 86 be d8 bd 28 22 02 be ca e2 84 3d 2b 2d 93 3c
       -0.105832145 -0.12708342 0.06488569 0.017965874
000220 92 23 ca bc d3 6d 04 bd c5 e2 a5 bc 6e a8 a8 3d
       -0.024675164 -0.0323313 -0.020249734 0.082352504
000230 2e 7a dc 3d a7 9c 06 be b8 84 f1 bd b8 da 96 3d
       0.107654914 -0.13145696 -0.11792892 0.07365936
000240 6c e7 66 be 6b a8 27 be ee 08 0a 3c de a0 09 bc
       -0.22549218 -0.1637284 0.008424981 -0.00840017
000250 90 9b fa bd 57 e2 b7 3e 3f 31 1d 3d 97 fe 10 3d
       -0.122367024 0.3591487 0.038377043 0.035399046
000260 f7 97 60 bd 9d ae a1 3d 43 92 aa 3d 38 74 17 3d
       -0.054832425 0.07894633 0.083286785 0.03697607
000270 2f e4 bd 3d ca 1e 04 3e 5d f2 c6 bc 19 67 97 3d
       0.09272038 0.1290237 -0.02428549 0.07392711
000280 dc 84 67 3d 73 bd 25 bd 98 ea 77 3d 34 34 f0 3d
       0.05652319 -0.040463876 0.06052646 0.11728707
000290 63 3d 81 bd 2a 64 96 bd b0 8a e6 3d f1 7c c9 bd
       -0.06310537 -0.073433235 0.11256921 -0.09838284
0002a0 cb c0 b3 ba 8b 4c 10 3c 48 d6 d3 3c 8e f1 92 3d
       -0.0013714073 0.008807312 0.025859013 0.07174979
0002b0 a1 1c b3 bd a4 0a 14 3d 53 97 32 3d 35 4b ad bc
       -0.08745695 0.03614296 0.043601345 -0.021154026
0002c0 c8 50 06 3e cc ff 22 3e 22 e8 d5 bd 06 a0 10 3e
       0.13116753 0.15917891 -0.104446664 0.14123544
0002d0 ff f1 ab 3c 22 3a 21 ba af a3 20 3d 7d 98 4f be
       0.020989416 -0.0006150325 0.0392186 -0.20273013
0002e0 3d b4 38 3d fc 16 8a 3e 2c 54 51 3d 42 d4 10 be
       0.045093764 0.2697066 0.051105663 -0.1414347
0002f0 fb 74 97 3d e7 73 09 3e 55 4f 4e 3e 08 37 26 3e
       0.07395359 0.1342312 0.2014745 0.1623193
000300 02 c6 e9 bd 90 f4 b5 bd 7f 48 81 3c ee f3 d0 3d
       -0.1141472 -0.08884537 0.01578164 0.10202776
000310 ec 8e f2 bc e7 ab 95 3d 16 5c af 3d 60 fd 32 bc
       -0.029609166 0.073081784 0.08562486 -0.010924667
000320 c2 29 74 3c a3 5f a5 bd bc 51 c8 bc 68 68 8d bc
       0.014902534 -0.08074882 -0.024453036 -0.017261699
000330 20 3c c2 3c 8c ce 28 bd 20 af f0 bd 60 47 39 bc
       0.02371031 -0.041212603 -0.117521524 -0.011308521
000340 97 4f be bd 74 30 d0 3d 44 8c 94 3d 54 09 90 bd
       -0.09292524 0.10165492 0.07253316 -0.07033029
000350 32 e6 cf 3d 26 80 89 3c a1 13 58 3d 94 5e 91 3c
       0.10151328 0.016784739 0.052753095 0.017745294
000360 25 de a4 bd 7a 7c 8b bd 60 f8 d1 3c 94 92 0e 3d
       -0.08050183 -0.068108514 0.02563113 0.034807757
000370 64 74 48 bd c7 e5 3f 3c 64 18 b6 3d e6 80 a8 3d
       -0.048939124 0.011712498 0.08891371 0.082277104
000380 e6 65 9f bc a8 9e d3 bd 0c 5a 9b 3d df e1 aa 3d
       -0.019457769 -0.10332996 0.075855345 0.08343863
000390 dc 97 5b bd c8 fc 96 bd 22 47 79 bd 42 27 ba bd
       -0.05361162 -0.07372433 -0.060858853 -0.09089519
0003a0 67 2d e6 3b 18 de a9 3d 5a c3 8e bd 0f cb 01 be
       0.0070244553 0.08294314 -0.06970854 -0.12675117
0003b0 2f 6f 15 3d fc 70 41 3d 68 81 fd bd c4 29 9a bd
       0.036482986 0.04722689 -0.12378198 -0.075274974
0003c0 d1 3f 5f bd 20 1b 56 3c 20 24 88 bd b8 00 f2 3c
       -0.05450422 0.013067991 -0.06647515 0.029541358
0003d0 ce 5e 83 bd 6c 73 4a bd 45 99 20 bd 67 9f df 3d
       -0.06414567 -0.04942648 -0.03920867 0.109190755
0003e0 58 b1 81 3d dc bc 3c bd c1 97 ac bd 2c 19 85 bd
       0.06332654 -0.046078548 -0.08427382 -0.06498942
0003f0 84 42 22 bd de ce 09 3d 58 f0 81 3d e5 4c a5 3d
       -0.039614215 0.03364455 0.0634467 0.08071307

bias f4 [64]
000000 d8 19 be bd 63 dc a6 3d 38 ff 2e be d4 fd 09 be
       -0.09282273 0.08147504 -0.17089546 -0.13475734
000010 87 d1 4b bd 22 9e 37 be 85 2d 16 bd 8d 3f bb 3c
       -0.049760368 -0.17931417 -0.036664505 0.022857452
000020 56 70 37 3e 58 4c 0c bd 6e 24 08 bd 0d c0 33 be
       0.17913947 -0.034252495 -0.033237867 -0.1755373
000030 ce 6d f2 ba b9 b5 6f 3d 6d 44 2f bd 87 36 13 3a
       -0.0018495859 0.058522914 -0.042789865 0.000561573
000040 71 05 a3 bb e7 17 02 bd b6 3d 9c 3d 67 6d 01 ba
       -0.004975014 -0.031761076 0.07628958 -0.00049372617
000050 aa 2d 4d bc de f3 33 be 8c ed 05 3e 1f 39 ea bd
       -0.012523094 -0.17573497 0.13078898 -0.11436676
000060 22 35 2d 3d d1 4b 4f bd 29 85 63 3d b4 51 4b bc
       0.042287 -0.050609414 0.055546913 -0.012409616
000070 fd a2 29 bd b2 ea 8c bd a3 d2 1a be 26 6b c7 3c
       -0.041415203 -0.06880702 -0.15119414 0.024343085
000080 c6 60 11 bb af d7 77 3a 33 6a da bd 67 55 15 3e
       -0.0022182926 0.00094544416 -0.10664787 0.1458336
000090 b1 28 94 bd c9 b0 93 bc 3d 75 10 be e5 c2 5a be
       -0.07234324 -0.018028634 -0.14107223 -0.21363409
0000a0 3b b4 2f be 24 01 b4 3b 46 0b f4 3d 91 24 ef bc
       -0.17158596 0.0054933 0.11916213 -0.02919224
0000b0 b1 f8 8a 3d a7 55 b8 bc c1 d5 e8 bd df 8f 4a bd
       0.06785715 -0.02250178 -0.11368895 -0.049453612
0000c0 0e 51 1b 3e 8b cf 0b 3d a9 4b af bc 62 d8 de 3b
       0.15167639 0.034133475 -0.021398382 0.006800697
0000d0 38 79 49 3c be 32 f1 3c 1a a2 6c 3d b7 e9 3a bd
       0.012296967 0.029443141 0.05777178 -0.045633044
0000e0 00 34 a2 3c 1f f9 de 3d a8 5f d5 3d f9 a7 08 be
       0.019800186 0.1088736 0.104186356 -0.13345326
0000f0 f7 c1 d3 bd 81 bb 8a bd 37 e4 f4 3d f0 24 93 bd
       -0.1033973 -0.06774045 0.11957591 -0.0718478

weight f4 [64, 64]
000000 06 05 b2 3c 5b 84 9c 3d 13 5c dc 3d 30 3a 50 3d
       0.021730911 0.07642432 0.10759749 0.050836742
000010 a2 58 c6 bd 48 1b ed 3c bf a1 43 3d 49 01 ed bd
       -0.09684874 0.028943673 0.047761675 -0.11572511
000020 4b 1d 3b 3e 6d e3 27 bd c2 36 3b 3e a1 50 dc bd
       0.18272893 -0.040988375 0.18282607 -0.10757566
000030 1b 4b c3 bd ce ff 34 bd 87 56 de bd bd e8 22 bd
       -0.095358096 -0.044189267 -0.108563475 -0.039772738
000040 28 22 a6 bd a4 5a 6f 3d 32 7b 60 bc 59 3c 4e 3d
       -0.081119835 0.05843605 -0.013701247 0.05035052
000050 2a 58 44 be 6b 59 c0 3d a3 46 27 be 33 e7 13 be
       -0.19174257 0.09392055 -0.1633554 -0.14443664
000060 96 17 1b be 85 06 40 bc 5e 1f 3a bd 62 57 ab bd
       -0.15145716 -0.011720304 -0.04544007 -0.08366276
000070 02 74 56 3c 1f c3 14 3c e8 ef 3b 3e 62 6e 40 bc
       0.013089182 0.009079724 0.18353236 -0.011745067
000080 62 f2 cb bc 2c 69 fe bd b9 e5 a8 3d 89 60 14 be
       -0.02489585 -0.12422404 0.08246941 -0.1448995
000090 bb 3e 47 bd 80 d1 eb 3c be 9b d7 3d e8 b6 82 3d
       -0.04864381 0.02878642 0.10527752 0.06382543
0000a0 65 f8 eb 3c a1 fa 5d 3d bc ef 95 3d 7a 76 76 bd
       0.028804967 0.054194096 0.07321116 -0.06017158
0000b0 2c b9 bc bc 5a 2a c0 3d f4 26 aa 3d ad 77 53 bd
       -0.023037516 0.09383078 0.08308211 -0.051627804
0000c0 58 2c 5f bd 77 1f 1b 3e 0e e3 e0 bd 2e 2d 92 bd
       -0.05448565 0.15148722 -0.10980807 -0.071375236
0000d0 2e ff c9 bb 3f 59 97 bc 63 80 27 3e 3a c3 85 bd
       -0.006164453 -0.018475173 0.1635757 -0.06531377
0000e0 7c d4 c2 3d 82 a1 a9 3d 18 81 0e 3d 5d d9 ab bc
       0.095131844 0.08282758 0.034791082 -0.02097767
0000f0 51 a5 b0 3d f3 56 fc bb e2 e9 cf bd ff 46 e0 3c
       0.086252816 -0.007700795 -0.101520315 0.027377604
000100 76 73 8c bc 68 18 03 bd b1 ef ac 3c 30 cc 88 3c
       -0.0171449 -0.032005697 0.021110388 0.016698927
000110 73 3c fb 3d b8 bb 6c 3d e8 0c b8 bd 3e bf 4e 3d
       0.12267389 0.05779621 -0.08986837 0.05047535
000120 60 cd 80 bd 3a 7c 34 be c9 b1 22 be 9e df 1d 3e
       -0.06289172 -0.17625514 -0.15888132 0.15417334
000130 1b a7 fc bc c4 cc 0b bd ad d6 05 bd c2 31 07 bd
       -0.0308414 -0.034130827 -0.032675434 -0.033006437
000140 49 31 97 3d 12 19 a9 3d 5e 63 82 bd 84 1e 84 bd
       0.07382447 0.08256735 -0.06366609 -0.06451133
000150 37 0d 59 3e f6 0f 64 bd a0 57 96 3d a2 a4 fe 3d
       0.21196447 -0.055679284 0.07340932 0.12433745
000160 8e d6 96 3b 3d 3b 05 bd bf 80 6d be 93 ab dd 38
       0.0046032136 -0.032527197 -0.23193644 0.000105700594
000170 98 d3 d7 3d 44 58 c3 3c 5f 3e 42 bc 33 b4 54 3c
       0.10538405 0.0238458 -0.011855691 0.012982416
000180 bf 54 fd bd ac 89 26 be b9 12 44 bd cf 36 b5 bb
       -0.1236968 -0.16263455 -0.047869418 -0.0055302153
000190 a5 2c ca bd 6a 67 37 3d 18 4f c0 3d 22 cb b8 3d
       -0.098717965 0.044776358 0.09390086 0.090231195
0001a0 69 72 08 3e 32 97 09 3e 6f 5e c5 bd 8a 03 9d bd
       0.13324894 0.13436583 -0.096371524 -0.07666691
0001b0 8b 15 3d bc b7 06 c5 3c 62 fd 61 3d 89 f3 89 3d
       -0.011540781 0.024051053 0.055173285 0.06735904
0001c0 14 30 94 bc 63 a5 0c be 0b bb ac bd b0 4f 6f bd
       -0.018089332 -0.13734965 -0.08434113 -0.058425605
0001d0 13 95 03 3e a0 82 f6 3d 5c b7 24 3d 6a e2 b6 3d
       0.12849836 0.120366335 0.040213928 0.08929904
0001e0 47 a7 04 3e c7 65 c2 bc d4 83 d9 3c bf 7b 65 bc
       0.12954436 -0.023730172 0.026552118 -0.014006554
0001f0 87 ec 92 bd de 7c d0 3c b6 43 06 3e 85 04 78 bd
       -0.0717402 0.025450166 0.13111767 -0.060551185
000200 39 9e 06 3c 71 a7 8f 3c b9 7b 0d bd 4c 16 10 bd
       0.008216434 0.017535897 -0.03454182 -0.035177514
000210 a4 c0 ad 3d 3e 2d b7 bc 97 3b 6b 3d 7c cb 46 bc
       0.08484009 -0.02236044 0.057429876 -0.012133475
000220 c1 62 31 3d 73 c4 b5 3d b3 07 4f bd cf 0b 61 3e
       0.04330707 0.0887536 -0.050544452 0.21977161
000230 90 59 00 3d e8 d1 c7 3d 19 b4 77 bc 02 82 98 bc
       0.031335413 0.09756833 -0.015118622 -0.01861668
000240 78 db a8 bd 62 0f f0 bd b6 cf 12 3d 93 cc 2d 3c
       -0.08244985 -0.11721684 0.03584262 0.010607856
000250 71 ba 87 3c 19 40 ba bd 01 dd 0a bd f4 84 e1 bd
       0.016568394 -0.09094257 -0.033902172 -0.11011687
000260 24 85 07 bd 02 f8 48 3d d6 d1 7c 3d 80 5c 6a 3c
       -0.033085957 0.049064644 0.061723553 0.01430428
000270 0a df cc 3d fc ef 0a 3d 23 68 07 be 1c 86 a4 bc
       0.10003479 0.033920273 -0.13223319 -0.02008348
000280 93 a9 f1 bb dc 27 4d 3d 3c 34 e0 bd 48 3b 7b 3e
       -0.007374951 0.05008684 -0.10947463 0.24534333
000290 37 59 bf be 22 c2 10 be 09 02 7d bd 14 8e 0b be
       -0.37372753 -0.14136556 -0.06176952 -0.13628417
0002a0 0d 0b 53 3c 52 61 fd bb d2 33 66 bd 85 c5 33 3e
       0.012881053 -0.0077325488 -0.056201763 0.17555816
0002b0 75 9a ad bc 79 3f ec 3c 47 42 45 3d 71 80 bb bb
       -0.021191815 0.02883886 0.04815891 -0.0057220985
0002c0 69 87 89 bd c8 38 e4 3d 98 a8 ed 3c e5 d1 20 be
       -0.067152806 0.11143643 0.029011056 -0.15705068
0002d0 c6 dd 30 be 69 52 8c be 93 90 18 3e 66 7e e6 3d
       -0.172721 -0.27406624 0.148989 0.11254577
0002e0 0d bc c4 3c 5e c5 53 3c 1c 60 a2 3e ff 2e ca 3c
       0.02401545 0.012925474 0.3171395 0.024680613
0002f0 12 3f 73 bd 74 81 a9 3d fd f5 e5 bc 46 41 8a bb
       -0.05938632 0.08276644 -0.028071398 -0.004219207
000300 0f 20 dc 3b 50 4c ec 3d 80 de f0 bd 32 be aa bd
       0.006717689 0.11537993 -0.117611885 -0.08337058
000310 f1 7f 24 be ce a1 35 3d f9 b7 35 3c 36 8d 28 be
       -0.16064431 0.044343762 0.011091226 -0.16460118
000320 6c 93 f1 bd d1 a9 d7 3c 19 46 ab bd 21 b6 1c be
       -0.117956966 0.026326092 -0.083629794 -0.15303852
000330 dd fe e3 bc 37 b7 34 3d 03 c6 6a bd 0d ad 67 bc
       -0.02783149 0.04412004 -0.057317745 -0.01414038
000340 92 3e f7 3d 65 6a d6 3c 81 ea 04 bd e7 4f da b9
       0.12072481 0.02617378 -0.032450203 -0.00041639732
000350 e8 46 e8 3b aa 4a e3 bd 06 bb 9f 3c 61 4f 07 3d
       0.007088531 -0.110982254 0.01949836 0.033034686
000360 13 c6 ac 3d f1 ae 11 3d 26 4d c2 bd d0 a9 b2 3d
       0.08436217 0.035567228 -0.09487371 0.087237954
000370 fe c1 87 3d 1c f7 e5 3c 06 7e 09 be 80 14 2e bd
       0.06628798 0.028071932 -0.1342698 -0.04250002
000380 01 01 5c 3c 80 60 24 3e 44 94 f6 3d c9 b7 7b 3d
       0.013427974 0.16052437 0.12039998 0.061454568
000390 34 fd 9c 3d e4 14 98 3c 87 cb 1b bd f4 5f 48 3d
       0.07665482 0.018564649 -0.038035896 0.048919633
0003a0 1b b1 4e bd 29 75 b4 bd b4 73 74 bd 0d e6 a8 3c
       -0.05046187 -0.08811409 -0.059680656 0.02061751
0003b0 47 91 4e bd 73 af c9 bd cb 59 3d be ed fb 77 bd
       -0.050431516 -0.098479174 -0.18491285 -0.06054299
0003c0 e2 63 e0 3d 4c 95 bd 3b 5c 96 2a 3d 6e df 51 be
       0.10956551 0.00578562 0.0416473 -0.20495388
0003d0 7c b6 9a bc f6 a1 aa 3c ff a3 94 bc 61 64 d6 3d
       -0.018885843 0.020829182 -0.018144606 0.104683645
0003e0 7e 23 36 3d ed c6 b3 bc c7 51 e6 3d 31 55 89 bd
       0.04446744 -0.021945441 0.112460665 -0.06705702
0003f0 56 89 00 be e7 2f 5b bd 06 3e 0c 3d ed 3d 06 3d
       -0.1255239 -0.05351248 0.034238838 0.0327739

bias f4 [64]
000000 1e 73 42 bc ff 4c 58 3d 67 22 0b bc 35 e5 69 bd
       -0.011868266 0.052807804 -0.008492089 -0.057103354
000010 98 62 bd bb 1d d5 0a bd db 89 d3 bc 05 fc 5b 3d
       -0.0057795756 -0.033894647 -0.02582257 0.05370714
000020 8b de e1 bd 3f 1f a0 bd 54 b2 f9 bd 8a d8 2f bd
       -0.11028775 -0.0781846 -0.121922165 -0.042931117
000030 ec 4c 01 bd 1d c2 63 3c 03 4f 80 3d 9e cd 8b 3b
       -0.0315675 0.013901261 0.0626507 0.004266455
000040 5f 50 4a bc 69 75 69 bc 5c da 19 3d 96 76 b7 3b
       -0.0123482635 -0.014249184 0.03756176 0.0055988533
000050 19 dd 04 be e1 7e 93 3d 0b c0 3c ba be 67 3b 3d
       -0.12974967 0.072019346 -0.00072002475 0.045753233
000060 57 e3 0c be 41 67 9d bd a3 a5 29 3d f9 da 48 bd
       -0.13758598 -0.0768571 0.04141773 -0.049036954
000070 68 92 0c bd db 6b 0f be ef 35 41 bd 94 ad 1c 3c
       -0.03431931 -0.14005987 -0.047170576 0.009562869
000080 9f 2f 41 bd b8 2b 7d bd 94 41 d8 bd 5f 8b ca bd
       -0.047164556 -0.06180927 -0.10559383 -0.09889864
000090 04 00 1c 3a 21 f7 dc bc 98 7f 11 3e fa 31 e8 3c
       0.000595093 -0.026973309 0.1420883 0.028344143
0000a0 d0 2b e3 3b 10 1c 27 3e ca 63 77 bc 40 56 9f bd
       0.006932713 0.16319299 -0.015099475 -0.07780123
0000b0 09 15 5f 3d 3a 89 99 bc 3a 6e b3 3d 1b b2 be 3c
       0.05446342 -0.018742193 0.087612584 0.023278287
0000c0 3d 09 91 bc ea 78 01 3e fd bc 41 be 12 62 23 3d
       -0.0177046 0.12643781 -0.1891975 0.03988845
0000d0 a7 b8 47 3c af 49 d3 bd b8 64 d8 bd c4 7a 7b bd
       0.012190021 -0.103167884 -0.105660856 -0.061396375
0000e0 5f 99 31 bd 8e 2a 48 3a 8d a5 c5 3c b0 7f 2e bb
       -0.043359157 0.00076357357 0.024126792 -0.00266264
0000f0 92 6f 0a bd cd 7d 8d bd 08 fb ff 3d d3 fa ca bd
       -0.033797808 -0.0690876 0.12499052 -0.09911122

weight f4 [64, 64]
000000 3b 8a 9b 3d 89 e4 0f bd b8 5f 6d bd a7 2a 1a bd
       0.07594725 -0.035130057 -0.057952613 -0.037638333
000010 c2 34 57 bd cf 5b 02 bd 1d dd c4 bd 8f c1 df 3d
       -0.05254055 -0.031825837 -0.096124865 0.1092559
000020 74 39 2c 3e 01 93 89 bd 71 57 e0 bd 62 04 fa 3d
       0.16818792 -0.06717492 -0.10954178 0.12207867
000030 1c 0e 33 bd 3e c2 cb 3d 98 ed 21 be 1c fa 33 3e
       -0.043714628 0.09949158 -0.15813291 0.17575878
000040 ad 90 b6 3d 9a b6 c5 3b c0 02 de bc b9 5b 76 3d
       0.089143135 0.0060337307 -0.02710092 0.060146067
000050 2a 27 9a 3d 00 30 6f bd 00 2a b1 bd b5 f9 ea bd
       0.07527001 -0.058395386 -0.08650589 -0.11473409
000060 a6 67 40 bd dd e4 9c 3c e4 e5 bd bd 72 01 15 bc
       -0.046973847 0.0191521 -0.09272364 -0.009094583
000070 8f 3d 99 bc ce 16 c7 3c 00 fb 94 bd 3c 41 0e 3e
       -0.018706111 0.024302866 -0.07274437 0.13892072
000080 84 df 70 3d b3 d6 62 bc d0 ec a9 bc 49 f3 f6 3d
       0.05880691 -0.013845134 -0.020742804 0.12058122
000090 d2 57 22 bd 43 ad 1e bd 39 96 9e 3d 56 cc 55 3d
       -0.039634533 -0.038739454 0.077434964 0.052196823
0000a0 02 1b 33 3d 01 fd 1f bd 1b 4b 7b bb 3f 43 35 bc
       0.04372693 -0.039059643 -0.0038344327 -0.011063396
0000b0 24 1b a5 bd 83 fa ca bd 91 1d 78 bd 7b 6e 0f 3e
       -0.08061817 -0.099110626 -0.06057507 0.14006989
0000c0 f7 af b5 bc 50 63 e9 bd c9 40 ea bd 21 d9 5e bd
       -0.022178633 -0.113958955 -0.11438138 -0.05440629
0000d0 f9 cf e4 3d 00 11 11 3e 27 66 df 3d 87 a3 00 3c
       0.1117248 0.14166641 0.10908156 0.007851488
0000e0 40 89 1c 3c 7d 83 e6 3d bd 2b 50 3d 96 f3 bc bd
       0.009554207 0.11255548 0.050822962 -0.09226148
0000f0 da d1 6f 3e fc 2a 22 be 5f 4a 32 3c a7 f4 b5 bd
       0.23419896 -0.1583671 0.010881989 -0.08884554
000100 92 09 9b 3d ac 96 4f bd f1 04 82 3d 4d 2f 99 3a
       0.07570185 -0.0506808 0.06348599 0.001168707
000110 d4 fc b7 bd 31 e1 b0 bd ed 74 62 3b 77 81 1e be
       -0.0898377 -0.08636702 0.0034554556 -0.15479074
000120 51 7e ae bd b9 67 85 bd 10 4b 21 3c 97 9f 57 3d
       -0.08520187 -0.06513924 0.009844556 0.05264243
000130 b0 6e 0e bd 12 b6 08 bd ee a4 b0 3d 76 7a 54 3d
       -0.03477353 -0.03337676 0.08625208 0.0518746
000140 11 5b e2 3d ea 19 8f bb 84 10 a6 bd 47 37 99 bc
       0.11052526 -0.004367103 -0.08108619 -0.018703116
000150 55 5f 03 3e 45 82 b7 bd f0 cb 02 be a0 0d 99 3c
       0.12829335 -0.08960394 -0.12773108 0.018683255
000160 27 e7 18 be 8d d5 0b 3c 63 3a 9d bd e0 52 18 3d
       -0.14931928 0.008534801 -0.07677152 0.03718841
000170 7d 20 15 bc 42 3d 34 3a b6 98 5a 3d da 9f fd bd
       -0.009101984 0.0006875583 0.053368293 -0.12384005
000180 dc a5 f8 3d 76 6a 98 bd b9 7a 83 3d d6 5c 97 bd
       0.1214101 -0.07442181 0.06419892 -0.07390754
000190 33 6c ac 3d 07 31 2c 3a 97 74 90 3d 49 88 c2 bd
       0.08419075 0.0006568585 0.07053488 -0.094986506
0001a0 de cd 2e bd 51 5a 57 3c 95 18 72 bb 41 85 c5 bd
       -0.0426768 0.013144092 -0.0036940922 -0.09644557
0001b0 7a 5b 0d be 9b 27 39 bd 41 bd 9d 3d 0e 6f b2 bd
       -0.13804427 -0.045203786 0.07702113 -0.08712588
0001c0 d4 6b e9 3c 09 a0 03 3e 1a 4c 73 3d 30 04 8e 3d
       0.0284938 0.12854017 0.059398748 0.069343925
0001d0 cd dd 16 3e aa dc 68 bd 8a 60 3d be 70 fd d7 3b
       0.14733048 -0.056851067 -0.18493858 0.0065914914
0001e0 77 1a d9 bd d8 41 46 bc 41 dd 66 bc 3c 38 8e 3d
       -0.10600751 -0.012100659 -0.014090837 0.069443196
0001f0 1c 47 36 bd 25 d9 3a 3d 5b c8 b0 3d bf 8f 8a 3d
       -0.04450141 0.04561724 0.08631965 0.06765699
000200 e3 31 06 3d 7a 9a 6e 3d 37 9c db 3d a6 4f b0 bd
       0.03276242 0.05825279 0.10723155 -0.08608942
000210 32 01 1a bd f9 03 d8 bd 25 86 e6 3d 03 70 e9 3d
       -0.037598796 -0.10547633 0.11256055 0.11398318
000220 24 b7 6a 3d ed 63 c6 3c 87 15 b9 bd f1 65 5a 3d
       0.057303563 0.02421757 -0.09037309 0.053319875
000230 21 ca 6d 3d e0 f3 da 3d 02 6d 15 3d 5b aa c8 3c
       0.058054093 0.10691047 0.03648091 0.024495294
000240 f4 3e e2 3d 36 03 bd 3d 72 41 da 3d 06 db 14 3c
       0.110471636 0.09229128 0.10657014 0.009085422
000250 4a f6 cf 3d 75 84 cc bd 8d ad 9c bd 4f 18 cd bd
       0.10154398 -0.09986202 -0.0765029 -0.10014402
000260 aa 61 0a be 3e 74 13 be e5 2d 0e 38 71 bc d6 3d
       -0.13513818 -0.14399812 3.389818e-05 0.10485161
000270 46 a7 e7 3d cf 17 a9 3d fc 4a 9d 3d 70 23 3b 3c
       0.11311202 0.08256494 0.07680318 0.011422023
000280 1b 42 33 bd db 04 9c 3d a6 85 28 ba 09 e1 10 3e
       -0.043764215 0.076181136 -0.00064286066 0.14148344
000290 3c 9e e2 3d 2f d3 b0 3c 27 fe 92 3d 55 7b 94 3d
       0.11065337 0.021585075 0.07177382 0.07250086
0002a0 8d 1c d6 bd 38 96 d6 3d c7 6d da 3d 61 99 92 3d
       -0.104546644 0.10477871 0.106654696 0.07158161
0002b0 80 d0 50 bd 00 67 8b 3d c3 f1 a3 3b 7b bf 39 bd
       -0.05098009 0.06806755 0.0050031855 -0.045348626
0002c0 9b e2 04 3e 1e e2 90 3c 45 f0 97 bd c4 cc f9 3d
       0.12977068 0.017685946 -0.07418875 0.12197259
0002d0 4f 1f 99 bc e6 77 31 3e ad 1d ce bd 3f 34 81 3d
       -0.018691687 0.17330894 -0.10064254 0.06308793
0002e0 c8 5f a6 bd 8e 72 7c bd 5b 8d f1 bd de 06 0f 3e
       -0.081237376 -0.061632685 -0.117945395 0.13967463
0002f0 4c e6 1f 3d a7 72 0f be aa f8 a4 bc 85 e5 00 3e
       0.039037988 -0.1400858 -0.020138104 0.12587555
000300 81 e0 54 3d 53 e8 d6 bd 5c e2 10 3c a0 f8 aa 3d
       0.051971916 -0.10493531 0.008843031 0.08348203
000310 48 93 00 3e 53 5e 35 bc b8 03 94 bc f8 89 1c 3e
       0.12556183 -0.011069852 -0.01806818 0.15287006
000320 67 2f ae 3d 6c 47 f1 3d 8f cc ce bd 95 50 70 3c
       0.08505135 0.11781201 -0.1009761 0.01466765
000330 00 32 98 3d cd a7 e6 3d d8 bf 91 3d 9c 17 b2 bc
       0.07431412 0.11262474 0.071166694 -0.021739773
000340 19 06 45 3e 89 a7 77 3d 5d 85 ce bd 46 96 1b be
       0.19240607 0.06046251 -0.10084031 -0.15194044
000350 38 57 55 bd ed 46 c0 3c 95 8e 2a 3c b6 a4 f6 3b
       -0.05208513 0.02347132 0.010409971 0.0075269593
000360 99 77 19 3e 63 f4 4e 3d 83 96 b1 bd 7b 60 d4 bd
       0.14987029 0.050526034 -0.08671286 -0.10369965
000370 ac e7 76 3c e9 97 31 3e 02 a2 96 3d b0 ee bf 3d
       0.015069883 0.17343105 0.07355119 0.09371698
000380 a2 d0 a7 bd 24 dc d1 bd 98 f6 27 bd 84 6a f9 3c
       -0.081940904 -0.102470666 -0.041006655 0.030446298
000390 7d e6 f9 3d 1d 30 f8 bc 63 97 ef bc 1b 62 a6 bc
       0.12202165 -0.03029638 -0.029246992 -0.020310452
0003a0 6d ec 02 3d c5 33 9a 3c 09 cd 84 bd cf 3e 85 3d
       0.031963754 0.018823514 -0.0648442 0.065061204
0003b0 7c e4 5a 3d 8e cd 24 3e be ae e4 bc 33 4c 82 bd
       0.053440556 0.16094038 -0.027915355 -0.0636219
0003c0 b7 46 6f bd b1 a2 f6 bd 56 c5 61 be dd 3c fe 3d
       -0.05841705 -0.1204275 -0.22047934 0.124139525
0003d0 01 72 00 be 9d c5 30 3e 80 ea 7c bd af 43 b1 bd
       -0.12543489 0.17262883 -0.061747074 -0.08655488
0003e0 d6 0f f4 bb f9 26 b0 bd 50 ee 53 bc ba 7c b9 3d
       -0.007448177 -0.086011834 -0.012935236 0.09056993
0003f0 73 2b f3 3d df 25 71 3d ec 1e bb 3d 45 0a 91 3d
       0.11873522 0.058874007 0.09136757 0.07082037

bias f4 [64]
000000 9f 46 b8 3c 60 80 8d 3c 5d 89 93 bd 81 0d 92 3d
       0.022494612 0.017273128 -0.07203934 0.07131482
000010 0c a2 08 3e 76 53 31 3d 6a 50 d8 bc 16 29 04 be
       0.13343066 0.043292485 -0.026405532 -0.12906298
000020 3b 32 82 3d 29 ce a7 3d 7a 16 3b bd da 5e f5 3c
       0.06357237 0.08193619 -0.045675732 0.029952455
000030 f7 8f 27 bc 8b 12 38 3e 4c 7c 8c bd a1 1f a6 bd
       -0.010227195 0.17975824 -0.06859645 -0.081115015
000040 a4 de 5f bd 78 d0 ba bc 4b 5a 3e bd 67 8f 1b bd
       -0.054655686 -0.022804484 -0.04647283 -0.037978556
000050 f4 6f 03 3e 75 ad 08 3d 19 ae 12 be 9c ac 32 bd
       0.12835675 0.033368547 -0.14324225 -0.043621644
000060 d8 51 e7 bd e2 c4 03 3e db e2 3a 3d b8 a7 95 bc
       -0.11294907 0.12868074 0.045626502 -0.018268451
000070 d3 a2 79 3c 0d a2 37 3d f8 cc 2f bd ae 6e 27 be
       0.015236574 0.044832278 -0.042920083 -0.16350815
000080 83 b7 26 3d c7 5d 95 3d 3c 42 00 3e a7 7c c2 3c
       0.040702354 0.07293277 0.12525266 0.02374108
000090 79 14 03 bd 57 bc b0 3d 6a d6 36 3d e5 32 4a bd
       -0.032001946 0.08629673 0.044638075 -0.049364943
0000a0 93 1b 63 bd bb ee 83 bd a7 aa 74 3d 41 23 ab 3d
       -0.05544622 -0.064420186 0.05973306 0.083563335
0000b0 bd 2d 38 bd ec f0 13 3e eb 53 50 3c a3 6f aa bc
       -0.044965494 0.14447373 0.01271532 -0.020805186
0000c0 3d 59 03 bc 5c 7c a6 bc 36 a3 d4 3d 7b af eb 3b
       -0.0080168815 -0.020322971 0.103826925 0.0071925498
0000d0 9a a5 cc 3d 19 f5 d0 3d 1d 1f 28 bd b6 1c 0f bd
       0.099925235 0.10202999 -0.041045297 -0.03493949
0000e0 3c 05 d7 bd 95 16 05 3d 12 ec 3f 3b 10 ef bc 3c
       -0.10499045 0.03249224 0.0029284996 0.023063213
0000f0 58 5a f5 3d 34 4c 9b bc 26 30 d1 3d ec 06 11 bd
       0.11980122 -0.018957235 0.10214262 -0.03540699

weight f4 [3, 64]
000000 da 73 d4 3d 45 0c 9e bd 7e c3 34 3d 13 b4 96 bd
       0.103736594 -0.07717184 0.04413175 -0.07358565
000010 28 70 7f bc ed 7e ca 3d 4d 70 03 be 76 00 b9 bd
       -0.015590705 0.098874904 -0.12835808 -0.09033291
000020 39 68 27 be c5 53 41 be 0f 41 cd bc ca 1c cf bd
       -0.16348352 -0.18879612 -0.025055436 -0.10112913
000030 a6 0b e9 3d db ab 32 be 96 6d f9 3d 38 94 53 be
       0.11379175 -0.1744837 0.12179105 -0.2066201
000040 46 89 cf bd 0d 12 75 3d 7c cb 24 3d 9b c1 59 3e
       -0.10133605 0.059831668 0.04023312 0.21265261
000050 3d 80 94 ba 73 06 ed 3d ce 64 8e 3d be fb 28 bc
       -0.0011329722 0.11573496 0.06952821 -0.010313926
000060 c1 29 40 3e f6 8d 4c bd 36 66 88 3d 26 29 d2 3d
       0.18765928 -0.049940072 0.0666012 0.10261755
000070 fe d3 57 bd 96 33 dc bd 28 5e 71 bd de aa f9 3d
       -0.052692406 -0.10752027 -0.058927685 0.121907935
000080 9c da 0f 3e 44 0b 01 bd 78 e9 cc bd c2 9b 40 be
       0.14048237 -0.031504884 -0.10005468 -0.18809417
000090 77 b6 22 3e c7 20 ba bb 78 98 cc 3d 76 2c b9 3c
       0.15889917 -0.005680177 0.099900186 0.022604208
0000a0 e7 14 d5 3d 1c ba ab bc 37 7e 75 3c ef 79 a4 3d
       0.104043774 -0.020962767 0.014983705 0.080310695
0000b0 1e 48 f7 bb e3 e9 93 3d 55 dd 9e 3d 45 49 be 3c
       -0.007546439 0.07222345 0.077570595 0.023228297
0000c0 02 55 8a bc 34 23 d9 3c bb 0f 19 be d7 5d e9 bc
       -0.016886238 0.026506044 -0.14947407 -0.02848713
0000d0 ab 82 8d 3d 29 ba 8f bd 1b 25 8d 3d 8f c3 02 3e
       0.069096886 -0.07017929 0.06891843 0.12769912
0000e0 06 17 f0 3d 51 d1 3b be f3 80 bc bb 00 69 4a 3d
       0.11723141 -0.18341567 -0.0057526766 0.049416542
0000f0 ec d1 86 3d c6 93 73 bd 32 49 05 3e e0 95 77 3d
       0.06583008 -0.0594671 0.13016203 0.060445666
000100 51 20 15 3e 6b 49 1c 3d 7d f8 cb 3d 0f 47 16 3e
       0.14563109 0.038155954 0.09959505 0.14675544
000110 ba 8c 1f bd 25 88 8d bd 8e 48 21 3e c7 8f 7c bd
       -0.038952567 -0.06910733 0.15750334 -0.061660554
000120 e3 eb 96 3d e6 ba 14 3e cd c9 e0 3d 0e d2 40 3d
       0.073692106 0.14524421 0.109759904 0.047075324
000130 d7 23 44 bd b9 5a 7c be 2a de ba bc f6 ea a6 be
       -0.047885742 -0.24643983 -0.022811014 -0.32601136
000140 84 6f c0 3d aa 23 fe bd 20 17 b2 bc f8 6c 04 3c
       0.0939627 -0.12409146 -0.021739542 0.008082621
000150 b0 81 be 3b e7 0d 13 bd 74 76 dd bd 6d d5 ac 3d
       0.0058138 -0.03590193 -0.10813609 0.08439145
000160 b1 67 81 bc f6 9e 84 bd 3f c2 1c be f6 62 e5 3d
       -0.015796514 -0.06475632 -0.15308474 0.11200516
000170 a4 0f f5 bd 98 de 6b 3e 86 23 80 bd 8e 6e c0 bd
       -0.11965874 0.23034132 -0.062567756 -0.09396087
000180 53 26 65 3e 52 64 97 3d 3e ff 48 3c 83 a8 3c 3c
       0.22377901 0.073921815 0.012267886 0.011514786
000190 f8 b1 32 bc 7c 43 ea bd 8f 2f 93 3c 79 1f d2 3d
       -0.010906689 -0.11438653 0.017967014 0.10259909
0001a0 57 2f 22 be ed f1 ca bd 81 c0 90 bd 86 13 9b bd
       -0.15838371 -0.09909425 -0.07067967 -0.07572083
0001b0 31 63 0a 3d 08 2e 06 be b3 32 51 3e 0b 00 69 bd
       0.033786003 -0.13103497 0.20429496 -0.056884807
0001c0 ca 81 90 3d 9d b1 05 be f6 ee 26 3d 18 3c a0 bc
       0.07056005 -0.13056035 0.040755235 -0.019559905
0001d0 ae 63 0d be 6a 0d 56 3d fb c4 cf 3d 73 92 1d 3d
       -0.13807556 0.052258886 0.10144993 0.038469743
0001e0 94 56 50 3d 53 d2 02 3d a8 56 03 3e 9d 5d 36 be
       0.050863817 0.031938862 0.12826025 -0.17809148
0001f0 5a a6 d3 bd 27 3c dd bd b8 22 21 be a1 26 02 3c
       -0.103344634 -0.10802489 -0.157359 0.00794378
000200 43 c3 19 bd ba 73 9c bd 4d aa 07 3e 73 59 8d 3c
       -0.03753973 -0.076392606 0.13248558 0.017254567
000210 ef 11 de 3d 5c 2a fe 3d 9e c8 53 bd bc 4f 93 bd
       0.10843264 0.12410423 -0.051704995 -0.071929425
000220 b2 0c 3b 3d 1e f8 ee bd 51 5c 87 3d 37 26 de 3d
       0.045666404 -0.11668418 0.06609405 0.10847133
000230 50 30 29 bd c8 f7 5b 3d 67 ff 9b 3d 1c d8 c9 3d
       -0.04130584 0.0537031 0.076170735 0.09855673
000240 0c 4c a4 bd 5c 3d 9d 3d 43 fb c2 bd 07 45 e9 bd
       -0.08022317 0.07677719 -0.095205806 -0.11390119
000250 76 1d da bd 1b 9e e2 3c 4b a5 b8 3d 9b 19 d3 3d
       -0.106501505 0.027663281 0.09015902 0.10307618
000260 fb 38 02 3d 5b 68 0a 3c a1 72 dc bd 84 b1 1f bc
       0.031792622 0.008447732 -0.10764051 -0.009746913
000270 ce d4 ed bd 9b 0d ab 3d e8 22 2b 3d 9a f4 9f bc
       -0.11612855 0.083522044 0.041781336 -0.019525815
000280 45 22 cf bd e3 de ef bd 9b b6 a2 3d 6f bc 80 bd
       -0.10113958 -0.11712434 0.079449855 -0.06285941
000290 56 9f f3 bd 7a 27 71 bd ab 2d 22 bc d6 97 29 be
       -0.11895625 -0.05887554 -0.009898583 -0.16561827
0002a0 ee 70 2f bd fd 7e 95 bd c3 22 59 3c 18 a3 83 bd
       -0.042832308 -0.07299612 0.013252917 -0.06427592
0002b0 bc 78 f2 bb ae 5a 8c 3d 77 19 c8 3d 2e 21 47 3c
       -0.0073996466 0.06853233 0.09770482 0.012153907
0002c0 6d 72 02 3d ff e9 d3 3d 75 21 57 3b 88 d6 62 bd
       0.031847406 0.103473656 0.0032826338 -0.055380374
0002d0 1c 34 bd bc 8b 69 55 3d 53 6f f6 3d a1 21 d9 3d
       -0.023096137 0.052102607 0.12032952 0.10602117
0002e0 9c 92 04 bd a9 af 89 bd 49 40 cc 3d 46 68 c2 3c
       -0.03236638 -0.06722958 0.09973199 0.023731362
0002f0 98 0a e6 bd 1c 55 a7 bd bf 85 d7 3d 46 48 70 3d
       -0.11232489 -0.0817053 0.10523557 0.058662675

bias f4 [3]
000000 70 74 f8 bd d6 26 4b 3c 8d 6c 73 3d
       -0.12131584 0.012399396 0.059429694

exp_avg f4 [64, 3]
000000 f5 af 8f 39 a4 6d 0f b8 a9 9c 05 ba 2c 67 c8 37
       0.00027406184 -3.4195968e-05 -0.00050968915 2.3889901e-05
000010 17 1d ca b7 42 bf dc 39 55 5b 13 39 44 4b 7d b7
       -2.4093823e-05 0.00042104168 0.00014053036 -1.5097499e-05
000020 e1 11 26 39 96 b7 b1 b9 ae 77 ab b8 31 06 b2 39
       0.00015837654 -0.00033896853 -8.1762075e-05 0.0003395542
000030 5d 09 95 b8 59 3b 4c b8 b9 82 90 b8 ed 87 d4 b7
       -7.106618e-05 -4.8692662e-05 -6.890804e-05 -2.5335665e-05
000040 c1 71 b7 38 ef 76 07 38 55 20 ed 39 fe 3c 70 b9
       8.747308e-05 3.2297274e-05 0.00045228252 -0.00022910905
000050 d2 e3 ac b8 a1 cd 85 38 f6 25 d8 b8 8f cc 8f 38
       -8.244034e-05 6.3802356e-05 -0.000103067534 6.8568734e-05
000060 fe 44 a7 b8 e3 86 70 38 75 1a 21 39 06 78 22 b1
       -7.976031e-05 5.7346082e-05 0.00015364013 -2.3642328e-09
000070 59 e6 38 b1 bd dc 41 b1 6e 5f 2e 39 24 01 06 39
       -2.6906462e-09 -2.8210672e-09 0.00016629483 0.00012779661
000080 95 a3 bc b9 20 28 33 39 17 41 91 b9 ea 96 48 39
       -0.00035980032 0.00017085718 -0.0002770505 0.00019129706
000090 03 3d 20 3a 11 3a 8a 39 62 fc dc 39 7e 8a c1 b8
       0.0006112607 0.00026364674 0.0004214971 -9.228753e-05
0000a0 e5 2b 77 39 1d 23 8b 39 19 63 29 b9 de c0 cc b8
       0.00023572108 0.00026538307 -0.00016154013 -9.763402e-05
0000b0 33 97 9f b8 70 b5 79 b9 9e 31 28 39 85 b8 34 39
       -7.609874e-05 -0.00023814081 0.00016040212 0.00017234877
0000c0 db 40 9a b9 ac 37 40 b8 60 4d 8e 39 fc ed 53 39
       -0.0002942149 -4.5828216e-05 0.00027142 0.00020211184
0000d0 e3 cb d8 37 6d d7 73 39 21 4b 90 b8 2a 2c 98 b9
       2.5844149e-05 0.00023254538 -6.880449e-05 -0.00029024604
0000e0 bd 46 07 39 5e 9f 99 b7 35 8c 3e 37 12 49 f6 37
       0.00012900955 -1.8313232e-05 1.1357527e-05 2.9359511e-05
0000f0 a2 ec 0f 39 e3 fb a2 38 24 32 57 39 ae 47 43 3a
       0.00013725695 7.7716795e-05 0.00020522677 0.0007449341
000100 9e 62 d4 b9 ae 4b cd 39 c6 0e a4 b8 7f ae ad b9
       -0.00040509267 0.00039157033 -7.822881e-05 -0.0003312714
000110 8a 0f 83 b7 df 07 06 38 85 25 5c 39 a1 9b 17 3a
       -1.5623653e-05 3.195542e-05 0.00020994812 0.00057833834
000120 03 29 90 39 10 cc 01 b6 2e 27 12 38 c8 e9 4d 39
       0.00027496376 -1.9341278e-06 3.48456e-05 0.00019637414
000130 e1 f2 08 ba 74 46 c6 b8 87 e5 0e 39 05 bb c4 b8
       -0.000522418 -9.454499e-05 0.00013627681 -9.3808434e-05
000140 d0 ed c5 b8 64 7d 93 b5 8a 2f 99 b5 88 d5 a0 b5
       -9.437988e-05 -1.0988847e-06 -1.1413224e-06 -1.1983075e-06
000150 b6 0c f6 38 4f 2e 54 39 6b d8 e3 b8 b5 2e 02 3a
       0.00011732562 0.00020235147 -0.000108645145 0.00049660663
000160 07 34 92 b9 52 6d 6c 39 f7 f2 44 39 ef e7 30 39
       -0.00027886053 0.00022547439 0.00018782528 0.0001687107
000170 66 43 46 38 e8 e0 53 38 b1 ab a6 b8 67 eb fd b9
       4.726965e-05 5.051578e-05 -7.947477e-05 -0.0004843131
000180 bc 78 e3 b6 eb 3f 06 b9 6f 03 53 b9 92 e1 48 b9
       -6.7791825e-06 -0.00012803047 -0.00020123807 -0.00019157518
000190 00 63 0d b9 26 59 d1 38 fd 9f be b9 1c 23 0c b8
       -0.00013483688 9.982502e-05 -0.00036358825 -3.34113e-05
0001a0 78 38 0b 3a 42 bb af 37 79 95 a4 37 7c e3 09 38
       0.00053108437 2.0948824e-05 1.9619927e-05 3.2875207e-05
0001b0 12 36 9d 39 a7 15 74 39 8b cc a7 b9 61 43 45 b9
       0.0002998566 0.0002327772 -0.0003200512 -0.00018812485
0001c0 0a 4a 7b 39 a4 45 3b 3a 4a c3 df b9 2c 37 f6 b8
       0.00023964807 0.0007143861 -0.00042679376 -0.00011740471
0001d0 8e 5a 40 39 da 82 e6 b8 a8 f7 98 39 d1 34 56 b9
       0.00018344281 -0.00010991628 0.00029176218 -0.00020428306
0001e0 08 ee 53 b9 42 b7 28 39 f4 73 8f b9 97 6d b4 38
       -0.00020211202 0.00016089997 -0.00027361477 8.6034815e-05
0001f0 1d f0 27 b9 3b 34 c1 39 5b 49 d4 b8 54 fa e5 b6
       -0.0001601581 0.00036850743 -0.00010122611 -6.853874e-06
000200 4a 0f 16 38 a6 43 32 39 cd 24 af 38 05 06 5a 38
       3.5777026e-05 0.00017000604 8.351505e-05 5.1980856e-05
000210 4d 94 d6 b8 7a 43 5b 39 dc 01 8c b9 64 95 05 38
       -0.00010231938 0.00020910605 -0.00026704266 3.1848802e-05
000220 34 1c 34 b8 6b 7d 3d 39 a7 6e cc 37 a1 e5 a6 38
       -4.294161e-05 0.00018071166 2.4370222e-05 7.9582685e-05
000230 68 c6 a5 b9 c9 56 20 38 81 04 cd 37 c8 02 2b b8
       -0.00031619077 3.8227798e-05 2.4440002e-05 -4.0772167e-05
000240 f7 2d 7a b7 3e 28 b8 b6 49 fd 9c b7 2f a3 df b8
       -1.4911863e-05 -5.488312e-06 -1.8714594e-05 -0.00010663864
000250 a7 8f 32 b9 ef 05 34 b9 7a 9a 85 b9 e0 3c cf 39
       -0.00017028918 -0.00017168348 -0.0002548283 0.00039527472
000260 f4 4b c2 39 3b 07 90 38 fb 7b b7 39 32 42 34 39
       0.00037059153 6.867802e-05 0.00034996853 0.00017190797
000270 cc a5 9a 39 f1 97 50 b9 da 09 57 39 2f fa 63 39
       0.00029496697 -0.00019893028 0.00020507668 0.00021741608
000280 ad 8c 08 3a c2 bd 6f b9 4b 9f ab b6 2d e4 9d 38
       0.00052089506 -0.00022863506 -5.1147413e-06 7.5288444e-05
000290 d4 4b 2e b9 5e 49 75 39 e8 87 09 37 2b f9 a0 b8
       -0.00016622181 0.00023392352 8.1974795e-06 -7.675806e-05
0002a0 a3 34 ce 38 f2 66 1e b9 16 fc 7b b7 c2 d4 50 39
       9.83265e-05 -0.00015106404 -1.5019459e-05 0.00019915684
0002b0 9a 16 0e b9 28 0d 16 39 b1 8e 8c 39 8c 29 84 b8
       -0.00013550595 0.00014310016 0.00026809194 -6.301989e-05
0002c0 2f a6 70 39 be 61 71 b9 5f b8 90 b9 bd ec 29 3a
       0.00022950092 -0.00023019963 -0.00027603187 0.0006482115
0002d0 95 2d c4 b8 0e 4c d0 37 1a 78 f3 b8 b2 a6 f3 39
       -9.3544986e-05 2.4830948e-05 -0.000116095136 0.0004647277
0002e0 71 af e8 b8 de 70 c0 b9 7d 25 4f 39 bc e3 dc b9
       -0.000110953006 -0.00036705186 0.00019755024 -0.00042131345
0002f0 71 f0 c6 38 f4 2d 26 39 e8 db a2 38 0c c9 f8 38
       9.4861614e-05 0.00015848113 7.765723e-05 0.000118630094

exp_avg_sq f4 [64, 3]
000000 e2 5f dd 33 be 5a ca 33 69 e9 19 34 e9 6c e2 33
       1.03085554e-07 9.422864e-08 1.433415e-07 1.0543756e-07
000010 a2 c1 95 33 e7 0d 80 33 78 b5 d5 33 76 f0 1b 33
       6.973575e-08 5.962993e-08 9.9515944e-08 3.6307448e-08
000020 c3 7a 9a 33 7a 0b 37 34 33 dc c0 33 3f 73 bc 34
       7.193514e-08 1.7047378e-07 8.980751e-08 3.510158e-07
000030 f4 2c d1 33 72 3e 03 33 dc 52 5f 33 38 24 d0 34
       9.740498e-08 3.0557608e-08 5.1996594e-08 3.8769372e-07
000040 b7 47 b3 34 0c c3 2a 34 98 c8 2c 35 66 85 8f 34
       3.3393528e-07 1.5903441e-07 6.4366895e-07 2.6732886e-07
000050 29 fa a1 33 92 cc 32 33 9c 46 72 33 3b 63 ba 32
       7.5426506e-08 4.162991e-08 5.6409235e-08 2.1698375e-08
000060 61 bd a6 33 9c 8d 88 33 07 c9 04 34 c5 1e 5a 31
       7.764425e-08 6.358752e-08 1.2366591e-07 3.1740666e-09
000070 7f 75 f0 30 5a 2d 78 31 e5 55 fb 33 43 b4 2c 33
       1.7495693e-09 3.611453e-09 1.17037224e-07 4.0210818e-08
000080 0e 3b 1e 33 55 02 1b 34 7a 4d c1 33 ed 8d 17 34
       3.684095e-08 1.4436348e-07 9.001356e-08 1.4114603e-07
000090 f4 84 bc 34 dd 2d 43 34 8c 08 d3 34 2f 82 33 33
       3.5114465e-07 1.8177475e-07 3.930803e-07 4.1795087e-08
0000a0 0a 4a 32 33 fc 25 90 32 ec b2 f9 33 3d e8 2e 33
       4.1511193e-08 1.678108e-08 1.1627512e-07 4.072375e-08
0000b0 80 83 af 33 dc 8c 1d 35 94 c9 85 34 32 ef c7 34
       8.172992e-08 5.8692035e-07 2.4919848e-07 3.7240676e-07
0000c0 37 7a c9 34 cc 51 6e 33 09 a3 6b 33 77 1f d2 33
       3.752809e-07 5.5488087e-08 5.486348e-08 9.7846105e-08
0000d0 c0 1f ff 32 40 e2 88 33 61 fb 54 33 c0 1c 89 33
       2.9700345e-08 6.374148e-08 4.9588724e-08 6.384789e-08
0000e0 cf f9 a9 33 4a ce 66 33 0e 76 99 33 9e 9e df 33
       7.915116e-08 5.3738667e-08 7.146092e-08 1.0413099e-07
0000f0 6a 1a f0 33 a1 c7 5a 33 df b4 3f 33 8d 0c 9c 35
       1.11806756e-07 5.093864e-08 4.4635154e-08 1.1626558e-06
000100 d5 f9 46 35 44 41 c2 34 fa 94 b3 34 f7 4d ae 33
       7.41243e-07 3.6182803e-07 3.3449743e-07 8.116688e-08
000110 6a ae b2 33 27 a9 6e 34 fb e9 08 33 cf ad 72 34
       8.320497e-08 2.2227015e-07 3.187777e-08 2.2601238e-07
000120 3e ad fe 34 5f aa 63 34 59 bd 6c 33 e3 84 9b 34
       4.7437237e-07 2.1203003e-07 5.5120243e-08 2.8967688e-07
000130 4b b5 70 34 86 a4 ba 34 34 93 f9 33 04 1b de 33
       2.2417696e-07 3.4764906e-07 1.1621742e-07 1.0342595e-07
000140 e3 38 f9 33 5a fc 19 31 c2 f2 d0 30 d9 77 fa 30
       1.1605314e-07 2.2407876e-09 1.5202988e-09 1.8223957e-09
000150 49 52 ac 33 4d 4d 80 33 05 24 0c 33 93 43 f5 34
       8.024342e-08 5.9745254e-08 3.262905e-08 4.5683973e-07
000160 65 5a 76 34 75 ee ff 33 cf 70 1c 35 f5 19 80 34
       2.294342e-07 1.1917738e-07 5.8278687e-07 2.3860744e-07
000170 9c 95 82 33 f6 e1 89 33 c3 61 b5 33 60 d8 94 33
       6.0808105e-08 6.420662e-08 8.446252e-08 6.9311454e-08
000180 91 0e 84 34 b1 8b 86 33 25 44 53 34 14 a3 a0 34
       2.4597514e-07 6.265271e-08 1.9675697e-07 2.9920977e-07
000190 69 97 82 33 25 5c a3 34 d0 c2 e4 34 eb 1d c9 33
       6.081138e-08 3.042816e-07 4.2610054e-07 9.365234e-08
0001a0 35 94 f3 34 12 18 23 32 61 6e 90 31 e7 2c 14 32
       4.5370112e-07 9.493322e-09 4.2035e-09 8.624943e-09
0001b0 62 ff 9e 34 64 a0 d5 33 10 48 04 34 b6 4f 62 34
       2.961561e-07 9.94776e-08 1.2319674e-07 2.1076889e-07
0001c0 5f 3c 8b 33 99 30 8e 34 16 20 8a 35 6c 00 a1 34
       6.483673e-08 2.648492e-07 1.029114e-06 2.9988894e-07
0001d0 bb b4 c5 34 a3 fc aa 33 2a cd cb 33 85 c1 a0 33
       3.6825608e-07 7.962196e-08 9.490243e-08 7.4857816e-08
0001e0 ee e1 e5 34 6e 65 99 33 3f a9 4b 34 32 39 4b 33
       4.281896e-07 7.143068e-08 1.896742e-07 4.731664e-08
0001f0 7c 6e a1 32 63 2e 02 34 bd 68 30 33 5a fa a3 32
       1.879311e-08 1.2124069e-07 4.1073452e-08 1.9089544e-08
000200 ce 1f 50 32 47 9f 90 34 54 e8 a0 33 df 7a 72 34
       1.2114425e-08 2.693798e-07 7.492841e-08 2.2582707e-07
000210 35 c6 09 35 8e 17 6a 34 44 ce 6d 34 3d 6b 66 33
       5.1324906e-07 2.1801517e-07 2.2147384e-07 5.364858e-08
000220 ac 28 6d 33 3d 4d 7d 33 0b 1c c5 33 58 e5 97 32
       5.5217853e-08 5.89764e-08 9.178628e-08 1.7683007e-08
000230 17 b8 e8 33 9d 8a 47 34 e3 5c f6 33 a0 c4 88 34
       1.08368276e-07 1.8583746e-07 1.1472164e-07 2.5475038e-07
000240 3b de dd 32 bc 44 85 33 89 dd de 33 f2 82 5a 33
       2.5828845e-08 6.205798e-08 1.03779776e-07 5.0876174e-08
000250 92 35 fc 32 b8 d6 30 33 1a 4f a2 33 75 f3 a0 33
       2.9361022e-08 4.117348e-08 7.558101e-08 7.494865e-08
000260 29 27 82 33 64 fa b5 34 da 24 06 34 90 a7 85 33
       6.06072e-08 3.389606e-07 1.2493129e-07 6.2237746e-08
000270 1e f6 74 33 c8 36 25 33 61 e2 ef 33 8f 21 38 33
       5.703452e-08 3.846688e-08 1.1170483e-07 4.287136e-08
000280 31 b0 a6 33 98 49 cd 33 c8 47 12 34 a6 45 9d 33
       7.7620264e-08 9.559443e-08 1.3623423e-07 7.323551e-08
000290 bf 62 a3 33 25 36 69 34 01 68 89 33 0f 36 84 33
       7.608241e-08 2.1719514e-07 6.398478e-08 6.156562e-08
0002a0 74 fc 13 34 91 bb 6e 33 3d e9 89 33 cd bb 87 33
       1.3782284e-07 5.5584284e-08 6.4219854e-08 6.320588e-08
0002b0 4b 06 bc 33 f0 fb 5b 33 8d 65 3d 34 00 ce 70 33
       8.755577e-08 5.1219047e-08 1.763894e-07 5.606671e-08
0002c0 b0 2c 6d 33 bc 5c 65 34 3c f4 26 33 39 ac b3 33
       5.5221506e-08 2.1361024e-07 3.8872017e-08 8.366664e-08
0002d0 82 83 ea 32 88 46 72 32 31 76 94 32 f7 d5 c3 33
       2.7300988e-08 1.4102291e-08 1.7283215e-08 9.119315e-08
0002e0 30 e0 91 33 5e 83 49 34 e0 79 09 34 b5 b0 82 34
       6.792868e-08 1.8767375e-07 1.2803457e-07 2.4342958e-07
0002f0 a6 f7 7c 34 01 28 18 35 bd f0 95 33 c0 70 a8 34
       2.3559423e-07 5.6682626e-07 6.982143e-08 3.1374475e-07
