models/model_cavity_nu0.01_U1_20x20_20x20_epochs200_lrannealing_testpcnt0.5.pt (torch, 187951 bytes, 30 tensors)

weight f4 [64, 3]
000000 1b 61 0f bf 24 97 a7 be aa 65 6c 3e a6 3a 0b 3f
       -0.56007546 -0.327325 0.23085657 0.54386365
000010 32 87 de be b1 47 28 3c e0 c6 b7 3e f6 25 cd 3e
       -0.4346252 0.010270999 0.35893917 0.40068024
000020 9f 42 f0 bd f5 2e c7 be f9 11 85 be 4c 21 94 bd
       -0.11731457 -0.38903013 -0.25990275 -0.072329134
000030 af dd bd 3e 16 1f c9 be 87 99 13 bf 43 23 f7 bc
       0.37083194 -0.3928153 -0.5765614 -0.030168181
000040 94 84 29 3e f5 b9 f9 be d3 8c 43 be a3 b7 db 3d
       0.16554481 -0.48774686 -0.19096689 0.10728385
000050 64 bb c5 3b 57 66 bd 3d 37 40 87 be 94 3a 3a 3d
       0.0060343016 0.092480354 -0.2641618 0.04546602
000060 68 0a bf be 33 86 93 3d d7 db be be 23 52 c5 be
       -0.37312627 0.07203331 -0.372771 -0.38539228
000070 02 07 8f bd a6 11 06 bf bb 99 38 be 42 c3 a0 3e
       -0.069837585 -0.5237068 -0.18027394 0.3139897
000080 9d 75 08 bf 5c 1b 76 be 7a f0 d6 3e be 99 08 bf
       -0.53304464 -0.24033874 0.41980344 -0.5335959
000090 83 25 89 be 0a 12 e1 3e 70 a8 05 bf 20 fc 8a bc
       -0.26786432 0.43959075 -0.5221014 -0.016965926
0000a0 86 c0 16 3e 2a c4 38 3c 93 68 30 3e 2a 42 0f 3f
       0.1472188 0.011277238 0.17227392 0.55960333
0000b0 35 70 f3 3e d8 95 07 3f b4 18 e5 be 17 51 80 3e
       0.47546545 0.5296302 -0.4474541 0.25061867
0000c0 8d 68 fe be c4 67 11 3f 61 15 e5 3e b7 c2 4e 3e
       -0.4968914 0.5679896 0.44742873 0.20191465
0000d0 49 3c 10 3f 76 e5 d3 bd 21 d3 8a bd 44 db 6a be
       0.5634199 -0.103465006 -0.06778551 -0.22935206
0000e0 f4 2f 63 bd aa 8e e2 bd e7 48 b2 be 8c 3f 81 be
       -0.055465654 -0.11062367 -0.34821245 -0.25243795
0000f0 8f 76 12 bf e1 8a 21 be bb 60 77 bd 3b a9 02 bf
       -0.57212156 -0.15775634 -0.060394984 -0.51039475
000100 1e 2f 38 be 96 ef b9 be 91 c4 2e be 27 2c 95 bd
       -0.17986724 -0.36315602 -0.17067172 -0.07283812
000110 db 9b 93 3e c7 79 9b be 46 4c cd be 73 e1 f7 be
       0.28829846 -0.30366346 -0.40097255 -0.48414192
000120 ca b2 2e b9 14 e4 02 bf 88 bf c8 be e0 15 c1 be
       -0.00016660537 -0.5112927 -0.39208627 -0.37712002
000130 fe 77 0a 3e cf c5 85 bb 8f d3 d2 be d4 ec ed be
       0.13522336 -0.0040824185 -0.4117703 -0.46469748
000140 e5 49 30 be 0b 03 87 3e 83 ea 3f be 01 ea 2b 3c
       -0.17215689 0.2636951 -0.18741803 0.010492803
000150 40 22 1b bf 78 8d 12 be 5c 94 ae 3d d8 5e d0 be
       -0.60599136 -0.14311779 0.08524391 -0.4069736
000160 94 b6 06 bf 0f 5f 81 3e c0 45 de 3e 6f 4a 9d 3e
       -0.5262234 0.25267836 0.4341259 0.3072085
000170 7f 72 79 3e 0b df 01 3f 94 e6 77 3e 18 76 e3 3e
       0.24360083 0.5073096 0.24209052 0.44426036
000180 bd e2 80 be e2 1a 0d bf 89 8c ec 3e 0d b9 dd be
       -0.25172988 -0.55119145 0.4620097 -0.43305245
000190 d4 4c 48 3e 0c 7b b4 3e 05 ae 34 be c2 62 18 be
       0.19560558 0.35250127 -0.17644508 -0.14881423
0001a0 c8 2c ba be 3a ff 10 3f ce 6e 3b be a3 b2 1b 3e
       -0.3636229 0.56639445 -0.18303987 0.15204863
0001b0 65 1f f3 bd c2 eb 14 be 1e 61 94 be 6c a9 31 3e
       -0.118712224 -0.1454306 -0.28980345 0.17349786
0001c0 4e 89 f0 3d 53 32 ee 3e 21 64 93 be e5 09 08 3f
       0.11744939 0.4652277 -0.2878733 0.531401
0001d0 6d c8 c2 3e fc 47 73 3e 72 49 b4 be dd b5 ff be
       0.38043538 0.23757929 -0.35212284 -0.49943438
0001e0 43 90 1d 3e b4 17 cd 3c 19 26 f7 be 33 6f 93 3e
       0.15387063 0.025035717 -0.48271254 0.28795776
0001f0 dc a4 0e 3f a3 b6 89 3d b8 72 20 be 09 28 9c be
       0.55720305 0.06724288 -0.15668762 -0.30499294
000200 14 20 92 be 2c de 84 be 1e 3f 03 bf 0b fe 9c be
       -0.285401 -0.25950754 -0.51268184 -0.3066257
000210 17 d7 5e 3e 99 99 01 bf b2 d4 f7 be ca 28 27 bd
       0.21761738 -0.50624996 -0.4840446 -0.040810384
000220 e1 f9 d7 be ea 17 12 3f 4d 29 a1 3e ea 96 26 3f
       -0.4218283 0.5706774 0.31476822 0.65074027
000230 c2 46 80 3e 11 ae e3 3e c7 c0 3f 3e 19 93 fa bd
       0.25053984 0.4446874 0.18725882 -0.12235088
000240 60 a8 f6 be 19 fb d0 3e 3f 82 d4 be 28 4f ee 3d
       -0.48175335 0.40816572 -0.4150562 0.116361916
000250 09 90 22 be eb b5 90 3e 76 02 60 be e5 56 90 3d
       -0.15875258 0.28263792 -0.21875939 0.07047824
000260 8a 7c ae 3e 6e 8b c4 3e db 66 71 3c 89 0f dd 3e
       0.3407939 0.38387626 0.014733995 0.43175915
000270 ea bc 74 be 54 a5 01 3f 1c cd 5e 3e ca 41 ae 3e
       -0.2390019 0.50642896 0.2175793 0.34034568
000280 04 6f f7 be 9d 20 2e 3d cc 9b 32 3d 88 9f bb 3e
       -0.48326886 0.04251157 0.04360561 0.3664515
000290 ad 0b 04 bf c2 af 8d be 5b b1 e2 be a6 56 de 3e
       -0.51580316 -0.27673155 -0.44275936 0.43425483
0002a0 7b c4 f6 be 49 de a3 be 95 d8 89 3e af 86 7e 3e
       -0.48196778 -0.32005528 0.2692305 0.24856065
0002b0 db f8 b9 3c 01 2d e4 3e b5 43 14 3f 94 df e1 be
       0.022701671 0.44565585 0.5791581 -0.4411589
0002c0 8d 14 06 bf c5 cf c4 3d 7b bd 00 bf 02 a3 c3 be
       -0.5237511 0.096099414 -0.50289124 -0.38210303
0002d0 85 4c 08 3f 7a 05 02 3d 55 25 02 bd 9a f7 04 3f
       0.5324176 0.031743504 -0.031773884 0.5194031
0002e0 c6 da 34 be f1 d1 24 be 2e c3 0c bf 66 0c 26 be
       -0.1766158 -0.16095711 -0.5498532 -0.16215667
0002f0 19 75 6b bd 99 1b bd 3e b7 04 bb be 50 ef 96 3e
       -0.05748472 0.36935118 -0.36527035 0.29479456

bias f4 [64]
000000 fc d6 ea 3e e0 b5 80 be 05 47 e9 3c ad ac 28 3f
       0.45867145 -0.2513876 0.028476248 0.6588848
000010 76 fd 6e 3e c7 fc a5 be 00 f1 23 3e c9 5f db 3e
       0.23338875 -0.32419416 0.16009903 0.42846516
000020 04 5c 40 bd 7a 8d 9b be 16 6f ab bc 03 c0 c0 be
       -0.046962753 -0.30381376 -0.020926993 -0.37646493
000030 71 8a 1c bd a1 9c 98 3e 0b 95 ac 3e d5 6c 04 3f
       -0.038217966 0.29806998 0.3370746 0.51728565
000040 1a 07 be 3e 7a d6 c8 3e 2a b5 08 3f 68 5b d6 be
       0.37114793 0.39226133 0.53401434 -0.41866612
000050 57 95 74 3e 70 d0 1c 3f e8 4a df be 00 b3 0e bf
       0.23885094 0.6125555 -0.43611836 -0.5574188
000060 2f d1 f2 be f5 5a 05 bf 80 05 90 3e 08 cb 02 bf
       -0.4742522 -0.52091914 0.28129196 -0.5109105
000070 90 80 0f be e6 49 da 3e de 80 02 bf b0 7b 69 be
       -0.14013886 0.42634505 -0.50977886 -0.2280109
000080 19 22 8c be 2e 25 ca 3d 6a aa 16 bf 3f 41 0a 3f
       -0.27369764 0.09870373 -0.5885378 0.5400581
000090 89 0a 1b 3f 4d 91 0b 3f 13 c2 dd bd 98 f9 c1 3d
       0.6056295 0.54518586 -0.10828032 0.09471434
0000a0 e0 16 1b bc 1e 63 20 3e 25 9b b2 be a0 cc f1 bd
       -0.009465903 0.1566281 -0.3488399 -0.11806607
0000b0 db 16 c7 be 99 7c 66 be 18 01 7b 3e 10 8f 00 bf
       -0.38884625 -0.22508468 0.24512136 -0.50218296
0000c0 f2 3e ca be fd 28 80 3e a5 25 d2 3e b7 d8 07 3f
       -0.39501148 0.25031272 0.41044345 0.53065056
0000d0 52 6a d7 be 62 02 fe 3d e3 d0 90 be 98 3d 9b 3e
       -0.42073303 0.12402798 -0.28284368 0.3032043
0000e0 a1 e2 c4 3e 0d 1c 10 3d 32 e9 1d bb 4f 61 9f 3e
       0.38454154 0.035183 -0.0024095294 0.31128928
0000f0 f8 4e b4 3e 84 c4 f4 3e 17 16 23 be 00 64 e2 be
       0.35216498 0.4780618 -0.15926395 -0.4421692

weight f4 [64, 64]
000000 59 ec a8 3d 10 d8 46 bd 70 25 6b 3d 6e 6b c7 3d
       0.08248205 -0.048545897 0.05740875 0.097372875
000010 a2 00 fd bd b5 39 ff bc 5e ad 68 3c ed 4b 8d 3b
       -0.12353636 -0.031155447 0.01420149 0.0043120296
000020 8d a6 ee 3b ba 6d d6 bc 24 13 e9 3d b9 65 57 3d
       0.007283038 -0.026175369 0.11380604 0.052587245
000030 2a 59 31 3c 75 93 c0 bc 11 ba 16 3e 37 1c bc bd
       0.010824481 -0.023507813 0.14719416 -0.09185069
000040 4d 1b 2c 3d 9b 46 ee 3d d9 85 2b 3d a4 20 94 3c
       0.042018224 0.11634561 0.041875694 0.01808197
000050 65 a4 41 bd 1b 01 af bd dd 54 bd 3c b7 0a a9 bd
       -0.04727592 -0.08545133 0.023111755 -0.08253997
000060 24 22 f3 3d 11 c1 4e bd 94 9c 84 bc 1f e7 a1 3d
       0.11871746 -0.05047709 -0.016187944 0.07905411
000070 bc aa b5 3c 7f 2b cc bc 18 7c 3a 3e 07 be 26 bd
       0.022176139 -0.024923084 0.182114 -0.040708568
000080 37 27 13 bd 88 39 5b bc 74 6f 28 bd 0a 06 8e 3d
       -0.03592607 -0.013380416 -0.041121915 0.069347456
000090 53 4e 17 bd a6 84 8d bd 26 c4 90 3c 14 38 bb 3c
       -0.03693993 -0.06910066 0.017671656 0.022853889
0000a0 25 b7 95 3d 43 db 69 3c 5e f5 d9 3c 65 17 a2 bd
       0.07310323 0.0142734675 0.026606258 -0.079146184
0000b0 1f 54 ef bd 2d 14 10 be b9 26 08 3e 47 72 b8 3d
       -0.11685967 -0.14070196 0.13296022 0.09006172
0000c0 0e 04 22 3c f6 92 a3 bd 07 87 61 3d 3d ad a0 bd
       0.009888662 -0.07987015 0.055060413 -0.078455426
0000d0 77 84 95 bd 0b 66 84 bd 11 11 10 3e ef 4c d6 bd
       -0.07300656 -0.06464776 0.1406901 -0.10463893
0000e0 3f dc 98 bd 90 d8 d1 3d af 80 c2 3d 3f e5 c8 3c
       -0.074638836 0.10246384 0.09497201 0.024523376
0000f0 0a 5a 00 3d a1 2b bb bd 78 30 e1 bb 69 3e eb bd
       0.031335868 -0.09139181 -0.006872233 -0.11486513
000100 3a 06 88 3b ab 6f 29 3e 75 8f 8a 3d af 59 2c be
       0.004151133 0.16546504 0.067656435 -0.16831087
000110 e9 bc ba 3c e0 5b fd bd 22 25 00 bd 37 71 01 3e
       0.022795158 -0.123710394 -0.031285413 0.12640844
000120 60 87 ce 3d 76 e1 b4 bd 67 f8 b6 bc 90 88 94 3d
       0.100844145 -0.08832066 -0.022335244 0.0725261
000130 a2 7e 6e 3d ca 9a da bd 12 b2 a5 bc 42 73 36 bd
       0.058226235 -0.10674055 -0.020226512 -0.044543512
000140 46 a6 0e be 5f 70 55 bd 13 81 81 bd 64 84 cd bd
       -0.13930616 -0.05210912 -0.06323447 -0.10035017
000150 5f ad 06 3c 06 b4 49 bd ef 4e 12 3d c0 fe 85 bd
       0.008220046 -0.04924395 0.03571981 -0.0654273
000160 66 d1 af bd 43 cc c2 bd a2 d2 c0 bb de a3 e1 bd
       -0.085848615 -0.09511616 -0.0058844844 -0.11017583
000170 c1 ef 5e bd aa 5d 61 bd ae 6c a2 bd 7d 6f 9c 3d
       -0.054427866 -0.055020966 -0.07930885 0.07638452
000180 eb bb d0 3c 97 79 8e 39 e7 e2 97 bd fe 4a c3 3d
       0.025480231 0.00027174942 -0.07416325 0.09535788
000190 67 bb 9e ba 49 8c b6 3d ed 46 fc bb 92 ee 88 bc
       -0.0012110294 0.08913476 -0.0076988847 -0.016715322
0001a0 ba 72 42 3d e4 60 83 3d 61 81 e2 bd de 53 20 bd
       0.047472693 0.06414965 -0.11059833 -0.039142482
0001b0 df c6 17 3c be da 2f 3c aa 08 c0 bd ea f1 a2 3d
       0.009263723 0.010733305 -0.093766525 0.07956298
0001c0 86 fe 93 bd 28 ef 81 3d 34 8a 8a bd 63 a4 bc bc
       -0.07226281 0.063444436 -0.067646414 -0.023027604
0001d0 67 c8 aa bd 0d ca 03 3e 60 7f 83 3b f3 0c 1e bd
       -0.08339005 0.12870045 0.004012987 -0.038586568
0001e0 7c 57 28 be f2 41 c2 3d 51 31 bb bd f5 14 03 be
       -0.16439623 0.09485234 -0.09140266 -0.12800963
0001f0 fc 70 07 bd ab 98 ed 3d 73 1e 18 3d c1 ca 1e 3e
       -0.033066735 0.11601385 0.037138414 0.15507032
000200 eb c9 7b 3d 10 bf c4 3d 2f 58 44 3d 26 c2 c9 bd
       0.06147186 0.09606755 0.04793566 -0.09851484
000210 b7 95 54 3d fe 4e 93 3d 5d 3d e2 bd c2 4f 8f 3d
       0.05190059 0.07192801 -0.1104686 0.069976345
000220 86 b6 e5 3d 8a bd 26 bd f4 92 f3 bc 94 b9 41 3d
       0.11216454 -0.040708102 -0.029733159 0.04729612
000230 c8 b5 02 be 5c 00 f0 3b bb b4 d0 bd d5 ab d4 bc
       -0.12764657 0.0073242616 -0.101907216 -0.025960842
000240 84 a0 0f be 6b 09 15 3d a5 6e ac 3d ea 40 d4 bd
       -0.14026076 0.036385935 0.08419541 -0.10363944
000250 ab 5b e9 bd f7 37 90 3c 8e b5 94 bb f0 53 8b bd
       -0.113944374 0.017604811 -0.0045382446 -0.06803119
000260 01 73 e8 3c ee 34 86 3d 40 14 01 be 4e ca bd bc
       0.02837515 0.06553064 -0.12605381 -0.023167755
000270 9f 16 2a 3d b4 86 df bd d9 86 9d 3d 87 06 99 3d
       0.04152548 -0.109143645 0.07691736 0.07471948
000280 2d b1 9d 3d 2d ae 97 3d a1 47 8b bd ec 4a b4 3d
       0.07699809 0.07406268 -0.068007715 0.08803353
000290 15 f6 d3 bd 01 8b e0 bb 69 cc b3 3c 8f 7b c0 bd
       -0.10349671 -0.006852508 0.021948056 -0.09398567
0002a0 7e 33 47 bd 6e 20 c6 bd fc 47 e1 bd 7e f7 56 bd
       -0.04863309 -0.09674154 -0.11000058 -0.05248212
0002b0 2e 26 29 bc 82 c6 eb 3d 23 fd 16 3d 33 0a b0 bd
       -0.010324044 0.11512472 0.036862504 -0.08595695
0002c0 d9 95 16 3d 31 85 69 bd 61 6e a5 3d fa 83 06 bb
       0.036764 -0.057011787 0.08077694 -0.0020525442
0002d0 a7 54 10 bd ca a3 ac 3d 49 25 99 bd 3c fa 40 3d
       -0.03523698 0.08429678 -0.07477815 0.047113642
0002e0 93 4a a6 3d 3f f8 83 bc 82 13 d0 3d a5 e0 c0 3d
       0.08119693 -0.016109584 0.10159971 0.094178475
0002f0 27 18 d5 bd e8 ff ed 3d 38 f1 7e 3d 97 62 12 bd
       -0.10404997 0.11621076 0.062241763 -0.035738554
000300 b9 05 6c bd ab 2c 1a 3d c7 dd 77 3d 9b 01 2d bd
       -0.057622645 0.037640255 0.060514238 -0.04223786
000310 0e c6 c5 bd 4b 5e 8c bb 0e 08 33 bd e9 96 e6 3d
       -0.096569166 -0.0042837015 -0.043708853 0.112592526
000320 96 f6 73 bd ff 23 9e 3d 23 ad d4 3d b6 62 0a 3e
       -0.059561335 0.077217095 0.10384586 0.13514218
000330 b6 85 12 3e db 9e a8 3d 15 01 d6 3c 41 f8 e8 bd
       0.14308819 0.08233424 0.026123563 -0.11375476
000340 52 42 1e 3e c8 25 40 bd 29 64 0e 3e 1e 72 c8 bd
       0.15454987 -0.04691103 0.13905396 -0.09787391
000350 4a 25 2a bd 47 dc 09 3e 4c 0c 75 3d 4a de 97 bd
       -0.041539468 0.13462935 0.05982618 -0.07415445
000360 e6 16 76 3d 1a 7e 7d bc 8d a1 ee 3d db 8d 0a 3e
       0.06008043 -0.0154719595 0.11651907 0.13530676
000370 29 5f cc 3d 50 2c 5f 3c 76 b4 e8 bd 5c 75 10 be
       0.09979088 0.013621405 -0.11362545 -0.14107269
000380 06 fa a0 bd 9e db b3 3d c2 b5 7c 3d 80 b4 f0 3d
       -0.07860188 0.08782123 0.061696775 0.11753178
000390 5b 3b bc bc 3d e7 50 3d db 73 22 bd e1 f4 59 3d
       -0.022977522 0.051001776 -0.03966127 0.05321205
0003a0 73 50 88 bd ab 22 de bd 76 64 93 3d 68 20 9f 3c
       -0.066559695 -0.10846456 0.07196896 0.019424632
0003b0 20 ca da 3b 4a 20 fd 3d 3e e9 a2 3d 6f 23 fa bd
       0.006676927 0.12359674 0.07954644 -0.1221379
0003c0 c8 c9 43 bd 4d 38 e6 3d a4 0c 77 bd 3e 69 8c 3d
       -0.047799855 0.11241207 -0.06031479 0.06856011
0003d0 5f e0 d3 bc 4f d1 de bc 4e b9 88 3d 15 b8 02 3e
       -0.025863824 -0.027199415 0.06675969 0.12765534
0003e0 8f b5 99 3d 6c f5 7b 3c b3 8d 0d be a9 8d 9c bd
       0.07505333 0.015378337 -0.13823585 -0.07644207
0003f0 f5 20 fa bb b9 cb 93 bd c7 bb cf 3d 82 a0 1b 3e
       -0.0076333233 -0.072165914 0.101432376 0.15197948

bias f4 [64]
000000 de 0c cd bb 0d 97 fe bd 99 c7 7f 3d 23 de f7 3c
       -0.0062576374 -0.124311544 0.06244621 0.03025729
000010 99 66 1b 3e a7 da ae 3d 27 7e 31 bd fc e7 66 3d
       0.15175857 0.085377984 -0.0433332 0.05637358
000020 00 97 e7 3d 0b 40 79 bb 2c ba c5 bd 60 73 40 bc
       0.11308098 -0.0038032557 -0.0965465 -0.011746258
000030 ae 75 66 3d 26 9c d1 bc 32 62 2b 3e 02 ac 29 3d
       0.05626457 -0.025587153 0.16736677 0.041423805
000040 b8 1d ce bd ea b3 c1 bd 0c fc 8f bd 84 79 5b 3d
       -0.10064262 -0.09458144 -0.07030496 0.053582683
000050 75 fc 05 3e b4 3d 3a 3d 54 ae 8c bd 85 ab ae bd
       0.13084586 0.045469 -0.06869188 -0.085288085
000060 0e f5 83 bd a1 09 1f bd 78 60 e4 3c 6e 4a dd bd
       -0.06443225 -0.038827542 0.027878031 -0.10805212
000070 60 01 e8 bd ad 87 5b 3c 64 dd 8f bd d0 a8 80 bd
       -0.11328387 0.013399047 -0.07024649 -0.062821984
000080 04 8f a3 3c 4d 93 c9 bd 67 d2 84 bd 1b 9d e7 3d
       0.019965656 -0.098425485 -0.064854436 0.11309262
000090 e3 0b 73 3b 72 d7 88 bc 93 d6 7c bb 7c c6 28 3d
       0.0037085942 -0.016704295 -0.0038580045 0.041204914
0000a0 9d 5f 0e 3e b8 2c 85 bd ab 06 36 3d a0 a8 95 bd
       0.13903661 -0.0650267 0.044439953 -0.07307553
0000b0 5a 2d 44 bd 53 ee b9 3d 54 91 83 bd dd fc 77 3c
       -0.047894813 0.0907866 -0.064242035 0.015135971
0000c0 c0 ab e0 3d f4 e0 e9 3d 28 13 e5 bd d9 b8 8f 3d
       0.10970259 0.114198595 -0.111852944 0.07017679
0000d0 e8 66 8f 3d fb d0 bb bc b2 fc b0 3d 08 31 95 3d
       0.0700205 -0.022926798 0.08641948 0.072847426
0000e0 fb 42 0e be 73 71 2d bd 4c 48 18 bc 82 e9 ae 3c
       -0.13892739 -0.04234452 -0.009294581 0.02135158
0000f0 73 ec f2 bd fe 70 da 3d 76 5c e8 bc cf eb 02 3d
       -0.11861505 0.10666083 -0.028364401 0.031963166

weight f4 [64, 64]
000000 e8 07 04 3e 7b c4 78 3c 2e b9 57 3c ed 64 de 3c
       0.12893641 0.015183563 0.013166709 0.027147735
000010 cc 3f 93 3d 7d 2a bc bd ac 58 44 ba fd 5d 48 bb
       0.07189903 -0.091877915 -0.000749002 -0.00305736
000020 e9 22 2c 3e fb 90 a7 bd f0 02 c9 3d b9 fd ec 3d
       0.16810192 -0.0818195 0.098150134 0.11571831
000030 41 15 a7 3d 91 37 b0 3b 39 df e7 3d 76 cb 94 3b
       0.08158351 0.005377718 0.11321873 0.004540856
000040 ce 29 a0 3d b3 33 22 bc dc de c8 3c fb 96 56 3d
       0.078204736 -0.009900021 0.02452033 0.05239008
000050 3e ba 26 3d ed 87 bd 3d d0 1d 7b bc 8d 32 c2 3d
       0.04070496 0.092544414 -0.015326932 0.09482298
000060 60 ce 32 bc d6 74 11 3d ba ba cb bd 31 c1 c2 3d
       -0.010913461 0.035511814 -0.09947725 0.095095046
000070 86 db bf 3d 94 73 d2 3d 0c 1c f8 3d 1d 22 bf bd
       0.09368043 0.10275951 0.121147245 -0.093326785
000080 5c 7e a1 3d 90 bf 75 3d 3d e2 b4 bb 65 d7 de 3d
       0.07885429 0.05999714 -0.005520134 0.10880927
000090 9f b3 35 bd b8 f2 d2 bd 19 f3 6a bd 48 9a 93 3d
       -0.044360753 -0.10300201 -0.057360742 0.07207161
0000a0 3c 4c 3b be 50 cb 56 bd 73 ac 33 3d ad f0 f4 3d
       -0.182908 -0.052439988 0.043865632 0.11959968
0000b0 25 84 be bd 38 c7 4a bd a9 4a 3a bd 63 12 94 bd
       -0.09302548 -0.049506396 -0.045481358 -0.072300695
0000c0 bd 46 3d bd a9 0e 4e bd b5 6f 52 bd fe 4c 14 3e
       -0.04621004 -0.05030695 -0.051376063 0.14482495
0000d0 10 ae 40 bc 96 42 73 3d 11 61 bb 3d 8a 6a 82 3c
       -0.01176025 0.059389673 0.09149373 0.015919942
0000e0 9c c2 4a bd 3b af 08 3e be d8 a4 3d 07 97 52 3d
       -0.049502 0.13348095 0.08049153 0.051413562
0000f0 29 46 cc 3d 6b 71 47 bd c0 7d b7 3d 3d be bf 3d
       0.099743195 -0.04869215 0.08959532 0.09362457
000100 e5 06 1e 3d 76 e3 e7 3d d2 c8 dc bb 05 23 f8 3d
       0.038580794 0.113226816 -0.006737807 0.121160544
000110 ca ce 72 bd 8a 6c b7 bd 10 db cb bd b7 2d db 3d
       -0.05927924 -0.08956249 -0.09953892 0.10702079
000120 ce 17 1b 3e 3a ad 1c 3e c8 19 fe bd eb a2 20 3e
       0.151458 0.15300456 -0.12407261 0.15687148
000130 48 10 43 3e f0 e7 d3 bc ba b1 65 3b 1a b8 ca bb
       0.1904918 -0.025867432 0.003504856 -0.0061864974
000140 15 77 c8 bd 9a 30 3e 3e 5c 05 ad 3b 3c bc 0e 3e
       -0.09788338 0.18573228 0.00528018 0.13938993
000150 1d 91 da 3d db 63 ed 3d e5 a8 90 bc f7 40 9b 3d
       0.106722094 0.115913115 -0.01765866 0.075807504
000160 ad 78 cb bc 72 7e bc 3d 42 72 45 3e b0 12 97 bd
       -0.024837816 0.09203805 0.19281867 -0.07376611
000170 39 bd 79 3d 17 21 a4 3d 57 f9 9b bc 31 8d a3 bb
       0.060971472 0.08014124 -0.019039793 -0.0049911966
000180 a8 b3 e8 bd 67 51 eb bd 56 c1 12 3e 8a bb af 3d
       -0.11362392 -0.11490136 0.14331564 0.08580692
000190 fd cc 82 3b 0a 66 7f 3d a7 7d 89 3d 65 9b 78 3c
       0.0039917217 0.06235317 0.067134194 0.015173768
0001a0 12 11 f5 3c 9f 2b fc bd e9 d2 e0 3d 27 f4 fa bd
       0.029915366 -0.123130076 0.10977728 -0.122535996
0001b0 6b 3d 22 bd 99 bc e5 bc 5e d5 38 3c 70 a0 a5 bd
       -0.039609354 -0.028044032 0.011281339 -0.08087242
0001c0 ab d0 bc bc b3 04 af 3d 9c f9 83 ba c5 0e ea 3d
       -0.02304872 0.08545818 -0.0010068896 0.11428598
0001d0 2c 0d b1 bd c6 56 c0 bd 2a 2a 8c bb de f9 f1 3d
       -0.086450905 -0.09391551 -0.0042774873 0.118152365
0001e0 dd f5 00 3e 17 ae 53 bd 05 f2 31 bd f8 76 c8 3d
       0.1259379 -0.051679697 -0.0434437 0.097883165
0001f0 aa bd e5 3d 0d 8b 73 bd af 4f 6f bb e4 b3 68 bc
       0.11217816 -0.05945878 -0.0036516 -0.0142030455
000200 a3 a0 d8 3d 32 86 49 3c cc e2 89 3d ed 89 0d bd
       0.10577514 0.012300061 0.06732711 -0.034555364
000210 f4 d6 87 bc 4c 09 59 3a f0 bd 4f bc a6 e0 b1 bd
       -0.01658199 0.00082792784 -0.012679562 -0.086854264
000220 b8 7f 11 bd 52 c8 a9 bd cc d5 9f 3c 6d 6f 9e bd
       -0.035522193 -0.08290161 0.019511126 -0.077360965
000230 df e9 74 bd b9 5d a0 3d e7 b9 4c bd 85 65 27 3d
       -0.05979335 0.07830376 -0.049981978 0.0408683
000240 b4 a3 05 bd 92 08 e3 bd b4 58 54 3d fb 71 cc bd
       -0.032626823 -0.11085619 0.051842406 -0.099826775
000250 34 80 84 3d c4 de 5e bd 82 99 95 3c c6 5d 44 3d
       0.06469765 -0.054411665 0.018261675 0.04794099
000260 a1 dc 92 3d e9 65 ae bd 3f 31 93 3d 9f e7 f0 3a
       0.07170988 -0.085155316 0.07187127 0.0018379575
000270 74 0e 01 bd 20 59 d5 bc 75 de f6 bc 90 19 ff bd
       -0.031507924 -0.026043475 -0.030135373 -0.124560475
000280 24 7a 16 bd 19 3b 93 bd cb b6 6f bd ca 24 44 bd
       -0.036737576 -0.07189006 -0.058523934 -0.047886647
000290 f2 f7 8e 3d cf c4 e5 3d 10 47 bf bb ac 6d 5d bd
       0.069808856 0.11219179 -0.0058373287 -0.05405967
0002a0 f0 36 a8 3d 10 b0 81 3d 2e 70 b5 bd 6d 6a df 3d
       0.082136035 0.063324094 -0.08859287 0.10908971
0002b0 b0 42 a5 3c b9 64 36 3d 0f 38 a9 bd 38 d5 ff 3d
       0.0201734 0.04452965 -0.082626455 0.1249184
0002c0 8f 7a fe bd 15 14 ca bd ab 7e dc bd 3b cb 97 3c
       -0.1242572 -0.098671116 -0.107663475 0.018529525
0002d0 0b bf bc bd 59 2b e3 bd a3 51 9d bd 62 a8 f1 bd
       -0.09216126 -0.11092252 -0.076815866 -0.117996946
0002e0 14 b7 c3 bd 98 f2 a1 3d 47 4a 9a 3d 3b f5 4e 3c
       -0.09556404 0.07907599 0.075336985 0.01263171
0002f0 09 54 db 3c 3c 02 ae 3d c9 16 e0 bd 86 67 c3 bc
       0.02677347 0.0849652 -0.10941846 -0.023853075
000300 10 c3 2a bc 50 90 c9 3d 30 61 33 bd 4a bc c1 bd
       -0.010422483 0.098419785 -0.043793857 -0.094597414
000310 88 53 f2 bc aa 5a ef bd 6e 93 a8 bd d0 ff 09 bc
       -0.029580846 -0.11687215 -0.08231245 -0.008422807
000320 88 eb 89 bd 80 09 21 3d 80 90 ab bc 6c 6b 01 bd
       -0.06734377 0.0393157 -0.020942926 -0.031596586
000330 a8 9a 95 bc 00 87 c0 3b e0 64 2d bd a6 f0 ad 3d
       -0.018262222 0.0058754683 -0.04233253 0.08493166
000340 7c 54 82 3d 30 26 6c 3c 68 45 83 bc 96 ed fe 3d
       0.0636377 0.0144134015 -0.016024306 0.1244766
000350 ee 74 a3 bd 18 8a e3 bc a0 f6 fc bd 92 a2 d2 bd
       -0.07981287 -0.02777581 -0.123517275 -0.10284914
000360 8a d5 e3 3d 8a 14 c9 3d 00 f9 e0 ba b4 d8 c1 bd
       0.11124714 0.09818371 -0.0017164052 -0.09465161
000370 b8 1e f5 bc c4 91 c6 3d 74 81 59 3d d4 ba f9 3d
       -0.029921874 0.09695771 0.05310197 0.12193838
000380 fa ee c4 bd f0 63 73 3c 66 90 d6 bd d8 7c 5c bd
       -0.09615894 0.01485537 -0.104767606 -0.053829998
000390 70 60 49 bd 64 ca e4 3d 64 94 f8 bd 00 53 51 3c
       -0.049164236 0.111714154 -0.12137678 0.012776136
0003a0 f0 b8 0e bc 92 e6 ea bd e4 ff 9a bd 50 71 08 3d
       -0.008711085 -0.11469759 -0.075683385 0.03331119
0003b0 ec 12 02 3d f8 19 92 3c 5e b9 e0 bd 44 5a f9 3d
       0.031756327 0.017834648 -0.10972856 0.1217542
0003c0 80 95 9b ba a8 be aa 3c 50 18 9e 3d a0 15 c5 3d
       -0.0011870116 0.020842865 0.07719481 0.09623265
0003d0 00 ae 71 3a 00 3d 0e ba d6 48 f8 3d 4c 56 2f bd
       0.00092193484 -0.000542596 0.12123267 -0.04280691
0003e0 e8 dd 3a bd 50 1f 5d bd 80 bd 8b 3d 20 19 6e 3c
       -0.045621783 -0.05398494 0.06823254 0.014532357
0003f0 44 6e 4e 3d 3c b2 a1 bd 78 a5 fb bd 7e 43 ab 3d
       0.050398126 -0.07895324 -0.1228742 0.083624825

bias f4 [64]
000000 5f 0a 41 bc da b1 a5 bd e7 c6 09 3d 5e 42 8c bd
       -0.011782258 -0.08090563 0.033636954 -0.06848596
000010 a2 5e 0f 3e f9 0d fc 3d 9b 29 9b bb ec e2 fd 3d
       0.14000943 0.123073526 -0.0047351844 0.123967975
000020 7d 19 61 bd c8 e3 c8 3c ea fb f1 3c d0 4d 70 3d
       -0.05495595 0.024522677 0.029539067 0.058667958
000030 22 10 86 3d 97 c4 45 bc 5c a4 06 3e 31 a1 6e bd
       0.06546046 -0.012070796 0.13148636 -0.058259193
000040 d5 e5 34 bd da 55 ec 3a 0c da 40 be 46 0a 88 bd
       -0.044164497 0.0018030957 -0.18833178 -0.066425845
000050 48 cf 11 bd 22 11 95 bd dc 05 4f bd 83 68 31 bd
       -0.03559807 -0.072786584 -0.050542697 -0.04331256
000060 5c 53 42 bd d7 2a 0b 3e 2f bf bb bd 23 5a ce bd
       -0.04744278 0.13590561 -0.09167325 -0.10075786
000070 78 4f ee bc 78 90 98 3c fb be bd bc 4f c3 bd bd
       -0.029090628 0.018623576 -0.023162356 -0.09265768
000080 e1 2e 2f bd 11 38 29 3d 70 99 f6 3d 89 58 df bd
       -0.042769317 0.041313235 0.12040985 -0.109055586
000090 12 39 d8 bc 89 cf d8 3a 0b e0 22 3d c6 23 d1 3d
       -0.0263944 0.0016541342 0.039764445 0.10211901
0000a0 14 f3 43 bd 4c 75 23 bd 7d e7 8f bc 58 40 c1 3d
       -0.04783924 -0.039906785 -0.017566437 0.09436101
0000b0 c0 be c7 bc ae 03 1f 3b 25 19 b8 3d 7d 1b 45 bd
       -0.024382949 0.0024263668 0.08989171 -0.048121918
0000c0 3d e6 a1 bb 84 ea 5e bb 67 a5 0f 3c db 3d ee 3d
       -0.0049407766 -0.0034014294 0.008767462 0.11632892
0000d0 d2 f5 64 3d 38 d4 fa bd ae eb c5 3c a2 e8 c0 bd
       0.055898495 -0.12247509 0.024160232 -0.09419371
0000e0 31 34 eb bc 8e a8 e5 bd 21 79 4d 3d f8 80 7c bd
       -0.02871141 -0.1121379 0.050164346 -0.06164643
0000f0 07 7e b6 3d 82 09 dd bd 7e ec 2f bc 03 e6 bf 3c
       0.089107566 -0.10792829 -0.0107375365 0.023425108

weight f4 [64, 64]
000000 1b 3b 56 bc a1 7e 25 3e e7 1f 9c 3d b8 6e a9 bd
       -0.013075615 0.16161586 0.076232724 -0.08273071
000010 f2 38 b1 3b 64 a8 63 bd 1e 9e fa 3d e1 cb 3f 3d
       0.0054083997 -0.05558051 0.1223719 0.046825293
000020 34 c2 62 bd be 50 d9 3d 5c af 75 3d 04 d8 99 3d
       -0.055360988 0.106111035 0.05998169 0.07511905
000030 59 14 ca 3d 01 e3 fc 3a 9b f7 ce bd 79 1e 26 3d
       0.09867162 0.0019293727 -0.10105821 0.040556405
000040 0a 74 08 3e 9d fd c0 bd 8f 46 de 3c 0e 0c 15 3e
       0.13325515 -0.09423373 0.027133254 0.1455538
000050 35 43 2b 3e de 27 a1 3d 59 dd 4e bd 3f 40 2d 3b
       0.16724856 0.07868932 -0.050504062 0.0026435999
000060 0b 5d ac 3d 76 48 ea 3d 5a 3c db bd 00 95 94 3c
       0.08416184 0.11439602 -0.107048705 0.018137455
000070 f9 02 3e 3e e9 89 50 bd f4 d5 8a bd 74 eb 37 3c
       0.18555821 -0.05091277 -0.067790896 0.01122557
000080 34 64 9f bd e4 2a a3 3d a0 98 31 bd 61 da a5 bd
       -0.07782784 0.07967165 -0.043358445 -0.08098293
000090 34 2e cc 3d 48 90 37 3e 0f 8f ba 3d be 10 ce 3d
       0.0996975 0.17926133 0.091093175 0.10061787
0000a0 60 cc 0e bb 23 47 b5 3c 0a 74 c7 bc b3 3a b6 bd
       -0.0021789297 0.022128647 -0.024347324 -0.08897915
0000b0 34 cc 36 bd e4 79 6e 3d b0 ce c5 bc 2d d5 c5 3d
       -0.044628337 0.058221713 -0.024146408 0.09659801
0000c0 ee d2 51 3d 48 c4 8f 3d ca be 8f 3d 87 3c 16 3e
       0.05122655 0.070198596 0.07018812 0.14671527
0000d0 74 f4 92 bd 02 f7 d5 bd 0f 7f a3 3d 50 48 4e 3d
       -0.07175532 -0.104475036 0.07983219 0.05036193
0000e0 37 8c 6c 3d 41 d2 ae bd 08 25 02 3d 20 ee 6f 3d
       0.057750907 -0.085361965 0.031773597 0.058576703
0000f0 d7 98 d6 3d 04 72 ed 3d e4 3c b9 bd 7d da f6 3d
       0.10478371 0.115940124 -0.09044817 0.12053392
000100 23 63 c9 3d f0 e5 39 3d fc f0 5b 3d 92 8c bc 3d
       0.09833362 0.0453853 0.053696617 0.09206499
000110 2d af cf bc 4d 64 4a 3d b4 c6 8a 3c f7 90 94 3d
       -0.025352085 0.04941206 0.016940452 0.07254212
000120 3a cf 6c bd 48 73 a9 bd e7 2d 20 3d 97 8d af 3d
       -0.057814814 -0.08273941 0.039106276 0.08571928
000130 78 4f b6 bd c6 96 81 3d c8 99 c6 bd 31 64 f5 bc
       -0.08901876 0.06327586 -0.096973 -0.029955002
000140 22 71 f2 3d 5e 2e 20 be a7 2b 51 3d bf e4 39 3d
       0.118379846 -0.15642688 0.05106702 0.045384165
000150 a3 f1 33 3d c0 db 40 bb 2f 0d 11 3e 3f 16 d4 bd
       0.043931615 -0.0029427856 0.14165185 -0.103558056
000160 f6 71 94 bd 49 c8 e6 3d 85 02 9a 3d fd ad 5c 3d
       -0.07248299 0.1126867 0.07520012 0.053876866
000170 3c 54 a9 3d 5f fd 89 3d 43 6e 16 3e 70 d3 34 3e
       0.082680196 0.0673778 0.14690499 0.17658782
000180 63 8d 52 bd e7 61 2d bd 40 02 6a bc 2d 69 ce 3d
       -0.051404368 -0.042329695 -0.014282763 0.100786544
000190 7a 73 8f 3d 7d 7c 39 3d 2e 63 ba 3d 19 0d 30 be
       0.07004447 0.045284737 0.09100948 -0.17192496
0001a0 16 7d 36 3d 9f 68 31 be 30 df 87 bd b1 c6 fe bd
       0.044552885 -0.17325066 -0.066343665 -0.12440241
0001b0 fe eb 99 bd e6 43 98 3d 98 9e 0a 3b 08 4a f4 3d
       -0.07515715 0.074348256 0.0021151658 0.11928183
0001c0 47 0b 44 3d 62 56 38 3d b5 e7 45 3e 0c cb 17 3e
       0.047862317 0.045004256 0.1932667 0.1482355
0001d0 42 e9 a0 bd 1d 1d 47 3c 6a 73 17 bd e0 dc ce 3d
       -0.078569904 0.012152937 -0.0369753 0.10100722
0001e0 d0 97 85 3d d8 d2 96 bd d7 46 17 3d d7 05 16 3e
       0.065230966 -0.07364434 0.036932793 0.14650665
0001f0 8e c9 07 3e 2c b3 da bd fb d6 bf 3d e8 64 ab 3c
       0.13260481 -0.106787056 0.09367176 0.02092214
000200 14 c0 52 bd 5f f7 74 3d f2 cf 4f bc de 13 81 3d
       -0.05145271 0.059806224 -0.012683855 0.063026175
000210 16 42 e0 3d c6 79 b9 3d dc 56 8e 3d 5a 72 dd 3d
       0.10950105 0.090564296 0.06950161 0.108128265
000220 cd ee 51 3c 22 b9 80 3d d4 61 42 3d a9 66 ff bd
       0.012813282 0.06285311 0.047456577 -0.12470753
000230 91 ca 0c 3e c7 4c c7 bd 9c ca 4a bc b6 60 ad bd
       0.13749148 -0.09731441 -0.012377407 -0.08465712
000240 e0 e5 8a bc e9 a7 80 bd fe 79 37 be 05 5d a3 3d
       -0.016955316 -0.06282026 -0.1791763 0.079767264
000250 05 b2 07 3d fe 22 99 3d f0 65 1b 3e fd 20 dc bd
       0.033128757 0.07477377 0.15175605 -0.107484795
000260 d5 51 60 3d 1d 02 c2 bd 13 75 1f 3d b4 42 f2 3d
       0.05476554 -0.09473059 0.03893001 0.11829129
000270 42 aa 8f bd bf 6a af bd 49 ea e2 3d 08 d2 98 3d
       -0.07014896 -0.08565282 0.110798426 0.07461935
000280 3d 8b 54 3c d5 7b 03 3e 53 e1 02 3e 00 a8 34 3b
       0.01297265 0.12840207 0.12781267 0.0027565956
000290 02 1c 89 bd b6 2e 2c 3e e0 67 25 3c a7 67 26 3d
       -0.06694795 0.16814694 0.0100955665 0.040626194
0002a0 98 3a 5e 3d 7c 55 87 bc ba 71 b3 3d 00 04 de bd
       0.054255098 -0.016520254 0.08761926 -0.10840607
0002b0 c4 6a 0e 3d 7c 94 90 3d 5b 19 e9 3d e4 e2 1d 3d
       0.03476979 0.07059571 0.11381789 0.038546458
0002c0 04 24 85 3d d8 b0 0a 3e 30 ca b7 bd e7 54 e9 3d
       0.0650101 0.13544023 -0.08974111 0.11393147
0002d0 4c c0 ae bd 9a 3f f8 bd 33 ac 86 bd a8 74 8d 3d
       -0.085327715 -0.12121506 -0.06575813 0.06907016
0002e0 61 72 1f 3e 42 ff 42 3d 7e bf c8 3d 8a 68 c0 3c
       0.15570976 0.047606714 0.09802149 0.023487348
0002f0 4c 93 bb bd a4 49 ee 3d 95 04 ec 3b 5d 9c 8e ba
       -0.09158954 0.116351396 0.0072026947 -0.001088034
000300 d2 ad e2 3c 0a 3e 52 bd fd 1e 7c bd 70 28 1b 3c
       0.027670775 -0.051328696 -0.06155299 0.00947009
000310 e4 b7 72 3d f2 63 99 3b b7 d1 d6 3d aa a1 63 bb
       0.059257403 0.004681104 0.10489219 -0.003473381
000320 ef 97 a2 3d ea 70 80 3d c2 2c 62 bd e2 78 aa bc
       0.07939135 0.06271537 -0.055218466 -0.020809595
000330 cd 3d c6 3c 8a 6a 01 be 6f da f6 3d 91 fe 8e 3d
       0.02419939 -0.12638298 0.12053382 0.069821484
000340 29 18 d2 bd 1c 36 07 3e c5 5d 3c 3e 90 6f 2c 3c
       -0.102585144 0.13204235 0.18395145 0.010524645
000350 88 80 de bd 18 98 9a bd 62 13 60 bd 6a a5 d6 3d
       -0.10864359 -0.07548541 -0.054705985 0.10480769
000360 3b 97 18 3e d7 fe 9b 3d 1d d5 8f 3c e5 64 a6 3d
       0.1490144 0.07616966 0.017557675 0.08124713
000370 cd db ac bd 1a 94 77 bb c6 eb 45 3d 8a fe 3c be
       -0.08440361 -0.0037777484 0.048320554 -0.18456474
000380 ed 7b e5 3d 5c 59 e7 3d 37 df 2b bd c1 86 57 ba
       0.112052776 0.11296341 -0.04196092 -0.0008221679
000390 6d 5d 6d 3d a4 7b 86 3c 91 92 c5 bd 8f ed 08 bd
       0.057950426 0.016416378 -0.09647096 -0.03342968
0003a0 9b 6e 00 3e a9 50 1a bc bf f9 c2 bc 09 d8 d6 3d
       0.12542193 -0.009418645 -0.023800729 0.10490424
0003b0 10 9f db 3d 21 33 73 3d f4 49 c0 bd 57 c7 5a bd
       0.10723698 0.059374932 -0.093891054 -0.05341276
0003c0 31 b2 07 be 3e be 6a bd c0 b6 2e 3d f6 cd 64 bd
       -0.13251568 -0.057310335 0.042654753 -0.055860482
0003d0 68 14 8f 3d b1 03 4c 3b fe 33 7c 3d 24 b5 ff bd
       0.06986314 0.003113013 0.06157302 -0.12485722
0003e0 08 a6 16 be a4 19 b2 39 de a9 48 bc 8e 55 95 3d
       -0.14711773 0.0003396991 -0.012247531 0.07291709
0003f0 4d 9f f4 bc 30 6a 00 bd 40 ce 9d 3d a6 e5 23 3d
       -0.029861117 -0.03135127 0.07705355 0.04001393

bias f4 [64]
000000 3c 32 11 be c1 13 05 be 91 cd 0d 3c a3 ed 1e 3e
       -0.14179319 -0.12995817 0.008654968 0.15520339
000010 66 ea 93 bd 41 17 95 3d b2 82 c1 3c 80 5c ef bd
       -0.07222442 0.07279826 0.02362189 -0.11687565
000020 0a 85 8a 3d 51 61 e3 3d f1 71 84 3d 5e d3 8e 3d
       0.067636564 0.11102546 0.06467045 0.06973909
000030 0d b1 e8 3c f6 6b b9 3d 6b 08 06 3c 8f 65 d3 3d
       0.028404737 0.09053795 0.008180718 0.10322105
000040 e0 94 c5 bd 50 37 a0 bc 10 4e a0 3d 28 0c 68 bd
       -0.09647536 -0.019557625 0.07827389 -0.056652218
000050 18 3b 58 bd 97 31 2f bd ce f8 95 bc 4e d5 06 3d
       -0.05279073 -0.042771902 -0.018307116 0.032918267
000060 36 0b 0f be cd f5 ef bd c5 73 08 3e c5 1b cc bd
       -0.1396912 -0.11716805 0.13325413 -0.09966234
000070 17 03 30 bd 07 64 80 bd d4 62 cf 3d e6 a8 d0 3d
       -0.042971697 -0.06269079 0.10126272 0.10188465
000080 50 21 fb 3d b3 d6 88 3d 08 3a 1b 3d 5e 20 b3 3d
       0.12262213 0.066815756 0.03789714 0.08746408
000090 58 72 69 3c 55 00 2b 3d 1a c6 e0 bd fa 67 e3 3d
       0.014248453 0.041748364 -0.10975285 0.11103816
0000a0 cb 93 1f 3d ac 55 c1 bd 0c 04 5e bd 0f ba 97 3d
       0.038959306 -0.09440169 -0.05420308 0.07408535
0000b0 20 03 76 bc fa 1a f5 bd ee 55 54 3d 58 19 f6 bd
       -0.0150153935 -0.11968036 0.05183976 -0.12016553
0000c0 be 17 8e 3d 45 4f 13 bb b6 b5 ef bc 70 29 29 be
       0.06938122 -0.0022477668 -0.029261451 -0.16519713
0000d0 4f 5b 2d 3d 41 52 a2 3d 48 c0 a6 3c a9 a9 ba bd
       0.042323407 0.07925845 0.020355359 -0.09114391
0000e0 2d 23 ca bd aa 69 6e 3d ef a9 b2 3d 13 5f 9a bd
       -0.098699905 0.058206238 0.087238185 -0.07537665
0000f0 9d b7 1c bd 33 40 f7 3d ec 3f ee bd c8 f4 ea bd
       -0.038261045 0.12072792 -0.11633286 -0.114724696

weight f4 [3, 64]
000000 d7 a6 38 3e 90 b6 f3 3d cc 35 5a bc e7 55 0c be
       0.18032394 0.119000554 -0.01331849 -0.13704644
000010 f7 ae 9c 3c 7f fa 45 bd c8 c5 f3 bb 4c f8 b4 bd
       0.019126398 -0.048334595 -0.007439349 -0.08836421
000020 02 eb 15 3d c6 fe 4b 3d a5 98 5f bc 56 5b 40 bd
       0.036601074 0.049803518 -0.013647233 -0.046962105
000030 11 d4 0d 3e e6 fa d8 bd f2 39 eb 3d bc fe 31 bd
       0.13850428 -0.1059473 0.114856616 -0.043455824
000040 e8 93 73 3d 41 fd 1d 3e 68 01 e2 3c 5a f1 f2 bd
       0.059467226 0.1542864 0.027588561 -0.118624404
000050 60 89 c7 bc 2d be 68 3d 9b f4 a6 3d b9 9a e8 3d
       -0.024357498 0.05682199 0.081521235 0.11357636
000060 b0 22 09 be e2 14 f1 3d e7 df 62 3d de 40 15 3e
       -0.13392138 0.11771561 0.05538931 0.14575526
000070 e7 d6 66 bd 17 c5 1c 3d ac 8a 18 3e 55 83 97 3c
       -0.05635729 0.038273897 0.14896649 0.018495241
000080 a6 47 eb bc 88 22 ab 3d 80 95 9a 3d f2 be dc bd
       -0.028720688 0.08356196 0.07548046 -0.107786074
000090 8c 6a 72 bd 43 64 ab bd b3 83 de bd 7d b7 48 3d
       -0.059183642 -0.08368733 -0.108649634 0.049003113
0000a0 8e 7c e8 bd 92 38 11 3e a0 4b 38 bd df 38 8f bd
       -0.11351882 0.14181736 -0.044993997 -0.06993269
0000b0 fc 95 75 bd bb 9d 52 bd 4b ca ac 3d f3 90 30 be
       -0.05995749 -0.051419955 0.08437022 -0.17242794
0000c0 a6 c5 c6 3d f9 8f 01 bc 1b fe b3 bc 46 e7 69 be
       0.09705667 -0.007907861 -0.021971753 -0.2284213
0000d0 0c 6c 6b 3d e3 2a 07 3e d5 a5 fb 3c 2b ce 88 bd
       0.05747609 0.13199954 0.030718723 -0.066799484
0000e0 6a 01 88 3d 93 49 d2 3d ce 2d d0 3a 9e fe 9c bc
       0.06640895 0.102679394 0.0015882791 -0.01916438
0000f0 75 95 e9 bd 7c f1 1e be f0 80 4f 3e 08 25 95 bc
       -0.1140546 -0.15521806 0.2026403 -0.018206134
000100 f9 7d 93 bc 15 b8 5d 3e 85 47 6b 3d 0b 8e af 3b
       -0.018004404 0.21652253 0.057441253 0.005357509
000110 66 81 0f bd 88 46 64 bd 5b 07 56 3e a0 8b 3b bd
       -0.035035513 -0.055731326 0.20901243 -0.045787454
000120 5a 32 6a bc cf f2 91 3d 68 9d 9d 3c 61 7a af 3d
       -0.014294231 0.0712639 0.019240096 0.08568264
000130 ce b3 cf bd c5 6c 5d 3b fa cd 23 bd 0a e8 db bc
       -0.10141717 0.0033786756 -0.039991356 -0.026844043
000140 00 ad f8 bc 5a 66 96 3a e0 03 15 be ec d3 1f bd
       -0.03035593 0.0011474595 -0.1455226 -0.039020464
000150 76 b2 d5 3d 21 c8 4f bd d1 5b f2 bb 39 59 a8 bd
       0.10434429 -0.050727967 -0.0073961993 -0.08220143
000160 69 d0 c1 3d cf a3 18 3d 0c 61 9e bd 0a 77 a7 bd
       0.09463579 0.037265595 -0.07733354 -0.08177002
000170 5f 45 95 3d dd 38 18 3d 4d 47 02 3e cb f5 07 be
       0.07288622 0.037163604 0.12722512 -0.13277356
000180 5f b5 3b 3d b9 ed 5c bd 3c 92 da 3d 18 8f 0d 3c
       0.045827266 -0.053937647 0.10672423 0.008640073
000190 9e e2 3d be 75 99 df bd 38 d8 8e 3d 6a d4 48 bd
       -0.18543479 -0.109179415 0.06974834 -0.0490307
0001a0 43 49 04 bc 2b 50 f3 bd 80 fa 8a 3b 5d 44 f3 3d
       -0.008074108 -0.11880525 0.0042412877 0.11878274
0001b0 30 8b 70 bd a6 4c a6 bd 52 f9 ca bd 4c 16 84 be
       -0.05872649 -0.08120088 -0.09910835 -0.2579826
0001c0 e5 8f 66 bd aa a8 5a 3d da 71 f7 bd 5a 2a 72 3d
       -0.056289572 0.053383507 -0.12082262 0.05912242
0001d0 56 88 18 bd 09 b7 f3 bd 50 58 bb 3d d1 77 94 bd
       -0.037239395 -0.119001456 0.09147704 -0.07249416
0001e0 cf 42 57 be 85 7f 85 bd 28 31 9d 3d 53 70 5f 3d
       -0.21021579 -0.06518463 0.076753914 0.05455048
0001f0 be 20 28 3d e2 53 bc 3d 8e b9 b9 bc cc 5a b2 3d
       0.04104685 0.09195687 -0.022671487 0.087087244
000200 05 b1 66 3d ce f2 08 3e 42 14 f0 3d 7f 07 26 be
       0.056321163 0.13373873 0.11722614 -0.16213797
000210 41 53 3a be ac f6 96 3d 8a 6c 7c 3e 74 72 51 3d
       -0.18195821 0.07371268 0.2465078 0.05113454
000220 8d 82 0c be b2 c7 d1 bd 8d f6 5b 3e 34 68 e4 bc
       -0.13721676 -0.10243167 0.2148077 -0.02788172
000230 bc 24 62 bd 0c f2 de bd a1 f4 bf 3b cf c5 80 3c
       -0.055210814 -0.108860105 0.0058580195 0.015719322
000240 5c 50 3e bd 2a cb 90 3d 95 00 14 3e 70 3e 40 bd
       -0.046463355 0.070700005 0.14453347 -0.046934545
000250 78 ac 32 3d 00 c7 24 3e 9e 45 d5 3d ed b0 e5 bd
       0.04362151 0.16091537 0.10413669 -0.112153865
000260 7b bb c5 3c 68 28 b7 bd c0 83 fd 3d f1 9c 04 be
       0.02413725 -0.08943254 0.12378645 -0.12950493
000270 a5 23 12 be 0b 12 17 be 33 fb 2c bd 77 4b 28 bd
       -0.1427141 -0.14752977 -0.04223175 -0.041087594
000280 54 a3 06 be 1d de ec bd 2a ed 63 3d e9 af 18 3e
       -0.13148242 -0.11565802 0.0556461 0.14910854
000290 e3 09 5c 3d d4 6a 89 3d fa 0a 40 be f1 a5 17 be
       0.053720366 0.06709829 -0.18754187 -0.14809395
0002a0 f4 9f dc bd 4c f7 eb 3c 14 2e e6 bd 21 5b 0f bc
       -0.10772696 0.028804444 -0.112392575 -0.008749754
0002b0 36 e5 9d bd fb 25 61 3d 59 b0 15 3e be 00 95 be
       -0.07709734 0.05496786 0.14618053 -0.2910213
0002c0 e9 c7 dc 3c 9b 01 37 bd ec a0 82 bc a1 7c 85 3e
       0.026950793 -0.044679265 -0.015945874 0.26071647
0002d0 03 34 36 bd 42 d1 b8 3d c0 cb 85 3d 0b 60 f3 3d
       -0.044483196 0.09024288 0.06533003 0.11883553
0002e0 e0 84 8c bd fe 00 f7 bd cf ed f1 bd 34 11 55 bd
       -0.068612814 -0.12060736 -0.118129365 -0.05201836
0002f0 f0 90 c1 3c eb 7e ca 3d 13 7f 48 3d e0 6d 13 3d
       0.023628682 0.09887489 0.048949312 0.035993457

bias f4 [3]
000000 82 3e ad bd e5 8a 99 3d 55 92 d4 3d
       -0.08459188 0.07497195 0.10379473

exp_avg f4 [64, 3]
000000 96 f5 f4 38 ac c2 a3 b9 dd 5e 5c 39 18 f7 a0 b9
       0.000116805706 -0.00031234825 0.00021016174 -0.00030701677
000010 e5 6a a3 37 94 c0 6c 3a bf 2b 9a 39 75 2d 5e ba
       1.948089e-05 0.0009031382 0.00029405762 -0.00084754016
000020 b8 c2 23 ba cb 40 42 ba 89 14 72 ba 4c 77 63 ba
       -0.0006246972 -0.00074101676 -0.00092346274 -0.00086771394
000030 92 bc e0 b8 78 ee 28 b9 fe b0 7b b8 54 c8 51 b9
       -0.00010716276 -0.00016110565 -6.00079e-05 -0.00020006421
000040 8c 66 03 39 cf f9 94 b7 b5 b3 0a 39 da 58 9f b9
       0.00012531335 -1.7759301e-05 0.00013227652 -0.00030393043
000050 96 12 68 3a 7e d8 4a 38 24 ca 32 b9 06 51 95 3a
       0.0008852867 4.8362177e-05 -0.00017050706 0.0011391945
000060 f9 e6 1b 3a b5 77 f2 b9 e0 ce f4 b9 29 79 76 b8
       0.00059471984 -0.00046247026 -0.0004669344 -5.876381e-05
000070 c7 1c 37 ba 85 13 27 3a b6 1f b8 b7 91 5d fc b8
       -0.0006985184 0.0006373453 -2.1949276e-05 -0.000120337245
000080 8b d5 a0 38 c5 8a 0f b9 e2 96 f7 39 f0 24 59 38
       7.66917e-05 -0.00013689238 0.00047223928 5.1771232e-05
000090 b5 53 75 b9 f6 3b 1e ba 73 8b 13 ba eb 83 18 b8
       -0.00023396204 -0.00060361566 -0.00056283845 -3.6362482e-05
0000a0 bb c3 00 b9 c0 45 f1 38 c9 e9 73 b8 fb c0 c1 b9
       -0.00012279947 0.000115047675 -5.8153444e-05 -0.0003695561
0000b0 54 59 f3 39 4c ab f2 b9 d1 6a 80 3a 20 51 d5 b7
       0.00046415126 -0.00046285463 0.0009797459 -2.5429355e-05
0000c0 15 c0 4b ba 0a b5 be ba dd f9 cf 3a ed 49 be 38
       -0.0007772458 -0.0014549803 0.0015867312 9.073676e-05
0000d0 db 67 2d ba 95 ac f5 39 1d 4d b6 38 fa ff e0 39
       -0.0006614902 0.00046858625 8.6928e-05 0.00042915327
0000e0 2e 77 99 b8 f7 e5 38 b6 bb ca ac b7 b4 b9 a8 36
       -7.3178075e-05 -2.7551994e-06 -2.0598402e-05 5.028409e-06
0000f0 23 44 34 39 7e d9 85 b9 6a c4 50 39 9d 81 0c b9
       0.0001719152 -0.0002552978 0.00019909596 -0.00013399725
000100 78 5f 06 35 54 ef d0 b8 de 14 00 3a 19 19 08 b9
       5.0057815e-07 -9.962791e-05 0.0004885922 -0.0001297932
000110 18 94 79 b6 db b4 18 b9 fb 80 1c 39 33 c2 ae b8
       -3.7190093e-06 -0.00014563224 0.00014925368 -8.333139e-05
000120 b2 37 8c b7 4d a5 a9 38 60 0d 92 b8 72 23 54 ba
       -1.6715236e-05 8.089338e-05 -6.964314e-05 -0.000809244
000130 7e a9 eb 3a ae 72 f4 38 0f d5 07 b9 55 17 75 b9
       0.001797959 0.000116561874 -0.00012953974 -0.00023373713
000140 99 bc 9c b7 05 47 9c b8 0f 31 90 38 15 25 f9 37
       -1.8684472e-05 -7.451888e-05 6.875593e-05 2.970038e-05
000150 11 bd f3 38 1f 1a 57 3a 96 ac 63 3a 72 f7 9f b9
       0.00011622359 0.00082054915 0.000868508 -0.00030511204
000160 fd 55 f8 39 cb ae 6d 39 c9 8f 5e ba 7b cd ba 39
       0.00047366312 0.00022667197 -0.00084900536 0.0003562978
000170 eb 0f a9 3a a2 46 ca b9 6e c1 5e ba d1 f6 8f 39
       0.0012898421 -0.00038581068 -0.0008497451 0.00027458978
000180 cc 78 e5 39 e8 8f 04 b9 e6 34 8d 39 99 65 d6 b9
       0.00043768284 -0.0001264211 0.00026933028 -0.00040892957
000190 62 c4 a2 b9 64 ef 04 39 cc e4 91 38 d2 41 32 38
       -0.00031045364 0.00012677681 6.9567555e-05 4.2499807e-05
0001a0 8e e1 e2 38 8b 18 af b7 f9 f3 6a 3a 1d 6e f0 b9
       0.000108185326 -2.0873054e-05 0.00089627464 -0.00045858408
0001b0 96 01 26 ba eb 7a 9a b9 0d e9 f0 b9 05 e3 8d b8
       -0.0006332634 -0.0002946475 -0.00045950004 -6.7656896e-05
0001c0 f4 d9 69 b8 e8 1c 4a 38 98 3e 83 b9 2f 53 38 ba
       -5.5754514e-05 4.8187474e-05 -0.00025032903 -0.0007031438
0001d0 69 0e 26 3a af 42 7d b9 87 d8 51 b9 e1 ed 86 b8
       0.0006334545 -0.00024152802 -0.00020012456 -6.433926e-05
0001e0 57 14 27 b9 54 8d 08 b9 87 ba 12 b9 e4 8b 6b b9
       -0.00015933938 -0.0001302262 -0.00013993132 -0.0002246346
0001f0 4d c8 d8 b9 9c 7b 05 39 08 79 b9 38 37 48 c1 b8
       -0.00041347966 0.00012729916 8.844031e-05 -9.216408e-05
000200 ee bd 8e 39 c4 31 27 b8 95 1c ac 38 36 58 a9 38
       0.0002722586 -3.986225e-05 8.206923e-05 8.0749785e-05
000210 26 c4 1f b8 6f 99 e2 b7 12 05 fe 37 d7 71 69 b9
       -3.809123e-05 -2.7012748e-05 3.028152e-05 -0.0002226302
000220 e8 51 b0 38 53 da 1e 39 b8 0d b3 b6 70 98 7d ba
       8.40759e-05 0.00015149386 -5.336213e-06 -0.0009673899
000230 7d 67 62 39 cf 55 eb b9 6c 04 75 3b 03 aa e2 ba
       0.00021591592 -0.00044886625 0.003738667 -0.0017293099
000240 e8 64 09 39 62 e9 93 39 40 2f 8b 39 c7 0b af 39
       0.00013102929 0.0002821191 0.0002654735 0.00033387376
000250 71 20 0d 3a 84 72 26 b8 ba 7d 80 b9 0d 24 5e 38
       0.0005383557 -3.9684135e-05 -0.00024507736 5.29625e-05
000260 a1 e1 a9 39 52 55 12 b9 de 77 a9 39 f1 8d 3d b9
       0.00032402299 -0.0001395543 0.000323235 -0.00018077322
000270 ef 67 80 ba b2 24 9e ba 62 86 c8 39 30 9e c3 ba
       -0.00097966 -0.0012065379 0.00038247096 -0.0014924463
000280 ff 62 94 ba a1 7f 94 39 cf 1f f0 b9 96 e5 29 38
       -0.0011321007 0.0002832385 -0.00045800066 4.050656e-05
000290 7f 43 26 b8 49 01 94 b9 05 44 a1 b9 5e 25 a0 b9
       -3.9640345e-05 -0.00028229717 -0.00030758991 -0.0003054542
0002a0 d8 3b 55 b7 cf 72 0f 39 e9 14 a3 38 a5 d7 46 b9
       -1.2709723e-05 0.00013680312 7.7763405e-05 -0.00018963085
0002b0 b9 fd 35 3a fc 58 2c b9 6e f1 b7 b9 13 32 f0 b8
       0.00069424097 -0.00016436348 -0.0003508436 -0.00011453419
0002c0 d8 04 63 38 92 00 59 b9 2a 67 ad b8 8c b0 a9 b8
       5.412553e-05 -0.00020694945 -8.268499e-05 -8.0914324e-05
0002d0 78 7b 80 b8 e6 30 2f 38 8b f9 80 38 f5 31 8d 39
       -6.1265135e-05 4.176879e-05 6.1499966e-05 0.00026930837
0002e0 ad 8c 28 b9 df eb 46 b8 3a 2a 1a 3a da 60 0b 3a
       -0.00016074134 -4.742655e-05 0.0005880926 0.0005316861
0002f0 c1 ff ad b7 6c c5 9c b9 67 d0 d6 b8 94 51 4f b8
       -2.0742302e-05 -0.0002990173 -0.00010243133 -4.942862e-05

exp_avg_sq f4 [64, 3]
000000 1e f6 fc 35 9b d6 f0 36 fc e8 b3 35 71 06 24 37
       1.8847093e-06 7.1775407e-06 1.3404347e-06 9.7766615e-06
000010 36 03 2f 36 e7 90 9b 35 3d 32 50 36 ee 98 bd 36
       2.60789e-06 1.1590572e-06 3.1023658e-06 5.6504423e-06
000020 31 3c 03 35 00 02 d3 35 7d 04 5c 36 23 8e 9c 35
       4.8888893e-07 1.5721307e-06 3.2785167e-06 1.1664273e-06
000030 0e a3 e5 35 c2 b7 8f 36 83 a9 91 35 0b 10 c0 34
       1.7109285e-06 4.2831243e-06 1.0852676e-06 3.577446e-07
000040 5d 95 e2 33 26 e6 c6 34 57 69 62 36 ea a6 4e 37
       1.0551114e-07 3.704783e-07 3.373794e-06 1.23174195e-05
000050 a4 81 c9 36 11 da 13 37 15 49 86 35 b6 86 a7 36
       6.005359e-06 8.812655e-06 1.0005048e-06 4.9926703e-06
000060 81 e1 ee 35 6b 08 ae 36 32 64 35 34 d2 de 9f 35
       1.7798012e-06 5.186584e-06 1.689339e-07 1.1911272e-06
000070 25 c7 47 36 82 ad 2f 36 2d 79 92 36 fd 41 82 36
       2.9769228e-06 2.6178027e-06 4.365246e-06 3.881984e-06
000080 01 6d bb 35 08 9d d3 35 bb c4 36 35 c7 c3 b0 34
       1.396431e-06 1.5766427e-06 6.8086564e-07 3.2925e-07
000090 7a 89 b4 37 c7 ef 6b 37 98 7f de 36 8f b5 6c 36
       2.152169e-05 1.4062919e-05 6.6309694e-06 3.5272421e-06
0000a0 85 94 17 36 95 16 af 35 58 ed 86 36 f7 fa 33 36
       2.2587203e-06 1.3045088e-06 4.0211416e-06 2.681916e-06
0000b0 a0 86 c2 35 e1 06 19 36 80 02 20 37 2c c4 eb 34
       1.4493307e-06 2.280278e-06 9.537325e-06 4.3914895e-07
0000c0 3d 98 81 37 3f af 85 37 a5 74 78 36 e3 d2 e7 35
       1.544889e-05 1.593644e-05 3.7022776e-06 1.7272217e-06
0000d0 44 59 a1 37 b9 39 ad 35 78 2f 56 36 35 a7 42 37
       1.9234263e-05 1.2906304e-06 3.1916115e-06 1.1602232e-05
0000e0 46 07 d4 36 c4 a5 ff 34 f5 94 a5 34 bc e7 e1 34
       6.318939e-06 4.7618062e-07 3.0842025e-07 4.2078125e-07
0000f0 23 3d 9a 35 bd aa 5d 36 82 1e ac 35 ab 82 32 36
       1.1491687e-06 3.303095e-06 1.2823878e-06 2.6600126e-06
000100 8e 96 fe 37 d3 23 ee 35 0a de 89 34 79 60 8c 33
       3.0349267e-05 1.7742808e-06 2.5679793e-07 6.536806e-08
000110 57 08 4e 34 a1 2b d9 34 6a f0 79 34 6a 6e 46 34
       1.9188279e-07 4.0451144e-07 2.3277394e-07 1.8480355e-07
000120 26 46 c2 33 6a 48 17 34 d5 82 11 34 6f 87 01 36
       9.046589e-08 1.4089315e-07 1.3551774e-07 1.930133e-06
000130 c5 fd 32 37 01 8d 9a 35 a1 32 bf 35 e1 8d ca 36
       1.0668712e-05 1.1514932e-06 1.4245344e-06 6.036586e-06
000140 bf 59 27 36 a6 01 6e 35 7d df 62 34 57 b6 03 33
       2.4937178e-06 8.866431e-07 2.1129195e-07 3.066665e-08
000150 f1 08 52 36 8e 03 4b 37 f2 02 1e 36 6b fd 8b 36
       3.1297643e-06 1.21005705e-05 2.354555e-06 4.1720245e-06
000160 ae cb 8b 36 75 c9 b7 35 9c 0f 84 36 f0 46 5f 37
       4.1662342e-06 1.3693194e-06 3.9357237e-06 1.3308352e-05
000170 98 b1 8e 36 62 5d 2a 37 ab dc 54 37 11 5d 25 36
       4.2526044e-06 1.0154532e-05 1.2687563e-05 2.4641088e-06
000180 25 f8 02 36 2a a3 66 35 e4 fa 42 35 9b 03 04 37
       1.9515949e-06 8.591911e-07 7.2635726e-07 7.868653e-06
000190 83 c4 50 38 a8 15 6b 36 cb e3 39 33 c9 19 61 33
       4.977408e-05 3.5030334e-06 4.3280846e-08 5.2410346e-08
0001a0 10 03 27 33 d0 98 ab 36 78 30 01 37 8d ce 23 35
       3.8885503e-08 5.113987e-06 7.700284e-06 6.10228e-07
0001b0 2d d2 25 36 dd f5 67 36 69 12 e4 35 e4 1b 72 36
       2.4709254e-06 3.4564794e-06 1.6992682e-06 3.6077045e-06
0001c0 f1 e6 c6 37 65 14 05 36 01 b0 c6 36 ab f8 d6 36
       2.371098e-05 1.9830416e-06 5.9213494e-06 6.4066458e-06
0001d0 63 0b 0c 36 6a 81 2d 35 e2 13 80 34 da 17 9f 34
       2.0868254e-06 6.4635844e-07 2.3856325e-07 2.9633412e-07
0001e0 1c f2 c1 36 28 cd a7 36 b8 6d b7 35 71 6f bb 36
       5.7800335e-06 5.000871e-06 1.3666495e-06 5.586008e-06
0001f0 f4 13 42 36 ed 8e 33 35 b0 d7 91 32 51 2e fc 33
       2.8919867e-06 6.689068e-07 1.6978305e-08 1.1743089e-07
000200 fe 6a f4 33 78 7d f7 35 88 ab 07 34 c9 b0 f6 34
       1.1381597e-07 1.843945e-06 1.2635257e-07 4.59497e-07
000210 0e 9f 02 35 3a f4 25 35 13 cd 3c 34 6c 48 58 35
       4.866023e-07 6.1822686e-07 1.758347e-07 8.057166e-07
000220 ea 5e d2 34 af 91 82 35 5e ff 0e 37 c3 e4 8b 37
       3.9184607e-07 9.728154e-07 8.523317e-06 1.6676617e-05
000230 48 dd 51 36 cd 7e 38 38 fe b0 41 38 fc 24 e2 37
       3.127223e-06 4.398711e-05 4.6179623e-05 2.6958522e-05
000240 ed 6d 6e 37 ea 36 1a 38 eb 36 5f 36 2e cc 04 36
       1.42115e-05 3.6767604e-05 3.3261556e-06 1.978838e-06
000250 49 40 27 36 a5 41 73 35 61 43 b6 36 c5 d2 87 36
       2.4922358e-06 9.062008e-07 5.4318666e-06 4.0478503e-06
000260 26 5e 54 36 dc e9 5f 36 bf 68 88 36 75 e4 d9 34
       3.1645263e-06 3.3365714e-06 4.06531e-06 4.0585624e-07
000270 c0 32 84 36 7d 59 03 37 9e dc 1e 35 48 ff 7f 37
       3.9398146e-06 7.829044e-06 5.9180627e-07 1.5258622e-05
000280 aa bc c5 36 ee 75 0c 35 97 c0 17 36 5f 6f 45 36
       5.893021e-06 5.2325674e-07 2.2612855e-06 2.9420114e-06
000290 07 c0 4a 35 4d 60 18 35 e0 f5 0c 36 21 4e c3 35
       7.55303e-07 5.676455e-07 2.1004744e-06 1.4551371e-06
0002a0 d9 e8 39 36 04 59 dc 36 83 7c e1 34 28 70 9e 35
       2.7702683e-06 6.5668737e-06 4.200011e-07 1.1804559e-06
0002b0 eb 19 24 36 c2 e1 82 35 cd 43 f2 34 13 38 71 35
       2.445299e-06 9.751459e-07 4.5125344e-07 8.9861095e-07
0002c0 2d d5 ff 34 8a ff b7 36 91 69 af 35 d4 62 54 35
       4.7652557e-07 5.4835737e-06 1.306924e-06 7.911997e-07
0002d0 22 f4 d6 36 92 0e 20 38 fe 2d 00 36 7b db 4e 36
       6.406118e-06 3.8160542e-05 1.9100257e-06 3.0824147e-06
0002e0 61 fe 1e 37 40 00 1e 35 02 16 2d 36 27 92 3d 36
       9.476761e-06 5.885995e-07 2.579182e-06 2.8248267e-06
0002f0 13 ce 0b 35 20 58 87 35 7d fb 00 35 ca 60 89 35
       5.208141e-07 1.0083932e-06 4.804968e-07 1.0235465e-06
