models/model_cavity_nu0.01_U1_20x20_epochs5000_lrannealing_testpcnt0.5.pt (torch, 187101 bytes, 30 tensors)

weight f4 [64, 3]
0.05858032 -0.18189132 -0.10982994 -0.08554337 0.50091195 -0.07941263 -0.015185287 -0.19949333
0.0071676597 -0.121576585 0.31640574 -0.07697645 -0.67541784 0.28374007 0.0039749676 0.0010429883
-0.0940341 0.22186835 -0.00823301 -0.6712924 -0.061835546 0.031042177 -0.5890856 0.104033634
-0.55565214 0.1444165 -0.14761311 0.64052093 0.17499004 0.030373188 -0.56467664 -0.09454721
0.03365613 0.05411536 -0.5792345 -0.0026837776 0.21019842 0.1807062 -0.05113925 0.22652404
0.6407408 0.021073077 0.39239848 0.73584 -0.112577915 0.43397978 0.08126425 -0.033097815
0.28815824 0.37880635 0.09881127 -0.43797427 0.24338673 9.495667e-05 -0.45898926 -0.23431987
-0.10589324 0.5948469 -0.2460026 0.17285258 -0.20990351 0.22161593 0.021116346 0.082276225
-0.68293864 -0.020261394 0.58579254 0.3356554 0.0051341453 -0.02620645 0.6063727 0.037212364
-0.5445614 0.45528784 -0.082444236 0.013471291 -0.18298061 0.28770858 -0.5068853 0.2954807
0.009370442 -0.3168945 0.18064474 0.04689675 -0.6867063 0.31264338 0.01500597 0.012768512
0.46895418 -0.012501775 -0.30130148 -0.59104776 0.42171773 0.7292065 -0.12195435 0.0047074216
-0.28373116 0.4962444 0.056079954 -0.34955376 -0.010427894 -0.007348449 0.13133435 0.28328234
0.013222377 -0.51257443 0.37933463 0.017626625 0.22698815 -0.47582403 -0.2506948 0.30465287
0.25986758 0.00038799134 0.26944947 0.06348803 -0.012170181 -0.075702116 0.63977534 0.02377897
0.7397174 0.088309295 -0.029331734 -0.60631585 -0.0010203131 0.22019024 -0.7085271 0.08792594
0.13009223 -0.0015688095 0.42208043 0.07547351 -0.2656622 0.14756253 0.07251909 0.08417294
-0.20222 0.0050617075 -0.18429668 0.5133533 0.06851399 -0.5119349 0.38731536 -0.02587704
0.44661602 -0.2681212 0.009625777 -0.0431232 -0.110008314 0.09420145 -0.026101649 -0.4317001
0.037729472 -0.17683588 -0.5925113 0.032767337 0.4003175 -0.18438302 -0.03413366 0.21465458
-0.4895509 -0.041002825 -0.17965104 0.5149968 -0.09678602 0.3659677 -0.48592493 -0.004899096
-0.4021765 -0.22443023 0.034655195 -0.05452688 -0.598993 -0.14635998 0.065733746 -0.080142565
0.050169606 0.43604076 -0.1867739 -0.051163077 -0.41216612 0.13580252 0.0789452 -0.05155242
0.6761156 -0.009293117 0.53103244 0.06054759 0.05580341 0.43928638 0.5255921 -0.022242654
00000000: ebf1 6f3d b841 3abe 85ee e0bd 5d31 afbd
00000010: c43b 003f 17a3 a2bd b6cb 78bc fb47 4cbe
00000020: b0de ea3b 25fd f8bd efff a13e d4a5 9dbd
00000030: 2fe8 2cbf 6146 913e 7240 823b e1b4 883a
00000040: f394 c0bd 7531 633e bfe3 06bc d2d9 2bbf
00000050: 4547 7dbd 2a4c fe3c 50ce 16bf 960f d53d
00000060: 383f 0ebf ebe1 133e e427 17be 2ef9 233f
00000070: 9730 333e 31d1 f83c a68e 10bf f8a1 c1bd
00000080: 03db 093d 11a8 5d3d b648 14bf 51e2 2fbb
00000090: 413e 573e 0c0b 393e 6477 51bd ebf5 673e
000000a0: 9707 243f 72a1 ac3c 74e8 c83e 0360 3c3f
000000b0: 408f e6bd 9932 de3e df6d a63d 9391 07bd
000000c0: 7a89 933e e8f2 c13e 905d ca3d 2a3e e0be
000000d0: 5f3a 793e 7923 c738 a400 ebbe 8cf1 6fbe
000000e0: 8ede d8bd e347 183f 1be8 7bbe 4400 313e
000000f0: f2f0 56be 49ef 623e 30fc ac3c 7080 a83d
00000100: 11d5 2ebf 39fb a5bc 80f6 153f 06db ab3e
00000110: 553c a83b e9ae d6bc 3e3b 1b3f fe6b 183d
00000120: 6068 0bbf 7d1b e93e 86d8 a8bd b1b6 5c3c
00000130: 455f 3bbe 8a4e 933e 3cc3 01bf 3f49 973e
00000140: 7b86 193c ff3f a2be effa 383e ce16 403d
00000150: fccb 2fbf cb12 a03e 9adb 753c 0533 513c
00000160: c31a f03e 3fd4 4cbc 3044 9abe e84e 17bf
00000170: 63eb d73e 47ad 3a3f 34c3 f9bd b740 9a3b
00000180: 3645 91be bf13 fe3e 18b4 653d b6f8 b2be
00000190: c2d9 2abc 42cb f0bb 837c 063e 620a 913e
000001a0: aba2 583c 1438 03bf 2638 c23e b665 903c
000001b0: 956f 683e 359f f3be 125b 80be 76fb 9b3e
000001c0: 5d0d 853e 516b cb39 48f5 893e 0306 823d
000001d0: 7065 47bc b609 9bbd 51c8 233f 1dcc c23c
000001e0: 1f5e 3d3f 81db b43d 1b49 f0bc 8437 1bbf
000001f0: 07bc 85ba 8d79 613e 0862 35bf 8412 b43d
00000200: e636 053e 83a0 cdba ed1a d83e db91 9a3d
00000210: e004 88be a21a 173e e384 943d dd62 ac3d
00000220: c212 4fbe aedc a53b 45b8 3cbe 1f6b 033f
00000230: 1051 8c3d 2a0e 03bf 334e c63e 16fc d3bc
00000240: dbaa e43e 2f47 89be 6fb5 1d3c f4a1 30bd
00000250: 0a4c e1bd b1ec c03d 20d3 d5bc cc07 ddbe
00000260: 388a 1a3d 7714 35be d2ae 17bf 0b37 063d
00000270: 6af6 cc3e e7ce 3cbe bdcf 0bbd 69ce 5b3e
00000280: 6aa6 fabe 94f2 27bd 71f6 37be d5d6 033f
00000290: c037 c6bd 1e60 bb3e 27cb f8be 9988 a0bb
000002a0: 14ea cdbe 0ad1 65be 9bf2 0d3d 9457 5fbd
000002b0: 9b57 19bf 64df 15be 6a9f 863d c921 a4bd
000002c0: a57e 4d3d bc40 df3e a841 3fbe 6090 51bd
000002d0: 7007 d3be d10f 0b3e 05ae a13d a128 53bd
000002e0: e915 2d3f 2842 18bc bef1 073f c000 783d
000002f0: 1e92 643d 25ea e03e 348d 063f 3a36 b6bc

bias f4 [64]
0.5988631 0.05191433 0.028297901 0.30449203 -0.0049341437 0.5694111 0.07895701 0.25953478
-0.012306371 0.016215147 0.5361614 0.45744887 0.39583677 -0.02812253 0.12963079 -0.01571403
0.34231025 0.3628299 0.053350486 0.14188252 0.37752214 0.0165706 -0.037485734 -0.245326
-0.6450576 -0.4968566 -0.21564284 -0.0949045 0.11174993 0.10910614 -0.20083958 0.36605385
0.27940437 0.035822224 0.4030776 -0.47519493 -0.34485355 0.11877894 -0.091162995 0.10917882
-0.023027476 -0.045214966 0.07773077 0.31512147 0.49080318 0.47065508 0.47362876 -0.12679428
0.33536965 0.3204849 -0.0043016374 0.32431713 0.578804 -0.44223797 0.34373823 0.53539425
0.32104987 -0.17475523 0.45471868 0.3945906 -0.14484484 -0.32586637 0.029928057 -0.29321393
00000000: 184f 193f 1fa4 543d 00d1 e73c 61e6 9b3e
00000010: 99ae a1bb edc4 113f 36b4 a13d bee1 843e
00000020: a9a0 49bc a1d5 843c e041 093f bd36 ea3e
00000030: 1eab ca3e 3861 e6bc efbd 043e b6ba 80bc
00000040: 4a43 af3e d7c4 b93e 0a86 5a3d a749 113e
00000050: 954a c13e 11bf 873c a48a 19bd bd36 7bbe
00000060: 7f22 25bf fd63 febe 7ad1 5cbe 4a5d c2bd
00000070: 26dd e43d 0a73 df3d e4a8 4dbe 696b bb3e
00000080: 170e 8f3e 53ba 123d 3060 ce3e c04c f3be
00000090: a590 b0be 5f42 f33d aab3 babd 2599 df3d
000000a0: 1ea4 bcbc 5433 39bd 4f31 9f3d 9a57 a13e
000000b0: 8e4a fb3e b4f9 f03e 787f f23e 5cd6 01be
000000c0: 92b5 ab3e 9916 a43e c0f4 8cbb e50c a63e
000000d0: 802c 143f 046d e2be 75fe af3e 990f 093f
000000e0: a660 a43e 09f3 32be e3d0 e83e c707 ca3e
000000f0: 3552 14be f5d7 a6be af2b f53c 2320 96be

weight f4 [64, 64]
0.0006213678 -0.030173874 -0.033612378 -0.12051016 0.040429216 -0.12444488 0.0008661174 0.10140288
0.07151864 0.05512781 -0.12166751 -0.114765 0.0638877 0.051311444 -0.028456962 -0.031872228
-0.13497914 0.0011655445 0.06996204 -0.0055979593 0.07920561 -0.15521342 0.004255385 -0.070587024
-0.14637038 0.06911902 -0.12793022 -0.13632166 -0.12349089 0.04417562 0.06940299 0.018447367
-0.004357603 0.0093320245 0.02435044 -0.032563455 -0.037981793 0.061391808 -0.033748068 -0.0882967
0.0027452593 0.051566076 0.052965697 -0.1365238 0.078953885 -0.04036702 -0.11581513 -0.1181655
-0.1435434 -0.02567133 0.074912794 -0.13679874 0.05417744 -0.0148394685 -0.08799381 -0.061721757
-0.05022168 0.057848856 0.011586365 -0.023569455 -0.05389777 -0.04431913 0.06853265 0.008012192
-0.1558677 0.12924287 -0.06918274 -0.0037862065 0.058381792 -0.026121944 -0.0054054786 -0.026937677
0.14522305 0.068658516 0.093838915 0.07320107 -0.09283414 0.0010403872 0.05799553 0.015223059
-0.0981461 0.057317644 0.051363092 -0.07690485 0.10128923 0.006603248 -0.09698703 -0.013929238
-0.07239203 0.06887688 0.018508516 0.13426083 0.09163928 -0.049141224 0.010477385 0.05581764
0.16686866 -0.10109341 0.14747325 -0.026919162 -0.06430905 -0.013039014 0.047116797 0.010398858
0.049191516 -0.047735214 0.07578819 0.0088601485 0.0025326645 -0.0029852842 0.009179803 0.10328311
-0.16019665 0.084947795 -0.024973063 -0.0072002746 0.06522018 0.006969194 -0.030800138 -0.12984371
0.13602902 0.05995208 0.14010051 0.098360404 0.0022570337 0.035890665 0.093452945 -0.086330965
0.10964324 -0.08138294 -0.055005398 0.038581435 -0.024115285 0.05869162 -0.08557698 -0.054632444
-0.09140542 0.022843534 -0.07469697 -0.02909168 0.060154855 -0.024102082 0.10296886 -0.042615652
-0.018137664 -0.068866886 0.009266801 0.1314957 0.11767174 -0.047624715 0.014248074 0.15379168
0.09834661 0.03694714 -0.36917087 0.005159563 -0.046010338 -0.066272505 0.051748127 -0.09183098
0.033999912 -0.1382137 0.052466244 0.216777 0.029579727 0.04429997 -0.051554397 0.09503985
0.022663394 -0.00872239 -0.05429272 0.107918784 0.006774745 -0.0035396917 0.052388467 0.10000276
-0.06126062 0.0017340468 0.13734667 0.054576244 0.124491915 -0.06912765 -0.029971972 -0.029066991
-0.07752989 -0.033784643 -0.024360793 0.040612552 -0.039771948 -0.0001971933 -0.022295633 -0.21543807
0.028621713 -0.018447025 0.05710686 -0.11989573 -0.07952912 -0.046525203 -0.033101574 0.012190802
-0.07736825 -0.049384322 0.0029978936 0.015606977 0.094203934 -0.02871313 0.10588051 -0.07359262
-0.024399381 -0.018283064 -0.020577015 -0.02107421 0.098687 -0.1415181 0.09628405 -0.04110208
-0.11005573 0.1628275 -0.21649134 -0.04521196 -0.11472593 -0.07616454 -0.07157191 -0.008220106
0.006953498 -0.04595998 0.07205424 -0.16942821 -0.096487194 -0.093688644 0.044658635 -0.053486917
-0.107878566 -0.09142368 -0.028137943 0.094045684 -0.051754672 -0.08639994 -0.06688624 -0.22328597
-0.06780022 0.055856697 0.053820256 -0.07414137 -0.06766364 0.087842904 -0.078870945 -0.06397505
0.08520471 0.087215394 0.08851185 0.05042938 -0.09902228 -0.07839967 0.09756223 0.083391696
00000000: 4ae3 223a 332f f7bc 22ad 09bd 08ce f6bd
00000010: 1b99 253d f5dc febd 280c 633a 50ac cf3d
00000020: 5d78 923d b3cd 613d d12c f9bd ea09 ebbd
00000030: 8ed7 823d f32b 523d 931e e9bc 748c 02bd
00000040: f937 0abe 2fc5 983a 4248 8f3d 166f b7bb
00000050: 8d36 a23d 44f0 1ebe c270 8b3b ee8f 90bd
00000060: 1ee2 15be 468e 8d3d 2400 03be e897 0bbe
00000070: cbe8 fcbd 7ff1 343d 2823 8e3d ef1e 973c
00000080: 39ca 8ebb 59e5 183c 937a c73c 4261 05bd
00000090: cc92 1bbd fa75 7b3d 6a3b 0abd e6d4 b4bd
000000a0: cfe9 333b f336 533d 8ff2 583d e5cc 0bbe
000000b0: 93b2 a13d e357 25bd 7c30 edbd c100 f2bd
000000c0: 0bfd 12be ae4c d2bc e16b 993d f814 0cbe
000000d0: 2ae9 5d3d 3e21 73bc 1936 b4bd f4cf 7cbd
000000e0: 40b5 4dbd ecf2 6c3d bdd4 3d3c bb14 c1bc
000000f0: e8c3 5cbd fa87 35bd d95a 8c3d 9245 033c
00000100: c89b 1fbe 3e58 043e aeaf 8dbd 0122 78bb
00000110: bf21 6f3d b0fd d5bc 7120 b1bb 67ac dcbc
00000120: 5ab5 143e d69c 8c3d 9e2e c03d 71ea 953d
00000130: d31f bebd 9a5d 883a b98c 6d3d 236a 793c
00000140: d300 c9bd e8c5 6a3d 1b62 523d 4a80 9dbd
00000150: ba70 cf3d 0f60 d83b 23a1 c6bd 7537 64bc
00000160: 4642 94bd 520f 8d3d 2c9f 973c ac7b 093e
00000170: 60ad bb3d 4f48 49bd 56a9 2b3c 0aa1 643d
00000180: 9edf 2a3e 100a cfbd 3a03 173e 9385 dcbc
00000190: 77b4 83bd 97a1 55bc 8bfd 403d f95f 2a3c
000001a0: 0b7d 493d 0086 43bd d736 9b3d 282a 113c
000001b0: 0ffb 253b c2a4 43bb e266 163c 1886 d33d
000001c0: 970a 24be 1cf9 ad3d 4f94 ccbc 48f0 ebbb
000001d0: 2892 853d d65d e43b 9250 fcbc c0f5 04be
000001e0: 314b 0b3e 5090 753d 8276 0f3e 2e71 c93d
000001f0: beea 133b 1702 133d 4264 bf3d 4ace b0bd
00000200: a38c e03d 19ac a6bd 574d 61bd 9107 1e3d
00000210: 6b8d c5bc a066 703d fc42 afbd 45c6 5fbd
00000220: c432 bbbd 5d22 bb3c bafa 98bd ad51 eebc
00000230: f064 763d bb71 c5bc 56e1 d23d c08d 2ebd
00000240: 7095 94bc 150a 8dbd c8d3 173c cfa6 063e
00000250: e2fd f03d 2212 43bd c170 693c 917b 1d3e
00000260: f369 c93d e255 173d f703 bdbe 8d11 a93b
00000270: 5675 3cbd e1b9 87bd d8f5 533d e111 bcbd
00000280: 7e43 0b3d e487 0dbe d8e6 563d cafa 5d3e
00000290: 2f51 f23c e373 353d b42a 53bd 41a4 c23d
000002a0: 95a8 b93c 5be8 0ebc 0b62 5ebd 8604 dd3d
000002b0: aefe dd3b 2cfa 67bb 4a95 563d 3fce cc3d
000002c0: 6aec 7abd f548 e33a 9ba4 0c3e 578b 5f3d
000002d0: 9ef5 fe3d cc92 8dbd c887 f5bc e61d eebc
000002e0: fec7 9ebd c461 0abd 4990 c7bc 5959 263d
000002f0: e9e7 22bd acc5 4eb9 55a5 b6bc cc9b 5cbe
00000300: 1578 ea3c 371e 97bc e2e8 693d e48b f5bd
00000310: 2ae0 a2bd 3691 3ebd 8495 07bd eebb 473c
00000320: 3f73 9ebd 3747 4abd 4f78 443b 68b4 7f3c
00000330: feed c03d cc37 ebbc e1d7 d83d bab7 96bd
00000340: 36e1 c7bc 5dc6 95bc 2191 a8bc d2a3 acbc
00000350: 691c ca3d 1fea 10be 9230 c53d a85a 28bd
00000360: e664 e1bd 41bc 263e e8af 5dbe 2d30 39bd
00000370: 6ef5 eabd 28fc 9bbd 4b94 92bd a0ad 06bc
00000380: 2bda e33b 8840 3cbd 2c91 933d 977e 2dbe
00000390: 149b c5bd d5df bfbd f9eb 363d 1915 5bbd
000003a0: 70ef dcbd 573c bbbd 8b81 e6bc 069b c03d
000003b0: b5fc 53bd 74f2 b0bd a7fb 88bd 14a5 64be
000003c0: d7da 8abd fec9 643d a172 5c3d 6ed7 97bd
000003d0: 3c93 8abd fbe6 b33d 1787 a1bd 5a05 83bd
000003e0: cf7f ae3d fc9d b23d b345 b53d 0a8f 4e3d
000003f0: 31cc cabd 0290 a0bd b5ce c73d 44c9 aa3d

bias f4 [64]
0.045362286 0.067316554 0.041447528 0.014401384 -0.023697196 0.19509329 -0.08307641 0.094957665
-0.080436006 -0.06636364 0.11127001 -0.042489663 0.01671151 -0.021354826 -0.1283238 0.03364195
0.000935112 0.012259463 0.051450834 -0.24462356 0.025031583 -0.12293308 -0.015444284 -0.12731527
-0.00757457 -0.018536657 -0.07842409 0.17017543 -0.07613191 0.07818366 0.15275612 -0.0888394
0.16594104 0.026934177 0.071600206 -0.042169005 -0.08224953 -0.08258575 -0.039695993 -0.17167105
-0.08050431 -0.11376203 0.013836564 0.012313079 -0.037246656 0.0016181208 -0.10458463 -0.09271529
-0.03330128 0.025719348 0.095256515 -0.028011745 -0.037361138 -0.10731059 0.080688566 0.025845703
0.02541596 0.056320556 -0.088029444 0.06638477 -0.011029992 0.09925553 -0.0010684528 0.14058705
00000000: cecd 393d 43dd 893d e2c4 293d c8f3 6b3c
00000010: 9f20 c2bc 89c6 473e f723 aabd 2a79 c23d
00000020: a2bb a4bd a9e9 87bd 88e1 e33d a409 2ebd
00000030: 94e6 883c 51f0 aebc 5067 03be 24cc 093d
00000040: 4e22 753a eadb 483c 1cbe 523d 997e 7abe
00000050: 090f cd3c 57c4 fbbd 060a 7dbc ef5e 02be
00000060: 1934 f8bb 30da 97bc cf9c a0bd 7842 2e3e
00000070: 0ceb 9bbd c11e a03d 1a6c 1c3e 6ef1 b5bd
00000080: 73ec 293e 10a5 dc3c 21a3 923d 68b9 2cbd
00000090: 7172 a8bd b822 a9bd 4498 22bd 89ca 2fbe
000000a0: 72df a4bd 11fc e8bd c1b2 623c ccbc 493c
000000b0: f38f 18bd 2017 d43a 7730 d6bd 84e1 bdbd
000000c0: ec66 08bd 62b1 d23c d915 c33d e378 e5bc
000000d0: fe07 19bd a8c5 dbbd 0c40 a53d 5eba d33c
000000e0: 2235 d03c 62b0 663d c848 b4bd bdf4 873d
000000f0: 24b7 34bc 7c46 cb3d 540b 8cba 0df6 0f3e

weight f4 [64, 64]
-0.0009628064 -0.014081149 -0.119605936 -0.049621426 0.001926388 -0.13320412 -0.11938268 -0.06821271
-0.014636434 -0.08982034 0.13421209 0.06501593 0.028535483 0.04362657 -0.030626208 -0.030847361
0.05681387 -0.08327849 0.04213592 -0.28124687 0.14161417 -0.119381584 -0.05650986 0.09913231
0.12987486 0.06176315 -0.07143209 0.10461805 -0.081699684 0.025705807 0.10221654 -0.059301496
0.006123161 0.015539872 0.6981176 -0.02707573 0.13080278 0.04714366 -0.19939825 0.053599235
-0.10285385 0.0848452 0.06802855 -0.0144863315 0.043586764 0.1357525 -0.07770403 -0.0066613955
-0.027820503 0.02525669 -0.028825559 -0.058609154 0.05285052 0.07518163 0.08539085 0.08195306
-0.10208417 0.028207358 -0.011118416 0.055650108 0.06385516 -0.012503459 -0.13708189 -0.108933665
-0.058709964 -0.104405686 0.04547951 -0.053775586 -0.13286823 -0.14561076 -0.06749897 -0.053316806
0.06052381 0.09466334 -0.0923614 0.07100089 -0.037107464 -0.012056043 0.01573188 -0.10096613
-0.020319708 -0.16095133 0.08227725 -0.13409613 -0.03009795 0.07174595 -0.1550236 -0.0092924535
-0.19852564 0.07316273 -0.17510787 0.13936318 0.06277666 -0.03941533 -0.05567639 0.042702377
-0.15423305 -0.0791937 -0.0670755 0.13892362 0.13391921 0.07059026 -0.019915586 -0.28212255
0.05771377 0.0076173553 0.044223245 0.16529165 0.019979348 -0.03583133 0.08502742 0.0035462172
-0.19006798 0.011777773 -0.1167647 -0.041880738 -0.03528106 0.06223548 -0.22133356 -0.06640396
-0.050544906 0.03238554 -0.29746324 -0.025769211 0.06929129 -0.040039152 -0.054219995 -0.18220155
-0.08042847 0.1294329 0.07009106 0.07824238 -0.032370634 0.045953345 0.117580496 -0.07248802
0.04250346 0.025716266 -0.026463725 0.090413146 -0.013654356 0.14305498 -0.12142563 0.09092013
0.1760396 -0.17376846 0.048374787 0.015987277 -0.06041637 0.0428339 -0.09945185 0.09468682
0.07343867 0.06814562 -0.002248284 0.06195426 0.0005818609 -0.02278631 -0.10007686 0.11125904
-0.083242096 -0.109728314 -0.06852009 0.0022086333 -0.121284336 0.027073564 0.062484525 -0.24990794
-0.058215536 0.15503816 0.042491566 -0.20259736 0.013824024 0.08855777 0.022732856 -0.09983896
-0.244766 0.061516214 -0.110509455 0.08820935 -0.034344453 -0.020308714 -0.006309331 -0.045346398
-0.039026257 0.10096556 0.01108425 0.05056807 -0.14239845 0.08277065 -0.13161916 -0.07496197
0.029404761 0.1436658 -0.15103576 0.03840362 0.11457874 -0.27074736 0.12772423 -0.14065024
0.010079581 -0.048107445 0.10632805 -0.026514415 -0.08683096 0.22375251 -0.22319809 -0.06850408
-0.0040882626 -0.2751437 -0.012400793 0.044444297 0.09235507 0.003011205 0.12108842 -0.026799105
-0.05283587 -0.028790573 0.10545643 -0.079391524 0.0035990577 -0.12803343 0.062294208 0.020953909
0.14130682 -0.14195603 -0.53036845 0.041273326 0.033853423 -0.104008496 0.06585919 -0.091511555
-0.009542029 0.10680535 -0.7117731 -0.06888904 0.024924219 0.06723758 -0.09368715 -0.1209762
-0.3669423 -0.013896629 0.12595072 0.032252844 -0.015524718 0.04275258 -0.18159238 -0.00727388
0.04812537 0.004455175 -0.082354106 -0.055689503 0.051022016 -0.088185765 0.051854786 -0.11325739
00000000: d864 7cba 9fb4 66bc f5f3 f4bd d63f 4bbd
00000010: db7e fc3a a966 08be e87e f4bd 1bb3 8bbd
00000020: a7cd 6fbc baf3 b7bd e56e 093e 1227 853d
00000030: 3fc3 e93c c6b1 323d d0e3 fabc 9bb3 fcbc
00000040: a9b5 683d ea8d aabd b796 2c3d 97ff 8fbe
00000050: 4e03 113e 557e f4bd e276 67bd e105 cb3d
00000060: eafd 043e 5bfb 7c3d fd4a 92bd fd41 d63d
00000070: 2a52 a7bd fc94 d23c e856 d13d 20e6 72bd
00000080: cca4 c83b f39a 7e3c d6b7 323f eccd ddbc
00000090: 2af1 053e b619 413d 0e2f 4cbe df8a 5b3d
000000a0: 0aa5 d2bd 52c3 ad3d 8d52 8b3d 1458 6dbc
000000b0: 0988 323d b402 0b3e 4a23 9fbd d647 dabb
000000c0: d3e7 e3bc 1ee7 ce3c 9423 ecbc 2710 70bd
000000d0: c979 583d d4f8 993d 66e1 ae3d 02d7 a73d
000000e0: 8111 d1bd 1e13 e73c 042a 36bc 5ef1 633d
000000f0: 7ec6 823d 4fdb 4cbc 325f 0cbe 9d18 dfbd
00000100: dc79 70bd a6d2 d5bd b948 3a3d ca43 5cbd
00000110: 9c0e 08be fd1a 15be e63c 8abd b962 5abd
00000120: d1e7 773d dade c13d f927 bdbd ea68 913d
00000130: fffd 17bd b686 45bc 25e0 803c 55c7 cebd
00000140: 8475 a6bc 6dd0 24be fa80 a83d 7f50 09be
00000150: fa8f f6bc 8aef 923d 82be 1ebe 603f 18bc
00000160: 4e4a 4bbe 57d6 953d 7a4f 33be 39b5 0e3e
00000170: 0d91 803d f871 21bd ed0c 64bd b0e8 2e3d
00000180: 45ef 1dbe 4e30 a2bd e15e 89bd fe41 0e3e
00000190: 1e22 093e a091 903d 0326 a3bc 5e72 90be
000001a0: 4665 6c3d 029b f93b 6f23 353d 3742 293e
000001b0: bbab a33c dfc3 12bd db22 ae3d a767 683b
000001c0: 2ea1 42be 8ff7 403c 5522 efbd 238b 2bbd
000001d0: df82 10bd a1ea 7e3d 44a5 62be cdfe 87bd
000001e0: 2d08 4fbd b3a6 043d 1a4d 98be f419 d3bc
000001f0: 98e8 8d3d 1800 24bd c915 5ebd 0b93 3abe
00000200: afb7 a4bd 0f8a 043e e78b 8f3d 8a3d a03d
00000210: 1297 04bd 9339 3c3d 0bce f03d 9974 94bd
00000220: 1c18 2e3d ebaa d23c 74ca d8bc 872a b93d
00000230: 85b6 5fbc 017d 123e 00ae f8bd 5534 ba3d
00000240: ba43 343e 5cf0 31be a424 463d c0f7 823c
00000250: 2877 77bd 9972 2f3d 69ad cbbd 2aeb c13d
00000260: 0367 963d ee8f 8b3d f257 13bb c0c3 7d3d
00000270: 0688 183a 5baa babc 19f5 ccbd c8db e33d
00000280: d57a aabd 3db9 e0bd 4354 8cbd b8be 103b
00000290: ec63 f8bd 61c9 dd3c c6ef 7f3d dee7 7fbe
000002a0: 6a73 6ebd 53c2 1e3e a30b 2e3d af75 4fbe
000002b0: 297e 623c c75d b53d 413a ba3c 5e78 ccbd
000002c0: f0a3 7abe 6df8 7b3d c852 e2bd 1ba7 b43d
000002d0: c5ac 0cbd 765e a6bc 81be cebb 25bd 39bd
000002e0: ffd9 1fbd 08c7 ce3d b79a 353c 7720 4f3d
000002f0: e6d0 11be a983 a93d 2cc7 06be a985 99bd
00000300: 41e2 f03c 211d 133e 1ea9 1abe 1d4d 1d3d
00000310: 42a8 ea3d 669f 8abe 24ca 023e 9e06 10be
00000320: d424 253c 500c 45bd 85c2 d93d c234 d9bc
00000330: 6ed4 b1bd 611f 653e 0a8e 64be de4b 8cbd
00000340: d5f6 85bb a3df 8cbe b22c 4bbc 390b 363d
00000350: a824 bd3d a357 453b 35fd f73d cc89 dbbc
00000360: 6d6a 58bd 35da ebbc 8af9 d73d 0698 a2bd
00000370: 2bde 6b3b 321b 03be 3628 7f3d 88a7 ab3c
00000380: bcb2 103e ec5c 11be 3ac6 07bf 380e 293d
00000390: e3a9 0a3d 6802 d5bd 2fe1 863d 696a bbbd
000003a0: 2c56 1cbc c3bc da3d c336 36bf b215 8dbd
000003b0: e02d cc3c dbb3 893d 0cdf bfbd 5fc2 f7bd
000003c0: dcdf bbbe b0ae 63bc 3af9 003e 8f1b 043d
000003d0: 635b 7ebc 541d 2f3d 5af3 39be ba59 eebb
000003e0: 1c1f 453d b7fc 913b 45a9 a8bd ad1a 64bd
000003f0: 76fc 503d bd9a b4bd af65 543d 7ef3 e7bd

bias f4 [64]
-0.019120833 -0.023411343 -0.04683836 0.027252613 0.07330779 0.13717104 0.13986036 -0.021112494
0.109578006 0.0852059 -0.010654501 -0.116489016 -0.034529347 -0.01446836 -0.0975077 -0.10310962
-0.03448763 0.14247474 -0.066172704 -0.28499204 -0.1141402 0.10841691 0.09817478 0.06052611
-0.012313529 0.02650919 -0.067048475 -0.074299194 0.039129183 -0.016917692 -0.085338034 0.07196471
0.0554192 0.05604541 -0.03511248 0.051536594 -0.10769927 0.047344275 0.09044893 -0.06667544
0.012532432 -0.08250972 0.05263236 -0.097558506 -0.12885913 0.08833359 -0.0026401614 -0.006633684
-0.04939019 -0.06488234 0.16710337 -0.082888365 -0.021261068 -0.05675345 -0.0014058595 -0.052441876
0.18967687 -0.13793619 -0.013230662 -0.014515131 0.07631711 0.018878175 -0.057819888 0.079189874
00000000: 4ba3 9cbc 25c9 bfbc 95d9 3fbd df40 df3c
00000010: 6522 963d 9176 0c3e 8e37 0f3e 1cf4 acbc
00000020: 6f6a e03d 6e80 ae3d 3790 2ebc cb91 eebd
00000030: a56e 0dbd b30c 6dbc 1eb2 c7bd 232b d3bd
00000040: e742 0dbd e6e4 113e 8e85 87bd 7aea 91be
00000050: 56c2 e9bd af09 de3d dc0f c93d 3aea 773d
00000060: afbe 49bc cd29 d93c b650 89bd 2d2a 98bd
00000070: ec45 203d f996 8abc b5c5 aebd 3c62 933d
00000080: 3eff 623d df8f 653d 1bd2 0fbd 0918 533d
00000090: 6f91 dcbd 12ec 413d 4a3d b93d 228d 88bd
000000a0: d454 4d3c dbfa a8bd 0895 573d c1cc c7bd
000000b0: a6f3 03be 3ee8 b43d 8f06 2dbb 605f d9bb
000000c0: 5e4d 4abd 08e1 84bd 251d 2b3e 60c1 a9bd
000000d0: b12b aebc 4e76 68bd d144 b8ba 4bcd 56bd
000000e0: a73a 423e 253f 0dbe 6bc5 58bc dfd0 6dbc
000000f0: 254c 9c3d 67a6 9a3c 8cd4 6cbd 4d2e a23d

weight f4 [64, 64]
0.10833681 0.014595144 0.10833977 -0.026118409 -0.109931655 0.0051446045 -0.053254403 -0.048837293
-0.11233984 0.09284285 -0.027081102 -0.107467 0.04242036 -0.086164914 -0.073569044 -0.025368512
-0.09463364 -0.116047055 0.08913211 -0.06474969 -0.059512667 -0.03210698 -0.0314142 0.059961833
0.0018767329 0.042771287 -0.009234937 0.021226496 0.08796298 0.120741814 0.092089914 0.09550866
0.039189827 -0.13859825 -0.11669828 0.057473153 0.0799147 -0.01752091 -0.0073253624 -0.06571705
0.016054487 -0.08846806 -0.08129235 -0.1200163 0.026780305 -0.08590879 -0.08067333 -0.10765137
-0.116853885 0.10360427 -0.026851019 -0.12233986 0.046698548 -0.12179693 0.076075345 0.12604442
0.05102694 -0.09255366 -0.12242827 -0.03661255 -0.050862487 0.021559974 -0.04041429 -0.09417473
0.07274015 -0.20859918 0.089884095 0.02026973 -0.11776815 -0.07050127 0.004677241 0.0995769
-0.10699114 0.0049987114 0.05470967 -0.15440796 0.12802224 0.17138512 -0.07553154 0.048266564
0.04898059 0.010706073 -0.1288811 0.3556708 -0.088476196 0.10893624 0.04628297 0.037182778
0.00069995626 0.106136814 -0.06455546 -0.06130877 -0.064366266 0.039432652 0.011201699 -0.026144072
0.05687733 0.04486928 0.055774882 0.07760409 -0.08182018 0.039055936 0.13432421 0.13178547
0.10785942 -0.15390044 0.06509133 -0.19140759 -0.028428514 0.07061689 -0.08841897 -0.017585477
-0.012108599 0.08501331 0.080106504 0.07352709 0.1207004 -0.0671077 0.0039152396 0.16225737
0.051665135 -0.04205422 -0.11299375 0.04576371 0.07278195 0.10482715 0.019126311 0.08387618
0.039598383 0.025578093 0.011306143 -0.20246042 0.12519984 0.040392313 0.075603336 -0.090214655
-0.034936987 -0.03110905 0.13790146 0.010904734 -0.050449573 -0.06268043 -0.005995724 0.08749017
0.035073053 0.065601155 0.058244143 0.64836234 0.11720301 0.07477779 0.079461634 0.024435269
0.02168412 0.025140638 0.19429596 0.03984294 0.060674343 0.023581566 -0.023679223 0.06420395
0.042859316 0.035443872 0.08899223 -0.11572481 0.02795038 0.033088006 -0.060209863 0.027070452
0.033548377 -0.108834825 0.03681546 -0.098111205 0.019661745 0.006657013 -0.0057006297 0.07830882
0.14496256 0.017840005 0.10847102 0.037003405 0.11743114 -0.07159761 0.058424566 -0.012625321
-0.07823608 -0.03509443 -0.091121234 -0.099420905 0.15036096 -0.01575827 0.119526505 0.0978762
0.10715199 0.16119225 -0.027648512 -0.06783555 -0.094152205 0.09018823 0.032206442 0.071066044
-0.032322522 -0.07159881 -0.02953948 0.11898544 0.032706723 0.024141131 -0.041828457 0.11547828
-0.018749584 -0.11375705 0.042057972 -0.20687142 0.16302124 0.07316336 0.09366672 -0.09973472
-0.14906839 0.09833937 -0.0633262 -0.010509268 -0.1171616 0.027121602 -0.09187158 -0.035808478
0.051933635 -0.044426247 0.010968733 -0.11494875 0.06637863 0.1255628 0.1127413 -0.18342066
-0.08111009 0.05404698 0.11456932 0.2624374 -0.08992814 -0.050965838 -0.07479818 -0.017540822
0.081664026 -0.049752846 0.102053046 -0.020809723 0.08769066 -0.015444813 -0.06770311 0.09050189
-0.13649872 0.09132025 0.0524511 0.07958747 -0.07060467 -0.14131348 -0.057550445 0.11276472
00000000: b0df dd3d 7920 6f3c 3ee1 dd3d 46f6 d5bc
00000010: d923 e1bd 1294 a83b 4a21 5abd 9d09 48bd
00000020: 6e12 e6bd 6424 be3d 30d9 ddbc a917 dcbd
00000030: f9c0 2d3d 3b77 b0bd 5eab 96bd a0d1 cfbc
00000040: 48cf c1bd 14aa edbd e58a b63d 7c9b 84bd
00000050: 8ec3 73bd 9c82 03bd 2dac 00bd 8a9a 753d
00000060: b5fc f53a f230 2f3d 224e 17bc 30e3 ad3c
00000070: ef25 b43d 7c47 f73d a399 bc3d 0b9a c33d
00000080: 8385 203d b3ec 0dbe 82ff eebd f868 6b3d
00000090: 51aa a33d 0388 8fbc 9809 f0bb a996 86bd
000000a0: b384 833c be2e b5bd 9b7c a6bd 1bcb f5bd
000000b0: 5f62 db3c f3f0 afbd 0f38 a5bd 5278 dcbd
000000c0: 1751 efbd 7a2e d43d abf6 dbbc 528d fabd
000000d0: fa46 3f3d ab70 f9bd 64cd 9b3d ca11 013e
000000e0: a001 513d c68c bdbd acbb fabd 0bf7 15bd
000000f0: 2f55 50bd 8b9e b03c 7489 25bd aede c0bd
00000100: caf8 943d 069b 55be 2715 b83d b40c a63c
00000110: 6e30 f1bd f862 90bd 8b43 993b f9ee cb3d
00000120: 2c1e dbbd 3bcc a33b 3f17 603d 1f1d 1ebe
00000130: 4318 033e 957f 2f3e 48b0 9abd 29b3 453d
00000140: df9f 483d 8668 2f3c 68f9 03be 7c1a b63e
00000150: 0233 b5bd f719 df3d 3693 3d3d f84c 183d
00000160: 457d 373a 425e d93d a735 84bd e81e 7bbd
00000170: 76d2 83bd 2284 213d 5587 373c 182c d6bc
00000180: 34f8 683d dac8 373d 3474 643d e5ee 9e3d
00000190: 5791 a7bd 1ef9 1f3d 498c 093e c5f2 063e
000001a0: 66e5 dc3d 1498 1dbe 9a4e 853d 5a00 44be
000001b0: eae2 e8bc 979f 903d 0115 b5bd 6b0f 90bc
000001c0: 2563 46bc 751b ae3d e10e a43d 5f95 963d
000001d0: c531 f73d c36f 89bd 694b 803b cc26 263e
000001e0: d29e 533d 0c41 2cbd 4469 e7bd ba72 3b3d
000001f0: b40e 953d 9eaf d63d c8ae 9c3c 46c7 ab3d
00000200: ea31 223d 2689 d13c 673d 393c c951 4fbe
00000210: 6334 003e 6972 253d ecd5 9a3d 76c2 b8bd
00000220: 161a 0fbd 68d8 febc 0a36 0d3e c5a9 323c
00000230: 36a4 4ebd 995e 80bd c777 c4bb 0c2e b33d
00000240: c3a8 0f3d e659 863d 6991 6e3d 13fb 253f
00000250: 2208 f03d 1925 993d c8bc a23d 792c c83c
00000260: e5a2 b13c bdf3 cd3c 85f5 463e 5a32 233d
00000270: a985 783d 212e c13c eefa c1bc 5c7d 833d
00000280: 408d 2f3d 982d 113d 8f41 b63d 2101 edbd
00000290: 32f8 e43c 4a87 073d 9e9e 76bd dac2 dd3c
000002a0: 066a 093d cbe4 debd cfcb 163d 87ee c8bd
000002b0: ab11 a13c 1323 da3b 59cc babb 6060 a03d
000002c0: 1171 143e 3425 923c 0e26 de3d e290 173d
000002d0: bd7f f03d c5a1 92bd 994e 6f3d 6fda 4ebc
000002e0: 3d3a a0bd 2dbf 0fbd c59d babd 309d cbbd
000002f0: 39f8 193e 7d17 81bc 50ca f43d 5173 c83d
00000300: 8172 db3d 950f 253e 227f e2bc 5ded 8abd
00000310: dfd2 c0bd 9bb4 b83d e7ea 033d 138b 913d
00000320: 9f64 04bd 66a2 92bd c8fc f1bc a3ae f33d
00000330: 7cf7 053d 9fc3 c53c 5154 2bbd e07f ec3d
00000340: ba98 99bc 75f9 e8bd fb44 2c3d 1ad6 53be
00000350: 0aef 263e acd6 953d 56d4 bf3d b841 ccbd
00000360: 62a5 18be 2766 c93d 2bb1 81bd 112f 2cbc
00000370: 6cf2 efbd 1f2e de3c 2b27 bcbd e9ab 12bd
00000380: 5db8 543d 4cf8 35bd 33b6 333c 406a ebbd
00000390: 85f1 873d 8993 003e e9e4 e63d a0d2 3bbe
000003a0: 0c1d a6bd 5e60 5d3d 52a3 ea3d 325e 863e
000003b0: 3f2c b8bd 8ec1 50bd ca2f 99bd c5b1 8fbc
000003c0: 783f a73d a4c9 4bbd 3001 d13d 2779 aabc
000003d0: 2997 b33d 3e0c 7dbc eea7 8abd 0e59 b93d
000003e0: 52c6 0bbe 1c06 bb3d f7d6 563d c1fe a23d
000003f0: 2e99 90bd 7bb4 10be 04ba 6bbd 31f1 e63d

bias f4 [64]
0.020775987 0.008739496 -0.032282438 0.11745355 -0.052594725 0.023523875 -0.08868708 0.14458053
-0.025778431 0.008305439 -0.17885174 -0.039151404 0.0813516 0.013811076 -0.0057892255 -0.10941511
0.079026446 0.11870481 -0.04311047 0.1316409 -0.021831276 0.07811276 0.091936685 0.0018069847
0.097389385 0.0034002718 0.166049 0.057710916 0.16380277 -0.022639593 -0.081880495 0.0011982865
0.027264936 -0.06831195 -0.11296362 -0.017190004 0.013798714 -0.0995152 -0.047596402 0.038733415
0.061450005 -0.0060735224 0.026085032 -0.124320224 -0.0056757806 -0.014271501 -0.0997834 -0.123741746
0.06881674 -0.06744469 -0.09913102 -0.083578624 0.0984538 -0.099889606 0.023895087 0.059286434
0.06797194 0.0929268 0.006269048 0.07081779 -0.13183287 -0.0129419565 0.07582451 -0.024686972
00000000: 6732 aa3c 1a30 0f3c 973a 04bd 7d8b f03d
00000010: 916d 57bd 24b5 c03c 92a1 b5bd eb0c 143e
00000020: 4a2d d3bc 8913 083c e924 37be 395d 20bd
00000030: ab9b a63d da47 623c 8bb3 bdbb 0715 e0bd
00000040: 9ed8 a13d 821b f33d 9b94 30bd dfcc 063e
00000050: 81d7 b2bc 95f9 9f3d 4d49 bc3d 58d8 ec3a
00000060: 1674 c73d 18d7 5e3b c008 2a3e 4862 6c3d
00000070: eabb 273e ab76 b9bc f6b0 a7bd d30f 9d3a
00000080: b75a df3c 23e7 8bbd 7859 e7bd 0dd2 8cbc
00000090: 0014 623c a0ce cbbd 72f4 42bd eea6 1e3d
000000a0: 00b3 7b3d 6604 c7bb 47b0 d53c 9a9b febd
000000b0: e6fb b9bb 04d3 69bc 3d5b ccbd 506c fdbd
000000c0: caef 8c3d 7120 8abd 3405 cbbd 452b abbd
000000d0: 25a2 c93d ec92 ccbd a1bf c33c 55d6 723d
000000e0: df34 8b3d 6850 be3d 966c cd3b eb08 913d
000000f0: 32ff 06be 800a 54bc e149 9b3d 553c cabc

weight f4 [3, 64]
-0.10435507 -0.042158075 0.081531174 0.12152653 0.08022328 -0.08798899 -0.08298763 -0.057661224
-0.11642096 -0.15469877 0.36704364 0.06368221 0.03397133 -0.21205974 -0.071685374 -0.012666333
-0.24925852 -0.114232264 0.07756451 0.005770772 0.08455774 -0.029662838 -0.03569176 0.18525867
-0.06740625 0.05912047 -0.1688014 -0.0036944544 -0.10252762 -0.09708288 0.12029694 -0.1709831
0.17795381 -0.014674376 -0.074106 0.100653954 0.17732367 -0.06526657 -0.022486696 0.056049593
-0.11608749 -0.06100499 0.24158141 0.046148606 0.122397885 -0.093789615 0.14273527 0.027379364
-0.05536414 -0.16441937 0.31990126 -0.06554942 0.18861458 -0.11344664 0.07987598 -0.12836799
0.24087805 -0.2633326 0.13625106 0.11331886 -0.07311656 -0.17310819 -0.17141691 -0.18450323
-0.11415801 0.1564431 0.00670013 -0.15656047 0.09477384 0.022053426 -0.057020664 -0.12400342
-0.06581208 -0.20475638 0.061807886 -0.108582385 -0.15325952 0.10504589 0.035509467 -0.09237117
0.071621455 0.058055546 -0.070765615 -0.08933724 0.032651696 -0.054343358 -0.09663611 0.1267483
0.18950914 0.1500279 0.09926655 0.06484268 0.004029434 0.021343678 -0.01276228 0.09071608
0.23075451 0.019825427 0.02397958 -0.09318881 0.08989129 0.041953884 0.07703893 0.15519787
-0.28121027 0.08403455 0.05987961 -0.091523275 0.07542479 0.1066707 -0.16418403 -0.06782518
-0.18107735 -0.07262114 -0.5520517 -0.22420587 0.184089 -0.08839922 -0.042137187 0.20517987
-0.096427456 -0.23754205 -0.18633166 -0.10689767 0.0050193076 -0.40379947 -0.077343404 -0.032726556
0.09660859 -0.07534101 -0.121296935 0.058281727 0.081254564 0.41132632 -0.14630333 0.03398542
0.05107515 0.003125661 0.40484 0.103782535 0.025670245 -0.1409363 -0.05043524 0.09385574
-0.010236444 0.08303966 -0.14134032 0.02577548 0.34950653 0.055828247 0.028515609 -0.08987753
-0.04847523 -0.06669081 0.037021063 0.037687995 0.046960227 -0.0910669 -0.11719032 -0.10836249
0.08535118 0.1148374 -0.004275051 -0.090489864 -0.07912709 0.014425333 -0.120763406 -0.022179544
-0.05321744 0.06682133 -0.11746293 -0.06363845 0.09411352 0.07873909 -0.061196264 -0.055876166
0.1045405 -0.12571898 0.2366638 0.16914432 -0.031932276 0.105490476 0.12381623 0.07111398
0.104587734 0.026688436 0.06813489 -0.01610691 0.07630899 0.04394877 -0.058453348 0.55204207
00000000: 1cb8 d5bd f2ad 2cbd d1f9 a63d e7e2 f83d
00000010: 1a4c a43d 9233 b4bd 6bf5 a9bd 2d2e 6cbd
00000020: 1d6e eebd 5b69 1ebe 25ed bb3e d26b 823d
00000030: 8525 0b3d 3026 59be c8cf 92bd 7386 4fbc
00000040: a03d 7fbe 9bf2 e9bd 24da 9e3d bf18 bd3b
00000050: 9c2c ad3d 7bff f2bc 8631 12bd 73b4 3d3e
00000060: 4a0c 8abd 4e28 723d 46da 2cbe a91e 72bb
00000070: 00fa d1bd 64d3 c6bd 3e5e f63d 3216 2fbe
00000080: 8639 363e cb6c 70bc e3c4 97bd a923 ce3d
00000090: 5694 353e 7baa 85bd 0536 b8bc 4294 653d
000000a0: 47bf edbd 5ee0 79bd 1e61 773e 5206 3d3d
000000b0: beab fa3d c514 c0bd 3229 123e b04a e03c
000000c0: 82c5 62bd 8d5d 28be 19ca a33e c63e 86bd
000000d0: 2e24 413e b656 e8bd 0596 a33d e672 03be
000000e0: bca8 763e 88d3 86be 6685 0b3e b813 e83d
000000f0: 23be 95bd 4643 31be ea87 2fbe 6aee 3cbe
00000100: adcb e9bd 9f32 203e c48c db3b 6351 20be
00000110: c918 c23d 63a9 b43c 808e 69bd 81f5 fdbd
00000120: 7cc8 86bd a8ab 51be 442a 7d3d 7160 debd
00000130: 10f0 1cbe 4d22 d73d 6072 113d 192d bdbd
00000140: 45ae 923d a7cb 6d3d 90ed 90bd 71f6 b6bd
00000150: c9bd 053d 2497 5ebd 27e9 c5bd 4eca 013e
00000160: af0e 423e eaa0 193e 434c cb3d 3dcc 843d
00000170: 5809 843b f0d8 ae3c e218 51bc 5ac9 b93d
00000180: e94a 6c3e ef68 a23c d370 c43c c6d9 bebd
00000190: ed18 b83d d6d7 2b3d 96c6 9d3d 31ec 1e3e
000001a0: cbfa 8fbe 4e1a ac3d 5244 753d 8e70 bbbd
000001b0: 5078 9a3d 2b76 da3d dc1f 28be eee7 8abd
000001c0: 576c 39be 64ba 94bd 4353 0dbf 3996 65be
000001d0: d481 3c3e a60a b5bd 0b98 2cbd ac1a 523e
000001e0: c27b c5bd 393e 73be bacd 3ebe 2aed dabd
000001f0: 0179 a43b cebe cebe 3866 9ebd 480c 06bd
00000200: b9da c53d 634c 9abd 876a f8bd d2b8 6e3d
00000210: cb68 a63d 5d99 d23e 8ad0 15be 4c34 0b3d
00000220: 2d34 513d e4d7 4c3b 3047 cf3e f08b d43d
00000230: 684a d23c 9b51 10be 2f95 4ebd 7037 c03d
00000240: c2b6 27bc b210 aa3d 84bb 10be 1927 d33c
00000250: 85f2 b23e 29ac 643d 9199 e93c b611 b8bd
00000260: f68d 46bd 3195 88bd 66a3 173d ba5e 1a3d
00000270: 5e59 403d 4881 babd 7a01 f0bd 27ed ddbd
00000280: 99cc ae3d df2f eb3d ba15 8cbb c052 b9bd
00000290: 620d a2bd 3b58 6c3c ce52 f7bd e0b1 b5bc
000002a0: 88fa 59bd 9fd9 883d 6890 f0bd e054 82bd
000002b0: 97be c03d f641 a13d efa8 7abd 68de 64bd
000002c0: 5419 d63d 7abc 00be ff57 723e 2b34 2d3e
000002d0: 6bcb 02bd 640b d83d 5d93 fd3d 35a4 913d
000002e0: 1832 d63d b5a1 da3c 4e8a 8b3d a3f2 83bc
000002f0: e347 9c3d a003 343d c76c 6fbd a152 0d3f

bias f4 [3]
0.019671254 0.04256427 0.0631335
00000000: 9c25 a13c df57 2e3d 234c 813d

exp_avg f4 [64, 3]
-0.00068422477 0.000743879 -0.00058435265 0.00038772536 -0.00011483098 0.0004103502 -0.000327787 6.3755266e-05
-6.8474976e-05 5.134856e-06 0.00014230073 -8.64254e-06 0.00049305154 0.00031454608 0.00013723713 -4.431531e-05
1.1340541e-05 5.0393446e-05 -0.00036508273 6.394738e-05 -5.4066637e-05 -0.00027805936 -6.5899876e-05 -6.702828e-07
-0.00015436545 -0.0004343253 -6.824175e-05 -0.00036568745 -0.0012060906 -0.00012709289 0.00037692057 -0.00048046754
7.2611445e-05 0.0005591976 0.0006120594 4.110354e-05 -0.0003090175 8.9039895e-05 -0.00049856823 -0.00028472207
-1.2998477e-05 0.00075596845 0.0002871879 -0.00032424452 6.4310116e-06 0.0005777314 -5.1854815e-05 0.00042007762
-0.0005178799 -0.00014839458 4.3654974e-05 -0.00043685205 -0.0014809159 0.00040676212 -0.00013018659 6.577756e-05
-9.389183e-05 -0.0001298286 -0.00023353411 0.00011950665 0.00023283335 0.0003834544 -0.00012055271 0.00021583495
5.677178e-05 -5.968156e-05 -0.00010394642 0.00052857277 0.0001976784 0.0017003939 2.0204716e-05 0.0007145858
0.00015415365 -0.00039932862 -0.00017614992 1.4449249e-05 8.831837e-06 1.281606e-05 0.00041774145 -0.0007545299
-0.0002143014 -0.00041389637 -0.0007742966 -6.612606e-05 0.0008047054 7.5898824e-05 -0.00012264974 8.542395e-06
0.0005033878 -0.00036208474 8.3609586e-05 -1.6894624e-06 0.00021512182 -0.00022431916 -0.0004881365 -0.00013250696
-0.00014552576 0.0004734394 -0.0002392584 -0.00035459822 -0.00019275847 -7.230937e-05 -0.00035671797 0.00024370544
-0.00070850813 0.00041880622 0.000113167225 -0.00012742922 -1.0732743e-06 -1.2480266e-05 -8.156605e-05 4.6923582e-05
-0.00020836975 0.0004315702 0.0013275825 0.00087958394 0.00014818354 0.00013161558 0.00086377084 6.851959e-05
-0.0013245794 -0.00237553 -3.202076e-05 -0.00015574881 -0.00033582264 0.00011745606 0.0002464726 1.41179535e-05
0.00023869297 3.4981047e-05 -6.41951e-05 -2.0068588e-05 -0.00014959362 0.00016096112 -0.00026149888 -0.00033538515
-2.8942311e-05 -0.0005745957 0.00020022607 0.00027979078 -0.00021883259 0.00038265644 -1.3552505e-05 -0.00045808125
0.00079594995 -0.00029279193 0.0001343444 -0.0008452594 -0.0002151462 4.2563923e-05 1.4928004e-07 5.984039e-05
-5.2190326e-06 -0.0017459492 0.0015280467 0.00015964589 7.0293434e-05 9.6674776e-05 -0.00025857048 0.00027637812
-6.582438e-06 -5.6399418e-05 7.735428e-05 0.00019055484 3.7206803e-05 0.00039294144 -0.0011557776 0.00018178331
-5.7218662e-05 -0.00014967317 9.032626e-05 -1.3968112e-05 -6.9989066e-05 4.4337e-05 -0.00019576945 0.00036878212
-0.00020495096 0.000546425 0.00058857596 -0.00049378537 0.00012273497 -0.000120971956 4.075428e-05 0.0016384667
-0.00017833794 0.0008185933 0.00068581844 0.00039287974 8.019393e-05 -0.0008944839 -0.00081014493 0.00075509166
00000000: 8c5d 33ba e000 433a 3e2f 19ba 9e47 cb39
00000010: 6ad1 f0b8 4624 d739 d4da abb9 59b4 8538
00000020: 399a 8fb8 144c ac36 9036 1539 6dff 10b7
00000030: 2140 013a a9e9 a439 50e7 0f39 34df 39b8
00000040: 4143 3e37 8d5d 5338 9368 bfb9 7d1b 8638
00000050: 9cc5 62b8 7fc8 91b9 ba33 8ab8 7ced 33b5
00000060: 29dd 21b9 28b6 e3b9 031d 8fb8 bdb9 bfb9
00000070: af15 9eba 3d44 05b9 6c9d c539 43e7 fbb9
00000080: f946 9838 1e97 123a 9c72 203a 9766 2c38
00000090: a003 a2b9 eeba ba38 59b2 02ba c046 95b9
000000a0: 0914 5ab7 2f2c 463a b591 9639 5dff a9b9
000000b0: f8c9 d736 e672 173a af7e 59b8 dd3d dc39
000000c0: 55c2 07ba 5e9a 1bb9 2c1a 3738 4a09 e5b9
000000d0: 4b1b c2ba b042 d539 b282 08b9 0ff2 8938
000000e0: cbe7 c4b8 9922 08b9 d6e0 74b9 a59f fa38
000000f0: ba24 7439 610a c939 3ed1 fcb8 c151 6239
00000100: 3c1e 6e38 9652 7ab8 cffd d9b8 eb8f 0a3a
00000110: e447 4f39 c0df de3a 4c7d a937 0b53 3b3a
00000120: 4ea4 2139 fb5c d1b9 e2b4 38b9 0d6b 7237
00000130: 732c 1437 8f04 5737 4f04 db39 a5cb 45ba
00000140: 18b6 60b9 3b00 d9b9 2afa 4aba 28ad 8ab8
00000150: def2 523a df2b 9f38 8a9b 00b9 4f51 0f37
00000160: c9f5 033a 31d6 bdb9 8e57 af38 7cc1 e2b5
00000170: 5392 6139 3737 6bb9 92ec ffb9 91f1 0ab9
00000180: 4698 18b9 f637 f839 70e1 7ab9 5ee9 b9b9
00000190: 351f 4ab9 cca4 97b8 e005 bbb9 2e8b 7f39
000001a0: 2dbb 39ba 3893 db39 3154 ed38 859e 05b9
000001b0: 6d0d 90b5 5662 51b7 710e abb8 d0cf 4438
000001c0: d47d 5ab9 5f44 e239 4702 ae3a e193 663a
000001d0: b761 1b39 4a02 0a39 ae6e 623a 2db2 8f38
000001e0: 829d adba c8ae 1bbb 074e 06b8 8150 23b9
000001f0: 5a11 b0b9 be52 f638 fe38 8139 26dc 6c37
00000200: a849 7a39 9db8 1238 7ba0 86b8 f758 a8b7
00000210: 3bdc 1cb9 acc7 2839 c919 89b9 a2d6 afb9
00000220: 24c9 f2b7 77a0 16ba c7f3 5139 e2b0 9239
00000230: 6d76 65b9 479f c839 915f 63b7 a02a f0b9
00000240: 4ca7 503a de81 99b9 cdde 0c39 6694 5dba
00000250: de98 61b9 aa86 3238 c949 2034 21fd 7a38
00000260: 261f afb6 55d8 e4ba bd48 c83a 9e66 2739
00000270: 806a 9338 e0bd ca38 be90 87b9 d8e6 9039
00000280: b6de dcb6 6a8e 6cb8 4339 a238 adcf 4739
00000290: 800e 1c38 b503 ce39 767d 97ba 169d 3e39
000002a0: 12fe 6fb8 96f1 1cb9 8b6d bd38 9658 6ab7
000002b0: 18c7 92b8 7ef6 3938 7647 4db9 1959 c139
000002c0: 1be8 56b9 f63d 0f3a aa4a 1a3a 6071 01ba
000002d0: 6bb2 0039 53b2 fdb8 93ef 2a38 d2c1 d63a
000002e0: 3a00 3bb9 de96 563a 7fc8 333a 6dfb cd39
000002f0: ca2d a838 cc7b 6aba e85f 54ba 58f1 453a

exp_avg_sq f4 [64, 3]
3.631022e-05 8.503777e-05 6.068732e-06 0.0001269508 2.0044557e-05 6.5652735e-06 6.1414103e-06 3.648278e-06
6.831274e-07 1.3169166e-05 7.857065e-05 1.8682521e-06 2.306955e-05 1.7099313e-05 2.8354077e-06 1.2705111e-05
1.0055129e-05 1.3414974e-06 2.382256e-05 3.2189196e-06 6.801345e-07 1.4169698e-05 1.8405445e-06 1.2171316e-06
6.276679e-05 3.254982e-05 1.1266407e-06 0.00018343703 0.00016556508 5.9143686e-06 2.8383807e-05 2.0809586e-05
1.687377e-06 7.2286057e-06 4.9916557e-06 1.020318e-06 0.00014696458 0.00012079215 1.7624418e-05 0.00023162927
0.00036894373 5.6420977e-05 0.0001326413 7.683485e-05 1.7390188e-05 4.6528836e-05 2.8643553e-05 6.8016493e-06
1.6419759e-05 1.3486363e-05 2.4573799e-06 3.3930326e-05 0.0002936668 4.6228442e-06 0.00015626564 5.8565518e-05
3.1500715e-06 6.982442e-06 5.7719762e-06 2.0467535e-06 5.8238624e-05 4.1598098e-05 4.670774e-06 9.287925e-06
2.4332442e-06 2.8384034e-07 6.1311635e-05 9.579197e-05 8.533367e-06 0.0006030193 0.00014379194 3.2471075e-05
1.0355186e-05 7.130111e-06 2.3825355e-06 1.4612602e-06 3.216149e-07 9.939132e-07 0.0004285363 0.00039396808
3.461663e-05 9.511541e-05 9.477422e-05 3.8762346e-06 5.218805e-05 3.8628037e-05 5.9826266e-06 0.00012394377
3.343974e-05 6.945375e-06 1.0282546e-06 4.2126746e-07 4.8508093e-07 5.456999e-05 2.6472555e-05 4.965366e-06
0.00022404006 0.00014987559 1.04932715e-05 0.000110251 5.6968085e-05 1.144215e-05 0.00031685797 5.3712825e-05
4.5621586e-05 5.133456e-05 2.740206e-05 3.3096444e-06 7.2959637e-07 3.773019e-07 3.5108803e-07 9.856991e-05
7.997142e-05 2.8008687e-06 0.00012439353 0.000101533326 1.6192018e-05 0.00079838955 6.6257984e-05 2.2076156e-05
0.00092431554 0.0007232542 2.5527883e-05 1.2416617e-05 4.0258788e-06 7.8550477e-07 4.0616225e-05 1.9586903e-05
8.5779305e-07 7.399313e-05 2.5377343e-05 8.44276e-06 4.903366e-05 6.346965e-05 3.2556013e-06 0.00051890366
5.1895247e-05 3.887999e-05 0.00017230657 9.7835975e-05 5.7212937e-06 0.0001020653 0.00011563577 1.3041631e-05
0.00013798403 0.000113948125 7.2575012e-06 9.16023e-05 7.1479604e-05 1.8406955e-06 1.2249388e-05 2.6749242e-06
1.2684201e-06 0.00010718001 5.292331e-05 4.7494505e-06 3.081846e-05 1.1016531e-05 1.0395294e-05 2.807599e-06
1.7655722e-06 2.860034e-07 3.331342e-05 2.213867e-05 1.6595495e-06 5.0660412e-05 2.2707341e-05 1.3857584e-06
1.1709718e-05 9.273846e-06 2.0494472e-06 2.060339e-06 2.2191027e-06 3.823106e-07 0.00017161138 0.00011845699
1.24625885e-05 0.00013491714 0.00012146989 2.2046725e-05 6.6556364e-05 2.2803046e-05 1.6648354e-06 0.00045612195
0.00016854703 0.000112295194 0.00012107364 0.00011575002 5.344086e-06 0.0007546286 0.000628635 3.004384e-05
00000000: cd4b 1838 4e56 b238 03a2 cb36 191e 0539
00000010: 5c25 a837 454b dc36 5012 ce36 f0d4 7436
00000020: 2860 3735 23f1 5c37 4cc6 a438 a7c0 fa35
00000030: 7b85 c137 7f70 8f37 ef47 3e36 0928 5537
00000040: 73b2 2837 800d b435 8fd6 c737 9e04 5836
00000050: 7d92 3635 64ba 6d37 a108 f735 535c a335
00000060: aaa1 8338 1a86 0838 1437 9735 0159 4039
00000070: 8a9b 2d39 0a74 c636 c319 ee37 3f90 ae37
00000080: d579 e235 408d f236 ff7d a736 dcf1 8835
00000090: 811a 1a39 cb51 fd38 26d8 9337 82e1 7239
000000a0: ca6e c139 90a5 6c38 a115 0b39 6522 a138
000000b0: 25e1 9137 f527 4338 9047 f037 b939 e436
000000c0: 2abd 8937 7d43 6237 77e9 2436 6950 0e38
000000d0: 4af7 9939 ee1d 9b36 3ddb 2339 3fa4 7538
000000e0: d165 5336 b84a ea36 e6ac c136 f55a 0936
000000f0: 3f45 7438 9e79 2e38 a5b9 9c36 56d3 1b37
00000100: d14a 2336 b862 9834 6f94 8038 ece3 c838
00000110: 882a 0f37 f113 1e3a dbc6 1639 8d31 0838
00000120: 2fbb 2d37 303f ef36 a6e3 1f36 8520 c435
00000130: 6aaa ac34 9966 8535 2bad e039 808d ce39
00000140: 5331 1138 b278 c738 86c1 c638 9a10 8236
00000150: 7ee4 5a38 8a04 2238 5fbe c836 e7f6 0139
00000160: a641 0c38 510c e936 8f02 8a35 8f2a e234
00000170: 8236 0235 15e2 6438 6111 de37 2b9c a636
00000180: 4cec 6a39 ec27 1d39 420c 3037 8e36 e738
00000190: 04f1 6e38 a9f7 3f37 f51f a639 b549 6138
000001a0: ce59 3f38 1050 5738 7add e537 421b 5e36
000001b0: 7bd9 4335 fa8f ca34 2c7d bc34 51b7 ce38
000001c0: 54b6 a738 8ff6 3b36 a26f 0239 4aee d438
000001d0: 18d4 8737 044b 513a fcf3 8a38 2f30 b937
000001e0: c44d 723a c598 3d3a b624 d637 f750 5037
000001f0: 0916 8736 7adb 5235 575b 2a38 8e4e a437
00000200: 1743 6635 c22c 9b38 6ee1 d437 61a5 0d37
00000210: 7ea9 4d38 021b 8538 ce7a 5a36 0907 083a
00000220: 19aa 5938 1213 2338 31ad 3439 4a2d cd38
00000230: 8af9 bf36 e40b d638 7b81 f238 61cd 5a37
00000240: ceaf 1039 6ff7 ee38 7685 f336 9c1a c038
00000250: 52e7 9538 d10d f735 b982 4d37 d982 3336
00000260: 953e aa35 d4c5 e038 f9f9 5d38 785d 9f36
00000270: 1243 0138 a4d3 3837 7367 2e37 2f6a 3c36
00000280: 99f8 ec35 028c 9934 03ba 0b38 6fb6 b937
00000290: b0bd de35 347c 5438 a57b be37 4cfe b935
000002a0: db74 4437 de96 1b37 3c89 0936 5b44 0a36
000002b0: e5eb 1436 5e40 cd34 94f2 3339 1d6c f838
000002c0: 6916 5137 8b78 0d39 a7bd fe38 fbf0 b837
000002d0: 2d94 8b38 2b49 bf37 4f73 df35 a723 ef39
000002e0: 00bc 3039 0680 eb38 eae8 fd38 d2be f238
000002f0: 5951 b336 45d2 453a fbca 243a a806 fc37

exp_avg f4 [64]
0.00027490253 -0.00036093564 -0.00019230772 -0.00016153688 9.570489e-06 -4.0326067e-05 0.00031863272 0.0001403105
-0.0005375055 -0.0014810062 -0.00028447853 -0.0006489009 0.0002675491 -0.00042192294 -0.00046671837 -0.00023045483
-0.00023953452 -0.0004882877 -0.0002833023 -0.00013268708 -0.0001160871 -1.01004425e-05 0.00039041854 -0.00034349193
-0.00016895524 6.311175e-06 -0.001202071 -0.00079412165 -0.000115139344 -7.138684e-05 -5.3282267e-05 -0.00028640227
-0.00016040675 7.1545095e-05 0.00046065048 0.000107644606 3.9599898e-05 -2.1251699e-05 0.00077002344 -0.0007410508
-0.0027377354 -0.0004981291 -0.0002579626 -0.00022613833 -0.00020317972 0.00041685544 0.00016745695 0.0005194372
-0.0006520292 -0.00018214987 -2.205291e-06 0.0009935967 -0.00027350947 0.00014459947 0.00016620105 -0.00089456455
-0.00036307934 -0.000103150785 4.7427064e-05 0.00022509291 0.0004094326 -0.00029629795 0.0007591737 -0.0009995415
00000000: cb20 9039 f63b bdb9 36a6 49b9 3a62 29b9
00000010: f090 2037 c923 29b8 290e a739 5020 1339
00000020: 62e7 0cba 521e c2ba 1026 95b9 011b 2aba
00000030: d545 8c39 8a35 ddb9 e1b1 f4b9 3fa6 71b9
00000040: 8f2b 7bb9 6f00 00ba 3188 94b9 eb21 0bb9
00000050: ca73 f3b8 1275 29b7 17b1 cc39 b516 b4b9
00000060: 9429 31b9 95c4 d336 cf8e 9dba 9a2c 50ba
00000070: f776 f1b8 85b5 95b8 667b 5fb8 4328 96b9
00000080: dc32 28b9 7b0a 9638 7683 f139 42bf e138
00000090: 1118 2638 ad45 b2b7 66db 493a 1443 42ba
000000a0: 946b 33bb e194 02ba 273f 87b9 8c1f 6db9
000000b0: a40c 55b9 648d da39 6297 2f39 d72a 083a
000000c0: f0ec 2aba 7cff 3eb9 9cfe 13b6 933b 823a
000000d0: d265 8fb9 a09f 1739 4146 2e39 3681 6aba
000000e0: af5b beb9 a852 d8b8 6cec 4638 eb06 6c39
000000f0: 1da9 d639 7058 9bb9 4903 473a 0c03 83ba

exp_avg_sq f4 [64]
7.962995e-05 2.1799071e-05 3.6022934e-06 9.543732e-05 1.2092538e-05 1.2218873e-05 1.136156e-05 5.555519e-06
3.706959e-05 0.00011323157 1.941716e-05 9.408991e-06 0.00012439364 0.00018421673 6.0684637e-05 2.3255669e-05
1.0537601e-05 0.00022462365 7.421991e-05 3.4952543e-06 6.4083084e-05 4.679444e-06 5.885579e-05 0.00014549824
4.954936e-06 7.8811547e-07 0.00032635516 7.300047e-05 4.7477657e-05 2.618906e-05 6.3521355e-07 2.7746979e-05
0.00019578131 8.4059284e-05 7.397883e-05 2.0752215e-05 7.155581e-07 6.183438e-05 7.629109e-05 9.597076e-05
0.0005290211 6.915637e-06 2.1576534e-05 2.350924e-05 6.882954e-05 9.423665e-05 9.1004076e-05 0.000109251494
8.937457e-05 8.034233e-05 5.025507e-06 6.518253e-05 1.2973201e-05 1.7138942e-06 2.508697e-05 2.4864581e-05
8.1098815e-06 1.9880167e-06 0.00012435528 0.000112215734 3.907314e-05 0.00012556669 9.6189884e-05 0.00041413005
00000000: 01ff a638 26dd b637 eebe 7136 8525 c838
00000010: 0ee1 4a37 a9ff 4c37 879d 3e37 8b69 ba36
00000020: 2b7b 1b38 bc76 ed38 09e2 a237 4fdb 1d37
00000030: aa6f 0239 4d2a 4139 a287 7e38 2b15 c337
00000040: a7ca 3037 f488 6b39 83a6 9b38 0390 6a36
00000050: 5864 8638 1e04 9d36 ecdb 7638 e390 1839
00000060: 9342 a636 e28e 5335 a61a ab39 d417 9938
00000070: bf22 4738 94b0 db37 8b83 2a35 2fc2 e837
00000080: a54a 4d39 fc48 b038 1525 9b38 0b15 ae37
00000090: c714 4035 14ad 8138 78fe 9f38 e943 c938
000000a0: 01ae 0a3a df0c e836 41ff b437 b535 c537
000000b0: 9458 9038 eba0 c538 71d9 be38 f31d e538
000000c0: 9b6e bb38 767d a838 c7a0 a836 9bb2 8838
000000d0: 79a7 5937 f508 e635 dc71 d237 4894 d037
000000e0: ad0f 0837 de69 0536 5e65 0239 5d55 eb38
000000f0: 77e2 2338 8daa 0339 8db9 c938 981f d939
