models/model_cavity_nu0.01_U1_20x20_epochs200_softadapt_testpcnt0.5.pt (torch, 186975 bytes, 30 tensors)

weight f4 [64, 3]
-0.31205744 -0.5472792 -0.06378251 -0.10328362 -0.30034223 -0.31791735 0.52336913 0.23424502
0.427583 0.13376677 0.04210276 -0.5853484 0.20401698 -0.09085406 -0.36382288 -0.15739857
-0.3377904 0.42484084 -0.3069606 -0.5126213 -0.033791244 0.08398319 -0.22273311 0.5270602
0.19112042 -0.29080236 0.020754125 0.45580462 0.4355807 -0.0308667 0.13026308 -0.029962594
0.44444022 0.5369775 -0.45206413 0.003201271 0.48640868 0.33614987 0.38978353 -0.12577188
-0.41671115 -0.2836562 -0.19348903 0.13455974 0.16453806 0.55945647 -0.35745144 0.590248
0.12991197 -0.16993585 -0.37874383 -0.08475965 -0.47147858 -0.54274744 -0.47430372 0.27127644
-0.05674735 0.18996257 -0.27995834 0.4715261 0.17659612 -0.36129066 0.057681683 0.3421242
0.5217616 -0.19261083 -0.5878525 0.5770817 0.36584985 0.4861944 0.58287716 -0.49174902
0.13474001 -0.20764218 0.58544195 -0.22243741 -0.0653788 0.47661957 0.6156742 -0.18495446
-0.3200874 -0.33300275 0.27604777 0.2790082 0.55673313 -0.14877737 0.49445596 -0.1573729
0.15434267 -0.43866065 -0.3828089 0.5434899 0.18419285 0.17215769 0.34349248 0.24204972
-0.32829505 -0.43628353 -0.19204009 -0.41924998 0.34318092 0.21291114 0.4502242 0.055999592
-0.4062989 0.09643684 -0.07636959 -0.33122322 0.16375752 0.50462747 -0.31537437 0.14810607
-0.19467932 -0.35077098 -0.34714413 -0.3968259 -0.32142147 0.4726443 0.5258454 -0.07878812
0.23735891 0.44150755 0.21549839 -0.482148 0.43876544 -0.28909194 0.07084296 -0.36962572
-0.053311422 0.4775679 -0.5032785 0.13736932 0.6149532 -0.46939254 -0.51101106 -0.16186379
-0.14249873 0.20126893 0.30513176 0.6040614 -0.028381944 0.46767363 0.46096495 0.30915698
-0.7263683 -0.44077912 0.28401923 -0.2821438 -0.42658657 -0.05866787 0.18918556 0.21926762
-0.034360748 -0.18894812 0.28410733 0.11340874 0.04588027 0.09135311 -0.25791854 -0.585966
-0.389804 0.014347036 -0.25766683 0.3375523 0.13607454 0.4624784 0.45525855 0.26072866
0.078785874 -0.121165685 -0.39465046 0.409091 -0.38344723 0.2800239 0.43677682 0.0735493
0.40411934 -0.31434372 0.22531834 -0.5370407 -0.39032894 -0.08035229 0.26536813 -0.42427048
0.15634027 0.6014823 -0.17802392 0.24803835 -0.018578563 0.5569945 -0.066072755 0.31911334
00000000: fec5 9fbe 7d1a 0cbf 68a0 82bd 5d86 d3bd
00000010: 75c6 99be 10c6 a2be 85fb 053f eddd 6f3e
00000020: 29ec da3e 28fa 083e f273 2c3d 65d9 15bf
00000030: d4e9 503e b211 babd fe46 babe 172d 21be
00000040: ddf2 acbe bd84 d93e f129 9dbe 263b 03bf
00000050: b068 0abd 61ff ab3d 2614 64be 6bed 063f
00000060: 12b5 433e 0ce4 94be 8e04 aa3c 395f e93e
00000070: 6f04 df3e 29dc fcbc af63 053e 1d74 f5bc
00000080: ab8d e33e 5c77 093f f374 e7be 6acc 513b
00000090: 8f0a f93e d61b ac3e b591 c73e 58ca 00be
000000a0: 2a5b d5be 633b 91be fd21 46be 07ca 093e
000000b0: aa7c 283e 8a38 0f3f e003 b7be 7e1a 173f
000000c0: a507 053e aa03 2ebe b6ea c1be 7896 adbd
000000d0: a465 f1be 7ff1 0abf f0d7 f2be bfe4 8a3e
000000e0: e96f 68bd 8c85 423e b356 8fbe de6b f13e
000000f0: 9dd5 343e 17fb b8be a143 6c3d e72a af3e
00000100: 2b92 053f c63b 45be 807d 16bf a0bb 133f
00000110: ac50 bb3e 79ee f83e 7037 153f 87c6 fbbe
00000120: 49f9 093e 27a0 54be 86df 153f a2c6 63be
00000130: 52e5 85bd 7b07 f43e d39c 1d3f b464 3dbe
00000140: 7fe2 a3be 567f aabe 2256 8d3e 2ada 8e3e
00000150: 1086 0e3f 1859 18be 5529 fd3e 5d26 21be
00000160: 010c 1e3e 2198 e0be 87ff c3be 2722 0b3f
00000170: 0d9d 3c3e 1b4a 303e 3fde af3e e2db 773e
00000180: 4a16 a8be 8e60 dfbe 28a6 44be efa7 d6be
00000190: 69b5 af3e 6105 5a3e c983 e63e d45f 653d
000001a0: 6906 d0be ae80 c53d a967 9cbd 1796 a9be
000001b0: 0db0 273e 442f 013f c078 a1be 1ea9 173e
000001c0: 045a 47be 4198 b3be e0bc b1be c42c cbbe
000001d0: 5b91 a4be 6ffe f13e ce9d 063f aa5b a1bd
000001e0: 370e 733e 470d e23e 9cab 5c3e 1adc f6be
000001f0: dda5 e03e dc03 94be 1d16 913d 953f bdbe
00000200: 145d 5abd c883 f43e dcd6 00bf 8baa 0c3e
00000210: 936d 1d3f 3854 f0be 9fd1 02bf 9fbf 25be
00000220: 30eb 11be 7119 4e3e 3b3a 9c3e c5a3 1a3f
00000230: 4081 e8bc eb72 ef3e 9903 ec3e d349 9e3e
00000240: 46f3 39bf cdad e1be f86a 913e 2775 90be
00000250: 8e69 dabe b84d 70bd dcb9 413e b187 603e
00000260: dbbd 0cbd 9e7b 41be 8476 913e d742 e83d
00000270: f3ec 3b3d 5717 bb3d e60d 84be de01 16bf
00000280: 6494 c7be d50f 6b3c e8ec 83be a8d3 ac3e
00000290: 2057 0b3e f8c9 ec3e a617 e93e 3a7e 853e
000002a0: 7d5a a13d b725 f8bd a00f cabe 6074 d13e
000002b0: 3253 c4be 4b5f 8f3e 36a1 df3e 04a1 963d
000002c0: bbe8 ce3e a9f1 a0be dab9 663e 807b 09bf
000002d0: 32d9 c7be be8f a4bd 55de 873e fb39 d9be
000002e0: aa17 203e befa 193f e74b 36be c4fd 7d3e
000002f0: 1232 98bc 3197 0e3f 2751 87bd d362 a33e

bias f4 [64]
0.36780384 0.259637 0.20219585 -0.10053359 -0.37414345 0.29911077 0.25629482 -0.20763727
0.09309548 0.42044604 -0.20223732 -0.21554764 -0.06316928 -0.16682115 0.27336377 -0.09321983
0.50584686 0.37292132 0.4056342 -0.25661054 0.17769237 -0.29817924 -0.31011656 -0.0727601
-0.5042615 -0.0903461 0.14449081 -0.12872274 0.38342887 0.5518623 0.3453419 0.45939535
-0.5996309 0.40588555 0.34589422 0.44063336 -0.09970702 0.46412268 0.23185305 -0.27080378
0.102325656 0.37166947 -0.18058129 0.0068862396 -0.34444252 -0.12636518 -0.36409983 0.32918918
-0.24167678 0.36734688 0.011653976 -0.12069334 0.4431356 0.37989077 0.14444287 0.6189172
-0.58884096 0.020889571 0.5006741 0.18047929 0.5128402 0.28510648 -0.061890434 -0.064423054
00000000: c950 bc3e 24ef 843e 6e0c 4f3e 8ee4 cdbd
00000010: bb8f bfbe 0c25 993e 1339 833e dd9e 54be
00000020: d8a8 be3d b444 d73e 4d17 4fbe 85b8 5cbe
00000030: e55e 81bd 2ad3 2abe 56f6 8b3e 0aea bebd
00000040: 2e7f 013f 8bef be3e 49af cf3e 7562 83be
00000050: fdf4 353e f3aa 98be 99c7 9ebe 3f03 95bd
00000060: 4817 01bf 6007 b9bd 66f5 133e e5cf 03be
00000070: ca50 c43e d946 0d3f a7d0 b03e de35 eb3e
00000080: 6981 19bf 3bd0 cf3e 0c19 b13e b29a e13e
00000090: 3233 ccbd 7da1 ed3e e36a 6d3e cba6 8abe
000000a0: 1d90 d13d 764b be3e 4dea 38be f7a5 e13b
000000b0: c55a b0be e065 01be 4b6b babe 7c8b a83e
000000c0: 1e7a 77be e414 bc3e 51f0 3e3c 122e f7bd
000000d0: abe2 e23e 0b81 c23e d5e8 133e 5c71 1e3f
000000e0: 48be 16bf 9b20 ab3c 2e2c 003f 90cf 383e
000000f0: 7f49 033f 7af9 913e d380 7dbd 3cf0 83bd

weight f4 [64, 64]
-0.09046595 -0.03370324 0.013901023 0.055664834 0.06998484 -0.06757801 0.10854835 -0.009253326
0.09196737 0.043283824 0.071736045 0.026293984 -0.006473407 0.091892496 0.013380988 -0.09630701
-0.023132037 -0.11413553 -0.113652594 -0.08097849 -0.008696154 -0.0074193585 -0.026826205 0.033082698
-0.10834137 0.013512924 -0.061769895 0.059666917 -0.010684201 -0.07035758 -0.10386586 -0.115529805
-0.03256725 -0.11357877 -0.11583771 0.040834203 -0.040392812 0.081890374 0.03540349 0.009667885
0.064872906 -0.10854235 -0.09460355 -0.089890786 -0.05505871 0.07112203 -0.044628844 0.058596067
0.027676225 0.065494426 0.109539226 -0.034674294 0.060715076 -0.09761192 -0.02791073 -0.103342354
0.10151483 0.09308978 -0.118306994 -0.011809973 -0.0127880955 0.03461739 0.040451273 -0.016835734
-0.17667565 0.013623165 0.022817368 0.039645143 0.087622926 -0.07404521 -0.12354635 -0.047661077
-0.095909275 -0.008792938 0.07060354 0.14699648 0.06295128 0.1196175 -0.21497054 0.13489965
-0.087454826 0.010618175 0.042457215 0.03606029 -0.00712817 0.08949067 -0.10676985 0.04623019
0.03438505 -0.028772991 0.07713535 -0.18480362 -0.08085349 -0.105008714 -0.062333815 -0.030480789
-0.021227954 -0.20241572 0.106828146 0.019781927 -0.050213173 0.09417065 0.016611144 0.0050428896
0.029834941 -0.08722534 -0.06354795 0.04244799 -0.13928428 -0.13354062 -0.17448366 -0.05234076
-0.02685568 -0.16498224 -0.03178605 -0.024060866 0.105319075 0.10254564 -0.10956663 0.019397872
0.16166395 0.104659185 -0.019970858 0.13200279 -0.02065411 -0.040791225 0.11868624 0.15738109
0.054904502 -0.003268158 -0.024018701 -0.031198518 0.059953306 0.00041532225 0.113209315 0.057646926
0.13460505 -0.06279004 0.08100703 0.14319898 -0.026073372 0.061936997 -0.05281181 0.08134003
-0.09004598 -0.07600086 0.12961379 -0.08629655 0.08591979 -0.12609714 -0.17037384 -0.09536918
0.13448355 -0.08868796 0.12210698 -0.18487643 -0.039126743 -0.004986032 -0.11327858 0.044220038
0.15766695 -0.16153152 0.09320327 -0.091384016 0.046319902 -0.10943279 0.04468645 0.09996964
-0.020395622 0.06543347 0.10475223 -0.05737586 0.09898402 0.015115667 -0.08586335 0.109822705
-0.19882743 0.019091707 -0.027257081 -0.05933213 -0.012672576 0.10410047 -0.09025609 0.05867089
-0.09792937 0.014518675 0.06285515 0.08637136 -0.19157359 -0.021974 -0.043725427 0.04738774
0.024222793 0.09623582 0.00028762376 0.07295609 0.0198089 0.054592095 0.042025108 -0.069960475
-0.115494825 0.11419456 0.00049399637 0.120296754 0.017320147 4.9273385e-05 -0.05503823 0.12651743
-0.0021396442 -0.062707365 0.1059691 -0.02887162 -0.1001031 0.06965405 -0.1297926 -0.044316024
-0.09597756 -0.07870599 0.00798231 -0.02519785 -0.016261147 0.022497425 0.007394821 0.14107856
-0.100804254 0.034017924 0.06312874 -0.027972015 0.1583337 0.019314675 0.062688224 0.06816534
-0.022406103 -0.034997717 0.073843166 -0.014912518 -0.09403799 -0.016608488 0.081675194 0.030115502
-0.09967865 0.06876852 0.1013412 -0.010305523 0.07551776 0.088470794 -0.032869462 0.06385795
-0.078577995 -0.08353825 0.07629107 -0.131186 -0.10579832 0.12019554 -0.1618057 -0.019169735
00000000: 3646 b9bd 690c 0abd 1ec1 633c cf00 643d
00000010: 3654 8f3d 5766 8abd 994e de3d 439b 17bc
00000020: 6359 bc3d 614a 313d 59ea 923d 7b66 d73c
00000030: e01e d4bb 2232 bc3d ee3b 5b3c 9c3c c5bd
00000040: 667f bdbc e4bf e9bd b1c2 e8bd 0dd8 a5bd
00000050: 507a 0ebc 171e f3bb a1c2 dbbc b981 073d
00000060: 15e2 ddbd 5065 5d3c 6e02 7dbd 4c65 743d
00000070: c90c 2fbc a317 90bd a0b7 d4bd e49a ecbd
00000080: 3d65 05bd fc9b e8bd 523c edbd c441 273d
00000090: ef72 25bd 24b6 a73d 4003 113d 0c66 1e3c
000000a0: 16dc 843d 744b debd 82bf c1bd a918 b8bd
000000b0: 3e85 61bd 6da8 913d bccc 36bd 6e02 703d
000000c0: 40b9 e23c f121 863d 1a56 e03d a206 0ebd
000000d0: 5fb0 783d c2e8 c7bd 0ba5 e4bc 28a5 d3bd
000000e0: 02e7 cf3d dba5 be3d f04a f2bd 9e7e 41bc
000000f0: 2985 51bc f7ca 0d3d 3cb0 253d 18eb 89bc
00000100: 76ea 34be b233 5f3c 7deb ba3c f262 223d
00000110: a673 b33d 04a5 97bd de05 fdbd 4338 43bd
00000120: 156c c4bd 4110 10bc 9798 903d 3f86 163e
00000130: 9aec 803d 05fa f43d 3d21 5cbe 2223 0a3e
00000140: 841b b3bd dbf7 2d3c 9ee7 2d3d f4b3 133d
00000150: 6d93 e9bb e246 b73d 27aa dabd de5b 3d3d
00000160: 57d7 0c3d 56b5 ebbc 23f9 9d3d 293d 3dbe
00000170: 8496 a5bd cf0e d7bd be51 7fbd d9b2 f9bc
00000180: 3fe6 adbc 1146 4fbe b7c8 da3d b50d a23c
00000190: 54ac 4dbd 8bdc c03d 1814 883c d33e a53b
000001a0: 6868 f43c 33a3 b2bd 6d25 82bd f2dd 2d3d
000001b0: 8aa0 0ebe dfbe 08be d8ab 32be 4463 56bd
000001c0: 7100 dcbc 1bf1 28be 1732 02bd 4b1b c5bc
000001d0: 87b1 d73d 7303 d23d 7864 e0bd 49e8 9e3c
000001e0: 3c8b 253e 8e57 d63d ed99 a3bc bd2b 073e
000001f0: cf32 a9bc b314 27bd c511 f33d 8228 213e
00000200: 8be3 603d 982e 56bb dec2 c4bc 0994 ffbc
00000210: 9991 753d 9cbf d939 49da e73d 2f1f 6c3d
00000220: e8d5 093e 1198 80bd 04e7 a53d c1a2 123e
00000230: d397 d5bc a6b1 7d3d 3251 58bd 9a95 a63d
00000240: 076a b8bd 57a6 9bbd 7ab9 043e 3fbc b0bd
00000250: b7f6 af3d 9c1f 01be 7b76 2ebe eb50 c3bd
00000260: 0eb6 093e 08a2 b5bd 3913 fa3d 3f50 3dbe
00000270: 5d43 20bd de61 a3bb 9afe e7bd 1220 353d
00000280: 7273 213e 8568 25be 5be1 be3d 8b27 bbbd
00000290: f0b9 3d3d 4c1e e0bd 2409 373d e2bc cc3d
000002a0: b814 a7bc fc01 863d 5688 d63d f302 6bbd
000002b0: 22b8 ca3d b4a7 773c 20d9 afbd baea e03d
000002c0: 6b99 4bbe 3666 9c3c 3e4a dfbc 3f06 73bd
000002d0: a3a0 4fbc a132 d53d 2fd8 b8bd e350 703d
000002e0: 328f c8bd bddf 6d3c 33ba 803d 78e3 b03d
000002f0: de2b 44be d102 b4bc 6f19 33bd a619 423d
00000300: e16e c63c 4917 c53d 35cc 9639 016a 953d
00000310: 4646 a23c f69b 5f3d 8522 2c3d 7047 8fbd
00000320: 8d88 ecbd d6de e93d 897f 013a 255e f63d
00000330: fbe2 8d3c e5aa 4e38 c46f 61bd c98d 013e
00000340: 4639 0cbb b86c 80bd 5406 d93d 2d84 ecbc
00000350: db02 cdbd c8a6 8e3d 5ae8 04be b884 35bd
00000360: e28f c4bd 9b30 a1bd 3cc8 023c b96b cebc
00000370: 1936 85bc 854c b83c 4150 f23b e676 103e
00000380: 7672 cebd 6156 0b3d a449 813d 9125 e5bc
00000390: 3b22 223e cf39 9e3c af62 803d 459a 8b3d
000003a0: 018d b7bc c459 0fbd 163b 973d a253 74bc
000003b0: fd96 c0bd 860e 88bc 5345 a73d c9b4 f63c
000003c0: 5224 ccbd 83d6 8c3d fa8b cf3d 7fd8 28bc
000003d0: 0ea9 9a3d 2d30 b53d 21a2 06bd f5c7 823d
000003e0: 80ed a0bd 1a16 abbd 7e3e 9c3d 9f55 06be
000003f0: caac d8bd 1429 f63d 65b0 25be d909 9dbc

bias f4 [64]
0.08431935 -0.08026998 0.062089514 0.024202636 0.051155895 -0.012678046 -0.15087809 -0.10828794
0.06608203 0.012975148 0.009951556 -0.05819198 0.07324723 -0.120392084 -0.07843325 -0.052540682
-0.013109488 0.13004938 0.066809274 -0.011203408 -0.011055 0.021338563 0.096665986 -0.01781736
0.069148436 0.041142873 0.038491484 -0.056213036 0.06416865 0.090299375 -0.18906692 0.015171007
-0.03571938 0.1526325 0.002575381 0.0017641076 0.115970954 0.14577131 -0.017216433 -0.0021189384
0.10447115 0.11429875 -0.033751752 0.13469493 -0.095266216 -0.008528722 0.1402934 -0.15807232
-0.050072648 0.005053115 0.06694827 0.0583798 -0.079183824 0.10767751 0.07960729 0.07520906
0.09580153 -0.14777933 0.09802829 -0.06684044 0.11312674 -0.1686009 0.05877801 -0.122308224
00000000: a0af ac3d 9664 a4bd 9351 7e3d 9b44 c63c
00000010: d888 513d 94b7 4fbc c97f 1abe 11c6 ddbd
00000020: 0456 873d b795 543c da0b 233c b75a 6ebd
00000030: a502 963d 2090 f6bd 9da1 a0bd e634 57bd
00000040: 2ec9 56bc aa2b 053e 4dd3 883d 808e 37bc
00000050: 0820 35bc 36ce ae3c d1f8 c53d b6f5 91bc
00000060: b29d 8d3d 6e85 283d 3fa9 1d3d a43f 66bd
00000070: da6a 833d e1ee b83d c29a 41be d18f 783c
00000080: 7c4e 12bd b24b 1c3e b9c7 283b a139 e73a
00000090: 2e82 ed3d 1345 153e 7a09 8dbc e3dd 0abb
000000a0: f8f4 d53d 7715 ea3d 473f 0abd 78ed 093e
000000b0: ef1a c3bd 0ebc 0bbc 13a9 0f3e b6dd 21be
000000c0: fa18 4dbd 9a94 a53b 2d1c 893d a81f 6f3d
000000d0: 212b a2bd 0786 dc3d 2609 a33d 3507 9a3d
000000e0: 9833 c43d 7753 17be 0ec3 c83d a4e3 88bd
000000f0: feae e73d b7a5 2cbe 36c1 703d bc7c fabd

weight f4 [64, 64]
0.024309441 0.13268365 0.058247585 0.07504965 -0.010096317 -0.027187383 0.102223665 0.056710333
-0.05794241 0.07230606 -0.026107853 -0.100496456 -0.099275015 -0.049235806 -0.013600394 -0.057075474
0.15749758 -0.014897039 -0.0527343 -0.08349619 -0.053951558 -0.042170193 -0.016751273 0.11069812
0.115539216 -0.038787466 -0.05822563 0.017604187 0.016691947 -0.023457168 -0.014001795 0.06617519
-0.0329694 -0.007823508 0.08670252 0.02599179 0.03618665 -0.053079247 0.08554658 -0.042211913
0.1193778 0.08059349 0.13972086 0.017478239 0.021769227 -0.019254148 0.058348544 0.11758006
0.13869879 -0.074827775 -0.07865595 -0.12550597 0.09666335 0.1417503 0.073181674 -0.07973822
0.024964547 0.11231326 0.05636252 -0.080140986 0.059273455 -0.023440514 -0.011800525 -0.10197921
-0.044948276 -0.09963336 0.12972714 0.12672237 -0.016236352 -0.18767682 -0.13268656 0.070718095
-0.038986295 0.064666994 -0.029887892 0.048935633 0.03971159 -0.0031697638 0.010090634 -0.10670471
-0.09038173 0.036664736 0.14321874 0.08085309 -0.086275846 0.0766806 0.030861698 -0.15688515
-0.080966964 0.019796679 0.11380086 0.11011343 -0.052573487 0.115784876 -0.02970212 0.019471977
0.0072529465 -0.086969614 -0.013778134 -0.07534841 0.087194145 0.13290255 -0.083073266 0.04828099
-0.11166605 -0.10300783 0.049887795 -0.09779672 0.026430385 0.08653347 -0.037797283 -0.004233728
0.094158195 0.09282476 -0.04850756 0.032389816 -0.07189381 -0.02561359 -0.06707194 -0.024113696
-0.08571452 -0.068807095 -0.05042573 0.119971246 -0.10538167 0.057548374 0.0678972 -0.016576426
-0.041233897 0.04926926 -0.026339063 0.059359998 0.014898221 0.17052896 -0.06284766 -0.09933876
0.02551578 -0.12857912 -0.07548135 0.079674214 -0.09656901 0.0010714843 -0.0466472 -0.14563823
3.3307766e-05 -0.027084617 0.098442055 0.111859724 0.10112604 -0.029412096 -0.025218088 0.109290615
-0.05284104 -0.06811852 -0.024906294 -0.04308343 0.08623923 0.01647418 0.0023942632 -0.07011603
0.109533325 -0.044112314 -0.0065132855 0.02845577 -0.007304998 -0.07911351 -0.011052167 0.07345674
-0.017698472 0.15677547 -0.052300863 0.041176848 0.0697931 0.14315102 -0.021477165 -0.030376852
0.12059331 0.025948245 -0.1220059 -0.0785535 0.11213439 0.071102045 0.041044887 -0.07232979
-0.074618414 -0.021671742 0.14047903 0.039051563 -0.040457144 -0.07096324 0.10716015 0.0010642409
-0.09966835 -0.009332987 0.055057965 0.13140568 0.068155505 -0.10938564 0.028165301 0.07620199
0.04549526 0.113156535 -0.12570037 -0.055602193 0.0921781 0.013975445 -0.072951615 0.014860913
-0.12937735 0.117583945 0.024453968 -0.034238946 -0.02612232 0.13980415 0.10806432 -0.07560069
0.03036271 -0.08558882 -0.020631142 -0.028500497 0.12170164 -0.09637489 0.0015407111 -0.04834395
-0.07387163 -0.081162535 0.0004995816 -0.03898478 0.08957378 0.12485387 -0.05728789 0.14002322
-0.021442197 0.073764816 0.13726647 0.052695602 -0.0983354 0.106184445 -0.07281094 -0.072354525
-0.12456657 -0.055811398 0.013605455 0.07948307 0.013081683 -0.10013677 0.10694619 -0.07501756
-0.081526704 -0.12520061 0.09336271 -0.119945884 -0.016896045 -0.06539938 0.026301319 -0.056173578
00000000: 9824 c73c 39de 073e 0595 6e3d a2b3 993d
00000010: 066b 25bc 13b8 debc a45a d13d 1849 683d
00000020: 0555 6dbd 3315 943d 23e0 d5bc 16d1 cdbd
00000030: b350 cbbd 7cab 49bd 30d4 5ebc f9c7 69bd
00000040: 0c47 213e b612 74bc ecff 57bd 0d00 abbd
00000050: 4ffc 5cbd a7ba 2cbd f739 89bc b2b5 e23d
00000060: d39f ec3d 9bdf 1ebd 007e 6ebd a836 903c
00000070: 8dbd 883c 3f29 c0bc c967 65bc dc86 873d
00000080: ec0a 07bd 2c2e 00bc 1791 b13d bcec d43c
00000090: 7438 143d a069 59bd 0c33 af3d 66e6 2cbd
000000a0: 597c f43d 330e a53d fc12 0f3e 862e 8f3c
000000b0: 6155 b23c e0ba 9dbc e2fe 6e3d d1cd f03d
000000c0: 0e07 0e3e 4e3f 99bd 5f16 a1bd a384 00be
000000d0: 6ff7 c53d fe26 113e 46e0 953d cb4d a3bd
000000e0: 7382 cc3c 7f04 e63d 63dc 663d f520 a4bd
000000f0: b9c8 723d 5206 c0bc fd56 41bc 7ada d0bd
00000100: af1b 38bd 930c ccbd 31d7 043e 82c3 013e
00000110: 1902 85bc 5a2e 40be fcde 07be a6d4 903d
00000120: 18b0 1fbd 2170 843d 74d7 f4bc bb70 483d
00000130: 9fa8 223d d0bb 4fbb 3053 253c 0088 dabd
00000140: 0e1a b9bd c32d 163d efa7 123e 4e96 a53d
00000150: 64b1 b0bd b80a 9d3d acd1 fc3c 80a6 20be
00000160: 02d2 a5bd a52c a23c 6d10 e93d 2683 e13d
00000170: 4c57 57bd 9f20 ed3d dc51 f3bc b283 9f3c
00000180: 20aa ed3b 201d b2bd afbd 61bc 4450 9abd
00000190: d892 b23d 9b17 083e 5122 aabd 4ac2 453d
000001a0: 2cb1 e4bd c5f5 d2bd 2557 4c3d a649 c8bd
000001b0: 8984 d83c 7638 b13d 53d1 1abd 16bb 8abb
000001c0: 03d6 c03d e81a be3d ddaf 46bd 2fab 043d
000001d0: 103d 93bd 97d3 d1bc 035d 89bd 168a c5bc
000001e0: 188b afbd bcea 8cbd 368b 4ebd 7cb3 f53d
000001f0: 58d2 d7bd d8b7 6b3d b00d 8b3d 49cb 87bc
00000200: e0e4 28bd 90ce 493d 05c5 d7bc 7823 733d
00000210: ab17 743c 259f 2e3e 46b6 80bd 1f72 cbbd
00000220: 7806 d13c 3faa 03be f795 9abd 3c2c a33d
00000230: f9c5 c5bd 0c71 8c3a 2211 3fbd 3022 15be
00000240: f1b3 0b38 8fe0 ddbc fd9b c93d b616 e53d
00000250: 2b1b cf3d a3f1 f0bc 2a96 cebc c2d3 df3d
00000260: d96f 58bd b981 8bbd 4908 ccbc 4078 30bd
00000270: 329e b03d dcf4 863c 12e9 1c3b fe98 8fbd
00000280: 0253 e03d 1daf 34bd 666d d5bb 131c e93c
00000290: c45e efbb 4406 a2bd 2614 35bc 7d70 963d
000002a0: 63fc 90bc c089 203e 6e39 56bd 0ea9 283d
000002b0: afef 8e3d 2e96 123e e1f0 afbc e0d8 f8bc
000002c0: a0f9 f63d 6a91 d43c 3bde f9bd a8e0 a0bd
000002d0: b7a6 e53d f39d 913d af1e 283d a421 94bd
000002e0: 8ad1 98bd f088 b1bc bcd9 0f3e 88f4 1f3d
000002f0: 64b6 25bd 2d55 91bd c876 db3d 007e 8b3a
00000300: eb1e ccbd 62e9 18bc 7684 613d 368f 063e
00000310: 1d95 8b3d 9405 e0bd ebba e63c ca0f 9c3d
00000320: 3d59 3a3d 9dbe e73d 99b7 00be 20bf 63bd
00000330: dfc7 bc3d 44f9 643c a867 95bd 307b 733c
00000340: 7f7b 04be dacf f03d b053 c83c 233e 0cbd
00000350: 7afe d5bc d228 0f3e d450 dd3d 89d4 9abd
00000360: 38bb f83c 3149 afbd a402 a9bc e079 e9bc
00000370: b63e f93d 3360 c5bd b0f1 c93a 4e04 46bd
00000380: 024a 97bd 8b38 a6bd 5bf6 023a 81ae 1fbd
00000390: 7572 b73d 63b3 ff3d b5a6 6abd 3f62 0f3e
000003a0: 8ca7 afbc 0212 973d 958f 0c3e 58d7 573d
000003b0: 1264 c9bd 3b77 d93d e71d 95bd 9c2e 94bd
000003c0: c21c ffbd 7e9a 64bd 6ae9 5e3c 05c8 a23d
000003d0: 8e54 563c 8214 cdbd 9b06 db3d cea2 99bd
000003e0: 79f7 a6bd 9734 00be f334 bf3d 30a6 f5bd
000003f0: 9369 8abc 1cf0 85bd dd75 d73c 4416 66bd

bias f4 [64]
-0.04354743 0.06368538 0.09189105 0.12087454 -0.13838345 -0.07561916 -0.03890871 -0.09456703
0.08125843 -0.100097075 0.0695937 0.0671329 0.030408617 -0.109350115 -0.027182082 -0.045476876
-0.11236734 -0.09241964 0.09265375 0.061531458 -0.03511557 0.07242643 0.068629295 -0.030647788
-0.09775233 0.0012511768 -0.01927293 0.041616153 -0.08111203 0.09455608 -0.0896862 -0.021417212
0.012662485 0.11849458 0.06982802 -0.11543804 -0.108626276 -0.03598026 0.036243133 0.013561093
0.122785784 0.06171588 0.022401633 -0.07774862 -0.013840559 0.0938617 -0.086129084 0.13283572
-0.0860163 0.0748426 -0.09969406 -0.013256985 -0.051668573 -0.12043739 -0.13395384 -0.13419311
0.023268607 0.1179002 0.04607976 -0.060622714 -0.0222956 0.10438768 -0.07670955 -0.09069983
00000000: ca5e 32bd 7b6d 823d 6031 bc3d 128d f73d
00000010: 64b4 0dbe 38de 9abd bd5e 1fbd 5cac c1bd
00000020: d26a a63d b2ff ccbd 2487 8e3d f97c 893d
00000030: 7e1b f93c f4f2 dfbd f5ac debc f645 3abd
00000040: d920 e6bd 8246 bdbd 40c1 bd3d 6908 7c3d
00000050: 58d5 0fbd 4f54 943d 848d 8c3d 1211 fbbc
00000060: 6032 c8bd 87fe a33a 44e2 9dbc b375 2a3d
00000070: 101e a6bd 9ea6 c13d 66ad b7bd 2673 afbc
00000080: 5076 4f3c 49ad f23d fe01 8f3d c76a ecbd
00000090: 7477 debd 0a60 13bd ae73 143d 592f 5e3c
000000a0: 1d77 fb3d cac9 7c3d a183 b73c ab3a 9fbd
000000b0: 83c3 62bc 903a c03d 7264 b0bd 1606 083e
000000c0: 5029 b0bd 1447 993d 662c ccbd d333 59bc
000000d0: 6da2 53bd e1a7 f6bd 322b 09be eb69 09be
000000e0: ce9d be3c a975 f13d 21be 3c3d 864f 78bd
000000f0: 43a5 b6bc 35c9 d53d e619 9dbd d5c0 b9bd

weight f4 [64, 64]
0.16126099 -0.041455824 0.07234697 -0.0054028146 0.010765725 0.03012325 0.06754841 0.12339645
0.072610945 0.055544987 0.07464236 0.17092983 0.12066591 -0.05705193 -0.011822211 0.060244087
-0.02852497 0.0029036084 0.13233644 -0.11050054 -0.124338455 0.036565848 0.038696688 -0.05338177
-0.07872507 -0.07697934 0.08649018 0.10722931 -0.042684376 -0.12272816 -0.037488267 0.14926758
0.09152667 0.17049195 -0.12867916 -0.04973551 -0.100695245 0.042493086 0.0067152553 0.107765935
-0.10722818 0.024553256 -0.010659887 0.098757945 0.007711038 0.019142061 -0.12062097 -0.013485364
0.091821015 -0.053182103 -0.054951206 -0.10034952 0.103289984 -0.10169809 0.0781096 0.07791129
-0.07673715 -0.13620982 -0.04641024 -0.016634783 -0.04728782 0.041585192 0.054135084 0.057248037
0.16664521 -0.032007918 -0.05068265 -0.0111720385 -0.1144815 0.054957744 -0.09226771 -0.04325362
-0.09056941 0.04611031 -0.004865269 0.030105816 0.06676376 -0.09438579 0.1326771 0.013778935
-0.07954684 0.010901421 0.05505007 -0.08745628 0.061021782 -0.051468693 -0.07495351 -0.0104753515
0.09354137 -0.029839678 -0.0102956 -0.102180004 0.07146673 0.1474414 -0.051333442 -0.1218992
0.046737686 -0.051987562 0.023137465 -0.11851856 -0.035992708 0.026729073 -0.07727979 -0.051040854
-0.08297281 0.102475695 0.070609026 -0.0576729 0.067185014 -0.17093076 -0.062057972 -0.14315857
-0.0012729908 -0.077973165 -0.12130067 -0.025174705 0.022817343 -0.09509644 -0.13867556 -0.004802049
-0.020589814 -0.13472831 0.12208774 0.09699842 0.10322769 0.04494678 -0.09451137 0.16351683
0.10581246 0.10099001 0.1050388 0.029606948 0.070256434 -0.05040331 0.08729251 0.07205724
0.06104076 -0.03951743 5.55552e-05 -0.01162483 0.012298405 0.07867714 0.009550495 0.023340745
0.07736717 -0.066530615 -0.068110645 -0.069248565 0.051517177 0.03794318 -0.080676645 0.09498429
0.00643453 -0.012098931 0.06735214 -0.06957025 0.04522462 -0.069853164 -0.059084043 0.07026372
-0.06524527 0.074211076 -0.030929932 -0.013152699 0.09692049 0.018330598 -0.025121288 -0.063114524
-0.09829535 0.103226095 0.026886925 -0.081939414 -0.014772551 0.06493264 -0.07844385 -0.119056724
0.014588379 0.022072267 -0.09522335 -0.021780275 -0.0028160233 0.066783234 -0.050971214 0.03909283
-0.012451035 0.088180006 0.054221306 -0.09673268 -0.036121085 0.020239986 0.08403459 0.05330157
-0.11845695 -0.0015866181 0.06287854 0.054916494 0.060664386 0.08958557 -0.011796513 0.009036703
0.10411894 0.048281092 0.11260365 -0.0074655004 -0.106447496 -0.0027710472 0.036669802 0.090509
-0.017475348 0.09030119 -0.059250932 0.07210572 0.12980315 -0.05412971 0.12235995 -0.044270135
-0.075409874 0.08528699 0.027630458 0.012992086 0.064039424 -0.037636403 -0.10215178 -0.0654993
-0.06282067 -0.076065786 0.008818057 -0.030939499 -0.058359858 -0.062159304 0.016888782 0.01962892
0.14562303 0.12901624 0.013493719 -0.0741209 -0.06851124 0.1022151 0.059547294 0.015149911
-0.10182881 -0.01283656 0.053423014 0.083314195 0.010220566 0.02049637 -0.08891824 -0.0769619
-0.019297095 0.08244605 0.10459467 -0.0018554471 -0.039119497 0.113767765 0.12838975 0.00819605
00000000: 9a21 253e 95cd 29bd a62a 943d 180a b1bb
00000010: b962 303c 09c5 f63c d256 8a3d 47b7 fc3d
00000020: 0cb5 943d 2483 633d 18de 983d 3b08 2f3e
00000030: b01f f73d 49af 69bd f2b1 41bc 81c2 763d
00000040: 33ad e9bc 774a 3e3b 3483 073e 1b4e e2bd
00000050: 29a5 febd 12c6 153d 6b80 1e3d d8a6 5abd
00000060: 9c3a a1bd 58a7 9dbd c321 b13d 0a9b db3d
00000070: d0d5 2ebd e758 fbbd 4c8d 19bd 9ad9 183e
00000080: 5672 bb3d 7195 2e3e 78c4 03be 76b7 4bbd
00000090: 4f39 cebd 3b0d 2e3d a50b dc3b 63b4 dc3d
000000a0: 739a dbbd e923 c93c cfa6 2ebc 9b41 ca3d
000000b0: e0ac fc3b d0cf 9c3c 2108 f7bd b7f1 5cbc
000000c0: a80c bc3d 7ad5 59bd 8414 61bd 0d84 cdbd
000000d0: b389 d33d 1747 d0bd edf7 9f3d f48f 9f3d
000000e0: 5e28 9dbd 967a 0bbe aa18 3ebd ab45 88bc
000000f0: e0b0 41bd 3c55 2a3d c0bc 5d3d eb7c 6a3d
00000100: 0ba5 2a3e bc1a 03bd 9c98 4fbd ed0a 37bc
00000110: 4775 eabd 5f1b 613d daf6 bcbd b52a 31bd
00000120: 747c b9bd 2ade 3c3d d66c 9fbb 79a0 f63c
00000130: 70bb 883d 564d c1bd 81dc 073e 0bc1 613c
00000140: 74e9 a2bd e09b 323c 2f7c 613d 471c b3bd
00000150: faf1 793d d6d0 52bd 3a81 99bd cfa0 2bbc
00000160: 9e92 bf3d 5772 f4bc e0ae 28bc c043 d1bd
00000170: 265d 923d e1fa 163e 0443 52bd 4aa6 f9bd
00000180: 0470 3f3d e9f0 54bd c88a bd3c dcb9 f2bd
00000190: 176d 13bd eef6 da3c de44 9ebd 3710 51bd
000001a0: a6ed a9bd c7de d13d 779b 903d 6b3a 6cbd
000001b0: 4c98 893d 7908 2fbe 8030 7ebd 2998 12be
000001c0: 7cda a6ba 65b0 9fbd 7c6c f8bd 2f3b cebc
000001d0: 70eb ba3c ecc1 c2bd f700 0ebe 825a 9dbb
000001e0: f8ab a8bc 38f6 09be 2309 fa3d 1ca7 c63d
000001f0: 0a69 d33d 1d1a 383d 2d8f c1bd f570 273e
00000200: 34b4 d83d dad3 ce3d 951e d73d 458a f23c
00000210: 9be2 8f3d b473 4ebd 6ac6 b23d bf92 933d
00000220: e005 7a3d 07dd 21bd f103 6938 1276 3ebc
00000230: 407f 493c 7b21 a13d ae79 1c3c 1735 bf3c
00000240: ae72 9e3d 3441 88bd 987d 8bbd 31d2 8dbd
00000250: ad03 533d 4f6a 1b3d cc39 a5bd 2087 c23d
00000260: c0d8 d23b 983a 46bc ebef 893d d97a 8ebd
00000270: 733d 393d 2d0f 8fbd 1c02 72bd 6de6 8f3d
00000280: 509f 85bd fafb 973d c560 fdbc 6b7e 57bc
00000290: 407e c63d 0d2a 963c 29cb cdbc 3042 81bd
000002a0: 134f c9bd 3468 d33d f841 dc3c dacf a7bd
000002b0: 9208 72bc 67fb 843d 2ba7 a0bd 03d4 f3bd
000002c0: 1904 6f3c e6d0 b43c 7604 c3bd 8c6c b2bc
000002d0: 088d 38bb a6c5 883d 31c7 50bd ce1f 203d
000002e0: 6dff 4bbc b897 b43d 2917 5e3d c91b c6bd
000002f0: b4f3 13bd 54ce a53c 541a ac3d bf52 5a3d
00000300: 8f99 f2bd 12f6 cfba 77c6 803d 1ef0 603d
00000310: 387b 783d a478 b73d 2946 41bc ae0e 143c
00000320: 503c d53d 65c2 453d be9c e63d 28a1 f4bb
00000330: 2501 dabd 759a 35bb 1333 163d c85c b93d
00000340: 7628 8fbc d5ef b83d 1bb1 72bd 2aac 933d
00000350: 1eeb 043e 1db7 5dbd da97 fa3d 9a54 35bd
00000360: 7e70 9abd f2aa ae3d 4559 e23c c2dc 543c
00000370: 1a27 833d a128 1abd f434 d1bd 7f24 86bd
00000380: 20a8 80bd 61c8 9bbd 9d79 103c d574 fdbc
00000390: bf0a 6fbd c19a 7ebd 585a 8a3c d4cc a03c
000003a0: 341e 153e d51c 043e c214 5d3c b3cc 97bd
000003b0: 9f4f 8cbd 2656 d13d dde7 733d 5537 783c
000003c0: a08b d0bd 6f50 52bc 17d2 5a3d a2a0 aa3d
000003d0: 2974 273c 01e8 a73c c41a b6bd 339e 9dbd
000003e0: f114 9ebc 7ad9 a83d bb35 d63d 7932 f3ba
000003f0: c43b 20bd 13ff e83d 9a78 033e ba48 063c

bias f4 [64]
-0.03672832 -0.09943324 0.09747333 0.0106894355 -0.008698912 -0.1326062 0.047547817 -0.05149795
0.079217725 -0.06998919 -0.06163151 0.12218188 -0.0755654 0.032910503 -0.0029304882 -0.0058769817
0.06109664 -0.053724937 -0.05534782 -0.044627964 0.050361525 -0.050979204 0.12406184 -0.039013922
-0.05855639 0.08322764 -0.0732963 -0.0660564 0.03743029 0.055256143 0.11148109 -0.038917955
-0.062204298 -0.036011823 -0.07915385 0.0383351 -0.076517135 0.14985196 -0.024951814 0.046470035
0.093561985 -0.06448154 0.09285137 0.06719143 0.11499892 -0.002518091 -0.010163814 -0.05256444
-0.037761137 -0.024851888 0.048019525 -0.117042094 0.12425206 0.052787043 -0.007909228 -0.03824283
-0.09792259 0.14174968 0.071160436 -0.0520103 0.019083058 0.06930816 0.09493242 -0.051163677
00000000: 6f70 16bd a8a3 cbbd 19a0 c73d be22 2f3c
00000010: e285 0ebc ebc9 07be 80c1 423d 84ef 52bd
00000020: e73c a23d 7e56 8fbd 5271 7cbd 7e3a fa3d
00000030: 08c2 9abd 2acd 063d 6f0d 40bb b293 c0bb
00000040: 7840 7a3d ae0e 5cbd 65b4 62bd d0cb 36bd
00000050: e347 4e3d 92cf 50bd 2214 fe3d 10cd 1fbd
00000060: d3d8 6fbd 4173 aa3d 5f1c 96bd 9448 87bd
00000070: 8150 193d 4454 623d 3350 e43d 6f68 1fbd
00000080: efc9 7ebd 2281 13bd 6a1b a2bd 4405 1d3d
00000090: 04b5 9cbd cb72 193e bf67 ccbc 5d57 3e3d
000000a0: 6d9d bf3d e60e 84bd dc28 be3d a99b 893d
000000b0: 8e84 eb3d 8e06 25bb 2086 26bc cf4d 57bd
000000c0: 6cab 1abd 3096 cbbc 1fb0 443d c4b3 efbd
000000d0: dd77 fe3d 3a37 583d b595 01bc 84a4 1cbd
000000e0: a48b c8bd d426 113e 90bc 913d c108 55bd
000000f0: 1354 9c3c 70f1 8d3d ee6b c23d 0191 51bd

weight f4 [3, 64]
0.06708167 0.10259708 0.012662311 -0.052971423 0.011533693 -0.08744161 0.11425191 0.024493694
-0.10031905 0.009809015 -0.110123254 0.13280414 0.1624275 -0.14773646 0.030328419 -0.008733416
-0.01292598 0.0075421045 0.0046689436 0.17446783 0.12469676 -0.05198857 -0.119582586 0.023053555
0.099019356 -0.12104104 0.07470541 0.030068763 -0.052241962 -0.040988065 -0.10400794 0.044967595
0.21102414 0.049102608 -0.119172126 0.08862237 0.05011222 -0.14581527 0.10188683 0.051838826
-0.033638716 -0.03624867 -0.06592694 -0.051582016 0.0025430573 -0.076272294 0.11929913 -0.09623534
-0.12585051 0.042056724 0.0036939008 -0.07440384 -0.058727372 0.08573531 -0.08825401 0.09648046
-0.108622424 0.09413075 0.029252836 0.0702037 -0.061829396 0.011018333 -0.05703829 0.006913346
0.113893166 0.10950763 0.1592246 -0.0313162 0.06411415 0.07797487 0.041057542 0.116939366
0.030793969 -0.119936764 0.11549466 0.016848885 -0.103278175 -0.089592345 0.025953509 0.16100541
-0.14745584 -0.06768763 -0.11701291 -0.015784226 -0.08163191 0.02626416 -0.12290058 -0.031625174
-0.10454521 -0.15182564 -0.014345485 0.15839523 -0.14450705 0.0050599133 0.034144145 -0.044679042
-0.121097565 0.17553939 -0.048317075 -0.002013432 0.02047158 0.15390241 -0.14676777 0.17002021
0.06781742 -0.09239592 -0.1418448 -0.092236735 -0.047058698 -0.04537196 0.12458944 0.0012979627
0.121902645 -0.05494742 -0.05507754 -0.05569169 0.0975657 -0.17957163 0.08307879 0.053768486
-0.075691186 0.055087622 -0.06923382 0.07490065 -0.012052088 0.14495091 0.1733569 0.06559629
-0.048710044 0.026826102 0.096355215 0.13586202 0.10202719 -0.036700137 0.04961486 -0.058973312
-0.07175811 0.07775543 -0.1396851 -0.12825266 -0.09192336 -0.04787385 0.06756376 0.1098739
0.12140989 -0.024875704 -0.09832192 -0.1074954 0.024824498 0.03281681 0.10645305 -0.10371825
0.13740554 -0.071601085 0.100250065 0.15725082 0.09877716 -0.0029623453 0.06474291 0.099840775
-0.12521261 -0.053524505 0.005217269 0.13757318 0.006340726 -0.12410601 -0.12392667 0.0026841804
0.06356645 0.0916401 0.08565817 -0.097488016 -0.019790232 -0.010718021 0.016361982 0.06313255
-0.06377689 -0.03878881 -0.11381359 -0.048245504 -0.052948676 0.082246795 -0.10840856 -0.01711236
0.062218003 0.13004555 -0.11728264 -0.03641934 0.007956086 -0.046359144 -0.013968349 -0.099467166
00000000: 1d62 893d 6b1e d23d 9575 4f3c 90f8 58bd
00000010: d1f7 3c3c 9614 b3bd e8fc e93d 00a7 c83c
00000020: 1374 cdbd feb5 203c 4d88 e1bd cffd 073e
00000030: 6553 263e 3a48 17be 4e73 f83c 9a16 0fbc
00000040: 7dc7 53bc c223 f73b f0fd 983b b2a7 323e
00000050: 0461 ff3d f7f1 54bd b7e7 f4bd cfda bc3c
00000060: a9ca ca3d 5de4 f7bd 26ff 983d c452 f63c
00000070: abfb 55bd 1ae3 27bd 1d02 d5bd f12f 383d
00000080: b616 583e d11f 493d 8410 f4bd a57f b53d
00000090: 7942 4d3d 9950 15be 0baa d03d f354 543d
000000a0: c0c8 09bd 7c79 14bd b404 87bd aa47 53bd
000000b0: 6ca9 263b a634 9cbd 1a53 f43d 0917 c5bd
000000c0: f5de 00be ac43 2c3d 5f15 723b 0a61 98bd
000000d0: 1d8c 70bd ff95 af3d 85be b4bd 8c97 c53d
000000e0: 6f75 debd 9fc7 c03d a5a3 ef3c f5c6 8f3d
000000f0: d240 7dbd 3d86 343c fba0 69bd 5989 e23b
00000100: d240 e93d 8945 e03d c60b 233e 6a45 00bd
00000110: 484e 833d 4ab1 9f3d f42b 283d e87d ef3d
00000120: a243 fc3c 68a1 f5bd 7788 ec3d ac06 8a3c
00000130: 8283 d3bd 317c b7bd 749c d43c 9ade 243e
00000140: aafe 16be d09f 8abd 77a4 efbd ec4d 81bc
00000150: a12e a7bd f027 d73c 4db3 fbbd 6689 01bd
00000160: cd1b d6bd 2e78 1bbe 5309 6bbc 5c32 223e
00000170: a8f9 13be a1cd a53b bbda 0b3d 5f01 37bd
00000180: 0002 f8bd 99c0 333e 20e8 45bd c9f3 03bb
00000190: 04b4 a73c 9898 1d3e 4a4a 16be c719 2e3e
000001a0: dce3 8a3d 123a bdbd c33f 11be 9de6 bcbd
000001b0: 9fc0 40bd f3d7 39bd c028 ff3d 6720 aa3a
000001c0: 18a8 f93d 8c10 61bd fd98 61bd f81c 64bd
000001d0: 87d0 c73d a0e1 37be 3625 aa3d 583c 5c3d
000001e0: fb03 9bbd 8fa3 613d 76ca 8dbd 8365 993d
000001f0: 1f76 45bc 036e 143e 7984 313e 5957 863d
00000200: 2f84 47bd 6ac2 db3c e255 c53d 6a1f 0b3e
00000210: a2f3 d03d e252 16bd f438 4b3d 008e 71bd
00000220: eaf5 92bd 3d3e 9f3d 9c09 0fbe aa54 03be
00000230: 5142 bcbd 5f17 44bd de5e 8a3d 9105 e13d
00000240: c0a5 f83d 22c8 cbbc 015d c9bd 8c26 dcbd
00000250: bf5c cb3c eb6a 063d 0f04 da3d 3c6a d4bd
00000260: 0ab4 0c3e 97a3 92bd e84f cd3d 5c06 213e
00000270: ae4b ca3d e823 42bb ee97 843d 5279 cc3d
00000280: bc37 00be 833c 5bbd a0f5 aa3b fcdf 0c3e
00000290: ddc5 cf3b 4b2b febd 44cd fdbd 13e9 2f3b
000002a0: 202f 823d cead bb3d 8d6d af3d cca7 c7bd
000002b0: 201f a2bc a39a 2fbc 9009 863c a34b 813d
000002c0: 759d 82bd 04e1 1ebd 1917 e9bd 149d 45bd
000002d0: b6e0 58bd 0271 a83d 4f05 debd 382f 8cbc
000002e0: 4ed8 7e3d a92a 053e e131 f0bd 722c 15bd
000002f0: 3e5a 023c 16e3 3dbd 81db 64bc 71b5 cbbd

bias f4 [3]
0.035334207 0.06385591 -0.025606355
00000000: 9aba 103d e3c6 823d 6bc4 d1bc

exp_avg f4 [64, 3]
0.0003940112 -2.0740845e-06 9.267082e-06 0.00024868178 -6.0532926e-05 -9.5754374e-05 0.00013066398 -2.3879373e-05
-0.00010495432 -1.574092e-05 0.00026543517 -7.476781e-05 0.0003436299 -0.00023808172 0.00014409093 0.00028635008
-9.209683e-05 0.00021287397 0.00031109457 -2.0403078e-05 -3.675558e-05 0.00016224165 0.0004199563 0.00043058975
-0.00051676005 -0.00013818365 -3.2910506e-05 -0.00016702212 0.00015064563 -1.6385035e-05 6.963418e-05 0.00035968408
0.00024936406 -0.00011076581 8.081434e-05 -1.3118016e-05 0.00012207872 -0.00012869627 -8.417344e-05 -0.00026244964
4.9670005e-05 -3.5278543e-05 7.230286e-05 -3.7251473e-05 -0.00012606103 1.033396e-05 -0.00023814633 -0.00022227499
-0.00012756088 -0.00018020063 -0.00039306085 -0.000465711 5.0922234e-05 3.3537308e-05 2.2606628e-06 -0.00011520063
-0.00020620743 -0.0003680483 2.5565421e-05 -5.0704266e-06 -0.00076046766 -5.807728e-05 -0.00019803831 1.8919654e-05
-0.00017762599 0.0004191035 -0.00010316281 -0.00053869234 0.00024877957 -0.00021063219 0.00014536774 7.182384e-05
0.000164428 5.727738e-05 0.00018894229 -0.00033837793 -2.9713246e-05 -0.000140313 -5.0138136e-05 -0.0006178103
0.00019361709 0.00020805182 -0.00017878196 0.00020279124 -7.045279e-05 0.00040608132 -0.00025700012 -0.00056401343
9.6324155e-05 -0.00014605225 -0.00026846078 -7.981846e-05 -4.019968e-06 -0.0001318052 -2.2936381e-05 -0.00028094914
-4.2756954e-05 1.2414278e-05 4.995934e-06 2.8395016e-05 -0.00010535331 6.799637e-05 0.00012132535 -0.0001985855
-1.7870063e-06 1.9707027e-06 -0.00028380408 -0.00032679262 1.9741494e-05 -0.000365664 0.00013917884 -0.00039076337
7.192274e-05 -0.00035099397 -0.00012805365 0.00031996483 2.5262878e-05 8.294129e-05 -0.00034476214 0.00012726439
5.6699333e-05 -4.6415855e-05 -2.4792418e-05 0.00020895553 -2.4896055e-05 -5.141806e-05 0.00042080812 4.57439e-05
8.6648004e-05 -4.6307643e-05 4.9318918e-05 4.2314838e-05 -0.00011099771 -0.00016333089 0.00013068272 -0.00022673038
0.00014474694 1.7063095e-06 -0.0009299707 -0.00012493745 0.00039656163 0.00013314954 0.00011039043 -0.00015295476
0.00020507083 -0.00027576843 -0.00020695449 0.0003389734 0.00081706984 -3.1495685e-05 -5.9342252e-05 -1.0270331e-05
0.00013016893 0.00028643064 -0.00013768247 0.00016841001 -1.0710507e-05 -5.5138407e-05 -0.00018568507 0.00032669908
0.00034343635 -0.00024737878 0.00021735021 7.8592275e-05 0.00024848027 6.785064e-05 -4.106159e-05 -0.0001685538
2.5018728e-05 -3.7147223e-05 2.7631553e-05 -0.00026775108 3.5378645e-05 0.00034815064 0.00037666634 -9.692807e-05
0.0002778742 0.0001482677 0.00013819872 -2.9950566e-05 1.8045961e-06 -0.0001307989 -0.00023352024 0.00025403398
-5.6339886e-05 1.3940798e-05 -0.0001969978 -7.934401e-05 -0.00058772945 -0.0002315743 -0.00043036888 -5.593819e-05
00000000: 4a93 ce39 8030 0bb6 d079 1b37 8161 8239
00000010: bce4 7db8 bdcf c8b8 d802 0939 9050 c8b7
00000020: ec1a dcb8 5e0b 84b7 1b2a 8b39 aacc 9cb8
00000030: 3929 b439 93a5 79b9 1d17 1739 4221 9639
00000040: 1c24 c1b8 ec36 5f39 681a a339 4727 abb7
00000050: 012a 1ab8 691f 2a39 952d dc39 c7c0 e139
00000060: 2e77 07ba 64e5 10b9 6309 0ab8 a922 2fb9
00000070: a1f6 1d39 9872 89b7 9108 9238 fb93 bc39
00000080: 14bd 8239 f14a e8b8 de7a a938 7315 5cb7
00000090: 4202 0039 a4f2 06b9 4686 b0b8 6599 89b9
000000a0: c354 5038 0cf8 13b8 4da1 9738 773e 1cb8
000000b0: 402f 04b9 0560 2d37 ebb6 79b9 7d12 69b9
000000c0: ddc1 05b9 3df4 3cb9 bc13 ceb9 ac2a f4b9
000000d0: 5595 5538 69aa 0c38 e4b5 1736 de97 f1b8
000000e0: 6339 58b9 9bf6 c0b9 5375 d637 a222 aab6
000000f0: 1f5a 47ba 0198 73b8 81a8 4fb9 a6b5 9e37
00000100: 1d41 3ab9 1fbb db39 1d59 d8b8 0837 0dba
00000110: a16e 8239 26dd 5cb9 db6d 1839 21a0 9638
00000120: 4e6a 2c39 1e3d 7038 cf1e 4639 5168 b1b9
00000130: b640 f9b7 fc20 13b9 6a4b 52b8 8cf4 21ba
00000140: b105 4b39 7c28 5a39 6b77 3bb9 5ca4 5439
00000150: 0ec0 93b8 50e7 d439 f9bd 86b9 4dda 13ba
00000160: a301 ca38 9a25 19b9 32c0 8cb9 3664 a7b8
00000170: 43e3 86b6 3035 0ab9 8167 c0b7 5b4c 93b9
00000180: ee55 33b8 eb46 5037 bfa2 a736 d531 ee37
00000190: 21f1 dcb8 4699 8e38 0d70 fe38 643b 50b9
000001a0: 12d9 efb5 6a40 0436 8acb 94b9 5d55 abb9
000001b0: 899a a537 97b6 bfb9 89f0 1139 5fdf ccb9
000001c0: 3ad5 9638 9d05 b8b9 2446 06b9 f4c0 a739
000001d0: 9eeb d337 c4f0 ad38 31c1 b4b9 4672 0539
000001e0: 72d0 6d38 a5ae 42b8 50f9 cfb7 131b 5b39
000001f0: dfd7 d0b7 b9a9 57b8 e99f dc39 23dd 3f38
00000200: cbb6 b538 743a 42b8 c9db 4e38 367b 3138
00000210: 71c7 e8b8 cd43 2bb9 e007 0939 79be 6db9
00000220: 36c7 1739 5904 e535 47c9 73ba a401 03b9
00000230: 9ae9 cf39 0f9e 0b39 6981 e738 7b62 20b9
00000240: 4808 5739 0395 90b9 ec01 59b9 3db8 b139
00000250: a130 563a 3c1a 04b8 42e6 78b8 bc4e 2cb7
00000260: f57d 0839 122c 9639 db5e 10b9 3897 3039
00000270: 47b1 33b7 6a44 67b8 75b4 42b9 cf48 ab39
00000280: 3f0f b439 9eb2 81b9 81e8 6339 e8d1 a438
00000290: 7546 8239 094b 8e38 8c39 2cb8 d1bd 30b9
000002a0: 4fdf d137 87ce 1bb8 4fca e737 f160 8cb9
000002b0: 8863 1438 fd87 b639 4d7b c539 dd45 cbb8
000002c0: a5af 9139 4f78 1b39 70e9 1039 5a3e fbb7
000002d0: 7335 f235 1027 09b9 1ddd 74b9 dd2f 8539
000002e0: 7e4e 6cb8 46e3 6937 3291 4eb9 7e65 a6b8
000002f0: db11 1aba c1d2 72b9 22a3 e1b9 2d9f 6ab8

exp_avg_sq f4 [64, 3]
9.091227e-08 1.06124025e-08 1.9718469e-08 1.3577728e-07 1.6790763e-08 1.9575305e-08 4.459465e-08 3.7489578e-08
5.1974016e-09 9.1455256e-08 2.8943179e-08 1.6335633e-08 6.274872e-09 5.6748024e-09 6.18724e-09 1.1957647e-08
4.6164605e-09 7.573819e-09 1.9749311e-07 7.3732906e-08 1.144435e-08 3.0394332e-08 2.734346e-08 3.744642e-08
2.014262e-07 2.8157121e-08 1.715656e-08 3.8502122e-07 4.8157375e-08 1.2925888e-08 3.021997e-08 3.5927968e-08
4.5257774e-08 1.1849553e-07 8.718238e-08 4.074169e-08 7.789142e-08 5.3929146e-08 2.9266426e-08 3.1931908e-08
1.3081561e-08 2.6163596e-09 3.2277822e-07 1.7049219e-08 1.6692974e-08 1.3155727e-08 1.4703088e-08 1.4818925e-08
1.2125614e-07 2.2390855e-08 3.1762703e-08 1.3067775e-07 2.4415035e-08 1.4758405e-08 6.809136e-07 2.0696362e-08
5.6979253e-08 3.149874e-08 6.720409e-09 4.6597326e-09 1.4643892e-07 5.970933e-09 1.635414e-08 3.555056e-08
6.33282e-08 7.423207e-08 2.9175885e-07 2.545837e-07 2.2936128e-08 9.6764694e-08 1.5473546e-08 9.1076444e-08
2.6297883e-08 3.875197e-09 1.3628572e-08 1.4642714e-08 7.0419417e-09 1.7703643e-08 1.874075e-08 4.649001e-08
1.1489239e-08 9.3198345e-08 2.5070532e-08 2.1925368e-08 6.311743e-08 4.5337277e-08 9.5466774e-08 3.4082213e-08
1.2745885e-08 3.5093457e-08 6.453241e-08 9.301676e-09 7.837273e-09 3.3220485e-07 1.2989129e-08 7.0883765e-08
1.326391e-09 5.822628e-10 2.8761922e-09 6.1195453e-07 4.1054367e-08 2.6002212e-08 5.421844e-08 3.529905e-08
4.075929e-08 7.336029e-08 3.5966522e-08 4.4545885e-08 1.5286581e-08 4.667756e-08 7.643258e-08 1.355099e-07
4.8886903e-08 3.060107e-08 1.8816136e-08 1.1574311e-08 1.3181765e-08 1.2604362e-07 1.8246348e-07 5.0618745e-09
3.6854036e-08 1.5135898e-08 5.8419367e-09 7.4027463e-07 4.098237e-08 5.8383748e-08 3.7664826e-08 1.1627712e-08
3.9469494e-09 4.0289596e-08 3.8417696e-08 5.9169256e-08 8.236907e-09 9.959042e-09 7.2465225e-09 2.7941416e-08
1.4320309e-08 1.519585e-08 9.552831e-07 1.3054382e-07 9.228716e-08 2.2153385e-07 2.1096016e-08 3.9788066e-08
1.5085673e-08 5.7976512e-09 1.149967e-08 9.85352e-08 5.7414166e-08 7.530028e-09 9.5866895e-08 2.0571429e-08
3.8162327e-08 1.047408e-07 1.5060563e-08 3.895813e-08 5.187778e-09 3.740792e-09 1.40816425e-08 1.1612567e-07
3.623352e-08 1.2952824e-08 3.7039493e-07 2.7010323e-08 8.730054e-09 6.3455985e-08 3.8901078e-08 6.556626e-08
9.607843e-10 1.3946516e-09 1.7091673e-09 5.216762e-08 2.262295e-08 4.1044796e-08 2.0227277e-07 5.564573e-08
3.5553494e-08 2.1496531e-07 2.5782155e-08 1.6682485e-07 4.5381188e-07 1.9988558e-07 8.407613e-08 3.421213e-08
1.308187e-08 4.0377504e-08 1.0107948e-06 1.9263624e-07 1.6465108e-07 2.2259059e-08 2.5586049e-08 9.107757e-09
00000000: 8d3b c333 d751 3632 5f61 a932 2dca 1134
00000010: 473b 9032 8d26 a832 5688 3f33 3a04 2133
00000020: d494 b231 0f66 c433 b99e f832 7052 8c32
00000030: 5c9a d731 17fc c231 8a97 d431 4a6e 4d32
00000040: d19e 9e31 021e 0232 7e0e 5434 1857 9e33
00000050: c99c 4432 ec8a 0233 e8e0 ea32 c6d4 2033
00000060: 9d47 5834 2ade f132 ad5f 9332 eab4 ce34
00000070: 98d5 4e33 a810 5e32 35cb 0133 384f 1a33
00000080: 7361 4233 9b77 fe33 0539 bb33 f6fb 2e33
00000090: 4345 a733 b99f 6733 8d65 fb32 8125 0933
000000a0: 50bd 6032 7ccb 3331 4d4a ad34 a173 9232
000000b0: 3d64 8f32 8003 6232 dd98 7c32 5296 7e32
000000c0: a232 0234 0356 c032 766b 0833 6d50 0c34
000000d0: 3bb9 d132 278c 7d32 07c8 3635 c8c7 b132
000000e0: 5ab9 7433 3b49 0733 58e9 e631 711b a031
000000f0: d33c 1d34 e228 cd31 227b 8c32 41b0 1833
00000100: 0cff 8733 8369 9f33 08a3 9c34 b8ad 8834
00000110: 1405 c532 f4cc cf33 b0ea 8432 ce95 c333
00000120: a8e5 e132 9826 8531 1823 6a32 568f 7b32
00000130: 93f5 f131 b912 9832 58fb a032 4eac 4733
00000140: 3562 4532 5524 c833 af5a d732 6556 bc32
00000150: 2d8b 8733 ddb8 4233 6a03 cd33 ca61 1233
00000160: fff8 5a32 aab9 1633 1195 8a33 34cd 1f32
00000170: b1a4 0632 e359 b234 cb26 5f32 c338 9833
00000180: 3c4c b630 1a0d 2030 82a6 4531 3245 2435
00000190: c153 3033 785b df32 cedd 6833 b79b 1733
000001a0: 500f 2f33 3f8a 9d33 9c79 1a33 b852 3f33
000001b0: 8c4f 8332 857a 4833 4123 a433 ad80 1134
000001c0: b8f7 5133 3b6e 0333 1fa1 a132 5cd8 4632
000001d0: 0476 6232 9b56 0734 2eeb 4334 b8ec ad31
000001e0: 7149 1e33 3104 8232 38ba c831 49b7 4635
000001f0: 9804 3033 9cc1 7a33 eac4 2133 38c3 4732
00000200: bc9d 8731 e10a 2d33 b400 2533 4921 7e33
00000210: 4d82 0d32 5418 2b32 16fd f831 d303 f032
00000220: 6305 7632 0788 8232 4737 8035 9d2b 0c34
00000230: 672f c633 c3de 6d34 a136 b532 71e3 2a33
00000240: bf95 8132 ae34 c731 1590 4532 4d9a d333
00000250: 8b97 7633 6a5d 0132 62df cd33 0db5 b032
00000260: ece7 2333 dded e033 875e 8132 eb52 2733
00000270: 2e40 b231 5b88 8031 b8eb 7132 c360 f933
00000280: 2d9f 1b33 1f87 5e32 b1da c634 5404 e832
00000290: 2ffb 1532 4c45 8833 3014 2733 6fcd 8c33
000002a0: 980c 8430 f1ad bf30 fae7 ea30 e80e 6033
000002b0: 6554 c232 3b49 3033 5130 5934 21ff 6e33
000002c0: 7bb3 1833 37d1 6634 8f77 dd32 7720 3334
000002d0: 6ea3 f334 21a0 5634 578d b433 a2f0 1233
000002e0: acbe 6032 896b 2d33 a5aa 8735 72d7 4e34
000002f0: f2ca 3034 3034 bf32 51c8 db32 5778 1c32

exp_avg f4 [64]
0.00017437874 -0.00011485143 -8.474081e-05 0.00048154595 0.00018651987 -0.000279555 0.00023167836 0.0007108881
0.00023595392 0.00021916974 0.0005840543 -6.279802e-05 -0.00018867092 0.00018327024 1.864474e-05 -0.0002071706
-0.00029987906 0.00015506505 0.0001846421 -0.00021628724 0.00016055015 -8.765045e-05 -0.0007044736 0.00032632076
0.00024648325 -0.00020610193 -0.00035981805 -0.000114989714 0.00025892654 -0.00036851276 -7.730974e-05 0.00014045698
-6.066238e-07 6.123111e-05 -2.2347818e-05 -0.0003787728 -1.7587312e-05 -0.00019445327 0.00023910838 -0.00032494633
2.549823e-05 0.00034165836 0.00016031561 -1.4955476e-05 -0.00017759133 0.00031026712 -0.00093141844 4.1453855e-05
-0.00039518793 0.000738954 -0.00010448566 -0.0002108209 -1.8990119e-06 0.00042884078 5.662755e-05 -3.2441694e-05
2.920592e-05 -0.00011994369 -0.0003500712 0.00026857192 8.700425e-05 0.00023912323 -0.00037270552 -0.0004704745
00000000: 70d9 3639 64dc f0b8 e0b6 b1b8 0178 fc39
00000010: 8c94 4339 3d91 92b9 b0ee 7239 e55a 3a3a
00000020: 666a 7739 eed0 6539 381b 193a 6eb2 83b8
00000030: f7d5 45b9 3b2c 4039 4667 9c37 ef3b 59b9
00000040: 1639 9db9 f598 2239 7c9c 4139 2acb 62b9
00000050: 5a59 2839 fad0 b7b8 6cac 38ba 0816 ab39
00000060: 6c3a 8139 111d 58b9 f6a5 bcb9 a226 f1b8
00000070: 88c0 8739 f234 c1b9 5a21 a2b8 a247 1339
00000080: dfd6 22b5 3469 8038 9377 bbb7 0696 c6b9
00000090: 7788 93b7 27e6 4bb9 2bb9 7a39 8f5d aab9
000000a0: 08e5 d537 9c20 b339 651a 2839 48e9 7ab7
000000b0: cf37 3ab9 59ab a239 6f2a 74ba bdde 2d38
000000c0: 3a31 cfb9 5db6 413a 501f dbb8 ce0f 5db9
000000d0: 8de1 feb5 09d6 e039 5e83 6d38 0112 08b8
000000e0: 3cff f437 478a fbb8 c389 b7b9 1dcf 8c39
000000f0: 0d76 b638 27bd 7a39 b067 c3b9 05aa f6b9

exp_avg_sq f4 [64]
2.0438064e-08 1.555974e-08 1.7556046e-08 4.138936e-08 2.4078883e-09 8.509728e-09 1.3276647e-07 6.900537e-08
7.771566e-09 1.3053767e-08 7.0554016e-08 2.3587903e-08 3.4299664e-08 9.446603e-09 1.7323288e-08 1.033594e-08
1.5051226e-08 1.0107004e-08 4.2922075e-08 4.9468754e-09 3.2531207e-09 4.1821338e-08 1.7049565e-07 1.4003751e-08
7.789499e-09 1.0238976e-08 2.7905612e-08 1.2999957e-08 2.108016e-08 1.1536118e-08 6.196921e-09 8.837314e-09
8.4095564e-10 2.3571626e-08 1.8420424e-08 3.3191487e-08 2.1913223e-08 2.2717119e-08 1.21843e-08 1.3749542e-07
1.1569746e-08 3.4957882e-08 1.0433784e-08 4.2083688e-09 5.012615e-09 3.9727453e-08 2.713722e-07 8.778662e-09
1.8394374e-08 4.67677e-08 1.6315713e-08 8.0946165e-09 2.9895364e-09 5.4084207e-08 1.5804696e-08 1.511798e-08
1.5684294e-09 7.1493202e-09 4.4316895e-08 3.7977273e-08 1.3599158e-07 6.788729e-09 1.3580113e-07 1.9751381e-08
00000000: c78f af32 3ba8 8532 27ce 9632 15c4 3133
00000010: 0578 2531 2e32 1232 928e 0e34 1a30 9433
00000020: b583 0532 1343 6032 7b83 9733 599e ca32
00000030: e150 1333 994a 2232 50ce 9432 f291 3132
00000040: ff49 8132 13a3 2d32 5259 3833 2df9 a931
00000050: 818d 5f31 0c9f 3333 7d11 3734 2695 7032
00000060: 94d2 0532 7ee7 2f32 17b5 ef32 6a56 5f32
00000070: c313 b532 6230 4632 b2ec d431 ebd2 1732
00000080: fe28 6730 8e7a ca32 f13a 9e32 6d8e 0e33
00000090: b03b bc32 7923 c332 1e53 5132 74a2 1334
000000a0: 48c4 4632 9924 1633 4440 3332 3499 9031
000000b0: 6e3b ac31 cca0 2a33 1cb1 9134 f7d0 1632
000000c0: a801 9e32 a1dd 4833 a226 8c32 8010 0b32
000000d0: 7b70 4d31 374a 6833 e5c2 8732 cadc 8132
000000e0: 3490 d730 16a6 f531 f156 3e33 741c 2333
000000f0: 1505 1234 4b42 e931 bbd0 1134 bfa9 a932
