models/model_cavity_nu0.01_U1_20x20_epochs1000_noadaption_testpcnt0.8.pt (torch, 187059 bytes, 30 tensors)

weight f4 [64, 3]
00000000: 7c0b 98bd f7bf 3ebf 6de5 083d 07cd afbd
00000010: 13ea 32be 8f2e 85be f9c5 903e 4720 4d3d
00000020: e2a5 2c3e 7149 02bf a2b0 093f 5fb8 0e3e
00000030: 2e1d d3be cb53 133f a567 eebd 08d6 263f
00000040: b83b 2f3e 21dd 5fbe b872 cebe 8c5a 0d3f
00000050: 18db b3bd 9821 05bf d952 b1be c435 3e3c
00000060: 6616 18bf 31a3 363f 993c abbe dc5a c8be
00000070: 3794 d03e e036 da3d f275 e63e b570 07bf
00000080: 7beb d5bd 480a 67be b471 86be aac3 8e3e
00000090: 1de6 07bf 0756 6abe f276 933d d8f0 5e3e
000000a0: 6916 053e 6d59 313e f26f c83e 509e af3e
000000b0: d210 aabd 4e5f d9be 3c52 c3be b8ae 62bd
000000c0: 955b d43e 24ab bdbe 34d6 ab3c b4e7 293f
000000d0: e2f6 f13e 470c 56be 9d7f 903e fbd8 673e
000000e0: a593 92bc e68b 04be 3ffc 783e 7ae3 cfbe
000000f0: 091b c83e b6f0 813e 6d40 c03e 0368 60bd
00000100: daa3 52bf e783 e8bc 072c fb3e 22c2 dfbe
00000110: 834d 5e3e d808 bfbd 8f8b 3c3f c768 9cbe
00000120: 25a0 e83e 7a63 14bf e58a 53bd 0ad1 a33d
00000130: e47e c0bc 4487 aa3e c905 e5be 2810 cf3e
00000140: 85f3 7d3e 8b56 14bf bcc4 463f d4e3 733b
00000150: 718c e73e c201 e63e 5576 0fbe e2a9 f03e
00000160: e11a 173f a7aa 5fbe 95aa 1bbf 140d 59be
00000170: 4c21 163e f2f8 84bd e687 7bbd e94f 14be
00000180: 7820 11bf 5cd5 d4be a660 113e 52da 03be
00000190: 4558 03bf 9ea6 afbe 7dae 693e 4ae9 9b3e
000001a0: c4dc 283e fb29 903e 3205 813e b83e 45bd
000001b0: ff1f 293f d21f 543e 8a3e 24be 4ed4 07be
000001c0: 9a91 83bf 8d2e 063e 77c7 d83e 3cbe 843e
000001d0: acca 053e 184f 1a3f 3e26 223f 4aa8 81be
000001e0: 3bd7 d7be cd99 e3be e410 46be 6827 d13e
000001f0: 3974 1d3f 8e75 c0bd 2321 15be 99fc 143f
00000200: 8f6a ebbe 3257 fbbd f26f 1bbf 0122 12be
00000210: d190 27be 4a17 8f3e aecc 22bd 69e5 f83c
00000220: afe1 f83e 5f49 0e3e 84a3 353e a418 5f3e
00000230: 6492 e13d f8a0 2abf 3c59 bcbe d21d 8c3d
00000240: 9068 c43e ed05 f93e 8b5e fabd aac9 303f
00000250: cd39 ce3e 2296 18be 9843 ffbe a1b7 08bf
00000260: 7f98 833c 66f9 df3e 4447 1c3f 3463 eabd
00000270: 8a7e f83e 0d18 19bf 5b78 b0bd ea48 e4be
00000280: 01c0 d93e 2777 ebbb bd1a 3fbe a328 52bf
00000290: 96dc debd e38e 1bbf 2169 db3e 6fb4 a73d
000002a0: 153f c9be b2b3 dfbe f435 5e3e ad2c dabe
000002b0: a89a da3e 8e10 76bb e1c6 81be cf64 84be
000002c0: 8ac1 3abc 6d71 89be 44fb e1be 34e9 f8bd
000002d0: 7d8a 993e 214e 813e e750 983c 3826 af3e
000002e0: be1b e43e 6457 0a3c 4381 fbbe d37a 47be
000002f0: 90a3 943e 1162 0cbf a6de 7a3e 10a7 43bc
-0.074240655 -0.74511665 0.033421922 -0.08584028 -0.17472105 -0.26012084 0.2827604 0.05007961
0.16860154 -0.5089331 0.53785145 0.1393752 -0.412332 0.5754973 -0.116408624 0.65170336
0.17112625 -0.21861698 -0.40321898 0.5521629 -0.08782023 -0.52004385 -0.3463352 0.011609498
-0.5940918 0.7134276 -0.3344467 -0.3913182 0.4073808 0.10654998 0.4501186 -0.5290635
-0.10445305 -0.22562516 -0.26258624 0.27883655 -0.530855 -0.2288438 0.072004214 0.21771562
0.1299683 0.1731927 0.39147907 0.3430047 -0.083039895 -0.42455524 -0.38148677 -0.055342406
0.41476122 -0.37044632 0.020976163 0.66369176 0.4725867 -0.20903121 0.2822236 0.22641365
-0.017892668 -0.12943992 0.24314974 -0.40603238 0.39083126 0.2537896 0.37549153 -0.054786693
-0.8228127 -0.028383208 0.49057028 -0.437028 0.21709256 -0.09327859 0.7365045 -0.3054869
0.4543468 -0.5796429 -0.051646132 0.079988554 -0.023498006 0.33306324 -0.44730976 0.40442014
0.24799927 -0.57944554 0.7764394 0.0037214654 0.45224336 0.44923216 -0.14009984 0.4700461
0.5902539 -0.21842442 -0.6080716 -0.21196395 0.14661139 -0.06492795 -0.0614089 -0.14483608
-0.5669017 -0.4156903 0.14197025 -0.12876251 -0.51306564 -0.34306806 0.22820468 0.30451423
0.16490465 0.2815703 0.25199276 -0.048155516 0.6606445 0.20715263 -0.16039482 -0.13264582
-1.0278809 0.13103695 0.4233968 0.25926387 0.13065594 0.6027694 0.633396 -0.25323707
-0.42156395 -0.44453278 -0.19342381 0.40850377 0.61505467 -0.09397422 -0.14563422 0.58197933
-0.45979735 -0.122724906 -0.6071769 -0.14270784 -0.16363837 0.27947456 -0.03974598 0.030382829
0.48609683 0.13895176 0.17738158 0.21786743 0.1101425 -0.6665187 -0.3678683 0.06841625
0.38361025 0.48637334 -0.12225064 0.69057715 0.40278473 -0.14901021 -0.49856257 -0.53405195
0.016063927 0.43744963 0.6104624 -0.11444703 0.48534042 -0.59802324 -0.08616706 -0.4458688
0.425293 -0.007185835 -0.18662544 -0.82093257 -0.10881917 -0.607649 0.42853644 0.08188712
-0.3930594 -0.43691784 0.21700269 -0.4261221 0.42696118 -0.0037546488 -0.25347045 -0.2585816
-0.011398682 -0.2684435 -0.44137013 -0.12153855 0.2998847 0.2525492 0.018593265 0.34208846
0.44552416 0.008443687 -0.49122056 -0.19480447 0.29031038 -0.5483714 0.24498996 -0.011941686

bias f4 [64]
00000000: 59de 80be 8265 15bf 631f a33e 51ff 973a
00000010: dcc8 31be 80d3 a63e d70a 13be ec32 cb3d
00000020: 23b4 24be 355a b23d bb6a bebd 8c40 b9be
00000030: 3050 8b3d 54f8 a23e 3f85 b73d b874 d33d
00000040: 8f64 0dbe c45b a4bd 9b1b c7bd 0414 4ebf
00000050: cb13 453e 07c6 6abe 1e65 11bd 0bb5 debd
00000060: 439f f13d 4f6e 3dbf 82fc 813d e299 2bbe
00000070: 61a3 17bc 27f8 63bd 087c b93d fb9b e6be
00000080: 0e87 8bbd e875 8cbe 9111 9b3e 99e3 b83d
00000090: 01a1 fcbd 508e b83e ed1e 8f3e 169e 36bd
000000a0: a4fc 01be b3b7 2bbe a824 433b 8710 8abe
000000b0: 5a60 1f3f cf06 be3e 117a 723e 8683 adbd
000000c0: 702a 65bd 1eef 86be 32bf bc3c e9a0 26be
000000d0: b4d2 d03d bad3 033e 242d e7bd 0169 c93e
000000e0: 9462 983c a478 9b3d 3d92 cabd fd92 79bd
000000f0: e890 85bd b6dd b3bd b50f 753d 3823 113f
-0.25169638 -0.58358014 0.31859884 0.0011596476 -0.17361778 0.32583237 -0.14359604 0.09921822
-0.16084342 0.08708612 -0.09297701 -0.36182058 0.06802404 0.31830084 0.089609616 0.10324997
-0.13807891 -0.080253154 -0.09722062 -0.8049929 0.19245832 -0.22927104 -0.035496823 -0.10874375
0.11797955 -0.7399644 0.0634699 -0.1675792 -0.009255261 -0.05565658 0.0905686 -0.4504088
-0.06812869 -0.27433705 0.3028684 0.09027786 -0.123353966 0.36046076 0.27953282 -0.044584356
-0.12694031 -0.16769294 0.0029776487 -0.26965734 0.62256396 0.3711457 0.23679377 -0.08472352
-0.055948675 -0.26354307 0.023040388 -0.1627232 0.101964384 0.12873736 -0.11287907 0.39337924
0.018601693 0.0759137 -0.09891174 -0.060931195 -0.06521779 -0.087825224 0.059829433 0.56694365

weight f4 [64, 64]
00000000: dd60 ebbc 2bee 4b3c b5a6 7f3d f8a6 8bbd
00000010: 54a3 1f3e a41f 47bd 86b1 f5bd 24eb 22be
00000020: b0d7 f53d de00 c3bd 9f33 e2bd ce17 1d3e
00000030: 9d8c 2d3d 3622 5b3d 667e e9bd 71cc 3abd
00000040: 01ac bbbd 0721 efbd 5a13 18be 20cf 573e
00000050: 240c dabd cb97 16be 349a 86bd 1941 3a3e
00000060: 7116 fdbd 18a2 9ebd 41b9 afbd f12e 97bd
00000070: 1cb5 29be e459 f0bd fd95 0fbe 262a 293c
00000080: 739c 59bd f88e 3bbd 895e f5bc 1826 683d
00000090: 072b 573d cffe aabd 592a 45be 6510 b6bd
000000a0: 6b7e efbd 562e 9f3d b39e 96bd b3a1 5d3c
000000b0: 8919 05bd c856 05be 1d9a 65bc 2ce7 2fbe
000000c0: fb26 d4bb 8287 c43d dc0b 813d a279 a2b9
000000d0: b33a ac3c d086 c7bc 2e88 873d 82b6 9bbc
000000e0: 6462 1b3d ed40 b03d 1707 5abd f031 3cbd
000000f0: 5d44 98bd a46c 973d f698 7a3c 428a abbd
00000100: e022 1d3d ac26 bf3d d655 7fbe b02b 4a3d
00000110: 928f 183e 6620 64bd 461f 13be d75a f4bc
00000120: c9a9 9fbd 3141 59be ff6e 913d 8255 5ebd
00000130: b5a9 be3c 882b 47be 6448 1bbd 936f 8bbd
00000140: cf94 233c d91a d13b 5063 1d3d 7b00 033e
00000150: 60f0 1dbc e9ef b23d 0e88 c63a 6c06 76bb
00000160: b9b3 943d c1d9 cc3c 9126 b3bb 89ef 1f3e
00000170: 86a3 c33d 98b1 75be a635 cdbc 1027 133d
00000180: 5808 8b3d 4e6f 133e 740b 6c3c 056e 2cbe
00000190: 524e cbbd 1e10 db3d 2c70 543d 4921 2f3e
000001a0: b0ef 25bb 5e51 863c a2c9 81bc d43b f83d
000001b0: dc69 15bb f64c 8bbe ea33 c5bd be55 1dbd
000001c0: f798 c03d b159 393b 4f83 943d abac 2bbe
000001d0: cbc3 f93c 6de2 1dbd 624e 54be 4acb c6bd
000001e0: 2ec7 7bbb 7c28 8cbd 7575 4d3d 8669 003e
000001f0: e95d 66bd 6f8c 58be c05d b5bc 798d 6dba
00000200: 0d0a 1e3d 00fa 0f3d 61c0 e3bd 28bc cbbc
00000210: 690a 523d dcc1 40be 0a94 57be 5f8f 53bd
00000220: 2cf5 003e 8d4c 49bd 85e0 0bbe 5c5c ccbd
00000230: a116 ab3c af40 17bd 0ad0 77bb 8e6c f73c
00000240: 832a c5bc 3f70 f7bd b7f7 3abd 5dd2 003e
00000250: fcdf c5bb 29c0 3dbe 591a 43be a4ca 963d
00000260: 97ef 57bc ac1c e63b 8585 3ebd d297 123d
00000270: fec6 7e3d 18ad babd 8a85 c73c 6d73 abbd
00000280: 599f 9bbd 0aa3 d5bd c04e 95bc a88c 3a3c
00000290: 6805 11be 436b a1bc 4c71 32bd a616 cd3d
000002a0: f149 e7bc 8055 473c fcc3 883d 8a41 fabd
000002b0: 6967 0dbe 238f b8bd 08da ab3d 3527 24be
000002c0: 2dc8 a93d 0643 c1bd 95f0 9a3d ce66 1d3e
000002d0: ebe9 34be 8461 e0bc 01cc 39bd 516e 6cbd
000002e0: e4a5 393c f2ad c8bd c9c0 a33d a216 87bd
000002f0: 7f11 f4bd 77e7 2bbd 5594 0cbe 65ee 2d3d
00000300: 57f7 d939 fc28 56bd 763e 8f3d 0d39 c83c
00000310: 3c4b 383e 4ba5 70bd 1e9a e73b 2893 cd3d
00000320: 946d 553e 90e3 e8bc 3abb 7abc 6342 f4bd
00000330: 94f7 d53d 9b9a 8abd a521 05be 911e 0fbe
00000340: 4a46 9e3d 2f80 11bd 1f3d 06bd b5b3 053e
00000350: 36e9 b9bc 8558 423e a85e 813d 855a af3d
00000360: 0d1e 033e dac9 e9bd 2195 163e 533e f83d
00000370: 24e3 c2bd ab76 c03d 9239 153d e4ea 523d
00000380: b048 d6bd 849b f5ba c568 333d eef9 b5bd
00000390: 054e 423e 5825 a33e 2558 e8bc 2059 54bd
000003a0: bf9b 123d 9543 11be 6065 633c 3cd6 583e
000003b0: 5834 01be a268 af3d 88be ce3d d659 b53d
000003c0: c29a 9c3c 0557 bc3d c81a d33b 5cfb a53d
000003d0: b736 bf3c 0ed7 00bd b495 8a3e 8043 e93c
000003e0: e5d4 91bd 1c5a fb3d fa91 79bd 62e3 5f3d
000003f0: ba02 173e 4910 1abd fa72 513e 7765 103d
-0.028732711 0.01244692 0.062414844 -0.06818956 0.15589648 -0.04861416 -0.119967505 -0.15910012
0.1200403 -0.0952165 -0.11045002 0.15341112 0.042370427 0.053499423 -0.11401062 -0.045605127
-0.091636665 -0.11676221 -0.14851132 0.21075106 -0.10646847 -0.14706342 -0.06572381 0.18188895
-0.12357796 -0.07745761 -0.08580256 -0.07382 -0.16572994 -0.11735895 -0.1402206 0.01032499
-0.053127717 -0.045790642 -0.029952304 0.056676954 0.05253127 -0.08349382 -0.19254436 -0.08889846
-0.11694034 0.0777251 -0.07354488 0.013527322 -0.032495055 -0.13021386 -0.014013794 -0.17178029
-0.0064743734 0.095961586 0.0630109 -0.0003098967 0.021024084 -0.024356276 0.06617771 -0.019007925
0.03793563 0.086061336 -0.053229418 -0.04594606 -0.07434914 0.073937684 0.015295258 -0.0837598
0.038363338 0.09333548 -0.24935088 0.04935807 0.14898518 -0.05569496 -0.14367399 -0.029828472
-0.07796056 -0.21216275 0.07101249 -0.054280765 0.023274282 -0.194502 -0.037910834 -0.068083905
0.009984209 0.0063813743 0.03842479 0.12793152 -0.009639829 0.087371655 0.0015146749 -0.0037540449
0.07260842 0.025006177 -0.005467244 0.15618719 0.09552674 -0.23993528 -0.025049996 0.035925925
0.06788701 0.14397928 0.0144070275 -0.16838844 -0.09927048 0.106964335 0.051864788 0.17102541
-0.0025319867 0.01639622 -0.015843216 0.12120786 -0.0022798693 -0.27207154 -0.096290424 -0.03841185
0.09404176 0.002828222 0.072516076 -0.16765086 0.03048887 -0.038546015 -0.20733026 -0.09706743
-0.003841828 -0.06843659 0.050160844 0.12540254 -0.056241903 -0.21147321 -0.02213943 -0.00090619136
0.038583804 0.035150528 -0.11120678 -0.024869993 0.05127946 -0.18823951 -0.21052566 -0.0516504
0.12593526 -0.04914527 -0.13659866 -0.09978554 0.020884814 -0.03692692 -0.003781321 0.03020313
-0.024068123 -0.12081956 -0.045646396 0.12580247 -0.006038664 -0.18530335 -0.1905302 0.073628694
-0.013179681 0.007022461 -0.046514053 0.03578932 0.062201492 -0.09115046 0.024355669 -0.08371625
-0.075987525 -0.10431488 -0.018226027 0.011386074 -0.14162219 -0.019704467 -0.04356508 0.100140855
-0.0282335 0.012166381 0.06678006 -0.12219532 -0.13808979 -0.09011676 0.083911955 -0.16030581
0.082901336 -0.09436612 0.07565419 0.15371248 -0.17667358 -0.02739025 -0.04536057 -0.057722393
0.011331055 -0.097988024 0.07995755 -0.06596114 -0.119173996 -0.04196879 -0.13728459 0.04246368
0.00041573748 -0.05228518 0.06994335 0.024441266 0.1799745 -0.058751386 0.0070679327 0.100378335
0.20842582 -0.028428823 -0.015303427 -0.11926725 0.104476124 -0.0676777 -0.13001116 -0.13976504
0.0772825 -0.035522636 -0.032773133 0.13056834 -0.022694211 0.1897908 0.06316882 0.08562187
0.12804432 -0.11415453 0.14705326 0.121212624 -0.0951598 0.09397634 0.036431856 0.05149354
-0.10463083 -0.0018738364 0.043801088 -0.08885561 0.18975075 0.3186443 -0.028362343 -0.05184281
0.035793062 -0.14185937 0.01387915 0.21175474 -0.12617624 0.08564879 0.10094935 0.088550255
0.019116763 0.09196285 0.0064424016 0.081045836 0.02334152 -0.031455092 0.2706734 0.02847457
-0.071206845 0.122730464 -0.06093023 0.05466021 0.14747134 -0.037613187 0.20454016 0.035253014

bias f4 [64]
00000000: b516 2abd 6222 86bd bb49 34bc 650e 89bd
00000010: f6c9 10be abee 82bd 0a73 813d 10c7 fe3b
00000020: 982e 16be 3db1 bcbd 5608 e6bd 2d9b fd3c
00000030: ca5c c1ba 297e 1b3d 6d85 edba f178 903d
00000040: 7272 8b3d 8026 623d e6c7 7e3d a94c 0e3e
00000050: c1a4 ddbd 398c a0bd 8256 93bd 0584 01bc
00000060: 1097 f0bc 343c 913d b546 27bd 71e1 2fbd
00000070: 82d6 863d 0ed6 e1bc 62c1 6ebe 99c4 a5bd
00000080: 9f6c 2ebe 4045 9bbd e77e 6dbe 383d e73c
00000090: 41c4 37be b908 c2bd eb74 cabd b7c5 813d
000000a0: f3f6 85bd ab77 943c 34ba d7bd 715f c0bd
000000b0: 1e93 d6bd cc34 3abd 8944 eabd ec4b be3d
000000c0: f197 323e 2037 39be 47f4 11be 7c7b 10bc
000000d0: 3dc9 c83c c1ab 85bd 5583 2f3c 6c7a 083e
000000e0: 4d8c 5cbd d57d 15be 87db 03be b1ab a6bd
000000f0: 8b88 1a3c 8c6b da3d 597c 1d3c 1660 3c3d
-0.04152556 -0.06549527 -0.011003907 -0.06692199 -0.14139542 -0.063931786 0.0632077 0.007775195
-0.14666212 -0.09213493 -0.11232059 0.030957783 -0.0014752385 0.037962113 -0.0018121429 0.07054318
0.06808938 0.055212498 0.062202357 0.13896431 -0.1082244 -0.07839245 -0.071942344 -0.007905011
-0.029368907 0.07091561 -0.040838916 -0.042939607 0.06583883 -0.02756789 -0.23315957 -0.08094139
-0.17033623 -0.07581568 -0.2319294 0.028227434 -0.17945959 -0.0947432 -0.098855816 0.06336539
-0.065412425 0.018123468 -0.10533562 -0.09393204 -0.10477279 -0.045460507 -0.11438853 0.09291825
0.17440774 -0.18087435 -0.1425334 -0.0088185035 0.02451002 -0.065269 0.010712464 0.1332795
-0.05384474 -0.14598782 -0.12876712 -0.08138216 0.009431968 0.10665044 0.009612166 0.045990072

weight f4 [64, 64]
00000000: f2d5 cbbd 834d 80bd 2d12 033e 8693 3bbe
00000010: c062 103c 5862 37be 0312 08be 8d47 3e3d
00000020: f3e0 debd 2656 f2bc 0a74 b5bd aa80 23be
00000030: f267 c9bd b039 22bd 5ad7 06be 50ca 33bd
00000040: cd08 a3bd 99bc 71bc de5b 9abc 4ee9 5cbe
00000050: 2560 92bd d897 ba3d 2fc9 003d 9616 5cbd
00000060: 4a9d d63d 1c91 9fbd 1a89 6dbe 7584 503d
00000070: 3810 073e 4b38 8fbd ce8b bfbd 8305 8ebc
00000080: 44fa 70bd 1805 913d 5ee2 ffbc 7cdf 93bd
00000090: 054b 683d fde4 cc3d f223 c83d f13d 07be
000000a0: 579c 7bbd 7a81 913d 3457 9c3d 1351 3ebd
000000b0: 9f1e 923d 4de3 6cbd 558d 73bd b6ed e3bd
000000c0: d789 3b3c d388 dd3c 21c8 123d 4f6f 293b
000000d0: 4d48 dbbd e2f7 fd3d 4e09 773d 96e8 1bbe
000000e0: 9b0c be3a 96bc 34bd 2fcc 923a 9be6 8cbc
000000f0: 2e67 1ebd 6a87 033e 5ee9 29be 618a e8bc
00000100: 65a1 09bd 0a30 a3bd c20d abbd 2303 26bd
00000110: ecc5 95bd 7a55 013c 1200 0c3e 63c4 5d3c
00000120: 1f0f eebd 6bae e1bc ca90 cdbd 3675 f5bd
00000130: f4b4 91bd 9330 ae3d ac67 e03d b739 1a3e
00000140: b839 583c fefa 0e3e ec7e 263e f2b5 b23d
00000150: 4cc9 34bd 3746 8ebd 6eea c9bd 73ba 153e
00000160: 67f7 ec3d 5f4b 933c 9059 88bc df6d 0a3d
00000170: 2c5a 41ba 4305 943d e073 0b3d c72d 113a
00000180: 2ddd 9c3c 249e 56bd 6639 1a3d a61d c9bc
00000190: 805c 463c edbd 33bd 927b 753d ac3f 8ebc
000001a0: 809f 1a3d 5700 8b3d 0f25 1bbd 78b0 94bd
000001b0: de16 693d f876 35bd 5849 e9bd 8e10 cd39
000001c0: da15 0fbd bf5e d93d 7b51 7fbd 0879 743d
000001d0: 01ac 2c3d d7f2 a83c 2d1e 303d eb2a 903d
000001e0: 42e2 d7bd 27a4 cb3d ede3 9a3c ca8d c23d
000001f0: d323 3bbc 41c4 6e3c bc1d fe3a b8f4 c3bc
00000200: 2723 9dbd 472e 4c3d 0921 98bd d389 ebbd
00000210: 1092 39bd 4dc3 8bbd 1193 02be 2051 2a3b
00000220: 19e1 03be ff23 5cbd 0262 d9bd e048 5b3d
00000230: 781e 26be 8068 703c c682 21bd b48f bf3d
00000240: 9e30 66bd 058f ddbd 1ba6 0fbd 4316 6f3c
00000250: b1dd 2b3d a080 87bc 2955 933d 8dbd 4e3c
00000260: 55a3 30be 8fe9 9c3d 922f 90bd c259 1b3d
00000270: 1500 68bd b124 6fbc acee 9abd a1cd 2cbe
00000280: 7604 b83d 7566 1abd 6759 cdbd 3f48 df3c
00000290: d525 cab9 bd2e 2c3d 8fc7 c3bd 3a15 3abd
000002a0: f5ec afbd 95dd b93d c674 38bd 597f 45bd
000002b0: 3365 3c3d 8091 86bc f91a c8bc 82c0 e13d
000002c0: 60e1 073d 0740 36be 24a6 f1bd c88f 793d
000002d0: c15f 443d 6347 bebd a9fc 953c 2d9d 5abc
000002e0: b76a 4abc acfa 043d c25c ccbd 1f0b f6bd
000002f0: 2ed4 b5bd f35a cebd 02a4 f0bd 8b28 c43c
00000300: 3fe7 a9bd 5e23 c03d bae9 7cbd 461e 583d
00000310: 2d21 07be 07a0 073e 0fb1 083d 8473 f33d
00000320: 1f43 6d3d 4704 693c 367a c03d efc1 7fbc
00000330: 6333 a53d b8a9 39bc 1890 6f3e e5e8 7fbd
00000340: 412c 983d 5eeb 213d ebc1 093d 8409 8dbc
00000350: c81e 823d ea15 9bbc 06c2 273d 4920 213d
00000360: 78c7 fe3d 7d9a 9ebc 661e 363e c24b f03d
00000370: 68e6 f63d cfff 07bd 04eb 1f3c 8322 423e
00000380: 2585 11be cdaf eebc 7f30 dc3d 62c8 80bd
00000390: c03e 55be 7615 8bbd f608 87bd 7c11 e9bd
000003a0: 14aa 0f3e 73fc b3bd 36dc 6c3e 148d e73d
000003b0: a255 af3d dbd0 36bb 5ed5 36bd 1415 71bd
000003c0: 8770 f53e 4d64 253e c2e9 c9bd fbdf e23d
000003d0: 9b92 4dbc 2923 29be fba4 573d ab99 073e
000003e0: 592d da3d 8e9c f8bb 71bb 1f3e 0219 143d
000003f0: 467b dcbd 8c1b 1f3e 302c c33d f4d7 11be
-0.09952916 -0.06264784 0.12799902 -0.18317994 0.008812606 -0.17908609 -0.13288121 0.046454955
-0.108827494 -0.029582094 -0.08860023 -0.1596705 -0.09834279 -0.039605796 -0.13168088 -0.043894112
-0.07960663 -0.014754438 -0.018842634 -0.21573374 -0.07147244 0.09110993 0.031441864 -0.053732477
0.10479219 -0.07791349 -0.23196831 0.05090757 0.1318978 -0.06993159 -0.093528375 -0.017336613
-0.058832422 0.0708105 -0.03123587 -0.07220361 0.05671217 0.100046135 0.09772481 -0.13207223
-0.061428394 0.07104774 0.0763382 -0.046464037 0.07134747 -0.05783396 -0.059460957 -0.11129324
0.011446438 0.027042782 0.03583539 0.0025853699 -0.1070715 0.124007955 0.060311608 -0.15225443
0.0014499606 -0.044125162 0.0011199767 -0.017199805 -0.03867262 0.12844625 -0.16592929 -0.028386297
-0.033601183 -0.07968147 -0.083522335 -0.040530335 -0.07313141 0.007893914 0.13671902 0.013535592
-0.11623978 -0.02754899 -0.10037382 -0.11985247 -0.07114592 0.085053585 0.10957274 0.15061079
0.013197355 0.13962933 0.16259354 0.087261096 -0.044137284 -0.06946986 -0.09859167 0.14621906
0.11570626 0.017980276 -0.01664427 0.033796187 -0.00073758024 0.07227566 0.034046054 0.00055381324
0.019148434 -0.05239691 0.037652396 -0.02455027 0.012107015 -0.0438823 0.0599323 -0.017364345
0.037749767 0.06787174 -0.03787714 -0.07260221 0.056906573 -0.04430291 -0.11390942 0.0003911298
-0.03493295 0.106137745 -0.062333565 0.059685737 0.042156223 0.020623608 0.042997528 0.07039436
-0.10541202 0.09943419 0.018907512 0.094997 -0.011422115 0.014573158 0.0019387524 -0.023920402
-0.076727204 0.04984882 -0.07428176 -0.11500897 -0.04530531 -0.0682436 -0.12751414 0.0025988296
-0.12878837 -0.053745266 -0.10614397 0.053536296 -0.1622256 0.014673352 -0.039431356 0.09353581
-0.05619871 -0.108182944 -0.03507052 0.01459271 0.04195947 -0.016540825 0.071939774 0.012618435
-0.17249806 0.07661735 -0.07040323 0.037927397 -0.056640703 -0.01459615 -0.07565054 -0.16875316
0.08985226 -0.037695367 -0.10026818 0.02725613 -0.0003855663 0.04203676 -0.09559547 -0.0454304
-0.08590118 0.090754665 -0.04503324 -0.04821715 0.04599495 -0.016426802 -0.024426924 0.11023046
0.03317392 -0.17797862 -0.11799267 0.060928136 0.04794288 -0.0929096 0.018308954 -0.013343138
-0.012354544 0.03246562 -0.0997863 -0.1201384 -0.08878361 -0.10075941 -0.11750032 0.023945114
-0.0829606 0.09381746 -0.061746337 0.052763246 -0.1319625 0.1324464 0.03337198 0.11887267
0.05792534 0.014222211 0.0939831 -0.015610202 0.08066442 -0.011331968 0.23394811 -0.062477965
0.07430316 0.039531104 0.0336322 -0.017216451 0.06353527 -0.018931348 0.04095652 0.03933743
0.124403894 -0.019360775 0.17785034 0.117332 0.12055665 -0.033202942 0.009760622 0.18958478
-0.14210947 -0.029136563 0.107514374 -0.0628822 -0.20824718 -0.06791203 -0.06593506 -0.11380288
0.14029723 -0.08788385 0.23130879 0.113062054 0.08561255 -0.0027895484 -0.044637077 -0.058857992
0.47937414 0.16151543 -0.09859039 0.11077877 -0.0125471605 -0.16517319 0.052647572 0.13242213
0.10653181 -0.007587022 0.15598847 0.03615666 -0.107657 0.15537852 0.095299125 -0.14242536

bias f4 [64]
00000000: d010 d73c 1392 8dbc ebf3 c0bd 67cb 363d
00000010: b9d3 4bba 0e65 36bd c1f2 59bd 12d6 953d
00000020: 9722 e4bc 2faf 52bd bf3d c7bd 9254 56be
00000030: a19a 053e 9afa 383d 1d10 0e3d 2bf9 01bb
00000040: 4d43 193d 9b4b 17be 189f 2f3e b59a 033d
00000050: 9cd2 19be ce52 5a3a 91bc e9bc cf69 993d
00000060: a426 8e3c 6d44 553c 872a 023d 1e56 4fbd
00000070: 36a9 4ebd 276d b33d f960 1fbe 8b95 b43d
00000080: 6436 65bd 97f6 4cbd e11d 2c3d 9d60 99bd
00000090: 0a83 b1bd 8df1 2ebd 149d f1bd bf2c 93bc
000000a0: 396a babd 21cc 03be 80fd cbbd 7596 173e
000000b0: a714 11be 4c93 4ebd 77f6 d33c 5b78 843d
000000c0: 0c48 f5bd 1740 e2ba d16e 91bd 68fd 183e
000000d0: f02c fcbc b238 19bc 16f6 803d 34d7 9f3d
000000e0: d5f3 c5bd 19a0 36bd dc4b a9bd 49a8 57bd
000000f0: 52b7 6bbe 2dac 183e 691b bb3d f1bf 113e
0.026253134 -0.017281568 -0.09421524 0.044627573 -0.00077753846 -0.044529967 -0.053210024 0.07316221
-0.027848525 -0.0514366 -0.09728574 -0.20930699 0.13047267 0.045160867 0.034683336 -0.0019832354
0.0374177 -0.14774935 0.17150533 0.032129962 -0.15021747 0.0008328379 -0.028532298 0.074908845
0.01735241 0.013016802 0.03177884 -0.050619237 -0.05045434 0.087610535 -0.15564336 0.088175856
-0.055960074 -0.050039854 0.042020682 -0.07489131 -0.08667572 -0.04271083 -0.117975384 -0.017965673
-0.091022916 -0.12870838 -0.09960461 0.14803489 -0.14168034 -0.050433442 0.02587436 0.064682685
-0.119766325 -0.0017261532 -0.07101215 0.14940417 -0.030783147 -0.009351896 0.06296937 0.078047186
-0.09665648 -0.044586275 -0.08266422 -0.052650724 -0.2301915 0.1490943 0.091360874 0.14233376

weight f4 [64, 64]
00000000: bb76 b83c 4d70 b73d a7f3 94bd d967 563d
00000010: df2d 983e f4cf d83d b9b9 423d 0189 eabc
00000020: f92e 683d 4673 ddbd 8960 273d f559 4a3e
00000030: 3187 493d 17bf a9bd 9cbe 9a3d 059d 953c
00000040: 9a1f 5e3b 5615 a1bd f496 82bd 05cb 54bd
00000050: 316e adbc 835b 1dbe a679 56bc 7b69 533d
00000060: c1b6 fb3d 594b 673d 86fa 223d 66f3 2d3e
00000070: 2462 863d 9dfe 723d 135d 6d3d 4958 ef3d
00000080: 327b a8bd bba0 d4bd ba73 69bd 2c7b 563c
00000090: cf4a 1d3e bf48 c03d 36b5 a8bd d21c f83c
000000a0: 1e8a c7bc 479d 1ebd 8aec e0bd 6d91 0f3d
000000b0: cfd1 9ebd e3e6 b13d 613b efbb 1251 c73d
000000c0: ef91 9b3d 88fb 963d fe61 863d 657a 95bc
000000d0: 2007 0dbd 867a 413d 4b3a a43d 4497 f7bc
000000e0: f7de 9abd fa55 60bd 26df e2bb edf7 02bd
000000f0: 9a3e 9dbc fea2 1b3e fc80 48bd c215 0d3e
00000100: a709 0fbe a89d 84bd 6aa2 5c3d 1532 273e
00000110: a214 42be 0d76 cf3d de8d 323d d9aa 4abd
00000120: 26e1 ba3d 6c78 f8bd 1082 5dbd 87f5 58be
00000130: 829f 05be ca6b 18ba 9cf7 cf3d ac49 cf3d
00000140: 5d3c 3f3d 3153 c53a 08f5 ecbc 923b 193e
00000150: 0135 653d 3146 3b3e 0428 123d 36f5 36be
00000160: 9def d2bd 2b1e a83d 6e0f 323e ffc4 66b9
00000170: 4752 b93c edcd 6b3d d3b1 bdbc eaf5 d0bc
00000180: 20d8 33bc 5fe7 a7bc 874f 213e cd85 cf3d
00000190: 146b 15bd 0ce2 ae3d 2228 dc3b d130 96bd
000001a0: 3a06 ccbd be7d f6bd 71d8 a3bc 98d7 2e3e
000001b0: a5c9 563d ecec 7e3d 28fd 003c c3a6 4bbd
000001c0: 5e8a b3bb 02f6 a03d dfbb 303e 7361 203e
000001d0: c206 32be d1d5 8fbd 54eb 26bd e733 4c3e
000001e0: bd14 27bd 0874 d8bd 6771 c43d d651 36bd
000001f0: c242 433d e960 503d 94ef 9abc e2ad 003d
00000200: 00d4 ee3a 8825 c63d 00e9 d9bd 0092 3f3d
00000210: 7f08 853d 6214 d83d 8a9e bc3d 25aa d2bd
00000220: 8c32 83bd 3010 d33c 2d5d c6bd bd48 89bd
00000230: 7421 89bd 4889 063d 667d 79bd dc02 49bd
00000240: 4c6a c7bd 9970 b43d a559 08be 41e0 de3c
00000250: 004d 6b3b e5ba a43d 0325 efbd 8b15 2abb
00000260: 5abf febd 1dc2 bbbc e3b0 e83c b80c 0cbd
00000270: 8109 bf3b 6c1b a8bd f3d0 10bd 7810 efbd
00000280: 9e87 e93d 85af 2fbd 9d30 073b 0042 003b
00000290: 4ed2 febd e062 3e3c cc12 35bd 206b 39bd
000002a0: 20ab e93d c098 383d 04df 75bd 2474 1bbc
000002b0: 4e48 e33d 5853 3ebd 0a3b cfbd 8077 51bc
000002c0: fe52 bdbd 294f d5bd 91f1 92bd e8c1 fbbd
000002d0: 4ddd a53d 83fe 9ebd 1715 833d 2a44 1a3c
000002e0: 52cb c1bd 1ae4 fabd b0ad 343c f022 5ebc
000002f0: affd cabd e4f9 89bb 3b48 163d 37a6 823d
00000300: dfb4 2d3a ed2e 84bd 8959 173d aac3 b93d
00000310: c747 fcbd 0c2e 023e e47f 3dbd 5680 c93c
00000320: 8f04 b7bc 00fa 1b3e 81ee 1cbd 9a11 df3c
00000330: 776f 64bd dbeb c63d d0b1 323e fc22 ccbc
00000340: 9541 883d 8b13 ffbd 02f1 043e d9e7 bd3d
00000350: 3f00 a9bc e3e2 a5bd 3831 e93d d365 aabc
00000360: b1c9 cfbc 0e03 183e 7ec4 243e 997e 083e
00000370: 5c0f ff3d 0681 843d b330 c83d 3f20 9d3c
00000380: 88d7 b13c d639 d53d 46b7 46bd 089e 3c3d
00000390: 6005 a6bd b1c0 d93d 37e9 453d 07ef 9abd
000003a0: 2602 023e 5f8b 833d 66e7 8d3c 73b4 1c3d
000003b0: 320b b3bc 7edc c4bd 576f 30bd ad31 623d
000003c0: 3386 7abd bccf 363c 3b60 2ebb fd1a 803d
000003d0: db29 bebd 9526 02be 82e2 c33b 58c8 403e
000003e0: 9075 673c 9c96 16bd 308f 9cbd 7638 eb3d
000003f0: 465c afbc a270 423e dad6 34bd e84b 6f3d
0.022517553 0.089569665 -0.072730355 0.05234513 0.29722497 0.10586539 0.0475404 -0.028629782
0.05668542 -0.10813002 0.040863547 0.19760878 0.049201194 -0.082884006 0.07555887 0.01826335
0.0033893348 -0.07865398 -0.06376448 -0.051951427 -0.021170707 -0.1536694 -0.013090527 0.051614266
0.12290717 0.05646834 0.0397897 0.1698738 0.065616876 0.05932485 0.05795009 0.11686761
-0.08226623 -0.103822194 -0.05699513 0.01309089 0.15360568 0.09388875 -0.08237688 0.03028718
-0.024357852 -0.03872421 -0.10982616 0.0350508 -0.077548616 0.08686616 -0.0073007797 0.0973226
0.07596194 0.073721945 0.06561659 -0.018246839 -0.034430623 0.047235988 0.08018931 -0.030223496
-0.075620584 -0.054769494 -0.006923574 -0.03197472 -0.01919489 0.15198895 -0.048951134 0.13777831
-0.13968526 -0.06475383 0.053865828 0.16327699 -0.18953183 0.10129938 0.043592326 -0.04947934
0.09124975 -0.12132344 -0.054079115 -0.21187411 -0.13049129 -0.00058144017 0.101546496 0.10121474
0.046688426 0.00150547 -0.028925434 0.1496413 0.05595875 0.18288495 0.035682693 -0.17866978
-0.10299609 0.08208879 0.17388698 -0.00022007896 0.02262224 0.057569433 -0.023156082 -0.025507886
-0.010976821 -0.020496069 0.15752994 0.10132942 -0.03647907 0.08539209 0.0067186514 -0.0733353
-0.09962125 -0.12035702 -0.020000668 0.1707443 0.052438397 0.062237665 0.007872857 -0.049719583
-0.005479141 0.07859422 0.17259167 0.15662174 -0.1738539 -0.07023204 -0.04075177 0.19941674
-0.040791262 -0.10569006 0.09591942 -0.04451164 0.047671087 0.05087367 -0.018913068 0.031415828
0.001822114 0.09675127 -0.10640144 0.046770096 0.06495761 0.10550763 0.092099264 -0.10286359
-0.064061254 0.025764555 -0.096857406 -0.06703327 -0.06695834 0.032845765 -0.060910605 -0.049074993
-0.097370714 0.08810539 -0.13315447 0.027206542 0.003590405 0.0804346 -0.11676981 -0.0025952782
-0.12438841 -0.022919709 0.028404659 -0.034191817 0.0058299904 -0.08208355 -0.03535552 -0.11673063
0.1140282 -0.042891998 0.002062834 0.001957059 -0.12442456 0.011620253 -0.04420738 -0.045268178
0.11409593 0.04506755 -0.060027137 -0.009488139 0.110977754 -0.0464662 -0.10118683 -0.012784839
-0.09244345 -0.10415489 -0.071749814 -0.12292844 0.080988504 -0.07763388 0.06400507 0.009415666
-0.094626084 -0.12250538 0.011027738 -0.013558134 -0.099116676 -0.0042106975 0.036689978 0.06379359
0.0006626378 -0.06454263 0.03695062 0.09070523 -0.12318378 0.12712878 -0.046264544 0.024597328
-0.02234104 0.15232086 -0.038313393 0.027230073 -0.055770364 0.097129546 0.17450643 -0.024919026
0.06653134 -0.124548994 0.12982562 0.09272737 -0.02063 -0.08099916 0.11386341 -0.020800507
-0.025364729 0.14844915 0.16090581 0.13329543 0.124541014 0.06469922 0.09774914 0.019180415
0.021709219 0.10411422 -0.048514627 0.046049148 -0.08106494 0.10632456 0.048318114 -0.07565122
0.12696132 0.06423067 0.017322253 0.038258027 -0.021855924 -0.09612368 -0.043074932 0.055223156
-0.06116314 0.011157926 -0.002660765 0.062551476 -0.09285327 -0.1271003 0.0059779296 0.18826425
0.01412715 -0.036764726 -0.07644498 0.114853784 -0.021406304 0.18988279 -0.04415021 0.058422

bias f4 [64]
00000000: e962 833a 3977 bd3d 3eec 05be 662b 0e3e
00000010: 35c5 b6bd 3656 573d 52f9 e83d 3c0a 993d
00000020: 8c03 b93d 379d 143e 6174 aabd 5704 a4bd
00000030: 79bd 073d f59d 663d 27f2 503c adb2 e83d
00000040: 75dc f339 cafb 0ebe c020 21be a307 c33d
00000050: b35f 523d 0c43 383d a0be 833c 1003 cbbd
00000060: bbf8 c4bd 12c0 db3d d1ed 9c3d 6c09 843d
00000070: e27f 423e 635f 89bc 69d1 2ebd 7a2b 783d
00000080: 2e40 b93d daf5 d53c d2cb 80bd 5ac2 48be
00000090: 3f10 303d 7f44 2f3c f5c0 2f3e e1af 703a
000000a0: 9662 d8bd 14a7 3a3e 52f1 94bd dbc7 cabd
000000b0: 42de 94bb 680d 013e ab72 88bd e57c 3bbd
000000c0: c24b 3cbc 09a3 32bd 088e 17bd 5001 4fbb
000000d0: 3aa3 123d bf90 9b3d 96cb a3bd 4652 253d
000000e0: 10e1 b73d 5cdf 8fbb 17aa d93c 20eb d3bb
000000f0: b302 f5bd e306 ccbd 1e2d 393e 7635 2abd
0.0010023984 0.092512555 -0.130784 0.13883743 -0.08924333 0.05257245 0.11375679 0.07472655
0.0903388 0.14513098 -0.08322979 -0.0800864 0.03313968 0.056302983 0.012753046 0.11362205
0.00046512825 -0.13963237 -0.1573515 0.09522941 0.051360797 0.044985816 0.016082108 -0.099126935
-0.09617754 0.10729994 0.076625474 0.064471096 0.18994096 -0.016769117 -0.042680178 0.060588337
0.090454444 0.026118208 -0.06288876 -0.19605389 0.042984243 0.010697483 0.17163451 0.00091814814
-0.10565679 0.18227798 -0.07272591 -0.09901401 -0.0045430968 0.1260277 -0.06662496 -0.045773406
-0.011492671 -0.043612514 -0.037000686 -0.0031586476 0.035800196 0.075959675 -0.07997815 0.040361665
0.08978474 -0.00439064 0.026570363 -0.006467238 -0.119634055 -0.09962251 0.18083617 -0.04155489

weight f4 [3, 64]
00000000: 62a1 acbd 2bf9 f03d 2a01 633b 9858 0abd
00000010: 7ded afbb e55c 9cbd dd0d eebd d56b d8bd
00000020: d2e8 0fbd da9a bd3d 2590 d83d 4d8e d13d
00000030: 7966 b4bd 9119 233e cf69 d5bc 144f 73be
00000040: 6306 29be facd 22bd 7d46 0e3e 4f28 833d
00000050: dcd8 e1bd d94a a1bd fb92 9ebd 4a7b c23d
00000060: ca53 1f3d 735a 1dbd febe 38be 1bfd 20be
00000070: 3d66 41be e8ec 45be 00e4 cd3d 7108 d4bd
00000080: 55e0 763d e62b 363e cdf5 3e3e f36d f3b9
00000090: 17da 42bc 7d57 353e fb6b 0abe ca3d f2bd
000000a0: a028 85bb 60c7 863d 80d4 3d3e a78c 9f3e
000000b0: 50a3 dbbd 1a04 85bd 01a6 203e edef 283e
000000c0: e3a5 b13c d2c3 96bd eca8 e13d 76b7 d7bd
000000d0: 059f 103e d0b8 7cbd 2914 913c 47fc bbbb
000000e0: a9f7 05bb 95ad 143e d452 163e 35f3 12be
000000f0: 49b3 dabc e116 873d 87a1 f4bd f208 123e
00000100: baa5 9b3d 0e9f 17be c0a4 f3bc 8fc0 60be
00000110: 1d95 c5bd 28ba f039 6188 4bbe 9e7f 9d3d
00000120: 6756 843d 1966 62be e842 d93d 2cb2 8d3d
00000130: ba43 3b3e ab71 99bd e229 5fbd d7aa 2f3d
00000140: 5a7d 0cbd e5fc 6d3d 1bc5 453d 7fd3 bfbc
00000150: 2f85 53bd fbf0 ef3d 8858 0a3d 0b68 1b3e
00000160: 2f32 76bd ecdb 2ebe 14bf b5bc d784 003e
00000170: 9bff babd 08e4 45be 8bc3 41bd 64e8 e1bd
00000180: 5db9 d0bd 6e8a f33d 3420 d0bd 891c 823e
00000190: 48fc bcbd fd31 ecbc 9dcd 463d 2c4f 243e
000001a0: c410 f63d b383 2ebe 6904 2dbd 02c0 dabe
000001b0: 4241 493d 5125 1cbe 6333 8f3d 4a62 d63d
000001c0: 10fd 313d 4110 7e3d f7cc 613d fec3 c93d
000001d0: 7d07 073d 32cc b53d ed1d 9abd c28d 913d
000001e0: 9515 ad3d 9131 dabd 429b febd aec7 5bbe
000001f0: 8b0b f63c 48ef eebd f4d8 59be 8f6d e03c
00000200: 8c9d 12bd 87d5 623d 2515 bf3d 833b 913d
00000210: cd60 a13d 22b0 553e 85a1 c33d 22b3 e1bd
00000220: 8ef2 df3d deff ec3d a3e5 303d 24a5 273e
00000230: 42cc b8bc ea8e 96bd 7371 1abd 39a0 073e
00000240: f82a 433c 76ee a63d 7ed4 2b3d 2e35 5d3d
00000250: d5cb cabd 5582 323d 062c 29bd b656 903d
00000260: 2512 c53d c93f 153d 97e7 5c3d 0ee8 c23c
00000270: 9065 4a3d 6dc1 2fbe 10b3 f23d 5607 f2bd
00000280: 7b36 433d 4c55 adbd e9a0 d9bd dabb 9e3c
00000290: 8063 1fbd 6093 193e caff 143e 082c bfbd
000002a0: 40d4 5dbd a584 8c3d 6e7f 91bd d836 abbc
000002b0: e9c6 2c3d f61d ab3b aac3 3a3e c7a0 3c3e
000002c0: c21a e9bc d85f 2c3e 1838 6ebd ac40 923d
000002d0: 5ee0 a3bd b71a 043e 5375 fd3b 27e4 20bd
000002e0: 1cd2 813c d237 1dbe 5339 b8bd 6a4b 943c
000002f0: 51a3 293d 944d 6b3d 47c2 0cbe d2d0 3f3d
-0.08429219 0.11766275 0.0034638145 -0.033775896 -0.005368887 -0.07634906 -0.11623738 -0.10567442
-0.035134144 0.09258051 0.105743684 0.1023222 -0.088086076 0.15927722 -0.02605143 -0.23760635
-0.16506343 -0.039747216 0.13894077 0.06404173 -0.11027691 -0.07875604 -0.07742878 0.09496172
0.038898267 -0.038416337 -0.18041608 -0.15721552 -0.18886657 -0.19328654 0.10053253 -0.103531726
0.060272533 0.17790183 0.18648453 -0.0004643049 -0.011892817 0.17709155 -0.13517754 -0.118281916
-0.004063681 0.065809965 0.18538094 0.31161997 -0.10724509 -0.06494923 0.15688325 0.16497774
0.021685546 -0.073615685 0.110185474 -0.10533039 0.14123161 -0.06169969 0.017709808 -0.005736861
-0.0020441806 0.14519341 0.14680034 -0.14350589 -0.026696818 0.06596161 -0.119448714 0.14261225
0.07599969 -0.14806768 -0.029741645 -0.21948455 -0.09647582 0.00045915064 -0.19876243 0.07690357
0.064617924 -0.2210926 0.106084645 0.06918749 0.18287554 -0.074923836 -0.054483302 0.042887535
-0.034299232 0.058102507 0.048283678 -0.023416279 -0.051640686 0.11715885 0.033775836 0.15176408
-0.060106453 -0.17076081 -0.02218584 0.12550674 -0.09130784 -0.19325268 -0.047305625 -0.11030653
-0.10191605 0.11891638 -0.10162392 0.25412396 -0.09227806 -0.02883243 0.04853593 0.16045827
0.120149165 -0.17042427 -0.042240534 -0.42724615 0.0491345 -0.1524861 0.06992223 0.10467966
0.04345423 0.06202722 0.05512711 0.09851836 0.032966126 0.08876838 -0.07525239 0.07107116
0.08451382 -0.10653985 -0.12431957 -0.2146289 0.030034801 -0.11666733 -0.21274167 0.027395992
-0.03579478 0.055379417 0.09330205 0.07091429 0.078797914 0.2086797 0.09552292 -0.11020495
0.109349355 0.1157224 0.04318775 0.1637159 -0.022558335 -0.073514774 -0.03770585 0.13244714
0.0119121 0.081509516 0.041950695 0.054005794 -0.09902159 0.043581326 -0.04130175 0.07047789
0.096226014 0.036437783 0.0539318 0.023792293 0.049413264 -0.1716363 0.1185056 -0.118178055
0.04765938 -0.08463535 -0.10626394 0.019376684 -0.03891325 0.14997625 0.14550701 -0.0933457
-0.054157495 0.068612374 -0.071043834 -0.020900175 0.042181883 0.0052220775 0.18238702 0.18420707
-0.028455142 0.16833436 -0.058158964 0.071412414 -0.08001779 0.12900816 0.0077349334 -0.039280083
0.015847258 -0.15353325 -0.08995309 0.018102366 0.041415516 0.05744703 -0.13745986 0.046830006

bias f4 [3]
00000000: 1e02 b2bd 6d78 3f3d 3065 a6bb
-0.0869181 0.046745706 -0.0050779805

exp_avg f4 [64, 3]
00000000: 1995 03bb 595a adb8 589d b7b9 bbdf 36b9
00000010: d0e2 23b9 3cf6 70b9 cb9e dab8 c0f2 043a
00000020: 028c 8438 38dc f0b9 57bc 32b9 a74e ebb9
00000030: 6cc0 1eb8 ad5f 8fb9 c7b7 55b9 429e 4039
00000040: 1b35 da39 a504 ec39 959b bfb9 2ba6 11b9
00000050: 12b7 0d3a 90d8 443a aaba b9ba 02b7 9bb8
00000060: 20b9 dfb8 c23a 8bb8 28ad ee38 97d9 10ba
00000070: d14d e3b9 4773 633a 4fdf b7b9 4cad a539
00000080: 3a58 95b9 32e5 d239 30f2 7839 ed20 3ab9
00000090: e742 c739 61f7 83ba 9491 3539 870a 4839
000000a0: 54a9 24b8 4816 7639 944d 1a39 a5f1 0fba
000000b0: a7e5 82b8 29b3 5aba 00f9 d53a 595d 70b8
000000c0: 20a1 03b9 e89d efb8 5b8e 9b3a 171d 463a
000000d0: 629f 2bba 3f3c 593a 7966 7839 114f 6db9
000000e0: 9f21 bdb9 cfec e8b9 74c8 b539 551d 9e36
000000f0: 8a53 9537 0f08 90b8 ba25 25b9 b056 4239
00000100: ee8b a2b8 2b36 1039 f363 00b8 b5a9 4639
00000110: 292d 023a 6094 fdb9 d18e c2b9 89c5 8939
00000120: 06ed 3db9 3600 f0b8 1ed0 243a 6889 b434
00000130: 6889 b4b4 733b bd34 2a3f e638 7200 01b8
00000140: 66a8 0238 e98e e6b8 45c9 19b9 b794 a238
00000150: 3d08 0b3a 4fb8 0fba 2498 a9b9 fb3b 4639
00000160: a718 6238 5b83 093a 874b 28b8 ee9e a838
00000170: d81f a3b9 2a9c 7031 2a9c 7031 ff5c 7231
00000180: 9c2a 7239 7b35 a4b9 d4b3 ea39 dc08 ad3a
00000190: 911d a9b9 dbcd 8539 ebe4 c639 576c 3d39
000001a0: 12bd 7fb9 149e 3a39 0512 3a3a 80d7 3f39
000001b0: f936 cf37 a4b6 42b9 b77a f938 8a8b cf3a
000001c0: 6c6b 4539 32a5 9839 5c7c 6b38 0d2b 3239
000001d0: 2f1e 97b8 1b86 e237 853a 2cb8 dc38 1c3a
000001e0: ca05 cfb9 4040 9039 6083 0cba 37cc 80b9
000001f0: 9e75 7ab9 0d27 d639 76d5 0f3a acd1 9d39
00000200: 950a de39 1a3a a2b8 e366 83b8 7a42 16b9
00000210: 4191 51b8 f338 45b8 be87 8a37 4c3d ffb8
00000220: db5f 21b8 71c1 8038 919f 9d39 70a2 c637
00000230: 5ab4 df39 0172 263a 8002 71ba be56 e039
00000240: e80b cdb8 c664 c3b9 50c3 2cb8 7360 4e39
00000250: b539 81b9 b72b ed39 08f8 b239 f1f4 5fb9
00000260: a636 073a b1d7 f5b8 5da7 adb9 b2b9 133a
00000270: ad81 8139 a90a 8739 7810 09ba f774 32b8
00000280: 4b06 d438 fbdb 05ba 498a 16ba c097 df39
00000290: 9324 10b9 234a 85b9 5cd2 8a38 d3f2 6f39
000002a0: 708e 3db7 35e3 523a 14c9 963a 558a 0339
000002b0: 8666 84b7 2d82 3e39 b6a1 92b8 24f2 c338
000002c0: 72eb 2bb9 a766 4cba e8d9 e139 1f02 8838
000002d0: 3845 ad38 ed19 e638 e14d 7e39 d394 85b8
000002e0: 4379 8639 3730 8e38 d137 7e37 1210 11b9
000002f0: 571c 51b9 6f24 97b9 f3b7 d9b9 b22c 453a
-0.0020077883 -8.2661114e-05 -0.0003502171 -0.00017440219 -0.00015629386 -0.00022979913 -0.000104246275 0.0005071573
6.320329e-05 -0.00045940443 -0.00017045565 -0.00044881293 -3.7849342e-05 -0.0002734637 -0.00020381725 0.00018369503
0.00041619767 0.00045016888 -0.00036546277 -0.0001389018 0.0005406003 0.0007509077 -0.001417001 -7.425064e-05
-0.00010667951 -6.638981e-05 0.00011380977 -0.00055255875 -0.00043354792 0.00086765405 -0.00035070858 0.0003160037
-0.00028485229 0.00040225085 0.00023741345 -0.00017750608 0.00038006084 -0.0010068231 0.00017315737 0.00019077408
-3.9258346e-05 0.00023468689 0.00014715485 -0.0005491025 -6.241659e-05 -0.0008342737 0.0016324818 -5.7307396e-05
-0.00012553157 -0.000114258204 0.0011867987 0.00075574353 -0.0006546882 0.00082868704 0.00023689297 -0.00022631536
-0.0003607394 -0.00044426924 0.0003467236 4.7121816e-06 1.7801085e-05 -6.867956e-05 -0.0001574968 0.00018533575
-7.750826e-05 0.0001375309 -3.0610663e-05 0.00018945972 0.0004965836 -0.00048366468 -0.0003710897 0.0002627785
-0.00018112743 -0.00011444131 0.00062871154 3.362759e-07 -3.362759e-07 3.5247248e-07 0.0001097902 -3.075641e-05
3.115125e-05 -0.00010993874 -0.00014666196 7.752462e-05 0.0005303657 -0.0005482481 -0.00032347545 0.00018905096
5.3905558e-05 0.0005245709 -4.012466e-05 8.040467e-05 -0.00031113508 3.5013366e-09 3.5013366e-09 3.5268497e-09
0.00023094792 -0.00031320364 0.0004476594 0.0013201493 -0.0003225622 0.0002552111 0.0003793606 0.00018064804
-0.00024389129 0.00017797231 0.0007098022 0.0001829546 2.4701922e-05 -0.0001856932 0.00011896103 0.0015834433
0.00018827402 0.0002911478 5.6144185e-05 0.0001699144 -7.205863e-05 2.7003747e-05 -4.1062496e-05 0.00059594004
-0.0003948643 0.0002751369 -0.00053601526 -0.00024566214 -0.00023885674 0.00040846356 0.0005486825 0.0003010159
0.00042351024 -7.735584e-05 -6.265731e-05 -0.00014329879 -4.996476e-05 -4.7021498e-05 1.6514092e-05 -0.00012170765
-3.8474664e-05 6.139547e-05 0.0003006426 2.367908e-05 0.00042668247 0.00063493854 -0.0009193793 0.00042789237
-9.7773795e-05 -0.0003726838 -4.1189895e-05 0.00019681621 -0.00024647792 0.00045236733 0.00034135603 -0.00021358185
0.00051579846 -0.00011722686 -0.00033121827 0.0005635276 0.00024701413 0.0002575715 -0.0005228589 -4.254744e-05
0.0001011012 -0.0005106327 -0.0005742652 0.00042646937 -0.00013746535 -0.00025422973 6.619535e-05 0.00022883275
-1.1298442e-05 0.0008044721 0.0011504018 0.00012544666 -1.5783367e-05 0.00018168306 -6.9919435e-05 9.343427e-05
-0.00016395541 -0.0007797279 0.00043077697 6.4853804e-05 8.262176e-05 0.00010972084 0.0002425234 -6.369655e-05
0.0002564882 6.780068e-05 1.51525755e-05 -0.00013834264 -0.0001994235 -0.0002882811 -0.00041526518 0.0007521614

exp_avg_sq f4 [64, 3]
00000000: 183c 6335 39b6 c233 3be4 9634 3ed1 0c35
00000010: 49a1 ae34 f9fa 9234 f408 5f34 5a17 5f34
00000020: 465a fd33 82ea 1134 bbaf ce34 4e39 1c34
00000030: c3b2 aa34 cc4f 3334 9396 f333 7913 1035
00000040: 8dc8 b035 f7bf a834 9bbf 2d34 8da2 9035
00000050: 3719 4635 0207 7c34 e148 2f35 9d3f 9834
00000060: 9419 1034 f6fc b934 a983 d633 432e 4434
00000070: 2d21 1934 f8b1 2634 222d 0435 00ed a334
00000080: a457 1935 e99e 3e32 a780 a032 b248 2133
00000090: 2997 e034 c04a 9435 9be6 6234 03e9 1334
000000a0: fb6e cb33 81f1 ec33 998a 4b34 2cb9 9034
000000b0: 9582 1f34 7643 a534 bbd7 4935 a0ad 8d34
000000c0: 0d81 ff33 7928 7134 cf09 b234 b117 8834
000000d0: e519 2734 3bf3 4834 1b2c 1234 e5b4 8134
000000e0: ba4a 5834 7bab a233 7991 a733 1e5a 8133
000000f0: 6bad 1034 8614 9b33 f7c7 d033 6f55 4036
00000100: e727 2a34 6267 b033 e3ca eb33 111f 2434
00000110: c11b c033 c305 6634 972b c134 2e2c c733
00000120: 44c3 9d34 3c00 2b35 bb6b f433 7027 4234
00000130: f4ec 2033 9bdd 9c33 3a5d d933 65c6 3634
00000140: 6f18 8933 86e7 c934 c1ce f134 b10b 7a34
00000150: 9047 ac34 63dc ed35 b2d0 a134 655a 0934
00000160: 5146 8834 4338 1a34 a055 7f34 77ae 5035
00000170: 5b03 4734 3b83 8334 c319 8233 6869 db33
00000180: b785 ab34 72c1 8233 b0fa d933 5018 0435
00000190: ca4b 9234 b5c7 ec33 e4a2 2b34 79f7 0434
000001a0: 05b0 f033 4bfe 2c35 7ac2 e135 24c3 e534
000001b0: 57d4 2134 cb70 3d34 aa6b e633 1736 7735
000001c0: e08b 0e35 41a8 b434 c681 ae33 6148 8b34
000001d0: 8e2a 3834 edc6 e033 e252 db33 deba 5c34
000001e0: 6c2b a334 477b 6135 b232 ce33 aefb a034
000001f0: 14e5 5134 c983 8334 cb82 e634 194d 2034
00000200: 0552 4234 49b4 5934 6e9a c634 b694 8034
00000210: d7e8 1534 7daf bd33 fb36 9a33 45df 6c34
00000220: 29da 0734 250f 0434 280c d534 673d ea34
00000230: 6176 8634 d4fa 2134 f41c c734 a38c a133
00000240: f9bc b134 76e5 ee33 fc43 6634 d638 0234
00000250: 77ad 8334 e3dd f433 80e5 4534 a56f a034
00000260: eda1 1134 0e13 5f35 aca9 c435 2376 1135
00000270: 6369 b833 035a e534 86d9 1e34 81a9 5434
00000280: 3f12 4835 0892 e234 dd16 bb34 7ea8 c034
00000290: 7d9f 4f34 1db8 3b34 7247 6f34 4337 3434
000002a0: 46d3 8634 0ca8 9835 ec0a 8e34 52ac 8233
000002b0: 1047 1234 7104 0234 1bc5 0d34 3982 fe34
000002c0: 0622 4634 2982 c234 40bd 3c35 0fee 7a34
000002d0: 0b4d 8b34 2b8e 1034 dbac ec33 f4ba bc33
000002e0: d3e2 d734 31cc 1034 97be 1334 73ee cd34
000002f0: edd8 9734 f880 9834 0b7b 1135 2458 7f34
8.465154e-07 9.066975e-08 2.8105737e-07 5.245855e-07 3.2527376e-07 2.7377226e-07 2.077175e-07 2.0776989e-07
1.1797651e-07 1.3589491e-07 3.849835e-07 1.454948e-07 3.1795034e-07 1.6699704e-07 1.13429586e-07 5.3672517e-07
1.317139e-06 3.143211e-07 1.6181586e-07 1.0776145e-06 7.379744e-07 2.3471878e-07 6.5298633e-07 2.835849e-07
1.342035e-07 3.4642989e-07 9.9891004e-08 1.8270752e-07 1.4261305e-07 1.55247e-07 4.923951e-07 3.0533556e-07
5.7124475e-07 1.1095588e-08 1.8684956e-08 3.755185e-08 4.1833235e-07 1.1048614e-06 2.1131784e-07 1.3775211e-07
9.4731114e-08 1.1033536e-07 1.895627e-07 2.695682e-07 1.4855534e-07 3.078273e-07 7.5192264e-07 2.6389625e-07
1.1897837e-07 2.2459598e-07 3.316222e-07 2.5349212e-07 1.5562507e-07 1.8714938e-07 1.3613355e-07 2.415974e-07
2.0143753e-07 7.574905e-08 7.803005e-08 6.023423e-08 1.3474134e-07 7.221483e-08 9.722128e-08 2.8659958e-06
1.5847e-07 8.214444e-08 1.0979945e-07 1.5284992e-07 8.945745e-08 2.1422515e-07 3.5980767e-07 9.274696e-08
2.9385603e-07 6.3702805e-07 1.13817315e-07 1.8082005e-07 3.746841e-08 7.304626e-08 1.0121808e-07 1.7022246e-07
6.384004e-08 3.7607623e-07 4.504018e-07 2.3287318e-07 3.2089565e-07 1.7722017e-06 3.0140433e-07 1.2792005e-07
2.5383136e-07 1.4362836e-07 2.3779876e-07 7.773992e-07 1.853454e-07 2.4496134e-07 6.058283e-08 1.02171555e-07
3.1948522e-07 6.088784e-08 1.015045e-07 4.920921e-07 2.7249763e-07 1.1025933e-07 1.5984875e-07 1.2383488e-07
1.1207889e-07 6.444504e-07 1.6820406e-06 4.2796557e-07 1.5071542e-07 1.764303e-07 1.07297936e-07 9.209338e-07
5.3102667e-07 3.3650034e-07 8.126112e-08 2.594343e-07 1.7151817e-07 1.0466997e-07 1.02130585e-07 2.0557079e-07
3.039271e-07 8.3998424e-07 9.601844e-08 2.9985443e-07 1.954798e-07 2.4496538e-07 4.2936003e-07 1.4929209e-07
1.8097496e-07 2.0275287e-07 3.6992736e-07 2.395006e-07 1.3961413e-07 8.8329195e-08 7.181185e-08 2.2060438e-07
1.2652221e-07 1.2298968e-07 3.9683187e-07 4.3630573e-07 2.5045577e-07 1.5085544e-07 3.7087705e-07 7.5227284e-08
3.3106315e-07 1.1124477e-07 2.1445152e-07 1.212787e-07 2.4526864e-07 1.14024964e-07 1.8430546e-07 2.9883554e-07
1.3563086e-07 8.31017e-07 1.4652519e-06 5.418862e-07 8.5873374e-08 4.2720066e-07 1.4794031e-07 1.9805704e-07
7.453236e-07 4.2202032e-07 3.48481e-07 3.588538e-07 1.9336399e-07 1.7482712e-07 2.2284601e-07 1.678391e-07
2.5113167e-07 1.1373791e-06 2.6457508e-07 6.0849416e-08 1.3623162e-07 1.2108809e-07 1.3203355e-07 4.7405936e-07
1.8452565e-07 3.623002e-07 7.031085e-07 2.336967e-07 2.5946824e-07 1.3462765e-07 1.10210486e-07 8.788439e-08
4.0211907e-07 1.348533e-07 1.3759778e-07 3.835772e-07 2.8283776e-07 2.8406043e-07 5.419576e-07 2.3780791e-07

exp_avg f4 [64]
00000000: 776d 023a 5359 4239 6ea6 a439 99cb ab39
00000010: 50f0 edb9 24e8 9839 41d7 9b37 2f61 50ba
00000020: ed36 80ba 7f38 f0b9 3397 18b6 30e7 07ba
00000030: 5776 c9b9 2378 34b9 64e8 803a 1f73 353a
00000040: 5670 4939 d8c6 77b9 63c4 8cb9 45a3 503a
00000050: 6729 e938 a7d5 ee39 ef58 4e37 f145 0ab9
00000060: d6ca 8939 ce29 5b34 9057 2d3a 4d63 4ab9
00000070: f486 f4b9 dcfa 06b9 a65a 9238 760b 12b1
00000080: e4a8 8dba ce03 16b9 580a 6eb9 62e3 09b9
00000090: 5e3d 0538 9607 e839 759c 80b8 e6ad 1e3a
000000a0: 435d a13a d422 ebb9 93ed 443a d53c 6e39
000000b0: 0823 02b9 9f6a 3db9 bbbb 53b9 92a4 61ba
000000c0: 09f9 12ba 9e79 6739 e717 3eba 95f0 4bba
000000d0: a19b ba39 0893 0cb9 00c4 5f3a 5e15 16b9
000000e0: a35c ad3a 2bff 97b9 fd75 5f39 e758 823a
000000f0: ba4b 82b9 4279 6cb9 5db7 9739 f1d4 83b9
0.0004975418 0.00018534558 0.00031404517 0.00032767354 -0.0004538321 0.00029164657 1.8577675e-05 -0.0007949052
-0.0009781994 -0.0004581846 -2.2737775e-06 -0.0005184291 -0.00038425878 -0.00017210892 0.0009834883 0.00069217564
0.00019210702 -0.0002362983 -0.000268492 0.00079588994 0.000111180176 0.0004555408 1.2299263e-05 -0.00013186761
0.000262818 2.0411173e-07 0.0006612474 -0.00019301214 -0.00046639855 -0.00012872688 6.978707e-05 -2.125231e-09
-0.001080778 -0.00014306532 -0.00022701302 -0.00013150045 3.1766824e-05 0.0004425614 -6.132658e-05 0.00060531346
0.0012311119 -0.00044848642 0.0007512208 0.0002272011 -0.00012410816 -0.00018064164 -0.00020192463 -0.0008607592
-0.0005606567 0.00022075183 -0.00072514865 -0.0007779685 0.00035592637 -0.00013406214 0.0008535981 -0.00014313075
0.001322646 -0.0002899108 0.00021310891 0.0009944708 -0.00024851953 -0.00022551886 0.0002893758 -0.0002514492

exp_avg_sq f4 [64]
00000000: 07ab 4434 031a 7d35 ffe1 4834 0c5f 8e34
00000010: 023b e434 11c1 6735 6fa2 ad35 65f1 1b35
00000020: 14ca 7735 7976 1534 76a3 cb34 7656 3833
00000030: d433 9735 7508 5034 c9ad 4634 6869 4135
00000040: 57e8 5634 b996 1a34 c683 7334 ed4b c633
00000050: 069d a033 6aa0 9435 9437 2d34 2287 1935
00000060: ea4a 3d35 9ecb 0a34 2512 8a34 21ba 5c35
00000070: 42b3 b635 f7e2 b334 c255 2335 f50e 9334
00000080: daec b534 12d4 2435 136a 5e34 f794 1b35
00000090: 91e2 7a34 cf61 1e35 567a 6234 d267 8a34
000000a0: c5ce 9d35 cb7c aa34 ac05 5b34 fbf4 3035
000000b0: eb30 e333 841b 3c34 b4a3 0a35 1efe d734
000000c0: ca9d 5134 6876 d134 9d76 c134 b372 0536
000000d0: 3196 5135 a7d3 6135 4ad5 e634 ee54 3434
000000e0: 4b45 6535 10e7 9634 d6b4 0d35 f758 5f35
000000f0: 8ded 6934 acb3 f134 5389 0f34 6bbb 9134
1.8316142e-07 9.4287697e-07 1.8708668e-07 2.6518717e-07 4.2511243e-07 8.6335154e-07 1.2936779e-06 5.8093275e-07
9.230873e-07 1.3919806e-07 3.793063e-07 4.2919474e-08 1.1265461e-06 1.9374586e-07 1.850341e-07 7.205149e-07
2.0014828e-07 1.43972e-07 2.2679077e-07 9.233904e-08 7.479143e-08 1.1073546e-06 1.61321e-07 5.7193586e-07
7.0517e-07 1.2926327e-07 2.5717705e-07 8.222724e-07 1.3612228e-06 3.3506487e-07 6.0847026e-07 2.7391766e-07
3.388621e-07 6.1403364e-07 2.0713951e-07 5.795877e-07 2.3365489e-07 5.9001917e-07 2.1092396e-07 2.5780042e-07
1.1757589e-06 3.1755766e-07 2.0398028e-07 6.59216e-07 1.0579409e-07 1.7518875e-07 5.1647226e-07 4.0231765e-07
1.9522045e-07 3.9015436e-07 3.6035354e-07 1.9885308e-06 7.8077124e-07 8.4127026e-07 4.2996027e-07 1.6794704e-07
8.540998e-07 2.8107797e-07 5.2789744e-07 8.3203435e-07 2.1786236e-07 4.5020477e-07 1.3367871e-07 2.714472e-07
