models/model_cavity_nu0.01_U1_20x20_epochs5000_noadaption_testpcnt0.2.pt (torch, 187059 bytes, 30 tensors)

weight f4 [64, 3]
00000000: 6d6d 243f 5e63 0ebf 0862 4e3e 5692 7e39
00000010: e97e 84bd 1470 43be 7bcf 01bf 3b7f 0dbf
00000020: 22a0 293d 857c fbbc 3605 bebe b083 12be
00000030: 984e 3abd 8904 233c dae9 7bbd f52f 023f
00000040: b3ae 3cbf 381d e13d 49a4 5b3e b14c 543c
00000050: 73a2 61bd 2580 e13e 171b 1cbf 2fbd 003d
00000060: b32e 14bf ee9c b43e ef29 1e3d 0d4e bb3e
00000070: 90ff 1abf f95d 00be 75c3 153d 619e 1ebf
00000080: 7d66 5cbe a7bb b8be ecb3 94bd 1658 80be
00000090: f542 4b3e f143 5cbf 67da 0cbd 2dfe 963d
000000a0: 11ad 39bf 9a6b b5be 6271 a7bd 125a 13bd
000000b0: a62c 2dbe 265b b63e 5705 40be 548f e0bd
000000c0: 47cf 3dbb b4cb d7be 312c 1abe 8e0d 223e
000000d0: e4b5 1dbf 1297 c7be 8875 fe3e fa5b 303f
000000e0: f877 8abd b5ad 77bf bb93 24bf b596 5c3e
000000f0: 5803 823d 58f1 15bf e717 0b3e b047 5bbc
00000100: 019c e33d f52e 51be 646f 41be a0aa efbd
00000110: b88e d2bd 69a2 b43e b348 01bf cb6d fd3c
00000120: b06f e63e d252 093f 4fe0 40be 0963 17bd
00000130: c46c 2fbf e246 34be 9abb 893e 615b 8a3f
00000140: 4714 86be 52f4 65bc a26b 3cbf 568f 7abe
00000150: 38a6 aa3e 7948 17bf 7e37 483e 321c 6abe
00000160: 2934 6fbc 1e9b 06be 3557 3fbf bcd7 273f
00000170: 1d35 92be 0c0e debe 4c99 3ebe 5e6a 40bf
00000180: 19bd 10bd fe63 dcbd 1b2b 54be 5f55 fe3e
00000190: efb7 6c3f 47a0 2fbd b9c3 a33d 3ad0 3dbf
000001a0: 5037 4cbe 68a4 14bd 3502 83bd 0924 6bbe
000001b0: deaf 053f 1373 36bf c49c f3b8 7556 edbe
000001c0: aec6 ed3e 47a0 343e 6fd1 1cbd 27bf 9b3d
000001d0: fe77 e2bd 589a bbbe 1d1a 47be f4d8 5a3e
000001e0: bbb6 1d3e c0c1 35bf 3b74 3fbe d26e e6be
000001f0: 8d02 483e 7383 0abb 9de7 4a3d f356 eb3c
00000200: bef6 5b3e 64f1 2e3f 3d41 06be 8665 053f
00000210: 40e2 bc3e 27df 03bf 26ab 1cbe 7c07 edbc
00000220: 663d 85bd 5dbf 83be c267 ebbe 4b28 edbe
00000230: d6cf 523c 982f 48be 1e89 483c 3a7f 8c3d
00000240: 7016 48bd 7e62 e93c 26db bc3e f250 423e
00000250: d280 41bf 13ac cbbd 2990 eebe 0352 e23e
00000260: a16a 4fba ae6b eabe 7c0f 92be aa1c 7fbb
00000270: 6606 8e3e b595 aabe 3ef6 9f3b 631c 0b3c
00000280: 80db e8bd a284 3cbe 34b0 633e 942c 1abf
00000290: c295 35be 9ae0 273f 5a51 3e3e da3c 703e
000002a0: 7de3 cc3e 7f8c fdbe 7150 84bd f9b1 febe
000002b0: 039f 013f c5d4 eebb c967 9f3e 0c97 9abe
000002c0: ddcc 9b3e 918e 103f 8049 17bf ab7f 0a3e
000002d0: ca41 11bf f5e9 e43e 2176 ee3b 3440 723c
000002e0: b97c 05be 5d58 73be 235f 4dbe c48d c6be
000002f0: 42dd 93be bbe3 e9be 4f94 fc3e ddf0 9dbe
0.6422947 -0.5562037 0.20154583 0.00024277842 -0.06469519 -0.19085723 -0.50707215 -0.55272263
0.04141248 -0.030699024 -0.3711335 -0.14308047 -0.04548511 0.009949812 -0.061502315 0.50854427
-0.7370407 0.10991901 0.21449389 0.012957738 -0.055086564 0.4404308 -0.60978836 0.03143042
-0.5788376 0.35275978 0.03861421 0.36582986 -0.6054621 -0.12535848 0.036563355 -0.6196042
-0.21523471 -0.36080667 -0.0726088 -0.25067204 0.19849761 -0.8604117 -0.034387972 0.07372699
-0.72529703 -0.35433656 -0.08175923 -0.03597457 -0.16911563 0.35616416 -0.18752037 -0.10964838
-0.0028962658 -0.421476 -0.1505592 0.15825483 -0.6160567 -0.38982445 0.49699044 0.68890345
-0.067611635 -0.9674943 -0.6428792 0.21541865 0.06348294 -0.58571386 0.13583337 -0.013383791
0.1111374 -0.20428069 -0.18890148 -0.11702466 -0.10281128 0.3528016 -0.50501555 0.030936142
0.45007086 0.53642 -0.18835567 -0.03695968 -0.6852534 -0.17605165 0.2690094 1.0809137
-0.26187345 -0.014035301 -0.73601735 -0.24468741 0.3332994 -0.5909496 0.19552419 -0.22862318
-0.014599838 -0.1314511 -0.7474244 0.6556356 -0.28556147 -0.43370092 -0.18613166 -0.75162303
-0.035336588 -0.107612595 -0.20719568 0.49674508 0.9246816 -0.04287746 0.079963155 -0.74145854
-0.19942975 -0.036289603 -0.06396905 -0.22962965 0.5222148 -0.7126934 -0.00011616343 -0.46355024
0.46440643 0.17639266 -0.03828567 0.07604819 -0.11058043 -0.36641192 -0.19443555 0.21371824
0.15401737 -0.70998764 -0.18696682 -0.45006424 0.19532223 -0.0021135479 0.04953729 0.028727984
0.21480843 0.6833708 -0.13110824 0.5210804 0.36891365 -0.5151238 -0.15299663 -0.028934233
-0.065058514 -0.25731936 -0.45977598 -0.46319804 0.012866935 -0.19549406 0.012239723 0.06860204
-0.048849523 0.028489348 0.36885947 0.1897619 -0.7558719 -0.0994493 -0.4659436 0.44203195
-0.0007912312 -0.45785278 -0.2852744 -0.0038926997 0.27739257 -0.33317342 0.0048816493 0.008490655
-0.11369991 -0.1840997 0.22235185 -0.6022427 -0.1773291 0.6557709 0.1858572 0.23460713
0.4001731 -0.49521253 -0.064606555 -0.49745157 0.5063326 -0.0072885477 0.3113387 -0.30193365
0.30429736 0.5646754 -0.5909653 0.13525264 -0.5674101 0.44709745 0.0072772657 0.014785815
-0.13035859 -0.23764177 -0.20055823 -0.38780034 -0.28879744 -0.45681557 0.493319 -0.30847827

bias f4 [64]
00000000: c13d 583e d0ed dfbe 1b1d 163e 9d0a 9cbe
00000010: 4972 75be 0045 a43e adf6 da3e 5b2a 253e
00000020: 0212 f63e 1f8d d7bd 76c0 acbe bf16 68bf
00000030: 7e97 58be 9cc4 e2bc 34a8 f8be b110 663e
00000040: f292 50be f1e8 a3be 8643 2abe e089 c43e
00000050: 0d44 d23d 8f1c 0abf 16f4 2bbf ab38 e23d
00000060: a584 b8bd 1614 c1be e3f4 10bf 9f51 1abe
00000070: 4157 09bd a8d0 20bf 93c9 dc3e 02bd c7be
00000080: 70ce 13bf bdb2 8cbe 8c4a 19be 428b 0ebf
00000090: 8da9 423e ba64 25bd 5bbf bbbe e1ba a1be
000000a0: 7d08 75be 74ae f73e 7766 ffbe 834c 453f
000000b0: c6f3 8a3e 42a3 19bf 4aea 0cbe 5eeb fcbe
000000c0: c5a4 39bf 498b 01be 7db2 ed3d acab adbe
000000d0: 0c28 023d 575b 01bf f906 29be 4a1c 253f
000000e0: 8805 653d 322b a23d 96d0 003f f0f4 423e
000000f0: fdd3 903e 1243 0ebf 663e 16be 402f 02bd
0.21117307 -0.43736124 0.1465954 -0.30476847 -0.23969378 0.32083893 0.42766324 0.16129439
0.48060614 -0.105249636 -0.33740586 -0.9065971 -0.2115154 -0.027681641 -0.4856583 0.22467305
-0.20368555 -0.32013658 -0.1662732 0.3838644 0.10266886 -0.53949827 -0.6716932 0.11045965
-0.09009675 -0.37710637 -0.5662367 -0.15070198 -0.033530477 -0.62818384 0.4312254 -0.3901139
-0.57736874 -0.27480116 -0.14969844 -0.5568124 0.19009991 -0.040379263 -0.3666943 -0.3158789
-0.2392902 0.48375285 -0.49882862 0.7706987 0.2713911 -0.60014737 -0.13761249 -0.4939832
-0.72517043 -0.1265079 0.116063096 -0.33920038 0.031776473 -0.5053 -0.16506566 0.6449629
0.055913478 0.07918395 0.50318277 0.19038749 0.28286734 -0.5557109 -0.1467224 -0.031783342

weight f4 [64, 64]
00000000: a73a 193e 8e10 b23d c32f a63d 5fa8 aa3c
00000010: d093 a7bb d9f4 08be 2b28 173c 6ca9 2c3e
00000020: e441 8c3d 4b31 4dbc df68 ef3d 54aa e73d
00000030: 6200 c5bd 718d 3bbd 6f65 4abd 1a93 13be
00000040: af4b 24be 0c73 11be aabe d5bd 9227 8abe
00000050: 8cef a1bd cbec 0c3e eebd 41bc b75a c6bb
00000060: cf91 46be 9a6e 953d ae93 683e a293 4a3d
00000070: 14d3 e3bd 4bf6 593e d84b d0bd 05ac b83b
00000080: f2f6 033e e550 3b3d bf9b 9abd 0ed5 703e
00000090: 866e 983d 7fde 5cbd 5739 0c3e 19a0 143e
000000a0: 371e 053d 9d51 4dbd 1760 aabd 7cfb dbbd
000000b0: bb61 92be e0ad 6d3e 8297 053e c055 25bc
000000c0: cc4e a2bd e7e9 a03d 466b c9bd 66c3 3fbe
000000d0: e34e 973e 72b3 a03c 4672 503e 0fda 2dbe
000000e0: 3ad9 cc3b 5854 20bd d508 bcbd f788 3abd
000000f0: 495f 37be a84a 8bbd b154 95bd 3a7e 06be
00000100: d26d 0fbd eb40 a03c 9b36 7a3d da9a c8bd
00000110: 8de0 dcbd f1fb 7bbd 8660 19bb f125 6e3b
00000120: 8f39 d73d cc27 70bd 343b 813d 6879 a53d
00000130: 8ba9 e93c 5c7d 163d a56c 02be ac13 543e
00000140: a9dd 57bd 8636 293c e74b febd 4397 eebd
00000150: c897 7c3d 9fee e1bd 08fa 963d 8ea5 ddbc
00000160: cf6a 843d 89b3 7dbc 9e31 97bd 1b82 44bd
00000170: 8ff6 27bd a7e0 afbd e0d1 c4bd 8073 9bbd
00000180: aa7b 21bd 9ce7 45bd 5ff1 42bc cd6f c53d
00000190: 56c8 05be 4f18 f0bc b304 03bb 898d a33c
000001a0: bed9 5abd b309 2e3c a8a2 143e 3ee1 1c3d
000001b0: 1f4d 28be a1e8 00be 8d17 a23d c49a 60bd
000001c0: c6cd 94bb b2d9 0f3d ab78 a1bd d87f b7bd
000001d0: 766f 4d3d 5981 51bd 7f14 f8bd a1ea ebbd
000001e0: 7392 473d e7a0 c9bd f560 a43c 675a 1abd
000001f0: e9da 2ebe 73c6 f3bd 1a57 353d fdf6 0bbe
00000200: 3eec bd3c 50d8 b23d 6379 a73e 2d3f c6bd
00000210: e5d8 01be 52c6 613e 15cd 70bd e023 473d
00000220: 9b4e df3d 9c66 f83d 7abc 993e 31f5 e8bd
00000230: 55c2 4b3d a994 90bd 84f3 e23d 836b 86bb
00000240: 2414 42bb a6a2 2bbd 34eb b83e 6762 d8be
00000250: d21c 203e 3062 c3bd 87dd df3c 39fd adbd
00000260: 193e 5f3e 741b 52bd cca7 933e c899 033d
00000270: 34aa 053e 4c6a 543b 3219 0b3d c3c5 da3c
00000280: f7f4 1f3e 6325 233e 2811 873d 765e d53d
00000290: a6a6 563e 2914 533c 5baf 4b3c 921d a83c
000002a0: 2dcf bb3e 2d9e 7a3d cc6a 1abd 40a8 9cbd
000002b0: 6d81 5bbd 24a8 ca3d 3f78 5c3e 426b c33d
000002c0: 66ff da3d 79a1 593d 0f64 0c3e 55ce 083e
000002d0: 9494 1bbd 563e f83d 08da c1bc 6f80 b03c
000002e0: 6dd3 4b3e daae a6bd dce2 f33d ef02 12be
000002f0: 42b8 333e 22aa 093e 7abb 65bd a10e 1a3e
00000300: 7463 0fbd 06f4 a9bd 1015 65bd 94e7 d43d
00000310: 6cac 25bd 63c8 46bc c06d babd b89a 55bd
00000320: 4f93 e7bd c052 0b3d 1dce 983c ced0 86bd
00000330: 7165 11be ae87 f23d 9799 05be eb69 8cbc
00000340: 6bf0 d33c cbc0 d4bd 5cec c1bd ccc8 87bc
00000350: 5274 323d 50ce 79bc e577 55bc 32b8 13be
00000360: 8141 23bd 943f 4abe da7e ecbd 6f0d 42bc
00000370: 5c21 043c 3be7 4b3d a17c d9bd dccb 45bd
00000380: 2c06 98bd 4ac7 4dbc 4ed2 2abe 10af f6bd
00000390: 7fc5 c8bd 5543 bb3c 00a6 653b 8cb8 2d3d
000003a0: ba73 7cbd 7de5 cebc 489b 2dbd 8c6e 0ebd
000003b0: 070b 94bb 7ff3 c53d c2ed 2ebc 2099 443c
000003c0: 136f a3bd fb81 acbc 2fa5 f63d fdda fcbc
000003d0: 09d1 04be 9879 69bd 8377 8bbd 2fa2 2b3d
000003e0: f57e b2bd c931 58bc ff89 aabd 33c4 93bd
000003f0: f084 c3bb ce25 c93d be4d 303d dc00 adbd
0.1496378 0.08694564 0.081145786 0.020832239 -0.005114056 -0.13374652 0.009225885 0.16861504
0.06848505 -0.012523959 0.116899244 0.113117844 -0.09619214 -0.045789186 -0.04941314 -0.14411584
-0.16044496 -0.14204043 -0.10436757 -0.26983315 -0.07907018 0.13762204 -0.011825068 -0.0060532945
-0.19391559 0.07296486 0.22712585 0.0494572 -0.11124244 0.2128536 -0.10170716 0.0056357407
0.12887171 0.045731444 -0.075492375 0.23518774 0.07442956 -0.053923126 0.13693748 0.14514197
0.03249952 -0.05012666 -0.08319109 -0.10741326 -0.28590187 0.2321086 0.13046077 -0.010091245
-0.079251856 0.07857113 -0.09834914 -0.18726882 0.29552373 0.019616816 0.20356092 -0.16977714
0.0062514814 -0.039142936 -0.09181372 -0.045540776 -0.17907442 -0.06801349 -0.07291544 -0.13134089
-0.035016842 0.019562205 0.061087232 -0.097951606 -0.10785017 -0.061519567 -0.002340348 0.0036338533
0.10509025 -0.058631703 0.0631012 0.08079797 0.028523227 0.036740646 -0.12736757 0.20710629
-0.052701626 0.010327941 -0.12416821 -0.11649945 0.061668187 -0.110318415 0.073719084 -0.027056482
0.064656846 -0.015484699 -0.073825106 -0.04797564 -0.04100662 -0.08587771 -0.09610343 -0.07590389
-0.039424576 -0.048316583 -0.011898368 0.09640465 -0.13064703 -0.029308466 -0.0019991815 0.01996495
-0.05343031 0.01062243 0.14515173 0.038300745 -0.1643567 -0.12588741 0.07914648 -0.054835096
-0.0045411317 0.03511972 -0.07884344 -0.08959931 0.050155126 -0.051148746 -0.12113284 -0.11519361
0.04872365 -0.09845143 0.020065764 -0.03768387 -0.17075695 -0.119030856 0.04427252 -0.13668437
0.023183938 0.087326646 0.32709798 -0.096800186 -0.12680395 0.2204831 -0.05878933 0.048618197
0.10903665 0.12128946 0.3002661 -0.113748915 0.049745876 -0.07059605 0.11081603 -0.004102172
-0.0029614056 -0.04190316 0.36116946 -0.42262575 0.15635994 -0.09540212 0.027327312 -0.08495564
0.21801032 -0.051295713 0.28838956 0.03212908 0.13053209 0.003241199 0.033959575 0.026705628
0.1562079 0.1593223 0.06595069 0.104184076 0.20962009 0.0128832245 0.012431945 0.020521913
0.366815 0.061186004 -0.037699506 -0.07649279 -0.053590227 0.098953515 0.21530245 0.09541942
0.10693245 0.053132508 0.13710044 0.1335996 -0.037983492 0.12121265 -0.023663536 0.021545617
0.19904871 -0.08138819 0.11908504 -0.14258932 0.17550758 0.13443807 -0.056086995 0.15044643
-0.035006955 -0.08298497 -0.05592829 0.103957325 -0.040447637 -0.012132737 -0.091029644 -0.052149504
-0.11307394 0.034014463 0.01865297 -0.06582795 -0.14198853 0.11842285 -0.13046871 -0.01714035
0.025871476 -0.10388335 -0.0946891 -0.01657524 0.043567963 -0.015246943 -0.013029073 -0.14425734
-0.03985739 -0.19750816 -0.115476325 -0.011844023 0.008064594 0.049781065 -0.10619474 -0.04829012
-0.07423052 -0.012559721 -0.16681787 -0.12045109 -0.098032944 0.022859255 0.003504157 0.042412326
-0.061633803 -0.025255913 -0.042384416 -0.034773394 -0.004517916 0.09665584 -0.010676803 0.0119993985
-0.0798017 -0.021058073 0.12043225 -0.03086614 -0.12970366 -0.057000726 -0.068099044 0.041902717
-0.087156214 -0.013195463 -0.08327102 -0.072151564 -0.005966775 0.09821664 0.04304289 -0.084474295

bias f4 [64]
00000000: 0c21 483d 9223 b73d f670 553e 25f8 8dbd
00000010: bd58 e83d 0039 513d 937d 263c 2a18 40bd
00000020: 6b52 45bd 7fc8 183d 34ec 41ba a474 6bbd
00000030: 7ce5 90bd 3ec7 2e3d 4c6b 823c 2cac 7ebd
00000040: 8721 233d e8f2 033e 99ad c6bd b306 78bd
00000050: eb7d 473e 9ba7 fa3c 27d1 0abc 0bb7 0a3e
00000060: 080b 00bd 26c9 263e ef46 22be f381 6ebd
00000070: 8ee0 0abe e6e7 d83d 9fed 163e cb53 dfbc
00000080: 9c56 00bd 93ad 4e3e bb6c 973d 4156 c3bd
00000090: 0c15 26bd 8a3f d63d 299d 01be 8a93 88bd
000000a0: 7ef0 a03d fcf8 f0bd 6c5e 85bd 7de0 dabc
000000b0: 4f9c cb3d 97eb 67bd 4911 d7bb c909 6fbd
000000c0: 6b5e dc3d 7a7d 153b f036 9abc 5680 28be
000000d0: 63e1 223e 577f 19bd c779 46bc dc78 b43d
000000e0: 1c41 dbbd ca4a 33bd 4b2b 1fbd a69a 46be
000000f0: 9bd5 a2bc d10e f8bd 4656 0ebe 5b82 c33d
0.04885964 0.089423314 0.20843872 -0.069320954 0.113450505 0.05107975 0.010161775 -0.046898045
-0.048174303 0.037300583 -0.0007397563 -0.057484284 -0.07075021 0.04267048 0.015920304 -0.062175915
0.039826896 0.1288563 -0.0970108 -0.060553264 0.19481628 0.030597499 -0.008472717 0.13546388
-0.03126052 0.1628767 -0.15847372 -0.058229398 -0.13562223 0.10591106 0.14739083 -0.027261635
-0.031332597 0.20183401 0.073937856 -0.09537936 -0.040547416 0.10461338 -0.12657608 -0.06668766
0.0785837 -0.1176624 -0.0651215 -0.026718372 0.09941923 -0.05662116 -0.00656334 -0.05835894
0.10760196 0.0022810386 -0.018825024 -0.16455206 0.1590629 -0.037474956 -0.012113995 0.088121146
-0.10705778 -0.043772496 -0.038859647 -0.19394931 -0.019877246 -0.12112201 -0.13900098 0.09546348

weight f4 [64, 64]
00000000: b5e4 e4bd c619 b33d 4632 daba 0c44 71bd
00000010: c3a4 3fbe b93b 83bd 867f 0d3d a6a8 98bb
00000020: 1804 0c3e aecb 173d d2d2 8b3b 4520 02be
00000030: 6b03 ab3d f95a ccbd 65db 9a3c 544c 0abe
00000040: 9907 b7bc fffd 8cbc 9068 993c fee4 39be
00000050: 6c9d 87bd 2600 e4bd e367 63bd 625c 9fbc
00000060: 3713 183e 43dc 0fbe fe2a 863d 7540 403d
00000070: 6299 97bd c5d9 033d d0f3 f73d 66ad bd3d
00000080: 130d 24bd a439 7abd 13f8 ecbd ffd8 0bbe
00000090: dffd 2c3d 5b6a 7fbd d5c5 5ebd 7889 f9bb
000000a0: 40b7 203d 5c1c 2f3d 94d4 c83d 4784 98bd
000000b0: 0649 c8bd 4ebc 14bd 89a0 193d b087 febd
000000c0: 1188 a5b9 c8e3 5f3d b991 b93d bb11 083e
000000d0: cca0 9bbd 222c 03bd e858 383e 279e dcbd
000000e0: fb9d 323e 53dc e73d 83dd d9bb 7412 bfbd
000000f0: 3816 07be f22a 61bd a8ce 993d 6b87 65bd
00000100: 4111 e8bd 2044 24bd 79df 8ebc c276 ad3d
00000110: 6d8e 583e 3d14 02be 0e08 11be 1046 573d
00000120: 06fe eb3d 4584 3bbc 5b03 883d 1b4a a0bd
00000130: 864d 59bd 34f5 243d 1560 34bd 205b d6bc
00000140: bdfb aebd 0709 6bbd 50cd 87bd 6d5a 40bd
00000150: 5de8 acbc f469 a73d 2b73 19bc 5960 173e
00000160: 1a65 2dbd ec96 a63d f68d ab3d d8a7 e9bd
00000170: 5961 d53c 3e52 c0bc af73 58be a14c b9bd
00000180: 478f f8bd 2245 43bf f3e8 9b3b 1b98 5dbc
00000190: 416f 053a 7e60 51bb 25b3 173c a3aa ffbb
000001a0: caf9 06be 7333 b33d 4f40 b43d bd6f 683d
000001b0: 6f82 73be 58cd cebd 5fcc 953d 3204 af3a
000001c0: 4a7b 5a3d 614f 04bd 690b aebc 9956 283d
000001d0: e1fa ffbd c124 9e3c 2998 93bc 84e0 d9bd
000001e0: 0557 8a3d 154b 183e cd7f 0cbe 2260 573d
000001f0: acb2 02bb f2fd 873d 37e3 0fbc 0552 17bd
00000200: 9e17 f63c 3e48 dd3d b8f4 1fbe 7009 a03d
00000210: 6ed9 2fbd 69e8 18be 54a4 79bd a024 b83d
00000220: 6e3a 23bd 759f e53d 2942 9f3d 34ce 10bd
00000230: 2e42 ffbd bb6a 803d 8f4e 32bb 30ba 1b3e
00000240: b3d0 073e 8a94 a7bd fdad 09bd 6785 1bbd
00000250: 2083 08bf e1e7 48bc 2b1b 47bd 2fda 08be
00000260: 28e8 24bc 403f 8f3d ed99 c03d 8a01 8a3c
00000270: 9d1c 55be 2a7b 293a a864 673d 146f 0e3d
00000280: 3c44 6cbc 9ba8 22be da21 4abd 38a1 853c
00000290: b478 3a3c 7962 943c 6709 cbbd 9087 0fbc
000002a0: 2288 e3be a7b8 0c3b 41f4 b5bb 3a9a 253b
000002b0: c273 083d 9722 67bd ef9a abbc c7c7 0abc
000002c0: 349d 293e 8f79 5e3c 61b7 303e b884 2cbd
000002d0: 4fad ca3d 58e3 623d b9cb cf3d 114b bf3d
000002e0: f4a9 38bc 1dcc b63d 55ec 7a3c 320f cabd
000002f0: 506a 7c3c a784 a8bc 1a67 9fbc 5e55 2d3d
00000300: 6858 363e 9e93 96bd 4505 a43c 9eb3 05be
00000310: 82b4 483e 6034 cebb e426 a5bd a539 00bc
00000320: cabf 59bd 24e7 663e fe33 e53c 177b 243e
00000330: 27e5 e33d 5d12 ccbd f018 e33c 90d5 4c3e
00000340: 99ce ebbc 43f5 7b3e 843d 273d b518 cc3d
00000350: b938 2dbe d3ff e53d fca0 f53d 67f4 fabd
00000360: 1688 afbd 7c14 f3bc 61a9 7c3d 7060 e13d
00000370: 87ad b93d 5fba 81bc dd4e 633d ddff e23d
00000380: 0367 68bd 2a0b 91bd 4315 8a3e 9047 8abd
00000390: 91ac ccbd cfcb 823d 1317 e6bd 0560 ff3d
000003a0: f9ca b73d 68e1 9cbd d862 77be 93b3 10be
000003b0: 6d1b d3bd cf1f 833d f90c 13be b11d b3bd
000003c0: 853f 5e3d c9d3 97bb 67a5 a33d 69c7 25be
000003d0: e60a 0e3e 4f55 673d 3b7f 51bd 919e c1bd
000003e0: 0909 333d 68fd 64bd ea28 ca3d 07e5 12bc
000003f0: 3885 1bbd 97bd b43d b35d b8bd a728 3fbd
-0.11176435 0.0874515 -0.0016647063 -0.058902785 -0.18715195 -0.064078756 0.034545444 -0.0046587763
0.13673437 0.03705948 0.004267075 -0.12707622 0.08350261 -0.09978289 0.018903444 -0.1350568
-0.02234249 -0.017210959 0.018726617 -0.1815376 -0.06621823 -0.11132841 -0.055518996 -0.019453231
0.1485108 -0.14048867 0.06551169 0.04693647 -0.07402302 0.032190103 0.121070504 0.09261589
-0.04005153 -0.061090127 -0.11570754 -0.13656996 0.042234298 -0.062357288 -0.054387886 -0.0076152645
0.03923726 0.042751655 0.09806171 -0.07447105 -0.09779553 -0.036312394 0.037506614 -0.12428224
-0.0003157263 0.05466059 0.090609975 0.13288014 -0.07599029 -0.03202451 0.18002665 -0.10772353
0.17443077 0.113213204 -0.0066487207 -0.093296915 -0.1319207 -0.054972596 0.0751012 -0.056037348
-0.11331416 -0.04010403 -0.017440544 0.08469917 0.21148081 -0.12703033 -0.14163229 0.05255705
0.115230605 -0.01144511 0.06641265 -0.078266345 -0.053052448 0.040272906 -0.044036943 -0.026166499
-0.08544109 -0.057381656 -0.06630957 -0.046961237 -0.021106893 0.08174506 -0.009365837 0.14782847
-0.042332746 0.08134255 0.08376686 -0.11408967 0.026047396 -0.023476716 -0.2113788 -0.09047819
-0.12136703 -0.76277363 0.0047579943 -0.013525034 0.00050901255 -0.0031948383 0.00925902 -0.007802324
-0.13181224 0.087500475 0.088013284 0.056747187 -0.23780225 -0.1009776 0.07314371 0.0013352691
0.053340234 -0.032302264 -0.021245675 0.04109821 -0.12499023 0.019304635 -0.018016892 -0.10638526
0.06754879 0.14872392 -0.13720627 0.052581914 -0.0019942923 0.06640233 -0.0087822 -0.036943454
0.030040558 0.10804795 -0.15620697 0.078143 -0.042931966 -0.14932407 -0.06094773 0.08991361
-0.039850645 0.11212055 0.07776291 -0.0353529 -0.12463795 0.06270357 -0.002720747 0.15207744
0.13263206 -0.081826285 -0.033613194 -0.03796902 -0.5332508 -0.0122623155 -0.048609894 -0.1336448
-0.010065116 0.06994486 0.09404359 0.016846437 -0.20811696 0.0006465191 0.056492478 0.0347739
-0.014420565 -0.1588463 -0.04934869 0.016312227 0.011381317 0.018113362 -0.09913903 -0.008760348
-0.444398 0.0021472366 -0.005552799 0.0025268928 0.03331352 -0.05642947 -0.020947902 -0.008470482
0.16563874 0.0135787865 0.17257454 -0.042118758 0.09896337 0.055392593 0.10146279 0.0934049
-0.011270989 0.0892565 0.015315135 -0.098661795 0.015406206 -0.020571066 -0.019458342 0.04231774
0.17807162 -0.073523745 0.020022044 -0.130568 0.19600108 -0.0062928647 -0.080640584 -0.0078262435
-0.05316142 0.2254911 0.027978893 0.1606258 0.11127692 -0.0996444 0.027721852 0.20003343
-0.028785037 0.24605279 0.04083015 0.0996565 -0.16916169 0.11230435 0.11993596 -0.12253647
-0.08570878 -0.029672854 0.06168497 0.11004722 0.09066301 -0.015835939 0.05549513 0.11083958
-0.056738865 -0.070822075 0.26969346 -0.06751931 -0.09993852 0.0638653 -0.1123487 0.12469486
0.08974261 -0.0766018 -0.241588 -0.14131002 -0.103079654 0.064025514 -0.14360417 -0.087458976
0.054259796 -0.004633401 0.07990532 -0.1618935 0.13871345 0.05647784 -0.051146727 -0.09454072
0.04370979 -0.05590573 0.09871085 -0.008965737 -0.037968844 0.08825224 -0.09002247 -0.04666963

bias f4 [64]
00000000: 4bc3 debd 36fd 1c3d 88fa e13c 8e8c 023d
00000010: efd1 7bbd 4eef 33bd 1009 0fbd d0d1 03be
00000020: c9d0 0e3d badf 0a3d d637 e6bd 5444 79bc
00000030: f8da a5bd 77e7 15be 0cee 293d 2d73 e13d
00000040: 8fca d9bd d68d 393e 5b48 9cbc c78e 243e
00000050: c215 0cbd 0b9c 5cbd 214f adbd 7d32 b6bd
00000060: 53c4 21bd 3374 df3c b4b2 ea3c af16 abbd
00000070: f435 a2bc 931a a4bd d0e5 56bd 3a6a f5bd
00000080: bab4 3dbd ff5e cdbd 927b df3d a10f cf3d
00000090: b456 86bd 8bbd cf3c eb69 833d 6551 efbd
000000a0: c02e 7abd c092 063d c07f acbb 8542 353e
000000b0: 4a59 dabd 3655 043e 9f71 b13b 3bef 4f3d
000000c0: 311d 4b3d 6b16 08be c6e9 3abc 5e56 8fbc
000000d0: a717 3c3c 05a9 1dbd 713d a3bd 050c f9bc
000000e0: 031a d0ba 8bbe 2d3c 9392 07be 272a 53bc
000000f0: c8ee 81bd 45bb f1bd 5463 c83b 82ef 283d
-0.10877093 0.03832742 0.027585283 0.031872325 -0.061479505 -0.04392939 -0.034920752 -0.12873006
0.03486708 0.03390477 -0.112411186 -0.015214045 -0.080984056 -0.14639078 0.041486785 0.11008296
-0.10634338 0.18120512 -0.01907747 0.1607009 -0.034200437 -0.05385975 -0.08462358 -0.088963486
-0.03949387 0.027277088 0.028649665 -0.08353936 -0.019801117 -0.08012881 -0.05246526 -0.11983152
-0.046314932 -0.10027885 0.10912241 0.10110403 -0.06559506 0.025358936 0.064166866 -0.11685447
-0.06107974 0.032854795 -0.0052642524 0.17701156 -0.10661562 0.1292313 0.005415156 0.050765257
0.049588386 -0.13289802 -0.011408275 -0.017497238 0.0114802485 -0.038491268 -0.079707034 -0.03040124
-0.0015876893 0.010604511 -0.13239507 -0.012888468 -0.06344372 -0.11803297 0.0061153565 0.041244037

weight f4 [64, 64]
00000000: 31a2 053e f760 a5bd 2b06 b8bd ca9d dd3d
00000010: a407 d23d 0e99 b43b 3f3d 0dbe e21f 16bd
00000020: 4397 05be 19e3 1abe 8c1e d23d d8e8 84bb
00000030: af82 4b3d 4683 d83d f28d b7bd 017a 973d
00000040: 3d1a c6bd 59ef 0e3d f4b1 843c 81e0 0a3d
00000050: 9773 333e 3b18 f63d a4af 9d3c f218 013c
00000060: a014 f1bc 9d00 233d 693d b73d bca7 93bd
00000070: 430f 12be 8b1c 903c 9fd8 54bc 6490 e93d
00000080: 5435 ecbc ff01 c3bd 1e43 763e 9548 c83c
00000090: 53f1 1839 b516 193d 339e 783d a9a7 87bd
000000a0: 44d4 a23c a22f dc3d 8dbd 283e 682d db3d
000000b0: 878c a3bd dbef 013b 7ef0 833d 07a1 1f3d
000000c0: 8ba3 e3bc c3a1 d03d 9992 9fbc 0b7e 6d3c
000000d0: 1a84 8336 22b4 a0bb 37aa 48bd edd4 6a3d
000000e0: 40ca cdbd d5be 3f3d 26c0 b6bd d76e 93bd
000000f0: 1795 803d a9ee 14bc 4acb 14bc 8ca8 a1bd
00000100: 6463 88bc e4ac e13c edd6 303d 9673 54bd
00000110: 0bee aa3c 0749 b9bc 9a7b ac3d 5f83 5f3d
00000120: e5c0 42bd 6d5a e73c b899 adbd c963 c33d
00000130: fe77 45bd f7a0 e1bd 5f84 873d 02f1 993e
00000140: f9f6 883d a0a3 b43d 3302 df3d e4c9 343d
00000150: 24ea 2ebd eb63 0c3d 29e6 b4bd c79e d8bc
00000160: f367 10be 183f 063e 81b4 5f3d b7bd 9bbc
00000170: f9c9 e1bc 8adb b8bd 13d2 783d f602 a63d
00000180: 1d24 46bd 783c e0bd b537 aa3b feac 25bc
00000190: c609 a53d 9b99 49bd 19be 90bd ef85 e0bb
000001a0: 6277 f83d 3226 56bd d4b5 1abe 0313 4cbd
000001b0: 1ac5 8d3d 55b4 84bb abd9 443d c87e 993c
000001c0: dbd8 003e 93ca 863d 6d64 da3d 9d0d acbd
000001d0: fec5 04be e761 e03d b86e 8cbd 4d4e 9a3d
000001e0: 7219 d9bd 6654 92bd 2c86 e1bc 74bc 59bd
000001f0: d499 1bbc ada6 ca3a 9636 2dbd f4d3 033c
00000200: ba5b 7b3d 3a1c 253d fdaa 9c3c 1008 043d
00000210: 01fe 613d 15d2 f83d 67a2 8ebb 8242 293d
00000220: d7d0 afbd f3fb a3bd 110d 39bd 0ebf 383d
00000230: 46f7 3a3d 35eb 91bd bd46 393e 5e98 463d
00000240: 52ee a33d f430 b53d 2955 ec3d 92f4 f93d
00000250: dd31 19be e9f1 41bd d7bb afbd eb5a 51bd
00000260: 7b05 873c ba61 d83d 63a9 113e 69e6 5fbd
00000270: 2b45 01be db0d 39bd a653 debd e743 843b
00000280: cbcf 533d ea44 32be dbe7 16be e53f debc
00000290: 45de 2abe 8282 fabc e21f 103e 32df 95bc
000002a0: 4c0d 063e a169 d1ba 5caa d8bd 177a 13be
000002b0: 91b3 793d 1a3b 583b 4b5c c9bd ab01 0c3c
000002c0: b98a 1cbb 268b d2bc c23f 06bc 46af 343e
000002d0: 688d adbd 5be4 41ba d9d8 5bbd faea 6bbd
000002e0: f350 ac3d edb8 f5bc fcac 2abd f06c a3bd
000002f0: 670e 7c3c c40d 8abd bf14 f23d 5263 383d
00000300: 796d 463d 164d 9abd 59cc f0bd c448 eb3d
00000310: cd12 ce39 91d3 3cbd adc2 c13c 7613 a6bd
00000320: 0730 2cbe 76c5 d3bd 512c 963d 0b8d d5bd
00000330: a986 603d cc4b bc3c 844f 36be 6164 f3bd
00000340: 404e 443b 5f78 17be 69f6 3e3d 03c0 5abd
00000350: ab04 d2bd ab77 10be 481d c8bd 54fd 96bd
00000360: 2504 30be 8861 a93d 9163 2fbe 5fbb 44bb
00000370: 63ae 20be e01d de3a 236b de3d 70d7 103d
00000380: 127f 8c38 75e0 69bd 9c25 6cbd fbde 843c
00000390: 7f94 c23d b4e7 e33a d05b 5fbe de41 b8bd
000003a0: b506 15be 8a43 5c3c b3b2 b0bc 17b7 86bd
000003b0: a666 5c3d 907d 8d3d b086 503d 7fbb 03bd
000003c0: 2bfb ddbd b953 bdbc 707d 933d f238 8dbd
000003d0: c94b 0abe db93 753d 8d3c e63b 5870 293d
000003e0: e78e 21bd e46a 76bd ca18 c0bd 9f07 22be
000003f0: 9103 503e 2638 cbbd 7040 f53c 03a0 5cbd
0.13050152 -0.08075135 -0.089855514 0.108211115 0.102553636 0.0055114096 -0.13792895 -0.0366515
-0.13045983 -0.15125693 0.102597326 -0.0040560775 0.049685176 0.105719134 -0.08962621 0.07396317
-0.09672973 0.03489623 0.016198136 0.03390551 0.17524563 0.1201634 0.019248791 0.007879483
-0.02942878 0.039795507 0.0894726 -0.07209727 -0.14263634 0.017591735 -0.0129911 0.114044935
-0.028834023 -0.09521865 0.2404904 0.024448672 0.0001458575 0.03737517 0.060697746 -0.066237755
0.019876607 0.10751273 0.16478558 0.1070202 -0.07985788 0.0019826803 0.064423546 0.038971927
-0.027787944 0.101871036 -0.019479083 0.014495383 3.919483e-06 -0.004904286 -0.048990455 0.057331968
-0.10048342 0.04681285 -0.08923368 -0.071988754 0.06278437 -0.009090104 -0.009081671 -0.07893476
-0.016648956 0.027548261 0.04317372 -0.051868044 0.02086546 -0.02261783 0.084220126 0.054568645
-0.04754724 0.02824136 -0.08476585 0.09540517 -0.048210137 -0.1101703 0.06617045 0.30066687
0.06687731 0.088202715 0.10889091 0.04413785 -0.042703763 0.034274977 -0.08832962 -0.026442898
-0.14102153 0.13110006 0.0546155 -0.019011362 -0.027562128 -0.09026249 0.060747217 0.081060335
-0.048374284 -0.109490335 0.005194629 -0.010112045 0.08058505 -0.049218755 -0.07067508 -0.0068519036
0.121321455 -0.05228252 -0.15108424 -0.04982282 0.0692236 -0.0040498176 0.048059147 0.018737212
0.12582724 0.06581607 0.10663686 -0.08401034 -0.12966153 0.109561734 -0.068570554 0.07534466
-0.106005564 -0.07145004 -0.027529798 -0.05315824 -0.009497125 0.001546105 -0.042288385 0.008046139
0.061366774 0.040310122 0.019124502 0.03223425 0.055173878 0.12149445 -0.004352856 0.041323192
-0.08584755 -0.0800704 -0.045178477 0.04510408 0.045645975 -0.0712494 0.18093391 0.048485152
0.0800444 0.08847228 0.115396805 0.12204851 -0.14960428 -0.047349844 -0.085807495 -0.051112097
0.016482105 0.10565515 0.14224772 -0.054663096 -0.12624042 -0.04517923 -0.108557984 0.004036415
0.05171184 -0.17409101 -0.14736883 -0.027130077 -0.16686352 -0.03057981 0.14074662 -0.018294904
0.1309101 -0.0015976914 -0.105793685 -0.14402042 0.060962263 0.0032994212 -0.098320566 0.00854532
-0.0023886396 -0.025701117 -0.008193912 0.17644987 -0.08474237 -0.00073963933 -0.0536736 -0.057597138
0.08413877 -0.029995406 -0.041668877 -0.079797626 0.015384293 -0.06740907 0.11820363 0.045016594
0.048444245 -0.07534234 -0.11757726 0.11488488 0.0003930539 -0.046100203 0.023652399 -0.08109181
-0.16815196 -0.10340397 0.073326714 -0.104272924 0.054815922 0.022985362 -0.1780377 -0.1188438
0.0029953867 -0.14792012 0.046621714 -0.053405773 -0.102547966 -0.1410815 -0.0977121 -0.07372537
-0.17189081 0.08270556 -0.17127825 -0.0030018908 -0.15691523 0.0016946159 0.108602785 0.035361707
6.699389e-05 -0.057098825 -0.057653055 0.016219607 0.0950098 0.0017387778 -0.21812367 -0.08996938
-0.1455334 0.013443837 -0.021569585 -0.0657789 0.05380883 0.06908715 0.050909698 -0.032161232
-0.10838922 -0.023111211 0.0720166 -0.06895627 -0.13505472 0.05995546 0.007026261 0.041366905
-0.039442923 -0.060160533 -0.09379728 -0.1582322 0.2031386 -0.09922819 0.029937953 -0.053863537

bias f4 [64]
00000000: a3d3 903c 40bb 213d 2de2 fa3c 4a93 5a3d
00000010: 533d 3a3d 1c31 833d c89d 8bbd 1ec9 1a3d
00000020: bc8d 813c 62c3 2f3d 8140 e6bc fc82 8abc
00000030: 81de 613d 26e6 f0bd 5829 6abd ca6f cdbd
00000040: 4987 d93c c6be 72bd 9f0e 103e 8826 b1bd
00000050: b974 bfbd ed41 cb3d 1836 f23d 2416 7b3d
00000060: 2e24 d83c 5be0 d2bd 4811 0abd 5a49 e3bd
00000070: 77e1 0cbd 90cd 38bd 8cde 1cbd 94a7 bf3c
00000080: 4128 2c3b e4ac 433e 9e9e 2cbe 6843 7bbd
00000090: c5f0 4c3c 001c d5bd d75d 243d cb06 6dbd
000000a0: be3d 1ebd 6725 c63d 1e29 d3bc b43b 383e
000000b0: be23 253d 1f57 04be 1d52 503c 54cd 293d
000000c0: f83b dabd 148d 653d e8c0 9a3d 1973 fcbd
000000d0: 066b da3b 954e dc3d 2e9d 0f3d e6df 13be
000000e0: 14c3 9d3c 8fdc 6dbd 645b 07be fd67 873d
000000f0: 7c91 07be 66cb 323e af9d 2e3d 4ca3 43bc
0.017679041 0.039485216 0.030625427 0.053363122 0.04546864 0.06405851 -0.06817204 0.037789457
0.015814655 0.04291094 -0.02810693 -0.016908161 0.055143837 -0.11762647 -0.057168335 -0.10031088
0.026553767 -0.059263967 0.14068078 -0.086499274 -0.09348435 0.09924684 0.11826724 0.06130041
0.02638444 -0.10296699 -0.033707887 -0.11097975 -0.034394708 -0.045117915 -0.038298175 0.023395337
0.002626911 0.19108921 -0.16857383 -0.06134358 0.012508576 -0.10405731 0.040128555 -0.057867806
-0.0386331 0.09675103 -0.025776442 0.17991525 0.04031729 -0.12923859 0.01271489 0.04145558
-0.106559694 0.056042746 0.07556325 -0.12326641 0.00666559 0.10757176 0.035062008 -0.14440879
0.01925806 -0.05807167 -0.13218457 0.06611631 -0.13239092 0.17460403 0.042630848 -0.0119407885

weight f4 [3, 64]
00000000: 4d16 673d 07fc 24bb 54b1 7fbd ee91 cf3d
00000010: d0b7 d03d 907a 9cbd bbbb f2bd ca5c ccbd
00000020: 65ca 553d 9259 273e 7b5e c3bd 4ccc 413e
00000030: b283 a9bd 9892 a6ba 7cc6 d13b a07d 6f3d
00000040: b98a 043d b512 aebd 1d3b 953c f129 603c
00000050: 2d96 cbba 276d 12be 9174 68be 9aff 63be
00000060: 9b2d 85bd 058d 613e ed62 06bd 7016 a33d
00000070: 54c9 98be 9d26 8abc f2a8 96bd 51b2 bcbd
00000080: f3dd b33c 4f66 d6bd 7959 dbbc 1e8a 38be
00000090: 8400 933c bfc2 1dbd 3e75 433c a696 693d
000000a0: 4fdc 433e 99be 65be 9cf7 cf3d 994b debd
000000b0: 499f f73d 4caa febd 4b58 e53d 2528 9cbb
000000c0: 2855 263d 7bbe 68bd ecee fb3d af7c d33b
000000d0: 420a 383d 3f6d fcbd 0838 833d 8bea b13d
000000e0: 6f0e 8c3d 4151 ec3d 9687 ae3d 983c 7dbe
000000f0: 1abf 3dbd e48b 20be c789 17be 527e 3f3e
00000100: 010b d23d c24f 48be d999 fabd 584a b0bd
00000110: 0f23 f83a 7a33 0c3d 08ec c93b 449e 0dbd
00000120: 3235 483c 44f6 a9bd 2cfa 9d3d 4f24 b0bd
00000130: c0ea 5fbd 0bc4 0fbe e39b 2b3e fc3d f73d
00000140: 8fe3 09be e1a1 883d e3e9 29be 7767 f2bc
00000150: 048f 753e 137e 86bd f92d 05bd ffab 3a3e
00000160: f67a 94bc 1a7a afbd 5457 ac3d e240 e0bd
00000170: 910a 3dbd 7b79 87be b72a 7f3d 5d1e 373d
00000180: b542 95bd fd59 0bbe b435 043e b81d 3a3d
00000190: f40f 9b3c 9eef 0a3e 89d8 2e3e eece a5bd
000001a0: 0da7 1ebd d380 6c3e bed5 57bd 1709 063d
000001b0: b1ea 30be 2bd3 123e de61 913c d9ac 493e
000001c0: ff27 5b3c eb28 213e e981 cbbd 95d7 d23d
000001d0: f5e4 ddbc deaf 873c 072c 87be adbf e23c
000001e0: 7027 973d c5de 1b3e a15a 103e e4e4 183d
000001f0: e8d7 04be 2df9 c2bd 5124 57bd b72e 44be
00000200: 074c 4e3d 5720 5cbc 4290 9bbc 0924 69bd
00000210: 24a5 c8bb 3da2 b7bd 0d1b 9a3d 4fcd 11bd
00000220: e3b7 c73c a21d 03be be16 503d b25e e13d
00000230: fc9f 4e3d 0b16 d03d 8f2a ef3d 2084 98bc
00000240: 6c0b cfbc 176e 0f3d cd73 083d 246e 14bd
00000250: 09ad 2dbe e058 fdbd c706 23be 77a0 0e3d
00000260: 75d0 e63d d747 abbc 7dcd ed3c a038 81bd
00000270: 183b a53e 9487 e83b f880 403d 19ca 843d
00000280: 5527 70bc 634f b43c d4f1 e43b d13c 65be
00000290: b26b 21bc b07c 633d b900 9e3d 0b47 0fbd
000002a0: 98da 93bd 9a7f 1d3d 6ee4 01be 6bb6 abbd
000002b0: b6a4 90bd 8857 02bd 844d 88bd 4bb2 3c3d
000002c0: badb f13d 288d f83d 6139 00be 0ff2 633c
000002d0: 2a55 1cbb 3335 723c 91ab aabd aa78 f1bc
000002e0: f10d 5d3c 10e3 2e3e 9341 b0bc 3563 973c
000002f0: c708 bfbd fff3 29bd 2266 9c3d 1aff 35be
0.056417752 -0.0025174634 -0.062424973 0.10135256 0.101913095 -0.076405644 -0.11852213 -0.099786356
0.05219497 0.16342762 -0.09539505 0.1892559 -0.08277072 -0.0012708483 0.006401835 0.058469415
0.03235886 -0.08499662 0.018216664 0.013681875 -0.0015532427 -0.14299451 -0.22700717 -0.22265473
-0.06502839 0.22026451 -0.032809187 0.07963264 -0.298411 -0.016864115 -0.073564425 -0.09213699
0.02195642 -0.104687326 -0.026776062 -0.18021438 0.017944582 -0.038515802 0.011929808 0.057028435
0.1912701 -0.22435988 0.101546496 -0.10854263 0.12090928 -0.12434825 0.11198481 -0.004765528
0.040608555 -0.05682228 0.1230143 0.0064540724 0.044931658 -0.123255245 0.064071715 0.08687314
0.068386905 0.115389355 0.08521955 -0.24730146 -0.046324827 -0.15678364 -0.14798652 0.18700531
0.10256005 -0.19561675 -0.12236375 -0.0860793 0.0018931347 0.03422878 0.0061621703 -0.034574762
0.012219714 -0.082989246 0.07713732 -0.08600675 -0.054667234 -0.14039628 0.16758685 0.120723695
-0.13465713 0.06671501 -0.16593127 -0.029590352 0.23980337 -0.065670155 -0.032514546 0.18229674
-0.018125039 -0.08568211 0.08415094 -0.109498754 -0.046152655 -0.2645987 0.062296595 0.04470669
-0.07288114 -0.13608547 0.12911111 0.0454385 0.018928505 0.13567969 0.17074789 -0.08096109
-0.03873353 0.23096018 -0.052694075 0.032723513 -0.17277028 0.14338367 0.017746862 0.19694842
0.013376235 0.15738265 -0.09936888 0.10295025 -0.027086714 0.016563352 -0.26400778 0.027679289
0.07380569 0.15221699 0.14097072 0.037327662 -0.12972987 -0.09520183 -0.05252487 -0.19158445
0.050365474 -0.013435445 -0.018989686 -0.05691913 -0.006123202 -0.08966491 0.07524691 -0.03559619
0.024379676 -0.12804273 0.05080294 0.1100439 0.05044554 0.10160454 0.11678039 -0.01861769
-0.025274001 0.0350171 0.03331356 -0.03623785 -0.16960539 -0.12370467 -0.15920554 0.034821
0.11270229 -0.02090828 0.029028649 -0.063096285 0.32271647 0.0070962403 0.046997994 0.064838596
-0.014657815 0.02201051 0.006986836 -0.22386481 -0.009852337 0.055538833 0.077149816 -0.03497986
-0.07219428 0.03845177 -0.12684795 -0.08384403 -0.07062666 -0.031821758 -0.0665541 0.04606847
0.11809488 0.121362984 -0.12521888 0.013912692 -0.0023854473 0.0147831915 -0.08333505 -0.029476482
0.013492093 0.17078805 -0.021515643 0.018479923 -0.09327846 -0.04149246 0.07636668 -0.17773095

bias f4 [3]
00000000: 2125 c3bc 709a 99bd fb96 af3d
-0.023821415 -0.0750016 0.08573719

exp_avg f4 [64, 3]
00000000: 9a4c ffb9 8199 6ab9 2833 4eb7 0400 0000
00000010: 0400 0080 0400 0080 0b46 3dba 4033 d739
00000020: 0f0d 1c3a 4b7c 4438 6678 5e39 741a cb38
00000030: 0400 0080 0400 0000 0400 0080 6d47 a739
00000040: 3d8f 4d3a 4ce3 353a 4e46 b1b9 e816 47b8
00000050: d6d9 a738 fe37 94b9 39a6 feb8 9956 cd39
00000060: e5aa d938 7780 86b7 d84b b5b8 4ae5 5a3a
00000070: ac1e ac39 d121 cc37 f1d7 2e3a 49ff a5b9
00000080: 8feb a5b8 b95d f137 6438 9f37 3da5 dfb7
00000090: 2af5 d5b9 72e5 ddb8 3d38 a438 35d5 9d3a
000000a0: 4af2 b938 9c0b 2a39 0022 b0b4 0022 b0b4
000000b0: 6dca b8b4 cc83 1d39 aeec cbba 4a03 d7b9
000000c0: da7f 21ba a884 1b39 a943 7e38 557f ad39
000000d0: f7e8 8f38 893e 0cb7 a390 1c38 04c3 4d39
000000e0: a146 4739 315d 2d39 9462 7939 4c9c 68b8
000000f0: 260c 95ba 96a1 b3b9 e892 09ba 0400 0080
00000100: 0400 0000 0400 0080 01b0 05b6 01b0 05b6
00000110: 12b3 08b6 7106 b738 ec13 26b8 08ad 57b9
00000120: c644 c1b8 1ee7 bc38 5b3a 0db7 b292 d5b8
00000130: 31f4 0f39 e78e 27b8 daf3 14bb 4c02 923a
00000140: fd28 89ba 204d dcba ea29 cfb8 973d fbb8
00000150: ff02 a538 cdc7 a9b7 23eb 60b9 c49c 2aa4
00000160: c49c 2aa4 3630 33a4 d54d c9b8 2182 6b38
00000170: 3dbc 9938 9ee8 08ba 50de d83a 9c6d 97ba
00000180: e24a 6db4 af35 beb4 9978 c9b4 56db 4f3a
00000190: d018 4bba 282e 7fb8 6c68 053a 2f83 6839
000001a0: 9086 8237 7fff 9fb4 7fff 9fb4 bdf7 a6b4
000001b0: 6cc9 51b9 efbd 13b9 079b b138 b466 d9b8
000001c0: 12da 5fb9 ef11 8b39 0400 0080 0400 0000
000001d0: 0400 0080 8698 07b8 7766 0b39 b1ee 8839
000001e0: 91a5 6bba 7cff 67b9 d1fa 7f38 f9f6 8d39
000001f0: e6ff 41b8 6b46 8839 0400 0000 0400 0000
00000200: 0400 0000 3c5b b239 ba0f 043a 343b 37b9
00000210: dd97 f2b9 fbc3 623a aebe 0dba dfc3 329c
00000220: dfc3 329c 33c0 3b9c c4b6 6fb9 5ca4 d939
00000230: 7f4b c037 0000 0000 0000 0000 0000 0000
00000240: 62c1 fa37 0a19 06b8 d403 10b8 2193 cf39
00000250: 94e6 2c35 1877 4136 af42 3b38 35c5 8f39
00000260: 44df 5938 8866 4839 f791 c538 91f3 4e38
00000270: 0c70 03b8 5f9a 9fb8 d4bc 3d38 a6fd 9e36
00000280: 8289 13b7 3ad2 18b7 7cbe 63b8 909e 94b8
00000290: 0f49 6538 2006 29ba a529 6c39 1310 02ba
000002a0: 183b d437 877f c8b5 a9cc 1e39 0684 0e39
000002b0: d504 4038 6adc 2d38 7a55 33ba 02ef bf3a
000002c0: f6a5 bfb8 ae6a 45ba 08d1 a8ba ae06 ce38
000002d0: 6ceb cdb9 9740 fbb8 87a3 cf37 3e62 32b8
000002e0: 3f0e 49b8 42fa 4cb8 94dc d9b9 872f 44b9
000002f0: 8ec3 1439 cff8 0239 01c5 05ba 7989 53ba
-0.00048694463 -0.00022373164 -1.2290468e-05 6e-45 -6e-45 -6e-45 -0.0007220215 0.0004104618
0.00059528736 4.68458e-05 0.00021216422 9.6847216e-05 -6e-45 6e-45 -6e-45 0.00031905939
0.00078414736 0.0006938472 -0.00033812452 -4.746663e-05 8.003756e-05 -0.00028270477 -0.00012142625 0.00039165167
0.00010379198 -1.6033866e-05 -8.6448796e-05 0.0008350207 0.0003282925 2.4334442e-05 0.0006669751 -0.00031661455
-7.911689e-05 2.8773082e-05 1.8980536e-05 -2.6660617e-05 -0.00040809187 -0.00010580839 7.8306046e-05 0.001204169
8.866617e-05 0.00016216788 -3.2807293e-07 -3.2807293e-07 -3.4419955e-07 0.00015021785 -0.0015558207 -0.00041010446
-0.0006160714 0.0001483137 6.0621333e-05 0.00033092 6.8621644e-05 -8.35921e-06 3.7328e-05 0.00019622972
0.0001900443 0.00016533282 0.00023783214 -5.5458673e-05 -0.0011371418 -0.0003426193 -0.0005248026 -6e-45
6e-45 -6e-45 -1.9920992e-06 -1.9920992e-06 -2.0369812e-06 8.72732e-05 -3.9596038e-05 -0.00020568457
-9.215767e-05 9.0075875e-05 -8.417842e-06 -0.000101839556 0.00013728511 -3.994899e-05 -0.0022728355 0.00111396
-0.0010464486 -0.0016807653 -9.878336e-05 -0.00011980085 7.868371e-05 -2.023941e-05 -0.000214499 -3.699566e-17
-3.699566e-17 -3.8855274e-17 -9.598924e-05 5.6149558e-05 7.3306706e-05 -0.0005222651 0.0016545746 -0.0011553052
-2.2099587e-07 -3.5429318e-07 -3.7526914e-07 0.0007929107 -0.0007747533 -6.0839724e-05 0.00050891074 0.00022174114
1.5559868e-05 -2.9801956e-07 -2.9801956e-07 -3.1100163e-07 -0.00020006829 -0.00014089768 8.468894e-05 -0.00010366496
-0.00021348175 0.00026525508 -6e-45 6e-45 -6e-45 -3.2328557e-05 0.00013294244 0.0002611778
-0.000898921 -0.00022125052 6.103033e-05 0.00027077625 -4.625311e-05 0.00025992407 6e-45 6e-45
6e-45 0.0003401878 0.0005037744 -0.00017474295 -0.00046270984 0.0008650419 -0.00054071366 -5.9148417e-22
-5.9148417e-22 -6.212152e-22 -0.00022860902 0.00041511923 2.292334e-05 0.0 0.0 0.0
2.9892373e-05 -3.197141e-05 -3.433584e-05 0.00039591736 6.441053e-07 2.8828563e-06 4.464638e-05 0.00027422016
5.1944764e-05 0.00019111682 9.42088e-05 4.9341066e-05 -3.1337186e-05 -7.610465e-05 4.523697e-05 4.7382955e-06
-8.793899e-06 -9.108853e-06 -5.429842e-05 -7.0867245e-05 5.4665896e-05 -0.0006447751 0.00022522228 -0.00049615017
2.5299887e-05 -1.4938277e-06 0.00015144296 0.00013591358 4.5780867e-05 4.145169e-05 -0.0006841045 0.0014643373
-9.138502e-05 -0.000753085 -0.0012879679 9.82409e-05 -0.0003927605 -0.000119806435 2.4752471e-05 -4.2530002e-05
-4.7935402e-05 -4.887046e-05 -0.0004155381 -0.00018709722 0.0001418723 0.00012490455 -0.0005102903 -0.0008069496

exp_avg_sq f4 [64, 3]
00000000: 345d 9535 cb5f 9d35 b53c 9434 e7de 8f2f
00000010: 322d d930 7936 8a31 0644 d234 47bf 8e35
00000020: 9d84 3934 164c 9534 9d6c 8434 5e1b f033
00000030: 568a ec2f 8397 cb2f db16 5a2f 7d24 eb35
00000040: 4c1a 7e35 51d4 c434 e447 0f35 8995 2e35
00000050: fe1d 3634 170a b135 72a7 ba34 83d1 8a34
00000060: 0e02 7d34 930a 4a34 4313 2634 5af8 5535
00000070: 0621 2235 5305 b733 dbd7 3336 450a c435
00000080: e8f2 9634 9db6 1634 263d 9c33 1b23 8933
00000090: 674d 7835 4e27 f634 d453 4634 a5d0 b034
000000a0: 0704 7034 97c2 e432 003b 1834 f47e 7333
000000b0: be4d 1a33 56b9 8d35 0834 e234 ee38 8e33
000000c0: 5b1c c034 b18a 1435 e979 4b34 0b8e d634
000000d0: 3c96 1d34 137b e733 51bd c634 a229 4f34
000000e0: 4a17 3034 cf28 3b35 a596 4c36 dbe4 1335
000000f0: 7504 9035 fea7 0035 0356 0c34 689b d031
00000100: 00ef f231 bbff 8d31 da1c 3034 7226 2234
00000110: c571 6e33 7d9e d834 7075 d034 9e4e b534
00000120: b0b3 8534 eb99 5734 17b6 1f34 eb1c a134
00000130: 5d53 d433 5e54 2f33 b000 0336 c6bb 1135
00000140: 34f7 4e35 186e 5b36 112e 0c36 2b50 c334
00000150: f869 0435 37bf a034 15e8 a833 2e26 1534
00000160: a223 aa33 9bcc 8b33 8f52 0534 21c0 a733
00000170: 3cd7 e833 09b4 4134 0487 ed34 248a 7234
00000180: cee6 9e34 b61c 3934 dedf 1934 8b51 b635
00000190: be0f 4c35 5c63 3535 8ae4 1335 534a 5535
000001a0: 393d af33 cb0a e433 a99a 0d33 26af 8732
000001b0: a0a0 d935 e0f8 5135 d34d 7a34 1a92 3134
000001c0: c055 7e34 2653 0f34 36f6 6a32 1c5c 4533
000001d0: e128 7f32 e101 b534 a1b7 a834 e034 4d34
000001e0: 2432 9235 8d7f bd34 429b 0834 118a e434
000001f0: 4ea6 9234 f24a 0e34 9b73 b42d 59e6 4f2d
00000200: 8648 c52d 3f07 5634 6ed0 8034 efa9 1d34
00000210: b08f 0b35 c84a 1f35 8692 af34 32ca f932
00000220: 7e15 9932 a569 8432 1e41 e234 9bd4 a235
00000230: 4a1b 1934 0000 0000 0000 0000 0000 0000
00000240: ac97 b733 0baa c133 bf1b 1534 85c8 9d34
00000250: 3817 0134 542d ff32 b876 5b34 3a8c 0c34
00000260: 4f75 ee33 588e 3d35 fa32 4d35 527c 5434
00000270: e813 f135 8796 e234 3d7b f133 5d99 b834
00000280: eef2 5934 daa2 3234 9f38 7a35 4dca c134
00000290: 0818 0934 851a 7435 84e3 f134 1398 a234
000002a0: a4f9 7b34 8f11 2b34 8478 dc33 f1a5 4d34
000002b0: 1ff1 3934 6067 7b34 6ed3 be34 1e07 a334
000002c0: 9e66 3f34 464d 3735 4011 0e35 947c 8b33
000002d0: 7754 9434 894d c633 e29c 0e34 519b 3d34
000002e0: 63e2 1f34 c0bc 6734 5c8f 4c35 15ec bb35
000002f0: 929f 3534 7e1d 0834 98eb 2634 4caf 2834
1.1128491e-06 1.1725291e-06 2.7611318e-07 2.616993e-10 1.5801673e-09 4.0225214e-09 3.9165042e-07 1.0635493e-06
1.7277712e-07 2.7808773e-07 2.4665943e-07 1.1180849e-07 4.3026444e-10 3.703314e-10 1.9835104e-10 1.7519484e-06
9.466064e-07 3.6662325e-07 5.3376266e-07 6.5037653e-07 1.6960982e-07 1.3190464e-06 3.4767032e-07 2.5856943e-07
2.3563209e-07 1.8816563e-07 1.5466962e-07 7.971008e-07 6.039776e-07 8.52257e-08 2.6798723e-06 1.4606127e-06
2.8116415e-07 1.4036273e-07 7.275439e-08 6.385945e-08 9.2499835e-07 4.584967e-07 1.8470683e-07 3.2934364e-07
2.2353207e-07 2.6631183e-08 1.4177567e-07 5.669331e-08 3.5926625e-08 1.0559258e-06 4.2133638e-07 6.622746e-08
3.5783418e-07 5.533612e-07 1.8950199e-07 3.9963956e-07 1.467642e-07 1.0779163e-07 3.701812e-07 1.9293523e-07
1.639975e-07 6.9722313e-07 3.0486055e-06 5.5094796e-07 1.0730133e-06 4.7928177e-07 1.3069807e-07 6.0712644e-09
7.070298e-09 4.1327133e-09 1.6401773e-07 1.5101412e-07 5.5517166e-08 4.034845e-07 3.8828466e-07 3.377108e-07
2.490392e-07 2.007943e-07 1.4874273e-07 3.0009627e-07 9.887183e-08 4.0822094e-08 1.9520921e-06 5.4289956e-07
7.710071e-07 3.2697626e-06 2.088844e-06 3.637991e-07 4.9328037e-07 2.994145e-07 7.865325e-08 1.3890596e-07
7.9227235e-08 6.5099094e-08 1.2416625e-07 7.8114915e-08 1.0842493e-07 1.8040022e-07 4.4242927e-07 2.2588262e-07
2.9597726e-07 1.7239913e-07 1.4330678e-07 1.3583789e-06 7.601883e-07 6.757234e-07 5.5094335e-07 7.945684e-07
8.160209e-08 1.06190406e-07 3.2969783e-08 1.5795717e-08 1.6214508e-06 7.822073e-07 2.3311377e-07 1.6537561e-07
2.3686789e-07 1.3348162e-07 1.36765745e-08 4.595141e-08 1.4852248e-08 3.3715244e-07 3.1426046e-07 1.9111349e-07
1.089244e-06 3.52968e-07 1.272247e-07 4.2568766e-07 2.7315622e-07 1.3252046e-07 2.051497e-11 1.1817735e-11
2.2428514e-11 1.9932939e-07 2.399351e-07 1.4683586e-07 5.199063e-07 5.9340937e-07 3.27029e-07 2.9079363e-08
1.7821318e-08 1.5414864e-08 4.214316e-07 1.2131817e-06 1.4259163e-07 0.0 0.0 0.0
8.5491905e-08 9.0181935e-08 1.38868e-07 2.9389426e-07 1.2022508e-07 2.970652e-08 2.0439154e-07 1.308953e-07
1.1104077e-07 7.0615124e-07 7.644263e-07 1.9789266e-07 1.7961693e-06 4.2205303e-07 1.1244854e-07 3.4384257e-07
2.0298077e-07 1.6636787e-07 9.321465e-07 3.6096245e-07 1.2767862e-07 9.0935674e-07 4.5055288e-07 3.02855e-07
2.3467015e-07 1.5932004e-07 1.026647e-07 1.9152482e-07 1.7317187e-07 2.3413804e-07 3.5544093e-07 3.0366294e-07
1.7825593e-07 6.828526e-07 5.2924224e-07 6.4953525e-08 2.7628604e-07 9.234197e-08 1.3281854e-07 1.76585e-07
1.4890388e-07 2.1582218e-07 7.620454e-07 1.4001295e-06 1.691499e-07 1.2676716e-07 1.5545663e-07 1.5709992e-07

exp_avg f4 [64]
00000000: 9d0c 8c38 0400 0000 7417 ddb8 829b 3cb9
00000010: 0400 0000 31e9 843a cb8b 9b36 c918 fe39
00000020: 30bd 92b8 b46c 1c3a 4109 e239 ec29 9d36
00000030: 0adc 5239 5328 b9b9 2ed1 5534 e095 18bb
00000040: 5f66 85b9 ca8a 0b39 5b4d f0b9 d2f7 f339
00000050: 373d edba 0400 0000 5d4a a235 0341 e5b9
00000060: 4b7e 60b9 c22a abb8 5a51 003b 20fe 453a
00000070: f7b1 d8b8 941d cf23 36ff 1238 4422 163b
00000080: e3e7 6634 e910 5bba 5908 95ba f03a 4234
00000090: 5d84 9639 ef4a 8a38 0400 0000 1bab fa39
000000a0: 1897 0fb9 162f 29b8 0400 0000 b536 2fb9
000000b0: 0e2a cc3a 4403 d91b c5bd d238 0000 0000
000000c0: 73fb 92b7 207f b939 be24 11ba f3a4 043a
000000d0: 66ee c539 0d1a b336 065d 69b7 06f7 7e3a
000000e0: d0e9 1f39 2095 28ba 1599 933a 6064 c7ba
000000f0: 963d bbb8 35d3 ea37 cf9f a33a a7a8 52ba
6.6780696e-05 6e-45 -0.0001054247 -0.00017987008 6e-45 0.0010140297 4.635634e-06 0.00048465122
-6.9970614e-05 0.0005967126 0.00043112974 4.683845e-06 0.00020109132 -0.00035315994 1.991327e-07 -0.0023282692
-0.0002544401 0.00013307776 -0.00045834002 0.00046533212 -0.0018099908 6e-45 1.2091583e-06 -0.0004372672
-0.00021409352 -8.16188e-05 0.001957974 0.0007552821 -0.00010332831 2.2455512e-17 3.5046796e-05 0.0022908607
2.1504779e-07 -0.0008356707 -0.0011370286 1.8089099e-07 0.00028708848 6.59431e-05 6e-45 0.000478112
-0.0001369383 -4.0336592e-05 6e-45 -0.0001670968 0.0015576498 3.590175e-22 0.00010048928 0.0
-1.7521646e-05 0.00035380665 -0.0005536786 0.000505998 0.0003775239 5.3376484e-06 -1.3909541e-05 0.00097261404
0.00015250524 -0.0006430913 0.0011260832 -0.0015212409 -8.928326e-05 2.7993325e-05 0.001248354 -0.00080359954

exp_avg_sq f4 [64]
00000000: c158 1136 0a07 9a31 e5e3 b935 f4b1 1b35
00000010: dc87 ed2f e1e7 f235 8149 cd35 bd3e 4e35
00000020: b69f a634 4c84 4635 09eb 1336 3b62 3c34
00000030: e919 d635 c808 6434 08c3 0c34 4a44 1035
00000040: 5e56 a335 3ed1 3534 c50c 5235 e78a 5a36
00000050: f81b 4535 6db5 7c32 43f9 aa34 d35a 6535
00000060: 7887 3835 4463 3434 e034 1736 912e 9a36
00000070: 58b8 d234 64fa 8734 6708 3d34 5ecb 3235
00000080: e2d7 0d35 3ba9 5036 f04a 3835 cbf3 5933
00000090: 42d7 9235 5d7b f334 e754 9733 3220 0b35
000000a0: ec56 2b35 c5ff da34 4645 862d 0342 b434
000000b0: 527e a135 8908 2533 f263 7935 0000 0000
000000c0: e40f 3a34 a4e5 3f34 2c71 fb34 ad52 5435
000000d0: e0b0 2a35 d72b 0035 ae19 2a35 db5a b335
000000e0: e772 6934 1aa7 f034 478d 4a35 44e7 6735
000000f0: ff5e b234 b847 3135 67b3 0e36 d666 c334
2.1658345e-06 4.48279e-09 1.38499e-06 5.8000956e-07 4.3206583e-10 1.8097891e-06 1.5295083e-06 7.6832276e-07
3.1036114e-07 7.3953265e-07 2.2041515e-06 1.75446e-07 1.5951783e-06 2.123735e-07 1.3109468e-07 5.3743554e-07
1.2169583e-06 1.693306e-07 7.824968e-07 3.2565383e-06 7.342892e-07 1.4709582e-08 3.184633e-07 8.5441314e-07
6.8742474e-07 1.6799919e-07 2.253153e-06 4.5949787e-06 3.9249676e-07 2.5327893e-07 1.7605053e-07 6.6606106e-07
5.2840744e-07 3.109292e-06 6.865439e-07 5.0745978e-08 1.0940496e-06 4.5352036e-07 7.046929e-08 5.1828385e-07
6.382895e-07 4.079176e-07 1.52648e-11 3.3575643e-07 1.2032199e-06 3.842482e-08 9.290517e-07 0.0
1.7328381e-07 1.7871804e-07 4.6834737e-07 7.9096463e-07 6.358732e-07 4.774751e-07 6.3367304e-07 1.3362982e-06
2.1741617e-07 4.4825066e-07 7.545645e-07 8.639074e-07 3.3224202e-07 6.6042e-07 2.1264075e-06 3.6396403e-07
