models/model_cavity_nu0.01_U1_20x20_epochs5000_noadaption_testpcnt0.8.pt (torch, 187059 bytes, 30 tensors)

weight f4 [64, 3]
000000 60 1e 02 bf 32 69 73 3e 75 11 80 bc 92 d9 85 3e
       -0.508276 0.23770598 -0.015633324 0.26142555
000010 81 1b f6 be c7 34 57 be f5 d2 3b bd 10 bc 0a bd
       -0.4806786 -0.21016227 -0.04585548 -0.033870757
000020 a4 22 7e 3d 16 b2 bc 3a 0a 4e ab bb 2a a7 9e be
       0.062044755 0.0014396335 -0.005227809 -0.3098691
000030 d1 4c 38 3d 80 86 3e bf 81 61 dc bd a6 1b 51 be
       0.044995133 -0.7442398 -0.10760785 -0.20420703
000040 c2 8e fb bc 80 8a cf bd aa 8f 01 3f 4a ac ea be
       -0.03070772 -0.10133839 0.5060984 -0.4583457
000050 11 c8 66 be 63 9b e5 be cd 53 17 3f c3 e5 07 bc
       -0.22537257 -0.44845113 0.59112245 -0.008294526
000060 56 16 77 3c d1 e4 a8 3e d5 c1 ea 3d 6f a7 16 3f
       0.015081009 0.32987073 0.11462752 0.58849233
000070 11 5e 31 3f 13 35 e6 bd 48 25 33 3d 54 32 14 bf
       0.6928416 -0.11240592 0.043736726 -0.57889295
000080 f9 ff e8 bd 0b 3b 05 3b cf 26 09 bc 91 fd ad 3e
       -0.11376948 0.0020329382 -0.008371069 0.33982518
000090 de cc a0 3e 62 10 bb be 26 67 0b be ed 46 1e be
       0.314063 -0.36535937 -0.13613567 -0.15456744
0000a0 5b b4 a1 bd af b1 d1 bd 72 a1 e5 bd f3 fe 1e bf
       -0.07895728 -0.102389686 -0.11212434 -0.6210777
0000b0 05 0a 06 bf de b3 0e 3e c0 ab a9 bd 6a 7f b4 3d
       -0.5235904 0.13935801 -0.08284712 0.08813365
0000c0 e3 08 02 3e 0f 03 60 3f 14 72 af 3e f2 b3 1b bf
       0.12698703 0.8750467 0.34266722 -0.6082145
0000d0 e2 e4 9f 3e 04 73 db 3e 1a 8d 3a be d6 db 49 3f
       0.3122931 0.42861187 -0.18217888 0.7885107
0000e0 e2 a3 8a be 1d 82 b3 be 47 02 13 3f 2c fc a9 3d
       -0.27078158 -0.35060206 0.5742535 0.08300051
0000f0 c5 ef e8 be 91 c9 77 bf 75 92 1d 3b 5e 24 f9 be
       -0.4549543 -0.9679194 0.0024043594 -0.48660558
000100 83 5b 96 3e f4 be 54 3b 01 d3 e1 3e fb 69 0b 3f
       0.29366693 0.003246245 0.44106296 0.5445859
000110 b1 01 4d be 1c b6 9e 3e f4 53 0b bf 2b a9 c7 bd
       -0.20020176 0.30998313 -0.5442498 -0.09749063
000120 7c 7c 05 3f 1a 5d 11 bf dc a3 97 bd ac 01 b0 3e
       0.52143073 -0.56782687 -0.074043006 0.34376276
000130 1c 17 67 bf 1c c9 45 3e e7 f3 cc 3e 3d 9f 83 3e
       -0.9026964 0.19314998 0.40029833 0.25707427
000140 a8 cb 15 3e c6 94 87 bd 00 32 26 3e 07 05 1e be
       0.1462847 -0.06620173 0.16230011 -0.15431605
000150 20 19 7f 3e d0 f4 42 bf 38 d2 e7 bd ad 2e 87 3e
       0.24911928 -0.76154804 -0.11319393 0.26402798
000160 23 76 18 bf 47 7d ab bd 5e fa f6 3e 05 af 37 3f
       -0.5955526 -0.08373504 0.4823789 0.71751434
000170 4d 29 08 be 37 b9 25 be ef 75 a4 bd d3 45 13 be
       -0.13297005 -0.16183935 -0.080303065 -0.14382105
000180 95 1b bb 3e e8 60 0d 3f bd dc cb bd 3d e1 1a bf
       0.3654448 0.5522599 -0.09954212 -0.60499936
000190 66 c4 6b 3f 4d a1 5c be 73 00 b3 3e ac 44 da be
       0.92096555 -0.21545906 0.3496128 -0.42630517
0001a0 1c bc 77 be f4 a0 fc bd 16 13 83 bd d5 dd 0d be
       -0.24192852 -0.12335387 -0.06400125 -0.13854153
0001b0 c6 3e f5 be 82 c0 14 3f 6b 30 b4 be 99 ff 97 3e
       -0.47899455 0.58106244 -0.3519319 0.29687193
0001c0 2a 76 11 bf 90 97 3b be b1 c8 1d bf 1f 47 be 3e
       -0.5682093 -0.18319535 -0.61634356 0.37163636
0001d0 de 67 ee bd 3f 9f 34 bf ee 19 0d bf aa 77 89 3e
       -0.11640905 -0.7055549 -0.5511769 0.2684911
0001e0 3f b3 d6 be 8e 55 20 3f 55 44 66 be 65 91 d0 bd
       -0.4193363 0.62630546 -0.22487004 -0.10183982
0001f0 a8 e7 19 be 39 f2 e5 bc 08 b2 e1 3e 9f 4a 35 3f
       -0.15029776 -0.028069602 0.4408114 0.7081699
000200 95 65 e1 bd c4 66 f3 3e 79 ed 9e be 41 4f b5 3e
       -0.11005703 0.4753934 -0.31040552 0.35412028
000210 e5 55 ca 3e d3 6e e9 be 5d a0 96 bb a6 79 97 be
       0.39518657 -0.45592365 -0.0045967535 -0.29584998
000220 0e 47 8c be 34 6e ae be a5 56 14 bf 9a 9d 3f 3f
       -0.2739796 -0.34068453 -0.5794471 0.74849856
000230 dc 73 58 bd f7 50 d1 3d 61 c7 45 bd 6b 6e 9e be
       -0.052844867 0.10220521 -0.048285846 -0.30943617
000240 2f 49 25 39 6c 1e 83 3e b2 4c 1c be 72 c6 01 bd
       0.00015762889 0.25609148 -0.15263632 -0.031683393
000250 53 63 e0 bd b7 f1 49 be fb de 65 3f cf 3c 4e 3f
       -0.109564446 -0.19721113 0.89793366 0.80561537
000260 4f ba d1 bd ec 92 7b be dc 36 a7 3e f1 6a e9 be
       -0.10240614 -0.24567765 0.32659042 -0.45589402
000270 25 69 93 3d 56 03 14 bf be fb c9 3c 85 f5 01 3f
       0.07197789 -0.5781759 0.024656173 0.5076526
000280 df 4a d9 3e fe bd 96 3e 1e 3d 2e 3f 43 2c d3 3e
       0.42439935 0.29441828 0.6806201 0.41244707
000290 df 98 52 be c4 44 a0 be 97 b3 07 3f 3a 49 25 3e
       -0.20566128 -0.31302464 0.5300841 0.16141215
0002a0 a6 a1 da 3c c3 cb d2 3d fb 23 8f 3e fb 5a db bd
       0.026688408 0.10292771 0.27957138 -0.107107125
0002b0 ae 9b 14 bf b6 70 4d be 1b a7 bc be 7e 8b 00 3f
       -0.5805005 -0.20062527 -0.3684624 0.5021285
0002c0 5f 56 83 39 b1 67 88 bd dc 9b 45 be 97 e5 23 be
       0.0002505062 -0.066604026 -0.19297737 -0.1600555
0002d0 d7 13 88 bd d3 31 0a be b2 52 0d 3e 1e 38 fa bd
       -0.06644409 -0.13495569 0.13801077 -0.12217735
0002e0 46 48 9e be aa e7 c3 be d4 6f 0d bf 1a d1 80 be
       -0.30914515 -0.38262683 -0.5524876 -0.25159532
0002f0 25 96 f9 3e 35 55 0c 3f c8 aa 29 bf 9c 75 2c 3e
       0.48747364 0.54817516 -0.66276217 0.1684174

bias f4 [64]
000000 aa 0e 02 3f e9 39 a0 be 1c 50 08 bf 43 c2 0e bf
       0.50803626 -0.31294182 -0.5324724 -0.5576517
000010 ba eb 94 be 43 a7 0f bf f2 c4 72 3d bd 1e e2 bd
       -0.29086095 -0.56114596 0.059269853 -0.11041019
000020 86 fb 9a 3e 6c 99 3b bd c5 18 e0 be 61 f8 1a bf
       0.30270022 -0.04580061 -0.43768898 -0.60535246
000030 c7 7e 95 be 5b 40 0f bf f9 f4 0c bf 59 51 08 bf
       -0.29198286 -0.55957574 -0.550613 -0.53249127
000040 94 b7 b3 3e d7 49 33 3d 78 51 35 3e df 30 1d 3e
       0.35100996 0.04377159 0.17706859 0.15350674
000050 0d 18 af 3e 7e d2 bb 3e 59 4d 3f be 2b 93 23 be
       0.34198037 0.3668403 -0.1868185 -0.15974109
000060 f9 d3 65 bd 01 36 d3 3e 2b d6 b7 3e 47 c1 1c bf
       -0.056110356 0.4125214 0.35905585 -0.6123242
000070 13 f1 2f be 24 c0 08 be 2b 04 74 be 93 64 25 bf
       -0.17181806 -0.13354546 -0.23829715 -0.6460659
000080 b0 66 81 be 79 6f 82 be 62 e0 e3 bd 8e b8 09 bf
       -0.25273657 -0.25475672 -0.11126782 -0.53797233
000090 4e 3b 44 be 84 07 57 be e6 2e 61 be a5 bd f6 3e
       -0.19163248 -0.2099896 -0.21990547 0.48191562
0000a0 7e e0 76 3e 2b 63 ed be 15 ec ad be fd f8 57 3e
       0.24109074 -0.46364722 -0.3396918 0.21091075
0000b0 73 84 bf 3c 2f 74 54 be 2a d5 1e be 5a 93 48 bf
       0.023378586 -0.20747446 -0.15511003 -0.7834984
0000c0 4d 66 27 bf 40 72 0f bf a1 d4 ef be b5 fd 74 3b
       -0.65390474 -0.56033707 -0.4684191 0.0037382666
0000d0 9a 2c 89 be 35 bb dc 3d 81 fc c7 3e e4 c5 da 3e
       -0.2679184 0.107778944 0.39059833 0.42729104
0000e0 93 9c 0d 3f d9 25 1b be ae 41 08 be 84 dc 33 bf
       0.5531704 -0.15151156 -0.13306305 -0.70258355
0000f0 16 40 fd 3e ab fc 23 bf a8 0d 95 bc 3f 58 6e 3e
       0.49462956 -0.64057416 -0.018194988 0.2327585

weight f4 [64, 64]
000000 d3 db 6e bc fa 7b 2a 3d b0 af 65 3c 6e 2e ac bc
       -0.014578777 0.04162214 0.014018938 -0.021018233
000010 f6 f4 94 3d 44 a4 bd 3b 5d b0 36 bd 5e a8 0e 3c
       0.07273285 0.0057874043 -0.044601787 0.008707134
000020 75 7b 45 bd 9d 84 95 bd 6d e5 7c bd 2d 21 22 bd
       -0.04821344 -0.073006846 -0.061742235 -0.03958242
000030 7b 9c 14 be f2 51 f6 3c 87 3c 83 3d ca 0e e0 3d
       -0.14512818 0.030068371 0.06408029 0.10940321
000040 d4 85 1f 3e de e8 7a bd b6 e2 0f bd 15 5e 9c bc
       0.15578395 -0.061257236 -0.035128318 -0.01908783
000050 f2 6a a2 3e a0 80 33 be 00 c9 8b bc 71 c0 40 be
       0.31722218 -0.17529535 -0.017063618 -0.1882341
000060 e3 7f d4 bd 50 62 32 be b8 46 55 bd 31 4c 90 bc
       -0.10375955 -0.17420316 -0.052069396 -0.017614456
000070 24 4b 7c be 94 3e 58 bd a6 c3 a0 bc ed 00 41 3d
       -0.24638039 -0.052794054 -0.019624542 0.047120024
000080 1b e7 7d bd 7d 34 0c be ac 5f 94 bd aa 42 d6 3d
       -0.061987977 -0.13691898 -0.072448105 0.10461934
000090 1e cd a8 bb 9a ce 49 3e c7 a6 44 bc fd 54 6c bd
       -0.005151405 0.19707718 -0.012002653 -0.05769824
0000a0 f3 29 d1 3c 9e 97 e1 3c a7 a6 08 3e 27 d9 b6 bd
       0.025532698 0.027538117 0.13344823 -0.08928137
0000b0 f0 33 96 bd 47 8e 69 be dc 2d 29 3e 6e 5c 8a bd
       -0.07334125 -0.22808181 0.165214 -0.06755911
0000c0 01 02 ba 3b 70 c0 1d ba 3b e6 b1 3b 7c 9d ae bd
       0.0056765084 -0.000601775 0.005429057 -0.085261315
0000d0 d8 76 89 3e 13 10 84 be ad 0c 34 3c 4b 1d 53 3e
       0.26848483 -0.25793514 0.01098935 0.20616643
0000e0 e4 cc 7d be c2 0f 92 3d d8 77 5d bd 80 b6 00 3d
       -0.24785191 0.07131912 -0.05406937 0.031424046
0000f0 ee 67 0d be d9 99 b4 bd e7 14 82 3b 51 43 43 3c
       -0.13809177 -0.088184066 0.003969777 0.011917905
000100 43 5a 89 3e 58 82 8f 3c 3e 97 ea bd 7e 6b b8 bd
       0.26826677 0.017518207 -0.114546284 -0.090048775
000110 ac b3 47 3e e0 f6 e8 bd 0a 48 2e bc 2c 19 fe bd
       0.19502133 -0.11375213 -0.010637293 -0.12407145
000120 c7 5f 08 be a9 4d db 3c c5 7a 5b 3d b2 b4 29 3d
       -0.13317786 0.02677043 0.05358388 0.04143209
000130 e2 e6 81 bd ff f3 80 3d 2a 96 0b 3c 8a 32 44 3d
       -0.063428655 0.062965386 0.008519689 0.04789976
000140 95 00 89 3e bb 3b 3d 3e 90 23 78 3d c6 c9 79 3d
       0.26758257 0.18479817 0.06058079 0.06098344
000150 15 f2 49 3c c1 7a 93 3d a5 14 27 3d 6d ba c7 bb
       0.012325783 0.07201148 0.040791173 -0.0060952217
000160 4a 1a 7a bd 37 0a d0 3d 84 49 c9 bc 5b 4f 8a 3e
       -0.061060227 0.10158198 -0.024571188 0.27013668
000170 ac 2c 00 bb f7 22 69 3e 38 ad 23 bd d9 66 2d bc
       -0.0019557877 0.22767244 -0.039960116 -0.010583603
000180 6a aa 08 bc 99 c8 39 3e 33 4a e5 3c 27 a1 a1 3d
       -0.008341411 0.18142928 0.027989483 0.078920655
000190 10 95 e5 3c a6 6f 2b 3e 4f 8a da 3c ef 34 2e bd
       0.02802518 0.16741809 0.026677279 -0.04253095
0001a0 d6 d0 91 3c f7 b2 60 ba 04 e8 8b bd 86 df 84 3e
       0.017799776 -0.000857159 -0.06831363 0.25951785
0001b0 0c 18 95 3e b2 f9 2b bd 57 d5 d9 3d 39 e7 07 be
       0.2911991 -0.041986175 0.106363945 -0.13271798
0001c0 c8 01 87 3e 44 87 30 3d 3d 14 2c 3e 7b df 90 3d
       0.26368546 0.04309775 0.16804595 0.070738755
0001d0 f4 a7 22 3e 3c 19 9f bd 13 d6 2d be 2a 44 ec 3e
       0.15884382 -0.07768485 -0.16976194 0.46145755
0001e0 5e a6 82 3d 46 9f 5d 3e 51 c1 05 be 00 83 23 be
       0.06379388 0.21642789 -0.13062026 -0.15967941
0001f0 61 9a 10 3e 9a 00 01 3d 91 9e 84 3c 21 27 61 3e
       0.14121391 0.031494714 0.016188892 0.21987583
000200 c1 93 4e 3d b5 52 9b 3c ba e8 e4 3d 42 49 d3 bc
       0.050433878 0.018960336 0.111772016 -0.025791768
000210 f9 ff c2 3c b8 ef b8 3d 2f 22 92 3d 80 32 60 bd
       0.023803698 0.09030098 0.07135426 -0.05473566
000220 8d c5 8e be ad 42 cf bd d3 ff d5 3d 5f 4f fb bd
       -0.27885094 -0.10120139 0.10449185 -0.12270998
000230 8f e5 22 bd 1d 7f d0 3d d3 04 f0 bd 6a 9c 1a bd
       -0.039769705 0.10180495 -0.1171967 -0.037746824
000240 f4 fd 83 be 80 e6 9e 3e 1b aa 65 3c 10 5e 25 3d
       -0.25779688 0.31035233 0.014017607 0.040372908
000250 0b 23 56 bd 56 04 2c 3d d3 1a d5 bd 58 7f d2 3d
       -0.052279513 0.041996323 -0.10405507 0.10278195
000260 e3 b8 48 bd 1a 29 53 bd c3 1c 82 bf 44 23 06 3d
       -0.049004447 -0.05155287 -1.0165027 0.032748476
000270 57 9a 89 3d fd 3e 36 bd 39 fa 53 3e 02 69 90 3d
       0.06718891 -0.044493664 0.20700921 0.07051279
000280 44 89 57 3e 8f 18 e6 bc c5 69 48 bd 26 51 32 3e
       0.21048456 -0.028087882 -0.048928995 0.17413768
000290 fa 55 04 be a1 d2 5b 3d b3 6a 43 3e 16 35 54 3e
       -0.12923422 0.05366767 0.19083671 0.20723376
0002a0 42 4c ae 3a a4 d9 3d bd 1f 46 b9 3d 93 23 b4 3b
       0.0013297873 -0.046350136 0.09046578 0.005497405
0002b0 45 39 9e ba 8f 78 a6 3e b6 75 31 bb 12 bf 18 3d
       -0.0012071511 0.32513854 -0.0027078218 0.037291594
0002c0 f4 e3 ef 3d 7b ad d0 ba 6e e7 a3 be d5 29 9f bd
       0.117134005 -0.0015920842 -0.32012504 -0.07771651
0002d0 ac c7 a3 bd 09 ba 57 be 98 13 84 3e f2 13 4e 3c
       -0.07997069 -0.2106706 0.257962 0.0125779975
0002e0 b2 70 0e 3c 71 23 aa bd eb 70 d4 3c 04 36 05 bd
       0.008693861 -0.08307541 0.02593275 -0.032522216
0002f0 14 aa 0e 3e c3 7f 98 bd 18 a1 fb 3d 5b ba 30 3c
       0.13932067 -0.074462436 0.122865856 0.010786618
000300 a2 29 fc 3c 4a f2 38 be bc ef 56 bd e7 52 e2 bd
       0.03078157 -0.18061176 -0.052474722 -0.110509686
000310 a6 17 32 be 4e 93 d1 bd 3c bd 11 be 12 33 22 be
       -0.17391834 -0.10233174 -0.14232343 -0.15839794
000320 40 13 68 bd bc cc 0b 3e 48 10 80 3d fe 08 eb 3d
       -0.056658983 0.13652319 0.062531054 0.114763245
000330 88 d1 2f bd e8 d3 ff 3c 1b b7 2b bd 3c 9e 2d 3d
       -0.042924434 0.031228974 -0.04192267 0.042387232
000340 89 66 bc bd f1 bb 04 3a 65 7e f0 bd 62 44 a6 bd
       -0.091992445 0.0005063406 -0.11742858 -0.08118512
000350 f5 ab ef bc 89 25 d4 bd 24 a9 cb bc 6a f2 61 bd
       -0.0292568 -0.10358722 -0.024860926 -0.055162825
000360 83 20 ea 3b 13 50 57 3d 0a ef ad bd 56 ff e5 bd
       0.007144989 0.0525666 -0.08492859 -0.11230342
000370 a2 64 e2 bd 81 53 47 bd d3 83 2f 3d fa 38 f9 bd
       -0.110543504 -0.04866362 0.042850327 -0.121690705
000380 6c 5f d7 bd 69 f6 a4 bd f8 b5 62 bd 4c dd b1 3c
       -0.10516247 -0.080548115 -0.05534932 0.021711968
000390 82 f4 1b be 11 0d 1e be 7d 68 fa 3a a7 80 88 3d
       -0.15229991 -0.15434672 0.0019104626 0.066651635
0003a0 08 4f 4f be 14 d5 a9 bc d8 14 b3 3b 2d d6 17 3d
       -0.20244992 -0.020731486 0.0054651313 0.03706949
0003b0 42 6c 85 3b 0e 4e 25 3c 49 93 f0 3d 8c e5 76 bd
       0.004071743 0.0100894105 0.117468424 -0.060277507
0003c0 f0 a1 fd bc 92 93 31 3d a2 8a 45 bd 50 0d 08 be
       -0.030961007 0.043353625 -0.048227914 -0.13286328
0003d0 31 66 ee bd ef a6 0f 3d 97 90 16 3d 97 7c f5 bd
       -0.11640585 0.03507131 0.036758985 -0.11986654
0003e0 eb 5f 8d 3d 5d c9 09 be 56 1a a3 bd 43 be df bd
       0.069030605 -0.1345572 -0.079640076 -0.109249614
0003f0 8f 28 40 bd b1 29 ac bd 83 1d 48 bd 94 5b 09 bc
       -0.04691368 -0.084063895 -0.04885627 -0.00838365

bias f4 [64]
000000 c4 9a 3d be 5f 6e 97 bd 9a 19 91 be f4 00 83 bd
       -0.1851607 -0.073940985 -0.28339845 -0.06396666
000010 cb 23 d8 3d de 02 88 3c 9c 68 bd bc db 70 60 3d
       0.10553702 0.01660293 -0.02312117 0.054795127
000020 0e db 55 be e4 c3 6f bc e3 f6 a4 bc b7 d7 65 bd
       -0.20884344 -0.014634106 -0.020137256 -0.056113925
000030 02 c3 54 bc a0 65 d7 bd ef 5e 6a be 08 c6 15 3d
       -0.012985947 -0.1051743 -0.22887777 0.03656581
000040 59 bb c4 bc 56 7b 91 3d a5 3d 09 3d e0 9f fb be
       -0.024015116 0.071036026 0.033506054 -0.49145412
000050 d7 a1 dc bd 96 97 99 bd 56 95 d9 bd 0e 9d ad 3d
       -0.10773056 -0.07499616 -0.10624187 0.084772214
000060 82 65 09 be 9c 85 37 3c 91 21 3a 3d 67 98 13 be
       -0.13417628 0.011201289 0.045442168 -0.14413606
000070 a8 f9 98 bc df 29 61 bd 1c 82 0e be 4c f1 37 bd
       -0.018673733 -0.054971572 -0.1391682 -0.044907853
000080 e1 f4 83 3c 40 95 b2 bc 51 e8 0b bd d1 9b 9a bc
       0.016107978 -0.021799684 -0.0341571 -0.018873127
000090 99 4d a7 3c c3 51 8e bc 65 5d 48 bd 4b de 9c 3d
       0.020422744 -0.017372971 -0.048917193 0.076595865
0000a0 a1 1e b0 3b 8a 41 9e bd d0 51 d6 bd 36 4b 75 3d
       0.005374745 -0.07727344 -0.10464823 0.05988618
0000b0 cb 0f 9a bd 4a 0a 3e be db 6c ae bd 46 35 e3 bc
       -0.075225435 -0.18558612 -0.08516856 -0.027735364
0000c0 89 15 e4 bd 41 6b 0a bd af eb 85 3d 2d 1a 72 be
       -0.1113692 -0.03379369 0.06539094 -0.23642798
0000d0 89 a6 ff 3d 63 5f 91 bd 01 b6 4f bd 86 ac 70 bd
       0.12482936 -0.07098272 -0.05071068 -0.05875828
0000e0 1a b3 c5 3d 5a 8f 20 3c bb 1f 1b 3e 0c 74 3f be
       0.096533015 0.009799803 0.15148823 -0.18696612
0000f0 27 14 bf 3c 3b 45 10 bc 62 dd 46 bd c6 3e ee 3d
       0.02332504 -0.008805568 -0.04855097 0.11633067

weight f4 [64, 64]
000000 94 64 6f bd b8 ae 0f 3d e7 a9 88 bc d3 5e 57 bd
       -0.05844553 0.035078734 -0.016682578 -0.052580666
000010 7f 1c f2 3d b8 a8 25 3e f9 31 d8 bc 2e d1 80 bd
       0.118218414 0.16177642 -0.026391016 -0.06289898
000020 ad 6c 96 bd 48 2c e2 3d 47 6f f3 bd 28 53 d1 3d
       -0.07344947 0.11043602 -0.11886459 0.10220939
000030 a8 d0 98 be d8 7c 1a bc f0 c0 0e be 5e 35 de 3c
       -0.29846692 -0.009429179 -0.13940787 0.027125057
000040 6d a4 2c 3d 08 b7 a0 bc f1 b0 10 3e 89 5e 0e 3e
       0.042148996 -0.019618526 0.14129998 0.1390325
000050 c8 c0 82 3d 26 bd c3 bd d5 39 b9 3d c7 a6 b5 bb
       0.06384426 -0.095575616 0.09044234 -0.005543563
000060 33 96 e7 bd 73 c3 26 3d e2 99 88 3d 70 7d 77 3d
       -0.11307945 0.04071374 0.06669976 0.06042236
000070 6d d7 4b be 9d f3 cb bd aa 8c d1 3d 6c 9c c1 3d
       -0.19906397 -0.09958575 0.10231908 0.09453663
000080 a7 e4 a2 bd 72 44 f2 bd 64 a5 ba bd 75 89 d4 3d
       -0.07953768 -0.11829461 -0.09113577 0.1037778
000090 bd 21 82 bd e8 07 c8 bd 14 d1 0d bd 86 08 2a be
       -0.06354091 -0.09767133 -0.03462322 -0.16604814
0000a0 ff 3d 78 be 18 7d b5 3d 98 02 a7 bb da 6b fc 3d
       -0.242424 0.0886175 -0.0050967447 0.123252586
0000b0 f2 56 ff 3c f8 4d a2 bd 71 f9 c0 bd fa f8 ca bd
       0.031169388 -0.079250276 -0.09422577 -0.0991077
0000c0 34 d6 37 3c 4c 34 58 bd e5 3f ad bc 2c e4 d6 3d
       0.011220504 -0.05278425 -0.021148631 0.10492739
0000d0 91 5d 46 3d c6 13 d3 3c a0 02 40 be b4 85 c0 3d
       0.048429076 0.025766265 -0.18751001 0.09400502
0000e0 f2 f8 d2 bd 1b 17 5b bc 17 1b 80 bd c9 18 d8 3d
       -0.10301389 -0.013372208 -0.06255167 0.105516024
0000f0 24 42 84 bd 2b a7 85 bc 3c df fe 3d 6d 44 1f bd
       -0.06457928 -0.016315063 0.12444922 -0.038883615
000100 2d a0 ca 3d 7f bc 6c 3d af 51 0e 3e e0 a3 b1 3b
       0.09893832 0.05779695 0.13898347 0.0054211468
000110 c6 25 d9 bd 3d 8e 13 3d 14 17 84 bd 6a 7c a3 bc
       -0.10602908 0.03602432 -0.06449714 -0.019956786
000120 c0 70 3e 3e 28 43 e0 3d f8 3b ad bd ae 74 f3 3d
       0.18597698 0.10950309 -0.08458704 0.11887489
000130 ea c8 33 be 0a a3 9d 3d 77 ae 0e 3d 84 c3 e7 bd
       -0.17557111 0.07697113 0.03483435 -0.113165885
000140 66 0b 8b 3d e6 85 4f bc 70 35 d3 bc 13 b6 3f 3e
       0.067892835 -0.012666201 -0.025782317 0.187218
000150 12 2f d8 3d 2c 27 6c 3d 6e cc 97 3d 1c 3d 07 bd
       0.10555853 0.057654545 0.07412039 -0.033017263
000160 49 94 00 bd 56 ad d0 be 52 fb 51 bd 90 f3 5f 3c
       -0.031391416 -0.40757245 -0.05126507 0.01366891
000170 83 5c 9a 3c 1d ee 11 3e 40 84 14 3e 48 ed b2 bd
       0.018842941 0.1425099 0.14503574 -0.08736664
000180 fd 27 26 bd 78 a4 1a bd 2a 74 83 be 2e 2b 17 3c
       -0.04056548 -0.037754506 -0.25674564 0.009226603
000190 9e d7 9c bd 21 92 fe bd 86 10 3b be 49 d1 19 3e
       -0.07658313 -0.124302156 -0.18268022 0.15021242
0001a0 96 4c e8 3c e4 5d 74 3d 20 b5 e3 bd 72 20 44 be
       0.028356832 0.059659854 -0.11118531 -0.19153002
0001b0 06 0c 54 bd 55 86 57 be 6e 78 b3 bd 5e 6c 16 be
       -0.05176928 -0.21047337 -0.087632045 -0.14689776
0001c0 a6 b4 b5 3d e7 7b a2 bd 34 ae 4d be e8 de 10 3d
       0.088723466 -0.07933789 -0.20085984 0.03536883
0001d0 44 29 0c 3d 66 96 83 bc a7 82 db 3d 20 0b 53 be
       0.03421904 -0.016062927 0.10718279 -0.20609713
0001e0 2f df 7a 3c 85 0c 29 3d 5d 81 98 bd e1 dd 56 be
       0.015312 0.041271705 -0.07446549 -0.20983078
0001f0 20 e2 58 3c d2 b4 1d 3d c1 f0 89 bd 6a 04 61 bc
       0.013237506 0.03850252 -0.06735373 -0.013733963
000200 da 31 60 bc de a6 9b 3d 14 ee d7 b9 6d 7e 2b 3e
       -0.013683761 0.07600187 -0.00041185378 0.16747446
000210 d8 e7 79 3b d3 b2 bc bc 55 39 bd 3c af ac f1 bd
       0.0038132574 -0.023034489 0.023098627 -0.11800515
000220 20 77 1a 3c 52 3a a5 3c 6f 2b 3d 3c 6e 38 86 3d
       0.009427816 0.02016941 0.011546 0.06553732
000230 e9 27 f8 bc f3 74 b6 bb 8a 7f d4 3c cf 60 fa bd
       -0.030292468 -0.0055681407 0.025939722 -0.12225496
000240 48 9c bf 3c b3 26 1a bd 2e c9 83 3d 2c d7 de bc
       0.02338995 -0.037634563 0.06434856 -0.027202211
000250 66 d1 06 3e 18 8a 76 3d d0 bb dd 3c 68 9f eb bc
       0.13165817 0.06019029 0.027067095 -0.028762534
000260 44 c9 eb bd 2a 9f af bd 03 e6 86 bd f7 85 0f 3e
       -0.11512998 -0.0857528 -0.0658684 0.14015947
000270 d3 aa 3c be 42 e1 b1 3d 26 ab b1 3d 1d d1 24 bd
       -0.1842454 0.08685543 0.08675222 -0.04023849
000280 12 fe 66 3d 85 a4 d0 3d 03 00 fc 3d a2 aa ef bd
       0.056394644 0.101876296 0.1230469 -0.117024675
000290 59 a6 b7 bd 20 fe 6f 3d 24 07 88 bc a7 1a ed bd
       -0.08967275 0.05859196 -0.016604967 -0.11577349
0002a0 fa 4d 02 be dd 6d bc 3d 91 a4 e6 3d 48 ab 1b bd
       -0.12725058 0.09200642 0.11261857 -0.038005143
0002b0 af 7b 36 bc b6 30 ad 3c 05 0c a3 3c 47 6a d2 bc
       -0.011137887 0.021141391 0.019903192 -0.025685443
0002c0 8c 6b cd 3b 6d a1 0d 3d 54 94 7b bd 1c 1f d9 3d
       0.006268924 0.034577776 -0.061420754 0.10601637
0002d0 0d b7 b7 3c 95 b6 45 bd b8 10 f8 bd b3 36 4a bc
       0.022426153 -0.048269827 -0.12112564 -0.012342143
0002e0 fa 40 04 3d 3c 23 3f bc d4 e8 3c be 92 05 ad bc
       0.03228853 -0.011666115 -0.18448192 -0.02112082
0002f0 40 03 9e bd b1 cf 80 bd d3 32 09 be 3a e1 a6 bc
       -0.07715464 -0.06289614 -0.13398294 -0.020371068
000300 87 18 04 bc b0 5b 97 bd 19 13 15 be 3b 8c 3a 3e
       -0.008062488 -0.07390535 -0.14558066 0.18217556
000310 a2 c6 c6 3d 4c 15 4f be 52 0e 6e bd 2d 45 cc bc
       0.09705855 -0.20222968 -0.058119126 -0.02493533
000320 51 1f 06 bd 90 90 0c 3e 97 db 00 3e af 32 18 3d
       -0.03274471 0.13727021 0.12583767 0.03715771
000330 b6 f8 30 bd da d3 50 3d 62 f3 0c bd f6 d8 ce bd
       -0.04320594 0.050983287 -0.034411795 -0.10099976
000340 bd 83 db bd 4c be 11 3d 95 64 03 be 65 49 80 bd
       -0.107184865 0.035581872 -0.12831338 -0.06263999
000350 73 18 b5 bd e6 0d f9 bd e5 6c 67 be fd f0 92 bc
       -0.08842554 -0.12160854 -0.22600134 -0.017937178
000360 67 69 c7 3d 58 d8 4a be 3c d9 89 bd 2c 63 40 3d
       0.09736901 -0.19809091 -0.06730887 0.046969578
000370 8f 9f bc 3d ac a5 db bd ce d0 23 be 6f 16 56 3d
       0.09210121 -0.10724959 -0.15997621 0.052267488
000380 4e ef 25 3e 05 eb b1 3d 9a a0 0c bd e7 13 2f bd
       0.16204569 0.086874045 -0.03433285 -0.04274359
000390 41 ea 24 be 14 9e 5e bd fa af 68 39 90 c9 9d 3d
       -0.16104986 -0.054349974 0.000221908 0.077044606
0003a0 26 96 46 3e 7c fd e9 bd 3f 4e 11 be 5d 93 8a bd
       0.19393215 -0.114253014 -0.14190005 -0.067663886
0003b0 97 63 de 3d 9e 0a 1b be 2f e1 26 be 1c 7f 5f be
       0.10858839 -0.15140769 -0.16296838 -0.21825832
0003c0 6f c9 78 bd 67 41 f8 bc 58 73 93 bc 6a 95 98 bd
       -0.060738977 -0.030304624 -0.017999336 -0.074503735
0003d0 2c 38 7b be 39 71 da bc 1e 9c 08 bd b4 a8 b5 bb
       -0.24533147 -0.026665317 -0.03335201 -0.0055437926
0003e0 f5 d6 27 3d d9 04 8c 3c 76 0a 49 be d2 64 6c 3e
       0.040976483 0.017092155 -0.19632897 0.23085335
0003f0 aa bd 93 bd 45 34 a5 3c 9a ae c5 3d 1e 31 8a bd
       -0.0721391 0.020166526 0.09652443 -0.067476496

bias f4 [64]
000000 09 b6 a6 bd 91 83 d8 3c 40 c3 f3 bb 5e 54 89 bd
       -0.08140189 0.026429923 -0.007439047 -0.06705545
000010 34 4d b9 3b d8 50 ef bb 4d fb e0 3c e5 50 fc 3c
       0.0056549553 -0.0073033385 0.02746358 0.030800292
000020 46 2b e3 3c 80 24 86 3d b9 01 9b bd 6b 95 fc bd
       0.027730595 0.065499306 -0.07568688 -0.12333187
000030 53 78 a7 3d f9 91 42 3d 61 e2 c4 3c 79 b6 dc bd
       0.08177247 0.04750249 0.024033727 -0.107769914
000040 fd 19 b0 3c bc c0 c1 bd 70 a0 05 bc 32 b9 1e bd
       0.021496767 -0.09460589 -0.008155927 -0.038750835
000050 92 22 2c bd 77 0c de bd 0c aa 97 bc a4 75 e5 bd
       -0.042025156 -0.10842221 -0.018513702 -0.11204079
000060 d1 95 09 3d 20 d2 72 3c 9b 6c 7a 3d b9 2c 9e bd
       0.03359014 0.0148206055 0.06113873 -0.07723374
000070 b1 ee 7b bd 5a 5a 1c bd 8d 7b b3 bd e8 28 45 3d
       -0.06150693 -0.038172103 -0.087638 0.048134714
000080 c3 1b 33 3d 77 cf 97 3d f0 2d ab bc 96 88 b9 3c
       0.043727648 0.07412618 -0.020895928 0.022648137
000090 74 e5 1d bd c5 25 a4 bd 96 e9 8d 3d d5 ca cd bd
       -0.0385489 -0.080150165 0.069293186 -0.10048453
0000a0 95 db b0 3c 1f 2a a9 bc 2c a6 54 bd 2e 74 3d bc
       0.02158908 -0.020649968 -0.051916286 -0.011563344
0000b0 73 2c 18 be 3a bd 61 3d 82 89 08 3e ed f5 7c 3d
       -0.14860706 0.0551121 0.13333705 0.06175797
0000c0 de 69 e5 bd 74 64 0d bd ec 70 e0 bc 91 b2 56 3d
       -0.11201833 -0.034519628 -0.027397595 0.052416388
0000d0 2d 4a dc bd 91 b7 79 3b 84 7e 55 bd 14 1a e4 3d
       -0.107563354 0.00381038 -0.052122608 0.111377865
0000e0 77 6c 78 bd 69 ce a4 bd 9f c2 d2 bc dd 6e 0a 3d
       -0.060650315 -0.08047182 -0.025727568 0.033797134
0000f0 14 7c 1d be b1 44 b8 bd c5 a1 81 bd d0 cd 3e be
       -0.15379363 -0.08997477 -0.06329683 -0.18633199

weight f4 [64, 64]
000000 f5 d7 82 bd 20 1d 14 be 42 10 f4 bd f2 be 18 3b
       -0.06388847 -0.14464235 -0.119171634 0.0023307172
000010 ca 34 9a bd 08 2b 2c bd aa ae dc bd ec 94 18 be
       -0.075296 -0.042033225 -0.10775502 -0.14900559
000020 80 5f 7a bb 15 dd 37 bd bb 8d 10 be c8 1f 15 bd
       -0.0038203895 -0.044888575 -0.14116566 -0.036407262
000030 02 6f 76 3d 75 bc 4c bd a6 17 6b bc ea a3 80 bd
       0.06016446 -0.049984414 -0.0143489 -0.06281264
000040 18 08 86 bc 80 98 ab bd d7 df 12 3d 05 bc d0 3d
       -0.016361281 -0.083786964 0.035858 0.10192112
000050 a1 3e a5 bc 19 57 90 bd bc c2 e6 bd ac 34 f6 bd
       -0.020171465 -0.070478626 -0.112676114 -0.12021765
000060 d0 af 78 bc a6 71 85 bd 56 d0 d0 bd 3f 35 88 3d
       -0.015178636 -0.06515817 -0.10195987 0.06650781
000070 b4 59 ac 3d 57 f9 61 bd f0 b7 4b 3c f6 40 fe 3d
       0.08415547 -0.05516943 0.012433991 0.12414734
000080 62 8e e5 bd b6 dd 8e 3d 4f 22 02 be 3e 1a f0 bc
       -0.11208798 0.06975882 -0.127084 -0.029309388
000090 ec 32 bb 3d 0c 87 48 bd 24 ef 8d bd 44 62 04 be
       0.09140572 -0.048956916 -0.06930378 -0.1292811
0000a0 2e a6 e3 3c 20 ae 70 3c 9b 20 66 3d 49 79 86 3c
       0.027789202 0.014689952 0.05618344 0.016415255
0000b0 60 d7 d8 bd 0e b6 00 be ac 11 3c 3d ce 75 98 3d
       -0.105879545 -0.12569448 0.04591529 0.074443445
0000c0 43 de 5f bd 6e 96 0a 3d 8e 69 3b bd 6e 20 f7 bd
       -0.054655325 0.033834867 -0.04575496 -0.12066732
0000d0 5c 3d b2 3d dd 97 82 bd 21 76 f9 bd 30 d1 46 bc
       0.087031096 -0.06376622 -0.121807344 -0.012134835
0000e0 a6 d0 59 3c 9d 35 a8 3d 16 a8 d9 bd da e1 90 bd
       0.013294375 0.08213351 -0.10627763 -0.07074328
0000f0 1c 06 ad 3d 0f 72 b3 bd 72 c2 9d bd e7 f7 68 3d
       0.08448431 -0.08761989 -0.07703103 0.056877043
000100 82 a8 7c 3e 85 bf 48 3d 18 a4 3a bd 1a 26 e1 bc
       0.24673656 0.049010772 -0.04556665 -0.027483989
000110 87 5e 2c 3e 7d 83 f1 3c cf ef 51 3b 51 f1 80 3d
       0.16832934 0.029481644 0.0032033806 0.062960275
000120 1b bc 83 3d 52 28 c5 3d 41 d7 da 3d 58 59 ae 3b
       0.06432363 0.09626831 0.10685588 0.005320709
000130 90 03 44 bd b3 89 d0 3b 0a 8a 1f bd e7 20 27 3d
       -0.04785496 0.0063640713 -0.038950004 0.040802862
000140 dc 53 d2 bc 39 80 d6 bd fd d3 67 bd dc 17 2f 3e
       -0.025674753 -0.10473675 -0.056598652 0.17098945
000150 07 d5 76 bc b6 79 a6 3d b4 95 18 bd 1c e1 d0 bc
       -0.015065438 0.08128683 -0.037252143 -0.025497966
000160 96 36 e6 3d 03 80 54 3c 19 37 88 bc e0 ee 2c bd
       0.1124088 0.0129699735 -0.016627835 -0.042219996
000170 8f 2f d5 3d 67 4e 1f 3e 62 b4 1d 3d 00 54 2c be
       0.10409462 0.15557252 0.038502105 -0.16828918
000180 e7 c2 f4 3d d8 fe ad 3c ac fb e6 3d 94 49 12 bd
       0.11951237 0.021239683 0.11278471 -0.0357147
000190 e9 4d 08 be aa 34 b5 3c 20 d5 5b bd 89 85 92 bd
       -0.1331097 0.022119839 -0.05367005 -0.07154376
0001a0 61 84 3b 3e 61 33 76 3d e9 13 42 bb b4 cd 7f bd
       0.18312217 0.060107592 -0.0029613918 -0.062452033
0001b0 7b 33 6c bd b9 bc 71 3d 9f b6 ab ba 84 5d af 3d
       -0.057666283 0.05901787 -0.001310069 0.085627586
0001c0 eb a6 a9 3d 47 2b 3e be ca 58 3c 3d a2 1c e3 3d
       0.0828379 -0.18571196 0.045983113 0.11089446
0001d0 f9 d6 bb bc 4a df 57 bc ee bb 01 ba aa 19 d0 3c
       -0.022929655 -0.013175795 -0.0004948963 0.025402863
0001e0 8b db 69 3e 75 dd 57 3d 66 a9 5a 3c db 28 31 bd
       0.22837655 0.052701432 0.013346052 -0.043251853
0001f0 5d 71 ca 3c 19 3f b9 3d 38 d2 29 bd cc 44 ec bc
       0.024712259 0.09045238 -0.041460246 -0.028841399
000200 d4 95 05 be 5f 54 0e 3e a5 3b bf 3d 81 af 58 bc
       -0.13045436 0.13899373 0.09337548 -0.013225437
000210 05 56 13 3d 53 c7 0e bd a2 48 97 3d 10 21 10 bd
       0.035970706 -0.03485806 0.073869005 -0.03518778
000220 da ce f3 3c ec 17 45 be d3 ed 49 bd b7 c2 b8 3d
       0.02976172 -0.19247407 -0.049299072 0.09021514
000230 e5 95 75 bb 9d 61 3d 3d 8b b8 46 bd 47 e4 fe 3d
       -0.0037473377 0.04623567 -0.048515838 0.12445884
000240 09 22 ef bd 03 be 0c bd be 06 07 be af f0 ec bc
       -0.116764136 -0.034360897 -0.13186166 -0.02892336
000250 99 6b ff 3d 98 6b 0f 3d 11 9d 5f 3d cb f4 07 3d
       0.124716945 0.03501472 0.05459315 0.033192437
000260 c3 bc 09 3e 6d d3 f4 3c 61 67 34 3c 05 55 8f 3d
       0.13450913 0.029885972 0.011010976 0.06998638
000270 02 ce 64 3a fa ca 46 3c 3a 0c db 3c 53 75 9c 3d
       0.00087282073 0.012133354 0.026739229 0.07639565
000280 8b d9 aa bd 33 4f 29 be 47 64 15 bd 18 6c 11 3e
       -0.08342274 -0.16534118 -0.036472585 0.1420139
000290 6d e0 f1 bd 69 a1 ca bd f3 0a 17 bd d3 fb 65 3d
       -0.11810384 -0.09894068 -0.036875676 0.05614836
0002a0 3a a3 a1 3d 9d 93 79 bd 86 87 b0 3d 86 58 14 3e
       0.07892461 -0.06093179 0.08619599 0.14486894
0002b0 73 06 d7 3c 1d e7 e4 bd e1 24 75 3d 4b f8 e4 bd
       0.026248192 -0.11176894 0.059849624 -0.111801706
0002c0 37 b4 0b 3e 74 08 b2 3c 38 6f 19 3e 9e ed aa bd
       0.13642965 0.021732546 0.14983833 -0.08346103
0002d0 91 c2 fd bd e8 f2 c2 bd 7d 2d b3 3d fb 54 7c bd
       -0.12390626 -0.09518987 0.087489106 -0.06160448
0002e0 73 c6 8e bd 76 ee 2b 3d 84 c4 eb 3c ac cd 0c be
       -0.06971445 0.04197546 0.02878023 -0.13750333
0002f0 1c 65 d9 bc 65 bc 01 be 87 6e 3e 3d 3d b7 90 bd
       -0.02653747 -0.12669523 0.046492126 -0.070662
000300 b3 38 2b 3d 26 e6 b4 bd 56 16 76 bc 85 54 e5 bc
       0.04180212 -0.0883296 -0.015019974 -0.027994404
000310 38 a0 4c 3e 65 ff d4 3a 8a 83 e9 bc 54 00 2f 3c
       0.19982994 0.001625043 -0.028505106 0.010681231
000320 e2 b0 af bc e4 59 51 3d 1d 5f 70 3d 27 9c 2a 3d
       -0.021446649 0.051111117 0.058684457 0.041652825
000330 4e ff 81 bd dd 14 bb 3c d4 0d 1f 3d 70 4c 02 3e
       -0.06347524 0.022837097 0.038831547 0.12724471
000340 48 2c 8b 3d 8a c2 3a 3d be a6 00 3e 10 e0 02 bd
       0.06795555 0.045595683 0.12563607 -0.031951964
000350 02 1e a9 3d 31 61 9c 3c 1e 1e 18 3d 4c aa ed 3d
       0.08257677 0.019089313 0.037138097 0.11604747
000360 02 7e d9 3d 08 f5 8c 3d 46 bd 63 bd 94 2b 8f bd
       0.10619737 0.068826735 -0.055600427 -0.06990734
000370 45 b4 d7 3d 73 1c 5a bd 9c f2 05 bd 19 ed 40 3d
       0.105324306 -0.053249788 -0.032702073 0.047101114
000380 cf e3 3b bd 19 39 c4 bd d8 cb a1 bd df bf 5f bd
       -0.045871552 -0.09581203 -0.07900208 -0.054626342
000390 4e 24 06 be ea 60 a8 bd 5a 69 de bd 61 59 24 3e
       -0.13099787 -0.0822161 -0.10859938 0.1604972
0003a0 76 c7 a7 bd b7 7b 24 3e 02 60 a7 bd 43 05 91 bc
       -0.08192341 0.16062818 -0.08172609 -0.017702704
0003b0 64 b8 b2 3c df ec 38 be 28 d4 91 bd de a4 4e 3d
       0.02181644 -0.18059109 -0.07120544 0.0504502
0003c0 ae f8 1f 3e 0e 08 9c 3c d9 71 91 3c a4 b2 2a bd
       0.15622208 0.01904681 0.017754482 -0.04167427
0003d0 04 11 b2 bd 0b 39 63 bd 20 30 b6 bd 31 e5 ff 3c
       -0.08694652 -0.055474322 -0.08895898 0.031237217
0003e0 23 1e 06 bd 4a 94 19 be b0 65 1f 3e e6 2a a1 bc
       -0.032743584 -0.14997974 0.15566134 -0.019673776
0003f0 6a 98 03 be b5 50 30 3e 82 50 02 3e 89 36 db 3d
       -0.1285111 0.17218287 0.12726024 0.10703761

bias f4 [64]
000000 fa c2 0a be d0 6b aa bc 95 96 26 bd 30 e2 37 be
       -0.1355094 -0.020803362 -0.04067095 -0.17957377
000010 be 91 41 3d be 59 89 3c 62 4f d2 bc eb 5f 71 3c
       0.04725813 0.016766425 -0.025672618 0.014732341
000020 bc e2 97 3d 3e fb 62 3d 06 f8 60 3d 15 d7 fe 3d
       0.07416293 0.055415384 0.054924034 0.124433674
000030 25 ca 06 3d c5 b0 8d bd 3f 2f f1 bc 6a 98 4e bd
       0.032907624 -0.06918482 -0.029441474 -0.050438322
000040 f7 3f f7 bd 02 de d9 3c 41 e7 e8 3d 0e 92 a7 bb
       -0.12072747 0.02659512 0.11372233 -0.0051138466
000050 e1 95 1b bd f3 ac dc bc b2 cb 4a bc 81 99 1a bd
       -0.037984733 -0.026937937 -0.012377666 -0.03774405
000060 57 cc c7 3c d1 cd 49 bd db b4 66 bd f7 f0 ec bd
       0.024389429 -0.049268547 -0.05632482 -0.11569398
000070 ea a2 0b 3e 0f e1 68 3d 8f 59 bb bc eb 6c 7e bd
       0.13636366 0.056855258 -0.022869853 -0.06211559
000080 a7 e6 24 bd ad 8e 13 bd b0 70 64 bd 92 1a 0e be
       -0.04025903 -0.036024738 -0.05577153 -0.13877323
000090 1d ae 27 bd c9 15 db 3d 83 bf 0f be ab 4e 0a bc
       -0.04093753 0.106975146 -0.140379 -0.0084416075
0000a0 7c 0d cf bc 7a ed 0a be 40 96 d6 3d 18 20 76 3c
       -0.025274985 -0.13567153 0.10477877 0.0150223
0000b0 65 ea 60 3d 0c db f7 38 62 ca 17 be e4 af 18 bd
       0.054911036 0.000118186785 -0.14823297 -0.037277117
0000c0 ce db 71 bc 0b 5f 52 bd 0e f5 ad bd c5 49 b2 3b
       -0.014761878 -0.05136017 -0.08494006 0.005440923
0000d0 f7 5e 47 bc d7 df 5b 3c fb a8 1f bc a8 9c 2b 3e
       -0.0121686375 0.013420067 -0.009744878 0.16758978
0000e0 a0 86 8d bc c4 d4 e9 bd 68 f2 e2 bd 06 42 e1 bd
       -0.017276108 -0.11417535 -0.110813916 -0.10998921
0000f0 7c ed 7a bc cf f2 00 be 06 83 f6 3d 7f e7 13 3e
       -0.01531541 -0.12592624 0.120367095 0.14443778

weight f4 [3, 64]
000000 09 c4 54 bd 2e bc 07 be 41 5e d8 3d 1d f1 2f 3e
       -0.051944766 -0.13255379 0.105648525 0.17181821
000010 bd 5b 3a bc ef e4 21 be 2b eb 9c bb 39 76 26 bd
       -0.011374411 -0.15809987 -0.0047887764 -0.04064009
000020 bc ae 28 bd e5 ed 82 3e 84 39 a2 3d a5 f3 a9 bb
       -0.041182265 0.25572124 0.079211265 -0.0051865154
000030 6a 9b 6c bd 72 a4 04 3e be a3 d8 3c b4 a0 de 3d
       -0.057765402 0.12953356 0.026445266 0.108704954
000040 83 9a d8 3d f3 67 4f be 8b 39 46 3e 4f b4 f2 bd
       0.10576346 -0.20254497 0.19357888 -0.118507974
000050 fe 05 d5 3d 85 aa 00 3e df 67 c1 3d a7 70 ee bd
       0.104015335 0.12565048 0.0944364 -0.116425805
000060 8e bf 0a be 66 82 a8 3d e9 2a a6 bc 32 3d b5 bd
       -0.13549635 0.082279965 -0.020284133 -0.08849563
000070 65 0a 1d be 97 c5 f2 bd ef 2f 00 3d ce 9a 3d bd
       -0.15335996 -0.118540935 0.031295713 -0.04629021
000080 c4 da 2e be 53 42 22 be 23 fd 85 bd 8d db 62 3e
       -0.1707564 -0.15845613 -0.065424226 0.22154064
000090 cd 14 9a 3d 2d ab 4d be 50 4e 26 3e 99 2d 27 3e
       0.07523499 -0.2008483 0.16240811 0.16325988
0000a0 fc 06 b0 3d 11 7f af 3d 13 68 81 be e0 dc 2c 3d
       0.08595082 0.08569158 -0.25274715 0.04220283
0000b0 17 83 a2 bd 46 70 e4 bd 96 dc e0 bd 4b 3c 4c 3d
       -0.0793516 -0.11154227 -0.109795734 0.049862187
0000c0 00 e2 e5 bd d6 33 79 3e 0e c7 c2 3d a2 64 62 3d
       -0.11224747 0.2433618 0.09510623 0.055271752
0000d0 41 9a 8e 3d 6c 2c 01 bd 7a e6 aa bd 08 60 80 bd
       0.06963015 -0.031536505 -0.08344741 -0.062683165
0000e0 87 67 90 bd 1a fb dd 3d d8 8d 02 bc 99 d5 ec 3d
       -0.07050996 0.108389094 -0.0079683885 0.11564178
0000f0 bc a6 03 3d 86 f1 9b 3d 93 db a6 bd f5 40 04 be
       0.032141432 0.07614426 -0.08147349 -0.12915404
000100 2b f4 88 bd 16 db ee 3c bb 91 8f 3d a1 7d 81 bd
       -0.06687196 0.029157203 0.07010218 -0.0632279
000110 8d 49 36 bd 90 05 37 bd b6 c4 21 bd 59 f3 79 3d
       -0.044503737 -0.04468304 -0.03949424 0.06102309
000120 bb f7 cb bd 06 7a 24 be fe ba 3c be 10 a6 d1 bd
       -0.0995936 -0.16062173 -0.18430707 -0.10236752
000130 9d af fa bb cd 42 7a 3d 34 57 78 3e 54 9c ed 3d
       -0.0076503293 0.061098862 0.24252015 0.11602083
000140 0c 0f 16 3c 39 ad 5a be 11 6c 22 be 95 64 aa bd
       0.009158861 -0.21355142 -0.15861537 -0.08319966
000150 5d 11 ea ba 2f 19 ad 3c 73 17 06 be 2e 7b f0 3c
       -0.0017857958 0.021130173 -0.13094883 0.029355612
000160 0a 1f d7 bd 4f 6b ce bd 7b d2 08 3d c2 0e e9 bd
       -0.10503967 -0.10079061 0.033403855 -0.11379768
000170 f0 9e 12 be 01 9d f2 3d 96 1e 86 3d 54 5f b1 3c
       -0.14318442 0.11846352 0.065488026 0.021651901
000180 08 71 10 3e 1e 9a 5d bd a7 61 d6 bd c6 e0 b1 bd
       0.14105618 -0.054102056 -0.104678445 -0.0868545
000190 5a b4 d8 3d bb fb 49 be b0 19 71 3d c9 a6 2b 3b
       0.10581274 -0.19724934 0.058862388 0.002619194
0001a0 82 9a 93 3d 13 a4 85 3d 80 e2 7c 3d b8 1b 2e bd
       0.072072044 0.06525435 0.061739445 -0.042506903
0001b0 f4 58 bf 3d 17 e4 00 be 08 fc 4a 3e 32 41 92 3d
       0.09343138 -0.1258701 0.19822705 0.07141341
0001c0 bd 10 1b be 92 bc 4c 3d 52 ff 31 bb 1e 1e 2b 3e
       -0.15143104 0.049984522 -0.002716024 0.16710708
0001d0 c9 0f ba 3d 93 75 c3 3d 1e 79 c8 3d 65 a9 2b be
       0.09085042 0.0954391 0.09788726 -0.16763838
0001e0 2f 06 f2 3d 28 81 73 bd f8 04 4c 3d 38 04 0e bd
       0.11817586 -0.059449345 0.049809426 -0.034671992
0001f0 66 f8 40 bd 64 29 f3 3b a8 33 6c 3d b6 76 78 bd
       -0.04711189 0.0074207056 0.05766645 -0.060660087
000200 43 2d b2 3d 48 5b 35 be 60 2b 32 bc 9c 65 03 bd
       0.08700039 -0.17710602 -0.010874599 -0.032079324
000210 26 9f e0 bd d4 65 1a be 45 0c 28 be 84 52 df 3c
       -0.10967855 -0.15077907 -0.1641093 0.027261026
000220 3e 0e 5c 3e 4e fd 88 bc 83 7d cd bd d8 d4 f0 bc
       0.21489808 -0.016722348 -0.10033705 -0.029398367
000230 db 5b a6 3c c8 f8 1c 3d 02 10 97 bd 58 f4 bf 3c
       0.020307472 0.038323194 -0.073761 0.023431942
000240 ed 3e 8e 3d 79 7b fc bd c3 4a fb 3c 07 0a 4a bd
       0.06945596 -0.12328238 0.030675298 -0.04932597
000250 8e 32 2e 3e 10 f0 d7 3d e7 b0 39 be 45 33 17 3d
       0.17011473 0.10543835 -0.18133889 0.03691413
000260 35 c6 2b be 15 3b b2 bd b6 ad b2 3d eb a2 7e bc
       -0.16774829 -0.08702675 0.08724539 -0.015541772
000270 be b9 0c 3e 07 5f 0a 3d 23 f8 20 3e 29 38 9f 3d
       0.1374273 0.03378203 0.15719657 0.077743836
000280 55 ef 03 3e f3 9a 58 3e 1c 98 a3 bd a5 63 58 be
       0.12884267 0.21152858 -0.07987997 -0.21131761
000290 a0 6d 18 3d 6f da dc 3b 54 19 ec bc 1e b1 c2 bd
       0.03721392 0.0067399065 -0.028820671 -0.09506439
0002a0 22 cd b6 bc d9 d3 1a 3e 1d a7 03 3d 05 bb d1 3d
       -0.022314612 0.15119876 0.032141794 0.10240749
0002b0 c6 c7 aa 3d b9 de 9c bd 87 18 96 3d 9d 40 20 be
       0.08338885 -0.076596685 0.07328897 -0.15649648
0002c0 cd 1c 2e bd 92 45 52 be 72 d1 a4 bc c4 d3 66 3d
       -0.042507935 -0.20534351 -0.020119403 0.0563543
0002d0 75 ab aa 3c b6 e8 36 3d cd f7 01 3d b1 de db bc
       0.02083371 0.044655524 0.031730462 -0.026839586
0002e0 fd 7d 55 bd 23 ee 90 bd dc 0d 20 be b1 12 84 bd
       -0.052122105 -0.07076671 -0.15630287 -0.064488776
0002f0 5a e2 aa bc 44 c1 2c 3d 68 7f b9 3c 8a 02 80 bd
       -0.020859886 0.0421765 0.02264376 -0.06250484

bias f4 [3]
000000 0b 69 38 be 1c e9 41 bd be 9b 56 3d
       -0.1800882 -0.04734145 0.05239462

exp_avg f4 [64, 3]
000000 7c 84 4f 38 84 08 b0 b8 7c a3 f4 38 a8 af 4d 39
       4.947603e-05 -8.39392e-05 0.00011665278 0.0001961576
000010 28 94 55 38 ff f8 39 38 00 00 00 00 00 00 00 00
       5.092114e-05 4.4339333e-05 0.0 0.0
000020 00 00 00 00 04 00 00 00 04 00 00 80 04 00 00 80
       0.0 6e-45 -6e-45 -6e-45
000030 5e 58 45 b9 b6 58 be 37 15 70 29 b9 04 00 00 80
       -0.00018820303 2.2691074e-05 -0.0001615885 -6e-45
000040 04 00 00 80 04 00 00 80 62 83 6b b8 81 ee 17 b9
       -6e-45 -6e-45 -5.6150726e-05 -0.00014489332
000050 9e 30 28 39 04 c6 ba 39 f4 26 3a 39 1a eb 4a 3a
       0.0001603984 0.00035624218 0.00017752853 0.00077407213
000060 47 39 a4 39 1e 04 b0 39 f9 ba d9 b8 ec d2 e8 35
       0.00031323193 0.00033572403 -0.00010382193 1.7346733e-06
000070 ab 57 b5 38 db 97 9b 39 0a 3b 96 39 52 53 4b b9
       8.647082e-05 0.00029677045 0.00028654217 -0.00019390628
000080 05 75 75 b9 04 00 00 00 04 00 00 80 04 00 00 00
       -0.00023408614 6e-45 -6e-45 6e-45
000090 0b fe 3c 3a a8 ad df 38 bc 64 37 b9 52 53 f2 b5
       0.0007209486 0.000106658146 -0.00017489766 -1.8054654e-06
0000a0 52 53 f2 b5 4d 78 fc b5 c9 08 d7 38 ff 89 7c 38
       -1.8054654e-06 -1.8810475e-06 0.00010253635 6.021e-05
0000b0 1d be df b8 04 00 00 00 04 00 00 80 04 00 00 00
       -0.0001066888 6e-45 -6e-45 6e-45
0000c0 7a a5 d7 38 09 01 bb b9 d4 06 ad b7 c2 43 62 b9
       0.00010282821 -0.0003566819 -2.0626387e-05 -0.00021578281
0000d0 52 fe e9 b9 b6 70 24 39 81 61 38 3a 90 9b c4 b8
       -0.00044630707 0.00015682247 0.0007033572 -9.374984e-05
0000e0 27 ae 24 3a c3 5e 96 ba 3b ac 14 ba 30 3b 4b 38
       0.0006282054 -0.0011472333 -0.00056714163 4.8454094e-05
0000f0 d2 68 8d ba 1a fd 80 3a b3 b7 18 39 22 b1 4a 38
       -0.0010788685 0.0009841055 0.00014564283 4.832552e-05
000100 35 5c 2d b9 ce 55 8d b9 8f 5e aa 39 be 9e 46 b9
       -0.00016532915 -0.00026957545 0.00032495378 -0.00018941888
000110 f7 ca 96 b9 ad e0 ff 39 91 ab 1d 39 e6 61 72 b9
       -0.0002876145 0.00048804787 0.000150366 -0.00023115388
000120 aa 6b a1 b9 7f 0c 19 b9 5c 80 10 39 4f 4f 2c ba
       -0.0003078853 -0.00014595872 0.00013780728 -0.0006573097
000130 47 e8 b2 ba 75 19 b3 b9 f3 7f b8 37 92 17 1e b9
       -0.0013649546 -0.00034160507 2.199409e-05 -0.00015076835
000140 78 e1 83 b9 04 00 00 80 04 00 00 00 04 00 00 80
       -0.00025154254 -6e-45 6e-45 -6e-45
000150 f6 a8 69 b9 e5 30 d9 b8 de 13 bb 38 e9 c6 f0 b8
       -0.00022283554 -0.00010356474 8.9205554e-05 -0.00011481142
000160 e7 31 83 b8 55 15 34 b7 ef f3 66 39 c4 22 b3 37
       -6.255862e-05 -1.0733803e-05 0.00022025382 2.1354652e-05
000170 d0 5a 93 39 04 00 00 80 04 00 00 80 04 00 00 80
       0.00028105685 -6e-45 -6e-45 -6e-45
000180 52 66 ab b9 66 7f 59 b9 01 20 a6 b9 b3 37 0e b8
       -0.00032691896 -0.00020742192 -0.00031685832 -3.3907312e-05
000190 40 38 62 b9 22 3e 37 b9 73 3c 3f ba e5 f8 ac b9
       -0.00021573994 -0.00017475386 -0.00072950794 -0.00032991837
0001a0 f2 03 84 b9 83 1a aa b6 73 bd a9 b6 66 d9 ae b6
       -0.0002517994 -5.069481e-06 -5.0586473e-06 -5.2109126e-06
0001b0 eb 8c 6a b9 5b bb a2 b9 42 56 cc 38 5d 58 43 3a
       -0.00022368475 -0.0003103864 9.743545e-05 0.0007451827
0001c0 2f 6e 58 39 d4 4f e3 b8 11 e6 c9 b8 f6 28 6b b8
       0.00020640412 -0.00010839073 -9.62728e-05 -5.6066514e-05
0001d0 16 13 a3 39 68 bc 6d ba 46 c9 76 3a 12 b6 03 ba
       0.00031104003 -0.0009068907 0.00094141474 -0.0005024384
0001e0 cf ee 31 3a 64 23 f7 39 8f eb e2 39 04 00 00 80
       0.00067875994 0.0004713788 0.00043281584 -6e-45
0001f0 04 00 00 80 04 00 00 80 31 7d 1d ba 21 02 c3 b9
       -6e-45 -6e-45 -0.00060077297 -0.00037194884
000200 17 c0 dc b9 46 48 ae 39 e6 a8 17 39 f9 93 0e ba
       -0.00042104788 0.00033241714 0.00014463402 -0.000543892
000210 a5 3b 82 b6 81 05 ff b7 37 0d ff 38 39 7d b0 ba
       -3.8812454e-06 -3.0400932e-05 0.00012161809 -0.0013465054
000220 e8 ed b6 38 ff e6 50 b8 ad 97 69 39 86 59 b0 39
       8.72275e-05 -4.9806196e-05 0.00022277115 0.00033636036
000230 e0 94 0c ba 04 00 00 00 04 00 00 80 04 00 00 80
       -0.000536276 6e-45 -6e-45 -6e-45
000240 04 00 00 80 04 00 00 00 04 00 00 80 15 43 c6 b5
       -6e-45 6e-45 -6e-45 -1.4771673e-06
000250 3b db d4 b5 d5 68 dc b5 a5 50 2f ba 8f a6 f4 39
       -1.5859035e-06 -1.6421787e-06 -0.0006687737 0.00046663402
000260 87 4b b1 b9 1f a0 f0 39 5a 60 46 3a 2e a8 19 3a
       -0.00033816343 0.00045895667 0.0007567458 0.00058615475
000270 44 6f 86 b9 39 37 39 b9 ed a8 94 39 0d 37 10 b8
       -0.0002564137 -0.00017663547 0.0002835462 -3.4383545e-05
000280 dd 90 00 b9 e2 79 34 b9 b1 3e 66 b8 84 de a1 b8
       -0.00012260997 -0.00017211543 -5.489466e-05 -7.718525e-05
000290 46 6a 12 b8 8d 99 78 b9 1b 33 b0 38 4b b5 aa b9
       -3.4908087e-05 -0.00023708325 8.401853e-05 -0.0003256
0002a0 ee 70 db 38 c3 d7 ac 38 68 38 b0 39 5f 51 d6 b8
       0.000104637686 8.241788e-05 0.00033611362 -0.00010219472
0002b0 90 e8 9c 38 5c 02 1b b9 35 d4 4d 3a 2f a4 9d 39
       7.481978e-05 -0.00014782831 0.00078517507 0.000300677
0002c0 d7 31 7f b8 30 e9 03 b0 30 e9 03 b0 de 6e 09 b0
       -6.0843155e-05 -4.79889e-10 -4.79889e-10 -4.999786e-10
0002d0 63 5a 31 b7 48 f7 4c b7 93 e0 1e 38 91 04 c9 b8
       -1.0571067e-05 -1.2216922e-05 3.7879287e-05 -9.5852774e-05
0002e0 d5 cb e1 38 a8 20 f2 b7 a4 70 53 b8 1b 38 1a b9
       0.00010766803 -2.8863855e-05 -5.0411225e-05 -0.00014707485
0002f0 00 e9 c0 37 e1 39 84 37 ab 2a 32 39 69 e4 43 3a
       2.2996683e-05 1.5762578e-05 0.00016991298 0.00074726954

exp_avg_sq f4 [64, 3]
000000 a8 6a 4e 35 dc b4 eb 34 be 71 80 34 fc c4 79 34
       7.6896185e-07 4.3903754e-07 2.3924616e-07 2.3261595e-07
000010 29 8d fb 33 01 9e 35 33 00 00 00 00 00 00 00 00
       1.1713775e-07 4.228605e-08 0.0 0.0
000020 00 00 00 00 00 c9 23 2f 8f c6 3a 2d 1e 6b 4d 2f
       0.0 1.4896173e-10 1.0616965e-11 1.8682697e-10
000030 59 6b 38 34 05 7b d7 33 29 e9 4e 33 38 ca cd 33
       1.7175388e-07 1.0034095e-07 4.817517e-08 9.58284e-08
000040 33 44 94 33 83 1b cc 32 ea 42 1c 34 4e 24 2d 34
       6.9041924e-08 2.3761237e-08 1.4552975e-07 1.6125088e-07
000050 f2 12 54 33 ab e3 49 35 96 6f 93 34 01 3f f5 34
       4.9377327e-08 7.5209635e-07 2.7462073e-07 4.5680648e-07
000060 88 45 27 35 a1 f4 aa 34 b6 7f 24 34 5d 56 07 35
       6.231353e-07 3.1842958e-07 1.5320151e-07 5.0417094e-07
000070 15 25 cf 34 1a 63 0e 35 f9 e2 f6 34 eb 04 6b 34
       3.8583735e-07 5.3043334e-07 4.5986215e-07 2.188787e-07
000080 3d b7 09 34 43 8b 75 2f 71 ec 1e 31 18 e3 bc 31
       1.2825781e-07 2.2332096e-10 2.3126427e-09 5.4973377e-09
000090 c7 62 a7 34 ba b5 75 34 48 d7 63 34 dd c6 09 35
       3.1178044e-07 2.2883515e-07 2.1219341e-07 5.132586e-07
0000a0 bf 96 df 33 21 7e f4 33 12 c1 a3 33 88 e0 cc 32
       1.0411667e-07 1.1385078e-07 7.625398e-08 2.385083e-08
0000b0 35 b9 8c 32 08 2c c6 25 ac 8f c3 25 15 b8 ab 25
       1.6382367e-08 3.4377362e-16 3.3924464e-16 2.978851e-16
0000c0 77 ad 08 35 58 ff 8a 34 3e 92 cb 34 63 b3 bd 34
       5.091637e-07 2.589029e-07 3.7918102e-07 3.5334514e-07
0000d0 ac ac 8e 34 14 d4 2f 34 99 1e 35 35 69 7a db 34
       2.6575196e-07 1.6375299e-07 6.747228e-07 4.0880994e-07
0000e0 49 c2 59 34 f9 d5 97 35 8a 6e 80 35 e5 b0 f4 34
       2.028038e-07 1.1312651e-06 9.568914e-07 4.557725e-07
0000f0 b2 b2 05 36 21 47 90 35 59 ab c7 34 0f db bb 34
       1.9922559e-06 1.0749537e-06 3.719131e-07 3.499085e-07
000100 62 67 0c 34 e1 53 0a 34 0a 00 89 34 8d 38 ae 34
       1.3076126e-07 1.2882766e-07 2.5518267e-07 3.2451172e-07
000110 39 58 0a 35 00 61 1d 34 e2 13 20 34 9e f2 64 33
       5.1537387e-07 1.4657053e-07 1.4908395e-07 5.3306046e-08
000120 8a 4c c9 34 2e 03 f3 34 6a 9d fe 33 1a 3b c8 34
       3.7494857e-07 4.526459e-07 1.185643e-07 3.7295905e-07
000130 e1 02 fe 34 5a 9a 1b 34 f0 41 94 34 9e 5d d0 34
       4.7313281e-07 1.4491653e-07 2.7615124e-07 3.8811135e-07
000140 86 6e 92 34 be 6e b1 32 d6 eb 8e 33 66 2c a8 32
       2.7275036e-07 2.0655872e-08 6.6552886e-08 1.9577964e-08
000150 ae f8 c5 34 88 7f 71 34 e2 59 42 33 a3 6a c6 34
       3.6875048e-07 2.249127e-07 4.5250893e-08 3.6957962e-07
000160 46 5b 09 35 cc 6e 0d 34 29 94 7f 34 b8 bc 95 34
       5.11693e-07 1.3171956e-07 2.3802626e-07 2.7890724e-07
000170 5c f7 a9 34 d8 2b b4 31 78 fb 06 32 a5 00 8e 31
       3.165868e-07 5.243674e-09 7.857004e-09 4.132817e-09
000180 43 96 99 34 9c 91 8c 34 6f 7a 4c 34 d6 ba 69 35
       2.86078e-07 2.6182977e-07 1.9043522e-07 8.7071146e-07
000190 c0 78 e7 35 3d c3 c1 34 34 2f ab 34 43 e1 96 34
       1.7245984e-06 3.6091106e-07 3.1885577e-07 2.8103577e-07
0001a0 97 7e 3a 34 eb 7c 95 35 d1 ab 7d 34 74 cb 4f 34
       1.7368653e-07 1.1137721e-06 2.3624968e-07 1.9352393e-07
0001b0 3f 07 15 35 60 15 76 35 0b fe 08 35 c3 e9 9a 34
       5.551737e-07 9.1673246e-07 5.103363e-07 2.885482e-07
0001c0 6f 83 a5 34 90 cd 9d 33 d0 44 45 34 94 1b 69 34
       3.0829275e-07 7.348274e-08 1.8372089e-07 2.1709849e-07
0001d0 4b 18 5f 34 81 d6 23 35 a0 79 37 35 00 26 b5 34
       2.0777331e-07 6.1034376e-07 6.83498e-07 3.3741526e-07
0001e0 b2 e4 2d 35 51 d9 e2 34 75 1f 99 34 8d b7 ba 31
       6.478032e-07 4.22539e-07 2.852136e-07 5.4341798e-09
0001f0 76 20 52 31 7e ae 83 30 0e 70 e0 34 92 95 d3 34
       3.0577474e-09 9.581098e-10 4.1804782e-07 3.941064e-07
000200 2e b3 1b 35 c6 d7 ff 34 87 87 f2 34 5d cc b0 34
       5.800274e-07 4.7654447e-07 4.5174622e-07 3.2931248e-07
000210 e6 07 89 34 61 b1 9c 34 1d bb 19 34 e8 7f 01 35
       2.5523985e-07 2.9186324e-07 1.4317307e-07 4.8242373e-07
000220 c4 4d 3e 35 5a fd 8b 34 ef e1 f9 34 37 05 90 34
       7.089368e-07 2.6075105e-07 4.6544253e-07 2.6825884e-07
000230 43 f0 8a 34 f9 8e ac 30 59 8a a9 2f f2 91 0c 30
       2.5879316e-07 1.2555282e-09 3.0839223e-10 5.1139104e-10
000240 45 e7 90 33 f5 64 d1 34 09 fc 89 33 0d 9e 81 33
       6.74759e-08 3.900274e-07 6.4254046e-08 6.03578e-08
000250 e9 53 f8 32 e5 da 95 32 55 1a 6e 35 8d e5 bb 35
       2.8909158e-08 1.7445425e-08 8.870023e-07 1.3999394e-06
000260 d0 37 52 35 43 bf e1 34 ea cd a3 34 bb 8c 96 34
       7.8312314e-07 4.2048677e-07 3.0510938e-07 2.8042072e-07
000270 d6 21 be 35 12 57 5f 35 bd 24 23 35 41 27 1e 35
       1.4165951e-06 8.320068e-07 6.0775693e-07 5.891671e-07
000280 fc a4 41 34 1c b0 24 34 cb 54 ea 34 40 5c f3 34
       1.8034547e-07 1.5337758e-07 4.3647591e-07 4.5329398e-07
000290 85 8a c6 34 10 d5 e5 34 91 43 0b 35 05 81 7e 34
       3.698116e-07 4.2809597e-07 5.187986e-07 2.370253e-07
0002a0 da d4 0b 34 81 43 0f 34 89 d0 70 34 40 33 8d 34
       1.3022819e-07 1.334247e-07 2.2427606e-07 2.6300586e-07
0002b0 90 e9 21 34 58 14 2a 34 fd 21 f9 35 f0 a8 96 35
       1.5079263e-07 1.5839885e-07 1.8561838e-06 1.1225038e-06
0002c0 aa c8 ec 34 e3 b0 ca 32 e5 c3 be 32 50 b5 cf 32
       4.4104428e-07 2.3596334e-08 2.2207994e-08 2.4180423e-08
0002d0 dc 82 75 34 5b 58 19 34 e3 c6 3e 34 51 3d 83 34
       2.286501e-07 1.4281379e-07 1.7767483e-07 2.4445265e-07
0002e0 03 06 cc 34 fd 90 4d 34 07 d5 e6 34 88 e1 74 35
       3.8002335e-07 1.9144859e-07 4.2995836e-07 9.1225274e-07
0002f0 df 52 92 34 61 e6 63 35 93 fe 74 34 1f e4 08 34
       2.7254916e-07 8.4899335e-07 2.2816884e-07 1.2748977e-07
