models/model_cavity_nu0.01_U1_20x20_epochs200_noadaption_testpcnt0.8.pt (torch, 187017 bytes, 30 tensors)

weight f4 [64, 3]
00000000: 4eff a0bb 6d34 42bd f715 3c3e bc97 b1be
00000010: c879 c43e e32c e8be dca4 483c a247 bc3e
00000020: ea82 713d 724b 3c3e ad80 d4be a66e f33e
00000030: 107f 653e e863 07bf 36f3 70be e17d 113f
00000040: 9f8e 82be 1d02 81bd 391e a3bb 34d5 f03e
00000050: 7353 b4be 7e04 05bf 1d86 523e bd35 5cbe
00000060: 142a 203e 6135 0bbf 3e98 1b3f 0e42 d3be
00000070: bf8d e8be 7a82 193e 7be1 1abe 3535 53bd
00000080: 7e21 b7be 3edb dd3e 318e 953e 47d5 053e
00000090: 1c0c 2e3e 85a4 0bbf ffd0 71be a0c9 37be
000000a0: fbd4 1c3f 79ab 0a3f e200 13be 2b05 483e
000000b0: eba0 3ebd cd8d c0be 0034 b5be 2716 83be
000000c0: 52bf db3e 94c0 6b3d b09d db3e dd99 813c
000000d0: 1094 cdbd 68e3 8d3e f041 e8be 937e a93e
000000e0: 3499 ff3e 631b 053e 7fd6 273f d5fd 123d
000000f0: 3a5e eeba e549 bfbc 9f0e 80be d348 033e
00000100: 7954 a83e f52c 8bbe b879 753e 33c8 993e
00000110: 5701 353e 0f31 f93e 8ffa b93e 7dfd da3e
00000120: 0b40 f2be 0c58 e23d fa49 1b3e d212 06be
00000130: 3964 37bf 07e8 eabd 79a1 07bf 4004 1e3f
00000140: 8f63 8bbe b89d eebe f055 e33e 8aeb a23c
00000150: 1a02 a1be dac9 c93e 536d cb3e 2f68 963d
00000160: ed6f 0d3f 14c7 c03e ed23 9fbe 4938 c03e
00000170: 8036 223e c8bb 58be bd4a d5be 7244 f4be
00000180: f695 9b3c 4ea8 09bf e58b d2bd e7a4 35bf
00000190: 7bff 083f f296 99be 63fd be3d 87ac d9be
000001a0: 9c53 19bf 2e12 91bd cb78 8d3e 5f0c 833e
000001b0: c8a5 0cbf ce8c fc3e 334c a8be 229a 063f
000001c0: f877 aabd a18b e7be b34e f7be 42a9 e03e
000001d0: d257 ccbe 1b9e 81be 7feb 783e da82 973b
000001e0: 127b 3c3e d512 d2be 2233 6ebe 0889 42bf
000001f0: b99a 9cbd 1693 54be 63b8 843e 7508 573e
00000200: e2b0 a1bd 6d5a 2a3f af47 51be 6da0 d63e
00000210: 79e3 113f 74b6 40be 5b6a 443e 8463 203f
00000220: 718d 90bb d2c6 69bd 00bb 743e 0b06 523d
00000230: a0c6 be3e 054a babe 5f9d 683e 294f adbe
00000240: f1f0 503e d360 fbbc 54d7 b63e 89cf 123f
00000250: fb0f 2ebe 8d7b 1a3f 36b8 d43e 109b db3e
00000260: e3db 20be 4e9e 333e d4f5 e4bd c153 c93e
00000270: ac5e 053d fd5b d4bd f1fb d0be dddd bdbe
00000280: 2489 d23e f9f6 063e 5d8e c3be 0970 3cbd
00000290: 4892 173f 62b2 90bc 4470 103f 2361 f93d
000002a0: a7fa b9be c4a8 b1be a1bd bbbe 500c 8b3e
000002b0: 9885 173f 535f 583e b31c dbbe 86cf c23e
000002c0: e75e b3be f634 a63c 6688 2b3f cc7c 12be
000002d0: 53a3 6cbe 9031 093e d72b 563e 333e c2be
000002e0: 2122 273f 00d0 7b3e b529 723e 0fb7 963e
000002f0: c6eb f03d 9f5d adbd 6fb0 85be 86f8 d13e
-0.004913247 -0.04741328 0.18367754 -0.34686077 0.38374162 -0.45346746 0.012246337 0.36773401
0.05896274 0.18388155 -0.41504422 0.47545356 0.22411752 -0.5288682 -0.23530278 0.568327
-0.25499436 -0.06299231 -0.004977968 0.4703766 -0.35219917 -0.5195998 0.20558973 -0.21504875
0.15641052 -0.54378325 0.6077918 -0.41261333 -0.45420644 0.14991179 -0.15125076 -0.051564414
-0.3576774 0.4333133 0.29210046 0.1306964 0.16996807 -0.5454791 -0.23614882 -0.17948008
0.6126248 0.54167897 -0.14355806 0.19533221 -0.046540182 -0.37608185 -0.35391235 -0.25602838
0.42919403 0.057556704 0.42893744 0.015820438 -0.10038006 0.2771256 -0.45362806 0.3310438
0.49921572 0.12998728 0.6556167 0.035886604 -0.0018186041 -0.023350665 -0.25011155 0.12820749
0.32876948 -0.27182737 0.23972213 0.30035552 0.17676292 0.4867024 0.36323974 0.4277152
-0.47314486 0.1105195 0.15164939 -0.13093117 -0.716373 -0.11470037 -0.5298076 0.61725235
-0.27224395 -0.46604705 0.44401503 0.019887704 -0.31446916 0.39411813 0.39731845 0.0734409
0.5524891 0.37651885 -0.31082097 0.37542942 0.15841103 -0.21165383 -0.41658583 -0.4770847
0.018992405 -0.5377244 -0.10280589 -0.70954746 0.5351483 -0.29997975 0.093256734 -0.4251444
-0.598932 -0.070835456 0.2763122 0.25595376 -0.5494046 0.49326175 -0.32870635 0.5257894
-0.083236635 -0.45223716 -0.4830223 0.43879133 -0.39910752 -0.25315937 0.24308585 0.004623753
0.18406323 -0.41029993 -0.23261693 -0.75990343 -0.076466985 -0.20759234 0.25921926 0.2099932
-0.07895066 0.6654423 -0.20437501 0.4191927 0.5698772 -0.188196 0.19181196 0.6265185
-0.0044113924 -0.057074375 0.2389946 0.051275294 0.37260914 -0.36384597 0.22716282 -0.33849457
0.20404412 -0.030685818 0.35711157 0.57347924 -0.16998284 0.60344774 0.41546792 0.4289174
-0.1570888 0.17540857 -0.111797005 0.39321712 0.03256099 -0.10369108 -0.40817216 -0.3708333
0.41120255 0.1318015 -0.38194552 -0.046005283 0.5920758 -0.017663185 0.56421304 0.121767305
-0.36324045 -0.3469907 -0.36668113 0.2715783 0.5918822 0.21130113 -0.42795333 0.38048953
-0.35033342 0.020288926 0.67005 -0.14305419 -0.23109178 0.13397813 0.20915161 -0.3793808
0.6528645 0.24591064 0.23648722 0.29436538 0.1176372 -0.084651224 -0.2611117 0.4100992

bias f4 [64]
00000000: ba2e d1be 66a8 a3be f49c fd3e 0224 a83d
00000010: 2b28 aabe a5de f43e 0d41 963e 31f7 ef3e
00000020: 701c c9be 4d58 a63e 54a2 dbbe 79b4 cc3e
00000030: 814a 393e b910 9b3e 0ca2 003d 9a32 923d
00000040: 4d63 213f 7a2b d9be 3273 1fbe 7c5d 943b
00000050: c883 ddbe 994d ae3e ae8e d93d a37b bb3d
00000060: 1b68 83be 5cae 0e3d e50a 9dbe 263a 1a3e
00000070: c8dd eb3c 5720 0c3d 4186 893d 05fa 80bc
00000080: 4e88 e8bd 59eb 51be df3f 13be 09e3 b73e
00000090: ab13 593e 5589 a4be 6fa1 5cbe 69af 773d
000000a0: 0298 99be 35e8 cd3c 6bb4 f63d 7b7a 463e
000000b0: 1db2 91be f764 d8bc 3dfb 773e 607e 03be
000000c0: c9d5 13be 942f 173e da78 963e 2bce 39bf
000000d0: 8030 18bf 998c 343e 17c9 1cbf 3bff 8d3e
000000e0: 7c5c 8fbe da84 7a3e 71d0 44be 21e2 d73c
000000f0: 5a38 ebbd 5e19 20be ed35 e2bc d97d c8be
-0.40855962 -0.31964415 0.49533808 0.08209993 -0.3323377 0.47826114 0.29346505 0.4686828
-0.3927951 0.32489243 -0.42897284 0.3998144 0.18094827 0.30286196 0.03140454 0.07138558
0.63042146 -0.42415982 -0.15571287 0.004527746 -0.43264604 0.34043577 0.10622917 0.09154441
-0.25665364 0.03483425 -0.30672374 0.15061244 0.028792277 0.03421053 0.0671506 -0.015744219
-0.11354123 -0.20499934 -0.14379834 0.35915402 0.21198909 -0.32136026 -0.21545957 0.06047002
-0.29998785 0.025135139 0.12046131 0.1938266 -0.28456202 -0.026415331 0.24216934 -0.12841177
-0.14437021 0.14764243 0.29389077 -0.7258021 -0.59449005 0.17631759 -0.6124434 0.27733788
-0.28000247 0.24464741 -0.19220139 0.026352944 -0.114853576 -0.15634677 -0.027613604 -0.39158514

weight f4 [64, 64]
00000000: 08b1 ac3d 7a39 4a3d e19d 063e a7d7 25bd
00000010: 98d1 f63c 3b6a 31bd c348 0c3d 6186 f73d
00000020: d852 27bd eedf 2a3e 079e 5ebe 362a 703d
00000030: 3db5 f43d c914 e83b 156a 403e 085b 15bd
00000040: a33e 123d 6dd5 00bd 0fe2 863d da8e 0b3e
00000050: 33c7 6dbd 63d3 013d 8d8f e73d ec9e 2abc
00000060: 201f 9e3d b6e1 a0bd 10ff 93bb c0ce 2f3e
00000070: 1e9d c2bc 6097 323e d268 71bc d4c1 3abd
00000080: 9060 c03d aa2e 903d 9d9c 093c 2f36 a93d
00000090: b2be 89bd ab92 1c3e a689 6bbd 167b fa3d
000000a0: 4a68 d13d c6a8 45bd 920e 983d 0def edbc
000000b0: b923 e73d 1811 783e 7ef1 943d 2b5c 63bc
000000c0: b22e 743d 3451 5d3d 8db9 44bc b271 953b
000000d0: 624f 9abc a924 4abd b591 1dbd e434 893d
000000e0: 0433 ec3c e478 1dbd ac34 94bc 523c b73d
000000f0: c4c5 c2bd 9d31 6d3d e8fe 02be 99c2 4bbd
00000100: 80e6 4dbc 7f14 2c3d f2b6 b03d e239 63bc
00000110: c141 213d a236 91bb 83d4 a6bd 16de dc3d
00000120: 4717 183e c375 3a3c 53b2 3d3e 892e c13b
00000130: 7c70 02be 93d8 ddbc 4a72 d3bc b01d 203e
00000140: d8b0 4c3c 00f2 debd 9afb 13be fd5d 083c
00000150: 893a 26bd 0863 13bc 4510 22be c760 12be
00000160: 86ae 5c3c 0db4 f43d a563 e23d 10d5 bf3d
00000170: d2ea 8c3c 70df 69bd 14e2 bd3d 4b3c b7bd
00000180: cb3a 223e 868e 1dbd 1137 7f3c 5a2e 65bd
00000190: c8c0 3e3d a7bc 1cbe cd5f 043e 1ab2 32bd
000001a0: 8e76 a1bd 4f38 383e 4ba2 d9bd 73f4 6b3d
000001b0: 6d3b 16bd cb79 9bbd e7be d2bc 7714 c73d
000001c0: 1166 8e3d f698 783d 49ec f0bc 933e 1b3d
000001d0: 7df1 a43d 3226 46bd 55bd ba3d 74db 1cbb
000001e0: 608f 6d3e a321 c5bc 3fb6 033b 9c43 593d
000001f0: ba05 c33d 8570 55bc 3484 653d 86d2 893d
00000200: aadc 8cbd f494 053d baee fabd 7cbb 49be
00000210: 348b 7d3d 2194 4bbd 94d8 aebc 495a 87bd
00000220: 0fcc ab3d 465a a23d 0130 993d 5e2d ee3d
00000230: 3d9d 23bd 86c1 7a3c 8d0d 8a3c 8b2f 4ebd
00000240: f575 cdbc daab 9bbd fd16 d53c 9ac0 30bd
00000250: 2eba 213d cde7 52bd 113c 2abd 21db 34bc
00000260: 1dba 833d 8a0f 2ebe e490 24bd 094d b33d
00000270: 5010 a7bd 90f1 813d f94b 76bc 7eb5 c43c
00000280: 4b12 12be 2f59 8d3d 56cf 8abd 0f90 803d
00000290: a0b5 acbd 4311 8f3d 025a e8bc 7649 573d
000002a0: 18da 94bc 8a8e 853d 359b 453d 502d ca3c
000002b0: fe4a 4cbd 9023 493d e988 17bd 5c18 e53d
000002c0: 6fd4 4abd 920a b9bd 9b54 dabd 9903 4bbd
000002d0: 1abd 803c d221 693d 73b9 ccbd 5a9a 5abd
000002e0: bea2 ba3d e441 a2bd e734 bc3d 459c cbbd
000002f0: 05a0 603d 92bc 2e3d f0e7 a5bd 9b46 e5bd
00000300: 5822 75bd f886 823d ce42 543d cc2f 5ebd
00000310: 4d9e 723d 786d eabd 7bcd 5abc dad4 fbbc
00000320: 4218 213d db00 b83b ce52 ca3d 4309 07bd
00000330: 8724 073d c4e9 aabc 2c6c 5fbc e7b1 bfbd
00000340: 3042 9ebd 31a1 e53d 43ee 2b3e a9bc fc3d
00000350: 09b9 823b dbb7 35bd b936 0e3d 11e7 4bbd
00000360: 4cfe 12bd bde0 fe3d 08be 323e ac1d 223e
00000370: 4b1e 98bc 2f0f 873c 9ef0 ca3d 92d6 77bd
00000380: c223 2a3c bff6 fe3d ff84 85bd 7145 083d
00000390: 8c00 c53d 5590 39bc c26f f13d a903 e33d
000003a0: 3089 4d3e 951b f5bd dd15 d03d e76a ecbd
000003b0: 0608 fabd 8e22 ecbd c622 df3d 70ec 713c
000003c0: 345c d2bc 6afa afbd 581a 583d 48f0 59be
000003d0: 70a3 9c3d 35ef 073d 6e7f 45bd 97a2 6d3d
000003e0: bc45 04be 01f9 d5bc e8e7 dc3d 887a fb3d
000003f0: 3133 0fbd 56fa 133e 61d3 a0bd c1e7 9cbb
0.084322035 0.04937122 0.13146164 -0.040488865 0.030129239 -0.0433142 0.03424908 0.120861776
-0.04085049 0.16686985 -0.2173997 0.058634005 0.11948631 0.007082556 0.18790467 -0.036463767
0.035704266 -0.03145354 0.06586086 0.13628712 -0.0580513 0.031695735 0.11306677 -0.0104138665
0.077207804 -0.07855551 -0.00451649 0.17168713 -0.02375656 0.17440557 -0.014734464 -0.045595005
0.09393418 0.070401505 0.008399156 0.08262288 -0.06725825 0.15290324 -0.05750432 0.12230508
0.1022497 -0.048256658 0.07424654 -0.029044652 0.112861104 0.24225271 0.072726235 -0.013876955
0.059614845 0.05403252 -0.012007129 0.0045606727 -0.01883668 -0.049351368 -0.038469035 0.06699541
0.02883292 -0.03844537 -0.018091522 0.08947052 -0.09510377 0.057908643 -0.12792552 -0.04974613
-0.0125671625 0.042011734 0.08628644 -0.013868781 0.03936935 -0.0044315616 -0.08146002 0.10784547
0.1485263 0.011380616 0.18525057 0.00589544 -0.12738222 -0.02708081 -0.025811333 0.15636325
0.012493335 -0.108860016 -0.14451447 0.00832319 -0.040583167 -0.008995779 -0.15826519 -0.1429473
0.013469344 0.119484045 0.11054162 0.0936681 0.017201815 -0.057097852 0.092716366 -0.08947047
0.1584274 -0.038466 0.015577094 -0.055952407 0.04657057 -0.1530634 0.1292717 -0.043626882
-0.07883941 0.1799023 -0.10626658 0.05760617 -0.036677767 -0.075915895 -0.025725795 0.097207
0.06953061 0.06069275 -0.029409545 0.037901472 0.08053873 -0.04837627 0.091181435 -0.0023934515
0.23199224 -0.02406389 0.002009764 0.053042993 0.09522577 -0.013027315 0.05603428 0.06729607
-0.06878026 0.032612756 -0.12252565 -0.19700426 0.061900333 -0.049701814 -0.021343507 -0.066090174
0.083885305 0.079273745 0.07479859 0.11629747 -0.039944876 0.015304929 0.016852165 -0.05033831
-0.02508066 -0.076011375 0.026011938 -0.04315243 0.039484195 -0.051490594 -0.04156119 -0.0110385725
0.06431983 -0.16998115 -0.04017724 0.08754928 -0.08157408 0.063449025 -0.015032762 0.024012323
-0.1426479 0.06901776 -0.067778274 0.06277477 -0.0843308 0.06985714 -0.028363232 0.052560292
-0.018170401 0.06521328 0.04824372 0.02467981 -0.049876206 0.04910618 -0.036995802 0.11186287
-0.049519 -0.09035219 -0.106606685 -0.049563978 0.01571517 0.05691702 -0.09996309 -0.053369857
0.09113072 -0.07922724 0.09189778 -0.099419154 0.054840107 0.042660303 -0.08100879 -0.111951075
-0.059847206 0.063733995 0.051821522 -0.0542448 0.059233 -0.11446661 -0.013354654 -0.030741144
0.039329775 0.0056153364 0.09879075 -0.032967817 0.03299382 -0.020863421 -0.01363663 -0.09360104
-0.07727468 0.112123854 0.16790108 0.123406716 0.003989343 -0.04436479 0.034720156 -0.04978091
-0.035887048 0.12445209 0.17455304 0.15831631 -0.018569132 0.016486732 0.09909175 -0.060507365
0.010384502 0.12449407 -0.065195076 0.03326935 0.09619245 -0.011325915 0.11788894 0.110846825
0.20071864 -0.119681515 0.1016042 -0.115438275 -0.122085616 -0.11530028 0.108953044 0.014765844
-0.025678732 -0.085926846 0.0527595 -0.21283066 0.07648361 0.03318711 -0.04821723 0.058016386
-0.12917227 -0.02611971 0.1078642 0.1227923 -0.03496093 0.14450964 -0.07852817 -0.0047883694

bias f4 [64]
00000000: a93e 43bd ddd5 283d d8b6 a7bd 95fb c83d
00000010: 6813 93bc 0ac9 613d 66a2 31bd 0801 9cbd
00000020: 8ecb 043d 8fae aabd 0470 193d 5308 f33d
00000030: a7ff ce3d ab76 173b 8af2 40bd b590 81bd
00000040: 1867 2d3e 436e 68bc 9fa4 063e 8415 55be
00000050: e6e2 38be 29ed efbc 8ec6 7b3c 356a b3bd
00000060: 4c1c e3bd ba54 223e 34b3 01be 082e c3bd
00000070: 20ad c7bb d108 3dbd 9224 86bd d430 693d
00000080: c8b6 0bbd f0f0 20bd 8811 b3bd a85c 7fbd
00000090: 729e dabd 10d9 03bb a943 81bd 7f65 56be
000000a0: 9094 89bd e9d2 3fbd 308d 04bd 8d2d 9dbd
000000b0: 0eac a9bd 652e 823d 90d2 11bc e86b ddbd
000000c0: f75f 5c3d b03f 5dbd 566f 24be bcbf f4bd
000000d0: 7a9e 35bc 1ca7 153d 4348 dfbd 0333 75bc
000000e0: d706 bf3b 4aa9 9cbd 9bda 0d3e 46bb 733d
000000f0: 97da d33a b0d3 77bc 702c c93d 262d db3d
-0.04766718 0.04121958 -0.081891716 0.098136105 -0.01795359 0.055123366 -0.043367766 -0.07617384
0.032420687 -0.08334076 0.037460342 0.11866822 0.101073556 0.0023111503 -0.047106303 -0.06326429
0.16933858 -0.014186445 0.13148735 -0.20808989 -0.18055305 -0.029287891 0.015367163 -0.08760492
-0.110893816 0.15852633 -0.12666017 -0.09530264 -0.006093636 -0.046150986 -0.06549944 0.05693133
-0.03410986 -0.039292276 -0.08743578 -0.062344223 -0.10674752 -0.0020118393 -0.06311733 -0.20937155
-0.06717789 -0.046832 -0.03236121 -0.07674704 -0.0828477 0.06356505 -0.0089003 -0.10811597
0.053802457 -0.054015815 -0.16058096 -0.11950633 -0.011085147 0.03653632 -0.10902455 -0.014965775
0.005829673 -0.07649477 0.13852923 0.05950477 0.0016163167 -0.015126154 0.09822929 0.10701971

weight f4 [64, 64]
00000000: f993 c93d 28a2 0e3e 8a00 e1bc 26e4 f3bd
00000010: c568 32bd 749c b6bb e90e c1bd a295 163d
00000020: 27e6 a23d 4935 85bd e8a4 003e 2f46 2b3d
00000030: 65ef 003c 7839 0b3e 5dea f63c c8d5 c43d
00000040: e411 45bc 3ddd 58bd d816 c2bc a95d 093e
00000050: 39b2 38bd 4aa6 0e3e c800 a9bd 6874 083d
00000060: dcc4 683d 2db3 2a3d 7689 1fbe ea7b ffbd
00000070: 799b 973d 8f84 e53d f0b5 0a3d 3471 9b3d
00000080: 6a4f 833d 9d71 b33b b1e0 98bd 4be0 53bd
00000090: 1b38 a73d ced0 843c f342 8ebd bf9b f23c
000000a0: 9436 06bd 5b37 9a3d d481 44bd c6f4 c13d
000000b0: 78d9 7d3d 1fb2 fd3d 312a 403e 8909 ad3b
000000c0: 1df1 723d e8f4 173e 61b9 4e3d 13b0 ee3d
000000d0: 510c b3bd 5395 b3bb 35dd 003d 736d 5d3d
000000e0: b446 1a3e 8ee3 0cbe d6f6 c7bb cd3e 543d
000000f0: 4f3b 073e e0f4 263d bff6 83bc bf65 8abd
00000100: 5554 1c3e f8a0 8e3d 1135 d93d 32e1 81bd
00000110: fb78 4fbc 87ba eabc 602e 303e 4db1 993d
00000120: 91f1 31bd f394 353d 4d89 e13d 41c8 cfbb
00000130: f992 173a 8d00 d03d 5234 2a3d 90e3 f1bc
00000140: 9787 063e eca5 eabb 1e43 3e3d b462 8dbd
00000150: 179d 1a3e cbf4 253e 7d26 d8bd f433 e8bd
00000160: b025 a43c 5e58 c73d 0d3d 8c3c 21f8 c3bd
00000170: 72af 4abb 1285 c9bb 6dbf 10bd e7eb b13d
00000180: 1ba2 b73d 7fc6 75bd 1ff2 aabd bd65 0d3e
00000190: 44e8 0e3e 2209 883d 1740 0e3c 476a dcbc
000001a0: a0e3 4a3d 2c9d 5f3d c6c5 e93d c8a6 e9bd
000001b0: 82b9 d93c ed30 e53d d237 fd3d f93f d13d
000001c0: 5598 03be 7540 00be 9a21 ad3c 1125 98bc
000001d0: 195f f63d 5dbb 73bd 53eb fcbd a5c0 ee3d
000001e0: 7bac 14bc 4d47 a33d ee9e c43d 0432 bb3c
000001f0: 4d2f d03d 36cd 773c eff4 1dbe 346b 98bd
00000200: 6a12 fe3d b94d 0c3e 0e38 113e 715b e33d
00000210: c020 fabd d40a 013e 105c 1e3e 5374 87bd
00000220: 8cdd fbbc 0f4b 9dbd 5f75 993e 6f60 0c3d
00000230: 188b 14bd 5b8b e73b a7a6 ee3d 47a0 dfbd
00000240: 8910 893d 3a66 973d 050a c73c a680 043e
00000250: 5ce7 2f3d b101 cebd 89f0 c23d 1060 303d
00000260: 28e1 dd3c 31df 6ab9 442b 133e 8bc5 eabd
00000270: 5976 093c 7a08 0bbc 47b3 da3d c541 d13d
00000280: 330e f5bd 4de7 5f3d aac1 4b3e e244 8a3d
00000290: 71a0 debd d71d 993d 2223 f93d b633 323d
000002a0: a69c 41bb 0562 263e 5012 f23c 7616 82bd
000002b0: c195 40bd 88e9 db3d 5439 093d c9bc 0c3e
000002c0: 1be4 f73d fd38 0bbe 5954 033e 2e82 b13c
000002d0: 48f4 8cbd 9fa9 5bbc b26b 923c 55b2 dc3d
000002e0: df11 98bd ba95 1bbb 8da2 883d 6822 0c3e
000002f0: 0ec5 66bd ec95 9bbd 0393 90bd 3480 ba3d
00000300: 786b 333d e565 963b eb74 05bd 2882 8c3d
00000310: b0b5 f8bd a14f 0bbe 407c 783d 787d 983d
00000320: dea6 ffbd 52fc bcbb c026 2dbd 73e6 2d3d
00000330: 1fab 193c cfea a23d e5da f9bd f865 8abc
00000340: 94c0 44be aed6 973c b3b2 6bbd 31dc 4dbd
00000350: b369 c73d db04 973d 3be6 483d bc32 a63d
00000360: 80f7 873c e302 87bb 3a05 efbd 5efe 46bd
00000370: 09ba 82bd 8bcf f1bd 2c93 1e3e 089b 943d
00000380: 0219 9ebb 1322 8d3d 9290 ecbd 3e6d 87bd
00000390: e35b 053e cae0 63bd 62ad 65bb cc8f 60bd
000003a0: b8ba b93d a744 20bd 07ed 2cbc 52e3 f6bd
000003b0: 03e7 c9ba d838 8abc 393d 603d d870 07be
000003c0: 86d7 e33b dd58 9d3d 5894 05be 5fe3 ffbd
000003d0: 54bb ec3d 2eb3 dfbc 8d54 84bc 0711 c5bd
000003e0: 26d6 5e3d cfa3 f0bd 08c8 233d 3210 b03d
000003f0: 21f0 5a3d 6a19 fcbd faf2 35bd b2ae d03d
0.09842677 0.13929045 -0.027466077 -0.1190875 -0.043556947 -0.00557285 -0.09426672 0.036763795
0.07954054 -0.06504304 0.12562907 0.04181498 0.007869576 0.13596141 0.03014105 0.09611088
-0.012028191 -0.052945364 -0.023692533 0.13414635 -0.04509184 0.13930622 -0.08252102 0.03331414
0.056828365 0.04167478 -0.15579781 -0.124748066 0.07402701 0.11206924 0.033864915 0.07589951
0.064116314 0.0054761902 -0.074647315 -0.051727574 0.08164998 0.016212847 -0.06946363 0.029615281
-0.032766894 0.075300895 -0.047975376 0.09470515 0.061974972 0.123874895 0.18766095 0.0052806777
0.059311975 0.14839518 0.05046976 0.11654677 -0.087425835 -0.0054804473 0.03146096 0.054059457
0.15066034 -0.1375868 -0.006102423 0.051817704 0.13206218 0.040760875 -0.016108869 -0.06757688
0.15266545 0.06964296 0.10605825 -0.06341781 -0.012663121 -0.028653396 0.1720519 0.075045206
-0.043443266 0.044331502 0.11012516 -0.006341011 0.00057820935 0.10156355 0.041553803 -0.029527456
0.13137661 -0.0071608927 0.046450727 -0.06903592 0.15098988 0.16206662 -0.10554216 -0.11338034
0.020037502 0.097336516 0.017118955 -0.09568811 -0.0030927327 -0.0061498964 -0.035338808 0.08687573
0.08966466 -0.060003754 -0.08346962 0.13808341 0.1395579 0.06642367 0.008682272 -0.026906146
0.049533486 0.05459325 0.114146754 -0.11408764 0.026577715 0.111909725 0.123641625 0.1021728
-0.12851079 -0.12524588 0.021134187 -0.018572362 0.12029857 -0.059504855 -0.12349572 0.11657838
-0.009074326 0.07972584 0.09600626 0.022850998 0.10165272 0.01512461 -0.15425466 -0.074423224
0.12405856 0.13701524 0.1418154 0.111014254 -0.12213278 0.12601787 0.15464807 -0.06613984
-0.03074529 -0.07680332 0.2997236 0.034271654 -0.036265463 0.007066173 0.1165288 -0.10919242
0.06692607 0.07392545 0.02429677 0.129397 0.04294525 -0.10058916 0.09518535 0.043060362
0.027084902 -0.00022399124 0.14371973 -0.114634596 0.008390033 -0.008485908 0.10678726 0.10217623
-0.11965599 0.054663945 0.19898096 0.067514196 -0.108704455 0.074763946 0.12164904 0.043506347
-0.0029542833 0.16248329 0.029549748 -0.0635194 -0.047017816 0.10737902 0.033501938 0.13743891
0.121040545 -0.13595958 0.12825145 0.02166852 -0.068825305 -0.01340714 0.017873619 0.10776202
-0.07425284 -0.0023740367 0.06671629 0.13685 -0.05634027 -0.07596955 -0.0705929 0.09106484
0.043803662 0.0045897835 -0.032582205 0.06860763 -0.12144029 -0.13604595 0.06066537 0.07445806
-0.12482999 -0.0057673836 -0.042273283 0.0424561 0.009379177 0.079549424 -0.12199954 -0.016894326
-0.19214088 0.018534984 -0.057543468 -0.05025882 0.097369574 0.07373973 0.04904769 0.081151456
0.01659751 -0.004120217 -0.11670919 -0.048582427 -0.0638314 -0.11807164 0.15485829 0.07256132
-0.0048247585 0.06891265 -0.11551012 -0.06612633 0.13023333 -0.055634297 -0.003504597 -0.054824635
0.09068817 -0.039127972 -0.010554559 -0.12055077 -0.001540393 -0.016872808 0.054745886 -0.1322664
0.0069531826 0.07682965 -0.1304487 -0.124945395 0.115591675 -0.02730712 -0.016153598 -0.09622388
0.054403447 -0.11749994 0.039985687 0.08596839 0.05345166 -0.12309535 -0.044421174 0.101895705

bias f4 [64]
00000000: 3dc4 2dbd b73d 4dbd d298 e23d 90db 133c
00000010: a377 143e c0f8 71bc 4a8a 793d cb6a aabc
00000020: 81ff bbbc 1e42 f63b 344c d53d 84c9 093d
00000030: 8647 f13c fe62 a8bd 000f 9b3d 9732 3c3d
00000040: e523 68bc ee2b a7bd ce96 f53d 3fcb 66bd
00000050: 83da 8b3d 9c9b 033e f484 f23d b6bf 443a
00000060: 4c4c 213e 9e71 b43d 9748 1f3d a08b 2bbd
00000070: 3bdb fbbd 3285 153d 7689 4fbd c2cc c5bd
00000080: a733 013e 8674 4a3d aaee aabc 9f27 34bd
00000090: 8e2a a8bd 6b53 fe3d 12c4 38bd c22d 3b3d
000000a0: 7745 003e 21d7 f5bc 0605 073d c42e 3d3d
000000b0: 2a50 f23d 5b25 eb3d 8f7a cfbd f16b db3c
000000c0: 3d17 c23d 7aa9 8abc 38dd 07be e4b7 60bd
000000d0: 1aa7 f2bd 2b5c a2bd 337e a8bd b988 84bd
000000e0: 1a9a c0bc caad 86bc 5f4f cc3c 7971 523d
000000f0: 9a17 90bd be10 a6bd aa51 05be db4c 233d
-0.042423476 -0.050107684 0.110643044 0.009024516 0.14498763 -0.014768779 0.0609229 -0.020802876
-0.022948982 0.007515206 0.10414925 0.033639446 0.02945305 -0.08222006 0.075712204 0.045946684
-0.014168714 -0.08162676 0.11991654 -0.056346174 0.06828787 0.12852329 0.11841765 0.0007505374
0.15751761 0.08810733 0.038887586 -0.041881204 -0.12297674 0.036503978 -0.050668202 -0.09658195
0.1261736 0.04942753 -0.020865757 -0.043983098 -0.08211242 0.124182545 -0.045108862 0.045697935
0.12526499 -0.030009808 0.032963775 0.046187177 0.11831696 0.11481734 -0.10130798 0.026784869
0.094770886 -0.016926516 -0.13267982 -0.05486287 -0.11848278 -0.07927736 -0.082271956 -0.0647139
-0.023510981 -0.016440291 0.02494019 0.051377747 -0.07035752 -0.08108662 -0.13019434 0.039868217

weight f4 [64, 64]
00000000: 39a5 893c 37d1 01bd cd1a a7bc 0c9a 1cbd
00000010: b9b3 983d 2051 48bd d5b5 273e d245 8c3d
00000020: 1a9f 1fbc c52f 7bbd 49cf 8e3d b513 a63d
00000030: 4472 ddbd 6650 50bb 0f12 d73c 953a d03d
00000040: 35d6 33bd c059 013d cd99 933d 8ab1 a53d
00000050: fa76 283e e1a9 31bd 6aeb de3d 1f86 08be
00000060: 7d2c 7f3d a155 523d 123d 2ebd 0631 13bd
00000070: f9cd 75bd 89a6 6b3b 9f03 2b3d 6cf3 f93d
00000080: 7653 5fbd 9194 573d d5c1 f03d c49a d6ba
00000090: 9e5b af3d 648a dabc 8d45 9c3d 1a44 da3d
000000a0: 32bc 883d 1e8e 093e d340 833b 468e cdbd
000000b0: f0c1 9cbd a822 74bd 95c6 df3d 04f5 513d
000000c0: 05a5 9f3d c240 d13d 4df4 fc3d 4238 01bd
000000d0: 740f 943c a4dd ef3d ff66 10bd c7de f13d
000000e0: 60ac 633d 271a 28be 6fa8 acbd 219f e33d
000000f0: d03a e9bc a935 093d baf9 e83b 27f7 25bd
00000100: c3ce de3d 8514 82bd a1d5 0ebb 266e 85bd
00000110: 3e2d cf3d c8f9 a7bd 196f d9bc 7ad6 a73d
00000120: 2e59 85bd 40fc 73bd 7e94 66bd 12a4 d3bd
00000130: 8414 6abc 930f 053e f102 0bbe 6990 eabc
00000140: c8b5 ebbc 5243 8e3d 3ffa 183e 65e7 bebd
00000150: 27ab 4a3e 6241 a7bc 5874 94bc ebcf bcbd
00000160: 78f1 d23d 7cbc 9dbc cec1 a9bd a125 c03d
00000170: 8461 0abe afb2 68bc 7b93 dc3c b012 3bbd
00000180: 42fa 6c3d 111e c9bd dd2d 1c3d 3dfe b5bb
00000190: 9dea 313a cf51 a73d 50d4 803d 9f1d 403d
000001a0: dd41 1d3d 6248 493d 5447 99bd 7213 203d
000001b0: 2e70 79bd 1036 2abd 43c3 053e 528d 5d3d
000001c0: 0cb7 9cbd 654f 7b3d fca2 0e3d bf05 8dbd
000001d0: 4960 85bc 9da2 2f3d f450 1ebd df92 fa3d
000001e0: e7b0 b13d 61bc 33bc f8d9 e03d 03ab 21bd
000001f0: 91f5 62bd ddd6 003d 0c37 c43d 8ac9 b83d
00000200: 9b06 f13c 9a47 d0bc e193 7e3d 2171 60bd
00000210: c6b6 263d acc5 2e3d 9f4b 24bd a57f cd3c
00000220: 7441 65bd 13eb 8ebd d971 84bc 8a48 933d
00000230: 6c20 00be 6e2b 2c3b 2d2b b4bd 7858 f9bc
00000240: 70f4 993c ee79 b9bd ecc1 813d 34de 81bc
00000250: bc68 63bd 9caf 95bd 7b48 aebd 20a6 35bd
00000260: 9797 adbd fa5a 8c3b bed5 4abc 3d4f af3d
00000270: 13d1 943d 7876 f43c e9d2 6cbd 303f d93c
00000280: 00d2 a63d 5456 cf3c 6e64 e33d 154d d9bd
00000290: eab7 40bd 4a3b bc3c 4b8c 953a e328 093d
000002a0: 8d9c e43a fc3a ccbd caab 893b e834 983d
000002b0: a9ab d0bd e52a 083c c08b 66bd 4a59 ab3d
000002c0: 502a ef3c f487 c9b9 60a4 b1bd 098c 0cbe
000002d0: 24eb 9bbd fd5a 3bbc 59d5 903d 80fc 0bbe
000002e0: 4cca 59bd cc8f 51bd c438 c0bd aa54 dfbc
000002f0: 6f01 983c 5f17 de3d be57 b23d 25e8 c9bd
00000300: 076a 6ebc d25b 43be 0a43 053e d295 c03d
00000310: 34c8 233d 401b 73bb c0f3 2dbc f726 56be
00000320: 6cfa eebd 42ae 173e 928c 2abc e2fe 53bd
00000330: abe6 debd c7de 753d 0655 e73c 2ed3 3b3d
00000340: f368 593d 880b 2d3d 5dcd 0f3d d30b 003e
00000350: 6b7a db3d 1e61 763c b0bd 993d 4367 fc3d
00000360: eb2a c43c 6702 e0bd 7a93 32bb 2ab2 82bd
00000370: ef4d 08be 1550 a23d 58ad c3bd 009a 3f3b
00000380: 5b3f fa3d 8928 85bd d3da e13d 0a8b 1d3d
00000390: a311 e03d 5ead 6fbd 652e f43a c3e0 6f3c
000003a0: 8cf0 21bd 3308 2c3e f76b 5dbd 3458 6c3d
000003b0: 85f2 053e 1fc2 833c 213f 9ebd b4ec 053b
000003c0: 376b 993d f1a4 913d b1c2 22bd 7bea 0a3d
000003d0: 49a9 f73d 6c79 e53d f713 3cbe 250f babc
000003e0: ff6f 253e 50a6 84bd 7836 ea3d 33a3 193d
000003f0: fba8 c7bd eeb9 07be e750 c83d b170 b33d
0.016802417 -0.031693663 -0.020398522 -0.038232848 0.074561544 -0.04890549 0.16377957 0.06849255
-0.009742523 -0.061324853 0.0697313 0.081092276 -0.1081281 -0.0031786202 0.026253728 0.10167424
-0.043905456 0.031579733 0.072070695 0.080905035 0.16451636 -0.0433749 0.108847454 -0.13332413
0.062298287 0.051351193 -0.04253871 -0.035935424 -0.060010884 0.0035957417 0.0417515 0.12204632
-0.054522954 0.05263192 0.117557205 -0.0016373028 0.085623965 -0.026677318 0.07630453 0.106575206
0.066765204 0.1343312 0.0040055304 -0.10036902 -0.07654178 -0.059603363 0.109265484 0.051259056
0.07795147 0.1021743 0.12351284 -0.031547792 0.018073775 0.117121965 -0.035254475 0.118100695
0.05558431 -0.16416226 -0.08430564 0.11114336 -0.028470427 0.03349844 0.007109848 -0.040518906
0.108792804 -0.0635157 -0.0021794813 -0.0651515 0.10116051 -0.08201939 -0.026542233 0.08195205
-0.0651115 -0.059566736 -0.056293957 -0.10334028 -0.014287118 0.12994222 -0.13575341 -0.028633313
-0.028773203 0.06946434 0.14939211 -0.09321479 0.19791852 -0.02041692 -0.018121883 -0.09219345
0.10299963 -0.019254915 -0.082889184 0.09382177 -0.13513762 -0.014202758 0.026925793 -0.04567212
0.057855852 -0.09820188 0.038129676 -0.005553989 0.0006786974 0.081699006 0.062904954 0.04690325
0.03839289 0.049141295 -0.07484308 0.039081044 -0.060898 -0.041555464 0.13062768 0.05408985
-0.07652101 0.061355013 0.034823403 -0.068858616 -0.016281264 0.04287969 -0.03865142 0.12235045
0.086763196 -0.010970206 0.10979074 -0.03946973 -0.05540997 0.03145491 0.09580812 0.090228155
0.029422095 -0.025424767 0.062152747 -0.054795388 0.04070165 0.042668983 -0.04011118 0.02508528
-0.055970624 -0.069784306 -0.016167568 0.0719157 -0.12512368 0.0026271003 -0.087972976 -0.030437693
0.018793315 -0.09056459 0.06335816 -0.015853025 -0.055519804 -0.073088855 -0.08509918 -0.044347882
-0.08476179 0.004283306 -0.012380062 0.085600354 0.0726644 0.029841647 -0.057818327 0.026519388
0.08145523 0.02530972 0.1110314 -0.10610405 -0.047050394 0.02297749 0.0011409608 0.03348626
0.0017441675 -0.09972188 0.004201387 0.07431966 -0.101889916 0.008311008 -0.05628562 0.0836664
0.02919498 -0.00038439 -0.0867393 -0.13725294 -0.07613209 -0.0114352675 0.07071943 -0.1367054
-0.05317144 -0.051162526 -0.09385827 -0.02726205 0.018555371 0.108443014 0.08708142 -0.09858731
-0.014551646 -0.19077995 0.13013855 0.09403576 0.03998585 -0.00370951 -0.010617197 -0.20913301
-0.11668858 0.14812568 -0.010409491 -0.051756747 -0.1088384 0.06002691 0.028238785 0.045855694
0.053078603 0.042247325 0.03510796 0.1250451 0.10716709 0.015037803 0.07506883 0.12324383
0.023946246 -0.10937958 -0.0027248547 -0.06381638 -0.1331098 0.07925431 -0.09554547 0.0029236078
0.12219115 -0.06501872 0.110280655 0.038462676 0.10940864 -0.058514945 0.0018629549 0.01464099
-0.039536044 0.16800003 -0.05405804 0.057701305 0.13080795 0.016083775 -0.07726885 0.0020435276
0.07491153 0.07111538 -0.039736453 0.033915024 0.120928355 0.112048 -0.18366991 -0.0227123
0.16156004 -0.06477034 0.1143617 0.037509155 -0.09749027 -0.1325452 0.09781056 0.087617286

bias f4 [64]
00000000: a27a 32bd 8a7e e13d 2c07 8cbd 7728 febd
00000010: c846 413d c857 0c3e 3d23 8f3d b87e ddbc
00000020: a2ae 49bc 02cb b53d b48a c5b9 649a e33d
00000030: b686 50bc fac8 b53d 1c9b b6bb adf3 55bd
00000040: f005 01bd 2a05 0ebd 239b 83bb 0be2 aa3b
00000050: 7d1f d33d 5b6d 8e3d e301 e2bd e9b8 dd3c
00000060: a182 a0bd 4daf 983d c0e4 c23d 6303 c83d
00000070: 7119 50bb 9853 b63d 09f4 8e3d aa45 61bd
00000080: 584b c9bc 30f1 743d b7cf 813c 444b 71bc
00000090: 50d9 23bd 6cf5 043d 3cee 7e3d fdee 3ebd
000000a0: 6158 00be 2a2a 903d e8ba 083e 0de1 0a3e
000000b0: 3960 89bd c167 58bd 9de5 b53c 4fc3 423d
000000c0: 4310 b23d 3b26 92bd aaee f63d 9efd 733d
000000d0: a623 073e 724f 2c3d 65bd 8b3d bede b13d
000000e0: 3dfc 84bd 7c9b a73d 4cc9 9dbc b3d5 e7bd
000000f0: b622 213d 7137 e93c 0603 d43d 0662 a33d
-0.043573983 0.110104635 -0.068373054 -0.12410062 0.047186643 0.13705361 0.06989143 -0.027037963
-0.012309702 0.08876611 -0.0003767811 0.11113432 -0.01272743 0.08876224 -0.0055726897 -0.05223434
-0.031499803 -0.034672894 -0.0040162965 0.0052149347 0.1030874 0.06954452 -0.11035516 0.027065711
-0.078374155 0.07455311 0.09516287 0.09766271 -0.0031753446 0.08902663 0.0698014 -0.054998077
-0.02457206 0.059800327 0.015846116 -0.014727417 -0.040002167 0.032460615 0.062238917 -0.046614636
-0.12533714 0.07039292 0.13352549 0.13562413 -0.06707806 -0.052833322 0.022204215 0.047549542
0.08694508 -0.07136198 0.1205724 0.05956804 0.13197193 0.042067952 0.068232335 0.08685063
-0.06493423 0.08183953 -0.019261025 -0.11320057 0.039339744 0.02846882 0.10352139 0.07977681

weight f4 [3, 64]
00000000: f0f6 cf3c 0513 ad3c 1aac ccbd 8789 ecbd
00000010: 71a4 193e be6c c2bd 15b6 1f3e f052 82bc
00000020: 9ac6 58bd 981d fd3b 438d ef3d 2d2b 12be
00000030: e8ca 5b3d 1b55 863c 96cf 1a3e 9fd1 223c
00000040: 498c b2bd 2466 b2bd 0a78 093e e82e 40be
00000050: 96bf 1e3e 473c 78bd 0a91 fe3d efbb 033e
00000060: b043 d3bb 95a9 1b3c bc62 90bd 0ffc 233d
00000070: c29e 023e c666 e4bd 14f2 853d a7d4 c1bd
00000080: ac30 153e 6897 05be 1727 c53d 4ffc e43d
00000090: 888b 7b3d ffbe 83bd 0bee 5d3d da6a 103d
000000a0: 892e 09bd 85a1 843d 518e e23d 7805 123d
000000b0: a7e8 063e 7d28 093c 8dd2 bf3d f6b4 dabd
000000c0: 8aee cbbd fcd5 11be 0272 bc3d 872c 2dbe
000000d0: 6c74 bcbd 3964 ad3d 8f0d c1bd d161 cd3d
000000e0: 6962 9c3d 9edf eebd cc39 8b3b 62a2 c6bd
000000f0: 4ec3 933b 8d8c f43d ad76 03be 5fe7 47bc
00000100: 7182 e6bd 9a2d d0bd 0f03 f7bd d8be 5abe
00000110: 4417 773d 60d5 8a3d d5a8 f9bc 482f 01bd
00000120: aeb8 223e 5e7b 283d bb06 7d3d f055 33bb
00000130: f589 173e 9975 dabd 2ac3 a2bb 7862 a03d
00000140: 3ad0 003d 812b 66bd 1a5c 34bc c4cf 09bc
00000150: ced5 0cbe 39e9 9cbb be9f e53d f826 96bc
00000160: 6bb5 e8bd d978 d53d 18ea 41bc dd5a a83d
00000170: 36c6 27bd 66cb c43d 4174 9f3d a09e ccbd
00000180: 1372 02be 55c7 4aba 1790 d8bd 4697 f53d
00000190: b090 8f3c 0dd9 05be 8667 a6bd d341 3f3e
000001a0: 6906 aabb d31e aabd 827f 203e 7e18 003e
000001b0: c643 dbbd 827b 323d 6b23 b4bd 9652 a03d
000001c0: 6a9b 4e3d 868b 45be 378e c23b 55ff 033e
000001d0: 6bc7 613e 2234 27bd 52fc 0a3e 3d8c 89bd
000001e0: 6f28 6f3e 1d78 89bd e870 953d db88 ae3d
000001f0: bd53 3f3d eda3 953d a5e2 c93d 98e0 113e
00000200: 7552 3d3d ce64 773d acfe 7bbd ae0e 02be
00000210: 9bb9 1e3e 63ab 233b e9d0 6abd 0007 433b
00000220: 5134 8c3b cfc3 0e3c 1ab9 9cbd 5a70 f73d
00000230: a04d 63bc 1dce c3bc ed24 eb3d 8b3a d93b
00000240: 1290 f7bd a3bf 03be 2862 063c 93e5 f73d
00000250: a5e8 a33d 87a0 8fbc 6c58 c23d 918d ca3d
00000260: 86ca f4bd a279 e3bd 3592 123e b776 db3d
00000270: 1848 1b3d b215 0fbc bce4 c6bd 392e 10be
00000280: 9f38 2f3d e1a7 4abc 6012 83bc c2b6 103e
00000290: 70bb c2bd d9e2 ff3d 535e 933d f963 ad3c
000002a0: 6b0a 453d b6f0 e93d 518e 0ebe 9a5d cabd
000002b0: a72f a6bd c45c f3bd 70b4 a43d fbc8 513d
000002c0: 9cfc 123d 04bb 97bd 68f6 05be 6ab0 20be
000002d0: 54e5 b1bd c054 51bd 0373 b3bc aed1 a33c
000002e0: d5c8 e33d a9ff a33d b21e 9cbd df6b d0bc
000002f0: 30b1 84bd 5df1 b53d 6a4f d23d 3f50 053e
0.025386304 0.021127233 -0.09993763 -0.11549669 0.15004136 -0.09493397 0.15596803 -0.015908688
-0.052923776 0.007724475 0.116968654 -0.14274283 0.053660303 0.016398003 0.1511825 0.009937673
-0.087181635 -0.08710888 0.13424698 -0.18767893 0.15502772 -0.06060436 0.12430008 0.1286466
-0.006447278 0.009500881 -0.07050082 0.040035304 0.12755874 -0.11152415 0.06540313 -0.09464388
0.14569348 -0.13046038 0.096265964 0.111809365 0.061412364 -0.06432914 0.054182094 0.03525815
-0.033491645 0.0647612 0.11062301 0.035649747 0.13174687 0.00837147 0.09366331 -0.10679047
-0.09957607 -0.14241785 0.09201433 -0.16911517 -0.09201893 0.084663816 -0.09426414 0.100284226
0.07635958 -0.11663745 0.0042488333 -0.09698941 0.004509366 0.119408704 -0.1283824 -0.012201159
-0.112553485 -0.10164948 -0.1206113 -0.21361864 0.060324922 0.06778979 -0.030476013 -0.03153923
0.15890762 0.041133277 0.061773997 -0.0027364455 0.1479872 -0.10666961 -0.004967113 0.078312814
0.03144858 -0.056193832 -0.011008287 -0.008411352 -0.13753435 -0.0047885445 0.11212109 -0.018329129
-0.11362728 0.104234405 -0.011835597 0.08220456 -0.040960513 0.09609108 0.077858455 -0.09991193
-0.12738828 -0.0007735391 -0.10574358 0.11991744 0.017525047 -0.1307108 -0.08125214 0.18677454
-0.0051887524 -0.083066605 0.1567364 0.12509343 -0.10706286 0.043574817 -0.08795818 0.07828252
0.050441183 -0.19291505 0.0059373635 0.1289037 0.22048728 -0.040821202 0.13572815 -0.067162015
0.23355268 -0.06712363 0.07296926 0.08522197 0.04671072 0.07306657 0.09857682 0.14245832
0.046221215 0.06039887 -0.06152217 -0.12700912 0.1550049 0.002497398 -0.05732814 0.002975881
0.0042786975 0.008713677 -0.07652493 0.12081976 -0.013873488 -0.023901993 0.114816524 0.0066292933
-0.12088026 -0.12866072 0.008202113 0.12104335 0.08003358 -0.0175326 0.094895214 0.09890283
-0.11952691 -0.11107184 0.14313586 0.107160024 0.03791055 -0.0087332 -0.09711596 -0.14080133
0.042778607 -0.012369127 -0.015999973 0.14132217 -0.09508407 0.1249444 0.07195725 0.021165835
0.04810564 0.11422865 -0.13921477 -0.09881134 -0.08114558 -0.11882928 0.08042228 0.05121706
0.03588544 -0.07408717 -0.13082278 -0.15692297 -0.08686319 -0.051106215 -0.021905428 0.019997444
0.1112229 0.08007748 -0.07623042 -0.025442062 -0.06479108 0.08883927 0.10269053 0.13018893

bias f4 [3]
00000000: bbed 93bd d718 d0bd 392c c6bb
-0.07223078 -0.10160988 -0.006047752

exp_avg f4 [64, 3]
00000000: 0000 0000 0000 0000 0000 0000 44a0 17b9
00000010: 6230 c63a c11c b939 c38c 2d39 994e 4e39
00000020: 1096 9638 084d 7d39 4fd0 deba e63c 64ba
00000030: fbe0 4cba 65cb 89b9 9a66 1839 7e0c d1b9
00000040: c1a7 273a 2b17 a039 2988 26ba a273 44b9
00000050: 7ea4 3039 21f1 1a3a 0f28 edb8 31c5 acba
00000060: 5dcf 8c39 d34f 8c38 5e50 a139 4744 dbb8
00000070: f7aa 833b 2911 dfb9 c2e5 0cbb 1dd1 193a
00000080: 9ff1 ccba c42b dfb6 beb8 8c39 ab44 213a
00000090: af8b 6bba c440 a43a 986d ebba d5b7 893a
000000a0: 9bde 5039 aa38 74b8 7a62 2eba c614 88ba
000000b0: 0261 203a 9d51 b2b7 1156 8939 f641 5db9
000000c0: ca8e 88b9 4450 bab9 b462 b3b7 89a2 bdb9
000000d0: 13e6 31b8 f404 f338 1140 77b8 65eb 77b9
000000e0: 687d 4eb9 cec3 1fba 5c35 e5b9 4540 e739
000000f0: 9e09 4ab8 728f 1fb8 5e82 f8b8 1953 6bba
00000100: 1f88 95b7 6ea6 3db8 0931 97b9 791c 4939
00000110: 1f8e 0cb9 fc71 bf39 07cc 85ba e9fa 533a
00000120: 671f f038 e035 a6b8 6e24 c8b9 b762 35bb
00000130: ba6e 643a 28bc 46b9 b62e 2cba b5c8 acba
00000140: ec55 5339 0fbe b438 9369 86b9 39f7 d2b9
00000150: b8c5 ed3a 8aab 633a 50e7 323a 7045 f3ba
00000160: fba0 4cba a17d 943a 56ec 37b9 2054 fcb9
00000170: 0374 4d3a 3c46 93b7 37f7 84b8 c164 0d39
00000180: 3869 7db8 4fdb 12b9 8292 79b9 b569 ff39
00000190: d67b b439 e2ef ceba 2cf4 5d3a 5ddc 5d3a
000001a0: 88f3 27ba 7cae 493a ffc1 cb38 3fa7 13ba
000001b0: 3e39 8439 25e3 7a39 b942 0bba 4d53 69b8
000001c0: 24f4 05bb 205e c53a 8690 b1b8 0ec8 85ba
000001d0: 7039 15ba 251d b6b9 2f42 97b8 cda0 e1ba
000001e0: ea29 f038 abd0 feb7 fabe b735 7ef0 90b7
000001f0: c9a1 ccba 9fea 8bb9 bbea 0d39 b586 f3b9
00000200: 257b 06b8 8250 c938 a476 94ba 6e28 49b8
00000210: ff3a b0ba 6ae6 3aba 52ed c13a f2d6 d5b9
00000220: 6969 78bb 6a3b 023a 5208 6bba 147a f9b9
00000230: f2d6 5139 7302 0539 cacc 8dba a745 07ba
00000240: 764e 0fba 8f77 163a 13c1 aa39 dbb1 4db9
00000250: 2c2b 8bb9 d285 023a 9977 d4b9 dce3 a538
00000260: 45fa b3b9 32e0 3c3a 5768 3cb8 2cd3 283a
00000270: 6252 6239 9262 c2b8 849a 06ba 275a ec39
00000280: c4fe b739 e44c d839 ca45 c2b9 3dd4 0139
00000290: e7cb b7b8 61a1 2039 5965 c039 8f49 66b9
000002a0: 6aeb 1b3a 0420 bcba 83e4 ba3a ba73 713a
000002b0: 07b2 b4b8 8dff 9536 6f13 a939 8989 9fba
000002c0: a913 96ba 05d3 e4b9 9dad 29ba a1ba deb8
000002d0: c793 643a b5ca 8fba 415b cf3a a7a4 0fba
000002e0: 2976 e2ba 327e 013b bf3f e5b8 53c0 5a39
000002f0: f2bb 35b9 a147 353a 0ca9 b138 460f dd38
0.0 0.0 0.0 -0.00014460186 0.001512062 0.00035307373 0.00016551004 0.00019674971
7.180509e-05 0.00024156657 -0.0016999337 -0.00087065843 -0.0007815507 -0.00026282217 0.00014534072 -0.00039872894
0.0006395542 0.0003053484 -0.0006352687 -0.00018735093 0.00016845946 0.0005910565 -0.00011308502 -0.0013181326
0.00026857379 6.6905886e-05 0.0003076819 -0.000104554514 0.0040181833 -0.0004254666 -0.002149925 0.0005867647
-0.0015635974 -6.651013e-06 0.00026840525 0.0006151895 -0.0008985353 0.0012531509 -0.0017961739 0.0010507057
0.00019919353 -5.8226906e-05 -0.00066522474 -0.0010382168 0.0006117971 -2.1257258e-05 0.000261948 -0.00021100775
-0.00026046328 -0.00035536487 -2.1384425e-05 -0.00036169987 -4.241436e-05 0.000115880655 -5.8949056e-05 -0.00023643447
-0.00019692408 -0.0006094546 -0.0004371804 0.00044107638 -4.816951e-05 -3.8042148e-05 -0.00011849844 -0.0008976921
-1.782557e-05 -4.521611e-05 -0.00028837498 0.0001917946 -0.00013404385 0.00036515284 -0.00102079 0.00080864
0.00011449941 -7.925532e-05 -0.00038174115 -0.0027677247 0.00087140093 -0.00018952845 -0.000656824 -0.0013182374
0.00020154536 8.61847e-05 -0.0002563713 -0.00040238517 0.001814059 0.0008684924 0.00068246294 -0.0018560123
-0.00078059704 0.0011328944 -0.00017540282 -0.00048127864 0.00078374165 -1.7556471e-05 -6.340298e-05 0.00013484342
-6.0417893e-05 -0.00014005344 -0.00023801069 0.00048716148 0.0003442454 -0.0015788043 0.00084668654 0.00084633176
-0.00064068334 0.00076935417 9.715929e-05 -0.00056325266 0.0002521965 0.00023926476 -0.00053123716 -5.562911e-05
-0.0020439709 0.0015057959 -8.466937e-05 -0.0010206716 -0.0005692458 -0.0003473546 -7.212569e-05 -0.001721406
0.00011451899 -3.0376328e-05 1.3690144e-06 -1.7278126e-05 -0.001561218 -0.00026686952 0.00013534252 -0.00046448936
-3.2062777e-05 9.5994226e-05 -0.0011326862 -4.7959787e-05 -0.0013445317 -0.0007129671 0.0014795458 -0.00040786673
-0.0037904626 0.000496796 -0.00089657784 -0.00047583936 0.00020011867 0.00012684781 -0.0010818478 -0.00051602203
-0.00054667087 0.00057398615 0.00032568778 -0.0001961658 -0.00026544312 0.0004979047 -0.00040524898 7.910255e-05
-0.00034328006 0.00072050386 -4.4919867e-05 0.00064401585 0.0002158373 -9.269001e-05 -0.0005134719 0.00045080596
0.00035094295 0.00041256018 -0.0003705456 0.00012381464 -8.7641e-05 0.00015318907 0.00036696604 -0.00021961912
0.000594786 -0.0014352803 0.0014258776 0.0009210665 -8.616229e-05 4.470296e-06 0.0003224867 -0.0012171726
-0.0011449951 -0.0004364477 -0.0006472709 -0.00010620547 0.00087195303 -0.0010970446 0.0015820042 -0.0005479552
-0.0017277646 0.0019759056 -0.000109314446 0.00020861746 -0.0001733152 0.00069152756 8.471505e-05 0.00010540946

exp_avg_sq f4 [64, 3]
00000000: 0000 0000 0000 0000 0000 0000 b5df 1133
00000010: 930a 0834 2588 cb33 5424 4c33 7562 1133
00000020: 5bfa 5e32 52bd 4d33 4419 b333 0125 a333
00000030: fd3b 0833 1a79 5731 a90a 4b32 af46 5033
00000040: e360 d133 0832 0e33 5786 0e35 b012 5233
00000050: 6a0c ca32 69d5 7433 5308 e032 8b5e 9c33
00000060: bb90 3734 8ac1 4c32 c4ca 9932 99ba ef35
00000070: 999f 7236 8ac9 f633 f068 9a34 ac26 9b33
00000080: 0338 0734 d9a7 5533 e646 7b33 2831 8e33
00000090: 3449 3535 571d fa33 2cc4 6a34 8412 2a34
000000a0: a1c3 af32 2949 5133 2c1d d133 14f6 2534
000000b0: 27ab 9933 329d 5033 fa78 5f33 3593 1033
000000c0: ad40 d433 24bb 3f34 6196 0734 2638 3633
000000d0: f0e1 0733 f056 f933 761a 4033 ddab 1b35
000000e0: 5f10 8d33 a60c b734 dc21 bb33 9031 b233
000000f0: 031d 4a33 c1f3 8134 bb2a 0a35 5324 0535
00000100: b591 5e33 e0ad 2833 7f84 6a33 70d5 2e33
00000110: c900 3c34 fef1 4833 17c5 ee34 e437 3e34
00000120: 761f bc32 9d4b 4b33 41cf 8433 53f3 e434
00000130: 5f6e f833 ba0a 6c33 d915 2f33 7171 a834
00000140: db74 d632 54ab f234 3fe5 7634 05c3 6833
00000150: 99cb 2a35 0665 6633 85ec bb33 e4c2 2a34
00000160: 3c30 a833 5784 c633 8661 0434 80c4 6a34
00000170: 9562 af33 35fa 0433 d498 9a32 467d f532
00000180: 8ce8 1f33 a998 6c32 87ec fd32 26d1 8533
00000190: 855a 1333 b9bd 6734 2871 a234 080d 1834
000001a0: 380f c933 c941 7233 fce2 8332 0a75 1b33
000001b0: 719a 7a33 51a4 e532 5921 b333 1f66 9633
000001c0: fa04 a334 f718 8634 f1d8 c832 ddca 8f34
000001d0: 0037 e032 23b8 0933 1aea b234 b4df 8634
000001e0: 4ec3 3932 b735 2c31 b1db a631 d312 b433
000001f0: 0c1c ce34 a90e ba32 8236 4a34 50c5 2733
00000200: 0471 9233 7210 4633 1aa9 7534 98cf d732
00000210: 6f24 a634 e381 0b33 e27f 4434 75d7 2635
00000220: 92d4 e935 e244 f332 6080 ee33 ae3b 1434
00000230: c92e b933 d147 8132 65e6 a734 00b6 9233
00000240: d029 8133 2b7b 0e33 e2dd 7432 beda 8c33
00000250: 3108 8c33 a7a9 fb32 7904 dc33 9cd7 2533
00000260: c9d3 3333 ef11 d533 722c ac32 c9cb 8933
00000270: 8405 7f33 baad 1232 817d 6533 c400 ee33
00000280: 1167 5633 18d9 aa32 272f a533 4413 8532
00000290: a64e 3532 fe59 1a33 e3bc d432 a3f5 8733
000002a0: dc09 b932 f2d8 6733 4627 9733 f9e3 1634
000002b0: ca8d 2233 3d71 1a33 cebd 4e33 47b0 0d35
000002c0: 3977 d433 5241 df34 dfda 0634 65f9 6433
000002d0: fd2b 4134 0258 1234 2e45 2f34 a2b0 d934
000002e0: 2d07 8734 a204 0d35 a1ed 8b34 1e6a cd35
000002f0: 3a4d 1233 2bd8 1333 ac61 a032 43d6 f732
0.0 0.0 0.0 3.3963904e-08 1.2669834e-07 9.477689e-08 4.753049e-08 3.384999e-08
1.2979025e-08 4.7902468e-08 8.339933e-08 7.59701e-08 3.1719527e-08 3.1355456e-09 1.1818579e-08 4.849306e-08
9.7499445e-08 3.3107455e-08 5.309461e-07 4.891143e-08 2.352154e-08 5.7004772e-08 2.6080818e-08 7.281513e-08
1.7095856e-07 1.19183685e-08 1.7903751e-08 1.7861195e-06 3.6153708e-06 1.14919274e-07 2.8761087e-07 7.224784e-08
1.2593232e-07 4.9745584e-08 5.8504973e-08 6.621332e-08 6.753428e-07 1.1646869e-07 2.1864315e-07 1.583922e-07
2.0461643e-08 4.8728143e-08 9.737627e-08 1.5456345e-07 7.15575e-08 4.8571742e-08 5.203126e-08 3.3661497e-08
9.883784e-08 1.7856343e-07 1.2627562e-07 4.2426244e-08 3.1637626e-08 1.161078e-07 4.472755e-08 5.7992094e-07
6.568802e-08 3.409561e-07 8.714025e-08 8.297786e-08 4.7058176e-08 2.4205477e-07 5.1471187e-07 4.959922e-07
5.1820923e-08 3.9273687e-08 5.4602875e-08 4.0706652e-08 1.750915e-07 4.678622e-08 4.4474356e-07 1.7715462e-07
2.1900387e-08 4.733339e-08 6.184428e-08 4.264535e-07 1.1568476e-07 5.4957788e-08 4.0765233e-08 3.1374978e-07
2.4966019e-08 4.520067e-07 2.2993935e-07 5.419408e-08 6.362621e-07 5.364293e-08 8.750889e-08 1.5903385e-07
7.8318834e-08 9.244166e-08 1.2328937e-07 2.1864435e-07 8.1670045e-08 3.0961207e-08 1.7997458e-08 2.8578722e-08
3.7231572e-08 1.3771719e-08 2.9560637e-08 6.231339e-08 3.430843e-08 2.1582572e-07 3.0257183e-07 1.4160844e-07
9.36256e-08 5.6404847e-08 1.5353628e-08 3.6195196e-08 5.8348125e-08 2.6733831e-08 8.341403e-08 7.003495e-08
3.0364737e-07 2.497761e-07 2.3381718e-08 2.6783428e-07 2.6102043e-08 3.206527e-08 3.3325415e-07 2.512221e-07
1.0812824e-08 2.5059828e-09 4.856212e-09 8.385327e-08 3.8390897e-07 2.1659917e-08 1.8832546e-07 3.9062172e-08
6.819212e-08 4.6115424e-08 2.2878922e-07 2.5123697e-08 3.0946418e-07 3.248159e-08 1.8300446e-07 6.215335e-07
1.7421719e-06 2.8320247e-08 1.110609e-07 1.3805285e-07 8.623244e-08 1.5050235e-08 3.1273808e-07 6.8317604e-08
6.014636e-08 3.3173972e-08 1.425312e-08 6.559047e-08 6.520748e-08 2.9297395e-08 1.0245362e-07 3.8613152e-08
4.1869303e-08 9.9218475e-08 2.0043647e-08 6.416628e-08 5.937683e-08 8.537819e-09 5.3432363e-08 1.1082878e-07
4.9919496e-08 1.9889328e-08 7.691988e-08 1.5491999e-08 1.0553469e-08 3.5937767e-08 2.4765944e-08 6.3311084e-08
2.1541318e-08 5.398119e-08 7.038629e-08 1.4052775e-07 3.784752e-08 3.595891e-08 4.813574e-08 5.278311e-07
9.893706e-08 4.1584514e-07 1.2559347e-07 5.331221e-08 1.7990529e-07 1.3629327e-07 1.6323312e-07 4.0547917e-07
2.515093e-07 5.2533335e-07 2.6063665e-07 1.5304574e-06 3.406351e-08 3.442271e-08 1.8670868e-08 2.885202e-08

exp_avg f4 [64]
00000000: 0000 0000 1033 f33a f0c0 6db9 74fe 26bb
00000010: 8d9b 99b9 5c97 133a 7a72 4d39 ff7c fb37
00000020: 4e6c b439 c603 923b 46f6 133b ca73 06ba
00000030: 3158 cb3a cd45 473a a55a 20ba 9e6e 6c3a
00000040: 4a69 6eb9 7f3e 8c38 8582 a3ba c448 8cba
00000050: 08a6 6b38 85a0 9538 6bc5 2c38 8be1 a7ba
00000060: 8e8b d5b8 0fc9 583a 8f1f f0ba 6096 46b8
00000070: 38b0 5a3a ecc0 4eb9 5d1b 15ba d2c2 d8b9
00000080: 273b 873a 3dae 5e3a f87a 6c3a dcc4 2a3a
00000090: c8f9 8239 4a4f 7eba e202 bbba 978c bfb8
000000a0: b8db e2b7 573b 01bb ea61 003a 3172 aeba
000000b0: 2ebb 87ba 6184 88bb 06a7 57b9 8dfa f7ba
000000c0: 55c1 8239 6a10 7bb9 5852 8738 9851 253a
000000d0: 16e8 dd39 7e96 d3b7 c5ab cc39 864f 2c38
000000e0: 5e57 97ba 839c 44ba 1150 1cbb 4787 8b39
000000f0: a715 4bb8 e75d f8ba bbfa 83ba 436f 1fb9
0.0 0.0018554647 -0.00022673956 -0.0025481256 -0.00029298328 0.0005630159 0.0001959297 2.9979738e-05
0.0003441297 0.0044560162 0.002257721 -0.0005128948 0.0015513954 0.00076016487 -0.0006117023 0.0009019169
-0.00022736672 6.687361e-05 -0.0012474811 -0.0010702838 5.6182995e-05 7.134773e-05 4.1191855e-05 -0.0012808306
-0.000101826256 0.0008269706 -0.0018319952 -4.7346926e-05 0.00083422987 -0.0001971756 -0.00056879764 -0.00041343883
0.0010317311 0.00084945915 0.00090210093 0.00065143197 0.00024981634 -0.0009701146 -0.0014267827 -9.1337766e-05
-2.7043614e-05 -0.0019719207 0.0004897403 -0.0013309178 -0.0010355467 -0.0041661714 -0.00020566219 -0.0018919274
0.00024939576 -0.0002394334 6.452639e-05 0.0006306409 0.00042325322 -2.5223238e-05 0.0003903789 4.1082058e-05
-0.0011546423 -0.00075001287 -0.0023851434 0.00026612935 -4.8419137e-05 -0.0018948884 -0.001006923 -0.0001520487

exp_avg_sq f4 [64]
00000000: 0000 0000 5c3d 5934 5217 3633 8483 a334
00000010: 4868 4e32 deca 6d33 15a2 4333 9886 0533
00000020: e104 6a33 d8ff 8936 dc82 8634 177c 9533
00000030: f399 fa33 1993 fa33 582f 7f34 97ce f733
00000040: 501d ac33 a616 cb33 7be0 4635 c30e e734
00000050: 4f09 2135 d462 7e33 88e1 9c33 9478 e934
00000060: 48d8 a633 82f0 2034 992e ee34 b480 7d33
00000070: 94ec 6e33 d5c0 7832 fee4 0e35 7c95 dc32
00000080: a855 4434 d683 ed33 f5b9 8f34 f0cc 1833
00000090: a0a6 2233 688c 0f34 a694 c034 6658 fe34
000000a0: 4424 8c31 ce5c 5935 2795 a833 cad0 7534
000000b0: e3df eb33 1502 2e36 77cc 7c34 655e a234
000000c0: eda4 5033 eaf4 f933 7252 1333 526e d433
000000d0: 62e3 6833 bd0a c733 7214 aa33 c17d 3933
000000e0: 7724 1d33 8e66 d633 a5b1 5535 f4c6 3e34
000000f0: c4c0 ef34 8d15 de34 0611 2936 74c8 d632
0.0 2.0232022e-07 4.2396387e-08 3.0456806e-07 1.2014489e-08 5.536537e-08 4.554939e-08 3.1088888e-08
5.4486808e-08 4.1127023e-06 2.5054658e-07 6.960925e-08 1.16695354e-07 1.1668289e-07 2.3765949e-07 1.1539412e-07
8.014706e-08 9.457044e-08 7.408741e-07 4.3037844e-07 5.999072e-07 5.9228867e-08 7.30534e-08 4.3487364e-07
7.769319e-08 1.4988657e-07 4.436486e-07 5.9023208e-08 5.562886e-08 1.4479345e-08 5.323235e-07 2.5679348e-08
1.8285084e-07 1.1060153e-07 2.6771127e-07 3.5576647e-08 3.787011e-08 1.3368992e-07 3.5870943e-07 4.7375505e-07
4.078659e-09 8.097385e-07 7.85024e-08 2.289336e-07 1.0983765e-07 2.5929232e-06 2.3543713e-07 3.0243532e-07
4.8578773e-08 1.1639516e-07 3.4301088e-08 9.8920864e-08 5.4223513e-08 9.268613e-08 7.919961e-08 4.318804e-08
3.6587576e-08 9.983806e-08 7.960719e-07 1.7767508e-07 4.4657475e-07 4.1366403e-07 2.5192871e-06 2.5004034e-08
