models/model_cavity_nu0.01_U1_20x20_epochs200_lrannealing_testpcnt0.8.pt (torch, 187059 bytes, 30 tensors)

weight f4 [64, 3]
00000000: fc67 f43e 1d69 773c f6e1 e03e c41f b33e
00000010: 063e c6be 8b6b a83e 83e8 5c3e c76c f9be
00000020: 4403 e8be 67da af3e 21ce b6be ce1d 87be
00000030: d7bd ef3c a61a 02bf 3b6f fc3e 7886 cf3d
00000040: 1314 8abe 907e 84bc 9bd7 993e a579 09bf
00000050: 2e85 e83a eef9 f33e 97a6 b03e 0aff d1bd
00000060: 6a7a 63be 9978 c03e 55d5 1f3e 8a37 98be
00000070: bccc c7bd 0fd1 f43e c44d 4f3e 6c81 f33c
00000080: b3c5 b3be a964 fa3e 4c0b b03e c5a6 043f
00000090: 005c 363e 58da 1c3d a26b debe 5d8e ebbe
000000a0: a53b f13d c065 5d3d b84d 3ebe ae88 17be
000000b0: 2abf 0b3f 3326 163f ad45 00bf e0e5 1d3e
000000c0: 4ed5 8b3e d716 b8be 39e0 b03e b49a b9be
000000d0: 4add fd3e 33d4 dfbe 1be3 f23c 63b2 983e
000000e0: d75e 80bd 6071 c93e d974 253d adc2 b9be
000000f0: ffe0 b53e cd9e cd3e e27e f3be 42a0 51be
00000100: 7f9a ba3e 9c91 c33e 4eba 923d 504f d33e
00000110: 5f66 893d f920 ecbd ba9e f53e ece5 923e
00000120: 27af 07bf ac67 aebe 986d 813e 070b e0be
00000130: 2bfd 5b3d f908 06be 1bc5 54be 113a cdbe
00000140: aaef aa3e ce8d 943e 4683 af3d 0623 063e
00000150: 3204 df3e 0ade 0a3f 47a0 923e 0615 0cbf
00000160: 2b32 cf3e aa6d ccbe ac7c efbe b170 213f
00000170: 3cc9 a2bd 2854 05bf 6b3d 09bf 9d1b b0bd
00000180: 1e36 b53e 6692 85be 4aa9 4f3e e578 bbbe
00000190: b554 fb3e 2058 5cbd e702 96bd 76f9 86be
000001a0: a312 463b 4983 3f3e 5542 d83e 9729 1abe
000001b0: c40d b63e d0f9 dfbe 790a 6dbe c767 f0be
000001c0: 8776 81bd 02b9 2fbd 5414 b23e 8fee c4be
000001d0: 2d64 143d 42da 263f 552d 88be bc7a 8c3e
000001e0: 92a4 16be be5f cbbe 0a60 81be f67c ebbe
000001f0: dd4c 873e 6269 3abb 6415 b7be 504b fbbe
00000200: fa6b f03e cc65 1fbf 6310 b03e 7211 13bd
00000210: 3c73 b33c 0068 1e3f aa28 e73e 9e5a 84be
00000220: a434 ae3e 9075 80be a007 b1be 284e e1be
00000230: 8615 0f3f 279a 19be fb7d debe 98cb 993e
00000240: 7720 e73e 8c17 a2be 070d b73e 804b d83e
00000250: dd9f 3cbe b0d8 f2bb 62d4 d4be ac4c 7a3e
00000260: 0786 933e 00a6 683e d94a c53e a9f3 a8bd
00000270: 0ad9 fd3d 1d85 1dbe 3b63 8d3e 7a9b 933e
00000280: ca6f 143f 41aa dfbe 7487 acbe fa2a 233b
00000290: a9ab acbe e053 8e3d be6c 8dbe 4777 f2be
000002a0: bbb8 20bf dc17 72bd 8bdd 86bc 2816 e7be
000002b0: 13b5 1f3e fd20 d2bd d674 4a3e 68d9 0bbe
000002c0: 0bc7 88be d022 863e a467 0a3f 7c35 9a3e
000002d0: e26a bf3e f554 5cbd 3067 9dbe 6345 c73e
000002e0: 3572 c53e f71a 903e 138e d5be 0b8c adbc
000002f0: 4327 153e c086 b1bc d010 793e c35b d83e
0.47735584 0.015100745 0.43922395 0.34985173 -0.38719195 0.3289455 0.21573071 -0.48715803
-0.4531499 0.34346315 -0.3570414 -0.26389927 0.029265327 -0.5082191 0.49303612 0.1013307
-0.2696844 -0.016173631 0.30047306 -0.5370124 0.0017739886 0.4765162 0.34502098 -0.10253723
-0.22214666 0.3759201 0.15608723 -0.29729873 -0.09755847 0.4781575 0.20244509 0.0297248
-0.3511177 0.48904923 0.3438362 0.5181697 0.17808533 0.038294166 -0.43441492 -0.46007052
0.117789544 0.054052114 -0.18584335 -0.14798233 0.5458857 0.5865204 -0.50106317 0.15419722
0.27311176 -0.35954925 0.34546068 -0.36250842 0.49582893 -0.43716583 0.029649308 0.29823598
-0.06268089 0.3934431 0.040394638 -0.36281338 0.3552322 0.40160218 -0.4755774 -0.2047129
0.36445996 0.3819703 0.07164441 0.41271448 0.06708979 -0.115297265 0.4797266 0.2869104
-0.53001636 -0.3406347 0.25278926 -0.43758413 0.053708237 -0.1308936 -0.20778315 -0.40083364
0.33385974 0.29014438 0.0856996 0.13099298 0.43557888 0.54245055 0.28637907 -0.5471958
0.40467963 -0.39927417 -0.46774805 0.6306258 -0.07948539 -0.5208154 -0.5360934 -0.08599017
0.3539285 -0.26088256 0.20279422 -0.36615673 0.49088064 -0.05379498 -0.07324772 -0.263622
0.003022351 0.18702425 0.42238107 -0.15054928 0.35557377 -0.4374528 -0.23148526 -0.46954176
-0.063214354 -0.042901047 0.34781134 -0.38463256 0.036228348 0.65176785 -0.26597086 0.2743739
-0.14711216 -0.39721483 -0.25268584 -0.45993775 0.2642583 -0.002844416 -0.35758507 -0.49080896
0.4695738 -0.62264705 0.34387502 -0.03590531 0.021905534 0.6187744 0.45148212 -0.25850385
0.34024537 -0.25089693 -0.3457613 -0.4400494 0.5589222 -0.1500021 -0.4345549 0.30038142
0.45141956 -0.3165859 0.35752127 0.42245102 -0.18420358 -0.007411085 -0.41568285 0.2444331
0.28813192 0.22719574 0.38533667 -0.082495995 0.123949125 -0.1538281 0.2761477 0.28829557
0.57983077 -0.4368458 -0.33697093 0.0024897442 -0.33724716 0.06949592 -0.27622026 -0.47356626
-0.62781876 -0.059104785 -0.016463062 -0.4513409 0.15596418 -0.10260198 0.19771132 -0.13657153
-0.26714358 0.26198435 0.54064393 0.3011893 0.37386233 -0.05379196 -0.30742788 0.38920125
0.38563696 0.28145573 -0.41709957 -0.021184942 0.14565758 -0.0216707 0.2432282 0.4225751

bias f4 [64]
00000000: 4335 543e 596e d6bd 522f 123f e40c c5bd
00000010: 290f d6be 5705 213f 35b5 97bd 4b0a 5e3e
00000020: d3c5 58be cd3d 34be f6f4 083f c9bc c53d
00000030: 25bb fc3e c276 ddbe b551 14be d20b eb3e
00000040: 101b 8e3b 89e9 ce3e 595a 14be b048 f83d
00000050: 06ea 4f3e 10e1 c2be 2039 d03e 35bf 2bbe
00000060: 9e47 823e d15a dd3e 3226 4a3e e8a1 14be
00000070: dbfc ca3e f4c9 76be 8d49 4bbe efa1 103d
00000080: e3ea 113f 4c6c ed3e 567b 053f 8e32 e4be
00000090: d61a 72be 2d1a a1be 4283 173f 7f40 3cbc
000000a0: 2e16 133f 9ab7 04be ff92 e5be a808 093f
000000b0: 8938 bd3e 6992 1c3e 43f3 ae3e b9e0 d0bd
000000c0: a854 9c3e 9035 d0be 7567 1cbd f1e1 d2be
000000d0: 3f7f f2bd eebb ac3e 933d a43d b8a6 4ebe
000000e0: 28b6 13bd 6835 e5be 1132 17be 16ce 653e
000000f0: 5daf 95be c73c 0fbe 2cdb ecbe 1bd2 d6be
0.20723443 -0.10470266 0.57103455 -0.09621599 -0.4180844 0.6289877 -0.074076094 0.21683614
-0.21169214 -0.176017 0.5349878 0.096551485 0.4936153 -0.43254668 -0.14484294 0.45907456
0.004336722 0.40412548 -0.1448759 0.12123239 0.20304117 -0.38062334 0.40668583 -0.16772158
0.25445265 0.4323335 0.19741133 -0.14514887 0.39646038 -0.24100477 -0.19852276 0.035310682
0.56999034 0.46371686 0.5214132 -0.4456982 -0.2364305 -0.31465283 0.5918466 -0.011489986
0.5745572 -0.12960663 -0.44838712 0.53528833 0.36957195 0.15290226 0.3416997 -0.101991124
0.30533338 -0.40665865 -0.0381846 -0.41188005 -0.118406765 0.3373713 0.08019557 -0.20180786
-0.03606239 -0.44767308 -0.14765193 0.22441897 -0.29235354 -0.13988028 -0.46260965 -0.41957173

weight f4 [64, 64]
00000000: 01eb 4dbc 7763 f33d a8dd b1bc 0b52 943c
00000010: f7d1 60bd 6756 1a3d 98e6 173e 7d5d c0bd
00000020: 14e7 c43d b430 5b3b 8be8 8bbd 5ea2 3fbd
00000030: 48a4 a53c cdc3 0a3d 66ba d9bc bfe2 103e
00000040: b7e4 723b bce7 db3c 0bb4 dabd 9a4e 763d
00000050: 1ee2 0f3d cbe6 d3bd 72c1 883c 25c9 793d
00000060: 5150 403e 9f39 a53d ba96 2b3e 24ec 14be
00000070: b646 a4bd f01c 073e f8ea 50bd 42fa d63d
00000080: 99f8 303d 2402 e73d 7a85 6b3c b667 0dbe
00000090: 3695 af3d 5be7 abbd 4ddc 29bd a69f c7bd
000000a0: 1736 173e 31b2 dc3d c4b7 003e 42cc 4f3e
000000b0: 14be 1f3e f8d2 2bbd 7882 ea3d 8e41 073e
000000c0: decb 94bd fd96 3f3e 341d 5a3b 398c 43be
000000d0: 77f3 21bc 1ca7 9dbd 302a 9dbd 198f 903c
000000e0: 5c09 cd3c a9ce 0fbe 546e 1d3d 8583 703b
000000f0: 0afe 5c3d deb8 88bd d9e0 e2bd 4be3 d7bd
00000100: 0260 ae3d 93a1 0d3d ec3f 003e 2ec3 7d3c
00000110: 33a9 8dbd e94c 153e 8118 79bd 3cc3 653d
00000120: 8bed 27be e739 243d 9648 003e a866 d03c
00000130: d380 6e3a b8ba b1b9 7143 663c 09d1 1f3e
00000140: a8b6 153d d40d 2a3d 99b9 7c3d aa8b 993d
00000150: 2dc2 86bd b62d 0f3d 48f7 ce3d 11a3 9dbd
00000160: 805d 7abd 8fcd 8fbd 03f6 08be b0e9 67bd
00000170: 1dda ac3c 44ae eabc 6fc0 2bbe 40b7 a83d
00000180: f4c9 6c3d 3210 f5bd cdcd a3bd 5488 dd3c
00000190: 55e3 c4bd a0d4 f2bd b182 083e da32 ffbd
000001a0: f488 55bd 53c8 f23c 0c93 fabd afa6 073d
000001b0: 8bd0 853c 04d1 93bd d708 aa3d 7350 a2bd
000001c0: ef7a 073e 45f7 4bbe 3cec 8d3c e519 443d
000001d0: 529c 79bb 37fd 8abd e59e a6bd a561 e7bd
000001e0: fb7c f0bd d344 093d 7a37 e0bd 3d19 cf3b
000001f0: f2d2 25bd a639 8c3d 7ef4 a0bd ec6b a4bd
00000200: 6c50 103e 7a84 b93d ebec 283e 708c 943d
00000210: 52ba c3bd e4da 3e3d 287b 903d ca57 5a3d
00000220: c864 85bd e9e3 053e 261e 80bd 0154 cd3d
00000230: 1db7 8dbd ac8e d1bb 5a8e bf3c fc75 823c
00000240: 20f7 84bd 84da 103d 30ab 6abe 37a3 ef3c
00000250: 20c5 d3bc 9cf0 14be 50b3 9bbd d70c 8ebd
00000260: bcbb fd3d 7ce2 263e 19a4 1a3e 74bd 8dbd
00000270: a26b d43c 456c c73c 9775 53bd 4421 5bbd
00000280: 06e4 c5bc 5ab1 90bd 59fc b03d dbac 8f3b
00000290: 6485 2b3e 73bb db3d f89c e2bd 8a16 ce3d
000002a0: 1e9a 433d 11fc 3dbc 3f19 673d 81ff 473d
000002b0: e289 dcbd 54f7 db3d db53 4abd ad8d 413d
000002c0: c298 153e 9ef6 f43c 6cdf ff3d 986c 17be
000002d0: a606 b93d 329e 27be 6093 3d3d 22f8 ff3d
000002e0: d404 25bd bc02 4fbb 8708 98bc cb6c 10bd
000002f0: 0fc9 583e 58d6 09be 308d 093e 646c 27be
00000300: a079 6a3d a0d0 153d f8fd 8abc b0ba ba3c
00000310: b0e4 42bd 006c c3bc 00a7 b23d 304f 203c
00000320: b635 84bd 5054 c1bd bc0d 5abd 106e 313c
00000330: 78ae 3abd 4811 f33c 5885 fbbd b21a e4bd
00000340: 3e05 8cbd 0820 e8bd 085c 473d 8c3b 5bbd
00000350: 144f cf3d c2b2 b4bd d456 493d b84c f93c
00000360: 246a 5d3d 10c0 70bc 30e9 f1bc 06e3 b13d
00000370: 88cf f33c e25a b5bd 788d 50bd b8fb 54bd
00000380: 30eb 44bc 2003 ce3d d069 b0bc 8072 40bc
00000390: 147d 48bd c04e 12bc 9049 f13c 8658 cabd
000003a0: fe81 bc3d 4af7 85bd a24f f53d 2c60 09bd
000003b0: 2671 d1bd 5825 9fbd 56cd fabd 525a e03d
000003c0: f07e 663d 0043 6a3b 40db e43c 00de 613b
000003d0: 3e34 87bd 1ef4 8bbd 3893 b7bd b6a4 f93d
000003e0: 3ae0 85bd 10cf cdbc 0808 d33c 0866 3cbd
000003f0: 9e71 e0bd da0a c4bd 8c20 f4bd b29b b63d
-0.012568236 0.11884206 -0.02171214 0.018105527 -0.054887738 0.037680056 0.14834058 -0.093928315
0.09614387 0.0033445777 -0.068314634 -0.046785705 0.020219937 0.033878136 -0.02657814 0.14148997
0.0037062594 0.026843898 -0.10678872 0.060133554 0.03512775 -0.10346755 0.016693804 0.060982842
0.18780638 0.08067631 0.16756716 -0.14543205 -0.080212995 0.13194633 -0.051005334 0.10496952
0.04320583 0.11279705 0.014375085 -0.13809094 0.085733816 -0.08393737 -0.04146986 -0.097472474
0.14766727 0.10776175 0.12570101 0.20292762 0.15599853 -0.041949242 0.11450666 0.13208601
-0.07265447 0.18709941 0.0033281567 -0.1909646 -0.009884707 -0.07697889 -0.07674062 0.01764636
0.025028877 -0.14043678 0.038435295 0.0036699485 0.053953208 -0.066758856 -0.110780425 -0.105413996
0.08514406 0.034577917 0.12524384 0.015488429 -0.06917038 0.1458012 -0.060814384 0.056094393
-0.16399209 0.040094282 0.1252769 0.025439575 0.0009098176 -0.00033899187 0.014054165 0.15607084
0.036551148 0.041517094 0.061700437 0.07497342 -0.06580005 0.034955703 0.10105759 -0.07697118
-0.061124325 -0.07021629 -0.13375096 -0.056619346 0.021100098 -0.02864755 -0.16772626 0.08238077
0.057809785 -0.1196598 -0.07998238 0.027042545 -0.09613673 -0.11856961 0.13331105 -0.12460871
-0.05213256 0.029636538 -0.12235078 0.033117946 0.016334793 -0.07217601 0.08302467 -0.07925501
0.13230489 -0.19918545 0.01732456 0.047876257 -0.003808756 -0.06786578 -0.081357755 -0.11297921
-0.11742588 0.0335129 -0.10948081 0.0063201473 -0.040484376 0.06846933 -0.07859133 -0.08028397
0.14093179 0.09058471 0.16496627 0.07253349 -0.09557022 0.04659547 0.0705474 0.05330638
-0.06513363 0.13075222 -0.0625575 0.10025788 -0.06919692 -0.0063951816 0.023383308 0.0159254
-0.06492448 0.035364643 -0.22916865 0.029252632 -0.025850832 -0.1454491 -0.076025605 -0.06936043
0.12389323 0.16297334 0.15101661 -0.06920901 0.02593023 0.02434362 -0.051625814 -0.05349852
-0.024156582 -0.07065077 0.086418815 0.0043846196 0.16750103 0.107291125 -0.11065096 0.10062893
0.0477544 -0.011595742 0.05642056 0.048827652 -0.107684866 0.107405335 -0.049396377 0.047254253
0.14609054 0.029902752 0.12493786 -0.14787519 0.09034471 -0.1636894 0.046283126 0.124984995
-0.040287808 -0.0031587323 -0.018558754 -0.035260003 0.21170448 -0.13460672 0.13432765 -0.16349941
0.057244897 0.036575913 -0.016966805 0.022794098 -0.047581375 -0.02385521 0.08723259 0.009784505
-0.06455557 -0.094399095 -0.053235754 0.010829464 -0.045576543 0.029671326 -0.12281293 -0.11137904
-0.06836937 -0.113342345 0.048671752 -0.053523585 0.10122505 -0.08823158 0.04915507 0.03043209
0.0540563 -0.014694229 -0.029530138 0.086858794 0.029762045 -0.08855225 -0.050916165 -0.05199787
-0.012018964 0.1005919 -0.02153483 -0.011746049 -0.04894741 -0.008929908 0.029454023 -0.09880166
0.092044815 -0.06541307 0.119780794 -0.033538982 -0.102266595 -0.07770795 -0.12246196 0.10954727
0.0562734 0.0035745502 0.027936578 0.0034464598 -0.06601761 -0.06833671 -0.089636266 0.12189619
-0.065369084 -0.02512315 0.025760666 -0.045995742 -0.10959171 -0.09572382 -0.1192027 0.08916415

bias f4 [64]
00000000: e3e4 453c 2fd3 d53d 8351 ffbb d4dd d7bd
00000010: b810 bf3d e20a 963d 4c83 0b3e d7e9 ccbd
00000020: bd98 0ebd a5a3 883c 6ac4 803d 7c3a ac3c
00000030: 9981 0a3d af03 b0bd db77 49bd 3229 06be
00000040: 5013 08bc 442b 8c3d 7ebf f83d 4062 a0bd
00000050: 852e f43d 1b1f 0a3d a36e 00bc 58a6 61bd
00000060: e730 a7bd 834a 693b 85ad 2e3d e844 1b3e
00000070: 88fa 073d 5803 86bd c404 a33c ae51 d83d
00000080: 5f3d d43d c6d1 a5bd e85f b53d d820 1c3d
00000090: 7e92 713d f00f 6e3c 749d ff3d 1298 11bd
000000a0: 7494 f2bd e32c 923d 0246 5f3d b35c 323d
000000b0: 48cd 473b d7dc 323d cef8 563d 9939 dabd
000000c0: a038 fd3d 90ad 833d 4379 343d 9081 253b
000000d0: d985 44bd 4fe6 2f3c a6a6 ec3c 4c20 01bc
000000e0: 4263 98bd a839 d83d 6731 b4bd 62a2 493d
000000f0: a445 3e3e 4883 cd3d c3ad fd3c 52e0 6fbd
0.012078497 0.10440671 -0.0077916994 -0.10540357 0.09329361 0.073262945 0.13624305 -0.10005539
-0.03481363 0.016679594 0.06287463 0.021023981 0.033815 -0.085944526 -0.04918657 -0.13101652
-0.008305386 0.0684419 0.12145899 -0.0783124 0.119229354 0.03372107 -0.007838878 -0.05509028
-0.08163624 0.003559739 0.04264595 0.15163004 0.03319791 -0.065436065 0.019899733 0.10562454
0.10363268 -0.08096652 0.08856183 0.03811726 0.058977596 0.014530167 0.12481204 -0.035545416
-0.118447214 0.07137468 0.054510124 0.043545436 0.0030487347 0.04366764 0.052483372 -0.10655517
0.12364316 0.06429589 0.044060957 0.0025254227 -0.04797921 0.010736062 0.028888058 -0.007881235
-0.07440807 0.10557872 -0.08798485 0.049227126 0.18581253 0.100348055 0.030966645 -0.058563538

weight f4 [64, 64]
00000000: d8e1 83bd 2067 aabb 34ba debd fc39 0c3d
00000010: 3014 463d 947f 613d 4ac3 843d f0db e0bc
00000020: c4f8 073d b24f af3d 4ac7 a53d ba7b fdbd
00000030: 0234 a9bd 1052 78bc c08c 2f3b 802a b8bb
00000040: 20af 513d 4041 4d3b 0096 b9bd 6011 813c
00000050: 3096 41bc f44e 353d b868 3abd 7823 b63d
00000060: c453 723d c026 d5bc 34ce 42bd 96a7 f8bd
00000070: 4ead a8bd 4c0a 983d 3e98 aa3d 0467 41bd
00000080: c01f 2fbd a2f7 e23d 30f8 373c f054 d8bc
00000090: 3845 4b3d 0062 343d aa1a ecbd dc43 2bbd
000000a0: 245f 4ebd be30 babd 9603 f23d 1005 ef3d
000000b0: 8848 d4bc 80de 543d e04e c3bb 60a1 853c
000000c0: 9c3e 0dbd 6c9e 5dbd 44b6 68bd 2a89 d63d
000000d0: 96e4 b13d f0a6 393d fc11 44bd 50a7 a1bd
000000e0: 9099 30bd 2672 cc3d dc2f 123d fcda d6bd
000000f0: d050 703c 24fb 393d 6c06 67bd 3c05 e93d
00000100: 66b4 9dbd 0825 1a3d eb9d 42be 88a0 703d
00000110: a733 703d e210 52bd 922e debd 4f30 8d3c
00000120: 8f82 b9bd a04e f03c 0c6c ca3c 62f5 d4bd
00000130: 7404 cdbd 4a4f 543d 63dd 8abc ae8a 0d3d
00000140: 2083 71bd 34d2 52b9 7bfb 08be 3488 bcbd
00000150: e58d 8c3d a2f7 d83a 9ebe b7bd c006 bcbc
00000160: d7e2 b2bd be7a d03d da4a b3bd 0de8 c43d
00000170: bcf0 c93d 3035 cebd 79b8 993c 9d6c cbbd
00000180: 154e 01be c194 7a3d 9f2f 18bd 25bf 9a3d
00000190: ae42 f5bd 8e74 03be 31ac d8bd 0356 6d3d
000001a0: f885 3a3d 3ffb 55bc 3eb4 9dbd 4800 c1bd
000001b0: f839 eebc 2516 a33d a052 403d 44e6 a4bb
000001c0: 5a87 0cbc f0ee 663d 0fcf e93d acac 863d
000001d0: fd22 9cbd b734 b4bd bbe6 ac3d 05dd 043e
000001e0: 64cb 2dbd c0a9 d9bb 7252 e6bd 7f69 95bd
000001f0: a1e4 1d3e 7db8 ab3d 6d3c bd3d b533 f83d
00000200: be9f 69bd 9393 a9bd 7c6c 9f3d c47a b63d
00000210: b82d 803d e1e6 f9bd 1dfd c13d 91eb c8bd
00000220: 7061 cabd fb5b e83d 2e29 83bb ba61 debb
00000230: 1811 033c e228 47bc 3b60 063e 9fd4 e93c
00000240: 8c80 213d 410e aabd 892b ef3c b9dd adbd
00000250: 8f40 953b 58f8 9abc aad6 dd3d 9c92 f53d
00000260: 9ce2 8c3d 9ce7 b2bc 9701 10be 36c8 fb3c
00000270: a740 0f3d 82f3 debd aa8d 2fbd 9188 5ebd
00000280: 882c 0a3c 1732 4d3d 06d2 043c 7e1a 92bd
00000290: d9d5 133e a96e e23d bd37 a83d 4cd8 8abd
000002a0: 0727 013e add7 01bd ae1b 1b3d 1c10 b33d
000002b0: 283a 03be 010b febc 4578 293c 67ba c1bb
000002c0: 60c6 9c3d 5c5d c2bd 3aca 25bd 4416 823d
000002d0: f7e5 443d 2790 00bd f030 bb3d d036 cb3d
000002e0: 6a29 9c3c 50c7 09bd 79bc 47bd f6de fe3d
000002f0: f662 31be c2eb 883d f084 cb3d f651 203d
00000300: ea64 d3bd f89f 193e 120b 13be 08de 33bd
00000310: ff23 9f3d baa2 79bb 3ee2 e3bc a390 ecbd
00000320: 7fda 0c3e 7c60 01be 2031 5c3d dd85 973d
00000330: 513a b8bd 1371 a93d 4e4d f3bd 1cce f43c
00000340: 4c6d 063d 47f0 e7bd 0922 b43c e125 e63d
00000350: acce 9d3c 68b0 943d 6253 6ebd d2ee 9f3d
00000360: 04c3 083d cb6e 9cbd 5ba2 fbbd 0116 a3bd
00000370: f696 033e fde0 823d 9126 0ebe 9504 f23d
00000380: 15df 06be d1c0 97bd 9be4 b53c b311 8b3d
00000390: a5e0 fa3d 7f17 a33d 8035 82bc 40da 08bd
000003a0: d127 943d 882c 90bd 2e93 3bbd eb99 d8bd
000003b0: f12c 02be 0a67 f53a 7d9c 183d 1bba e33d
000003c0: ba20 f5bd 9425 b03d b0c3 843c 9124 fd3d
000003d0: 7b36 2bbc 7a7e 6e3d f969 f03d 75f8 20bd
000003e0: 5f1a c2bd 54c3 473d 570a 013d a729 cdbd
000003f0: 7f71 e33c 6939 0d3e e0d4 b4bd c925 963d
-0.06439561 -0.0052002817 -0.10875359 0.034234986 0.048359096 0.05505331 0.06482561 -0.027448624
0.033196226 0.085601225 0.08094652 -0.123771146 -0.08261873 -0.015156284 0.0026786774 -0.005620301
0.051192403 0.003131941 -0.09061813 0.015755355 -0.011815593 0.04426475 -0.045510024 0.08893484
0.059161916 -0.026019454 -0.047559932 -0.121413395 -0.0823618 0.07423839 0.08329819 -0.047217384
-0.04275489 0.110823885 0.011228606 -0.026407689 0.04962656 0.044038773 -0.11528523 -0.041812763
-0.050383702 -0.09091328 0.1181709 0.116708875 -0.025913492 0.051970005 -0.0059603304 0.016312301
-0.034483537 -0.05410616 -0.056814447 0.10475381 0.086861774 0.04532522 -0.047868714 -0.078932405
-0.0431152 0.099827096 0.035690174 -0.10490987 0.014667705 0.045405522 -0.05640261 0.113779515
-0.07700424 0.037632972 -0.19005553 0.058746845 0.05864301 -0.051285632 -0.10848726 0.01723495
-0.09058105 0.029334366 0.024709724 -0.103983656 -0.10010615 0.05183343 -0.016951269 0.034556083
-0.05896294 -0.00020105467 -0.13377182 -0.09205666 0.06863002 0.0016553293 -0.08971904 -0.022952437
-0.087346725 0.10179661 -0.08754511 0.09614573 0.098603696 -0.100687385 0.018764721 -0.09932826
-0.12627442 0.06117702 -0.03715479 0.07555989 -0.11975609 -0.12837431 -0.10579718 0.057943355
0.04553792 -0.01306039 -0.07700394 -0.09423882 -0.029080376 0.07963208 0.046953797 -0.0050323326
-0.008577192 0.056380212 0.114164464 0.06575903 -0.07623861 -0.08799117 0.08442446 0.12974937
-0.042430297 -0.00664255 -0.11246194 -0.072955124 0.15419246 0.08384798 0.09240041 0.12119237
-0.057037108 -0.08280101 0.077843636 0.089101344 0.0625872 -0.1220224 0.09472106 -0.09810556
-0.09881866 0.11345669 -0.0040027117 -0.0067865523 0.007999681 -0.012155743 0.13122647 0.028543768
0.039429232 -0.083035 0.029195564 -0.08489556 0.004554815 -0.018917248 0.108319595 0.11990854
0.0687916 -0.021838956 -0.14063106 0.030735116 0.034973767 -0.10886289 -0.04285971 -0.05432946
0.008433469 0.050096598 0.008106714 -0.07133959 0.14437045 0.11056263 0.08213756 -0.067795366
0.12612544 -0.031699825 0.037868194 0.08743307 -0.12815154 -0.031011106 0.010343616 -0.0059121135
0.076550245 -0.09490463 -0.04047606 0.06351903 0.048070874 -0.031387474 0.091401935 0.09922564
0.019062717 -0.033637345 -0.048763726 0.1244487 -0.17322907 0.06685592 0.09937465 0.039140664
-0.10321982 0.1500243 -0.14359692 -0.043912917 0.077705376 -0.0038091377 -0.027817842 -0.11551025
0.13755225 -0.12634462 0.053757787 0.07398579 -0.08995498 0.0827352 -0.11879979 0.029883437
0.032819077 -0.11325126 0.021988885 0.112376936 0.019263588 0.07260209 -0.05818499 0.07809223
0.033389106 -0.076383196 -0.12286826 -0.07963181 0.12850556 0.06390569 -0.138819 0.1181728
-0.13171037 -0.07409824 0.022203734 0.06790485 0.12249879 0.07963466 -0.015894651 -0.033411264
0.07234157 -0.07039744 -0.04579466 -0.105762325 -0.12712456 0.0018722725 0.037258614 0.11119481
-0.11969133 0.086009175 0.016206592 0.1236049 -0.010450001 0.058226086 0.11738963 -0.039299447
-0.09477686 0.048770264 0.031504 -0.1001771 0.02776408 0.13791431 -0.08829665 0.07331426

bias f4 [64]
00000000: 9429 fcbd fb01 f03c 60ee 0b3e 4312 513d
00000010: 18c6 4a3c 8551 163e 65fe 7abd 9819 87bc
00000020: 0baf 223d 87a1 0a3d f87b 5d3d 19fe 33bd
00000030: 8f09 aebd 6be3 843c 2aa9 1a3d ae3c e43c
00000040: c30e b23d 73fe 0a3e 7a9f 79bd 8c5c 00bd
00000050: 559f a6bd 285b 45bd 07dd 38be c6d3 e4bd
00000060: a4f7 6dbd 4ab4 9ebd 5b07 b2bd 19a0 5b3d
00000070: 6582 19bc 6a82 0b3e 3f53 1e3d 6bc8 f0bc
00000080: 3c2f 84bd dbf6 7bbc 1a85 783d cdcb f53c
00000090: b17f d0bd 8551 6d3d d80b 993d f41f f23d
000000a0: 40fa c03c 44b1 29bc 40ff db3d 813d 7fbb
000000b0: 9ce2 063d 8a3c 133e 7590 ef3d 06cd 543c
000000c0: 6022 303d b936 78bd f24f b43d 57c9 c4bd
000000d0: b7a3 fe3a 73c9 49bd b4ff debd ab83 44bd
000000e0: 077b 3dbd c46f 9d39 9e4b ab3d a068 3d3d
000000f0: 71e3 e0bc 46d1 2d3d 6f8b 71bd 7d64 a63d
-0.12312618 0.02929782 0.13665152 0.051042806 0.012376331 0.14679535 -0.061277766 -0.016491696
0.039717715 0.03384545 0.054073304 -0.0439435 -0.08497917 0.016221723 0.037758984 0.027860966
0.08694222 0.13573627 -0.060943104 -0.03133826 -0.08135859 -0.048182636 -0.18053065 -0.11173205
-0.058097497 -0.07749231 -0.08692809 0.053619478 -0.009369467 0.13623968 0.03865361 -0.029392442
-0.06454322 -0.015378679 0.06067381 0.030004406 -0.10180605 0.05793907 0.07472962 0.11822501
0.023556828 -0.010357205 0.107420444 -0.0038946571 0.032930955 0.14378563 0.11697475 0.0129883345
0.043001533 -0.060599063 0.08804311 -0.09608715 0.0019427453 -0.049264383 -0.10888615 -0.04797713
-0.046259906 0.00030028645 0.08364032 0.046242356 -0.027452203 0.042435907 -0.058970865 0.08124635

weight f4 [64, 64]
00000000: 2081 edbd 0df7 05be dae2 073e 8ec9 fd3d
00000010: 36cc 5abd 44a8 e73d f64d 4f3a 0216 d93c
00000020: 2b50 1abc f33c ac3c 5d6f 6cbd e791 12be
00000030: f6ad a73c 335a fa3c f6ed 2c3e 1beb 8f3d
00000040: 03ca bd3b 3ce6 b3bc f9eb ba3c 55cb 37bd
00000050: 76fe 6dbc 1850 703d 50b7 843a cb1b 5bbe
00000060: 080d f93d d0f2 b73d f219 67bd 1a86 c7bd
00000070: 28f9 a6bd 7bbf dc3c 3539 a03d 3171 d83d
00000080: a0cb 84bb a4e0 65bd 70e8 cb3d 95fe abbd
00000090: 4873 8f3d d15b 8e3d ffc2 cebd 775f 0bbe
000000a0: 2c21 a3bd 1868 9e3d 5fee 563d 5e08 823d
000000b0: 6c05 0f3e 0cb5 1c3e 1f41 cebc e56a 143d
000000c0: 8b22 0a3e 5b2a cbbd 3576 1c3e 6132 f43a
000000d0: 3fa4 cfbd cb55 693d 6f06 2fbd 43a4 0e3e
000000e0: 3f86 133e afa5 a1bd af29 843d 2984 c03d
000000f0: 8762 b3bd 7587 e13c 5d66 193e 52dc 91bb
00000100: 763d d0bd 68aa 6bbd 0feb 9bbc cd6e 9e3d
00000110: c435 1c3d ed2f 123e 4dfb 1cbe d38f 01be
00000120: 60ec b8bd f835 833d 289f 60bd c8d8 2c3d
00000130: c9aa 703d 82f4 a2bd 564e b33b 4dc7 663d
00000140: 41f2 ad3d 7d9e 353d 2774 2a3e 531d 55bd
00000150: 0509 91bd f654 9b3d a090 3abd bbd0 a3bd
00000160: 0e64 91bd 4e30 16bd 624a 91bd 1944 1b3d
00000170: 0c13 a6bd 70e2 c23d ce07 d53d d316 e73b
00000180: 9463 14bd 75df 103e 0064 19bd ddd4 9a3d
00000190: 868b 88bd 269b e6bd 4abe 8e3d 8fde 383b
000001a0: 5425 b8bd b486 ce3d bd10 9abd e9e1 0cbd
000001b0: c4ed d3bd 06ec 4f3d 5022 a3bb fda5 dcbd
000001c0: 8a0b 0e3d 5ed6 cb3d 60c0 ccbd 5f5c 18be
000001d0: a993 a53d a542 353d 60e0 2e3c 2fc2 b3bd
000001e0: cb30 903d 8d5e 9fbd 35b3 7f3d 08ae 08bd
000001f0: 90db 1b3d ff19 f4bd 5d92 123d 025b e2bd
00000200: 08ee b83c 28e8 99bd 2218 febc a066 993d
00000210: 1688 e23d 6d56 b33d c00f 91bd 8eb3 96bc
00000220: b71e 4cbc f3c0 8bbd 5137 c43d bf7c 04be
00000230: 0e15 8bbd a376 7d3d 85bc da3d 54c2 0c3e
00000240: b0e6 e33d 7989 b2bd d22c 843d ed59 fa3d
00000250: 0b61 753d 405b c3bb 0431 a0bd 9c34 2e3e
00000260: a2a6 ad3d 08cb 9d3c 8de8 ccbd e6c9 e83b
00000270: e1d1 37bd 841b 80b9 d919 bc3d f01f b83d
00000280: 08c4 d9bc 302d b1bd 153b 54bd 9674 653d
00000290: 57a0 b3bd cb51 9e3d 3842 04bd a34b c03c
000002a0: 6b8e 363c ecfe 43bd 642e 8cbc ed0a 5b3d
000002b0: f708 e13a 21b5 ef3c fd99 5c3d 231a afbd
000002c0: f6ac f13d 960b f33c dd70 8a3d d7a1 e43b
000002d0: 49af 99bd ce87 14bd ddfb dc3d 96b5 31bc
000002e0: eced cc3c a325 37bd d6c3 063d b285 26bd
000002f0: 03ed d0bd a0dc 563d 19a4 103d be0f de3d
00000300: 9c9e 743d cbcc 22bd cc77 123e d924 abbc
00000310: dd8c cd3d 0855 b23d 1921 903d d310 12bd
00000320: 40a5 e23c 6aab dc3d 234a e23d 0e78 c83d
00000330: 6458 57bd 0b9a e9bc 2fcd 85bb 89a7 b73d
00000340: b11e 32bd 6365 62bd 2c21 a0bd 97b7 72bd
00000350: 5a1e bcbd f200 99bd 43af 5a3e 7c6e 343e
00000360: eea3 be3d 727d 153d 9bd1 a9bd 2baa 8abc
00000370: 691f 9ebd 7ba8 b73d a535 0b3d 4945 a73d
00000380: 36c1 cbbd 0581 ccbd 5b02 f73d 6548 28bd
00000390: 5d28 333d 1ff2 c0bd 0b46 e4bc d4ed bf3d
000003a0: 6602 a8bc 88f4 473c 45a4 37bc ed58 1cbe
000003b0: d0d2 cebd ed0b d13d e033 36bd 9a7e 133e
000003c0: 8536 403d f050 51bd 4fe0 d23d 9cdd e2bc
000003d0: 8b78 9e3d 0689 2c3d 0b5a 44bc 831b 1d3c
000003e0: 9443 d73b 7c03 513d 6caa 66bd f069 7c3d
000003f0: 2aac 80bd fc77 ab3d 8b22 d33c f2ac 09be
-0.11596894 -0.13082524 0.13270131 0.12391959 -0.053417407 0.11311391 0.00079080404 0.026499752
-0.009418528 0.021025157 -0.05772339 -0.1431347 0.020468693 0.030560588 0.1688765 0.07027265
0.005791904 -0.02196037 0.022817599 -0.044871647 -0.014526 0.058670133 0.0010125432 -0.21397321
0.12160689 0.0898186 -0.056421228 -0.09742375 -0.081529915 0.026946774 0.078234114 0.105684645
-0.0040525943 -0.056122437 0.09956443 -0.08398167 0.0700441 0.06951106 -0.10095786 -0.13610636
-0.079653114 0.07734698 0.052473422 0.06349252 0.13966912 0.15303439 -0.025177537 0.036234755
0.1348974 -0.09920188 0.15279467 0.0018630737 -0.10138749 0.056966584 -0.042730745 0.13929848
0.1440668 -0.0789293 0.06453263 0.094002075 -0.08759027 0.027530411 0.14980455 -0.004451313
-0.10167973 -0.05753556 -0.019032983 0.07735977 0.038137212 0.14276095 -0.15330239 -0.12652521
-0.0902946 0.06406778 -0.054839283 0.042198926 0.058756623 -0.079567924 0.005471985 0.05634241
0.08493472 0.0443406 0.16645871 -0.05202992 -0.070817985 0.075845644 -0.04554808 -0.079987966
-0.07099162 -0.03666716 -0.070942655 0.03790674 -0.08109102 0.09515846 0.10401879 0.0070522814
-0.036227778 0.14147742 -0.037448883 0.07560132 -0.06667237 -0.11260061 0.069698885 0.0028208827
-0.08991495 0.10084286 -0.07522724 -0.034395132 -0.103480846 0.0507622 -0.0049784556 -0.10773847
0.034678973 0.09952997 -0.0999763 -0.14878987 0.080848046 0.04425301 0.010673612 -0.08777272
0.070405565 -0.07781706 0.062426765 -0.033369094 0.038051188 -0.11919021 0.035784114 -0.110525146
0.02257444 -0.075149834 -0.031017367 0.07490277 0.110611126 0.08756719 -0.07083082 -0.018396165
-0.012458495 -0.068239115 0.09580863 -0.12938212 -0.06791125 0.06188072 0.106804885 0.13746005
0.111279845 -0.08717627 0.06453861 0.12224183 0.059907 -0.0059618056 -0.07821849 0.17012256
0.08479048 0.019261852 -0.10005293 0.0071041463 -0.04487789 -0.00024434563 0.091846175 0.089904666
-0.026582733 -0.08651197 -0.051814158 0.05601939 -0.08770817 0.077304445 -0.032289714 0.023473566
0.0111423535 -0.047850534 -0.017111965 0.053477217 0.001716881 0.029261174 0.053857792 -0.08549907
0.11800568 0.02966861 0.06759808 0.0069773006 -0.07504136 -0.036262326 0.107902266 -0.010846516
0.025015794 -0.044713628 0.032901607 -0.040654846 -0.102014564 0.0524565 0.035312746 0.10842846
0.059721574 -0.039746087 0.14303511 -0.020891594 0.10036633 0.08707625 0.07037563 -0.035660576
0.027666688 0.10774882 0.11049297 0.097885236 -0.05257453 -0.028515836 -0.0040832977 0.08967502
-0.0434863 -0.05527247 -0.07818827 -0.059257116 -0.091854766 -0.074708834 0.2135592 0.17620271
0.09308611 0.036496587 -0.08291932 -0.016926846 -0.07720835 0.08967682 0.033986706 0.08167512
-0.099489614 -0.09985546 0.12060996 -0.041084666 0.043739665 -0.09421181 -0.02786543 0.09371534
-0.020508956 0.012204297 -0.0112085985 -0.15268297 -0.10098803 0.10207353 -0.044483066 0.14403763
0.046926994 -0.05110258 0.1029669 -0.027693562 0.077378355 0.042122863 -0.011984359 0.009589079
0.0065693352 0.051028714 -0.05631487 0.061624467 -0.06282838 0.083724946 0.025773307 -0.1344488

bias f4 [64]
00000000: 21d7 29bd 879a 083d 71f9 503d 32df 2c3c
00000010: b6e6 febd 1c53 2e3d 87c5 683c b60f 9cbd
00000020: 7352 c73d 29df 70bb 7c1f db3d c3d6 d7bd
00000030: 7214 793d fa5e dc3d 70b2 7b3d 1e96 c03d
00000040: 5d4c 343b 5095 b1bd 805a fb3d ab23 d03c
00000050: 9ce7 b93d 1ec4 e03d 6d76 ebbc 1b10 27bc
00000060: 3add 023e 2022 883d cc4e 7dbd ce43 863c
00000070: 3229 f33c 9931 9fbd c5e5 ed3b 392e 2e3d
00000080: a0fb 3b3d 5f3d f9bd 568c 5d3d 3bb7 9abc
00000090: 5027 2e3e 3dd1 e23d 4a86 7d3d 112a a1bd
000000a0: 278a a23d f46e 1ebc 076a 093e e7a3 8bbd
000000b0: ad2b fcbc d095 d83d de2d a83d 37d9 523d
000000c0: aa80 efbd 4483 dabd 881f ab3c b1e7 3d3d
000000d0: 66aa e23c 8ceb fbbd 350c 9f3d 56ea 42bd
000000e0: 9398 6ebd b0bf 953c d9e8 afbd 51f7 fd3d
000000f0: 2a4e 10bd 518f 03be d583 a43c 6251 acbd
-0.04146493 0.033350494 0.051019136 0.010551261 -0.12446348 0.042559728 0.01420725 -0.07620184
0.09732523 -0.0036754108 0.106993645 -0.105390094 0.060810514 0.10760303 0.061449468 0.094036326
0.0027511336 -0.08671057 0.12273121 0.025407633 0.09077379 0.109749064 -0.028742993 -0.010196711
0.12779704 0.06647134 -0.061842725 0.016389754 0.02968273 -0.07773132 0.0072600567 0.04252455
0.045894265 -0.12169909 0.054088913 -0.0188862 0.17007184 0.11075065 0.061895646 -0.07869352
0.07936507 -0.009670008 0.13419352 -0.06818371 -0.030782545 0.105754495 0.082118735 0.051476683
-0.116944626 -0.10669568 0.020889059 0.046363536 0.027669143 -0.123007864 0.07766 -0.04758676
-0.058250975 0.01827988 -0.08589334 0.124006875 -0.035230793 -0.1284764 0.020082394 -0.0841396

weight f4 [3, 64]
00000000: 4f69 d13d 9538 023e cdb2 9ebc db5e 04bd
00000010: 35fe 0d3d ff0e e53c 861a 53bc c88a 9f3d
00000020: aa0f 3dbe fb04 06bd 3a2e 07b7 c0e8 953c
00000030: 6643 aebc 40cd 713c 5764 963d 6c8b c0bc
00000040: 514f fa3d f067 0c3d 6f3b 98bd 68a7 d93d
00000050: c44d 14be e3e5 07be cbe7 443d 041f c83d
00000060: 5d47 0cbe 09cb 0c3d 7aef 88bd 9622 323e
00000070: f1c3 81bd 4161 613e 3e1d 963d e361 22bb
00000080: 867e 4b3d 6797 853b a941 06be 6525 b8bd
00000090: 1d86 a1bd 81be fa3d 9c34 c5bd e865 023d
000000a0: 35db 343d 26b2 823d 14de b5bd 3980 08bd
000000b0: a650 ca3d dfa9 3d3d ccc0 0bbe b000 7a3c
000000c0: 8159 ed3d 003e d0b9 49e2 733d 4aa7 033d
000000d0: c96e 9cbd 90f4 98bc 054e 213e 9327 25be
000000e0: 5f5e 7d3c 5a02 c43d a2e6 babc 5181 cbbd
000000f0: 3e10 e13d c78d d13d dac8 c33b c313 d13d
00000100: a87f 25be ca55 8ebb b46f f43d 370d e13c
00000110: 568d a0bd 3c41 b93d 3308 833d df63 af3d
00000120: ba5b c23d 9f93 533d 7aea a9bd cab2 3cbe
00000130: daf6 febd 78da 263c 74f8 c83c 2f7f c5bd
00000140: 7a9d f43c 4024 16bb f228 993b 0d10 16bd
00000150: 679e b5bd 7591 98bc 63da 543c 16f5 56bd
00000160: b72c 163d 3bb2 71bd 9ba3 bcbd f989 e63d
00000170: 10a6 763d 53fb bebd 79e7 93bd 1557 d5bc
00000180: 7eb6 723d 5e59 dc3d d4fe cebd 0cb5 efbd
00000190: e206 75bd 1874 b83d 8121 2a3d ac94 81bd
000001a0: 0f25 c0bd 73a6 34bc aec5 87bd 6b47 333d
000001b0: b6ba 753d 94b6 c73d 381f 0f3d 8b14 9abd
000001c0: ebaa 003e 76d7 e8bd f616 04be 264a 3dbc
000001d0: 110c fd3b e83e 6fbd 30e7 5d3c 4798 f7bc
000001e0: 301a b6bd f45c 073c fea8 323d f8aa 2bbe
000001f0: 4327 fc3d 992d 0abe 0a3c 3d3d 80fb 84bd
00000200: 4fb1 0b3d 99c8 e03d 51ce 07be 1b98 c03d
00000210: a53b bdbd 5289 8f3a 7807 0ebe b2f3 c4bd
00000220: fc7c 7e3e 9d3c 7b3d bbc7 003e b600 04bd
00000230: 0514 9c3d 71e9 5cbd 5766 283e 4317 9abd
00000240: 4dc3 633d 9e55 e93d 9bf5 f3bc 5039 f8bd
00000250: 5e28 caba 4c96 e83d 674a 4c3d a5e5 063d
00000260: 4335 babd d5d8 5f3d b327 e8bd 3b6e 0c3e
00000270: 05c5 bebd 1633 553d 745f 30bd 3443 19be
00000280: 731c a03d 3a8c b93d 3aa0 debd d660 9b3c
00000290: b6e5 04be c91f e8bd 1f2f 933d 954a ea3d
000002a0: 3c12 f53d 4a38 1cbe 51e9 01be 4082 103e
000002b0: b38c 94bc c2c1 283e 17c5 a8bd a4c0 b63b
000002c0: 86f6 593d 1e11 d03d c580 003d 00e3 ca3d
000002d0: 809a 0ebe c4fc c53d 3957 babd 3510 21be
000002e0: 02f7 45bc 9734 893c cf5f 36bb 306f 803d
000002f0: 6f84 cabd 708c 5cbe 052d 663c e0c6 ffbd
0.10225164 0.12716897 -0.019372368 -0.032317024 0.03466626 0.027961252 -0.012884742 0.07790142
-0.18463007 -0.032719593 -8.05739e-06 0.01829946 -0.021272372 0.014758408 0.07343357 -0.023503982
0.1222216 0.03427881 -0.07433211 0.10627633 -0.1448279 -0.13271289 0.048072618 0.09771541
-0.13699098 0.034373317 -0.066863015 0.17396006 -0.06336201 0.22009756 0.07329796 -0.0024777583
0.04968121 0.0040768865 -0.13110985 -0.089915074 -0.07886908 0.12243367 -0.09629175 0.031835467
0.044154365 0.06381635 -0.08880249 -0.033325408 0.09878664 0.04630458 -0.13647765 0.015258953
0.11589337 -0.00039719045 0.059541974 0.03214196 -0.07638318 -0.018671304 0.15752418 -0.16128378
0.015464394 0.09570761 -0.022815052 -0.099367745 0.10989426 0.1023212 0.005974871 0.102088474
-0.16161978 -0.004343723 0.11935368 0.027472122 -0.07839458 0.090456456 0.06398048 0.08563971
0.09490152 0.051654454 -0.08296676 -0.18427578 -0.12449427 0.010183923 0.024532534 -0.09643399
0.029860247 -0.002290979 0.0046740705 -0.0366364 -0.088681035 -0.018624047 0.012991521 -0.052479826
0.036663737 -0.059007864 -0.09210893 0.11256785 0.060216963 -0.0932528 -0.07221884 -0.0260425
0.05925607 0.10759233 -0.10107198 -0.11704454 -0.059821017 0.09006518 0.041535858 -0.06327185
-0.09382068 -0.011026013 -0.06629501 0.04376928 0.059992515 0.09751621 0.034941882 -0.075234495
0.125652 -0.11369221 -0.12899384 -0.011553323 0.0077223857 -0.0584096 0.013543889 -0.030223979
-0.088917136 0.008261908 0.043618195 -0.16764438 0.12312176 -0.13493957 0.046199836 -0.06493282
0.03410464 0.10975761 -0.13262297 0.09404012 -0.09239892 0.0010950959 -0.13870037 -0.09616794
0.24852365 0.061337102 0.12576191 -0.03222724 0.07621006 -0.053933565 0.1644529 -0.07523968
0.055606175 0.11393283 -0.0297802 -0.121203065 -0.0015423407 0.11356792 0.049875643 0.03293385
-0.0909219 0.054650147 -0.11335697 0.13713925 -0.09314922 0.052050672 -0.04305978 -0.14967042
0.07817926 0.09059949 -0.108704045 0.018967073 -0.12978253 -0.113341875 0.07186722 0.11440007
0.119663686 -0.15255848 -0.1268666 0.14112186 -0.018133497 0.16480163 -0.08240717 0.005577164
0.05321362 0.10159515 0.031372804 0.09906578 -0.13926125 0.09667352 -0.09098668 -0.15728839
-0.012082817 0.01674871 -0.0027828102 0.06271207 -0.09888541 -0.21537948 0.014048819 -0.12489104

bias f4 [3]
00000000: bf5d 1c3d e818 943d f035 b03c
0.03817534 0.07231313 0.021510094

exp_avg f4 [64, 3]
00000000: c817 da39 bc7a 3fb9 df71 3739 0bbc 9cb9
00000010: 3faf c4b9 73f2 80b9 3be4 ac39 c14f 57bb
00000020: ddc2 ba39 be66 3fba 290a 35ba 51eb 0c3a
00000030: a562 c4b9 f041 d4b8 02ef 13b9 f4f6 b139
00000040: 3e85 d639 ff8a 55ba 2c99 8cba 786f e8b9
00000050: 9283 22b7 ab1b a93a 6b33 e7ba 2624 00bb
00000060: d772 b1ba 6f6f 15bb 8863 5b3a 1bfa cab8
00000070: 0ad2 073a 94bd c639 13c5 453a cac5 bcba
00000080: fd13 f5ba 96be ba3a 2002 c8ba d6c7 843a
00000090: 2590 593a 2603 a5ba e637 ddba d89a 1c3b
000000a0: fc4c 93bb a4f0 48bb a9ee 45ba b4cb b6b5
000000b0: 5bf4 aab9 1d00 4139 ad76 11bb e357 18b8
000000c0: 76ae 76b9 00f8 33b9 4440 5139 6e15 13ba
000000d0: 1f79 28ba fcf1 22ba bb78 a73a b5b6 ffba
000000e0: ca0a 8b38 29dc 3d39 bad3 05bb f6bf f5b9
000000f0: 7e1c 3739 5cc8 dc37 9021 623a 7a12 cf3a
00000100: 06c0 bcbb 2e2c 943a af5e 073a 834e c4b9
00000110: 9aa4 8939 64bc 463a 7d7e 29bb d385 4c3b
00000120: 39c8 21ba 4123 d83a 99a3 7139 ea8e 7a3b
00000130: ce30 7d3b c8c8 83ba cbef c439 060b 04ba
00000140: b24f 7139 41e0 22b9 71bd e6b9 3e1f 81ba
00000150: d3a1 963a 2497 92b8 957d b23a cd97 713a
00000160: a560 e13a 1ecc d7b9 ab12 b0ba 5200 0abb
00000170: 35e6 d0ba aa45 723a f088 36ba 09a4 a438
00000180: 1e31 a8ba 8f21 df3a a785 953a 341f 063a
00000190: c227 16ba 7851 2fb9 db0d b5b9 a9a9 31ba
000001a0: 99f7 69b9 82e9 0ebb 55dd a3ba 2917 85ba
000001b0: 5f1e 90b9 e36f 4fb9 8c0c 5d39 f24f 423b
000001c0: 203b 27bb deec e239 237c 813a 6cf0 5a38
000001d0: 66ee 7cb8 4747 04bb 87aa 1abb a2b4 063a
000001e0: 8c49 4a3a 4395 c5ba df2c c3ba ec67 2c3a
000001f0: 57bd 3e3b 3e89 eaba 1ba1 3136 255f 1339
00000200: 4706 393a a490 e9ba 853a 19bb a671 8cbb
00000210: 141e 763a b237 edb9 fe48 6f39 7e8e efb8
00000220: 434e a7b9 ce60 8b39 ff03 ccba f6b8 a1b8
00000230: f9e0 1bba e0be a03a 71ad 33ba 02d4 2eba
00000240: 345f 953a b31f 2d3b 97f0 30b9 21d3 36b9
00000250: d763 103a 07c9 fcb9 d5b6 233a 3612 523a
00000260: 735c 9439 c2e5 313a fdac 05ba 9f5c a9b9
00000270: 7830 84b9 ffaf 9334 4351 ffb8 f0ae 723a
00000280: fe58 1eba b710 4338 9ad7 553a 9e67 983a
00000290: f644 ffb9 865a 33ba fac8 593a 12ed 51ba
000002a0: 0e06 b8b9 10e9 4e3a 2e34 4a39 a45a ba3a
000002b0: 19a4 4bbb 6da7 b339 c183 c437 20aa a938
000002c0: c52d 0aba f2e8 b2b7 b542 073a 4a1b a539
000002d0: a1fc 25bb 208a 28bb 4253 12ba 5ea1 0a3b
000002e0: d3e0 17bb 401a 113a 2f29 913b dab0 95bb
000002f0: 22e6 b139 86c8 a03a 837c 06bb fabe 0a3a
0.0004159792 -0.00018260902 0.0001749466 -0.00029894742 -0.00037514602 -0.000245947 0.0003297644 -0.0032853934
0.0003562187 -0.00073013816 -0.0006906116 0.0005375641 -0.0003745753 -0.000101212296 -0.0001410805 0.00033944065
0.00040916534 -0.0008146017 -0.0010726801 -0.0004433354 -9.686586e-06 0.0012901922 -0.0017639225 -0.0019552796
-0.0013538253 -0.0022802015 0.00083690183 -9.6786964e-05 0.00051811396 0.0003790675 0.000754432 -0.0014402207
-0.0018697974 0.0014247473 -0.0015259422 0.0010130357 0.0008299372 -0.0012589439 -0.0016877621 0.0023896005
-0.0044952612 -0.003066101 -0.0007550517 -1.3619342e-06 -0.00032606986 0.00018405957 -0.002219598 -3.6321475e-05
-0.0002352538 -0.00017163157 0.00019955734 -0.0005610798 -0.000642674 -0.0006215868 0.0012777069 -0.0019509407
6.630046e-05 0.0001810646 -0.0020420388 -0.00046873064 0.00017462854 2.6319343e-05 0.0008626217 0.0015798353
-0.0057601957 0.001130467 0.000516395 -0.0003744253 0.00026253314 0.0007581173 -0.0025862746 0.0031207695
-0.0006171498 0.0016489999 0.00023044496 0.0038232156 0.0038633826 -0.0010054344 0.00037562693 -0.0005037043
0.0002301324 -0.00015533065 -0.00044010163 -0.000985123 0.0011492319 -6.989975e-05 0.0013617749 0.00092160405
0.001719494 -0.00041160075 -0.0013433298 -0.002105732 -0.0015937748 0.0009241948 -0.00069631543 7.850683e-05
-0.0012832021 0.0017023551 0.0011407629 0.0005116344 -0.000572797 -0.0001671965 -0.00034533333 -0.00067772955
-0.00022312849 -0.0021806662 -0.0012501875 -0.0010153997 -0.00027488449 -0.0001978274 0.00021080876 0.0029649702
-0.002551742 0.0004328256 0.0009878915 5.219916e-05 -6.0303508e-05 -0.0020184086 -0.0023600177 0.0005138611
0.0007716648 -0.0015074391 -0.0014890692 0.0006576765 0.0029104555 -0.0017893685 2.646883e-06 0.00014054457
0.00070581253 -0.0017819596 -0.0023380828 -0.004286009 0.0009388637 -0.0004524566 0.00022820008 -0.00011422949
-0.00031911032 0.0002658427 -0.0015565156 -7.71153e-05 -0.00059463043 0.0012263916 -0.0006854153 -0.0006669165
0.0011396171 0.00264166 -0.00016874295 -0.00017435524 0.00055080414 -0.00048214963 0.00062452006 0.0008013578
0.0002829764 0.0006786251 -0.00050993246 -0.000323032 -0.00025213114 2.7508938e-07 -0.00012174484 0.0009257635
-0.00060404825 4.650719e-05 0.00081574323 0.001162756 -0.0004868877 -0.0006841797 0.0008307841 -0.00080080435
-0.00035099726 0.00078930054 0.0001928366 0.0014217687 -0.0031073152 0.00034266282 2.3426373e-05 8.090236e-05
-0.00052711024 -2.1327727e-05 0.00051597814 0.00031491584 -0.002532758 -0.0025717095 -0.00055818644 0.0021153311
-0.0023174777 0.00055352226 0.0044299583 -0.0045682015 0.00033931533 0.0012266792 -0.0020520992 0.000529274

exp_avg_sq f4 [64, 3]
00000000: c303 fd35 eba1 3936 54e9 3536 295a 5735
00000010: 3435 9f35 2f9c eb35 f972 a536 d35b 3036
00000020: 044a 3735 c99f 1335 4918 2a36 9e44 b635
00000030: 9970 a235 506c 9334 06d5 9933 71f8 8f36
00000040: a6c9 a336 742d af36 4f97 8935 f4dd 4534
00000050: 9bad e934 bbb5 2937 61ad e037 f479 ab36
00000060: 7771 a936 d048 8737 41f4 1436 5f98 3b34
00000070: 655c 1535 8d74 8435 f534 c537 683d ac36
00000080: dd07 7236 4a9a 4837 725f b237 96b1 dc36
00000090: aadd 0137 61b3 1b37 44c7 e736 5c28 bb36
000000a0: a528 1337 e35e 0036 2e62 d635 3f71 cf35
000000b0: 6d56 2435 4a4f d136 ee58 4137 0fef 3336
000000c0: c4ee b335 1e69 de35 9c44 4d35 50f7 df36
000000d0: 8396 d236 9086 3336 435c c536 5ec4 1b37
000000e0: 01c9 f635 e148 dc35 1945 c936 1431 3d36
000000f0: 0309 0a37 d127 bb36 69d5 3c36 ed1d a836
00000100: f184 a636 9ae0 e635 da22 cf36 fc34 5636
00000110: b243 7836 1d40 d936 6654 c136 f4ab 0d36
00000120: 7f63 ee35 727e 0836 cf77 8c35 a752 1b37
00000130: 27f5 2838 78ff 2d36 9aed 1735 b66c 6834
00000140: c800 8534 d17d c535 05c7 8336 61b8 a336
00000150: 1f83 ae36 267c 1837 3f6b d035 5f6a 2936
00000160: 4200 7237 e99b c435 88d4 7037 fdc8 2f38
00000170: 3dc0 5336 016d 9736 4081 1436 2288 5835
00000180: 4c83 0d37 4e48 df35 d266 8436 7528 db36
00000190: 262f cf36 3b24 b236 0161 5236 cdae 6236
000001a0: 59f3 e236 f5bd db37 9f30 1837 b3c9 5b36
000001b0: 4861 8835 07e6 a534 5208 7235 8f33 8136
000001c0: f05b 0b36 1c2e a134 1589 8836 8d2c a036
000001d0: c305 9936 824e 1436 721d 1436 8e95 8435
000001e0: 74d2 d036 b228 e735 9bca 6836 02a8 6d36
000001f0: 3687 2537 5b51 cb35 62c7 ac35 a0a6 b235
00000200: e8b4 0a35 696d d536 bc6b bc37 aae5 4e37
00000210: 01d2 ed35 0cae f435 39cd 0836 dc28 6b36
00000220: 121e a236 8d61 9e36 76f5 7b36 f15a 2837
00000230: 52ca 5636 1e9a fa34 dd80 ab34 5c7c c734
00000240: d475 4036 b781 6636 767f 6236 0205 7b36
00000250: 7024 9535 be4d 6d34 6a8d b536 c47b b137
00000260: df58 c335 4b86 0037 18ad 3837 d5be 9135
00000270: 0f51 6a36 ba2b f135 f2b3 2236 e5bd 7e37
00000280: 79c3 a237 654f 1637 df56 d135 f379 8136
00000290: dffe 0636 492c 2635 e647 4235 84d2 1b35
000002a0: fcb3 1d36 9bc1 0537 bc83 2435 5cf8 ba36
000002b0: 68f9 d636 b3b6 8836 751a a534 c9cb cf34
000002c0: 13f6 cd34 2c88 cf37 09cc 1237 05ac 5236
000002d0: 2ec7 e035 b3a6 6035 a1aa 3035 78b2 0f36
000002e0: 9ba2 cc36 1d08 0736 04e2 3736 f889 3836
000002f0: 621b 2c35 64b9 6836 4be2 3e35 4843 0c35
1.8851064e-06 2.7661397e-06 2.7106917e-06 8.022494e-07 1.1861907e-06 1.755432e-06 4.930768e-06 2.6279492e-06
6.828052e-07 5.4994285e-07 2.534611e-06 1.3580027e-06 1.2102711e-06 2.745969e-07 7.1633664e-08 4.2906545e-06
4.8812535e-06 5.220698e-06 1.0251332e-06 1.8427801e-07 4.3525947e-07 1.0115497e-05 2.6783617e-05 5.1103943e-06
5.0498015e-06 1.612716e-05 2.2195893e-06 1.7471164e-07 5.564128e-07 9.868687e-07 2.350889e-05 5.133148e-06
3.6065387e-06 1.1956852e-05 2.1263699e-05 6.5771846e-06 7.740609e-06 9.280485e-06 6.907534e-06 5.5777327e-06
8.771346e-06 1.9128718e-06 1.5972817e-06 1.5455661e-06 6.1220527e-07 6.237916e-06 1.1524402e-05 2.681223e-06
1.3406029e-06 1.6570882e-06 7.646829e-07 6.674709e-06 6.2760096e-06 2.6751404e-06 5.881798e-06 9.28444e-06
1.8386928e-06 1.6412488e-06 5.998311e-06 2.8191762e-06 8.227539e-06 5.5776695e-06 2.8138404e-06 5.010274e-06
4.962662e-06 1.7201703e-06 6.173138e-06 3.1919326e-06 3.6994284e-06 6.4745677e-06 5.7616735e-06 2.1110727e-06
1.7761339e-06 2.033918e-06 1.0465682e-06 9.257964e-06 4.0282637e-05 2.5927711e-06 5.659764e-07 2.1646233e-07
2.477375e-07 1.4714261e-06 3.927273e-06 4.879243e-06 5.2008686e-06 9.088812e-06 1.552842e-06 2.5244879e-06
1.4424384e-05 1.4648514e-06 1.43545985e-05 4.1910436e-05 3.1553348e-06 4.5128404e-06 2.2128952e-06 8.066437e-07
8.434825e-06 1.6635838e-06 3.9458764e-06 6.5314184e-06 6.1745695e-06 5.309031e-06 3.1348902e-06 3.3778372e-06
6.7636543e-06 2.619529e-05 9.0712265e-06 3.2750947e-06 1.0161102e-06 3.0901012e-07 9.0164133e-07 3.850502e-06
2.0766129e-06 3.0022136e-07 4.0690743e-06 4.773558e-06 4.560426e-06 2.2099416e-06 2.2070858e-06 9.878293e-07
6.223383e-06 1.7222685e-06 3.4688626e-06 3.5413545e-06 9.866248e-06 1.5148356e-06 1.2873027e-06 1.3310528e-06
5.167226e-07 6.3606317e-06 2.2461514e-05 1.233203e-05 1.7718995e-06 1.8230071e-06 2.0385035e-06 3.5041512e-06
4.831477e-06 4.7201233e-06 3.7544792e-06 1.0034754e-05 3.200625e-06 4.6678264e-07 3.1944992e-07 3.7157122e-07
2.8678814e-06 3.4348175e-06 3.3750816e-06 3.740483e-06 1.111197e-06 2.2100627e-07 5.410683e-06 2.1157677e-05
1.4554497e-06 7.660662e-06 1.1007556e-05 1.0858881e-06 3.49159e-06 1.7968625e-06 2.4244623e-06 1.5183793e-05
1.9402929e-05 8.959182e-06 1.5596996e-06 3.8586963e-06 2.011591e-06 6.190426e-07 7.237526e-07 5.804834e-07
2.3499588e-06 7.972495e-06 6.128646e-07 5.572145e-06 6.4067317e-06 4.074385e-06 3.0752895e-07 3.8705028e-07
3.8363268e-07 2.4739733e-05 8.749784e-06 3.1392567e-06 1.674727e-06 8.368908e-07 6.5813407e-07 2.1412543e-06
6.0986035e-06 2.012129e-06 2.7400683e-06 2.7498445e-06 6.411484e-07 3.4678606e-06 7.1109815e-07 5.225197e-07

exp_avg f4 [64]
00000000: 5976 f0b8 4e28 bab9 85cb 23bb 9263 9dba
00000010: b242 4cb9 7cff 07ba d823 1fba 12bd 4eba
00000020: 2fd7 00bb 7788 223a 0e75 b2ba 3052 cbba
00000030: 5fb5 06bb 04ed c0bb c877 2eb8 b1f5 1dbb
00000040: f766 aa39 dc5d 18ba b2f0 34ba 1738 edba
00000050: 291a 9b39 ee2f a0bb 889f e7ba fce9 36bb
00000060: 412b 383b 9e7c 0d3b 1da7 76ba c837 27ba
00000070: 295c aeb9 f076 b93a 896a 11bb 9935 1dba
00000080: 45b0 c23a ed6a 61ba 8ffb 05ba 3410 74b9
00000090: 5557 9db8 ed3d fdba a1bd 67ba 422a fcba
000000a0: f138 bfba 72cc 6b3b 3e83 b539 2ea3 25bb
000000b0: 7224 aaba 07f1 0bba 0fe5 1f3a ac20 32ba
000000c0: c092 193b f196 683a 178f 883a d3fb 16b9
000000d0: 2a60 24b9 8ba3 14ba 8ee5 8d3a 56d9 993a
000000e0: a798 963a 2c4d 8ebb 5902 c1b8 8010 b2b8
000000f0: 57a8 feba 314e 0ebb 8da5 52bb 1e8b 61ba
-0.00011466136 -0.00035506714 -0.0024993133 -0.0012007824 -0.00019479802 -0.00051879114 -0.000607071 -0.000788645
-0.001965951 0.00062001444 -0.0013615207 -0.0015512165 -0.0020554883 -0.0058876295 -4.1596388e-05 -0.0024102742
0.00032501642 -0.0005812326 -0.00069023215 -0.0018098381 0.00029583395 -0.004888526 -0.0017671445 -0.0027910462
0.0028101953 0.002158917 -0.0009409057 -0.00063788565 -0.0003325653 0.0014149826 -0.0022188744 -0.00059970614
0.0014853558 -0.0008599002 -0.00051110325 -0.0002327569 -7.50261e-05 -0.0019320823 -0.00088402076 -0.0019238668
-0.0014589113 0.0035980013 0.00034620793 -0.0025274265 -0.0012980832 -0.0005338345 0.0006099501 -0.00067950296
0.0023433417 0.00088725897 0.0010418621 -0.00014398927 -0.00015676083 -0.0005670122 0.0010825859 0.0011737745
0.0011489586 -0.0043426957 -9.2033944e-05 -8.490775e-05 -0.0019428831 -0.0021714086 -0.0032142133 -0.0008603799

exp_avg_sq f4 [64]
00000000: b083 c335 bf5f a134 a4b9 1836 174a 0c35
00000010: 93a4 d633 948a 8036 ed72 0434 b50b 2437
00000020: 0fe7 0e37 015e 8334 18ac a136 96e0 4337
00000030: 8a0a 2c37 d0fc a936 fc8b e434 1ddd 0a37
00000040: 5c69 0435 7031 9835 0516 a136 28ee 8f36
00000050: b024 a135 69bc 4836 1870 ec35 dad3 7a36
00000060: 2aa4 1f36 e77e 3337 363b 6e35 db23 2936
00000070: e73a be35 575c c636 ef53 bb37 ae5f 9e35
00000080: 1e19 5136 eb52 d635 ccc7 cc36 c0d1 9d36
00000090: 4469 4334 ef87 0336 2fab bf36 d197 2e35
000000a0: 8efb 3736 3afa 9136 16bb 1435 949a 2137
000000b0: 2f43 5635 4d9f 6f36 e027 9c35 cadc a835
000000c0: e2d0 1a36 2b4c be35 4a7e 2737 89aa ce36
000000d0: 0d11 8e35 9440 8636 44d0 5b36 e47f 5535
000000e0: db26 9a36 792c 7936 6e8e ea34 0fb9 a836
000000f0: 75c2 2535 13d2 f235 8a02 c735 11c1 ff34
1.4566958e-06 3.005825e-07 2.2757822e-06 5.226188e-07 9.9950874e-08 3.83083e-06 1.2335268e-07 9.7778875e-06
8.517657e-06 2.4469048e-07 4.8182083e-06 1.1675196e-05 1.0254453e-05 5.0660237e-06 4.2570161e-07 8.276923e-06
4.932715e-07 1.1339271e-06 4.8007373e-06 4.289457e-06 1.2006112e-06 2.9911992e-06 1.7615994e-06 3.7376217e-06
2.3788402e-06 1.0698778e-05 8.874807e-07 2.5203833e-06 1.4173246e-06 5.9116096e-06 2.2331222e-05 1.1799764e-06
3.1158047e-06 1.5968375e-06 6.102933e-06 4.7033827e-06 1.8199086e-07 1.9599645e-06 5.712172e-06 6.5040973e-07
2.741555e-06 4.350467e-06 5.540654e-07 9.632338e-06 7.981898e-07 3.57065e-06 1.1634511e-06 1.2581233e-06
2.3069374e-06 1.4178271e-06 9.98338e-06 6.1591313e-06 1.0584787e-06 4.001029e-06 3.275477e-06 7.953479e-07
4.594081e-06 3.7129778e-06 4.3689528e-07 5.028334e-06 6.175026e-07 1.8091545e-06 1.4827394e-06 4.7637926e-07
