models/model_cavity_nu0.01_U1_20x20_epochs5000_noadaption_testpcnt0.5.pt (torch, 187059 bytes, 30 tensors)

weight f4 [64, 3]
00000000: 7dd0 3b3f ab5b 3b3f cc35 74bd cac5 4cbd
00000010: 18e2 0ebe 9ad8 d2bd 18df c0bd 0bc5 74be
00000020: 51c4 68be d4de bcbb e292 eabd bf28 6b3e
00000030: 1fc7 cc3d 5a08 2fbf 43c0 55be a080 793d
00000040: 795a dabe a3b5 8cbe 76ac b53b b076 923f
00000050: 6a0d 25be 1ef3 123f 6718 12bf c742 39be
00000060: 84eb 18be 1c10 853e b40e 1cbf bde2 073f
00000070: 8073 a9be 1ffa 38be 8272 d73e f8fe f1be
00000080: bd30 6e3e 767d fe3e 2f6a 07bf 78b0 fb39
00000090: b7e3 63bd 4d79 cdbd 9494 1fbe 929e 26be
000000a0: d789 89bb 9851 57be e217 663e 946f e93e
000000b0: ae32 9b3e b792 483d 4e3e cebe 4075 78be
000000c0: 20d7 abbd f191 19be 75e7 9cbe 9e6c 3bbf
000000d0: 8512 c4bd 89ed 0fbf b4ae b7be 5574 2a3e
000000e0: 8559 02be a4d0 f33e 218f bc3e 36ef 19be
000000f0: 8938 35bc 1226 5abd 81bb 70be 0223 c93e
00000100: d388 13be 49e8 873e f534 0c3f fee8 34bf
00000110: 3c27 64bd 2034 3abe e849 3bbe bdf4 babb
00000120: 0217 bbbe 6b35 7d3e cd7a 5939 3145 483d
00000130: c2e7 403f 56d2 eb3d 3f0c 163e 67ad 1e3f
00000140: e388 21bb 947a b0be 55d5 9b3e 2b19 4fbe
00000150: 73c3 063c f26c d23e f97c ddbd a0ad aa3e
00000160: 86e9 53bd cf9b 8e3e b2d1 c33e c111 afbe
00000170: ff58 08bd 017e 17bf dbaa 6ebf 33cf 723d
00000180: bc50 e6be 7647 753e fd26 abbd 2eee 043e
00000190: 6206 75bf 4c59 8ebe 9673 e03b 521b 50bd
000001a0: e2cb a63e 8de4 2abf 05d0 cc3e 54a2 d23e
000001b0: 264a b33d e89c 3ebf 0749 7ebe 56b8 633d
000001c0: 2fa3 04bf bcab 2ebe 194e 543e 64fc 54bf
000001d0: 3795 08be f3f4 3cbd 7845 21be 794e 9138
000001e0: dbbf 2abf fef1 343f c46f 90be bdd7 1d3e
000001f0: f0dc 183f 6955 f6bd fc75 6dba dd37 73bc
00000200: 38df 353e ad6f 583d 2b2a 223f fb2b d2bc
00000210: 9df7 cc3e 3003 043e b89e 993e f8ea 2e3e
00000220: 0bf3 16bf 48ef bd3e 4d0e 113f 5f76 0bbe
00000230: 79c1 723c 5af8 f0be a292 b53e c17b 0a3a
00000240: 5f33 4d3f c4e6 86be c075 babd 81f9 cf3d
00000250: 1874 703f ca34 87bd 2743 4a3c 0fb4 4f3f
00000260: e720 163e 46b8 283f fde4 443f d101 23be
00000270: 0101 a1bb 11ce c0bd 14b6 c7bd 9e20 383e
00000280: 1b7f 9c3e 2407 2dbf 476b 3fbe 8ea8 a73e
00000290: e2fe abbe ebd8 1fbf 0c9c 413f 0f1f 3abd
000002a0: dd1b 263f 4a20 133c 6e88 15bf e649 e63e
000002b0: 5ff9 b93e 89b7 10bd e898 efbe 0578 263e
000002c0: 9513 ae3b d083 dd3e 07c6 f13e 2cda 45bd
000002d0: 71b1 4f3e fc49 3f3f e577 d1bd 958b 71bf
000002e0: 1955 3ebf fcda 3f3e 12c1 9e3e 5a1f d53d
000002f0: fc9c 753e 2a44 8dbc 4b91 adbe 1866 1bbe
0.73365 0.7318675 -0.059621617 -0.049993314 -0.13953435 -0.1029522 -0.09417552 -0.23903291
-0.22731139 -0.005763868 -0.11453797 0.22964762 0.09998917 -0.6837212 -0.20874123 0.060913682
-0.4264715 -0.27482328 0.0055442406 1.144247 -0.16118398 0.5740222 -0.57068485 -0.1809188
-0.14933592 0.25988853 -0.60959935 0.5308035 -0.33095932 -0.18064164 0.4207955 -0.47264838
0.2326078 0.49705094 -0.528964 0.0004800593 -0.055637088 -0.10032902 -0.15584022 -0.16271427
-0.00419734 -0.2102722 0.22470048 0.4559294 0.30312103 0.048968043 -0.4028191 -0.24263477
-0.08390641 -0.14997078 -0.30645338 -0.7321261 -0.09573845 -0.56221825 -0.35875475 0.1664594
-0.12729461 0.47620118 0.3682795 -0.15032658 -0.011060842 -0.053258963 -0.23509027 0.3928452
-0.14407663 0.26544407 0.54768306 -0.7066802 -0.05570148 -0.18183947 -0.18289912 -0.0057054446
-0.3654099 0.24727409 0.0002074048 0.04889411 0.75353634 0.11514728 0.14653109 0.6198334
-0.0024648241 -0.3446852 0.30436197 -0.20224445 0.00822531 0.41098744 -0.10814852 0.3333559
-0.051736377 0.27853248 0.38245922 -0.34193233 -0.033288 -0.5917664 -0.93229455 0.05927963
-0.4498347 0.23953041 -0.08357046 0.12981483 -0.95712864 -0.27802503 0.0068497164 -0.050807305
0.32577425 -0.6675499 0.40002456 0.41139472 0.08754377 -0.7445817 -0.24832545 0.05559572
-0.518115 -0.17057699 0.20732917 -0.8319762 -0.13338171 -0.04613204 -0.15749156 6.9287555e-05
-0.66699 0.7068175 -0.2821027 0.15414329 0.59712124 -0.120280094 -0.00090584136 -0.014844862
0.17760932 0.052840877 0.63345593 -0.025655737 0.40032664 0.12891841 0.30003905 0.17081821
-0.58964604 0.3709662 0.56662446 -0.13619374 0.014816635 -0.47064477 0.35463434 0.0005282723
0.8015651 -0.26347935 -0.0910449 0.10155011 0.93927145 -0.066018656 0.012345112 0.8113412
0.14660989 0.6590618 0.7691191 -0.15918662 -0.0049134498 -0.09414304 -0.097515255 0.17981192
0.30565724 -0.6758902 -0.18693267 0.32745785 -0.33592898 -0.62440366 0.75628734 -0.045439776
0.64886266 0.008979866 -0.584113 0.44978255 0.36323068 -0.035331283 -0.46796346 0.16256721
0.005312393 0.43264627 0.47221395 -0.048303768 0.20282532 0.74722266 -0.10227946 -0.9435361
-0.743486 0.1873588 0.31006676 0.104063705 0.23985666 -0.017244417 -0.33899912 -0.15175664

bias f4 [64]
00000000: cd38 243e 961e fbbe d2c9 1cbf a237 18bf
00000010: 0f86 b1be ffc0 14bf 0004 c7be aed7 9cbc
00000020: 8d5d 8ebf 086b bebe 21e8 85be d697 25bd
00000030: a6d4 06bf ecee 25bf e29b ee3e a9ac 35bf
00000040: fe43 5dbf ccb2 34bd a286 97bd 2c3b 683e
00000050: 938f 05bf 0b78 d33e 6abd 95bd dc7c 1cbf
00000060: 45c7 733e 8fc4 913e 3474 bf3e 362a 0d3d
00000070: 8795 4ebf a394 893e a09f 05be b533 9a3e
00000080: e59b b53e 848d c2be 9157 28bf 3982 0d3e
00000090: d6d8 ecbe baf0 afbe 5d50 94be f138 b1be
000000a0: c4d3 873c 7e0e 9d3e ca90 aabe a975 733e
000000b0: 3cca 213e b211 1f3d 6572 2f3d 0a1d 823e
000000c0: 31f6 5e3e ab9b 943e 15dc 293e b499 203d
000000d0: 98f7 a9be bc51 96bf 6c63 31bf c7a1 0dbd
000000e0: d4d5 503e 3adf 6a3e 9de7 0d3f f6af 843d
000000f0: c8de 0f3e 9414 993e dd2a 563e 8af7 11bf
0.16037293 -0.49046773 -0.61245453 -0.5945989 -0.3467259 -0.5810699 -0.3887024 -0.019145813
-1.11223 -0.37191033 -0.26153663 -0.040428005 -0.52668226 -0.6481769 0.46603304 -0.70966583
-0.8643187 -0.044115826 -0.07398726 0.22678822 -0.521722 0.41302523 -0.073115185 -0.6112802
0.23806484 0.28470275 0.37393343 0.034464084 -0.8069691 0.26871213 -0.13049173 0.30117574
0.354705 -0.37998593 -0.65758616 0.13819207 -0.46259183 -0.34363347 -0.28967562 -0.34613755
0.01658047 0.3067512 -0.3331359 0.23775353 0.15799803 0.038835235 0.042833705 0.2541278
0.21773602 0.29025015 0.16587861 0.039209083 -0.33196712 -1.1743693 -0.6929233 -0.03457811
0.20394069 0.22936717 0.5543154 0.064788744 0.14049828 0.29898512 0.20914789 -0.5701834

weight f4 [64, 64]
00000000: 0a04 94be a242 0b3e 66bc 2e3c 22b5 4f3e
00000010: 61d4 d43c f4fb ad3d 0289 8b3e eb6c 343e
00000020: 5fa1 e63e 0cc9 ccbd fd7e bfbd 5b20 ba3a
00000030: 29d1 163e 4d50 453e 0c34 b0bb 4518 93bd
00000040: e9eb 5d3e 7852 383e 81ab 0cbe 66e6 4a3d
00000050: ebea 893c 271a e1bd d158 3a3e a622 143e
00000060: 820f 593d 82c5 25bd 38c0 dfbc f953 2b3d
00000070: 395c 0c3d f128 c8bc ac41 833d d4db 6f3e
00000080: bcd4 4f3d dde4 b0bd 802b ddbd b669 483e
00000090: 31cb 933c 68a0 3a3d d158 183d eb23 d3bc
000000a0: ad1e 453e 8968 feb9 6566 24bd c2a0 873c
000000b0: 3e2d dd3d e572 84bd e839 1b3e 0756 903d
000000c0: 61ff 0ebd e0a8 083e 6b83 da3d df97 3abe
000000d0: 7cd9 033e e9ae e1be 5c61 b03e 3eda e0bc
000000e0: 64bf 7d3d aca5 053e ee13 ba37 b52e 82bb
000000f0: c1ea 1d3c 9ec3 67be db20 523e 156a 6cbd
00000100: 144b cdbd bdde 55be 70b8 013e 39d4 bd3c
00000110: d251 1abe 63aa b3bd 3927 6e3c 794f adbd
00000120: c985 fc3c 0932 973d ffcd d63a f457 ccbe
00000130: 189c 743d 19f5 ef3d fe50 c8bd 0220 c93d
00000140: 8c08 213e 4a66 1abd ec8d 3c3d fc13 933d
00000150: bb87 63be fcd2 2ebe 9d40 2bbe c7a1 0e3d
00000160: c6e2 9fbe a249 20bd 3aca 36bd e121 10be
00000170: 8a85 e8bc 5c0f 003e 9ac0 34bc aa66 8cbe
00000180: 0564 85bd cf1a 20bd 538d 433e c988 0ebe
00000190: 944b 4b3e 473d 113e 78d8 25be e504 c63d
000001a0: 5592 713d 0ba7 9abd 1586 263e a60b a83d
000001b0: a33a 02be 3849 263d 2607 53be ab74 0b3e
000001c0: 6a98 1dbd b667 f8bd a552 aebc e5a4 66bc
000001d0: 3380 803d 28f8 263d 7366 1f3e 13a4 8abd
000001e0: afb0 58be 5851 283b b8d0 a9be ba97 1dbe
000001f0: 05d3 a03d 319d 70bd 7db2 28bd ace7 153e
00000200: f06a efbd 0a18 f7bd 3b20 4b3c b672 7dbd
00000210: 88e8 05be b7cb 3e3d 2843 babd 235b edbd
00000220: 0426 d5bb 68a6 adbd ccd8 aa3d a4ac efbc
00000230: 127d 67bd 4947 02bd 40d1 54bd 7515 c83c
00000240: 649b b4bc fc32 9dbd cbd9 02be d3db d4bd
00000250: 3c8a aa3c 3e9d f7bd 71db 70be c696 c7bc
00000260: cb62 85bd 4c4f 16bd 1583 bfbc 3bf8 903d
00000270: a1b3 d6bd cb25 76bd 7c8b bebd 5ac7 9abc
00000280: ca51 f03c 6623 9e3d d792 db3c e186 76bd
00000290: b641 b43d ba84 62bd f2d0 b83d db3f 82bd
000002a0: ac7e 08be 44eb bd3c bd9c 2b3c 572b 27be
000002b0: 5004 dbbb e5b3 abbc 762b 943c c4a2 ee3d
000002c0: 7137 28bd f4ac bcbd 95f2 1bbc 977a cc3d
000002d0: 848e 52bd 48f2 823a 5309 9dbc 8a89 57bd
000002e0: 03da b73d 152b 61bd 6c7c 9abc f1e2 ae3d
000002f0: ad63 f8bd 04d8 77bb 9f89 913d dc60 56bd
00000300: 6900 5cbc 2923 1c3e ef6d 79be 73b0 963d
00000310: 6b4f ba3c ea3c 2f3e 9ab9 8dbd 4d35 61bd
00000320: ac11 6abd f070 7ebe 9620 fabc 0366 b33c
00000330: b919 2dbe b9ce b5bd 4741 8f3d 2cc9 bc3d
00000340: 407f 3c3d 4460 54bd 035a a83d dedd a0bd
00000350: 1640 a5bc e1c2 86bc ddd7 9dbe ec90 4d3d
00000360: 8761 e5bd af3b 17be d813 43be ace3 80bd
00000370: d8b8 bfbd 0850 00bc 66a8 ebbd d9c5 a93c
00000380: d600 29be 3d75 96be cf81 ee3d 3984 a83b
00000390: ba48 2ebe 7bbe d23a 67dd 5c3d 37f8 0c3e
000003a0: 8c7a ce3d 151b 08be 7d1f 6abd 4bb1 7abd
000003b0: 3f97 383d ad0d acbd 74ee 26be ae00 c53d
000003c0: ffbe b7bd 3667 253d 79ac 37be 8d77 88be
000003d0: 1f9d f3bc 46fc 243f 530a 35be a865 aabd
000003e0: 0cc6 903d 667e 23bd 74d3 173e 0f56 e1bd
000003f0: 4ec8 88be dced 27be ad6c 81bd e977 9f3d
-0.28909332 0.13599637 0.010665035 0.2028394 0.025980176 0.08495322 0.27252966 0.17619674
0.4504499 -0.09999284 -0.09350393 0.0014200317 0.14728226 0.19268914 -0.005377298 -0.071823634
0.21672024 0.1800021 -0.13737299 0.04953613 0.01683565 -0.10991316 0.18197943 0.14466342
0.052993305 -0.04047156 -0.027313337 0.04182813 0.034267638 -0.024433585 0.0640901 0.23423702
0.05073999 -0.08637402 -0.107993126 0.19571576 0.018041225 0.04556313 0.037194077 -0.025773963
0.19249983 -0.0004852454 -0.040136714 0.016556147 0.10799645 -0.06467227 0.15158808 0.070476584
-0.034911517 0.1334567 0.10669597 -0.18221997 0.12875932 -0.44078758 0.3444928 -0.027447816
0.061950102 0.1305148 2.2182208e-05 -0.003972853 0.009638489 -0.22633216 0.20520346 -0.057718355
-0.10024086 -0.20885749 0.12668014 0.023172485 -0.15070274 -0.08772733 0.014535719 -0.08462424
0.030825512 0.0738259 0.0016388296 -0.39910853 0.059719175 0.117166705 -0.09781073 0.09820558
0.15725917 -0.037695207 0.046033785 0.07181546 -0.22219746 -0.17072672 -0.16723867 0.03482225
-0.31227702 -0.03913272 -0.044626452 -0.14075424 -0.028383989 0.12505859 -0.011032248 -0.27422076
-0.06513218 -0.039088067 0.1909688 -0.13919367 0.1985305 0.14183532 -0.16195858 0.09668902
0.058977444 -0.07551392 0.16262086 0.08205347 -0.1271768 0.04059717 -0.20608196 0.13618724
-0.03847543 -0.12129156 -0.021279642 -0.0140774 0.06274452 0.040764004 0.15566425 -0.06769576
-0.2116115 0.002568325 -0.33167052 -0.1538991 0.07852749 -0.05874366 -0.041185845 0.14639157
-0.116903186 -0.12065132 0.012397821 -0.061876975 -0.13076985 0.046580996 -0.0909484 -0.115896486
-0.006504776 -0.08479005 0.08342132 -0.029257126 -0.05651576 -0.031806264 -0.05195737 0.024424294
-0.022046752 -0.0767574 -0.12778394 -0.10393491 0.020817868 -0.120905384 -0.2352121 -0.024363887
-0.06512984 -0.036696717 -0.023377934 0.07078596 -0.1048348 -0.060094636 -0.09303948 -0.018893886
0.029335875 0.077215955 0.026803417 -0.060187224 0.08801596 -0.05530236 0.09024228 -0.06359836
-0.13329571 0.023183472 0.010474381 -0.16325127 -0.0066838637 -0.020959804 0.01808713 0.11652139
-0.041068498 -0.09212676 -0.009518285 0.0998432 -0.051405445 0.0009990418 -0.019169485 -0.0526214
0.08977129 -0.054972727 -0.018858157 0.085393794 -0.12128387 -0.0037817964 0.07106327 -0.052338466
-0.013427832 0.15247788 -0.24358343 0.07357874 0.022742948 0.1711308 -0.06920166 -0.054982472
-0.05714576 -0.2484777 -0.030533116 0.021899229 -0.16904344 -0.0887732 0.069948725 0.09218058
0.046019793 -0.05184962 0.082202934 -0.07854818 -0.02017216 -0.016450347 -0.30828753 0.050187036
-0.112002425 -0.14768861 -0.19050539 -0.06293425 -0.09361428 -0.007831581 -0.11506729 0.020724224
-0.16504225 -0.2938632 0.11645853 0.0051427153 -0.1701993 0.0016078496 0.053922083 0.13766561
0.10081968 -0.13291581 -0.057158936 -0.061204236 0.045066115 -0.08401046 -0.163019 0.0961927
-0.089719765 0.040381633 -0.17936887 -0.2665371 -0.029738007 0.6444744 -0.1767972 -0.08320171
0.070690244 -0.039915465 0.14826757 -0.110027425 -0.2671532 -0.1639933 -0.063195564 0.07786543

bias f4 [64]
00000000: 2773 00be 1b70 46bc 348d 3ebd 419e 0abe
00000010: b885 3dbe 1702 953c 179b 5dbe 639b c8bd
00000020: f9b7 e4bd 106f 123d d167 00be 81e9 80bd
00000030: 9f9c 2e3e d3be f4bd f8ce e53c f679 f2bd
00000040: b508 88bd be44 9fbb e728 c7bc c0db 03be
00000050: dcb0 4a3d e326 09be a761 24bd bfde fabc
00000060: db00 ac3d 3d56 8739 5b42 5bbd 8902 aa3d
00000070: c89d 08be ea19 153d f29b 8b3d 4a8b d2bd
00000080: ba96 2e3e 8b9c abbd bbcc 96bc a085 3cbe
00000090: 7097 f8bc f80a 02be 2b58 2c3e 0a41 05be
000000a0: eb90 52bd 8a54 23bd 9c6c 02be a628 4b3d
000000b0: 0490 3ebd 06e6 0ebe fd68 45bd 8dbf 1a3d
000000c0: 909e 0bbb c0f6 b0bd 52bc 833d 0d56 813d
000000d0: c6a2 91bd 7648 aabd b388 183e 3951 04be
000000e0: d49e 4c3d 0d53 123e b0d9 8cbd 7b4a 883d
000000f0: de5e 373d c082 f2bd fb46 913e d996 22bd
-0.12543927 -0.012111689 -0.04652138 -0.13536932 -0.18508041 0.018189473 -0.21641193 -0.09795263
-0.111679025 0.03575045 -0.12539603 -0.06294537 0.17051934 -0.11950459 0.028052792 -0.118396685
-0.06642286 -0.0048604896 -0.024311496 -0.12876797 0.049485072 -0.1339374 -0.04013219 -0.030623792
0.08398601 0.0002581346 -0.05353008 0.08301265 -0.13341439 0.036401667 0.068168536 -0.102804735
0.17049685 -0.083794676 -0.01840817 -0.18410349 -0.030345649 -0.12699497 0.16830508 -0.13013092
-0.051407736 -0.039875545 -0.12736744 0.049599312 -0.046524063 -0.13954934 -0.048195828 0.037780333
-0.0021304227 -0.08640814 0.064324036 0.06315241 -0.07111125 -0.08314602 0.14895897 -0.12921609
0.049956158 0.14289494 -0.06877458 0.06654831 0.044768207 -0.11841345 0.28374466 -0.03969464

weight f4 [64, 64]
00000000: 5e89 31bd d0d4 483e abc2 f13d 8377 8e3b
00000010: ce63 143c 55d6 cfbd 2750 c43c 4bb0 0fbb
00000020: a891 a53c adc8 07be 947e bebb 2880 8f3c
00000030: ad60 c6bd 666f cdbc 0ee7 c9bc 0d07 d1bd
00000040: 1c0f 20be ebf5 d2bb 9078 913b 3678 6bbd
00000050: ef2a 373e 4fe6 2bbe 6850 d2bd f589 c1bc
00000060: 8963 153e 7326 ae3c 3043 69bc 282d 44be
00000070: 95e1 b73d d766 42bc 04c8 a53d bf25 40bd
00000080: 7fd2 95bd 3447 fdbd 6c23 173d ca1a 0cba
00000090: 99cb 40bc 6115 babd 0aa5 173e a502 88bd
000000a0: cf5d 4f3c 57c8 16bb fc70 6bbc bf5e ff3c
000000b0: 5ba9 f8bb 2534 cb3d 551f c63d 3b3b 043d
000000c0: f295 033a 6692 37be 3358 01be e8a3 9dbd
000000d0: 8e6b 733d 046b f8bd a239 dabd 1ea5 00be
000000e0: e5d2 693e 9655 ac3a 949b 143d c604 1ebe
000000f0: 4da1 15bd 3f2a cf3b 2516 d2bd b361 28bd
00000100: 03f6 963d 9bc1 82bd 56c7 d13d 34f1 00bb
00000110: c93a 903d 9efd 8c3d a621 7a3c 1cb9 f63d
00000120: 6169 853d 471d debd b5e2 2c3e a5c9 0e3c
00000130: 9363 34be 040f 81bb 2a11 64bd 7f47 ebbd
00000140: ce05 f33e 02f5 113d 8eb3 053c bda1 18be
00000150: 910c b9bd c359 4c3d 7097 9bbc 1a03 d7bd
00000160: e56e d4bd 7d46 26bd 89d3 b9bc 7d8c ebbe
00000170: e324 063e 0d02 efbd 73dc 2c3c a68f edbd
00000180: 64d0 ddbd 05ea f73d c8f7 613b 9f15 903d
00000190: ed42 7abd 74c6 debc 010b dbbb 624b aa3c
000001a0: 9a70 513d d11c eabd d0b2 943d 82be c63c
000001b0: bd23 853d 6ea8 0d3d 4e61 f0bd c7f7 c4bb
000001c0: 1a3d 2a3c 9ff0 21be 940a 26bd 9d0c 14be
000001d0: 038a afbc 5306 15be 33f9 d63d 04d5 ce3c
000001e0: b31e 013e 3df5 be3d 6bcc f5bd d4dd 05bc
000001f0: a8a4 9d3d 4b6f 93bc 4bbd 77be c8de a53d
00000200: 11dc 923e 5a5d aa3c 3a1b 4d3d b7cc 8f3d
00000210: 31f2 18be 3b8c bfbd e183 46bd 1a33 873e
00000220: 9d28 07bd 3475 823e e1dc ef3d 702c dbbd
00000230: a010 85be b24e d0bd 850c 883c 9507 44bc
00000240: a2ff 9bbd 8e9b e03d a485 ef3d fc03 d6ba
00000250: 1a0c efbd bfeb 23bd 37f0 de3d 4f8e 04bd
00000260: 9452 933d 11bf e13d e86f f33d 2bb3 d33d
00000270: bb46 403e 3660 23be 9ec3 043e 26e1 14bd
00000280: a0bc cd3d 7f58 8bbd 51ed 6bbd 6ef1 12be
00000290: 542c 933d 9277 08be 9b51 9a3e 70ad 01be
000002a0: 2ea4 013d 9def ee3d c8ce aabd 1d1e 813c
000002b0: f552 473d 657e 84bd 34f8 65bd d60c 5bbe
000002c0: e000 4b3d b227 613e fded 7c3d 9408 513c
000002d0: f8cb 3e3d 56d3 b63c ee42 3bbe 6afa cb3d
000002e0: 9317 f03c eb7e 0f3e 07aa 433d 6f9d 6a3e
000002f0: c317 14bc 75a5 863c d614 88bd 719a fd3d
00000300: 9e22 223e e9f6 713e 02a9 733d f838 013c
00000310: 8a28 ba3d efae 8e3d 7341 a13d 0051 ebbc
00000320: 779d cb3b 8f2d 25be a7f3 d2bc 488d cebc
00000330: c32e 703d 4fe7 8fbd 5639 77bd ad8c 5f3d
00000340: bc18 f93b 7980 f83c 2c30 48bd 244e 39bd
00000350: a0b5 193e 7c8f 74be 2754 a83d 559e 5abe
00000360: b12e 463d fb55 063e b96b 943c 5d0e 253c
00000370: 78d1 de3d 1352 84bd e1b9 d4bc 6b40 94bd
00000380: 6f8b 46be 960a 1b3d a4a4 9abc 8372 d7bd
00000390: 2018 97bd 0bd0 e53c 46d2 d0bd 35ec 7d3b
000003a0: 9db9 58bc 33ee dfbd 2ea9 b23d c733 babd
000003b0: 899f 7a3c f92b 76bd af0f 2fbd 8870 ca3d
000003c0: 5c2e e63d aeff 85bc 3355 e0bd 1b2d febc
000003d0: 1712 8a3d 4255 a73d 05ab 71bd ec88 adbd
000003e0: 6ab7 e83e 1e10 d3bd a0f8 143d 0d09 a73d
000003f0: 8ba4 ebbc da0a a1bd 17d1 bcbd 619f 453e
-0.043343894 0.19612432 0.11804708 0.004347743 0.009056998 -0.101483025 0.023964 -0.0021925147
0.020211056 -0.13260145 -0.005813429 0.017517164 -0.09686408 -0.025077533 -0.024646308 -0.10206423
-0.15630764 -0.006438007 0.004439421 -0.05748769 0.17887472 -0.16787075 -0.102692425 -0.023625353
0.14588751 0.021258568 -0.01423721 -0.1915785 0.08978573 -0.011865339 0.080947906 -0.046910997
-0.073155396 -0.123670965 0.036899015 -0.0005344568 -0.011767291 -0.09086109 0.14809051 -0.066411294
0.012656643 -0.0023007595 -0.014370199 0.031173108 -0.007588548 0.09922055 0.09673945 0.03228305
0.0005019597 -0.1792694 -0.12631302 -0.07697278 0.059428744 -0.121297866 -0.10655524 -0.12562987
0.22834356 0.0013148065 0.036281183 -0.15431508 -0.03653078 0.006322175 -0.1025813 -0.0411088
0.07371142 -0.063845836 0.102430984 -0.0019675018 0.070424624 0.06884311 0.0152668115 0.120470256
0.0651424 -0.10845428 0.16883357 0.008715068 -0.1761611 -0.0039385576 -0.05568043 -0.11488246
0.47465366 0.03563405 0.008160485 -0.14905448 -0.090356 0.04989029 -0.01899311 -0.104986385
-0.10372714 -0.040594567 -0.022683876 -0.46005622 0.13100009 -0.11670313 0.010550606 -0.115996644
-0.10830763 0.121051826 0.0034479965 0.07035374 -0.06109898 -0.02719424 -0.0066846614 0.020787898
0.051132776 -0.114312775 0.07260668 0.024260763 0.06500957 0.034584455 -0.117373094 -0.0060109827
0.010390544 -0.15814446 -0.04053743 -0.14457937 -0.021428114 -0.14553194 0.1049675 0.025248058
0.12609367 0.09324119 -0.1200188 -0.008170564 0.07697421 -0.017997405 -0.24193303 0.08099133
0.28683522 0.020796467 0.050074793 0.07021468 -0.14936139 -0.09352919 -0.048465613 0.26406175
-0.032997716 0.25480044 0.11712051 -0.10701835 -0.25989246 -0.1017126 0.016607532 -0.011964698
-0.076171175 0.1096717 0.11695412 -0.0016328092 -0.1167223 -0.040019747 0.10885661 -0.03236228
0.07193485 0.11022771 0.11886579 0.10336908 0.18776982 -0.1595467 0.12965247 -0.03634753
0.10045743 -0.06803989 -0.05759937 -0.1434991 0.07186189 -0.13326862 0.30140385 -0.12663817
0.031650715 0.11666796 -0.08340222 0.01576143 0.0486631 -0.0646942 -0.056144908 -0.21391615
0.04956138 0.21987799 0.0617504 0.012758393 0.04658124 0.02231757 -0.1828725 0.09959872
0.029308116 0.14013259 0.047769573 0.22911619 -0.009038868 0.016436318 -0.06644599 0.12382973
0.15833518 0.23629345 0.05948735 0.007887118 0.090897635 0.0696696 0.078738116 -0.028725147
0.0062138396 -0.1613066 -0.025750948 -0.025213853 0.058638345 -0.070265405 -0.060357414 0.05457752
0.0076018255 0.030334698 -0.048874065 -0.045240536 0.1501069 -0.2388286 0.08219176 -0.21349461
0.048384372 0.13118736 0.018117772 0.010074225 0.10879797 -0.06460967 -0.02596754 -0.07238849
-0.19389127 0.037851892 -0.018877335 -0.10519888 -0.07377648 0.028053304 -0.101963565 0.0038745527
-0.013227847 -0.10934105 0.08723675 -0.09091907 0.015296825 -0.06010053 -0.042739566 0.09884745
0.11239311 -0.01635727 -0.109537505 -0.031027367 0.067417316 0.081705585 -0.059000988 -0.084733814
0.45452434 -0.103058085 0.03636992 0.08156023 -0.028764984 -0.07863398 -0.09219568 0.1929908

bias f4 [64]
00000000: 287e 8fbb f044 433c ee06 c0bc e62d 7f3d
00000010: 1b43 353d e38b 103b fc53 663d 2c40 eabc
00000020: 94ae 1f3e a839 413d 4ce0 d7bd e727 0b3e
00000030: cfae 9e3d 8887 933d 776b c6bc d4c3 19bd
00000040: 0983 1cbe 187c 43bd a214 a1bd 1c93 ebbd
00000050: ca7d 61bd b341 ffbd 336a f2bd 2d70 e4bd
00000060: 45df f63d 169f 4fbe e481 203c 6ebc 0ebd
00000070: 49ae 7f3d b06c 47b8 df2c 6dbd 04fd 5e3d
00000080: 7362 6abd 8c24 cebd 4c20 893d da35 88bd
00000090: 2560 b13c f5d7 913d e6dc 863b 1b22 14bd
000000a0: 84be e5bd 4870 2bbd 1bae adbd e088 403c
000000b0: 00f0 f9bd a1b6 073c 8c31 babd d997 e6bc
000000c0: 259f 543d e3c4 9abd ef82 e63d 6117 e13d
000000d0: 394d 6cbc 4cbf f53d e06e 983d 117e 5c3e
000000e0: 4152 2c3c 484b 28bd 792b d2bd f35f 07bd
000000f0: 4a53 bebd 4062 a33d baa4 c1bd 091a 113c
-0.0043790527 0.011918291 -0.023440804 0.06229963 0.04425345 0.0022056035 0.056232437 -0.028595053
0.1559394 0.047174126 -0.10540828 0.1358944 0.07748186 0.07203585 -0.024221165 -0.037540272
-0.15284361 -0.047725767 -0.078652635 -0.11502668 -0.055051602 -0.12463703 -0.11836662 -0.11154208
0.12054304 -0.2027553 0.009796593 -0.03484767 0.06242207 -4.754652e-05 -0.05790412 0.054440513
-0.057222795 -0.100655645 0.06695613 -0.06650896 0.02165229 0.07121269 0.0041156886 -0.036165338
-0.112179786 -0.041855127 -0.084804736 0.011751384 -0.122039795 0.008283288 -0.090914816 -0.028148578
0.051909585 -0.075570844 0.11255442 0.10990787 -0.014422708 0.119993776 0.07443023 0.21532466
0.010517658 -0.04108742 -0.10262198 -0.03305049 -0.0929323 0.07977724 -0.09455247 0.008856305

weight f4 [64, 64]
00000000: 8380 223e 6625 0abd 9091 713d acc8 f23d
00000010: 51ac dcbd 702d a2bc 9099 aebc 0c60 c33c
00000020: af95 5cbd 61dc 523e 1378 49bd 6374 63bd
00000030: 7a68 b73b e8a3 abbd 0898 1d3c 52eb c63d
00000040: ad58 083e 1ddb 9f3d d119 873d 35ad bf3b
00000050: dc90 d83d 74a7 18be 8552 8abc 9364 dbbd
00000060: 8c3a 353d 33d4 773d 61ef 04be 6c3f 523b
00000070: 194d 943d c453 363e 60b7 253e f27e 163e
00000080: ba70 f63d 04b9 7dbb 2f8e acbd 108a 85bd
00000090: ca5b d2bd ed38 1dbe 5164 08bc 357c d03d
000000a0: 9990 94bd 72b2 ca3d 3df5 063e 6d1b 903d
000000b0: af7e 94bd 9c8d 1dbd 1242 b93d 69a8 2b3e
000000c0: b501 503e 93de a6bd 836e dabb e711 08bd
000000d0: fa35 f03d 0483 9d3d cff3 f2bd 65ab 19be
000000e0: a586 743c f2a1 90bd a743 d5bd 1dfd d03c
000000f0: 341d 3bbd 5dc8 933e 98ef cabd cf81 27bd
00000100: 869e 1bbd 0421 e5bd faae 90bc 6b9d 6fbc
00000110: 60e5 d3bd 700d 103c ce1c bcbd 48ae 18bd
00000120: 9bb5 093d 96e3 a43d 8fc7 02be d3c0 00be
00000130: 2ae0 8c3d c4ec a93d 28c5 c1bd 31ba 7b3d
00000140: e813 ae3c 603a cbbd aaf6 863a d4ba 5b3d
00000150: 6b10 54bd 2f31 0dbd 304b 31bd 0403 e43c
00000160: 8854 de3c ef3f a7b9 c664 88bc 3a29 2c3d
00000170: fd20 0dbd de30 9cbd 02ca fabd 36a1 5ebd
00000180: cd4b 8f3d 9c90 f4bd ce24 8d3d ac95 88bd
00000190: b4ad 71bd 2153 8d3d 344d 1e3d 909e 9bbc
000001a0: d5d2 50be 2ea4 cdbd 3a7a 4c3d b358 61bd
000001b0: cb53 e93b 38a9 86bd 36a6 813d 1d39 6b3d
000001c0: a340 853d 009b 663b 133e 7c3d 7d47 ecbd
000001d0: 1dd5 03be 5972 babd 85f4 17be 9e99 d4bd
000001e0: 25ff cebc 00f6 683d 4271 b3bd be29 9ebd
000001f0: ef56 003d c506 c43c f7fe a53d 2082 8dbd
00000200: e1bb 38bc 9f75 eabc bf27 b2bc c25e 163d
00000210: 95f3 ccbc 4007 573d 99cc 99bd 120d d3bd
00000220: e6c6 f03c b9d8 80bd fd7c 9c3d 8269 f4bc
00000230: 1e58 533d 182e b63d 144a a5ba 5069 3e3d
00000240: a3f1 e5bd 8933 2e3d 6001 efbd 0e7f 203e
00000250: 7ac0 8cbb 1640 03be 9646 de3d c5b6 133d
00000260: d0eb d5bd 649d 05be 557a 00be 066f ddbc
00000270: 6672 e8bd 0a1e 1e3e d097 0c3c fc94 09be
00000280: 7185 f6bc 72f3 c03d a346 bc3d 2209 31bd
00000290: 5599 f4bd 2cbf 45bc 3097 28bb abc5 783d
000002a0: 3126 93bb 0ed2 fd3d 250e 68bd 61f9 86bd
000002b0: b4a6 fe3d 03d9 713d ac4c b8bd 213d c53c
000002c0: fa4f a8bc 725d 93bd ce2c 373d 2d10 19bd
000002d0: f5fd 7fbd 5a26 82bd 6374 fb3d c4c2 fabb
000002e0: 0c87 4bbd cc29 e3bd b586 9c3d 272b fdbd
000002f0: ad2c c33d 11d0 bbbe a672 b2bd 0432 1e3a
00000300: b076 423e 7a74 6a3e 3891 a8bd e40f bf3d
00000310: 2cd2 3dbc 25f0 e23d fc2c bc3c 0f1b 1dbd
00000320: 8c12 1cbe b24b f6bc 3818 5d3d 0d54 a3be
00000330: c955 253e f225 afbd e418 963c 01b1 863e
00000340: a9cf 86bd c094 73bd 2b5d 203e 1b4a e1bd
00000350: 04a3 2fbe 6442 143e b282 dfbd 4553 eb3a
00000360: eeec 593d f9ee 073e 59b6 c0bd f813 8ebd
00000370: 18dc 263d 41a7 2f3e 9469 1c3d cd8f 42be
00000380: 64e4 6fbd bd4e 463d 2888 283d b4c9 8a3b
00000390: 74ea b7bc 418f 233e d460 933d b078 063e
000003a0: 50a8 18be 6272 86bd a3d4 5d3d ead0 9c3d
000003b0: d2d9 bb3b 36a9 4fbd 7f2e 47bd 4214 0dbe
000003c0: d4ff 82be d124 a1bd c2aa a43c 582f 1bbe
000003d0: 1997 1fbd b6b7 adbd 16bb 9cbd 8a04 a93d
000003e0: 0694 173e 10a9 39bc 582d cb3d f008 773c
000003f0: 8103 cbbd 1387 6fbc c800 123d 05e8 d1bc
0.15869336 -0.033727072 0.05897671 0.118546814 -0.10775054 -0.019797057 -0.021313459 0.02384951
-0.053853687 0.2059188 -0.049186777 -0.055530917 0.0055971714 -0.08380872 0.009618767 0.097128525
0.13315077 0.078054644 0.06596721 0.0058495053 0.10574505 -0.14907628 -0.016885052 -0.107125424
0.044245288 0.060505103 -0.12981941 0.003208126 0.07241268 0.17805392 0.16183233 0.14696863
0.1203322 -0.0038715014 -0.08425557 -0.06520474 -0.102714136 -0.15353747 -0.008324699 0.101799406
-0.07254142 0.09897317 0.13179488 0.07036481 -0.072507255 -0.038465127 0.09045805 0.16763462
0.20313151 -0.081479214 -0.006666006 -0.033220198 0.11729045 0.07691005 -0.11862909 -0.15006788
0.01492468 -0.070621386 -0.10413294 0.025511319 -0.045682147 0.28863803 -0.0990898 -0.04089528
-0.037992977 -0.11187938 -0.01766156 -0.014624934 -0.10346484 0.008792266 -0.091851816 -0.037275583
0.033620458 0.08051221 -0.12771438 -0.12573557 0.068786934 0.082971126 -0.09461433 0.061456863
0.021249726 -0.099232435 0.00102969 0.05364497 -0.05177347 -0.034470733 -0.043284595 0.02783347
0.027139917 -0.00031900356 -0.016649615 0.042031504 -0.03445529 -0.07626508 -0.12245561 -0.05435296
0.0699688 -0.119416445 0.068917856 -0.06669173 -0.059003547 0.06900621 0.038647845 -0.018996507
-0.20392926 -0.100410804 0.04992125 -0.05501623 0.0071205846 -0.06575245 0.0633053 0.057427514
0.06506469 0.0035187602 0.061582636 -0.11537073 -0.12874265 -0.09103841 -0.1483937 -0.10380863
-0.025268147 0.05687523 -0.087618366 -0.077228054 0.031332906 0.02392901 0.08105271 -0.06909585
-0.011275263 -0.02862054 -0.021747468 0.03671146 -0.025018493 0.05249715 -0.07509727 -0.10305227
0.029391717 -0.062913366 0.07641027 -0.029835466 0.051597707 0.088955104 -0.0012610578 0.046487153
-0.11227729 0.042529617 -0.11670184 0.15673468 -0.004295406 -0.12817416 0.10853307 0.036062974
-0.10445368 -0.13048321 -0.12546666 -0.02703048 -0.11349945 0.15441146 0.008581117 -0.1343574
-0.030092927 0.094214335 0.091931604 -0.0432216 -0.11943308 -0.012069505 -0.002572488 0.060735386
-0.0044906368 0.123935804 -0.056654114 -0.06590534 0.1243414 0.05904485 -0.08998999 0.024077
-0.020545948 -0.07195558 0.044720463 -0.037368942 -0.06249805 -0.06354971 0.122780584 -0.0076526124
-0.049689338 -0.110919565 0.07642881 -0.12361746 0.095300056 -0.3668218 -0.08713274 0.00060346746
0.18990588 0.22895995 -0.08230823 0.09329203 -0.011585753 0.1108096 0.022970669 -0.038355883
-0.1524145 -0.030065391 0.053978175 -0.31900063 0.16146006 -0.08552159 0.018322416 0.26306918
-0.06582577 -0.05946803 0.15660541 -0.110004626 -0.1715203 0.14478451 -0.109136 0.0017953893
0.05320447 0.13274755 -0.0940978 -0.069374025 0.04073724 0.17153646 0.038186625 -0.19000168
-0.05856742 0.048414934 0.041145474 0.0042354707 -0.022450663 0.15972616 0.07196203 0.13131976
-0.14907956 -0.065647855 0.054157864 0.07657035 0.0057327533 -0.05069848 -0.048628327 -0.13777259
-0.25585806 -0.0786835 0.020100955 -0.15154779 -0.038962457 -0.08482306 -0.07652871 0.08252819
0.1480256 -0.011331812 0.09920758 0.015077814 -0.09912778 -0.014619607 0.035645276 -0.02562333

bias f4 [64]
00000000: a776 5c3d 8ecf 28be a5e1 a43d 3e4c f0bc
00000010: 6e0d 663e 6431 b83d 91d6 d53c 3d0f 53bc
00000020: f199 17be 4377 d7bd 47ba 44bd 3d19 d8bc
00000030: 5b4f ed3c 6601 f9bc 72b9 f13b 2edb afbd
00000040: 989f 2f3d 351d 5dbd 4b67 8dbb 743f a9bd
00000050: 62cb c5bd ba00 51bb a8a3 843d 69c9 9a3c
00000060: 0712 97bc 732d 863d 5f09 4abc 08a3 693b
00000070: a74d d4bd 34af b0bd bbe0 0cbe 9c1c 2f3d
00000080: 56d8 7bbd 5f5d 413e 60b7 ddbd 1174 bd3d
00000090: 8f24 c1bd 5501 6f3d efb4 07be 1640 a33c
000000a0: ff61 eebd e6a7 533d 83e3 93bd 05ea 643b
000000b0: 8570 ae3d ba22 c93b 23b6 733c 57dd b7bd
000000c0: 9b0a 91bd 7672 12bc c6e8 99bd e353 673d
000000d0: 3a49 1ebd 0c93 48bd 31ed f0bd ece7 17bb
000000e0: 296d a03d 1b3a 793b 618c d83d cdd8 e1bb
000000f0: 9e3e 583c 92cc 753c 05cd b93d 1444 1fbd
0.053824093 -0.16485426 0.08050851 -0.02933323 0.2246606 0.089937955 0.02610329 -0.012882051
-0.14804818 -0.10520794 -0.04802921 -0.026379222 0.028968504 -0.030396175 0.007376843 -0.08586727
0.04287681 -0.053982932 -0.004315292 -0.08264056 -0.09657933 -0.0031891302 0.064765275 0.018894868
-0.018441213 0.065516375 -0.012331336 0.0035650153 -0.103663735 -0.08627167 -0.13757603 0.042751893
-0.06148561 0.18883274 -0.10825992 0.092506535 -0.09430801 0.05835088 -0.13252614 0.01992802
-0.11639785 0.051673792 -0.07221129 0.0034929526 0.08517555 0.006138173 0.014874968 -0.08977764
-0.07082101 -0.008938422 -0.07515101 0.056476485 -0.038644053 -0.04896836 -0.11763991 -0.0023179008
0.07833321 0.0038029018 0.1057365 -0.0068922997 0.013198523 0.015002387 0.090723075 -0.038883284

weight f4 [3, 64]
00000000: 4163 7b3e 1446 9f3d c258 0ebd 42db 163d
00000010: 5e96 933e 71d9 8abe d3c3 f7bc c242 d9bd
00000020: 625a 1a3e 6dbd 583d bdf1 103e 117d b43d
00000030: 3d56 eabd c54e acbd 56c9 5abe ca87 0d3e
00000040: 5bf6 a8ba ad84 38be 5a25 53be 30b8 603c
00000050: 4676 0c3e 9fe8 0c3e 9cb7 82bc fe98 f6bd
00000060: c75c 993d 86c6 2e3e cbef afbe dd06 2a3e
00000070: 6f0d 40be a11a 363d f13d c23d a049 d93d
00000080: c347 d23d 8988 0abd b3c1 093e bab7 98bd
00000090: 8fda 05be 1024 eebc 8cef a6bc b159 5a3d
000000a0: 6164 463e ff75 94bc 5fa7 b9bd 9320 8abd
000000b0: 6a51 8c3d 8706 0fbe 735e 763d ad37 39bd
000000c0: 7774 983d f479 763b 4ee5 08bb e96b e0bd
000000d0: 1c57 643c 8279 4c3d ad9a 443d 9d47 d83d
000000e0: 0f59 eabc a6fa 3abd 8857 3cbc 8010 ec3c
000000f0: 9138 eebd 5b4a 0dbe 6738 f5bd d098 183e
00000100: 47e5 40bc f46c 9f3c eba7 d0bd 4f78 47be
00000110: de9a bbbe 836b e5bd e84e adbd 381a 0abe
00000120: 798b 8cbd acc4 b1bd fc63 a73d 6846 6cbd
00000130: 09d3 f33d 4063 763e 726a ef3c 3d54 1dbd
00000140: 957c 9f3d 6c30 39be 94b7 90ba b574 f3bd
00000150: b619 dbbc bf2c 70bd 09f8 363e c49e 31be
00000160: 66dd 963d 2976 f5bd 3b5b 483d b89a eebb
00000170: fd21 96bd fa76 843c 56a1 a6bd d429 063e
00000180: 126f 3fbb f6e6 e9be 1b5e fc3d 94f8 083e
00000190: 4745 023e d432 1a3e 434f bf3c ecc9 f03d
000001a0: da69 a8be 2d1d 383e fd45 cd3d 4689 7abd
000001b0: 6d9c 40be 8b8f e23d 2115 ba3d 05d3 03be
000001c0: 6ed0 b3bd 1933 c43d 1563 3e3e f24b c0bd
000001d0: 18b7 713e faff dc3d e128 ff3d f6ff 2c3e
000001e0: 3145 07be 3ce7 c4bd fe14 063e a524 3abe
000001f0: fb09 f93c 77c8 41be 2522 70be 7eb4 b6bc
00000200: 9d77 27be 5067 8cbd f938 8cbd b42e e8bd
00000210: 1227 b1bd b7cf b23d 32df dfbd 8b10 e0bd
00000220: 7466 963d 871b b93d 39be a43d b9f7 edbd
00000230: ffc9 ce3d 9e67 a03d 4255 863b 6242 a1bc
00000240: 6e2a 3cbd 8209 da3b e695 31bd cd11 f0bd
00000250: 4159 a23d 26fe 233e 7bbb 493e e2d1 283c
00000260: b10c f63d 6879 1abe 1fa0 6cbd e0d5 383e
00000270: 083f 2cbe 6d34 ca3d 76d9 ea3c 2be6 2dbd
00000280: 701b cbbd 0376 243e 882f 473d 7672 93ba
00000290: 84d4 28bd 267e d23d 04a3 88bd 247e 023e
000002a0: 3436 55be 109a 093e 6709 f63d 1db7 bd3d
000002b0: 1188 ccbd 489b 193c e997 d33d d7c6 bb3d
000002c0: e362 883d ecae 89bd d687 da3d 4419 a2bc
000002d0: d282 98bc 1719 213d d77b 66be 10bd 91bd
000002e0: b971 8fbd 6b36 b83d 7222 153d 9b1d b3bd
000002f0: b713 f1bd d252 833d e9a9 ac3d d3da bcbd
0.24549581 0.07777038 -0.034752615 0.036830194 0.2882566 -0.2711902 -0.030244743 -0.10608436
0.15073541 0.052915026 0.14154716 0.08812917 -0.1144223 -0.084134616 -0.21365866 0.1382133
-0.0012890802 -0.18019362 -0.20619717 0.013715789 0.13716993 0.13760613 -0.015956692 -0.120409
0.07488399 0.17067918 -0.34362635 0.1660418 -0.18755125 0.04445899 0.09484471 0.10609746
0.10267594 -0.033821616 0.13452797 -0.07456918 -0.13071655 -0.02906993 -0.020377897 0.053308193
0.19374229 -0.018122671 -0.09065127 -0.06744494 0.06851466 -0.13967334 0.060148668 -0.045219112
0.07444089 0.003760931 -0.002088863 -0.10958082 0.013936784 0.049920566 0.047999073 0.10560534
-0.02860692 -0.045649193 -0.011495478 0.028816462 -0.11631883 -0.13797896 -0.119736485 0.14902043
-0.011773414 0.019461133 -0.10188278 -0.19479488 -0.36641592 -0.11202147 -0.08462316 -0.13486564
-0.0686254 -0.0868009 0.081733674 -0.057684332 0.11905486 0.24061298 0.029225562 -0.038410414
0.07787434 -0.18084878 -0.0011041039 -0.118874945 -0.026745658 -0.058636423 0.17868055 -0.1734572
0.07366447 -0.11985428 0.04891513 -0.0072816275 -0.073307015 0.016170014 -0.08136241 0.13101894
-0.002921049 -0.45684022 0.12322637 0.13376075 0.1272174 0.15058452 0.023353225 0.117572635
-0.32893258 0.1797988 0.10023115 -0.06116607 -0.18809672 0.11062535 0.09086061 -0.12873466
-0.08779989 0.095800586 0.18592484 -0.093894854 0.23605001 0.10791011 0.12458969 0.16894516
-0.13209988 -0.09614417 0.13093945 -0.18178041 0.030400267 -0.18924128 -0.23450525 -0.022302862
-0.16354223 -0.06855643 -0.06846804 -0.11337033 -0.0865003 0.08731025 -0.10931243 -0.10940655
0.0734376 0.090384535 0.080440946 -0.11619515 0.100971214 0.078322634 0.004099519 -0.019684974
-0.0459389 0.0066539655 -0.043355845 -0.11722145 0.0792718 0.16014919 0.19700424 0.010303946
0.120141394 -0.15085375 -0.05776989 0.18050337 -0.1682092 0.09873281 0.028668147 -0.042455833
-0.09917343 0.16060643 0.048629314 -0.0011249322 -0.041218296 0.10277967 -0.06671718 0.12743431
-0.20821458 0.13437676 0.12013512 0.09263442 -0.0998689 0.009375401 0.10331709 0.09168785
0.06659486 -0.06722817 0.1067044 -0.019787438 -0.018617067 0.03933057 -0.22508179 -0.07116139
-0.07004113 0.089947544 0.036409803 -0.08745881 -0.117713384 0.06412281 0.08430845 -0.09221425

bias f4 [3]
00000000: 3b93 3bbe 7df0 6bbd 381b e9bc
-0.18317883 -0.057602394 -0.028455362

exp_avg f4 [64, 3]
00000000: f77f 2a39 5a36 2db9 12e0 03ba af10 bf88
00000010: af10 bf88 4aab c888 3b29 9936 5b8f 16b5
00000020: 840d 4bb7 0400 0080 0400 0080 0400 0000
00000030: 4593 0eb9 3853 0bb9 5fa6 c438 b049 ebb8
00000040: a71c 4bb9 38d8 f9b8 b956 23bb 6bfa 26b9
00000050: 1a50 de39 9a93 a539 2ad2 4a37 d15e 6938
00000060: c974 07ba 5132 ac3a f288 73b9 53d0 5039
00000070: 72b0 6cb8 4ecb b739 315c b5b9 4b1e f9b9
00000080: ac9b ce39 9f75 5bb9 4d34 5cb8 6d42 07b8
00000090: 00a0 7197 00a0 7197 3fc5 7d97 0400 0080
000000a0: 0400 0000 0400 0080 499f 51ba 10a4 7039
000000b0: 16fc 80b9 9125 29b8 ad4c 5ab8 20fc 80b8
000000c0: 8277 5bb6 67b9 6bb6 5c06 82b6 15de b1b9
000000d0: f790 343a 1ac7 3b3a b4e4 b4b7 2215 243a
000000e0: 4470 0fb9 e9cd ef37 d80e 4db9 b6f1 7a38
000000f0: 0400 0080 0400 0080 0400 0080 6a0a 03b9
00000100: 8cf9 6b3a d9a8 00ba 09b0 3138 fd8c 073a
00000110: dd44 16b9 0400 0080 0400 0080 0400 0080
00000120: 28ba b7b8 4395 ed38 1fb7 d0b6 2772 17b9
00000130: 071b 1b39 637e c037 160d b0b9 e2a8 21b8
00000140: 4544 bcb8 b0a1 2db9 25ff b5b8 f12c bcb8
00000150: 0400 0000 0400 0000 0400 0080 bea5 9339
00000160: 167d 4d39 70b7 72b9 3c99 82b8 1b48 e938
00000170: cd21 ca38 5afc 303a 92a7 aab9 7e0b 5bb9
00000180: 3097 9639 ba69 6837 f3f3 8839 f193 c6b9
00000190: aaca efb7 3442 0438 0400 0000 0400 0080
000001a0: 0400 0000 0f13 1738 cc6b f7b8 04c3 7cb9
000001b0: 2820 cab9 368f 23b9 726d a0b8 1bc9 9037
000001c0: cafe f9b7 f5b5 c337 7cab 66b9 294d 05b9
000001d0: dce7 8038 0400 0080 0400 0080 0400 0080
000001e0: 0a89 2eb8 acfa a0b9 a483 afb9 bbbb 64ba
000001f0: 811a 1439 fba4 053a 0400 0080 0400 0080
00000200: 0400 0000 c067 79ba a2ff 02b7 5003 f639
00000210: 6c26 fa39 5b6d 9638 6a5b b5b9 761c f0ba
00000220: 0f56 7dba 0e95 81b9 6472 1dba 147d fdba
00000230: f6f2 533a fd63 2238 ca05 7fb7 4c0d 6cb8
00000240: b3e4 1339 57a6 0eba b4a2 bc38 c70d ce38
00000250: 4cdd 1739 7a83 ef38 349f 6f3a b73b 6eb9
00000260: 0d79 1937 b852 7d39 d1d7 b4b7 8602 e638
00000270: 0400 0080 0400 0080 0400 0080 d1f8 61b9
00000280: 4d4c 95b9 065f 17ba a8dd 783a 21b7 c5ba
00000290: 0918 8e3a 403e 4cb9 ace0 a3b9 9185 0839
000002a0: 0a7c 1d3a aca1 3cba 87e7 2339 74a6 6c39
000002b0: 2aef a5b7 a198 fbb9 0102 0639 9d87 e0b8
000002c0: 7c2e 2139 eb63 4639 ee7a 8f38 0c9d b9b9
000002d0: 4527 ad3a dad5 8bb9 c1ae 02b9 0c42 2439
000002e0: 82c3 e3b9 9eda 2238 f809 6039 4803 2f39
000002f0: 8669 e336 4492 4638 d8e0 e7b6 302d a435
0.00016260134 -0.00016518813 -0.00050306425 -1.1499317e-33 -1.1499317e-33 -1.2077332e-33 4.564555e-06 -5.6087964e-07
-1.210289e-05 -6e-45 -6e-45 6e-45 -0.00013597037 -0.00013287074 9.376997e-05 -0.000112193986
-0.00019370262 -0.00011913519 -0.0024923517 -0.00015924282 0.0004240282 0.00031581224 1.2089071e-05 5.5639834e-05
-0.00051672437 0.0013137554 -0.00023225302 0.00019914033 -5.6431112e-05 0.00035055954 -0.00034591698 -0.0004751555
0.00039407366 -0.00020929285 -5.2500796e-05 -3.2248372e-05 -7.807325e-25 -7.807325e-25 -8.199767e-25 -6e-45
6e-45 -6e-45 -0.00079964526 0.00022949302 -0.0002460188 -4.0327726e-05 -5.204666e-05 -6.1504776e-05
-3.2703106e-06 -3.5125647e-06 -3.8750422e-06 -0.00033925535 0.00068880565 0.00071631523 -2.156417e-05 0.00062592526
-0.00013679365 2.8586905e-05 -0.00019555853 5.9829756e-05 -6e-45 -6e-45 -6e-45 -0.00012497013
0.0009001724 -0.0004907973 4.2364034e-05 0.000517085 -0.00014330768 -6e-45 -6e-45 -6e-45
-8.760794e-05 0.00011328843 -6.220201e-06 -0.00014443007 0.0001479202 2.2947037e-05 -0.00033579086 -3.8542676e-05
-8.977255e-05 -0.00016558799 -8.678277e-05 -8.9729096e-05 6e-45 6e-45 -6e-45 0.00028161512
0.00019596922 -0.00023147254 -6.227425e-05 0.000111237365 9.6384065e-05 0.00067514705 -0.00032549776 -0.00020889749
0.00028722873 1.3852894e-05 0.00026121698 -0.00037875728 -2.8585393e-05 3.153291e-05 6e-45 -6e-45
6e-45 3.6018955e-05 -0.000117979565 -0.00024105242 -0.000385524 -0.00015598242 -7.64978e-05 1.7259785e-05
-2.9801759e-05 2.3330542e-05 -0.00021998392 -0.00012712613 6.146703e-05 -6e-45 -6e-45 -6e-45
-4.161246e-05 -0.00030704343 -0.0003347668 -0.0008725484 0.00014124253 0.00050981314 -6e-45 -6e-45
6e-45 -0.0009514056 -7.808123e-06 0.00046923244 0.00047712342 7.1729264e-05 -0.0003459112 -0.0018319029
-0.0009664008 -0.00024715852 -0.000600612 -0.0019339644 0.0008085215 3.871693e-05 -1.5200532e-05 -5.627917e-05
0.0001410421 -0.00054416567 8.9948444e-05 9.825412e-05 0.00014482922 0.000114208975 0.00091408496 -0.00022719694
9.147695e-06 0.00024158775 -2.155817e-05 0.00010967725 -6e-45 -6e-45 -6e-45 -0.00021550363
-0.00028476343 -0.00057743525 0.00094934786 -0.0015084484 0.0010840903 -0.00019478146 -0.00031257176 0.00013019728
0.0006007558 -0.0007195722 0.00015631142 0.00022568722 -1.9780902e-05 -0.00047988168 0.00012779982 -0.00010706412
0.00015371473 0.00018919974 6.841669e-05 -0.0003540296 0.0013210556 -0.00026671478 -0.00012462867 0.00015664863
-0.0004344248 3.8827413e-05 0.00021366018 0.00016690523 6.7774117e-06 4.73431e-05 -6.9105117e-06 1.2232103e-06

exp_avg_sq f4 [64, 3]
00000000: 3261 de34 7576 c634 5b86 0835 f613 7433
00000010: c5d5 0033 437b 3232 4423 ac34 aee2 f333
00000020: d343 7e33 7664 5c30 da26 0930 0b52 9930
00000030: 7ba8 5c34 93bc 0934 3c60 4f33 2367 cb34
00000040: 05a8 1734 3463 ed32 f842 a135 cf40 7634
00000050: e001 8634 2e86 0c34 3034 a934 3aed 0d34
00000060: 3114 0935 f936 3b35 ecdf d634 e64d 1535
00000070: e3c1 b334 371b 4034 a0b9 6f34 ce81 b034
00000080: fd48 3634 eb1b 0835 e4d8 9934 f5cc 1c34
00000090: 65d4 b533 708b 1d33 8ab5 6e32 1791 2333
000000a0: 0fbf 9232 92e3 6132 c916 a634 0f0d 4f33
000000b0: 11e8 7033 fa96 5734 b658 a433 c987 9d32
000000c0: 3188 dd33 738a d433 7940 9133 c46a a234
000000d0: 8542 db34 6b1d 6c34 0521 5335 5ca5 7f34
000000e0: 1dc5 2034 ae75 9434 2ad9 e534 014c 5334
000000f0: 96f8 4730 1a13 bc2f 4ad0 3230 f68a 8134
00000100: 63a7 4034 9af6 0434 697c 8d35 0cd3 5535
00000110: c964 ea34 9864 c632 f709 7e32 7396 3632
00000120: 6c4b a234 1e52 8034 410e 9d34 4621 5a35
00000130: dd12 1d34 769c 2134 0d81 fc34 8b7d 1934
00000140: 4c5b 6b34 cdc7 5f34 de38 0034 b28c 0534
00000150: f48d 0234 5c73 5234 04ba 2833 cfb8 d334
00000160: fb37 1334 b9ec 1734 3a03 a034 8dc3 bf33
00000170: f0a3 8f33 4749 f235 0f2e 8c35 758a fe34
00000180: b639 0c35 67bd 0534 9246 1234 fdbc 9b34
00000190: a8f2 9d33 dc01 a432 a927 6731 4782 3830
000001a0: 78ca 0731 c1a0 f133 c02d 5234 6e7f d133
000001b0: 529b a834 7e64 6e34 9493 4633 785b c534
000001c0: 3744 0234 12d5 2433 cf59 af34 81d4 4e34
000001d0: e868 8533 8364 0d32 ccd5 6932 b234 bf31
000001e0: 30df c034 5844 7834 3bf4 3d34 c73a 9635
000001f0: 3cc7 2734 aa20 8434 ee78 972f 872b 0e31
00000200: 4f79 4131 0ce7 e234 fb42 1b34 5ca0 8e34
00000210: 59a2 e634 90ab c533 4b73 bd33 5ba5 1a35
00000220: 625d 3a35 10ce 5c34 09a3 d334 572e 2e35
00000230: 9a6f 5b34 05b7 1735 6891 3534 c293 1f34
00000240: e439 af33 a854 3734 3e75 3434 4935 4835
00000250: 6759 1f34 2e58 f433 40f7 1535 0410 bc33
00000260: 6fd3 0934 2ff0 3a34 d0be 0434 0c83 9034
00000270: b1aa fe31 5876 0132 c998 0431 ddac a135
00000280: f756 6d35 d19f e734 ff37 1c34 7d41 5b34
00000290: cafb f133 2f7e 7735 e9ea 9434 87d2 6934
000002a0: 45fa e933 d360 5d34 96d3 1d34 c9c0 8734
000002b0: da7b e334 11e7 5e34 ee55 c934 e501 aa34
000002c0: b3d7 5334 65e4 9a34 58fc 1c34 af63 8834
000002d0: 653c 1436 a355 d934 443f da34 e885 1a35
000002e0: a65c 4b35 12ce 0a35 2529 aa34 8349 e033
000002f0: c0cf 0834 cf85 b834 0f27 8b34 747f aa33
4.142144e-07 3.6966563e-07 5.085946e-07 5.682883e-08 2.9996745e-08 1.038899e-08 3.2063156e-07 1.1356802e-07
5.920067e-08 8.01783e-10 4.989552e-10 1.1155533e-09 2.055039e-07 1.2827722e-07 4.8283468e-08 3.7886738e-07
1.4124096e-07 2.7635544e-08 1.2014925e-06 2.2934113e-07 2.496081e-07 1.308733e-07 3.1516674e-07 1.3217951e-07
5.106586e-07 6.9742924e-07 4.002353e-07 5.562018e-07 3.348242e-07 1.7891294e-07 2.232614e-07 3.2877e-07
1.6976624e-07 5.0704574e-07 2.865628e-07 1.4603195e-07 8.4671036e-08 3.668123e-08 1.38947005e-08 3.8083353e-08
1.708352e-08 1.3148467e-08 3.0936488e-07 4.820782e-08 5.6090418e-08 2.007836e-07 7.6529815e-08 1.8338953e-08
1.03158875e-07 9.897203e-08 6.763816e-08 3.0252534e-07 4.0840328e-07 2.1989915e-07 7.8651675e-07 2.3808883e-07
1.497287e-07 2.7652771e-07 4.2812582e-07 1.9678556e-07 7.274904e-10 3.4210573e-10 6.505202e-10 2.412923e-07
1.7942288e-07 1.2383171e-07 1.0541527e-06 7.9655797e-07 4.3659227e-07 2.3095978e-08 1.4787012e-08 1.06280025e-08
3.0229728e-07 2.3901606e-07 2.92539e-07 8.125975e-07 1.4628627e-07 1.5051214e-07 4.7032555e-07 1.4294908e-07
2.1919294e-07 2.084118e-07 1.1941617e-07 1.2437775e-07 1.2158836e-07 1.9599742e-07 3.928473e-08 3.943628e-07
1.3710807e-07 1.414909e-07 2.980467e-07 8.929701e-08 6.6887765e-08 1.8051732e-06 1.0444218e-06 4.7411928e-07
5.2238045e-07 1.2455494e-07 1.3622983e-07 2.9008507e-07 7.355021e-08 1.9092958e-08 3.3637468e-09 6.7123945e-10
1.9760176e-09 1.1251678e-07 1.9574418e-07 9.7555e-08 3.140545e-07 2.2202036e-07 4.623469e-08 3.6760662e-07
1.213201e-07 3.8378012e-08 3.2661634e-07 1.9262554e-07 6.2123775e-08 8.230134e-09 1.3610997e-08 5.5648224e-09
3.5925177e-07 2.3121663e-07 1.7690847e-07 1.1192977e-06 1.5625568e-07 2.4610682e-07 2.7552666e-10 2.0688462e-09
2.8154152e-09 4.226389e-07 1.4459867e-07 2.6566238e-07 4.2958962e-07 9.2047344e-08 8.82197e-08 5.7610094e-07
6.942629e-07 2.0564062e-07 3.9420436e-07 6.4887485e-07 2.0436565e-07 5.651821e-07 1.6909837e-07 1.4861783e-07
8.159603e-08 1.7074001e-07 1.6806459e-07 7.4583346e-07 1.4840553e-07 1.1378175e-07 5.586662e-07 8.7573454e-08
1.2836038e-07 1.7409978e-07 1.2362875e-07 2.691744e-07 7.4117783e-09 7.5356965e-09 1.9295376e-09 1.2045745e-06
8.841593e-07 4.3143385e-07 1.4549003e-07 2.0419789e-07 1.1268237e-07 9.219829e-07 2.7738068e-07 2.1776405e-07
1.0895432e-07 2.0617453e-07 1.4698739e-07 2.528598e-07 4.237216e-07 2.0759423e-07 3.750169e-07 3.1666346e-07
1.9729377e-07 2.8850914e-07 1.4620434e-07 2.5404503e-07 2.2088873e-06 4.048171e-07 4.0651696e-07 5.756433e-07
7.5758214e-07 5.170888e-07 3.1694904e-07 1.04441845e-07 1.2741566e-07 3.437003e-07 2.5919186e-07 7.9394255e-08

exp_avg f4 [64]
00000000: 4ad7 4839 bff1 6708 141d f8b6 0400 0000
00000010: 69ac 6439 4399 2d39 ccef dc38 2a15 2939
00000020: ee3a 2c3a 2441 e7b7 2c93 ce39 55d9 c539
00000030: 36a9 1217 0400 0000 57cc 1e3a 0cf6 1538
00000040: dee6 0f36 bf00 883a 087d 8e3a bae4 e439
00000050: 0400 0000 148e 0f3a 3a73 63b9 0400 0000
00000060: b43f 89b9 4022 13b8 de5a 91b8 d6a3 f2b9
00000070: 0400 0000 390d ef39 a7f9 3438 f067 b53a
00000080: 6a83 f438 27b1 0bb7 0400 0000 908d f3b8
00000090: 06d6 2d39 00b8 7b38 0dfe 73b9 0400 0000
000000a0: a5fc 13ba 9f93 40b9 0400 0000 1152 8aba
000000b0: 3bb5 f239 c540 fbba b8c1 29bb 4a54 a1b9
000000c0: 8f79 dbb9 7b28 8b38 e489 d4b9 070e 1e39
000000d0: 0400 0000 ae7a 9739 c7e8 97ba e0b8 e7b9
000000e0: 4f6a 42ba 3c1d 9c39 87f8 87b9 d3e7 beb8
000000f0: c69d 68ba 7802 78ba 0a11 2239 343f 27b4
0.00019153688 6.9798205e-34 -7.394361e-06 6e-45 0.00021808002 0.0001655566 0.00010535083 0.0001612498
0.00065700605 -2.756768e-05 0.00039401033 0.00037736693 4.738872e-25 6e-45 0.00060576707 3.5753517e-05
2.1443043e-06 0.0010376199 0.0010871002 0.00043657963 6e-45 0.00054761884 -0.00021691332 6e-45
-0.0002617814 -3.507943e-05 -6.931064e-05 -0.00046279904 6e-45 0.00045595484 4.314785e-05 0.001384018
0.000116593044 -8.326292e-06 6e-45 -0.00011613511 0.00016578296 6.0014427e-05 -0.00023268927 6e-45
-0.0005645252 -0.0001836554 6e-45 -0.0010553022 0.00046292864 -0.0019169083 -0.002590282 -0.00030771113
-0.00041861503 6.6355766e-05 -0.00040538528 0.0001507328 6e-45 0.00028892368 -0.0011589759 -0.00044197496
-0.0007416354 0.0002977642 -0.00025934374 -9.1030866e-05 -0.0008873608 -0.0009460817 0.00015455871 -1.557608e-07

exp_avg_sq f4 [64]
00000000: fbbc db34 acca 2233 d242 b834 fa40 ce30
00000010: fedd 0d34 cfad 1734 21df 4135 925c a434
00000020: aafd f134 87fd 9834 4616 8635 ff0e d334
00000030: 6a8f b833 1ec1 5c33 1683 df33 64d8 8d33
00000040: 0a61 4234 239a 8135 1d18 cc34 bca7 2535
00000050: b112 4a30 b420 8d34 e857 b635 8d0e 2033
00000060: 0640 c734 3914 5634 2d57 cf34 ebac 7434
00000070: e252 a234 8d84 a734 f194 2734 68af fe35
00000080: c9c8 6d34 1762 4933 1baf 0131 e9e0 9434
00000090: 8485 2634 eed5 8d34 da3d 3d34 fcd6 aa32
000000a0: d5bd 4435 25da ae34 d869 bf31 9414 aa34
000000b0: f2a9 3134 3c93 5135 8d68 9435 e2de ce34
000000c0: d16a 9334 03a8 9134 47db 2d34 cf0d a434
000000d0: fd70 3932 d4c3 8834 c6f8 5134 cd0d 9035
000000e0: 8bab 5c34 ec90 0335 217c 9f34 fcff e434
000000f0: d14a b735 c497 8b35 4049 c534 a52a e234
4.092943e-07 3.7902893e-08 3.432129e-07 1.500694e-09 1.3212409e-07 1.4126202e-07 7.22228e-07 3.0614734e-07
4.5074313e-07 2.8496672e-07 9.99026e-07 3.9312724e-07 8.5942546e-08 5.139838e-08 1.0408091e-07 6.6051854e-08
1.810296e-07 9.656109e-07 3.8015506e-07 6.1711376e-07 7.3513734e-10 2.628709e-07 1.3585641e-06 3.7266137e-08
3.7113222e-07 1.993766e-07 3.8620183e-07 2.2787178e-07 3.0235157e-07 3.1202617e-07 1.5607272e-07 1.8975525e-06
2.214539e-07 4.688817e-08 1.8871507e-09 2.7730792e-07 1.5508527e-07 2.641895e-07 1.7624498e-07 1.9888368e-08
7.329193e-07 3.2568747e-07 5.5708647e-09 3.167994e-07 1.6546235e-07 7.807282e-07 1.1057288e-06 3.853266e-07
2.7458603e-07 2.71306e-07 1.6191653e-07 3.0557428e-07 1.0794108e-08 2.5474458e-07 1.9555145e-07 1.0732853e-06
2.0551504e-07 4.901219e-07 2.9706374e-07 4.2654563e-07 1.3656337e-06 1.0400477e-06 3.6747406e-07 4.2126808e-07
