models/model_cavity_nu0.01_U1_20x20_epochs1000_softadapt_testpcnt0.5.pt (torch, 187017 bytes, 30 tensors)

weight f4 [64, 3]
0	0x3eba5fd9	0.3640125
1	0x3ddfb964	0.10924032
2	0x3d9a6453	0.075386666
3	0xbe477626	-0.19478664
4	0x3dd18ba1	0.1023171
5	0xbd4f5fcd	-0.050628472
6	0xbf63f890	-0.8905115
7	0x3e015e6f	0.1263368
8	0x3d33f34b	0.043933194
9	0x3ef1d678	0.4723394
10	0x3eafd484	0.34341824
11	0xbd80758a	-0.06272419
12	0xbd6ca3cf	-0.057773408
13	0x3f28374e	0.6570939
14	0x3e2d3dea	0.1691815
15	0xbf1d528f	-0.614541
16	0xbe5ba2a6	-0.21448764
17	0xbf132f6a	-0.57494223
18	0xbdeaef58	-0.114714324
19	0x3f09c0fa	0.53810084
20	0xbd465b4c	-0.04842691
21	0x3eeca15c	0.46216857
22	0x3ea7a3ae	0.32742065
23	0xbe8a902e	-0.27063125
24	0x3ca1319b	0.019676974
25	0x3f41c417	0.75689834
26	0x3dc026fa	0.09382434
27	0xbea64f2e	-0.32482284
28	0x3f0a7ec7	0.54099697
29	0xbebc6ce3	-0.36801824
30	0xbf3e616b	-0.743674
31	0x3d962d87	0.073329024
32	0x3da54e34	0.08071557
33	0xbede4aca	-0.43416435
34	0x3e6a3ac1	0.22873975
35	0x3b1b5220	0.0023700073
36	0x3f027cff	0.5097198
37	0x3ee0f5e1	0.4393759
38	0xbcdc4359	-0.026887583
39	0xbf01c9e3	-0.5069868
40	0xbef295bc	-0.47379863
41	0x3da68d70	0.08132446
42	0xbee9cfcf	-0.45666358
43	0x3f1caef7	0.61204475
44	0xbcb984d9	-0.022646355
45	0xbeccdc7d	-0.4001197
46	0x3f0bd2fb	0.54618806
47	0xbdf7fd71	-0.12108887
48	0xbefc6a42	-0.49299818
49	0x3ea21a34	0.31660616
50	0xbee27c2e	-0.44235367
51	0x3eac24ca	0.33621818
52	0x3ef69c26	0.48166007
53	0xbe451548	-0.192464
54	0xbee851c5	-0.45374885
55	0xbdeb2e9c	-0.114834994
56	0x3d98b055	0.07455508
57	0x3ed7290b	0.420235
58	0xbf06b8f9	-0.52625996
59	0x3e6efecd	0.23339386
60	0x3ee8d94d	0.45478287
61	0xbefa5f8f	-0.4890103
62	0x3e912eba	0.28355962
63	0xbea11700	-0.3146286
64	0x3dea15c8	0.11429936
65	0xbe905d1c	-0.28196037
66	0x3dbeda07	0.09318929
67	0x3f3b8fb7	0.73266166
68	0x3d185368	0.037188917
69	0x3c91dcc8	0.017805472
70	0xbc6fb59b	-0.0146307
71	0xbeb1637a	-0.34646207
72	0x3efe42cd	0.4966034
73	0x3f3dc939	0.74135166
74	0xbd31de9f	-0.0434252
75	0x3e5f795b	0.21823637
76	0xbf27b302	-0.6550752
77	0xbdae3e3a	-0.085079625
78	0x3ede83ec	0.43460023
79	0xbf02f222	-0.51150715
80	0xb9f1c3a7	-0.00046112874
81	0x3e0a213f	0.13489245
82	0xbf373781	-0.7156907
83	0x3b92de78	0.0044820867
84	0xbd15b067	-0.036545184
85	0xbf3114a8	-0.69172144
86	0xbe3aa4c6	-0.18226919
87	0xbebe1282	-0.37123495
88	0x3e9e5f6d	0.3093218
89	0xba52818a	-0.0008030167
90	0x3f0164f5	0.50544673
91	0xbee0db0c	-0.4391712
92	0xbdfc5e75	-0.12322704
93	0xbe64d02b	-0.22345035
94	0xbe95df93	-0.29272136
95	0xbe975da2	-0.29563624
96	0xbe928903	-0.28620157
97	0xbecdeac4	-0.40218174
98	0xbc6282ef	-0.013825162
99	0x3daa41ed	0.083133556
100	0xbf715d26	-0.9428276
101	0x3e112ed4	0.1417802
102	0x3ead9ce1	0.33908752
103	0x3f0378df	0.5135631
104	0xbe17667b	-0.14785187
105	0xbf1ec661	-0.6202145
106	0xbec07ac6	-0.3759367
107	0x3ebfd67b	0.37468323
108	0x3e1b87ec	0.15188569
109	0x3e763ff5	0.24047835
110	0xbf0fb02b	-0.56128186
111	0x3e2cee37	0.16887747
112	0x3e959b2d	0.29219952
113	0x3d938de0	0.07204795
114	0xbee9f12f	-0.4569182
115	0xbeaf8687	-0.34282324
116	0x3e10242c	0.14076298
117	0x3ea673b9	0.32510164
118	0x3e07bcde	0.13255641
119	0xbe454101	-0.19263078
120	0x3d859248	0.065220416
121	0x3f42c452	0.7608081
122	0x3e1933a7	0.1496111
123	0x3cde2098	0.027115151
124	0xbf230a39	-0.63687474
125	0x3d432490	0.04764229
126	0xbd0d93d0	-0.034564793
127	0xbd7d3edd	-0.06182753
128	0xbecf643b	-0.40506157
129	0x3f09585e	0.5365046
130	0x3ef661d1	0.48121503
131	0x3eaadd8b	0.3337215
132	0xbe415b85	-0.18882568
133	0x3e4364c1	0.19081403
134	0xbadfb77b	-0.0017068231
135	0x3c97f0ff	0.018547533
136	0x3e8d2c70	0.27572966
137	0xbd67e688	-0.056616336
138	0x3f13c7cb	0.57726735
139	0xbef38c9b	-0.4756821
140	0x3e881c07	0.26583883
141	0xbe97cea9	-0.29649857
142	0xbd41d31d	-0.047320474
143	0xbd441268	-0.047869116
144	0xbf20ff22	-0.628893
145	0xbe9064b1	-0.2820182
146	0x3d00a3cb	0.031406205
147	0xbec41946	-0.38300532
148	0x3eecc1ce	0.4624161
149	0xbbad38d5	-0.005286316
150	0xbf1a1de8	-0.60201883
151	0x3efe5b1c	0.49678886
152	0x3d73808d	0.059448767
153	0xbef9c1eb	-0.4878076
154	0xbe0f7c64	-0.14012295
155	0xbe0281ae	-0.12744781
156	0xbf00b649	-0.50278145
157	0x3f02958b	0.51009434
158	0xbcbc7b07	-0.023007883
159	0xbd0f421c	-0.034975156
160	0x3e25098d	0.16116925
161	0x3e176282	0.14783671
162	0xbe75210b	-0.23938386
163	0x3e032686	0.12807664
164	0xb9aa5810	-0.00032490538
165	0x3e8dc6df	0.2769079
166	0x3f237dd9	0.63863903
167	0xbdace530	-0.084421515
168	0xbed5e6a7	-0.41777536
169	0xbe367cec	-0.17821091
170	0x3e93e65c	0.28886688
171	0xbce50c2a	-0.027959902
172	0xbc86622f	-0.01640424
173	0x3d918580	0.07105541
174	0x3f03afb9	0.51440006
175	0x3e8d1939	0.27558306
176	0xbe2855c7	-0.16438971
177	0xbf0eb256	-0.5574087
178	0xbef2eb2a	-0.4744504
179	0xbde7b70c	-0.1131421
180	0x3f00b220	0.502718
181	0x3e49c625	0.19704492
182	0x3e82bb6e	0.25533623
183	0x3eaec538	0.3413484
184	0x3e371e25	0.17882593
185	0xbb56f895	-0.0032801975
186	0xbf0e49f2	-0.5558158
187	0xbecaf40d	-0.3963932
188	0x3d3ad1e8	0.04561034
189	0xbf01352c	-0.5047176
190	0x3ec0836d	0.3760027
191	0x3e10fda0	0.1415925

bias f4 [64]
0	0x3d2443c4	0.04010369
1	0x3f0f990b	0.560929
2	0xbd021201	-0.03175545
3	0x3e00b600	0.12569427
4	0x3e80bc5e	0.25143713
5	0xbe2236b1	-0.15841176
6	0x3e7c58a4	0.24643189
7	0xbc00e0c7	-0.007866091
8	0x3ea798cc	0.32733762
9	0xbc0fb1bc	-0.0087704025
10	0xbe301273	-0.17194538
11	0x3ec27b69	0.3798478
12	0x3e454f54	0.19268543
13	0x3e80eba4	0.2517978
14	0xbd6bd3e5	-0.057575125
15	0xbe47f88a	-0.19528404
16	0x3dc60d1d	0.0967047
17	0xbe300081	-0.17187692
18	0x3d3a4102	0.045472153
19	0xbda99aac	-0.082814544
20	0x3cf36eae	0.029715862
21	0xbd8b690c	-0.068071455
22	0x3e115f4a	0.14196506
23	0xbf25dfa4	-0.64794374
24	0xbe9011ba	-0.28138524
25	0xbee75f04	-0.4518968
26	0x3d1bb2d9	0.03801236
27	0xbed109b9	-0.4082773
28	0xbe2a7ee6	-0.1664997
29	0x3e0a077e	0.1347942
30	0xbd90ec38	-0.07076305
31	0xbe963074	-0.29333842
32	0x3dd0339e	0.10166095
33	0xbe0f7e94	-0.1401313
34	0xbe6f4eec	-0.2336995
35	0x3e7833bd	0.24238487
36	0xbf82b192	-1.021044
37	0x3dc1c12c	0.09460673
38	0xbdb74c3a	-0.08950086
39	0x3e11e473	0.14247303
40	0x3e26d90e	0.16293737
41	0x3dd282e9	0.102788754
42	0xbf48f807	-0.7850346
43	0x3e52ec85	0.20598038
44	0x3cf72332	0.03016815
45	0x3e95bd7f	0.29246137
46	0xbd465bf6	-0.048427545
47	0x3f2c73eb	0.67364377
48	0x3e875447	0.26431486
49	0x3d43f856	0.047844253
50	0x3e7ee919	0.24893607
51	0xbe32e7e7	-0.17471276
52	0x3e181270	0.14850783
53	0x3eaea7e4	0.34112465
54	0x3e52254d	0.20522042
55	0xbe58712a	-0.21136919
56	0xbe22196c	-0.1583001
57	0xbe49ef7a	-0.1972026
58	0x3ed73498	0.42032313
59	0x3e8d2ac2	0.27571684
60	0x3f081f99	0.53173214
61	0x3e9a968d	0.30192986
62	0x3e83ab45	0.25716606
63	0x3dcdb670	0.10044563

weight f4 [64, 64]
0	0xbdfc0aa5	-0.12306718
1	0x3caa941a	0.020822573
2	0xbd417bb1	-0.047237102
3	0xbd46e9d1	-0.04856283
4	0xbd4f194d	-0.050561238
5	0xbde0547f	-0.10953616
6	0xbd4d5030	-0.0501253
7	0xba19b72c	-0.00058637816
8	0xbd98c225	-0.07458905
9	0xbd6b0880	-0.057381153
10	0x3dc8cf76	0.09805195
11	0xbdc62e3d	-0.09676788
12	0x3d3b100d	0.045669604
13	0x3d714f90	0.058913767
14	0x3ddebe18	0.10876101
15	0xbc4f6309	-0.012657889
16	0xbddc5261	-0.107579
17	0xbcc23eb3	-0.023711538
18	0xbdcae462	-0.09906842
19	0xbe124030	-0.14282298
20	0xbce11a77	-0.02747844
21	0xbdd9b30f	-0.10629856
22	0x3c53f717	0.012937329
23	0x3c336085	0.010948305
24	0xbd86375d	-0.065535285
25	0xbdd8afa1	-0.105803736
26	0x3b994031	0.0046768417
27	0xbe064d1c	-0.13115352
28	0xbc8129e4	-0.015767045
29	0xbdd60c28	-0.10451537
30	0xbe286a8f	-0.16446899
31	0x3dd226ba	0.10261293
32	0xbe069087	-0.1314107
33	0x3d988914	0.074480206
34	0x3df51cdc	0.11968395
35	0xbb4c68cc	-0.0031190393
36	0x3df0a50b	0.117502294
37	0x3cf2aed6	0.029624384
38	0xbd87b498	-0.066262424
39	0x3c6ad895	0.014333864
40	0xbe242ba9	-0.1603228
41	0xbd126362	-0.03573931
42	0x3da9d1a0	0.08291936
43	0x3d07ec94	0.033184603
44	0xbdaf778a	-0.08567722
45	0xbde07670	-0.1096009
46	0xbcf75369	-0.03019114
47	0xbd1e087b	-0.038582306
48	0x3d4dda70	0.050257146
49	0x3d4a0218	0.049318403
50	0xbe23eece	-0.16009066
51	0xbdeffd44	-0.117182285
52	0xbdd42d0e	-0.10360156
53	0xbd78636e	-0.0606417
54	0xbe461773	-0.19344883
55	0x3d870b74	0.065939814
56	0xbd72ca36	-0.059274875
57	0xbd9c2383	-0.07623961
58	0x3cc54ef0	0.024085492
59	0xbe18352b	-0.14864032
60	0xbdcf05ca	-0.10108526
61	0xbe1a0cdd	-0.1504397
62	0xbd7af553	-0.061269116
63	0x3da191cc	0.07889137
64	0xbead1950	-0.33808374
65	0xbdc56d6a	-0.0964001
66	0x3dc89d97	0.09795683
67	0x3d02b8ae	0.031914406
68	0x3e082ebd	0.13299079
69	0xbe061e52	-0.13097504
70	0xbd42233e	-0.04739689
71	0xbd858868	-0.06520158
72	0x3dbe876a	0.09303172
73	0xbdc37c04	-0.095451385
74	0xbd225b91	-0.039638106
75	0xbde789ba	-0.11305566
76	0xbd12f868	-0.03588143
77	0x3e146f2a	0.1449553
78	0xbda02958	-0.07820386
79	0xbdc79e2a	-0.09746964
80	0xbdd60efe	-0.10452078
81	0xbd3e30ef	-0.046433385
82	0xbd6c4b9e	-0.0576893
83	0xbd48a6ff	-0.048987385
84	0x3ce5e88e	0.028064992
85	0xbe566a5f	-0.20939015
86	0xbd470e91	-0.048597876
87	0xbe51b09e	-0.2047753
88	0x3df48892	0.11940111
89	0xbd0d96ff	-0.03456783
90	0x3c9e5f62	0.019332591
91	0x3dfdf6a5	0.12400559
92	0xbca1a6a1	-0.019732775
93	0xbe021659	-0.12703837
94	0xbdc651d7	-0.096835785
95	0xbdd85284	-0.105626136
96	0xbdcf9abd	-0.10136936
97	0xbdea303c	-0.11434981
98	0x3d00abf4	0.031413987
99	0x3e153f64	0.14574963
100	0xbd028889	-0.03186849
101	0xbdd2071f	-0.102552645
102	0xbdeb0186	-0.114749
103	0xbe50a9f6	-0.20377335
104	0x3e1148c1	0.1418791
105	0x3c887d3d	0.01666128
106	0xbdee2095	-0.11627308
107	0x3d166fe7	0.036727812
108	0xbd96c9a2	-0.07362677
109	0xbdf9e77a	-0.12202354
110	0xbe0fb615	-0.14034303
111	0xbc6f08be	-0.014589487
112	0x3c9f4590	0.01944235
113	0xbdbe12d3	-0.09280934
114	0x3e11ef3a	0.14251414
115	0xbc3a1309	-0.011357077
116	0x3cc4022c	0.023926817
117	0xbdcf32f5	-0.10117141
118	0xbdb71bd6	-0.08940856
119	0xbd998909	-0.074968405
120	0xbbe55d09	-0.006999616
121	0xbd9059f7	-0.070484094
122	0x3d09733f	0.033557173
123	0xbc238ae5	-0.0099818455
124	0x3d14e39f	0.03634989
125	0xbe28e5c1	-0.16493894
126	0xbc362d30	-0.011119172
127	0xbdae6651	-0.08515609
128	0x3ccb9e8e	0.024855878
129	0xbd4dc63f	-0.05023789
130	0xbe01985b	-0.12655775
131	0x3bc1b83d	0.0059118555
132	0x3dd2416a	0.10266383
133	0xbdb37a9e	-0.08763622
134	0xbd84b89e	-0.064805254
135	0xbd61701f	-0.055038568
136	0x3e1daa6f	0.15397047
137	0xbdf9f704	-0.122053176
138	0xbdcc72b8	-0.09982818
139	0xbdc1fe66	-0.09472351
140	0xbcf00a5b	-0.029301813
141	0xbdfd6d1d	-0.12374327
142	0x3c17e7f9	0.009271615
143	0xbd4a6d3c	-0.04942058
144	0x3cf13e3d	0.029448623
145	0xbdbad79f	-0.09123158
146	0xbcd30cae	-0.025762882
147	0xbd699090	-0.05702263
148	0x3dc09b46	0.09404616
149	0x3c7c3ac2	0.015394868
150	0xbd118a49	-0.03553227
151	0xbe2bf61e	-0.16793105
152	0xbd788a50	-0.06067878
153	0xbdc7543e	-0.09732865
154	0xbcac00b1	-0.020996423
155	0x3db09059	0.08621282
156	0xbe269db9	-0.16271104
157	0x3db55626	0.08854322
158	0x3b493291	0.0030700306
159	0x3c8fe94e	0.017567303
160	0xbdd2c73c	-0.10291907
161	0x3dd6dbdf	0.10491156
162	0xbc395ce6	-0.011313653
163	0x3cfe715f	0.031059919
164	0xbdad87c4	-0.08473161
165	0x3d8cf957	0.06883495
166	0xbdb6bbff	-0.08922576
167	0xbe2e1567	-0.17000352
168	0x3d3a1f41	0.045439962
169	0x3def9484	0.11698249
170	0x3c1a63b9	0.00942319
171	0xbd539073	-0.05165143
172	0xbd695e3f	-0.056974646
173	0xbd748ec1	-0.059706453
174	0xbc8a5b58	-0.01688926
175	0xbe1e9cc0	-0.15489483
176	0xbd232c6f	-0.039837297
177	0x3d8d61c3	0.06903412
178	0x3c7c4fe0	0.015399903
179	0xbe481ecd	-0.19543
180	0x3da810fe	0.08206366
181	0x3c3f3306	0.01166988
182	0x3d651edc	0.055937633
183	0x3d30a9a5	0.043130536
184	0xbd5e63e6	-0.05429449
185	0x3e2e83d7	0.1704248
186	0xbdc36f86	-0.09542756
187	0xbdea9868	-0.114548504
188	0xbd9c07d5	-0.07618681
189	0xbdad1bc6	-0.08452563
190	0x3e014b5e	0.12626407
191	0xbdd03f10	-0.10168278
192	0x3e82d0a4	0.25549805
193	0xbd848ee1	-0.064725645
194	0x3d225adc	0.03963743
195	0x3e60ca21	0.21952106
196	0xbb9a22e1	-0.004703865
197	0x3cf9bb11	0.030484708
198	0x3caf0b13	0.021367585
199	0x3d636b65	0.05552234
200	0x3c0f81fc	0.008759018
201	0x3df2deb9	0.11858887
202	0xbcaa8640	-0.020815969
203	0xbd5726be	-0.05252718
204	0x3d9f3189	0.0777312
205	0x3e1f6f67	0.1556984
206	0xbe030141	-0.12793447
207	0x3bf81dce	0.0075719124
208	0x3cd3b46d	0.02584287
209	0x3ce78468	0.028261378
210	0x3df748fd	0.12074468
211	0xbcf3436e	-0.029695239
212	0x3d6c89f2	0.057748742
213	0x3e32523b	0.17414181
214	0xbd8a9085	-0.06765846
215	0xbdc94adc	-0.098287314
216	0xbd0624bb	-0.032749873
217	0xbbc5ce86	-0.0060365824
218	0xbcca5467	-0.02469845
219	0xbd8b85fc	-0.06812665
220	0xbc9bc832	-0.019016359
221	0x3c33a44c	0.010964464
222	0xbdae2a9e	-0.08504222
223	0xbd673afd	-0.05645274
224	0x3ce1b95b	0.027554205
225	0xbdee8e9d	-0.11648295
226	0x3bc61547	0.006045017
227	0xbcfe4503	-0.031038767
228	0x3e8127ae	0.25225586
229	0x3da8f4bc	0.082498044
230	0x3d796394	0.06088598
231	0xbc059281	-0.008152605
232	0x3dc8bb4b	0.09801348
233	0xbdcfaaf3	-0.10140028
234	0x3ddaa968	0.10676843
235	0x3e0dcccc	0.13847655
236	0x3bd6f2d4	0.006559709
237	0xbd69a673	-0.057043504
238	0xbe4631df	-0.19354962
239	0xbdd90828	-0.10597259
240	0xbd50440e	-0.050846152
241	0xbd9b1c5f	-0.07573771
242	0x3dc88a0f	0.097919576
243	0x3ca9d105	0.020729551
244	0x3cfd1eaf	0.03089842
245	0x3e137557	0.1440023
246	0x3b4d5b40	0.0031334907
247	0x3d98c239	0.0745892
248	0x3e0b0ba5	0.13578661
249	0xbda31ca9	-0.07964451
250	0x3de21671	0.110394366
251	0xbda2a61b	-0.07941838
252	0x3da6c69a	0.08143349
253	0x3e77e68e	0.24209043
254	0x3d01c0ef	0.031678136
255	0xbd6c2aad	-0.057657886

bias f4 [64]
0	0x3d65dff3	0.056121778
1	0xbdc51d87	-0.096247725
2	0xbe273437	-0.16328512
3	0x3de2029a	0.110356525
4	0xbc8a5e6c	-0.016890727
5	0xbe07a83f	-0.13247775
6	0xbcf2d4f5	-0.029642561
7	0x3d8b99ca	0.06816442
8	0xbd89410f	-0.06701862
9	0xbcf0521b	-0.029336026
10	0x3ba98f16	0.005174528
11	0xba8d359f	-0.0010773427
12	0x3e18fa99	0.14939345
13	0xbdf64fa9	-0.12026913
14	0xbd7bd73a	-0.061484553
15	0xbd8f64d7	-0.070016555
16	0x3c297bad	0.010344428
17	0x3c39be71	0.011336909
18	0x3cc3fb0a	0.023923416
19	0xbda90f54	-0.08254877
20	0xbde39e92	-0.11114229
21	0xbdbd1c58	-0.09233922
22	0xbdbd1535	-0.092325605
23	0x3dfd63d7	0.123725586
24	0xbc325bab	-0.010886113
25	0xbe1b52d2	-0.15168312
26	0xbd7179af	-0.058953937
27	0x3cc9053b	0.024538627
28	0x3c1f7212	0.009731786
29	0x3bf9fa96	0.007628749
30	0xbe0d66be	-0.13808724
31	0x3d3e4ae4	0.04645814
32	0xbdb30437	-0.08741038
33	0x3d6addfc	0.057340607
34	0x3d2eb102	0.042649277
35	0xbca18de9	-0.019720988
36	0x3dbc4d7b	0.09194466
37	0xbdaed7cb	-0.08537253
38	0x3d965a25	0.073414125
39	0xbde4b5af	-0.11167466
40	0xbe3869f3	-0.18009166
41	0xbb521920	-0.0032058433
42	0xbce2cd97	-0.027685924
43	0xbd860c8f	-0.06545364
44	0xbdc11f00	-0.09429741
45	0xbd8b7fed	-0.06811509
46	0x3d183ffe	0.037170403
47	0xbd5d538d	-0.05403476
48	0x3e021661	0.1270385
49	0xbdcfda49	-0.101490565
50	0xbd0be909	-0.034157787
51	0x3d44dc8f	0.048061904
52	0x3d21ec45	0.039531965
53	0x3ce50ff8	0.027961716
54	0xbe01ff31	-0.12695004
55	0x3c5215b4	0.012822557
56	0xbd54d521	-0.051961068
57	0xbddc6238	-0.10760921
58	0xbe43fb3d	-0.19138809
59	0xbdb66a40	-0.08906984
60	0x3cf7b60f	0.03023818
61	0x3dd32216	0.10309236
62	0x3db86bfe	0.09004973
63	0xbdfe0dc8	-0.12404972

weight f4 [64, 64]
0	0xbd53a5c4	-0.05167176
1	0x3d3a014d	0.045411397
2	0xbe0d079a	-0.13772431
3	0xbe52c576	-0.20583138
4	0xbbc31b67	-0.0059541943
5	0xbc809ecb	-0.015700718
6	0xbd151cda	-0.036404468
7	0x3da023fb	0.07819363
8	0xbddea2e4	-0.10870913
9	0x3c3d9f6d	0.011573655
10	0xbe83e8b4	-0.25763476
11	0xbe07f51a	-0.13277093
12	0x3dc19076	0.09451382
13	0x3e02fe19	0.12792243
14	0xbd2a012d	-0.041505028
15	0xbb843f50	-0.0040358678
16	0x3d1ffc87	0.03905919
17	0xbc3fb9c9	-0.0117020095
18	0x3d3b9db7	0.045804705
19	0xbdcaad26	-0.09896307
20	0xbd7212fb	-0.059100132
21	0xbd5cc09b	-0.05389462
22	0xbd3ee2d2	-0.04660303
23	0xbd25e954	-0.040505722
24	0x3da7ffa4	0.082030565
25	0xbd8a565f	-0.06754755
26	0xbd5b6849	-0.05356625
27	0x3d48c457	0.04901537
28	0xbca8d2ad	-0.02060827
29	0xbd5db08a	-0.05412344
30	0xbd9837ad	-0.07432494
31	0x3e2aad84	0.16667753
32	0xbd8679c2	-0.06566192
33	0xbd946aec	-0.07246956
34	0x3d39ec3f	0.045391317
35	0xbc179f7a	-0.009254331
36	0x3c5b3b6e	0.013380868
37	0xbd45a29a	-0.048250772
38	0xbe56451a	-0.20924798
39	0xbc8598e4	-0.016308255
40	0x3e20e835	0.1571358
41	0xbe0776c4	-0.13228899
42	0x3cce20c7	0.025162114
43	0xbdc35997	-0.09538572
44	0x3de82a5c	0.113362044
45	0x3b9ff9ba	0.0048820646
46	0x3d96018d	0.073245145
47	0xbdee073d	-0.11622474
48	0xbe0d06e5	-0.13772161
49	0x3df7d3bf	0.12100934
50	0x3e087e9c	0.13329548
51	0x3d1228ab	0.035683315
52	0xbc0acfb7	-0.008472375
53	0x3d5e89ae	0.05433052
54	0x3b8f9efa	0.004382965
55	0xbdd5fdc7	-0.10448795
56	0xbdc3e994	-0.09566036
57	0xbd87f17a	-0.06637855
58	0x3b04b551	0.0020249675
59	0xbe134699	-0.143824
60	0x3da541a2	0.08069159
61	0xbb1f8c0e	-0.0024344954
62	0xbd2520b9	-0.04031441
63	0xbe130af1	-0.14359643
64	0xbd33bbd6	-0.043880306
65	0x3d8bef3d	0.068327405
66	0xbd99399f	-0.074816935
67	0xbe1370b9	-0.14398469
68	0x3d222e0a	0.039594688
69	0x3e1b2294	0.1514991
70	0x3ce5c483	0.028047806
71	0xbd4149d8	-0.047189564
72	0x3de41920	0.11137605
73	0x3d922ff4	0.071380526
74	0x3e38ecc1	0.18059064
75	0x3d7cb28f	0.061693724
76	0xbd8079b3	-0.06273212
77	0xbdae1f0e	-0.08502017
78	0xbe01ec31	-0.12687756
79	0x3d8311e7	0.06399899
80	0x3baf55ac	0.005350789
81	0xbe8d7b6d	-0.2763323
82	0xbe01dab5	-0.12681086
83	0xbe067f18	-0.1313442
84	0xbbc03c8e	-0.0058665937
85	0x3d01a15f	0.031648036
86	0xbd065197	-0.032792654
87	0x3e530ebc	0.2061109
88	0xbdde4e92	-0.1085483
89	0xbdd14c80	-0.10219669
90	0xbe172ecb	-0.14763944
91	0xbd096226	-0.033540867
92	0x3da2e75c	0.079542845
93	0x3d22459e	0.039617173
94	0xbdd570a9	-0.10421879
95	0x3d736ffb	0.059432965
96	0xbdf9007d	-0.12158296
97	0xbc898d31	-0.016790958
98	0xbb7b78cd	-0.0038371563
99	0xbcccfcc6	-0.025022876
100	0xbd926e0a	-0.071498945
101	0x3dd5f6ea	0.10447486
102	0x3decd604	0.11564258
103	0x3cbcf6f2	0.023066971
104	0xb9b4b9ba	-0.00034470652
105	0xbe6afc16	-0.22947726
106	0xbd81f84d	-0.06346188
107	0xbdd20247	-0.102543406
108	0x3de4da09	0.111743994
109	0x3cc92b96	0.024556916
110	0x3e16a818	0.1471256
111	0x3d829a6e	0.063771114
112	0xbda47165	-0.08029441
113	0xbd6d7ad9	-0.057978485
114	0x3bfb34b5	0.0076661953
115	0x3e252cdf	0.16130398
116	0x3edd6b4d	0.43245926
117	0x3d88d94b	0.0668207
118	0xbd9d16ba	-0.076703504
119	0x3e160a3d	0.14652343
120	0x3d886eea	0.0666178
121	0xbdde485a	-0.10853644
122	0xbdeaee4a	-0.11471231
123	0xbcf817ed	-0.030284846
124	0x3dfb5aad	0.122731544
125	0x3d900d4e	0.07033788
126	0x3dd34035	0.10314981
127	0xbdcf292e	-0.10115276
128	0x3de02514	0.10944572
129	0x3d6a60e4	0.05722131
130	0xbb0561c0	-0.0020352453
131	0xbd622b4b	-0.05521707
132	0x3d23fc1f	0.040035363
133	0x3cb4bde5	0.022063205
134	0xbc44ae5e	-0.012004463
135	0xbca7596f	-0.020428387
136	0xbe824a69	-0.25447395
137	0x3b08f0fb	0.0020895589
138	0xbd899e21	-0.06719614
139	0xbe564bee	-0.20927402
140	0xbcb180e3	-0.021667903
141	0xbb6cbb24	-0.0036122287
142	0xbcf4262f	-0.029803364
143	0x3c341731	0.010991857
144	0x3daf31c0	0.08554411
145	0x3de98f52	0.11404289
146	0xbc4ae8c9	-0.012384602
147	0xbc6714ca	-0.014104078
148	0x3bd8cc00	0.0066161156
149	0x3d65c953	0.0561002
150	0xbda76aa4	-0.08174637
151	0xbe05ba0a	-0.1305925
152	0xbd7da785	-0.061927337
153	0x3dc7eb04	0.097616225
154	0xbde91673	-0.11381235
155	0x3e17a115	0.14807542
156	0xbd8cf830	-0.068832755
157	0xbd267ce1	-0.040646438
158	0x3d3f5ebc	0.046721205
159	0x3c849d70	0.016188353
160	0x3ac37a00	0.0014913678
161	0xbe07823c	-0.13233274
162	0xbd8c6f95	-0.0685722
163	0x3df11356	0.11771266
164	0xbc3af587	-0.011411077
165	0xbd857d24	-0.06518009
166	0xbe026369	-0.12733234
167	0x3e2c3d40	0.1682024
168	0x3d9f1dea	0.077693775
169	0x3d901a5d	0.070362784
170	0x3cb4670e	0.022021797
171	0x3da1a87e	0.078934655
172	0xbdfbc0f0	-0.12292659
173	0x3d83e069	0.06439287
174	0xbe288827	-0.16458188
175	0xbc189cf0	-0.009314761
176	0x3db57059	0.08859319
177	0xbdc5affa	-0.096527055
178	0xbdb6fb28	-0.08934623
179	0xbe0ad8fb	-0.13559334
180	0x3dd6bf81	0.10485745
181	0xbcd8bf8e	-0.026458528
182	0xbdce6499	-0.10077781
183	0xbe123089	-0.14276327
184	0x3d4fd730	0.05074233
185	0xbd64df02	-0.05587674
186	0x3da96fb8	0.08273262
187	0xbe138201	-0.14405061
188	0xbdafb216	-0.08578889
189	0xbb25bd97	-0.0025290006
190	0x3d884cee	0.06655298
191	0x3da682c5	0.08130411
192	0x3c9ba223	0.018998211
193	0xbea229bd	-0.3167247
194	0xbd913c26	-0.070915505
195	0x3d23dcdf	0.04000556
196	0xbd10fbc6	-0.03539636
197	0xbb71f5aa	-0.0036920109
198	0xbc9a74c8	-0.018854514
199	0x3de8045e	0.11328958
200	0x3e2622b3	0.16224174
201	0x3dc4d3d2	0.09610714
202	0x3cdc9829	0.026928024
203	0x3db95fa7	0.09051447
204	0xbde0cb47	-0.10976272
205	0x3e66a505	0.22523887
206	0x3cff1dd7	0.031142158
207	0x3ea0b326	0.3138668
208	0x3c71657e	0.01473367
209	0x3e026baf	0.1273639
210	0x3caa970f	0.020823983
211	0x3d5a3da8	0.053281456
212	0xbd6b00dd	-0.05737387
213	0xbd502a8c	-0.050821826
214	0xbd8beb3e	-0.06831978
215	0x3d16a0bd	0.036774386
216	0xbce1feb0	-0.027587265
217	0xbdfa53fd	-0.12223051
218	0x3d44307d	0.047897805
219	0xbdd9c9cf	-0.10634195
220	0x3df52b5b	0.1197116
221	0xbdcb447d	-0.099251725
222	0xbdd3b5ca	-0.10337408
223	0x3c566ee7	0.013087965
224	0xbdab44d7	-0.083627395
225	0xbdbd64aa	-0.09247716
226	0x3e231187	0.15924655
227	0x3e1c14bf	0.15242289
228	0xbdb7d1bf	-0.08975553
229	0xbd71d2ee	-0.05903905
230	0x3e5729fb	0.21012108
231	0xbe018bf5	-0.12651046
232	0x3dce9453	0.10086884
233	0xbd31d31a	-0.043414213
234	0x3d290238	0.04126188
235	0x3e235453	0.15950136
236	0x3e516607	0.20449077
237	0xbd88b06e	-0.06674276
238	0xbd3a0b14	-0.04542072
239	0x3c6dd7c6	0.014516776
240	0x3dfec313	0.12439551
241	0x3e1ad195	0.15119012
242	0xbd7d5b79	-0.061854813
243	0xbda01f95	-0.07818524
244	0xbe43a2bf	-0.19105051
245	0xbd7b6eb9	-0.06138489
246	0x3cdce4a3	0.026964491
247	0xbd34924e	-0.04408484
248	0xbd8e6134	-0.06952134
249	0xbe7d18e7	-0.2471653
250	0xbdbd9d70	-0.092585444
251	0x3d9ed6c2	0.077558056
252	0x3d83e505	0.064401664
253	0x3e4b9154	0.19879657
254	0x3d60f673	0.054922532
255	0xbe1e9cc4	-0.15489489

bias f4 [64]
0	0x3d2f3e32	0.042783923
1	0x3ca6a2bf	0.020341275
2	0xbe7797a4	-0.2417894
3	0xbd2a462a	-0.04157082
4	0x3c9cde86	0.019149076
5	0xbbde9b53	-0.0067934184
6	0xbdf68778	-0.12037557
7	0x3da4d75e	0.080488905
8	0xbe01a664	-0.12661129
9	0x3c84f890	0.016231805
10	0xbde7248c	-0.11286268
11	0x3dfe2833	0.12410011
12	0x3d2835fe	0.041067116
13	0x3d3a0f67	0.045424845
14	0xbd9e3718	-0.07725352
15	0x3e1a90a6	0.15094241
16	0x3d89e2e9	0.06732733
17	0x3e11b334	0.14228517
18	0xbe1a471e	-0.15066192
19	0x3acbc460	0.0015546195
20	0xbd55f756	-0.05223783
21	0xbd71b2af	-0.059008297
22	0x3c4e0338	0.01257401
23	0xbbedf30a	-0.0072616385
24	0xbd2e40e8	-0.04254237
25	0xbe8ea542	-0.27860457
26	0xbda783a9	-0.08179409
27	0x3d20adbe	0.039228193
28	0x3dd7d63a	0.10538907
29	0xbdd5f16c	-0.10446438
30	0x3bea4f62	0.0071505764
31	0x3dcebb1b	0.10094281
32	0xbccd41fd	-0.02505588
33	0x3db3ce32	0.08779563
34	0xbd1307c4	-0.035896078
35	0x3d5f1f2a	0.05447308
36	0xbc6bf31c	-0.0144012235
37	0xbc3ba43c	-0.011452731
38	0xbd816b7c	-0.06319329
39	0xbd5e67cc	-0.054298207
40	0x3d6cbd92	0.057797976
41	0x3ca55fa8	0.020187214
42	0x3dc091d7	0.09402817
43	0x3e1d6b20	0.15372896
44	0xbd7e800e	-0.06213384
45	0xbc39f016	-0.011348745
46	0xbdc350f2	-0.095369235
47	0xbc7bde91	-0.015372888
48	0x3c3ef15f	0.011654227
49	0xbcd2549c	-0.02567511
50	0x3c093ca6	0.008376276
51	0x3da22bbc	0.07918498
52	0x3dc22a2c	0.094807
53	0xbc84291d	-0.016132886
54	0xbcb6c89d	-0.022312457
55	0x3dadbdb6	0.0848345
56	0xbce5d089	-0.028053539
57	0xbda112f4	-0.07864943
58	0xbdaf177e	-0.08549403
59	0x3de4256d	0.11139951
60	0xbc5199be	-0.012793003
61	0x3dd77470	0.105202556
62	0xbe0406a3	-0.12893157
63	0x3d98503b	0.07437178

weight f4 [64, 64]
0	0xbe51e31d	-0.20496793
1	0xbdf6d4a6	-0.12052278
2	0x3e427b91	0.1899245
3	0x3e3a60ea	0.18201032
4	0x3d9d7a21	0.0768931
5	0x3cb2fd16	0.021849196
6	0xbba68129	-0.005081315
7	0xbe0f7ef4	-0.14013273
8	0x3ce307a7	0.02771361
9	0x3de43d00	0.11144447
10	0x3e43843f	0.19093417
11	0x3e1846e9	0.148708
12	0xbda51d4c	-0.080622286
13	0xbd0e0203	-0.034669887
14	0xbca6a270	-0.020341128
15	0xbe3c49fc	-0.18387598
16	0xbda277fb	-0.07933041
17	0xbdc1d404	-0.09464267
18	0x3e00c8ea	0.12576643
19	0xbd31dc1b	-0.0434228
20	0x3e60c90a	0.2195169
21	0xbe2a2df7	-0.16619097
22	0x3cf26d9a	0.029593278
23	0x3df17cca	0.1179138
24	0xbe2616d5	-0.16219647
25	0x3dff3bee	0.124626026
26	0x3e29b95c	0.16574615
27	0xbd2a8586	-0.041631244
28	0xbd6ca4c1	-0.05777431
29	0x3dee3a78	0.11632246
30	0xbd6f7ee3	-0.058470618
31	0x3d92a79e	0.07160877
32	0x3c133080	0.008983731
33	0x3da236db	0.07920619
34	0x3dab7cbc	0.083734006
35	0xbe164488	-0.1467458
36	0xbc09f4f8	-0.0084202215
37	0x3e220699	0.1582283
38	0x3e16ac98	0.14714277
39	0x3d4ea3fe	0.050449364
40	0xbd926730	-0.07148588
41	0x3dc5b9fc	0.09654614
42	0xbc7f62be	-0.015587507
43	0xbd9dadf2	-0.07699193
44	0x3ddeb16a	0.10873683
45	0xbde28ab6	-0.11061613
46	0xbe26f2fd	-0.1630363
47	0xbcf13fbd	-0.029449338
48	0x3d630191	0.055421416
49	0xbdc90076	-0.09814541
50	0xbde918d3	-0.11381688
51	0xbde46763	-0.11152532
52	0xbe357453	-0.17720155
53	0x3e0aac9d	0.13542409
54	0x3ded86a6	0.11597948
55	0xbcd34637	-0.025790317
56	0x3b0fa762	0.0021919836
57	0xbc953287	-0.01821257
58	0xbdc5266e	-0.096264705
59	0x3da19e28	0.07891494
60	0x3d563cd9	0.052304123
61	0xbe3a1132	-0.18170622
62	0x3dd2f41e	0.10300468
63	0xbdd87014	-0.10568252
64	0xbd9a1bd8	-0.07524842
65	0xbd2b0668	-0.041754156
66	0x3cb67ba0	0.022275746
67	0xbd84c714	-0.06483284
68	0xbd489878	-0.04897353
69	0x3d789e0c	0.0606976
70	0xbded5b08	-0.115896285
71	0xbdf2df0e	-0.118589506
72	0xbda2ab5e	-0.07942842
73	0x3dbf9302	0.093542114
74	0xbd5b994c	-0.053612992
75	0x3db35a28	0.0875743
76	0x3cc36da0	0.023855984
77	0x3dc627ee	0.09675585
78	0xbd126b74	-0.035747007
79	0xbdad9dcc	-0.08477363
80	0xbda01ece	-0.078183755
81	0xbda55264	-0.080723554
82	0xbd61d454	-0.055134133
83	0xbde7e3ae	-0.11322723
84	0xbdde3798	-0.108504474
85	0xbd441390	-0.04787022
86	0x3dc0b666	0.0940979
87	0xbdf3ea9e	-0.11909984
88	0x3ce9bfb0	0.028533787
89	0x3d40dae0	0.047083735
90	0xbc6d7720	-0.014493734
91	0xbda80084	-0.08203223
92	0xbd0d8168	-0.03454724
93	0x3cb90368	0.022584632
94	0x3c69f280	0.014279008
95	0x3d013d94	0.031552866
96	0x3ddd288e	0.10798751
97	0xbba1a060	-0.0049324483
98	0x3d8e12c6	0.069371745
99	0xbdb20dd2	-0.08694042
100	0xbc51b470	-0.012799367
101	0xbce5c120	-0.02804619
102	0x3ca7d0f0	0.020485371
103	0x3dfea34c	0.1243349
104	0xbdd62436	-0.104561254
105	0xbbd62c00	-0.006536007
106	0xbdbd91c2	-0.09256317
107	0x3c15ec40	0.009150565
108	0x3d7cda6c	0.06173174
109	0xbc751660	-0.014958948
110	0xbd845a42	-0.06462528
111	0x3cf1e210	0.02952674
112	0x3ca1e388	0.019761816
113	0xbde6a88e	-0.11262618
114	0xbdc887fc	-0.09791562
115	0x3de739c8	0.11290318
116	0xbd478698	-0.048712343
117	0xbda3ca46	-0.07997565
118	0xbce6bb50	-0.02816549
119	0xbc81d808	-0.015850082
120	0x3da9f8ca	0.08299406
121	0x3d2d4d04	0.042309776
122	0x3ce52780	0.027972937
123	0xbdfc357c	-0.12314889
124	0x3cf72388	0.03016831
125	0x3d5f94d8	0.054585308
126	0xbc3341e0	-0.010940999
127	0x3ddd951c	0.10819456
128	0x3a4635f5	0.0007561141
129	0xbe87db4c	-0.26534498
130	0x3e480176	0.19531807
131	0xbc0a8bbf	-0.00845617
132	0x3d9fadf5	0.077968515
133	0xbd85709f	-0.065156214
134	0x3df335e8	0.11875516
135	0x3cea2c34	0.02858553
136	0x3d202ac4	0.039103284
137	0x3d9e4b83	0.077292465
138	0xbc1c5eb3	-0.009544062
139	0x3d0d9569	0.034566317
140	0x3d08f181	0.03343344
141	0xbd9660ae	-0.07342659
142	0xbdc95e0a	-0.0983239
143	0xbd82040e	-0.063484296
144	0xbdfb97cc	-0.12284812
145	0xbd33ee7f	-0.04392862
146	0x3daa40c8	0.08313137
147	0xbd2498c0	-0.040184736
148	0x3d3d9a17	0.04628953
149	0x3cc0c76f	0.023532597
150	0xbc82c595	-0.015963355
151	0x3d898efd	0.06716726
152	0xbd66557b	-0.056233864
153	0x3d292a15	0.0412999
154	0x3b938e5f	0.004503056
155	0xbdb31734	-0.0874466
156	0xbd94be9c	-0.07262918
157	0x3d7af3ae	0.061267547
158	0xbe112f6e	-0.14178249
159	0x3def6966	0.11690025
160	0xbcd5c761	-0.026096048
161	0x3df8ab69	0.12142069
162	0x3dfffa9f	0.12498974
163	0x3e0f1e3a	0.13976374
164	0xbdea1f36	-0.11431734
165	0x3db55c8e	0.08855544
166	0x3e06ca03	0.13162999
167	0x3d4d76fb	0.050162297
168	0xbd22db1e	-0.039759748
169	0x3db4d8b6	0.08830397
170	0x3d03f4b1	0.032215778
171	0x3e292821	0.16519214
172	0xbd05965b	-0.032614093
173	0x3e011652	0.12606171
174	0xbdb0bb41	-0.08629466
175	0x3be5d1d3	0.0070135384
176	0xbd4a1cf5	-0.04934402
177	0x3cbaed79	0.022818314
178	0x3e267e6c	0.16259164
179	0x3dcef5b6	0.101054594
180	0xbcce1357	-0.025155706
181	0x3cf88845	0.030338416
182	0x3d585836	0.0528185
183	0x3dc7115e	0.097201094
184	0xbda5b899	-0.0809185
185	0xbd4632bc	-0.048388228
186	0xbda48f86	-0.080351874
187	0x3a8b9775	0.0010649996
188	0x3d0bf2f9	0.034167264
189	0x3e0b9b5b	0.13633482
190	0xbd80e264	-0.062931806
191	0xbe0b7e21	-0.13622333
192	0x3d1ad65e	0.037802093
193	0xbdf07c89	-0.11742503
194	0xbbd8d386	-0.0066170124
195	0x3da47677	0.08030408
196	0x3cab3cb2	0.020902965
197	0x3d4f9bd2	0.05068571
198	0x3e30fd51	0.17284133
199	0xbc6c282e	-0.014413876
200	0x3de82188	0.113345206
201	0x3bbb84da	0.0057226242
202	0xbd9f61a3	-0.077822946
203	0xbd4feb24	-0.050761357
204	0xbd4dbc2b	-0.05022828
205	0x3c9a4014	0.018829383
206	0x3d045672	0.032309003
207	0xbca42422	-0.02003676
208	0x3d549893	0.05190332
209	0xbd995755	-0.074873604
210	0x3d6995c3	0.05702759
211	0xbc02094f	-0.00793679
212	0x3d9ec52b	0.077524506
213	0x3d785404	0.060627
214	0xbd285311	-0.041094843
215	0xbd0feecf	-0.035139855
216	0x3d209064	0.0392002
217	0x3de039b7	0.10948508
218	0x3d931d16	0.07183282
219	0x3d6801e1	0.056642417
220	0xbe59be0a	-0.212639
221	0x3d26f003	0.040756237
222	0x3d487868	0.048942953
223	0x3db024ba	0.08600755
224	0x3cc47d9c	0.023985676
225	0x3c952a5b	0.018208673
226	0xbd8a81a0	-0.06763005
227	0x3c4e52ed	0.012593013
228	0xbdb2c305	-0.08728603
229	0x3e22be25	0.15892847
230	0xbd78850e	-0.060673766
231	0xbc6a6712	-0.0143068
232	0x3e0784fc	0.13234323
233	0x3c797332	0.015225219
234	0x3de77495	0.11301533
235	0xbe2050d5	-0.15655835
236	0x3d9e9eed	0.077451564
237	0x3c82fe11	0.015990289
238	0xbd380adb	-0.044932228
239	0x3d4b94da	0.049702503
240	0x3dbd350b	0.09238633
241	0x3d80c52d	0.06287608
242	0x3cdeaaf8	0.027181134
243	0xbe31b311	-0.17353465
244	0xbd15a177	-0.036530938
245	0xb8eeb868	-0.00011383073
246	0xbd80ec44	-0.06295064
247	0x3d90fe02	0.07079698
248	0xbde85ec8	-0.11346203
249	0xbd5c4199	-0.053773496
250	0x3d7f1550	0.062276185
251	0xbda5a575	-0.08088199
252	0x3d160532	0.03662605
253	0x3df1661f	0.11787056
254	0xbc5fba26	-0.013655221
255	0xbdad19a5	-0.08452157

bias f4 [64]
0	0xbd8c81a8	-0.068606675
1	0xbdf6da1c	-0.1205332
2	0x3b74dbcb	0.0037362452
3	0x3bc345b6	0.005959238
4	0x3cf08a50	0.029362828
5	0x3c0b172a	0.008489409
6	0xbcf41da7	-0.029799296
7	0xbe040ab2	-0.12894705
8	0x3c0a9d9a	0.008460427
9	0xbd5ae626	-0.053442143
10	0xbdb42dac	-0.08797774
11	0xbe0385b8	-0.12843978
12	0xbda6bafb	-0.081411324
13	0xbd585efc	-0.05282496
14	0xbd446c24	-0.047954693
15	0xbc962b1e	-0.018331107
16	0xbd3734f4	-0.044728234
17	0x3d2fb6db	0.042898994
18	0x3cee86be	0.029116984
19	0xbd03cff8	-0.032180756
20	0xbd368169	-0.04455701
21	0xbd2cac32	-0.042156406
22	0x3df5d3ef	0.12003314
23	0xbe00bb0e	-0.12571356
24	0xbe0da03e	-0.13830659
25	0xbde2e2a7	-0.11078387
26	0x3cdbac38	0.026815519
27	0x3bc045f1	0.0058677127
28	0xbc9c83ee	-0.019105878
29	0xbdc779c1	-0.097400196
30	0x3d46971e	0.04848396
31	0xbd501e78	-0.050810307
32	0x3da8210c	0.08209428
33	0xbdbc6392	-0.09198679
34	0x3e061f48	0.1309787
35	0x3da40b9c	0.08010027
36	0x3cf16c03	0.02947045
37	0xbdde62a5	-0.10858659
38	0xbdbe313a	-0.09286733
39	0x3dcf51ef	0.101230495
40	0xbda32775	-0.0796651
41	0xbd59e0c6	-0.053192876
42	0x3dbba3ee	0.091621265
43	0x3d7f7d24	0.062375203
44	0xbd11242d	-0.03543489
45	0xbd01715f	-0.03160226
46	0x3d55bc60	0.0521816
47	0x3d9ea77c	0.07746789
48	0x3d1d8c48	0.03846386
49	0x3dc5f99c	0.0966675
50	0x3d8773c8	0.066138804
51	0x3c1e30bf	0.009655177
52	0xbcb22d1b	-0.021750024
53	0x3deccd7a	0.11562629
54	0xbd0cc257	-0.034365024
55	0x3deb4ae1	0.114888914
56	0x3cf67a30	0.03008756
57	0xbb7d23ba	-0.003862603
58	0x3df4ab0b	0.11946686
59	0xbd969b75	-0.0735387
60	0xbe010e5f	-0.12603138
61	0x3d9c8457	0.07642429
62	0xbe00dca3	-0.12584166
63	0x3d9efe38	0.07763332

weight f4 [3, 64]
0	0x3e3aed75	0.18254645
1	0xbdb9157a	-0.090372995
2	0x3c813a2b	0.015774807
3	0x3de18375	0.110114016
4	0x3dffda73	0.12492838
5	0xbc8836a4	-0.016627617
6	0x3dcfe904	0.10151866
7	0x3a2ecbd8	0.00066679483
8	0xbda627c2	-0.08113052
9	0xbe3cbed3	-0.18432169
10	0x3e92ffdb	0.28710827
11	0xbd52d5c0	-0.05147338
12	0x3e077c94	0.13231117
13	0xbe579a63	-0.21054988
14	0x3cc659da	0.024212766
15	0xbe08e533	-0.13368683
16	0x3e095720	0.13412142
17	0xbc3ccafd	-0.011523006
18	0x3e19b2af	0.15009569
19	0x3db7fabd	0.089833714
20	0x3d757bb6	0.059932433
21	0x3d1d9c3d	0.03847908
22	0xbdc2cf70	-0.09512222
23	0xbd1e1a75	-0.03859945
24	0x3ca997a4	0.02070219
25	0xbd4d74e7	-0.050160315
26	0x3e00708a	0.1254293
27	0xbd6c8269	-0.057741556
28	0x3c848391	0.016176017
29	0x3e28b415	0.16474946
30	0xbdf94b3b	-0.12172552
31	0x3dea51f7	0.11441415
32	0xbe367a5c	-0.17820114
33	0x3d88526a	0.06656344
34	0xbb859004	-0.004076006
35	0x3d81c9ad	0.06337295
36	0xbdf4ac36	-0.11946909
37	0x3d9ddeb1	0.07708491
38	0xbe4ded3d	-0.2011003
39	0xbd99ac9e	-0.07503627
40	0x3db74115	0.0894796
41	0xbdd6aef1	-0.10482586
42	0xbde64192	-0.11242975
43	0xbda15e83	-0.07879355
44	0x3df9076e	0.1215962
45	0x3d1c6838	0.03818533
46	0xbd289015	-0.041153032
47	0x3c310664	0.010804746
48	0x3d5e6014	0.054290846
49	0x3dbf6b0f	0.09346592
50	0xbb4fc8bf	-0.0031705347
51	0x3d7b3b2f	0.06133574
52	0x3b33e796	0.0027451268
53	0xbe07a6b3	-0.13247184
54	0x3dd956d6	0.10612266
55	0xbe33f44c	-0.1757366
56	0x3e377660	0.1791625
57	0x3cecc86e	0.028904166
58	0x3dde612d	0.108583786
59	0x3c84b763	0.016200727
60	0x3cace8a7	0.021107031
61	0xbdd15266	-0.102207944
62	0x3e050be4	0.12992817
63	0x3ced295e	0.02895039
64	0xbd4e6161	-0.050385837
65	0xbdc3a81c	-0.09553549
66	0xbd81ba48	-0.063343585
67	0x3d739921	0.059472207
68	0xbde748e3	-0.11293199
69	0x3e2aeaec	0.16691178
70	0x3cccbbfb	0.02499198
71	0xbcd0f342	-0.02550662
72	0xbd9ddae6	-0.07707767
73	0x3e2caff2	0.16863993
74	0xbdf3adcc	-0.118983835
75	0x3d203b1f	0.039118882
76	0xbde6536d	-0.11246381
77	0xbd340954	-0.04395421
78	0xbe25b417	-0.1618198
79	0x3e1add64	0.15123516
80	0x3d35d31b	0.04439078
81	0x3e2b2ce9	0.1671635
82	0xbd846a08	-0.06465536
83	0xbdd5ea3b	-0.104450665
84	0xbd957516	-0.07297723
85	0xbd91f6a9	-0.07127125
86	0xbd1ad9c1	-0.037805323
87	0xbd9080e3	-0.07055833
88	0xbcf130c9	-0.029442208
89	0x3ebbedd4	0.36704886
90	0x3dc2a138	0.09503406
91	0xbdbd17cc	-0.092330545
92	0x3d6d865e	0.05798947
93	0x3df59781	0.11991788
94	0x3e08f055	0.1337293
95	0xbd297c8f	-0.041378554
96	0xbdf176f2	-0.11790265
97	0x3daf9d21	0.08574892
98	0xbd03b27e	-0.032152645
99	0x3e403ec8	0.18773949
100	0x3dba4240	0.090946674
101	0xbc99e31e	-0.018785056
102	0xbe4cc94d	-0.19998665
103	0xbe2ba4f4	-0.16762143
104	0x3e6dee39	0.23235406
105	0x3e291209	0.16510786
106	0x3d35e4c4	0.04440762
107	0x3e0c7a62	0.1371856
108	0x3d7bb232	0.061449237
109	0xbd332582	-0.043736942
110	0x3e01eab1	0.12687184
111	0xbe09e587	-0.13466464
112	0x3e007b0b	0.12546937
113	0xbd542d33	-0.051800918
114	0xbdb244cf	-0.087045304
115	0xbe0323fc	-0.12806696
116	0x3dac9c26	0.084282205
117	0x3838361e	4.391942e-05
118	0x3ddb6679	0.107129045
119	0xbe740c23	-0.23832755
120	0xbe4569d3	-0.1927865
121	0x3d473a3e	0.04863953
122	0xbe2ee3f3	-0.17079143
123	0x3e300c13	0.17192106
124	0xbdbca2b9	-0.092107244
125	0xbd8e7f1f	-0.0695784
126	0xbd43ed38	-0.04783365
127	0x3ddf7a67	0.10912018
128	0xbcba47d8	-0.022739336
129	0x3df706e6	0.12061863
130	0x3c38bd9d	0.011275676
131	0x3dbd5f84	0.09246734
132	0xbd3db8ae	-0.046318702
133	0x3d518083	0.05114795
134	0xbdcf55d4	-0.10123792
135	0xbcf89939	-0.0303465
136	0xbbf849ad	-0.007577142
137	0x3db73fde	0.089477286
138	0x3c7b1c49	0.015326568
139	0xbc466187	-0.012108213
140	0xbdcad317	-0.099035434
141	0xbdb819b0	-0.089892745
142	0xbdcdee73	-0.10055246
143	0xbd97defa	-0.07415576
144	0x3e6559f4	0.22397596
145	0xbde0ac4f	-0.10970365
146	0xbd555fc4	-0.052093282
147	0xbd2a8f73	-0.04164071
148	0x3df1231c	0.11774275
149	0x3d70a634	0.058752254
150	0x3def9c73	0.11699762
151	0xbd94435b	-0.072394095
152	0xbd4bd83f	-0.049766775
153	0x3d1e393a	0.038628794
154	0xbde59d18	-0.11211604
155	0xbe8c7b78	-0.2743795
156	0xbaa731f2	-0.0012755974
157	0x3dd5e05a	0.10443182
158	0xbd828aef	-0.06374156
159	0x3d863baa	0.06554349
160	0x3da4b15f	0.08041643
161	0xbe0a7386	-0.13520631
162	0x3e0df765	0.13863905
163	0xbcb0074c	-0.021487854
164	0xba93172a	-0.0011222113
165	0xbd5b2401	-0.053501133
166	0x3c8f90e4	0.017525144
167	0x3dd77c7b	0.1052179
168	0xbd37cd7d	-0.044873703
169	0x3e57505d	0.2102675
170	0x3d22d4a4	0.03975357
171	0xbdb552a0	-0.0885365
172	0x3e0aa804	0.13540655
173	0x3cc3c75f	0.023898778
174	0x3ce51f35	0.027968982
175	0xbd8103c3	-0.062995456
176	0xbadcd236	-0.0016847316
177	0x3db1e0c2	0.08685447
178	0x3c8285f5	0.015933016
179	0xbd5a376f	-0.05327552
180	0x3d869fde	0.06573461
181	0x3d2651ec	0.04060547
182	0x3e0eabea	0.13932768
183	0x3db49e05	0.08819202
184	0xbcfcf3ab	-0.030877909
185	0xbdb893c9	-0.09012563
186	0x3d3055bc	0.043050513
187	0x3e065aac	0.13120526
188	0xbdd22e31	-0.102627166
189	0x3d089896	0.033348642
190	0x3cbdbec9	0.023162263
191	0xbd961510	-0.07328236

bias f4 [3]
0	0xbdf069eb	-0.11738952
1	0xbde313cc	-0.1108776
2	0x3bea5f51	0.007152476

exp_avg f4 [64, 3]
0	0x38cffe21	9.9178644e-05
1	0x36272dad	2.4911526e-06
2	0xb8d5e68e	-0.000101995756
3	0xb7ea9855	-2.7965909e-05
4	0x37bd6442	2.2577242e-05
5	0xb67ed509	-3.7972952e-06
6	0xb81927a6	-3.6514968e-05
7	0xb8c33383	-9.3079194e-05
8	0xb8af7460	-8.366327e-05
9	0xb8d9b357	-0.00010380771
10	0x38c097cb	9.183547e-05
11	0x382dc3fa	4.142893e-05
12	0xb9e98c55	-0.0004454578
13	0x38596644	5.1832074e-05
14	0x37de4928	2.6498528e-05
15	0xb99186c8	-0.00027756975
16	0x3a4e5358	0.00078706956
17	0xb9c4ae12	-0.00037513726
18	0xba4d7315	-0.0007837278
19	0xb981da88	-0.00024767616
20	0xb99e90e5	-0.00030244063
21	0x38a0da8b	7.670101e-05
22	0x379b106b	1.8485085e-05
23	0xb8513c24	-4.9885493e-05
24	0x38b7bfa6	8.761817e-05
25	0x369c66ed	4.6611444e-06
26	0xb922f1fb	-0.00015539669
27	0x3a2fc0dc	0.00067044585
28	0x3992f9ce	0.0002803341
29	0xb9374e1d	-0.0001748134
30	0xb85ec00a	-5.3107775e-05
31	0xb93a6f50	-0.0001777981
32	0xb5f4e3eb	-1.824575e-06
33	0x3962805c	0.00021600857
34	0x388511b4	6.345232e-05
35	0x3992779e	0.00027936412
36	0x38c71078	9.492127e-05
37	0xb8cb38e5	-9.690392e-05
38	0xb8f5292d	-0.0001169018
39	0x388d000b	6.723412e-05
40	0xb8d9cc03	-0.000103853665
41	0x3928ca65	0.00016097126
42	0xb9e7dc9e	-0.00044224126
43	0xba23c25a	-0.0006246917
44	0x39965ab2	0.00028677803
45	0x3921e00c	0.0001543762
46	0xb6a072c1	-4.7817307e-06
47	0xb8d6b4ac	-0.00010237968
48	0xb7923917	-1.743114e-05
49	0x37a62914	1.980787e-05
50	0xb7a63bbf	-1.9816564e-05
51	0xb95e91f2	-0.00021225939
52	0x38fefc8d	0.00012158705
53	0xb8cd7999	-9.797811e-05
54	0x39037579	0.00012536896
55	0x38ae8670	8.3220075e-05
56	0x3752a2e1	1.2554899e-05
57	0xb933cad6	-0.00017146333
58	0xb8d6e5e1	-0.000102471335
59	0x39939512	0.0002814909
60	0xb791120f	-1.7293756e-05
61	0x374ba8d0	1.2139048e-05
62	0xb8293daf	-4.0350187e-05
63	0xb9c32a04	-0.00037224602
64	0xba789e53	-0.00094840414
65	0x39a6afe1	0.00031793027
66	0x390aee2c	0.00013249432
67	0x36eec5b3	7.115968e-06
68	0xb7eb0e79	-2.8020922e-05
69	0x32dff322	2.607118e-08
70	0xb304d661	-3.092862e-08
71	0xb2eeb3c9	-2.7788603e-08
72	0xb8b5dee8	-8.672272e-05
73	0x3964b6a1	0.00021811809
74	0x387b64f7	5.9937094e-05
75	0xb95661ef	-0.00020445113
76	0xb8b4f69c	-8.6290034e-05
77	0xb841fe26	-4.625148e-05
78	0xb8ae7c7a	-8.320152e-05
79	0x36958fd4	4.45729e-06
80	0x3810ab4d	3.449181e-05
81	0xb884dfee	-6.335961e-05
82	0xb82a8e3a	-4.0663617e-05
83	0x388b472c	6.641293e-05
84	0xba64af9a	-0.00087236764
85	0x38b6b71c	8.712543e-05
86	0xb818cf0d	-3.6432455e-05
87	0x38ec8140	0.000112774316
88	0xb8544374	-5.060756e-05
89	0xb962437b	-0.00021578178
90	0xb838efce	-4.4092354e-05
91	0x388c3677	6.685865e-05
92	0x3831a6b7	4.2355354e-05
93	0xba36ed1b	-0.00069780805
94	0x39aafe9e	0.0003261463
95	0xb9e85833	-0.00044316202
96	0x3925d3d3	0.00015814537
97	0xb93404af	-0.00017167882
98	0xb96f9b7d	-0.0002285074
99	0xb9b57d7c	-0.00034616503
100	0xb936e0a8	-0.00017440564
101	0xb8a517f4	-7.872275e-05
102	0xb98f4554	-0.0002732674
103	0x3949191f	0.00019178212
104	0xb8036e51	-3.1335574e-05
105	0xb7b3cff8	-2.1435306e-05
106	0x39571779	0.00020512742
107	0xb7c92007	-2.3975981e-05
108	0x3819abc3	3.6638008e-05
109	0xb90ce3f8	-0.00013436365
110	0x38e104a7	0.000107297026
111	0xb8baf4bf	-8.914759e-05
112	0x3884ac34	6.326326e-05
113	0xb777c2c1	-1.4767692e-05
114	0x3913441f	0.0001404439
115	0xb9397614	-0.00017686962
116	0x393fcbba	0.00018291074
117	0x389c23f5	7.445357e-05
118	0xb981f55b	-0.000247876
119	0x38476527	4.7539503e-05
120	0xb93fbacc	-0.00018284767
121	0x38c0df93	9.1969174e-05
122	0x37bc255a	2.242874e-05
123	0x3abdde36	0.001448578
124	0xb89a46a6	-7.3564515e-05
125	0xb91f2889	-0.00015178522
126	0xb6393108	-2.7595688e-06
127	0xb6073ecc	-2.015312e-06
128	0xb69585eb	-4.456136e-06
129	0xb8b23beb	-8.498862e-05
130	0x38803451	6.11326e-05
131	0xb86731cd	-5.5121072e-05
132	0x36db478a	6.535037e-06
133	0x38b00b35	8.3944215e-05
134	0x384c00fc	4.8638307e-05
135	0xb909d466	-0.00013144463
136	0xb965d7df	-0.0002191956
137	0xb90d5052	-0.0001347673
138	0xb9ad781f	-0.00033086629
139	0xb98512d7	-0.00025381774
140	0x38a7e2a0	8.005393e-05
141	0x38b06f64	8.413082e-05
142	0x392cd218	0.00016481464
143	0x38b3f59c	8.5811334e-05
144	0x378f7763	1.7102522e-05
145	0xb935a224	-0.00017321907
146	0xb8ecdfd8	-0.00011295051
147	0xb9203177	-0.00015277216
148	0xb83edbdd	-4.5504294e-05
149	0x3a09ed60	0.0005261507
150	0xb8265270	-3.965426e-05
151	0x38eec113	0.00011384687
152	0x3617c341	2.2614406e-06
153	0x39a128ad	0.0003073862
154	0xb9a95dcd	-0.0003230408
155	0x39c5669d	0.0003765122
156	0x377cac44	1.5060479e-05
157	0x388285ec	6.223828e-05
158	0x39744767	0.00023296253
159	0x3838dcff	4.4074837e-05
160	0x36df5692	6.655996e-06
161	0xb9355e3f	-0.00017296615
162	0x39fdc34c	0.00048401428
163	0x38b0c12e	8.4283165e-05
164	0x39155ded	0.00014244737
165	0x3a309e83	0.0006737487
166	0xb9d047fe	-0.0003972649
167	0x38e9d4d8	0.00011149951
168	0xb91e238c	-0.00015081296
169	0xb94e64f2	-0.00019683296
170	0xb8e73506	-0.00011024815
171	0x80000069	-1.47e-43
172	0x00000020	4.5e-44
173	0x00000075	1.64e-43
174	0x38be0778	9.061297e-05
175	0xb96be25c	-0.00022495672
176	0xb8de8d13	-0.00010612062
177	0x38ccdef5	9.769007e-05
178	0xba01c7d0	-0.0004950734
179	0xb8986929	-7.2675124e-05
180	0x38e81014	0.00011065617
181	0xb7af9365	-2.0930262e-05
182	0x39492890	0.00019183964
183	0x384a6d4f	4.8262355e-05
184	0xb8f7d095	-0.00011816729
185	0x38e74868	0.00011028425
186	0x38f37819	0.00011609513
187	0x383c39ac	4.4876404e-05
188	0x397f04fe	0.00024320555
189	0x39148b71	0.00014166326
190	0x39697ec8	0.00022267841
191	0xb8d0fb40	-9.965012e-05

exp_avg_sq f4 [64, 3]
0	0x347de63d	2.3646221e-07
1	0x349d265e	2.9271445e-07
2	0x33fcba08	1.1768503e-07
3	0x3328122c	3.9132075e-08
4	0x3324f80f	3.8409834e-08
5	0x33174814	3.5222982e-08
6	0x3340c4a0	4.4882313e-08
7	0x3300a185	2.9949224e-08
8	0x336ef86c	5.563963e-08
9	0x33cd4787	9.559067e-08
10	0x330a7c35	3.2243594e-08
11	0x337a1b47	5.823247e-08
12	0x3411e033	1.358574e-07
13	0x33d5b11a	9.9508e-08
14	0x33a90c78	7.871944e-08
15	0x3405eb60	1.2472219e-07
16	0x34457ff4	1.8393604e-07
17	0x3317b9b4	3.5326323e-08
18	0x342d64be	1.614853e-07
19	0x33b405bc	8.382946e-08
20	0x336ee574	5.562238e-08
21	0x33cd3c31	9.557005e-08
22	0x3361646c	5.2478228e-08
23	0x335fb7f4	5.2088538e-08
24	0x33c9212f	9.365828e-08
25	0x332435ba	3.823309e-08
26	0x338aad16	6.45761e-08
27	0x3512cc81	5.468683e-07
28	0x340d860f	1.3180419e-07
29	0x330718fa	3.1454853e-08
30	0x33dcaac0	1.02756076e-07
31	0x33a034d1	7.460188e-08
32	0x3324d42d	3.83772e-08
33	0x33af3cea	8.160153e-08
34	0x339c1d8b	7.26969e-08
35	0x331533fd	3.473905e-08
36	0x341a9ab8	1.4398654e-07
37	0x33801f12	5.966116e-08
38	0x32a02238	1.8642012e-08
39	0x32bf26f2	2.2253037e-08
40	0x32d0c837	2.4305434e-08
41	0x3295f22d	1.7456012e-08
42	0x33a05ae3	7.467113e-08
43	0x3491f0f2	2.7183665e-07
44	0x336cbc9c	5.511957e-08
45	0x3403d451	1.2277566e-07
46	0x346c04ad	2.1980914e-07
47	0x337c21df	5.8704128e-08
48	0x341f66d8	1.4845443e-07
49	0x33762d66	5.7317628e-08
50	0x33c638b0	9.230405e-08
51	0x34a41cb8	3.0568276e-07
52	0x351406bd	5.51441e-07
53	0x33c5228c	9.1798114e-08
54	0x32a3a4e1	1.9050676e-08
55	0x32c0c701	2.2442238e-08
56	0x329b032a	1.8045814e-08
57	0x336f6fef	5.5748327e-08
58	0x33ce9368	9.6194356e-08
59	0x33414427	4.49983e-08
60	0x330193fb	3.016974e-08
61	0x3354d3ae	4.9552618e-08
62	0x329ed58b	1.8490729e-08
63	0x33ea0fa9	1.0899323e-07
64	0x34472584	1.8546967e-07
65	0x33ee7ef3	1.11058306e-07
66	0x34881eae	2.5354296e-07
67	0x332fd4d7	4.093894e-08
68	0x340a2daf	1.2868871e-07
69	0x31d5d17a	6.2229306e-09
70	0x316dbb68	3.4594567e-09
71	0x3217d9fc	8.838921e-09
72	0x344c0c5f	1.9003481e-07
73	0x33c47d3e	9.149743e-08
74	0x3395c496	6.974112e-08
75	0x33811723	6.011239e-08
76	0x33571356	5.0076174e-08
77	0x32ac3700	2.0048446e-08
78	0x33966b43	7.00443e-08
79	0x33312777	4.1246917e-08
80	0x338c20f6	6.5252536e-08
81	0x328e92d5	1.6597747e-08
82	0x32ba93db	2.1720487e-08
83	0x3218f796	8.903859e-09
84	0x3466a79e	2.1481398e-07
85	0x339eb803	7.39092e-08
86	0x32fdaa63	2.953056e-08
87	0x340e0660	1.32271e-07
88	0x33565a19	4.99077e-08
89	0x33388e1a	4.297008e-08
90	0x34847e4b	2.4678806e-07
91	0x341650fe	1.3999303e-07
92	0x33713dca	5.6168382e-08
93	0x33c7a8e8	9.2973835e-08
94	0x33c575fd	9.194989e-08
95	0x3352935c	4.9028458e-08
96	0x3380bce2	5.994822e-08
97	0x33e75e59	1.07739375e-07
98	0x32eca727	2.7550028e-08
99	0x33cb1f5b	9.458628e-08
100	0x339f60e4	7.421639e-08
101	0x33b751e0	8.5364945e-08
102	0x33e3c7af	1.06068335e-07
103	0x3381a701	6.0374084e-08
104	0x338379a0	6.122286e-08
105	0x3386391b	6.250249e-08
106	0x32d15362	2.436872e-08
107	0x32c0667e	2.239835e-08
108	0x33b305e0	8.336406e-08
109	0x338909ec	6.3813644e-08
110	0x337411b5	5.682678e-08
111	0x33985581	7.0936046e-08
112	0x3320378f	3.7303433e-08
113	0x32c88f89	2.3348337e-08
114	0x33e4c938	1.0653679e-07
115	0x340709f8	1.2576481e-07
116	0x339088a3	6.7303766e-08
117	0x340335e3	1.221993e-07
118	0x341d0dcc	1.4626784e-07
119	0x33236bfe	3.8049613e-08
120	0x344490d5	1.8306612e-07
121	0x341a4361	1.436688e-07
122	0x33592dae	5.0565795e-08
123	0x34b33710	3.338141e-07
124	0x342a67f0	1.5870296e-07
125	0x33ec17b8	1.0993921e-07
126	0x31b8bad1	5.3763434e-09
127	0x3064f090	8.3287777e-10
128	0x3143e2f6	2.8505247e-09
129	0x33c038f3	8.951056e-08
130	0x34581a88	2.012622e-07
131	0x3314d9bd	3.4656967e-08
132	0x3311c4a9	3.3939305e-08
133	0x334fe349	4.8402658e-08
134	0x32d1ab69	2.440875e-08
135	0x3350cf54	4.8617338e-08
136	0x330ba45a	3.2512936e-08
137	0x32467b2a	1.1553121e-08
138	0x3378fad9	5.7970144e-08
139	0x337a637b	5.8298138e-08
140	0x332fde1d	4.0947373e-08
141	0x3348c4ae	4.6745008e-08
142	0x32f0b57c	2.8022207e-08
143	0x32d3da84	2.4663002e-08
144	0x3293adec	1.7192143e-08
145	0x3335c599	4.232206e-08
146	0x32f47ccf	2.8462095e-08
147	0x3349ff54	4.703118e-08
148	0x332512ee	3.8434273e-08
149	0x3376da7f	5.747506e-08
150	0x32e43c79	2.6570193e-08
151	0x3309f3b8	3.211946e-08
152	0x33204504	3.7315672e-08
153	0x33a09522	7.477708e-08
154	0x32c72ace	2.3186114e-08
155	0x33175daa	3.5242614e-08
156	0x33e892d1	1.08300476e-07
157	0x337d4c64	5.897563e-08
158	0x33315e8d	4.1297017e-08
159	0x33dbff5d	1.02444325e-07
160	0x343180b1	1.6531227e-07
161	0x32c68094	2.3108704e-08
162	0x354d0a9c	7.638389e-07
163	0x35228be1	6.0553253e-07
164	0x34337043	1.6711515e-07
165	0x33858d14	6.218957e-08
166	0x33887c00	6.355549e-08
167	0x32fafd79	2.9219096e-08
168	0x3393e101	6.886149e-08
169	0x344b93a1	1.8959555e-07
170	0x34155820	1.3908766e-07
171	0x31bc315c	5.4771316e-09
172	0x319d0043	4.569331e-09
173	0x3150cd59	3.038471e-09
174	0x339dfcd2	7.35687e-08
175	0x341f8dcf	1.4859619e-07
176	0x335a8a15	5.0882665e-08
177	0x339e77e1	7.379254e-08
178	0x3396eeac	7.0283335e-08
179	0x33a480bc	7.660262e-08
180	0x342cff09	1.611153e-07
181	0x33c3f45d	9.1248445e-08
182	0x327edaa9	1.4834463e-08
183	0x33d5cbc4	9.95565e-08
184	0x3422e155	1.5169401e-07
185	0x334e561e	4.8041436e-08
186	0x340af111	1.2939951e-07
187	0x334a0d31	4.7043788e-08
188	0x33b106cd	8.243442e-08
189	0x33e22992	1.0531507e-07
190	0x3360566a	5.2232657e-08
191	0x3395930a	6.9650994e-08

exp_avg f4 [64]
0	0xba38a63c	-0.0007043814
1	0x388a5a0a	6.597124e-05
2	0xb8fe7273	-0.00012132982
3	0x38c4ba75	9.3807386e-05
4	0x394e5b15	0.00019679622
5	0x3a461449	0.00075561233
6	0xb8f0a4fd	-0.00011474823
7	0x3a024ed5	0.00049708533
8	0xb8f607f1	-0.00011731673
9	0x3939f141	0.00017732849
10	0x38b9c56e	8.8582616e-05
11	0xb8bcc193	-9.0005946e-05
12	0x3887becb	6.4728396e-05
13	0x37e20af7	2.6946405e-05
14	0xb98a60c8	-0.0002639352
15	0x37e90c8d	2.7781609e-05
16	0xb898590f	-7.264513e-05
17	0x39031cd5	0.00012503874
18	0xb7aafc92	-2.0383191e-05
19	0x390f8488	0.00013686914
20	0x38d3516d	0.00010076431
21	0xba4f07c7	-0.0007897582
22	0xb65bfda6	-3.2781186e-06
23	0x32885993	1.5873217e-08
24	0xb8796551	-5.9460584e-05
25	0x38321606	4.2459018e-05
26	0xb92a6242	-0.00016249067
27	0x3915682b	0.00014248553
28	0x38701573	5.7240435e-05
29	0xb84f0450	-4.9356662e-05
30	0x396a74d9	0.00022359508
31	0x3a13f26e	0.000564373
32	0x39d4cec8	0.00040589855
33	0x39a4607e	0.0003135241
34	0x39084b3d	0.00012997999
35	0x389c58c0	7.455191e-05
36	0xb80aa1d0	-3.3052464e-05
37	0x3914a2a3	0.00014174967
38	0x399a96b2	0.00029485446
39	0xb7c8bbd8	-2.392933e-05
40	0xb854d2b5	-5.0740975e-05
41	0xba11ccb4	-0.0005561814
42	0x360bf989	2.0857863e-06
43	0x38923609	6.971887e-05
44	0xb911e2c6	-0.00013912757
45	0x3883e7f1	6.289769e-05
46	0xb95edf3d	-0.00021254733
47	0xb96c8bf7	-0.00022558855
48	0xb6da499b	-6.505475e-06
49	0xb99af7de	-0.00029557844
50	0x392378c9	0.00015589887
51	0xb94bf40d	-0.00019450505
52	0x38a70b76	7.965315e-05
53	0x38422b08	4.629328e-05
54	0xb93a4d6a	-0.00017767181
55	0xb972ea24	-0.00023166143
56	0x390b2f19	0.00013273618
57	0x0000005f	1.33e-43
58	0xb983e4e5	-0.00025156807
59	0xb9bbb0ca	-0.00035799138
60	0xb89dab23	-7.51822e-05
61	0xb6be660e	-5.674322e-06
62	0x39676e32	0.00022070928
63	0x39fad0a8	0.00047839177
