models/model_cavity_nu0.01_U1_20x20_epochs1000_noadaption_testpcnt0.5.pt (torch, 187059 bytes, 30 tensors)

weight f4 [64, 3]
0	0x3eb3ac8d	0.35092583
1	0xbec1b7f0	-0.37835646
2	0x3c2664fb	0.010155912
3	0xbd7f6237	-0.062349524
4	0xbe3e46dd	-0.1858172
5	0xbe5ee4c6	-0.21766958
6	0xbec6abec	-0.3880304
7	0xbe9b1434	-0.3028885
8	0x3e401266	0.18757018
9	0xbe9bef97	-0.3045623
10	0x3eeb9d8e	0.46018642
11	0x3e429282	0.19001201
12	0x3f05ccdf	0.52265733
13	0xbd5d1c02	-0.05398179
14	0xbe7bd82e	-0.24594185
15	0xbebe7841	-0.3720112
16	0x3e3fcc20	0.18730211
17	0x3e278cf8	0.16362369
18	0xbd4bfc69	-0.049801264
19	0x3c9ffce6	0.019529771
20	0xbea7de5f	-0.32786843
21	0x3e98b8d9	0.29828528
22	0x3e9c2735	0.30498663
23	0xbc72cf95	-0.014819999
24	0xbb3896b8	-0.0028166007
25	0x3ee878dc	0.45404708
26	0x3cc84320	0.02444607
27	0x3f21d7a0	0.6321964
28	0x3f13d6e1	0.57749754
29	0xbdb23346	-0.08701186
30	0xbc72b1f4	-0.014812935
31	0x3ed96af2	0.42464405
32	0xbe067943	-0.13132195
33	0x3f26b782	0.6512376
34	0x3f44e4de	0.76911724
35	0xbe92fc88	-0.2870829
36	0x3f0999b7	0.53750175
37	0x3effa3a4	0.49929535
38	0xbe54cd4c	-0.2078144
39	0xbeb17ed3	-0.34667072
40	0xbedc4279	-0.43019465
41	0xbea95780	-0.3307457
42	0x3f01b54b	0.50667256
43	0xbe3d33eb	-0.18476836
44	0xbed04e2e	-0.40684646
45	0x3f0a6857	0.5406546
46	0x3ecaac7a	0.39584714
47	0xbd11c57c	-0.035588726
48	0x3db394d5	0.08768622
49	0x3f2547b9	0.64562565
50	0x3e16877e	0.14700124
51	0x3e1b6161	0.15173866
52	0x3ef14534	0.4712311
53	0xbd3a97a0	-0.045554757
54	0x3e2dc17c	0.1696834
55	0x3f321be6	0.6957382
56	0xbde22ce5	-0.11043719
57	0xbf26ca85	-0.6515277
58	0x3d962d1b	0.07332822
59	0xbecde0d0	-0.4021058
60	0x3eef9d13	0.46799526
61	0x3eb775c4	0.35832036
62	0xbea4e518	-0.32206035
63	0xbc2b7b0d	-0.010466349
64	0xbc7b498a	-0.015337357
65	0xbecca10d	-0.39966622
66	0xbd1badaf	-0.038007434
67	0xbed60b92	-0.41805702
68	0xbdaf4874	-0.08558741
69	0x3e608135	0.21924289
70	0x3e91a276	0.2844426
71	0x3e2958a0	0.16537714
72	0x3e4a9539	0.19783486
73	0x3dc35957	0.095385246
74	0x3e2cac02	0.16862491
75	0xbeb490d1	-0.35266736
76	0xbebe1572	-0.37125736
77	0x3cfa0ed7	0.030524654
78	0x3d894967	0.067034535
79	0xbf3aa232	-0.7290374
80	0x3d80598f	0.06267082
81	0xbea14c59	-0.3150356
82	0xbcdd5a31	-0.027020546
83	0xbead3975	-0.338329
84	0x3ec0e616	0.37675542
85	0x3e60e13f	0.21960925
86	0x3e30552d	0.17219992
87	0x3e31f808	0.17379773
88	0xbf037e79	-0.51364857
89	0x3d5a174b	0.05324487
90	0xbda5b736	-0.08091585
91	0xbf17ff88	-0.59374285
92	0x3e1efc59	0.1552595
93	0xbd9424b6	-0.072335646
94	0xbea920c6	-0.33032817
95	0x3c0658d3	0.008199888
96	0xbce05e7d	-0.027388806
97	0xbc2d54c1	-0.010579289
98	0x3e3bc17f	0.18335532
99	0x3f094d45	0.5363353
100	0xbf0cf77b	-0.55065125
101	0xbe36f628	-0.17867339
102	0x3f1957ad	0.5989941
103	0x3eecc92d	0.46247235
104	0x3e9b369e	0.30315107
105	0xbeeab419	-0.4584053
106	0xbf316e82	-0.69309247
107	0xbe88474b	-0.26616892
108	0xbed636d4	-0.41838706
109	0x3e36e082	0.1785908
110	0x3c398f1e	0.011325626
111	0x3e88d765	0.26726833
112	0x3e2cbc0b	0.16868608
113	0xbb542432	-0.0032370207
114	0xbd77b33a	-0.06047366
115	0xbf524b17	-0.8214583
116	0xbdaf2cc5	-0.08553461
117	0xbe62b4a8	-0.22139227
118	0x3de5d62c	0.11222491
119	0x3e3aa5d4	0.18227321
120	0xbed7fa19	-0.42182997
121	0xbf262c76	-0.6491159
122	0x3d0722f3	0.032992315
123	0xbf04f019	-0.5192886
124	0xbd96649a	-0.07343407
125	0x3e1f7b83	0.1557446
126	0x3eb8d4f9	0.36099985
127	0xbf065453	-0.5247242
128	0x3ce7f167	0.028313352
129	0x3e955f03	0.2917405
130	0x3e95913d	0.2921237
131	0xbd93858f	-0.07203209
132	0x3eefe202	0.46852118
133	0x3ec1f4c8	0.37882066
134	0xbd4e2ea5	-0.050337452
135	0x3e772650	0.24135709
136	0x3eb7f776	0.35930985
137	0xbd518720	-0.051154256
138	0x3eec73e6	0.46182173
139	0x3edcc47f	0.43118665
140	0xbe45811e	-0.19287536
141	0xbedb72d8	-0.42861056
142	0xbecdff53	-0.4023386
143	0x3df5f223	0.120090745
144	0x3d02c64e	0.0319274
145	0xbe9a77f7	-0.3016965
146	0xbce46dc5	-0.027884373
147	0x3f0c8763	0.54894084
148	0xbd028e09	-0.031873737
149	0x3f16d82a	0.5892359
150	0x3f01818b	0.5058829
151	0x3e81c2d9	0.2534397
152	0xbe8e9801	-0.27850345
153	0x3e8449d3	0.25837573
154	0x3f10ea10	0.5660715
155	0x3e80741a	0.25088578
156	0x3e17d73f	0.14828204
157	0x3f08c015	0.53418094
158	0x3d5bef3e	0.053694956
159	0x3eec396e	0.46137565
160	0x3f2e77bd	0.68151456
161	0xbe116e78	-0.14202297
162	0xbf0f1be2	-0.5590192
163	0x3f2d88be	0.67786777
164	0xbd9d05e3	-0.076671384
165	0xbb3699b2	-0.0027862606
166	0xbe0171ac	-0.12641019
167	0xbe4a00bf	-0.19726847
168	0x3da70fb7	0.08157294
169	0xbf74f219	-0.9568191
170	0xba4c4820	-0.000779273
171	0x3ea0afe5	0.31384197
172	0x3cdf0068	0.027221873
173	0x3e62f545	0.22163875
174	0xbee80bdc	-0.45321548
175	0x3f2750e1	0.65357786
176	0xbd968653	-0.07349839
177	0xbbf79d3c	-0.0075565856
178	0xbd1d62fa	-0.03842447
179	0xbe6d8016	-0.23193392
180	0x3dad98cf	0.084764116
181	0x3ea06e46	0.31334132
182	0x3da8a17b	0.08233925
183	0x3db85234	0.09000054
184	0xbe9f6a68	-0.3113587
185	0xbe1f4a7f	-0.15555762
186	0xbeee8674	-0.46586955
187	0x3ebf6583	0.37382135
188	0xbe6122f1	-0.21985985
189	0xbf0212f6	-0.5081018
190	0x3efeaa6e	0.49739403
191	0xbe67f9b6	-0.22653851

bias f4 [64]
0	0xbd1569b4	-0.03647776
1	0xbf01c2c6	-0.50687826
2	0xbe34c3c2	-0.176528
3	0x3e4f93e5	0.20271261
4	0x3e0f6349	0.14002718
5	0x3e9aaede	0.30211538
6	0x3f0fc50f	0.5616006
7	0x3d512954	0.051064804
8	0x3ebb88f5	0.36627927
9	0x3e522e86	0.2052556
10	0x3e2b5705	0.16732414
11	0xbdb93186	-0.09042649
12	0xbc22db7e	-0.009940026
13	0xbe7d3839	-0.24728478
14	0x3ce6be6a	0.028166968
15	0x3eaed420	0.34146214
16	0x3e88bc03	0.26705942
17	0x3e9cfe15	0.306626
18	0x3e10e3ed	0.14149447
19	0x3e03a57c	0.12856096
20	0xba8eec37	-0.0010904138
21	0xbf36290c	-0.7115638
22	0xbe2a318b	-0.16620462
23	0x3e903237	0.2816331
24	0x3e8d47b1	0.2759376
25	0xbdf41311	-0.11917699
26	0xbd5aa719	-0.053382013
27	0x3f4e49ff	0.8058166
28	0x3ebbefb2	0.3670631
29	0xbd5cf250	-0.053942025
30	0x3e1e6af6	0.1547049
31	0xbed22546	-0.41044062
32	0x3ecac31b	0.3960198
33	0xbd9a5119	-0.075349994
34	0x3e917d61	0.2841597
35	0x3d7a736c	0.06114523
36	0x3ee532af	0.4476523
37	0x3e49d7ab	0.19711177
38	0xbe3a9979	-0.18222608
39	0x3f1015b0	0.5628309
40	0x3e30229b	0.17200701
41	0x3dec5635	0.1153988
42	0x3e1f955b	0.15584318
43	0x3d3fa386	0.046786807
44	0x3e68773c	0.22701734
45	0xbe02dce1	-0.12779571
46	0x3ca7c2f7	0.020478709
47	0xbe0120c9	-0.12610163
48	0xbe6914e9	-0.22761883
49	0x3e4a3299	0.19745864
50	0xbc0f90d6	-0.008762559
51	0x3eb3d2ef	0.35121867
52	0x3ec3897f	0.3819084
53	0xbe475099	-0.1946434
54	0x3d1200eb	0.035645407
55	0xbf0c4aac	-0.5480144
56	0xbddf73f2	-0.10910787
57	0x3f0ad0dc	0.54224944
58	0xbe2eded6	-0.17077193
59	0xbeeab144	-0.45838368
60	0x3eb7a69c	0.358693
61	0xbef8c4dc	-0.48587692
62	0x3e74bcb9	0.23900117
63	0xbc2d5a52	-0.010580616

weight f4 [64, 64]
0	0xbe2b6c0a	-0.16740432
1	0xbc4ae2fb	-0.012383218
2	0xbe09a628	-0.1344229
3	0xbda9a3aa	-0.082831696
4	0xbc691164	-0.014225338
5	0x3d23cd50	0.039990723
6	0x3d4a61a7	0.049409535
7	0x3d0e776c	0.03478186
8	0x3c577c1a	0.013152147
9	0xbc6133d4	-0.013745267
10	0x3d1210a0	0.035660386
11	0x3df8a81c	0.12141439
12	0xbdb230a7	-0.08700686
13	0xbdbea76f	-0.09309279
14	0x3e12d523	0.14339118
15	0x3d7d80e5	0.0618905
16	0x3c45180a	0.012029657
17	0xbe06a134	-0.13147432
18	0xbdb17ac8	-0.08665997
19	0xbd57ac3e	-0.052654497
20	0xbd5e0795	-0.05420645
21	0xbce3b6a6	-0.027797054
22	0xbbb8adff	-0.0056359763
23	0xbde1f045	-0.11032156
24	0x3d2e895b	0.04261146
25	0x3ca52c52	0.020162735
26	0xbc836bbe	-0.016042586
27	0xbd8f5ca2	-0.0700009
28	0xbdf3247b	-0.118721925
29	0x3d985eb4	0.07439938
30	0x3dbb5844	0.09147695
31	0xbe49184e	-0.19638178
32	0x3cbfa705	0.02339507
33	0x3d07a30b	0.033114474
34	0x3dd7d6e2	0.105390325
35	0xbe057f57	-0.13036858
36	0xbd7c75cf	-0.06163579
37	0x3e6e4750	0.23269391
38	0xbe67e280	-0.22644997
39	0xbc6a8f19	-0.014316344
40	0xbe543175	-0.20721991
41	0xbc888db9	-0.016669141
42	0xbe50673c	-0.20351881
43	0x3d5736df	0.052542564
44	0x3d11a526	0.03555789
45	0xbdeca468	-0.115547955
46	0xbd9fab52	-0.07796349
47	0xbdd64d60	-0.10463977
48	0xbdaf74f3	-0.08567228
49	0xbd745973	-0.059655618
50	0xbdf43f56	-0.11926143
51	0x3d78d30f	0.060748156
52	0xbd5fb993	-0.054620337
53	0xbd8c707d	-0.06857393
54	0xbdea4989	-0.11439807
55	0xbe02131f	-0.12702607
56	0xbd9cfe65	-0.076657094
57	0x3d6eb29a	0.058275796
58	0xbbc754f5	-0.0060831257
59	0x3d98e69c	0.0746586
60	0x3d206381	0.039157394
61	0xbbe017c8	-0.0068387724
62	0xbd0599c2	-0.032617338
63	0xbd7afae6	-0.06127443
64	0x3d1a4bc6	0.03766992
65	0x3dc03495	0.09385029
66	0x3e003bf2	0.12522867
67	0x3d9392eb	0.07205757
68	0xbd89b913	-0.06724753
69	0x3da38823	0.079849504
70	0xbdb12bfc	-0.086509675
71	0x3e46b5f0	0.19405341
72	0x3b583d33	0.0032995462
73	0xbdf2a6ae	-0.11848198
74	0xbd9f61b8	-0.0778231
75	0xbdd80564	-0.10547903
76	0x3c19967a	0.009374255
77	0x3d88b848	0.06675774
78	0x3df38a72	0.11891641
79	0xbd6a31c0	-0.05717635
80	0x3d09ae2c	0.03361337
81	0xbce73e8c	-0.028228067
82	0x3d8da74a	0.069166735
83	0x3d0b759c	0.034047708
84	0x3dbc4cfd	0.09194372
85	0xbdbbf0c3	-0.09176781
86	0x3da9a713	0.0828382
87	0x3e1208c8	0.14261162
88	0x3e8d7f45	0.2763616
89	0x3da14e93	0.07876315
90	0x3ded638f	0.11591255
91	0xbab49869	-0.0013778332
92	0x3d323d15	0.043515284
93	0xbb4e21fa	-0.0031453357
94	0xbd65a82c	-0.056068584
95	0x3d66d967	0.056359675
96	0x3dd079ca	0.101794794
97	0xbcfa8224	-0.030579634
98	0x3e14ca24	0.14530236
99	0x3e982683	0.29716882
100	0xbd374df7	-0.044752087
101	0x3d9c45fb	0.07630535
102	0x3e29b8c0	0.16574383
103	0xbdfdf6af	-0.12400567
104	0x3cc1716d	0.023613656
105	0x3c4b6249	0.01241357
106	0x3b97315c	0.0046140384
107	0x3d93709b	0.07199212
108	0x3d2cd6aa	0.042196907
109	0x3be69ea8	0.0070379563
110	0x3de75f46	0.11297469
111	0x3e719dfb	0.23595421
112	0x3daec4e4	0.08533648
113	0x3d87ee19	0.066372104
114	0x3dc25e6c	0.09490666
115	0x3dc5aec3	0.09652474
116	0x3e02768e	0.12740538
117	0xbd8083c5	-0.06275133
118	0xbd1b0e7e	-0.037855618
119	0x3d46b3dd	0.048511375
120	0x3e1ac195	0.15112908
121	0x3e42a8f9	0.1900977
122	0xbd7e8aff	-0.062144276
123	0xbb9d7a27	-0.0048058215
124	0x3bbb26bb	0.005711404
125	0x3e268bf0	0.1626432
126	0xbd85b284	-0.0652819
127	0x3e336de1	0.17522384
128	0x3ce8da1e	0.028424319
129	0x3d0a0c44	0.033703104
130	0x3d6cee4a	0.057844438
131	0x3e1debbc	0.15421957
132	0x3d471558	0.04860434
133	0x3e55f0e5	0.20892675
134	0xbd4d4957	-0.05011877
135	0x3e0ef2c2	0.13959792
136	0xbc3cf337	-0.011532596
137	0xbdeaaac3	-0.114583515
138	0xbd358cc3	-0.044323694
139	0x3d643121	0.055710915
140	0xbd2a929f	-0.041643735
141	0x3daff62f	0.08591878
142	0x3d0a3f78	0.033751935
143	0x3c283fe5	0.01026914
144	0xbadfdfb3	-0.0017080217
145	0x3cf60db3	0.03003583
146	0xbd5f18ce	-0.054467015
147	0x3e6816a5	0.22664888
148	0xbd69eecb	-0.057112496
149	0x3e1d0ea0	0.1533761
150	0x3e063a0d	0.13108082
151	0xbce27301	-0.027642729
152	0x3be039b6	0.006842817
153	0x3e1fba6c	0.15598458
154	0x3e515a4d	0.20444603
155	0x3d9bd157	0.07608288
156	0xbdbc6b8d	-0.09200201
157	0xbdc78dbe	-0.09743832
158	0xbe0ac6a3	-0.13552336
159	0x3c8e9107	0.017403139
160	0x3ddf541e	0.10904716
161	0xbd0b2ffd	-0.033981312
162	0x3d68c477	0.05682799
163	0x3d539bea	0.051662363
164	0xbcc8eb34	-0.024526216
165	0xbbc52ab8	-0.0060170554
166	0x3e7321d1	0.23743369
167	0xbb74e3eb	-0.0037367295
168	0xbd440493	-0.047855925
169	0x3ded736d	0.11594281
170	0x3d8234bc	0.063577145
171	0xbe184344	-0.1486941
172	0xbe2d22fd	-0.16907878
173	0x3db81a1e	0.089893565
174	0xbdc5b8ee	-0.09654413
175	0x3e2e9eab	0.17052715
176	0x3e04cf0e	0.1296961
177	0x3d6556eb	0.055991095
178	0xbd0f00dc	-0.03491293
179	0x3c7c65f7	0.01540517
180	0xbbffc5cb	-0.007805561
181	0x3d18641e	0.037204854
182	0xbda60b41	-0.08107615
183	0x3d9b7793	0.07591166
184	0xbd779c40	-0.060451746
185	0xbd9e338b	-0.07724675
186	0x3c6d70e2	0.014492245
187	0x3c656167	0.014000273
188	0xbdf25f38	-0.11834568
189	0x3e029999	0.12753905
190	0xbd3330c0	-0.043747663
191	0x3dad06cf	0.08448564
192	0xbe1527e6	-0.14566001
193	0xbd06613a	-0.032807566
194	0xbe4a3661	-0.19747306
195	0x3a761510	0.0009387294
196	0xbcef2ece	-0.029197123
197	0xbcb461b5	-0.022019247
198	0x3e230933	0.15921478
199	0x3d3c05f1	0.045904104
200	0x3db46574	0.08808413
201	0x3c9a99ad	0.018872106
202	0x3ddb9806	0.107223555
203	0x3dbf9520	0.09354615
204	0xbda7ff0f	-0.082029454
205	0xbdc097fd	-0.094039895
206	0xbdc014a9	-0.093789406
207	0x3d7ebf31	0.062194053
208	0x3d526bb8	0.05137226
209	0x3de50aa5	0.11183671
210	0x3e05cff0	0.13067603
211	0xbdf12de0	-0.11776328
212	0x3d5bf85c	0.05370365
213	0x3de0eec5	0.10983042
214	0x3db009bd	0.085956074
215	0x3ddc464a	0.10755594
216	0x3c7c78b0	0.0154096335
217	0x3da9aa46	0.0828443
218	0x3de9c109	0.11413772
219	0x3dae90f4	0.08523741
220	0x3e1b7d91	0.15184619
221	0x3c0654a7	0.008198894
222	0x3dfaae78	0.122403085
223	0x3d507ee8	0.050902277
224	0x3c8704f7	0.01648186
225	0xbd626dbc	-0.055280432
226	0x3ddd8baa	0.108176544
227	0xbcc976b9	-0.024592744
228	0xbdd8fe13	-0.10595336
229	0xbe181e87	-0.14855395
230	0xbe0df887	-0.13864337
231	0x3e311cbf	0.17296122
232	0x3e1ebe66	0.15502319
233	0xbe898ba5	-0.26864353
234	0x3b6dda38	0.0036293399
235	0xbc89989d	-0.016796404
236	0x3d381b84	0.044948116
237	0xbcb71889	-0.022350566
238	0xbca80365	-0.020509431
239	0xbe9c0ed5	-0.30480066
240	0xbc1a88d7	-0.009432039
241	0x3e0274ed	0.12739916
242	0xbe8dbd2b	-0.27683386
243	0xbca950da	-0.020668436
244	0x3d89232a	0.0669616
245	0x3de54b4f	0.111960046
246	0xbd38ca41	-0.04511476
247	0xbd816483	-0.06317999
248	0x3ddb9e0a	0.10723503
249	0x3d6851f8	0.056718796
250	0xbc086700	-0.008325338
251	0x3d295846	0.04134395
252	0x3dd98ece	0.10622941
253	0xbddd2257	-0.107975654
254	0xbd814a9b	-0.06313058
255	0xbe341881	-0.17587472

bias f4 [64]
0	0xbd202f90	-0.03910786
1	0xbe1d4635	-0.15358813
2	0xbd5b8bdb	-0.053600173
3	0x3c6cffa9	0.014465251
4	0xbd9b0f08	-0.07571226
5	0xbd843946	-0.064562365
6	0xbe449b1b	-0.19199793
7	0xbd97bbd0	-0.07408869
8	0xbca58d69	-0.020209031
9	0x3c4d3518	0.012524866
10	0xbcfc2028	-0.030777052
11	0xbd078ab9	-0.03309128
12	0xbdbd41c4	-0.092410594
13	0xbd223084	-0.03959705
14	0xbe415a48	-0.18882096
15	0xbd259dee	-0.040433817
16	0x3cefb5da	0.029261518
17	0xbc5831cd	-0.013195467
18	0xbc60e92b	-0.013727467
19	0x3d0f1b5d	0.034938205
20	0x3cfd68bd	0.030933732
21	0xbd28fb81	-0.041255478
22	0xbd43b29a	-0.04777775
23	0x3c7b7bf3	0.015349376
24	0xbd55402f	-0.052063163
25	0x3daab7b5	0.083358206
26	0xbe0bac4f	-0.1363995
27	0xbd471116	-0.04860028
28	0xbe138373	-0.14405613
29	0xbc20a975	-0.009806027
30	0xbd1ca51a	-0.03824339
31	0xbda2df8f	-0.07952797
32	0x3cbc4a15	0.022984544
33	0xbdc2858b	-0.094981275
34	0x3df0c9f4	0.117572695
35	0x3ccac44a	0.024751801
36	0x3d057ff8	0.032592744
37	0xbe2cb68f	-0.16866516
38	0xbd39349e	-0.045216195
39	0x3c9f9d59	0.019484209
40	0x3b9e149e	0.004824235
41	0x3cabdce3	0.02097935
42	0x3e1063eb	0.14100616
43	0xbd9c4d22	-0.076318994
44	0x3e4c741f	0.19966172
45	0x3d8365fd	0.06415937
46	0xbce8655d	-0.028368646
47	0xbdffe619	-0.124950595
48	0xbdd9aba2	-0.106284395
49	0xbcdcc6c1	-0.026950242
50	0x3d9f2c6e	0.07772146
51	0xbc59634c	-0.013268303
52	0xbdda8ca2	-0.10671355
53	0x3e16fdae	0.14745209
54	0xbd0bbbdd	-0.034114707
55	0xbdcc03c5	-0.099616565
56	0xbcb42258	-0.021989033
57	0xbd3bb36e	-0.045825414
58	0xbda23113	-0.079195164
59	0x3be6f18d	0.007047838
60	0x3e37f07f	0.17962836
61	0xbd8c1f82	-0.06841947
62	0xbd0385ba	-0.032109953
63	0xbdc8e923	-0.09810092

weight f4 [64, 64]
0	0xbdf53ba9	-0.1197427
1	0xbd3af2cc	-0.045641705
2	0xbd154bc2	-0.0364492
3	0x3d23f5aa	0.040029205
4	0xbdeb921e	-0.11502479
5	0x3df29565	0.11844901
6	0x3bd90ad9	0.0066236076
7	0x3c21e740	0.009881794
8	0xbd8708a5	-0.06593446
9	0x3da1fef6	0.07909958
10	0xbd4645b2	-0.04840631
11	0x3ce64b0f	0.028111963
12	0xbd3c6395	-0.045993406
13	0xbb601540	-0.0034192353
14	0x3dc949d2	0.09828533
15	0xbdc8915a	-0.097933486
16	0xbd8b6534	-0.06806412
17	0xbe16e9ea	-0.14737669
18	0xbd55c63c	-0.052191004
19	0xbccb5536	-0.024820905
20	0xbe0b5081	-0.13604929
21	0xbd4d2cb0	-0.050091445
22	0xbd574f87	-0.052566078
23	0xbe2b7295	-0.16742928
24	0xbd21c95c	-0.039498672
25	0xbe1a4003	-0.15063481
26	0xbdb2df66	-0.08734016
27	0xbe1bac90	-0.15202546
28	0xbb8eb89f	-0.0043555046
29	0xbbfa290b	-0.0076342872
30	0xbe08cca1	-0.1335931
31	0x3d745671	0.05965275
32	0x3ba01d20	0.0048862845
33	0xbc0b6d81	-0.0085099945
34	0xbd804be0	-0.06264472
35	0xbd740640	-0.059576273
36	0x3cd18734	0.025577165
37	0xbd535903	-0.05159856
38	0x3d591c97	0.05300578
39	0xbcb5793f	-0.022152541
40	0xbcbe894c	-0.023258828
41	0x3c29a2d6	0.0103537645
42	0xbb29a7eb	-0.002588744
43	0xbdb28aa8	-0.08717853
44	0x3d2618d7	0.040551033
45	0x3cd0daa3	0.02549488
46	0xbd1d1713	-0.038352083
47	0xbd177073	-0.036972474
48	0x3dcecea5	0.10098008
49	0xbe11e7ca	-0.14248577
50	0x3d1af6b6	0.037832938
51	0x3e032814	0.12808257
52	0x3da4cf01	0.08047295
53	0x3d91a364	0.071112424
54	0xbe2ee996	-0.17081293
55	0xbda5a380	-0.08087826
56	0xbe36a43c	-0.17836088
57	0xbda51afe	-0.08061789
58	0xbcd09936	-0.025463682
59	0xbe0f72aa	-0.14008585
60	0xbbc446da	-0.0059898915
61	0xbe09bc4c	-0.13450736
62	0xbd2fa173	-0.04287858
63	0xbd4eecd4	-0.050518826
64	0xbcfd6079	-0.03092979
65	0xbb1f6d5c	-0.0024326658
66	0x3da223dd	0.07916997
67	0xbe14da1a	-0.14536324
68	0x3e0495e8	0.1294781
69	0xbd0ac42b	-0.033878487
70	0x3d897e89	0.06713588
71	0xbda38ab6	-0.079854414
72	0x3d0c4e3d	0.0342543
73	0xbdb122db	-0.08649226
74	0xbd8049c0	-0.06264067
75	0xbde11566	-0.109904096
76	0x3dc5daf1	0.096609004
77	0xbc421e90	-0.011848107
78	0xbd90efcb	-0.07076987
79	0x3db8d562	0.090250745
80	0x3d33bda1	0.043882016
81	0xbcdb6173	-0.026779866
82	0xbd90f082	-0.07077123
83	0x3d8c9ce9	0.06865866
84	0xbdefb33e	-0.117041096
85	0xbe43797c	-0.19089311
86	0x3dd2afc5	0.10287432
87	0xbce4d83c	-0.02793514
88	0xbd584203	-0.05279733
89	0x3dfc323b	0.12314268
90	0x3d332bb9	0.04374287
91	0xbdcc1b71	-0.099661715
92	0x3d45587f	0.0481801
93	0xbdcdc0e6	-0.10046558
94	0xbd5e3c35	-0.054256637
95	0xbd31827b	-0.043337326
96	0xbdf33bb8	-0.11876625
97	0x3dc3147e	0.09525393
98	0x3d9a9c21	0.075493105
99	0xbd905313	-0.07047095
100	0xbdfd4f33	-0.12368622
101	0xbd398e58	-0.045301765
102	0xbdc92803	-0.09822085
103	0x3e1fdcda	0.15611592
104	0xbe26cf1a	-0.1628994
105	0x3d2e29a9	0.0425202
106	0xbd855789	-0.06510837
107	0xbd59189e	-0.053001992
108	0xbe16071e	-0.14651152
109	0xbd01d1ea	-0.03169433
110	0x3c3deac6	0.011591619
111	0x3d377724	0.044791356
112	0xbd7ce362	-0.061740287
113	0x3d99b301	0.075048454
114	0xbca63161	-0.020287218
115	0xbb077dbd	-0.002067431
116	0x3d76b47e	0.060230725
117	0x3d7904f4	0.06079574
118	0xbd00d577	-0.031453576
119	0x3dd5638a	0.10419376
120	0xbcf8bf83	-0.030364757
121	0xbdc00db7	-0.09377616
122	0x3d99310a	0.074800566
123	0x3d89cbb3	0.06728306
124	0x3bfbe1ad	0.0076868148
125	0x3dfa37ef	0.122177
126	0xbdc65da1	-0.09685827
127	0x3d1de783	0.038550865
128	0x3b6515f0	0.0034955703
129	0xbcf794cf	-0.030222325
130	0xbd65cef9	-0.056105588
131	0xbd7e941d	-0.06215297
132	0x3dcbe471	0.09955681
133	0xbd401796	-0.046897493
134	0x3d60f996	0.054925524
135	0xbbce0ec0	-0.0062883794
136	0xbd567788	-0.052360088
137	0xbc2583aa	-0.010102192
138	0xbd95c2f6	-0.073125765
139	0xbdfd7985	-0.12376694
140	0x3d772208	0.06033519
141	0xbc2f1220	-0.010685474
142	0xbc6cd12d	-0.014454168
143	0xbdae17bf	-0.08500623
144	0x3d441194	0.047868326
145	0xbd1a6204	-0.03769113
146	0xbd4c0674	-0.04981084
147	0xbe0e227a	-0.1388034
148	0x3c159101	0.00912881
149	0xbc286689	-0.010278353
150	0x3d041a51	0.03225166
151	0xbe0db955	-0.1384023
152	0xbccd2fdf	-0.02504724
153	0xbba11cab	-0.0049167476
154	0xbd9fafd0	-0.077972054
155	0xbdc8fad9	-0.098134704
156	0xbddd57bd	-0.108077504
157	0x3ca64996	0.02029876
158	0x3e1e4f91	0.1546004
159	0xbe3b05e7	-0.1826397
160	0xbdf86b7c	-0.12129876
161	0xbe297079	-0.16546811
162	0x3d89bdcf	0.06725656
163	0x3d686c29	0.056743775
164	0xbdd14b55	-0.102194466
165	0x3c883159	0.016625093
166	0x3cdb3478	0.026758417
167	0xbd7ae734	-0.06125565
168	0xbd374350	-0.04474193
169	0x3ce44bc7	0.027868165
170	0x3dc47a63	0.09593656
171	0xbdf32983	-0.11873152
172	0x3db92f99	0.09042282
173	0x3de3d729	0.11125023
174	0xbb022792	-0.0019860012
175	0x3c3a152e	0.011357589
176	0x3c1acddf	0.009448498
177	0x3d3cba79	0.04607627
178	0xbc624d25	-0.013812338
179	0x3dc6880e	0.09693919
180	0xbc73b9ce	-0.014875842
181	0xbe047400	-0.12934875
182	0x3d467bbd	0.04845785
183	0x3d098b8d	0.03358035
184	0x3cc0e3f6	0.0235462
185	0xbdae315c	-0.08505508
186	0xbc38290e	-0.011240257
187	0x3e0cc5c2	0.13747314
188	0x3cbf1af2	0.023328278
189	0xbd73a3b6	-0.0594823
190	0x3d9232ab	0.071385704
191	0xbd6446ad	-0.055731464
192	0x3dd250a1	0.10269285
193	0xbe2a7aa3	-0.16648345
194	0xbd2d488e	-0.04230552
195	0x3d72a301	0.059237484
196	0xbd15de2b	-0.03658883
197	0x3df171d9	0.11789293
198	0x3d55cba2	0.052196153
199	0xbd926b44	-0.071493655
200	0xbe2d2e22	-0.1691213
201	0xbc9b3e1b	-0.018950513
202	0xbe30ceb5	-0.17266352
203	0xbbf93f0e	-0.0076063937
204	0xbd7fe052	-0.062469788
205	0x3d4808a8	0.04883638
206	0xbd656499	-0.05600414
207	0xbd2236e3	-0.039603125
208	0xbd48e6d8	-0.049048275
209	0xbd45810d	-0.048218776
210	0xbcf61dd1	-0.030043514
211	0xbe040b90	-0.12895036
212	0x3dcbf608	0.09959036
213	0xbc1ce8b6	-0.009576967
214	0x3c86706b	0.016411027
215	0xbda8f655	-0.08250109
216	0xbcf9d601	-0.030497553
217	0xbc8bda4b	-0.017071864
218	0xbdb09652	-0.08622421
219	0xbd4694dd	-0.04848181
220	0xbc9d65e3	-0.019213622
221	0x3d330215	0.043703157
222	0xbd0bc62d	-0.034124542
223	0x3d4b18b9	0.049584124
224	0x3cbfb406	0.023401272
225	0xbb5fc1c2	-0.0034142588
226	0x3c87a7e1	0.016559543
227	0x3cd2b0fa	0.025719155
228	0xbd0fe88e	-0.03513389
229	0xbdc25ee8	-0.09490758
230	0x3de0f2fd	0.10983846
231	0xbdae9de7	-0.08526211
232	0x3d35768a	0.0443025
233	0xbc14d429	-0.009083786
234	0x3dbc9fe7	0.092101865
235	0xbdcda135	-0.100405134
236	0xbe264e35	-0.16240771
237	0x3dea4da3	0.11440589
238	0x3d6e973f	0.05824971
239	0xbcc9718a	-0.024590272
240	0x3d468257	0.048464146
241	0xbd044761	-0.032294635
242	0xbe2c8246	-0.1684657
243	0xbe1e7935	-0.15475924
244	0xbcda43ad	-0.026643598
245	0x3ba1937b	0.004930911
246	0x3d16eb10	0.036845267
247	0xbd6461b0	-0.055757225
248	0x3dd64669	0.104626484
249	0x3cd1c13e	0.02560484
250	0x3cfc9b94	0.030835904
251	0xbd7e5e1b	-0.062101465
252	0xbe0b71a7	-0.13617574
253	0x3d202637	0.039098945
254	0x3c8ec591	0.017428191
255	0x3dc485fc	0.09595868

bias f4 [64]
0	0x3cddb270	0.027062625
1	0xbd2c63b5	-0.042087276
2	0xbb38814a	-0.0028153234
3	0x3d7c9838	0.061668605
4	0xbd37fa03	-0.044916164
5	0x3d5fea53	0.05466683
6	0x3dd6f0a0	0.10495114
7	0xbddd67da	-0.10810824
8	0xbd2ea4cd	-0.042637635
9	0x395db098	0.00021141989
10	0x3e091eea	0.13390699
11	0xbd8f6713	-0.07002082
12	0xbda06291	-0.078313
13	0x3c9b07ff	0.018924711
14	0x3a4a25fe	0.000771135
15	0x3d353ee7	0.04424944
16	0xbdf3195f	-0.118700735
17	0x3d6a1396	0.057147585
18	0x3d85847d	0.06519411
19	0xbe23e644	-0.16005808
20	0x3af48113	0.001865419
21	0x3b04d886	0.002027066
22	0x3dcc7a8f	0.09984314
23	0x3c72cd30	0.014819428
24	0x3c4ace57	0.012378297
25	0xbc2df65c	-0.010617819
26	0xbc23b8fc	-0.009992834
27	0x3e160eb4	0.14654046
28	0xbc0f3b09	-0.008742102
29	0xbd4a7445	-0.04942729
30	0x3cf8f46c	0.030389987
31	0xbdb9050b	-0.09034165
32	0xbdee8f0d	-0.116483785
33	0x3ddde651	0.10834945
34	0x3d056d23	0.032574784
35	0xbd6bb530	-0.05754584
36	0x3d0842ef	0.033266958
37	0xbd91e1c8	-0.071231425
38	0xbd9fa597	-0.07795256
39	0x3cd467c5	0.025928387
40	0xbd58fddc	-0.052976474
41	0x3ab8ce3d	0.001409955
42	0xbc4b9f91	-0.01242818
43	0x3d80ee18	0.06295413
44	0xbe1c92fc	-0.15290445
45	0xbcc060b4	-0.023483612
46	0xbe1be2c3	-0.15223221
47	0xbcf0484a	-0.029331345
48	0x3d911997	0.07084959
49	0xbd749218	-0.05970964
50	0xbc46d15f	-0.012134879
51	0x3d67bb5b	0.05657516
52	0xbd89c1e0	-0.06726432
53	0x3d4b2fcf	0.04960614
54	0xba4837a6	-0.0007637687
55	0x3b958e46	0.0045640795
56	0xbe17410b	-0.14770906
57	0xbe695dea	-0.22789732
58	0xbc096253	-0.008385259
59	0xbda6a970	-0.081377864
60	0x3d982f04	0.074308425
61	0xbcaa848c	-0.020815156
62	0x3d1788ed	0.036995817
63	0x3ba9deaa	0.0051840143

weight f4 [64, 64]
0	0x3d985a9d	0.07439158
1	0x3e25fa9a	0.16208878
2	0xbe0e086e	-0.13870403
3	0xbcb917d5	-0.022594372
4	0xbd08c9d3	-0.0333956
5	0x3e1cf035	0.15326007
6	0xbc9cbb62	-0.01913232
7	0x3d336505	0.04379751
8	0xbd828d4b	-0.06374606
9	0x3e3482fc	0.17628092
10	0x3d581ee4	0.052763835
11	0xbbf612c7	-0.0075095627
12	0x3c1f1514	0.009709615
13	0x3de03a32	0.109486
14	0x3e185e4b	0.1487972
15	0xbd9a9e05	-0.07549671
16	0xbd46860f	-0.048467692
17	0x3d07d52c	0.03316228
18	0xbd9b9287	-0.07596307
19	0xbe000d52	-0.12505081
20	0x3e6a94ef	0.22908376
21	0x3cef3acf	0.029202847
22	0x3c86817b	0.016419163
23	0xbd4a1c8f	-0.04934364
24	0x3e3687c1	0.17825224
25	0x3d53b4b1	0.051685993
26	0xbddb81c9	-0.10718114
27	0x3cec13be	0.028818008
28	0x3d4ddddd	0.050260413
29	0xbcfd77f2	-0.030940983
30	0xbd764b71	-0.06013054
31	0xbd2bb997	-0.04192504
32	0x3de70c49	0.1128164
33	0x3e1bbc6e	0.15208599
34	0x3c416d27	0.011805809
35	0x3dec144a	0.11527307
36	0x3d70a675	0.058752496
37	0x3d1a74b6	0.03770896
38	0xbda2c99e	-0.07948612
39	0xbad9e5bc	-0.0016624252
40	0xbdcf2979	-0.10115332
41	0xbe06894c	-0.13138312
42	0x3dd1054a	0.10206087
43	0x3d90c70b	0.070692144
44	0x3db2cf08	0.08730894
45	0x3d70c790	0.058784068
46	0x3d751e02	0.05984307
47	0x3d8d0f3d	0.06887672
48	0xbe08600c	-0.13317889
49	0xbe2bf663	-0.16793208
50	0x3ce68817	0.028141065
51	0xbe4a7e36	-0.19774708
52	0xbd05fc65	-0.032711405
53	0xbda4e074	-0.080506235
54	0xbacadb0a	-0.0015476656
55	0xbe5f9b79	-0.21836652
56	0x3cb35983	0.021893268
57	0x3d4ea6ae	0.050451927
58	0x3d61b3d5	0.05510314
59	0x3cbfaf8a	0.023399133
60	0xbd002d7c	-0.031293377
61	0xbdeaec73	-0.1147088
62	0x3e2187bc	0.15774435
63	0x3e1542ba	0.14576235
64	0x3dd570e1	0.104219206
65	0x3cb56cec	0.022146665
66	0x3d0fe995	0.03513487
67	0xbdb15bed	-0.086601116
68	0x3acd106c	0.0015645153
69	0x3d486d08	0.048932105
70	0xbdb3dbdd	-0.0878217
71	0x3d406eaa	0.046980537
72	0xbd9d0966	-0.07667808
73	0x3b39585d	0.0028281428
74	0x3b53c433	0.0032312989
75	0x3d079eaf	0.033110317
76	0x3cf9b431	0.03048143
77	0x3ca50191	0.020142348
78	0xbdb54336	-0.0885071
79	0xbde662b2	-0.112492934
80	0x3e00956d	0.12557001
81	0x3d967fe0	0.07348609
82	0x3d3b1a34	0.045679286
83	0xbdf34290	-0.1187793
84	0xbdeb26a5	-0.1148198
85	0x3c68a9b8	0.01420062
86	0xbc8b183d	-0.016979331
87	0x3d25e97c	0.04050587
88	0xbd477145	-0.048692007
89	0xbdc32f94	-0.09530559
90	0xbd848dd6	-0.064723656
91	0xbd466c74	-0.048443273
92	0x3db0f6de	0.08640836
93	0xbd838ffd	-0.06423948
94	0x3d94b5c9	0.07261235
95	0xbdbe8f99	-0.09304733
96	0xbdf30a98	-0.11867255
97	0x3d17ae24	0.037031308
98	0xbc0afb8a	-0.008482823
99	0x3d8bd1f8	0.06827158
100	0x3d29f958	0.04149756
101	0xbd6d959e	-0.058004014
102	0x3d90d5a6	0.07072
103	0x3c8d21a6	0.017227959
104	0x3dbc0f2e	0.09182583
105	0xbb98ffe9	-0.0046691787
106	0xbd2ac890	-0.041695178
107	0xbde78b9a	-0.11305924
108	0xbd62e8f5	-0.055397946
109	0xbd881c97	-0.06646078
110	0x3cd2ea11	0.025746377
111	0xbd13d280	-0.03608942
112	0xbdea039e	-0.11426471
113	0xbb4bbd0d	-0.0031088025
114	0xbdfed784	-0.1244345
115	0xbdf02368	-0.11725503
116	0xbde4b73d	-0.111677624
117	0x3d896fb7	0.06710761
118	0x3dd0fecc	0.10204849
119	0xbe068c15	-0.13139375
120	0x3de08bf2	0.109641925
121	0x3c72ee80	0.014827371
122	0x3d0c2ddb	0.03422342
123	0xbdb86301	-0.090032585
124	0xbc3d1e0c	-0.011542808
125	0xbd317c54	-0.04333146
126	0xbd389fd6	-0.045074306
127	0xbd8ece4e	-0.06972943
128	0xbc1c0a9c	-0.009524014
129	0x3ccbf9fd	0.024899477
130	0x3c17493a	0.009233767
131	0x3d8599b3	0.065234564
132	0x3dfdda07	0.12395101
133	0xbdf69922	-0.120409265
134	0x3c960050	0.018310696
135	0xbd743548	-0.059621125
136	0x3d89a381	0.06720639
137	0xba119be9	-0.00055545435
138	0xbd6f4415	-0.058414537
139	0xbd51148b	-0.051044982
140	0x3da63c83	0.081170104
141	0x3ca76671	0.02043459
142	0x3de9a7e7	0.11408978
143	0x3da9e564	0.08295706
144	0x3d417e66	0.047239684
145	0xbcaa024a	-0.020753045
146	0x3d74ec68	0.059795767
147	0x3e02a686	0.12758836
148	0x3d6bd47d	0.05757569
149	0xbc9ca30e	-0.01912072
150	0xbc89a195	-0.016800681
151	0x3cc4e85f	0.024036584
152	0xbc6188f0	-0.013765559
153	0xbd936dcb	-0.07198676
154	0xbd5309c4	-0.051522985
155	0xbdeeb4e7	-0.11655598
156	0x3dfe5ac2	0.124196544
157	0x3be80b65	0.0070814365
158	0x3b956203	0.004558803
159	0xbc1b4e77	-0.009479157
160	0xbd84895a	-0.0647151
161	0xbcbacfaa	-0.0228041
162	0x3d1ae6c5	0.037817735
163	0xbc11874a	-0.008882353
164	0xbbc131cb	-0.0058958284
165	0xbe13cdc6	-0.14433965
166	0x3def2528	0.11677009
167	0xbcc4ae36	-0.024008851
168	0x3dff9cbd	0.12481067
169	0x3c869375	0.016427735
170	0x3d9fe2bd	0.07806919
171	0x3dea6e31	0.114467986
172	0xbcd5ee70	-0.026114672
173	0x3a00d045	0.0004913847
174	0xbd454d88	-0.048169643
175	0x3d5d0c3e	0.053966753
176	0xbdc8ff0a	-0.0981427
177	0xbca2d155	-0.019875208
178	0x3d869266	0.06570892
179	0x3c950f09	0.018195646
180	0xbe1ea88e	-0.15493986
181	0x3dbc8789	0.09205539
182	0x3d41e41f	0.047336694
183	0xbc07ee09	-0.008296498
184	0x3df040f4	0.11731139
185	0xbd687efc	-0.056761727
186	0xbdef4419	-0.116829105
187	0xbe0f2c94	-0.13981849
188	0xbc7d72c5	-0.015469258
189	0xbdc47bb0	-0.09593904
190	0xba97fbb1	-0.0011595396
191	0x3d7ad40f	0.06123739
192	0x3c68e3eb	0.014214496
193	0xbdd0debd	-0.10198734
194	0x3c8f6216	0.017502826
195	0x3d212ced	0.039349485
196	0x3ba60c75	0.005067403
197	0xbe238a4b	-0.15970723
198	0x3d6b07f7	0.057380643
199	0x3d27d6e7	0.04097643
200	0x3c5b6eb5	0.013393094
201	0xbdff586f	-0.12468039
202	0x3d56c03f	0.052429434
203	0x3df6820c	0.12036523
204	0x3d33c816	0.04389199
205	0xbdb27b29	-0.08714897
206	0x3ca5c6a4	0.02023632
207	0xbdfe9451	-0.12430633
208	0x3d81ed58	0.06344098
209	0xbccd5e66	-0.025069427
210	0x3e0da54a	0.13832584
211	0xbdd5d31b	-0.10440656
212	0xbcc4a9eb	-0.024006804
213	0x3e498434	0.19679338
214	0x3df5e96e	0.12007414
215	0x3d972944	0.07380918
216	0xbe5f6fd3	-0.21820001
217	0x3c00a0b7	0.007850817
218	0x3dbca15c	0.09210464
219	0xbcf6d77b	-0.030132046
220	0x3c662417	0.01404669
221	0xbd86c93b	-0.065813504
222	0x3d19f39d	0.037585843
223	0xbe01737c	-0.1264171
224	0x3cea5f6a	0.02860995
225	0x3d7304fb	0.05933092
226	0xbd9de647	-0.077099375
227	0xbdbbcd16	-0.091699764
228	0x3decd85b	0.11564704
229	0x3e27e0c7	0.1639434
230	0x3d4a0d08	0.049328834
231	0x3d9aa228	0.0755046
232	0xbd9a0d47	-0.07522064
233	0xbd6b0045	-0.057373304
234	0xbcf26928	-0.029591158
235	0x3d9235ca	0.07139166
236	0xbd8b7b6f	-0.068106525
237	0x3d48a446	0.04898479
238	0x3d8b1448	0.06790978
239	0x3da77db5	0.081782736
240	0xbdabef68	-0.083952725
241	0x3da83d42	0.08214809
242	0xbd3884b0	-0.045048416
243	0x3d1a5cef	0.037686285
244	0x3d29441d	0.041324724
245	0x3d96f6af	0.0737127
246	0x3d318fe3	0.04335011
247	0xbcf5d852	-0.030010376
248	0x3dd3435f	0.103155844
249	0xbd7a81bd	-0.061158884
250	0xbdc11f80	-0.09429836
251	0xbdaa7d57	-0.08324688
252	0xbd914fb5	-0.07095281
253	0xbc9a90ba	-0.01886784
254	0x3dc6459f	0.09681248
255	0xbe6cb577	-0.23116098

bias f4 [64]
0	0xbdf8811c	-0.12134001
1	0x3c1bcbd5	0.009509047
2	0xbd5df4c9	-0.054188523
3	0xbdb634a1	-0.08896757
4	0xbc9f4c3f	-0.019445537
5	0x3db8d3f0	0.09024799
6	0xbdf0d4f2	-0.11759366
7	0xbcf58e2c	-0.02997502
8	0x3d683773	0.056693505
9	0x3d350899	0.044197652
10	0x3ddb6e2d	0.10714374
11	0xbca95321	-0.020669522
12	0xbd90c3b9	-0.07068581
13	0x3c90f798	0.017696187
14	0x3e1e28c0	0.15445232
15	0x3d602002	0.054718025
16	0xbdbcc913	-0.09218039
17	0x3de43984	0.11143783
18	0x3e0162c9	0.1263534
19	0x3d7d267f	0.06180429
20	0xbc752791	-0.014963047
21	0x3c9709ef	0.018437354
22	0xbbaefdf6	-0.005340333
23	0xbd7aa788	-0.061194927
24	0xbd926a79	-0.07149214
25	0x3c43c110	0.011947885
26	0x3cecc736	0.028903585
27	0xbe0cb583	-0.13741116
28	0xbdc2e04f	-0.0951544
29	0xbd47c823	-0.04877485
30	0x3d909b8a	0.07060917
31	0x3e0a373c	0.13497633
32	0xbd853e9d	-0.06506083
33	0xbc479f50	-0.012183979
34	0x3cd1d18f	0.02561262
35	0x3dd17e65	0.10229186
36	0xbc7d4415	-0.015458127
37	0xbde8afcb	-0.11361655
38	0xbc92a06e	-0.017898764
39	0x3d207864	0.039177313
40	0x3cd0da84	0.025494821
41	0xbccaa1a6	-0.024735283
42	0x3da999be	0.08281277
43	0x3dff4998	0.12465209
44	0xbd4739cf	-0.048639115
45	0xbd127d44	-0.035763994
46	0x3d5a04cd	0.053227235
47	0x3e09c356	0.13453421
48	0xbc00b644	-0.0078559555
49	0xbd25523d	-0.04036163
50	0x3e1870c8	0.14886773
51	0x3e0cf83c	0.13766569
52	0x3c3afcb5	0.011412789
53	0xbb95cb7e	-0.0045713773
54	0xbdc0cafc	-0.09413716
55	0x3e0474c3	0.12935166
56	0x3db80366	0.08985023
57	0xbdeca798	-0.115554035
58	0xbc6e3673	-0.014539349
59	0x3c20476f	0.009782656
60	0xbdad205f	-0.0845344
61	0xbde5f07a	-0.11227508
62	0xbcbadcc3	-0.022810346
63	0x3cad6ca8	0.021169975

weight f4 [3, 64]
0	0x3e14e68f	0.14541076
1	0x3d0cfed7	0.03442272
2	0xbbd7eead	-0.0065897317
3	0xbd462192	-0.04837186
4	0xbdf198d7	-0.1179673
5	0xbe521c1a	-0.20518532
6	0x3e34b47b	0.17646973
7	0x3e77a945	0.24185665
8	0xbd30c8b3	-0.04316015
9	0x3d84e708	0.06489378
10	0x3d46809f	0.048462506
11	0xbe311512	-0.17293194
12	0x3df7a593	0.12092128
13	0xbdd23f38	-0.10265964
14	0xbdd40a03	-0.10353472
15	0x3aea4119	0.0017872184
16	0x3cebe466	0.028795432
17	0xbdd63155	-0.10458628
18	0xbd8d5841	-0.06901599
19	0x3d03e231	0.032198135
20	0xbd862a45	-0.06551031
21	0x3e1aaedc	0.15105766
22	0xbda33a7e	-0.07970141
23	0x3e154f20	0.14580965
24	0x3dee79d7	0.11644333
25	0x3e1f8de2	0.15581468
26	0x3db81b17	0.08989542
27	0x3d56cff3	0.05244441
28	0x3dc29c5e	0.09502481
29	0xbb811067	-0.003938723
30	0xbdfaeb06	-0.122518584
31	0xbd35bb3b	-0.04436801
32	0x3dc0899e	0.094012484
33	0xbd96b760	-0.07359195
34	0x3c984e8e	0.018592145
35	0xbdfd7caf	-0.12377297
36	0xbd593413	-0.053028177
37	0x3df3b558	0.11899823
38	0x3c7137bd	0.014722762
39	0x3d6453b0	0.055743873
40	0xbdbdd662	-0.09269406
41	0xbda8d77e	-0.08244227
42	0x3dc2a937	0.095049314
43	0xbdda6736	-0.10664217
44	0x3dca5456	0.09879367
45	0x3d0d03cf	0.03442746
46	0x3e02da1b	0.12778513
47	0xbdebc0ed	-0.11511407
48	0x3c21442f	0.009842916
49	0xbe02d9b2	-0.12778357
50	0xbe4c1e9f	-0.19933556
51	0x3dbd0463	0.09229352
52	0x3d450368	0.04809895
53	0xbe1085a9	-0.14113487
54	0x3e00671e	0.12539336
55	0x3df24a00	0.11830521
56	0x3d9eeec7	0.07760387
57	0xbda41a33	-0.080128096
58	0xbd7d60b0	-0.061859787
59	0xbe13880b	-0.14407365
60	0xbd9a516d	-0.07535062
61	0xbd6838b9	-0.05669472
62	0x3d3d4aa9	0.04621378
63	0xbdc30dde	-0.09524129
64	0x3abea1b5	0.0014544042
65	0x3d047a0f	0.032342967
66	0x3da13c2c	0.07872805
67	0xbe048cfa	-0.12944403
68	0xbe17504d	-0.14776726
69	0x3d58bd26	0.05291476
70	0x3d057d89	0.032590423
71	0xbcf432b8	-0.02980934
72	0xbd9f6df0	-0.07784641
73	0xbc947e15	-0.018126527
74	0x3d5dd9ec	0.054162905
75	0x3e443d3d	0.19163986
76	0x3db669af	0.08906876
77	0x3e13ee58	0.1444639
78	0x3de590c2	0.11209251
79	0xbe0d4fe1	-0.13800003
80	0x3c89e286	0.016831648
81	0xbd30c24c	-0.043154046
82	0xbe25734a	-0.1615726
83	0x3daa9797	0.08329695
84	0x3d0c2520	0.034215093
85	0xbe16c0c1	-0.14721967
86	0xbd1e1d9e	-0.038602464
87	0x3e1d1bff	0.15342711
88	0xbd415c55	-0.047207195
89	0xbddcfad4	-0.10790029
90	0x3c0bdc9b	0.008536483
91	0x3dea58a2	0.114426866
92	0xbe129219	-0.14313544
93	0xbdcb6d79	-0.099329896
94	0x3dd5368c	0.104107946
95	0x3d9ea0eb	0.077455364
96	0x3dbd3e8c	0.092404455
97	0xbd230120	-0.039795995
98	0xbe289a38	-0.1646508
99	0xbd62f0f3	-0.05540557
100	0x3d9a0eca	0.07522352
101	0x3a48fb02	0.00076667976
102	0xbc4cbe60	-0.012496561
103	0xbde644b1	-0.112435706
104	0xbb25cab0	-0.0025297813
105	0xbe28eadc	-0.16495842
106	0x3d20b604	0.039236084
107	0x3d4be398	0.049777597
108	0x3ce74edd	0.028235847
109	0x3da63245	0.08115057
110	0xbdc94606	-0.09827809
111	0xbe27023a	-0.16309443
112	0x3d994540	0.074839115
113	0x3cb925db	0.022601059
114	0x3d9a6867	0.075394444
115	0xbe4467d6	-0.19180235
116	0xbdf5eef9	-0.12008471
117	0xbd34b2b8	-0.044115752
118	0x3cf0b387	0.02938248
119	0x3dc9aed7	0.09847801
120	0x3d04cf5a	0.03242431
121	0xbcd52bd2	-0.026021872
122	0xbce59db1	-0.028029295
123	0xbe26bd04	-0.16283041
124	0xbe1486f7	-0.1450461
125	0x3d4ca23f	0.049959417
126	0x3d1e8843	0.038704168
127	0xbd894188	-0.06701952
128	0xbda81342	-0.08206798
129	0x3d019a27	0.03164115
130	0x3e0879c4	0.133277
131	0xbd3282a4	-0.04358162
132	0x3c32d899	0.010915899
133	0xbd5a1f3b	-0.05325244
134	0x3e37a35e	0.17933413
135	0xbe0422b6	-0.12903866
136	0x3e0c0281	0.1367283
137	0x3ce74b95	0.028234283
138	0xbda5e45f	-0.08100199
139	0xbd88e996	-0.06685178
140	0xbc15a536	-0.009133628
141	0xbdcd3b15	-0.10021035
142	0x3db9a4ce	0.09064637
143	0xbc48b39d	-0.012249854
144	0x3d882cb0	0.066491485
145	0x3d7afe6c	0.06127779
146	0x3d828974	0.06373873
147	0x3d6d7108	0.057969123
148	0x3dc4f91a	0.09617825
149	0xbdb5349e	-0.088479266
150	0xbc7d8451	-0.015473441
151	0xbcd6949d	-0.026193911
152	0xbdd465eb	-0.10371002
153	0xbd2cae4b	-0.042158406
154	0xbdca522b	-0.098789535
155	0xbc2f8fea	-0.010715464
156	0xbdf1a88a	-0.117997244
157	0xbdd7f0cb	-0.105439745
158	0x3d8ba471	0.06818474
159	0xbd8ab210	-0.06772244
160	0x3df5193f	0.11967706
161	0x3c2b6840	0.010461867
162	0x3c99d7b5	0.018779615
163	0x3dabaef0	0.08382976
164	0x3e0eda87	0.13950549
165	0xbda49d0a	-0.08037765
166	0xbd72c657	-0.059271183
167	0xbd4fa5c4	-0.050695196
168	0x3d6cd05a	0.057815887
169	0xbc0b58c0	-0.008505046
170	0xbc631643	-0.013860288
171	0x3d88c2ed	0.06677804
172	0x3a885d9d	0.0010403875
173	0x3dcbd5d9	0.099528976
174	0x3d14ac14	0.03629692
175	0x3dbe32fe	0.0928707
176	0xbdc55ebe	-0.09637211
177	0x3dd9ed0b	0.106409155
178	0xbd9cae06	-0.0765038
179	0x3dc94308	0.09827238
180	0x3ca4f891	0.020138057
181	0xbd4de72f	-0.050269302
182	0xbc5812fc	-0.01318812
183	0x3e0c7968	0.13718188
184	0xbc6e4de2	-0.014544936
185	0xbd2c946b	-0.04213373
186	0xbdd8cc9e	-0.10585903
187	0xbd7426bb	-0.05960725
188	0xbe4166b2	-0.18886831
189	0x3dec25d4	0.11530653
190	0x3d19ad49	0.037518773
191	0xbdb4e06c	-0.088318676

bias f4 [3]
0	0xbdefbbc4	-0.11705735
1	0xbcb9a879	-0.022663342
2	0xbcecf592	-0.02892569

exp_avg f4 [64, 3]
0	0xb89e9e08	-7.563463e-05
1	0x3894e6c8	7.100176e-05
2	0x39b83eb0	0.0003514192
3	0x38cd263d	9.782284e-05
4	0x38494703	4.798827e-05
5	0x3870525e	5.729717e-05
6	0x39dfcfe9	0.0004268878
7	0xb9bb84a4	-0.00035766244
8	0xb92cf9ac	-0.00016496208
9	0xba87b236	-0.0010352794
10	0xba29aa07	-0.00064721744
11	0x39c1f9a8	0.00036997837
12	0xb996df4e	-0.00028776604
13	0x38fa0f9b	0.00011923836
14	0x3750981d	1.2433183e-05
15	0x395b8221	0.00020933944
16	0xb9fd62a6	-0.0004832942
17	0xb9ed9104	-0.00045312208
18	0xb8a26937	-7.74436e-05
19	0x39219edb	0.00015413335
20	0xb9db0d60	-0.000417809
21	0xb7fd730f	-3.0213529e-05
22	0xb9043f01	-0.00012611972
23	0x392c473f	0.0001642974
24	0xb9ae649e	-0.00033262832
25	0x39c34170	0.00037242053
26	0x398b4325	0.00026562173
27	0xb897a56f	-7.2310555e-05
28	0xb95550d8	-0.0002034338
29	0x3a075e4d	0.0005163893
30	0x39be6e85	0.00036321967
31	0x388ed138	6.810058e-05
32	0xb716cbae	-8.98812e-06
33	0x3945d1d1	0.00018865547
34	0xb9387999	-0.00017592906
35	0x380e9bc9	3.4000524e-05
36	0xb98ee09a	-0.00027251692
37	0xb738ab7f	-1.1007184e-05
38	0x3870aea1	5.7383095e-05
39	0x38de34a5	0.00010595591
40	0xb9b39e44	-0.00034259458
41	0x3948d25d	0.00019151853
42	0xb93d1c97	-0.00018035095
43	0x3a0ae9e2	0.00052991335
44	0xb9b55670	-0.0003458741
45	0x39c38c6b	0.00037297918
46	0xb9314578	-0.00016905915
47	0xb6e77550	-6.8979934e-06
48	0xb9a2ffba	-0.0003108958
49	0x39e6b2f5	0.00044002352
50	0x39a7e5d6	0.00032023963
51	0x39dd7aa3	0.00042243776
52	0x389fec9d	7.6257835e-05
53	0x3983c89c	0.00025135733
54	0x3b28c9b6	0.0025754995
55	0xba1b5f16	-0.00059269497
56	0xb8978ef1	-7.226866e-05
57	0x39cb370d	0.00038760193
58	0x3a75164b	0.000934933
59	0x3a54bd7a	0.00081153924
60	0xba392950	-0.0007063346
61	0xb9b25f16	-0.0003402165
62	0xba896222	-0.0010481516
63	0xb3d03d96	-9.696957e-08
64	0x351261e6	5.45317e-07
65	0xb57e19a6	-9.4659697e-07
66	0x3a61d0e1	0.0008614194
67	0xb9851bb3	-0.00025388374
68	0x385bbb19	5.2387917e-05
69	0xb90656d6	-0.00012811585
70	0xb9bfdaa7	-0.00036593268
71	0xb9de33dd	-0.0004238178
72	0x39e9c05a	0.00044584536
73	0x39c8b176	0.0003827919
74	0x3910e9a2	0.00013819945
75	0xb91568fe	-0.0001424886
76	0x38dcd6a6	0.00010530399
77	0x396e49ac	0.00022724894
78	0x3ae75acc	0.0017650961
79	0x398d3e67	0.0002694011
80	0x39aa5ad9	0.00032492614
81	0x387325ca	5.797091e-05
82	0x399cce16	0.00029908185
83	0xb912c6ab	-0.00013997655
84	0xb9157162	-0.00014251986
85	0x37faba04	2.9888943e-05
86	0x39190daf	0.00014596315
87	0x3896b4a2	7.186203e-05
88	0xb941368f	-0.00018426239
89	0xb9502a4e	-0.00019852186
90	0x396ceaa2	0.00022594121
91	0x39af9848	0.0003349206
92	0x39803bfc	0.00024458754
93	0xb82b2f7d	-4.0813804e-05
94	0xb8a9e891	-8.101867e-05
95	0x3795d927	1.7863304e-05
96	0x39ebc52f	0.00044969606
97	0xb9722a01	-0.00023094566
98	0xb858ae7a	-5.1660907e-05
99	0x39212a7c	0.00015369983
100	0x3945e37c	0.00018872129
101	0x38f09b7f	0.00011473055
102	0x3a02611e	0.0004973578
103	0xb95169c1	-0.0001997119
104	0x38897c10	6.5557775e-05
105	0xb83725ac	-4.3665685e-05
106	0xb86d4cf5	-5.6576875e-05
107	0x38c3180f	9.302806e-05
108	0xb8b4a463	-8.613688e-05
109	0x38cbad0d	9.7120275e-05
110	0x37c46f9b	2.3416991e-05
111	0xb98d6837	-0.00026971262
112	0x398930d9	0.0002616707
113	0x3900b213	0.00012273369
114	0x3a6a5d62	0.0008940307
115	0x38713006	5.7503603e-05
116	0xb95a61a7	-0.00020826478
117	0x39f402c1	0.00046541358
118	0xb9055402	-0.00012715164
119	0xb97211b0	-0.00023085508
120	0xb9dad547	-0.00041739104
121	0xb88f1347	-6.822362e-05
122	0x3946f4fe	0.00018974018
123	0xb82bba97	-4.0943352e-05
124	0xb9c154e5	-0.0003687508
125	0xba07dedf	-0.00051830517
126	0xb5828061	-9.723118e-07
127	0x37d3328a	2.5176694e-05
128	0x3862b37f	5.4049768e-05
129	0xb6b76904	-5.4660504e-06
130	0xb97b709d	-0.00023979177
131	0x39b22402	0.00033977634
132	0xb8dae52c	-0.00010437737
133	0xb933c3fb	-0.00017143779
134	0x388e4a90	6.784976e-05
135	0xb8f7de68	-0.00011819304
136	0xb9b9f9c4	-0.0003547204
137	0xba3b0a83	-0.000713505
138	0xb8b4a1f6	-8.6132364e-05
139	0x382481a9	3.9221402e-05
140	0xb97b2857	-0.00023952253
141	0x39b77b05	0.00034996137
142	0xb976b9b1	-0.00023529564
143	0x3a8d7578	0.0010792455
144	0x393bceaa	0.00017910698
145	0x39393e46	0.00017666174
146	0xb8086565	-3.2519358e-05
147	0x3982c980	0.0002494566
148	0xb9f4acc4	-0.00046668027
149	0x397eae4a	0.00024288255
150	0x3a39968f	0.0007079625
151	0xba56adc8	-0.00081893476
152	0x39879ed0	0.0002586753
153	0xba330059	-0.000682836
154	0x38c66c1b	9.461512e-05
155	0x375632c9	1.2767218e-05
156	0xb98d074e	-0.00026899058
157	0x39a1ee89	0.00030886036
158	0x39598f99	0.00020748227
159	0x396cb555	0.00022574265
160	0xb7312205	-1.0557943e-05
161	0x390d9f97	0.0001350626
162	0xb9f0fc06	-0.0004596414
163	0xb97d50ad	-0.00024158014
164	0xb6ee27ea	-7.0975993e-06
165	0xb54e55cc	-7.686583e-07
166	0xb58e9806	-1.0624069e-06
167	0xb594b71d	-1.1080152e-06
168	0xba484d2e	-0.0007640895
169	0x35c86672	1.4930977e-06
170	0x37de66e6	2.6512378e-05
171	0x394169b6	0.00018445295
172	0x39621c61	0.00021563612
173	0x39a337f1	0.00031131462
174	0x3782f5e8	1.5611717e-05
175	0xb9106873	-0.0001377182
176	0x39c02bc3	0.000366537
177	0x32e58451	2.671928e-08
178	0xb6836eb3	-3.9169913e-06
179	0xb68b8c6d	-4.1588705e-06
180	0xb96b8238	-0.00022459857
181	0x381060d5	3.4422457e-05
182	0xb762545b	-1.349029e-05
183	0x36947a8c	4.42501e-06
184	0x37eb44f5	2.8046294e-05
185	0xb89a7db1	-7.366704e-05
186	0x390b7df4	0.00013302994
187	0xb9b9c31e	-0.00035431323
188	0xba7d0cc7	-0.0009653088
189	0xb829e225	-4.0503353e-05
190	0xb90acee4	-0.00013237778
191	0xb9e9b247	-0.0004457405

exp_avg_sq f4 [64, 3]
0	0x33cc0484	9.500312e-08
1	0x34883354	2.536932e-07
2	0x340a2b3e	1.2867983e-07
3	0x3383a35a	6.129876e-08
4	0x33053579	3.101511e-08
5	0x33563efb	4.9883038e-08
6	0x341c3713	1.4548668e-07
7	0x34b6d986	3.405841e-07
8	0x33d84900	1.00715624e-07
9	0x34b24d2f	3.3211242e-07
10	0x35171757	5.628585e-07
11	0x34278ff9	1.5605464e-07
12	0x343970f9	1.7270567e-07
13	0x3474b6c6	2.2790763e-07
14	0x345670ec	1.9971384e-07
15	0x3485af29	2.4900626e-07
16	0x348caff4	2.6205055e-07
17	0x345f9a8c	2.0824717e-07
18	0x34269930	1.5515684e-07
19	0x33a5bde6	7.7179536e-08
20	0x346a9d95	2.1850276e-07
21	0x34c0f3bc	3.5940127e-07
22	0x3571c65d	9.006815e-07
23	0x34d87e86	4.0325193e-07
24	0x34dc7e43	4.107006e-07
25	0x34593f64	2.0232761e-07
26	0x3502a909	4.867475e-07
27	0x344f443a	1.9303198e-07
28	0x34216783	1.5031951e-07
29	0x33fc1248	1.173799e-07
30	0x343e6bba	1.773432e-07
31	0x347fbebc	2.3818114e-07
32	0x344e06d1	1.9187725e-07
33	0x34c52e9c	3.6728022e-07
34	0x341cd975	1.4607743e-07
35	0x342b0ce3	1.5930304e-07
36	0x3462393f	2.1068716e-07
37	0x3553f861	7.8965064e-07
38	0x34b4ce2f	3.367763e-07
39	0x349a8036	2.877802e-07
40	0x34b737e0	3.412706e-07
41	0x33e41d58	1.0622415e-07
42	0x34111106	1.351037e-07
43	0x3458a53a	2.0176677e-07
44	0x345e7d25	2.0720888e-07
45	0x349abdb1	2.8822754e-07
46	0x3491c7cc	2.7153726e-07
47	0x34aa3d05	3.1709365e-07
48	0x34c5b886	3.6828368e-07
49	0x34b5e18a	3.3877978e-07
50	0x34863972	2.5001242e-07
51	0x348aa37b	2.582345e-07
52	0x33c327d5	9.0876405e-08
53	0x34769d9b	2.2967872e-07
54	0x3536f9be	6.8163706e-07
55	0x34846b3d	2.4664942e-07
56	0x34a2a59e	3.0295354e-07
57	0x350495c1	4.939175e-07
58	0x34182fb8	1.4173463e-07
59	0x3433e691	1.6754554e-07
60	0x34e4a9ef	4.2591952e-07
61	0x33feea5c	1.18704264e-07
62	0x34917503	2.7093492e-07
63	0x32bffc76	2.2350132e-08
64	0x3284aa11	1.544416e-08
65	0x338cf6a4	6.564122e-08
66	0x35615182	8.393764e-07
67	0x34d159c3	3.8994594e-07
68	0x3484ae24	2.471362e-07
69	0x34b301c7	3.334264e-07
70	0x34a25aca	3.024091e-07
71	0x34461157	1.8446495e-07
72	0x34ad3dbf	3.2268687e-07
73	0x351fab7e	5.948167e-07
74	0x33faa33a	1.1671223e-07
75	0x34a1884b	3.0087753e-07
76	0x343bec02	1.7501591e-07
77	0x34b09adb	3.2895227e-07
78	0x3510b068	5.3900885e-07
79	0x35036436	4.894713e-07
80	0x345aa16a	2.0361554e-07
81	0x347ef28e	2.3743834e-07
82	0x342d4593	1.6137191e-07
83	0x3492cd73	2.7344103e-07
84	0x340fde18	1.339871e-07
85	0x338fb943	6.692655e-08
86	0x33c8b788	9.34661e-08
87	0x3605c5c4	1.993366e-06
88	0x35064501	5.0019304e-07
89	0x3493d2c7	2.7534244e-07
90	0x3586ddc3	1.0048319e-06
91	0x34fc0532	4.6942438e-07
92	0x34971016	2.8137646e-07
93	0x3446ca07	1.8513684e-07
94	0x33beb7b7	8.880982e-08
95	0x338b6f6f	6.4929615e-08
96	0x350109b7	4.807038e-07
97	0x34b3a2d9	3.3459835e-07
98	0x340f73ac	1.3359994e-07
99	0x3341b003	4.5096396e-08
100	0x33e39e81	1.0599343e-07
101	0x3378150d	5.7761145e-08
102	0x33de3d3a	1.03488176e-07
103	0x33c06232	8.958558e-08
104	0x33fa5fe6	1.1658976e-07
105	0x33c74a6f	9.280199e-08
106	0x33ff381d	1.188457e-07
107	0x33dbf3d3	1.02423336e-07
108	0x342416a9	1.5281934e-07
109	0x3419115c	1.425555e-07
110	0x33b3d80c	8.374636e-08
111	0x341f6175	1.4843484e-07
112	0x348a5428	2.5765735e-07
113	0x33c2a9dc	9.064726e-08
114	0x34bd10f3	3.5216326e-07
115	0x34d89ff4	4.0349516e-07
116	0x343ce093	1.7590564e-07
117	0x340327b9	1.2214777e-07
118	0x33b1c126	8.277338e-08
119	0x33cdf889	9.591265e-08
120	0x35afa0ab	1.3085277e-06
121	0x352f8e76	6.539989e-07
122	0x3513d7c6	5.507576e-07
123	0x34e0f558	4.1901762e-07
124	0x35a45470	1.2243527e-06
125	0x34923213	2.7231053e-07
126	0x35b41d6d	1.3419609e-06
127	0x350c674e	5.230439e-07
128	0x34613041	2.0972313e-07
129	0x354110ff	7.1922835e-07
130	0x35dfc93b	1.667336e-06
131	0x3474f6aa	2.2814007e-07
132	0x347022f8	2.2364463e-07
133	0x33b09dd9	8.224351e-08
134	0x3438b5e7	1.7202511e-07
135	0x340ff010	1.3405247e-07
136	0x346c5a22	2.2012003e-07
137	0x347155d2	2.2476095e-07
138	0x346b1168	2.1892413e-07
139	0x340a34bf	1.287144e-07
140	0x349506d9	2.7758395e-07
141	0x3507e541	5.062503e-07
142	0x350a7f8f	5.159463e-07
143	0x34b35067	3.3399849e-07
144	0x34aa354f	3.1703755e-07
145	0x340fed3f	1.3404222e-07
146	0x335c6ad4	5.13199e-08
147	0x34825b24	2.42807e-07
148	0x34ba90cc	3.4750553e-07
149	0x33dedb1d	1.0377537e-07
150	0x35246296	6.123822e-07
151	0x355661e2	7.986365e-07
152	0x351c0a67	5.8129666e-07
153	0x347cdfc8	2.355074e-07
154	0x33bb907d	8.734148e-08
155	0x33c5d75c	9.212701e-08
156	0x34f5c861	4.57806e-07
157	0x344d356a	1.9111545e-07
158	0x340a25c8	1.2865996e-07
159	0x3433dc82	1.6750894e-07
160	0x33c80b9f	9.3153396e-08
161	0x3460b649	2.092794e-07
162	0x3481c971	2.417469e-07
163	0x35200d64	5.962413e-07
164	0x349640d6	2.7986852e-07
165	0x337a84e6	5.832853e-08
166	0x330a6548	3.2222744e-08
167	0x32f90bbb	2.899275e-08
168	0x34ee0a1b	4.4338307e-07
169	0x343a9e05	1.7380087e-07
170	0x3444f02e	1.83413e-07
171	0x340e4fa6	1.3253756e-07
172	0x33dea272	1.0367229e-07
173	0x33d6ce85	1.0002717e-07
174	0x356ab5e2	8.743647e-07
175	0x35183b87	5.6711036e-07
176	0x34ee2b6b	4.4362545e-07
177	0x331837d1	3.5441023e-08
178	0x34b60164	3.3901154e-07
179	0x34b107f5	3.297461e-07
180	0x34c45f5e	3.6577234e-07
181	0x33f9206e	1.1600865e-07
182	0x3426ffd4	1.5553024e-07
183	0x33202589	3.728704e-08
184	0x3353fe48	4.9358533e-08
185	0x33644740	5.315019e-08
186	0x347af243	2.3371199e-07
187	0x33877c16	6.3089985e-08
188	0x344a747d	1.8855094e-07
189	0x3445c1d1	1.8417565e-07
190	0x34e3453c	4.233242e-07
191	0x3429fec2	1.5832032e-07

exp_avg f4 [64]
0	0xb9513001	-0.00019949676
1	0xb891a1cc	-6.944276e-05
2	0xb9a37185	-0.0003117436
3	0xb9fc61b8	-0.00048137992
4	0x38ff964b	0.00012187342
5	0x3a811572	0.000984831
6	0xb8951274	-7.108311e-05
7	0xba083761	-0.00051962404
8	0xb913451d	-0.00014044759
9	0x38d4b295	0.00010142211
10	0x392d93fd	0.00016553696
11	0x3a03a458	0.00050217425
12	0x39de5baa	0.00042411435
13	0xb858e1e6	-5.1708797e-05
14	0x3a06b1db	0.0005138197
15	0x3984dfd0	0.00025343755
16	0xb9bf1299	-0.00036444215
17	0xb924b6d7	-0.00015708372
18	0xba0341f6	-0.00050070824
19	0x3a72e30b	0.00092653994
20	0x39468269	0.00018931333
21	0xb3b840a7	-8.579928e-08
22	0x39e1290d	0.0004294593
23	0x3a4efc29	0.0007895851
24	0xba0c8738	-0.00053607253
25	0x3a0d8d64	0.0005399792
26	0x3925f26b	0.00015825934
27	0x372fb86a	1.047375e-05
28	0xb92d2081	-0.00016510674
29	0xb844ace3	-4.6891055e-05
30	0xbab02c32	-0.0013440906
31	0x3854b714	5.0715244e-05
32	0x390a0323	0.00013161874
33	0xb93dd351	-0.00018103166
34	0xba5ce7ee	-0.0008426894
35	0xb9522063	-0.00020039226
36	0xb8d70d2f	-0.000102544545
37	0xb96521a4	-0.00021851674
38	0xb9b85f2d	-0.00035166126
39	0x3a0ff6ec	0.00054918113
40	0x3a0ef17d	0.00054528547
41	0xba7cc6b8	-0.00096426485
42	0x3aa33d4e	0.0012454183
43	0x3a028113	0.000497834
44	0x38563018	5.1066367e-05
45	0xba6fe8e5	-0.00091518305
46	0x39621660	0.00021561375
47	0x39ffea8e	0.00048812147
48	0xb8421ac6	-4.627814e-05
49	0xba172e43	-0.00057670864
50	0xba074cd5	-0.000516129
51	0x3992cf89	0.00028001916
52	0xb938488a	-0.0001757463
53	0x3994ac7c	0.0002835727
54	0xb9d98c4e	-0.00041494
55	0x352d1a34	6.448565e-07
56	0x392b988d	0.0001636466
57	0xb9e00ea6	-0.00042735523
58	0xbaa344d7	-0.0012456429
59	0x362930a3	2.5211273e-06
60	0xb8ce7ebe	-9.846453e-05
61	0x3787d248	1.6191174e-05
62	0xb99dd803	-0.00030106315
63	0x397dfd94	0.00024222425
